ckpt/ckpt_iter100000.pth (torch, 728379 bytes, 462 tensors)

net.rotations.0.LU f4 [2, 2]
0.0 0.0 0.0 0.0
00000000: 0000 0000 0000 0000 0000 0000 0000 0000

net.rotations.0.LU_init f4 [2, 2]
1.0 0.0 0.0 1.0
00000000: 0000 803f 0000 0000 0000 0000 0000 803f

net.rotations.0.ones_mat f4 [2, 2]
1.0 1.0 1.0 1.0
00000000: 0000 803f 0000 803f 0000 803f 0000 803f

net.rotations.0.I f4 [2, 2]
1.0 0.0 0.0 1.0
00000000: 0000 803f 0000 0000 0000 0000 0000 803f

net.flow_mapping.0.scale_layers.0.b f4 [1, 2]
-0.3376997 -0.33261937
00000000: fae6 acbe 164d aabe

net.flow_mapping.0.scale_layers.0.logs f4 [1, 2]
-0.09432261 -0.09065625
00000000: 362c c1bd fca9 b9bd

net.flow_mapping.0.scale_layers.0.b_init f4 [1, 2]
0.0 0.0
00000000: 0000 0000 0000 0000

net.flow_mapping.0.scale_layers.0.logs_init f4 [1, 2]
0.0 0.0
00000000: 0000 0000 0000 0000

net.flow_mapping.0.scale_layers.1.b f4 [1, 2]
-0.12607972 -0.21597044
00000000: 0b1b 01be 5b27 5dbe

net.flow_mapping.0.scale_layers.1.logs f4 [1, 2]
-0.09042064 -0.08993202
00000000: 752e b9bd 472e b8bd

net.flow_mapping.0.scale_layers.1.b_init f4 [1, 2]
0.0 0.0
00000000: 0000 0000 0000 0000

net.flow_mapping.0.scale_layers.1.logs_init f4 [1, 2]
0.0 0.0
00000000: 0000 0000 0000 0000

net.flow_mapping.0.scale_layers.2.b f4 [1, 2]
-0.07947357 -0.08962039
00000000: 0ac3 a2bd e58a b7bd

net.flow_mapping.0.scale_layers.2.logs f4 [1, 2]
-0.06564205 -0.07586566
00000000: 576f 86bd 755f 9bbd

net.flow_mapping.0.scale_layers.2.b_init f4 [1, 2]
0.0 0.0
00000000: 0000 0000 0000 0000

net.flow_mapping.0.scale_layers.2.logs_init f4 [1, 2]
0.0 0.0
00000000: 0000 0000 0000 0000

net.flow_mapping.0.scale_layers.3.b f4 [1, 2]
-0.14040697 0.0076362197
00000000: d8c6 0fbe 4139 fa3b

net.flow_mapping.0.scale_layers.3.logs f4 [1, 2]
-0.06772605 -0.05250625
00000000: f5b3 8abd cb10 57bd

net.flow_mapping.0.scale_layers.3.b_init f4 [1, 2]
0.0 0.0
00000000: 0000 0000 0000 0000

net.flow_mapping.0.scale_layers.3.logs_init f4 [1, 2]
0.0 0.0
00000000: 0000 0000 0000 0000

net.flow_mapping.0.scale_layers.4.b f4 [1, 2]
-0.07650039 -0.14313301
00000000: 3dac 9cbd 7691 12be

net.flow_mapping.0.scale_layers.4.logs f4 [1, 2]
-0.04804732 -0.066909306
00000000: 44cd 44bd bf07 89bd

net.flow_mapping.0.scale_layers.4.b_init f4 [1, 2]
0.0 0.0
00000000: 0000 0000 0000 0000

net.flow_mapping.0.scale_layers.4.logs_init f4 [1, 2]
0.0 0.0
00000000: 0000 0000 0000 0000

net.flow_mapping.0.scale_layers.5.b f4 [1, 2]
-0.1380501 -0.07442246
00000000: 015d 0dbe cd6a 98bd

net.flow_mapping.0.scale_layers.5.logs f4 [1, 2]
-0.0464069 -0.045023732
00000000: 2915 3ebd ce6a 38bd

net.flow_mapping.0.scale_layers.5.b_init f4 [1, 2]
0.0 0.0
00000000: 0000 0000 0000 0000

net.flow_mapping.0.scale_layers.5.logs_init f4 [1, 2]
0.0 0.0
00000000: 0000 0000 0000 0000

net.flow_mapping.0.scale_layers.6.b f4 [1, 2]
-0.069627166 -0.11110326
00000000: b098 8ebd 1b8a e3bd

net.flow_mapping.0.scale_layers.6.logs f4 [1, 2]
-0.040600948 -0.044808842
00000000: 2e4d 26bd 7a89 37bd

net.flow_mapping.0.scale_layers.6.b_init f4 [1, 2]
0.0 0.0
00000000: 0000 0000 0000 0000

net.flow_mapping.0.scale_layers.6.logs_init f4 [1, 2]
0.0 0.0
00000000: 0000 0000 0000 0000

net.flow_mapping.0.scale_layers.7.b f4 [1, 2]
-0.08178177 -0.019351374
00000000: 337d a7bd c686 9ebc

net.flow_mapping.0.scale_layers.7.logs f4 [1, 2]
0.010409125 -0.03464876
00000000: 098b 2a3c dceb 0dbd

net.flow_mapping.0.scale_layers.7.b_init f4 [1, 2]
0.0 0.0
00000000: 0000 0000 0000 0000

net.flow_mapping.0.scale_layers.7.logs_init f4 [1, 2]
0.0 0.0
00000000: 0000 0000 0000 0000

net.flow_mapping.0.scale_layers.8.b f4 [1, 2]
0.023114687 -0.3398152
00000000: 035b bd3c 42fc adbe

net.flow_mapping.0.scale_layers.8.logs f4 [1, 2]
-0.03721541 -0.009807366
00000000: 306f 18bd 13af 20bc

net.flow_mapping.0.scale_layers.8.b_init f4 [1, 2]
0.0 0.0
00000000: 0000 0000 0000 0000

net.flow_mapping.0.scale_layers.8.logs_init f4 [1, 2]
0.0 0.0
00000000: 0000 0000 0000 0000

net.flow_mapping.0.scale_layers.9.b f4 [1, 2]
-0.26901007 0.04991904
00000000: b0bb 89be e877 4c3d

net.flow_mapping.0.scale_layers.9.logs f4 [1, 2]
0.07394024 -0.06889715
00000000: fb6d 973d f319 8dbd

net.flow_mapping.0.scale_layers.9.b_init f4 [1, 2]
0.0 0.0
00000000: 0000 0000 0000 0000

net.flow_mapping.0.scale_layers.9.logs_init f4 [1, 2]
0.0 0.0
00000000: 0000 0000 0000 0000

net.flow_mapping.0.affine_layers.0.net.0.weight f4 [32, 1]
0.4172382 0.5902531 0.26832777 -0.6556911 0.42760897 -0.39380774 -0.29578704 -0.32577083
-0.1795082 -0.40599832 -0.23680589 -0.48554248 0.576434 0.35169637 0.5808491 -0.50826496
-0.48405722 0.6372798 0.28056458 -0.09381274 -0.012061274 0.15911911 0.62117887 0.44301337
-0.05927789 0.43913066 0.13885488 -0.6032607 0.097407185 0.29897478 -0.5225501 0.5753856
00000000: 3fa0 d53e d41a 173f 4262 893e 5fdb 27bf
00000010: 90ef da3e 2ba1 c9be 6671 97be 6fcb a6be
00000020: ffd0 37be 03df cfbe 3e7d 72be 0699 f8be
00000030: 2e91 133f 8c11 b43e 87b2 143f a71d 02bf
00000040: 59d6 f7be c524 233f 29a6 8f3e e520 c0bd
00000050: a69c 45bc 1ff0 223e 9405 1f3f a6d2 e23e
00000060: 5fcd 72bd bcd5 e03e f92f 0e3e 4b6f 1abf
00000070: 6b7d c73d 3913 993e d8c5 05bf 784c 133f

net.flow_mapping.0.affine_layers.0.net.0.bias f4 [32]
0.14785086 0.6023668 -0.5229161 0.18562144 0.026705295 -0.39464548 0.06283145 0.49520218
-0.5480587 0.0103609 0.024565266 -0.020476125 0.210115 -0.65798026 0.26195213 0.04892137
0.64429563 -0.69313276 -0.3782979 -0.03565463 0.36708406 -0.5038908 0.61169547 -0.49020657
-0.6128353 0.37657377 0.41911712 0.32173365 -0.49122575 -0.23094484 -0.2653878 0.030430121
00000000: 3766 173e b634 1a3f d4dd 05bf 8c13 3e3e
00000010: 10c5 da3c f90e cabe c6ad 803d 248b fd3e
00000020: 934d 0cbf c4c0 293c 193d c93c 8cbd a7bc
00000030: 6328 573e 6571 28bf 971e 863e c661 483d
00000040: 8ff0 243f 2671 31bf 43b0 c1be 970a 12bd
00000050: 71f2 bb3e fdfe 00bf 1398 1c3f 5bfc fabe
00000060: c6e2 1cbf 47ce c03e 8596 d63e 46ba a43e
00000070: f181 fbbe ce7c 6cbe e9e0 87be 9748 f93c

net.flow_mapping.0.affine_layers.0.net.2.weight f4 [32, 32]
0.10447278 -0.12092815 -0.04187941 0.08134427 -0.0045952396 -0.015931476 0.060934253 0.042118665
0.0566457 0.08017029 0.120881215 0.109770305 0.09181176 0.12012046 -0.116045736 -0.0046101105
0.081302166 0.0039202906 0.058908362 0.034992926 -0.11253281 -0.0037185266 0.050435763 0.032891445
-0.019465717 -0.10881679 -0.05923011 0.0816908 0.04922241 0.061915576 0.04307254 -0.1122077
0.03777706 0.03659735 0.12334336 -0.07113498 0.05331626 -0.107731834 0.10087249 0.118254215
-0.012817784 0.106711015 0.000862364 -0.04748625 0.009369651 0.036749102 0.06997314 -0.100799784
0.022843078 -0.10753703 -0.008733439 0.06517437 0.0030099044 -0.109285966 0.09454697 0.118136294
-0.049703233 0.08797433 0.04075582 0.103002794 0.09629709 -0.029405596 0.060029037 0.090737626
-0.05688824 0.120535195 -0.060847837 -0.03657392 -0.023949392 7.434781e-05 0.09443716 0.120513715
0.11573466 0.10629321 -0.053116534 -0.07855724 0.068971604 -0.056649994 -0.042595625 0.055858087
0.06891913 0.12981378 0.064168796 0.042852808 -0.094820604 0.0081915995 0.06087833 0.06932463
-0.08383318 0.037803225 0.057581976 -0.030020833 0.10242477 0.003947987 -0.057540264 0.11513385
0.030751374 -0.052216854 0.087460876 0.11787904 0.009655135 0.09324485 0.07879961 -0.11462153
0.10222461 0.0057854857 0.03823871 0.075244024 -0.051275577 0.0633392 -0.057977676 -0.04958264
-0.093889326 0.045824453 0.03365711 -0.082687736 -0.069906205 0.09628976 -0.06069086 -0.020454489
-0.06742143 0.037430745 0.06021506 -0.004899145 0.033653546 0.023240065 -0.045800988 -0.04745636
0.016059335 -0.027655097 0.031169612 -0.013204318 0.07036841 -0.07826424 -0.031065505 0.10862736
0.010088096 0.015910687 -0.08393543 0.017887017 -0.02468847 0.023204746 0.03714679 0.032198958
0.04918741 -0.062251188 -0.045032665 0.012045954 0.08131583 0.012351992 0.07200784 -0.048294265
0.0022962 -0.06940368 -0.010583965 -0.082051426 -0.019529993 -0.08516481 -0.076415494 0.06018137
0.066453174 0.006775 -0.06609753 0.117554195 -0.008055938 0.10072394 -0.040724467 0.06132087
-0.06889637 0.011088194 -0.09907094 0.11487535 0.056539778 -0.096344985 -0.060998067 -0.054319475
-0.052757144 0.004121817 -0.121420935 0.0052949246 -0.10947554 -0.10124916 0.026465727 0.11981473
-0.032889992 -0.075178325 -0.069611646 -0.033025023 -0.09248317 0.020524235 0.057556357 -0.06725554
-0.11483186 0.09695474 -0.015265683 0.014004502 -0.013243604 -0.11616649 -0.06028478 -0.003117813
0.040102553 -0.06805057 -0.09667037 0.07638155 -0.11556662 0.079461664 0.09175878 0.040384315
0.119152755 0.088988364 0.054950707 -0.022286965 0.10732686 0.02356585 -0.11541029 -0.0066032535
0.09818243 -0.107574195 -0.052179217 0.05912724 0.08734377 -0.07407532 -0.0144094685 0.056872383
0.09050436 0.033344064 -0.052452955 -0.021695187 0.07834731 -0.008310694 -0.093518935 0.07071418
-0.002657174 0.013164257 0.10100326 0.0521832 0.10625469 -0.10569535 -0.09281956 0.03870193
-0.07088656 -0.09997009 0.0105977785 0.099757366 0.078948624 -0.035473794 -0.060965106 0.11132921
-0.036115926 0.099734604 -0.08591095 0.07763753 -0.11024778 -0.0741057 -0.045654032 -0.01155699
00000000: d3f5 d53d 2ea9 f7bd bf89 2bbd d397 a63d
00000010: aa93 96bb ba82 82bc 3296 793d 9f84 2c3d
00000020: 5205 683d 5230 a43d 9290 f73d 41cf e03d
00000030: ce07 bc3d b701 f63d 63a9 edbd 6910 97bb
00000040: c081 a63d c875 803b e549 713d be54 0f3d
00000050: 9a77 e6bd 86b2 73bb bb95 4e3d 2eb9 063d
00000060: 9176 9fbc 56db debd 469b 72bd 824d a73d
00000070: 709d 493d 309b 7d3d d56c 303d 27cd e5bd
00000080: 1ebc 1a3d 1ae7 153d 729b fc3d 37af 91bd
00000090: 2762 5a3d 82a2 dcbd 3c96 ce3d 442f f23d
000000a0: af01 52bc 4e8b da3d 4510 623a f180 42bd
000000b0: 2a83 193c 3a86 163d 144e 8f3d 1e70 cebd
000000c0: 6821 bb3c 603c dcbd b316 0fbc 247a 853d
000000d0: d141 453b 52d1 dfbd d8a1 c13d 71f1 f13d
000000e0: 9e95 4bbd e32b b43d 93ef 263d 21f3 d23d
000000f0: 6937 c53d 01e4 f0bc 02e1 753d a6d4 b93d
00000100: a503 69bd 28db f63d 953b 79bd 89ce 15bd
00000110: 8431 c4bc 2deb 9b38 4568 c13d e5cf f63d
00000120: 4b06 ed3d 41b0 d93d b990 59bd 9ee2 a0bd
00000130: fc40 8d3d d309 68bd c078 2ebd 73cb 643d
00000140: 7925 8d3d e7ed 043e ee6a 833d 6d86 2f3d
00000150: 4e31 c2bd 0f36 063c 8e5b 793d 12fa 8d3d
00000160: bbb0 abbd 8ed7 1a3d 14db 6b3d 40ee f5bc
00000170: 14c4 d13d 1e5e 813b 57af 6bbd 4ccb eb3d
00000180: 4eea fb3c 57e1 55bd b01e b33d 916a f13d
00000190: 9230 1e3c 28f7 be3d b161 a13d b1be eabd
000001a0: 235b d13d 2c94 bd3b 32a0 1c3d 8a19 9a3d
000001b0: 5706 52bd fcb7 813d 007a 6dbd 2b17 4bbd
000001c0: 0c49 c0bd 6cb2 3b3d 0adc 093d 3058 a9bd
000001d0: fc2a 8fbd 9133 c53d fb96 78bd 2c90 a7bc
000001e0: 3f14 8abd fb50 193d 11a4 763d 0289 a0bb
000001f0: 4dd8 093d f361 be3c d199 3bbd 9a61 42bd
00000200: de8e 833c f18c e2bc 6a57 ff3c ec56 58bc
00000210: 501d 903d 0049 a0bd 167d febc 0578 de3d
00000220: 8b48 253c 2157 823c 57e6 abbd cb87 923c
00000230: 793f cabc e117 be3c 3c27 183d 0ee3 033d
00000240: bd78 493d 1afb 7ebd 2c74 38bd 655c 453c
00000250: ea88 a63d 0260 4a3c d978 933d 35d0 45bd
00000260: d87b 163b 8423 8ebd 5e68 2dbc 940a a8bd
00000270: 5dfd 9fbc e36a aebd ba7f 9cbd bd80 763d
00000280: 9a18 883d d200 de3b 245e 87bd 41c0 f03d
00000290: 0efd 03bc 5a48 ce3d b3ce 26bd 982b 7b3d
000002a0: 8a19 8dbd 42ab 353c b4e5 cabd c443 eb3d
000002b0: 4196 673d 8550 c5bd 1cd9 79bd 197e 5ebd
000002c0: e017 58bd 4f10 873b 8aab f8bd 0c81 ad3b
000002d0: b634 e0bd b85b cfbd a7ce d83c 6d61 f53d
000002e0: a8b7 06bd 18f7 99bd 8d90 8ebd 3f45 07bd
000002f0: d167 bdbd 7122 a83c 37c0 6b3d 46bd 89bd
00000300: f72c ebbd 3590 c63d ea1c 7abc 2473 653c
00000310: b4fb 58bc b2e8 edbd 2ced 76bd 3954 4cbb
00000320: 9342 243d 195e 8bbd 1dfb c5bd ee6d 9c3d
00000330: 31ae ecbd ccbc a23d 07ec bb3d 066a 253d
00000340: 5c06 f43d 883f b63d fe13 613d 2793 b6bc
00000350: 2fce db3d 2b0d c13c 3b5c ecbd 1b60 d8bb
00000360: df13 c93d dc4f dcbd e0b9 55bd 682f 723d
00000370: 4ae1 b23d cdb4 97bd b115 6cbc 04f3 683d
00000380: 5a5a b93d c993 083d e9d8 56bd 1bba b1bc
00000390: 8e74 a03d 9429 08bc db86 bfbd 99d2 903d
000003a0: fb23 2ebb e5ae 573c ccda ce3d 0dbe 553d
000003b0: 0f9c d93d ce76 d8bd 2e18 bebd ea85 1e3d
000003c0: f92c 91bd 1ebd ccbd 4ea2 2d3c 974d cc3d
000003d0: d1af a13d f84c 11bd 8cb6 79bd 9200 e43d
000003e0: 4bee 13bd a841 cc3d 15f2 afbd 6d00 9f3d
000003f0: 97c9 e1bd bbc4 97bd b9ff 3abd 8859 3dbc

net.flow_mapping.0.affine_layers.0.net.2.bias f4 [32]
-0.039796732 -0.18023646 -0.02839821 -0.02259081 -0.011329088 -0.018700229 0.076269284 -0.055844653
-0.028377583 0.20729323 0.040898364 0.018179197 0.06621836 0.004108094 0.003236747 -0.08030945
-0.10490901 0.083777554 0.0021903706 -0.113091275 0.00906888 0.027394915 0.030761356 0.030059619
-0.073733166 -0.17689054 0.052547876 0.004704891 -0.17270449 -0.06853454 0.0012132464 0.046807945
00000000: e601 23bd e88f 38be 5da3 e8bc 5d10 b9bc
00000010: a49d 39bc 3931 99bc 1233 9c3d 5dbd 64bd
00000020: 1b78 e8bc ad44 543e 0b85 273d 8aec 943c
00000030: 7e9d 873d 319d 863b 9b1f 543b 4879 a4bd
00000040: 89da d6bd 9193 ab3d 528c 0f3b 669c e7bd
00000050: a495 143c 4d6b e03c 3dff fb3c 973f f63c
00000060: 6a01 97bd cb22 35be 713c 573d 7c2b 9a3b
00000070: 72d9 30be d65b 8cbd cb05 9f3a b0b9 3f3d

net.flow_mapping.0.affine_layers.0.net.4.weight f4 [32, 32]
0.01675645 -0.027581345 -0.10310319 -0.07245833 0.036170457 -0.0631459 -0.10968107 0.035170645
0.0038529357 -0.1178297 -0.04001837 0.07117137 0.014232649 0.03540787 -0.010397423 0.09404111
0.010582083 -0.094196215 0.05373287 -0.033552054 0.050174624 0.03312528 0.059100613 0.07814614
0.10601838 -0.022748228 -0.0018920758 -0.004332405 0.075638436 -0.04085424 0.11952209 0.031493843
-0.09555687 -0.10765455 -0.09277845 -0.057229895 -0.119597755 -0.026849281 -0.0922215 0.10361118
-0.11853265 -0.08823784 0.117186055 -0.009907415 -0.061812416 -0.036945026 0.005683236 -0.11839859
0.086455 0.057832513 -0.119107425 0.041198593 -0.02042649 -0.039494995 -0.051626325 -0.012161401
-0.11076153 -0.10568624 -0.0013950387 -0.04212498 0.09850315 -0.028372834 -0.07889397 -0.028923491
-0.0022841524 -0.055154197 -0.041183427 0.03513634 0.008837588 -0.0366988 0.009613807 -0.08578157
-0.053956356 -0.10075016 -0.044698324 -0.022561844 0.05973137 -0.054862842 -0.08402964 -0.0688336
0.0521252 0.11599363 0.021281118 0.10170904 0.112923466 0.0013000787 -0.101164505 0.028775038
-0.119775265 0.024089752 -0.1096487 0.071979135 -0.004424164 0.04652832 0.04747562 0.06585519
0.060973063 0.03965376 -0.021411875 0.030105373 -0.08737174 0.08636006 -0.114350565 0.1138156
-0.042252544 -0.08815049 0.0077782553 0.022080537 0.020659098 0.062921524 0.031459235 0.09692411
-0.10378409 -0.048048012 -0.030379985 0.0813614 -0.0385952 -0.0836254 -0.013376572 -0.037558332
0.028707158 -0.12078345 0.04929701 -0.016274637 -0.034414433 -0.061931238 0.06781858 -0.07356503
-0.028826132 -0.080954455 -0.022726657 -0.08459195 -0.07970525 -0.04795079 0.06768041 0.04124198
-0.016766965 0.020172043 -0.113281146 -0.03172373 0.0010777143 0.02948805 -0.06919499 -0.09647766
-0.014032239 -0.08609077 -0.108499505 0.085838206 -0.080762655 0.09294443 0.11084616 -0.0008830148
0.12142493 -0.07967852 -0.014444217 0.015901871 0.05287648 -0.025034325 0.07969353 -0.11402364
0.043364454 0.009127015 -0.13995875 -0.054711297 0.08398445 0.10479455 -0.11907716 -0.11199606
-0.03191894 0.039649617 -0.10986182 -0.09738174 0.06398884 -0.027421396 -0.061594952 -0.09524557
-0.021877471 -0.065458074 -0.088614225 -0.07668685 -0.09412582 0.09725006 0.09098092 0.09162249
0.07667749 -0.038339436 -0.029200135 0.022547062 0.041414708 -0.03288268 -0.09287198 0.09010576
0.02869599 0.04023243 0.08035914 0.06390719 -0.0976466 0.015998056 -0.10695121 0.013888851
-0.035389926 0.07596899 0.10053221 -0.008813418 -0.072367094 -0.014305343 -0.0363794 -0.11824428
0.115185216 0.018988004 -0.000730099 -0.07886127 -0.090364695 0.043417625 -0.026864473 -0.013676517
0.03180013 -0.04605978 0.03713723 -0.028996354 -0.09044875 -0.060168967 0.04796114 0.028681373
-0.025704885 -0.047673717 0.11828875 -0.04034673 -0.079721145 0.01927857 -0.035552952 0.048070326
0.04116855 0.061901353 -0.047589693 0.06936831 -0.041379917 -0.040527564 -0.028702777 -0.07486374
-0.015376636 -0.050313458 0.10240021 0.01185626 0.055469833 -0.0055997306 0.08598091 0.09499918
-0.08092113 0.0635674 0.104997866 -0.045272216 0.104392886 -0.04733289 -0.014656829 0.08895634
00000000: d344 893c 46f2 e1bc c427 d3bd 0865 94bd
00000010: 7927 143d a352 81bd 78a0 e0bd 180f 103d
00000020: 8981 7c3b b350 f1bd 4dea 23bd 4cc2 913d
00000030: 0e30 693c d807 113d f459 2abc a098 c03d
00000040: 7960 2d3c f2e9 c0bd ff16 5c3d e16d 09bd
00000050: e883 4d3d 60ae 073d 7c13 723d 150b a03d
00000060: 2a20 d93d 7e5a babc 87ff f7ba d9f6 8dbb
00000070: 53e8 9a3d c756 27bd ffc7 f43d b0ff 003d
00000080: 52b3 c3bd fd79 dcbd a102 bebd e569 6abd
00000090: abef f4bd 06f3 dbbc a0de bcbd 1932 d43d
000000a0: 3fc1 f2bd 0ab6 b4bd 3eff ef3d b652 22bc
000000b0: 042f 7dbd ab53 17bd 703a ba3b f67a f2bd
000000c0: 520f b13d c9e1 6c3d 98ee f3bd dbbf 283d
000000d0: 7455 a7bc 81c5 21bd 2076 53bd 9d40 47bc
000000e0: f1d6 e2bd 0772 d8bd bbd9 b6ba 3e8b 2cbd
000000f0: 05bc c93d 256e e8bc 2993 a1bd f5f0 ecbc
00000100: b8b1 15bb 5ee9 61bd f4af 28bd 1feb 0f3d
00000110: 88cb 103c 7b51 16bd 3b83 1d3c 3fae afbd
00000120: 5701 5dbd 1a56 cebd 9715 37bd 9ed3 b8bc
00000130: e2a8 743d dcb7 60bd bb17 acbd a1f8 8cbd
00000140: 3c81 553d 118e ed3d bd55 ae3c d44c d03d
00000150: 6b44 e73d 6767 aa3a 562f cfbd a1b9 eb3c
00000160: bc4c f5bd df57 c53c 7f8f e0bd cc69 933d
00000170: 94f8 90bb 7b94 3e3d cc75 423d 16df 863d
00000180: e4be 793d fb6b 223d f567 afbc 8b9f f63c
00000190: f4ef b2bd 8bdd b03d a130 eabd 2718 e93d
000001a0: 0111 2dbd 3e88 b4bd bce0 fe3b 3ee2 b43c
000001b0: 453d a93c 00dd 803d 66db 003d 2680 c63d
000001c0: c18c d4bd fecd 44bd 72df f8bc cea0 a63d
000001d0: 0016 1ebd cb43 abbd 6929 5bbc c4d6 19bd
000001e0: 462b eb3c 505d f7bd a9eb 493d 6352 85bc
000001f0: 26f6 0cbd 9cab 7dbd 78e4 8a3d 43a9 96bd
00000200: c824 ecbc 73cb a5bd 412d babc 8b3e adbd
00000210: 823c a3bd 0c68 44bd 079c 8a3d 5aed 283d
00000220: e05a 89bc d73f a53c f2ff e7bd bef0 01bd
00000230: 1742 8d3a ec90 f13c 1ab6 8dbd 1496 c5bd
00000240: 7ae7 65bc 5c50 b0bd fd34 debd f1cb af3d
00000250: e466 a5bd a659 be3d 5003 e33d 1f7a 67ba
00000260: a2ad f83d 7e2e a3bd 70a7 6cbc a444 823c
00000270: 0295 583d c914 cdbc 5d36 a33d 3a85 e9bd
00000280: ed9e 313d 7a89 153c 5951 0fbe f418 60bd
00000290: 0a00 ac3d 869e d63d bade f3bd 315e e5bd
000002a0: 6fbd 02bd a367 223d 3cff e0bd 1470 c7bd
000002b0: 950c 833d d6a2 e0bc fd4a 7cbd 1c10 c3bd
000002c0: 6238 b3bc e20e 86bd 607b b5bd ff0d 9dbd
000002d0: 0ac5 c0bd 0a2b c73d 3454 ba3d 92a4 bb3d
000002e0: 1609 9d3d d009 1dbd 1f35 efbc 9eb4 b83c
000002f0: 78a2 293d fdaf 06bd aa33 bebd 5e89 b83d
00000300: da13 eb3c c3ca 243d 5593 a43d c6e1 823d
00000310: f1fa c7bd 5b0e 833c 3c09 dbbd 108e 633c
00000320: 07f5 10bd a195 9b3d d5e3 cd3d 2866 10bc
00000330: 3335 94bd f560 6abc 9102 15bd 0f2a f2bd
00000340: 3ae6 eb3d bb8c 9b3c 1d64 3fba 0482 a1bd
00000350: 2011 b9bd aed6 313d e212 dcbc 7813 60bc
00000360: da40 023d 2ea9 3cbd 351d 183d c389 edbc
00000370: 323d b9bd bc73 76bd e672 443d 33f5 ea3c
00000380: 0d93 d2bc 8445 43bd 5f41 f23d 9d42 25bd
00000390: d744 a3bd 17ee 9d3c f99f 11bd 64e5 443d
000003a0: 5aa0 283d 468c 7d3d 69ed 42bd f910 8e3d
000003b0: fd7d 29bd 3b00 26bd 1622 ebbc 2952 99bd
000003c0: 49ee 7bbc 7c15 4ebd 34b7 d13d c240 423c
000003d0: 5634 633d f27d b7bb c216 b03d ee8e c23d
000003e0: fab9 a5bd a02f 823d 1f09 d73d 5c6f 39bd
000003f0: f0cb d53d 22e0 41bd 3223 70bc be2e b63d

net.flow_mapping.0.affine_layers.0.net.4.bias f4 [32]
0.02014481 0.11327779 0.039471928 0.078474976 0.055684205 0.10310876 0.036767177 -0.08836925
-0.028773628 0.16265301 -0.11220312 0.110295646 -0.115677096 0.10228645 -0.021416033 -0.20200458
-0.20897241 0.0152750015 -0.042896774 0.42030364 0.050880045 0.28582263 0.1197674 -0.095388874
0.026809996 -0.108406566 0.05519195 -0.14015931 0.09966027 -0.1184741 -0.07261466 -0.004908634
00000000: bb06 a53c 30fe e73d 51ad 213d 7db7 a03d
00000010: 1f15 643d b02a d33d 2e99 163d f0fa b4bd
00000020: acb6 ebbc 838e 263e c0ca e5bd afe2 e13d
00000030: 1de8 ecbd 8f7b d13d ad70 afbc 4ada 4ebe
00000040: ddfc 55be 0044 7a3c 87b4 2fbd 0a32 d73e
00000050: 9867 503d 5857 923e 9c48 f53d 3e5b c3bd
00000060: a3a0 db3c 4304 debd f410 623d ec85 0fbe
00000070: af1a cc3d 8da2 f2bd ffb6 94bd 9bd8 a0bb

net.flow_mapping.0.affine_layers.0.net.6.weight f4 [32, 32]
0.06767007 0.10272054 0.062220752 -0.093107514 -0.09709904 0.0056081894 -0.0025256835 -0.07903102
0.09673374 -0.065446585 -0.048025027 -0.069798805 0.0017245647 -0.022601657 -0.04367395 0.017544499
0.028586518 -0.100923166 0.112954095 -0.11497448 0.085608095 0.101209015 -0.07979137 -0.119714394
-0.035342958 -0.014506716 -0.07399159 -0.032531556 0.07510641 -0.0027337908 -0.06273331 0.090160884
0.0002640574 0.013420244 0.024015667 -0.047785666 0.063405275 0.06796594 0.0032847568 -0.058557104
-0.02208797 0.038632073 0.043138828 0.0656155 -0.002336754 -0.05674531 0.10138752 0.10877583
-0.09549643 0.10823249 0.025946818 -0.11921098 -0.029189536 0.013590729 0.0512186 0.0115596745
0.082108356 0.028298639 -0.11138344 0.020929802 -0.081999026 0.016685275 0.043433335 -0.055162903
0.09314544 0.05202929 -0.022616021 -0.11764907 -0.080726944 0.090405986 0.07830056 0.0020678132
0.058048066 0.101675116 -0.049459558 0.11948153 0.111523785 -0.10040144 -0.11176826 -0.048293054
-0.067693904 0.05144417 -0.021283425 -0.06974431 0.021894842 0.0017763264 0.099285804 -0.014598973
-0.090508536 -0.076843165 -0.111260004 0.040878635 0.118564904 0.07030243 0.007704147 -0.015028841
-0.08442588 -0.0052681197 0.03899398 -0.04867869 0.07830442 -0.090527244 0.08523334 -0.02751431
-0.05102813 -0.07122057 -0.042051513 0.08496722 0.031387806 -0.10190598 -0.045063846 -0.0042498517
-0.08781967 -0.05103948 -0.044767257 0.076612614 -0.0564435 0.015877778 0.0594998 -0.0781598
-0.022875581 0.020114912 0.0010253122 0.048448652 -0.04683784 -0.05626727 0.007183284 -0.09024196
-0.07347447 0.0112354215 0.019704014 0.023217924 -0.07868103 -0.009452733 -0.08460519 -0.017364584
-0.010583431 0.07103924 -0.072707124 -0.11157039 -0.10946855 -0.06316014 -0.09837126 -0.027262002
-0.084658705 -0.026918678 -0.10551026 0.039244253 0.01802535 -0.10665908 -0.08581009 0.045214955
0.060394555 0.10237735 0.034677465 0.050991975 0.062079497 0.06912113 -0.059546996 -0.11390104
0.025099328 0.0040664994 0.020857662 0.030941445 -0.111207336 -0.0027533888 0.10694218 0.013397752
0.10963293 -0.08015071 -0.093424395 -0.100616366 -0.04443361 -0.09579255 0.07445281 -0.10405463
0.059483677 0.018090103 -0.040580295 -0.11955224 0.084443085 -0.05122155 0.09980447 0.0636116
-0.0885173 0.09725723 -0.0139858 -0.038849782 -0.08072717 0.11720979 0.06390258 0.011786848
-0.11223817 0.016281143 0.044060804 0.08208545 -0.0006328442 0.04330565 0.06890598 0.08412831
0.07483193 -0.0518296 0.039426897 -0.10247884 0.11743399 0.09130959 0.0013605845 0.05091975
0.058760043 0.0626504 0.11412323 0.02221171 0.016217522 0.12671925 -0.04447401 -0.11834283
0.047366794 -0.02883226 0.014939491 0.018916959 0.023183716 0.023945808 0.10327706 -0.119705565
-0.035163295 -0.01797308 0.036078658 -0.0044050496 -0.001515286 0.0018604225 0.032120008 0.054935515
0.047034167 0.11298999 0.014711046 0.0782114 -0.0389153 0.014217734 -0.105688736 -0.0072292467
-0.1165679 -0.036697082 0.036431983 0.01307697 0.041700203 -0.032876562 0.020292504 -0.1076342
0.013966132 0.082016125 -0.07627922 -0.010524043 -0.10283724 -0.0009684302 -0.09967349 -0.056410644
00000000: 9b96 8a3d 255f d23d 30db 7e3d 27af bebd
00000010: dddb c6bd e7c4 b73b f085 25bb 04db a1bd
00000020: 571c c63d dc08 86bd e4b5 44bd adf2 8ebd
00000030: ca0a e23a 1c27 b9bc 75e3 32bd 7bb9 8f3c
00000040: 462e ea3c ceb0 cebd 7a54 e73d bd77 ebbd
00000050: 4c53 af3d ac46 cf3d a869 a3bd d22c f5bd
00000060: c7c3 10bd 94ad 6dbc e788 97bd cf3f 05bd
00000070: 64d1 993d 6629 33bb 527a 80bd 45a6 b83d
00000080: 2f71 8a39 95e0 5b3c 81bc c43c e7ba 43bd
00000090: a0da 813d ba31 8b3d 1345 573b 93d9 6fbd
000000a0: d5f1 b4bc aa3c 1e3d 57b2 303d 6b61 863d
000000b0: 3a24 19bb c56d 68bd 43a4 cf3d ddc5 de3d
000000c0: a293 c3bd ffa8 dd3d 6c8e d43c e324 f4bd
000000d0: e51e efbc a6ab 5e3c 98ca 513d ca64 3d3c
000000e0: 6d28 a83d 8cd2 e73c 001d e4bd fa74 ab3c
000000f0: 1bef a7bd 8faf 883c 27e7 313d 7ff2 61bd
00000100: 09c3 be3d aa1c 553d 3c45 b9bc fff1 f0bd
00000110: 2b54 a5bd c626 b93d 0b5c a03d 2684 073b
00000120: cfc3 6d3d 0b3b d03d 1b96 4abd bbb2 f43d
00000130: 9566 e43d 459f cdbd c2e6 e4bd f0ce 45bd
00000140: 1aa3 8abd 1fb7 523d 945a aebc 1bd6 8ebd
00000150: d05c b33c a0d3 e83a 5b56 cb3d 8830 6fbc
00000160: 8a5c b9bd f35f 9dbd 49dc e3bd 5b70 273d
00000170: 28d2 f23d b8fa 8f3d 1273 fc3b 873b 76bc
00000180: 7ae7 acbd 31a0 acbb 27b8 1f3d 4e63 47bd
00000190: 115e a03d 5966 b9bd d18e ae3d b165 e1bc
000001a0: df02 51bd 17dc 91bd 353e 2cbd 4b03 ae3d
000001b0: 8090 003d 15b4 d0bd de94 38bd 5742 8bbb
000001c0: cdda b3bd c60e 51bd df5d 37bd 13e7 9c3d
000001d0: 4d31 67bd 1d12 823c 10b6 733d 3f12 a0bd
000001e0: 9265 bbbc 07c8 a43c c563 863a 1872 463d
000001f0: 09d9 3fbd 8278 66bd c161 eb3b c7d0 b8bd
00000200: c879 96bd c614 383c 506a a13c 8433 be3c
00000210: 8523 a1bd a3df 1abc 7c45 adbd 2c40 8ebc
00000220: 2166 2dbc 057d 913d 79e7 94bd 047f e4bd
00000230: 0c31 e0bd 1a5a 81bd df76 c9bd 9054 dfbc
00000240: 8b61 adbd 8f84 dcbc c315 d8bd 95be 203d
00000250: e6a9 933c 1370 dabd 33bd afbd 5133 393d
00000260: 4860 773d 37ab d13d f509 0e3d f6dc 503d
00000270: 1247 7e3d 618f 8d3d 8de7 73bd f344 e9bd
00000280: 1b9d cd3c 4540 853b b0dd aa3c ea78 fd3c
00000290: acc0 e3bd 3372 34bb 8004 db3d 3f82 5b3c
000002a0: 3b87 e03d 0e26 a4bd 4a55 bfbd f40f cebd
000002b0: 0400 36bd e22e c4bd b77a 983d 981a d5bd
000002c0: 28a5 733d b231 943c 8637 26bd ced7 f4bd
000002d0: 7ff0 ac3d b0cd 51bd 4966 cc3d cc46 823d
000002e0: 8f48 b5bd cc2e c73d b224 65bc f320 1fbd
000002f0: 4954 a5bd b00b f03d 5bdf 823d a01d 413c
00000300: 20dd e5bd 0860 853c 1a79 343d 6b1c a83d
00000310: 75e5 25ba 4461 313d 941e 8d3d 774b ac3d
00000320: 7c41 993d 464b 54bd 197e 213d 6de0 d1bd
00000330: 3b81 f03d 8600 bb3d a455 b23a 3a91 503d
00000340: 5fae 703d da4e 803d 71b9 e93d 55f5 b53c
00000350: 9cda 843c b1c2 013e 612a 36bd ba5d f2bd
00000360: af03 423d a231 ecbc c4c4 743c bdf7 9a3c
00000370: c7eb bd3c 002a c43c ec82 d33d 3128 f5bd
00000380: 6307 10bd 483c 93bc 37c7 133d 3c58 90bb
00000390: 909c c6ba 6cd9 f33a 4590 033d 1004 613d
000003a0: e6a6 403d 4c67 e73d 9906 713c 4c2d a03d
000003b0: a665 1fbd 80f1 683c 5673 d8bd 51e3 ecbb
000003c0: 27bb eebd ae4f 16bd b439 153d ca40 563c
000003d0: d5cd 2a3d 93a9 06bd 773c a63c 526f dcbd
000003e0: 34d2 643c 12f8 a73d 4838 9cbd 096d 2cbc
000003f0: 559c d2bd 40de 7dba 9d21 ccbd d90e 67bd

net.flow_mapping.0.affine_layers.0.net.6.bias f4 [32]
0.038810857 -0.018217161 -0.009443746 -0.091971494 0.057687476 -0.060404144 0.00039543974 0.13286166
0.051823758 -0.0831738 -0.054498415 -0.25927967 0.07272566 0.06501592 -0.14631727 0.09618939
-0.11199549 -0.013559141 -0.0050489316 -0.019153534 0.11275421 0.08422011 0.014056037 -0.053777706
-0.5484496 -0.065099195 -0.01370913 0.16282134 -0.023895692 0.30143934 -0.047729075 0.0029727528
00000000: 22f8 1e3d 283c 95bc f1b9 1abc 8d5b bcbd
00000010: b449 6c3d 566a 77bd 0653 cf39 e30c 083e
00000020: 2645 543d 0657 aabd bb39 5fbd 4ec0 84be
00000030: 31f1 943d 1127 853d 32d4 15be f1fe c43d
00000040: e45d e5bd 2927 5ebc 8271 a5bb dfe7 9cbc
00000050: aeeb e63d 987b ac3d 4b4b 663c 0346 5cbd
00000060: 3167 0cbf ba52 85bd 429c 60bc a3ba 263e
00000070: e6c0 c3bc 4256 9a3e 907f 43bd 84d2 423b

net.flow_mapping.0.affine_layers.0.net.8.weight f4 [32, 32]
0.043579534 -0.041438356 0.10507551 -0.075267695 0.0461369 -0.061970416 0.031432733 -0.00050867774
0.10718872 0.030320331 0.0012874512 -0.08617607 0.11656131 0.10319075 0.097829014 0.027842497
-0.0628884 0.055520337 -0.059878625 -0.0071523846 -0.07716108 0.13125639 0.13188912 -0.051045764
0.48599622 0.06036413 -0.08221637 0.16794889 -0.056775026 0.073196426 -0.031152029 0.13275427
0.040319547 -0.002407236 -0.06917681 0.062955484 0.11876637 -0.05603502 0.005869121 -0.16763534
0.04670933 -0.0667582 0.10777743 -0.09652151 -0.05748926 0.052320022 0.16438282 0.010766011
-0.024848301 0.09134365 -0.059278063 -0.04960612 -0.033327736 0.07762158 -0.035543922 -0.07776381
0.47806698 0.105379805 0.028945433 0.25855023 0.08360767 0.18129165 -0.11618281 -0.04078879
-0.115754455 0.008935551 0.09798875 -0.08529099 -0.10058075 -0.019138044 0.068127885 0.045882836
-0.05485296 0.11156047 -0.06269204 0.061559513 -0.0010173625 -0.017765004 -0.0007210789 0.103268996
-0.10044608 -0.030154489 0.029538402 -0.040896405 0.11544432 0.052414678 -0.00082316523 -0.054372888
-0.53582865 -0.016652688 0.020101214 -0.056144543 -0.007380222 -0.007225129 0.029687585 0.07490146
0.060393248 0.0035974304 -0.005374002 -0.022153301 0.07854794 -0.113381796 -0.12613048 -0.0065546045
0.07800339 0.046308346 -0.021553641 -0.026087098 -0.022810506 -0.04729224 -0.08563193 0.010174834
0.031205721 0.06441154 -0.119828194 0.0147328 0.0018285394 -0.11009604 0.0103677865 -0.060621545
0.013023812 -0.07155034 -0.006928081 -0.032035846 0.03435105 0.074674726 0.08902779 0.09147261
0.04203585 -0.06630401 -0.09871253 0.00663491 0.09898746 -0.083372906 -0.10239396 -0.06767553
0.002022661 -0.11746254 -0.09035598 -0.04565474 -0.037053775 -0.06250795 -0.08046745 -0.07188421
0.06270062 -0.07861817 -0.035554774 0.004657637 -0.023478042 0.08392743 0.048702393 0.073272355
0.08976165 -0.09764711 -0.11133016 0.007343044 -0.12584613 0.112114854 -0.116510496 0.061411694
0.06547952 -0.0058424817 0.118586995 0.01907999 -0.028454477 -0.041564323 0.022788372 0.10768302
0.039477713 0.061146133 0.05809226 -0.101523325 0.07995794 0.030003788 -0.011573512 0.10301958
0.11426367 0.050739106 0.082307756 -0.013320158 -0.064035065 -0.012705509 -0.13834311 -0.086984545
-0.28958914 -0.07750283 -0.029904803 -0.018423434 -0.011291746 -0.057083845 0.014872367 0.040359925
0.06799457 0.11818076 0.052557655 0.06975233 0.02959176 0.04892637 0.026570218 0.03818876
0.053396404 0.069468305 0.0059618554 0.098515466 -0.018867286 -0.047224108 -0.06613087 -0.00018780939
0.11104949 0.08267361 0.036014933 0.104289696 -0.070420295 0.06534594 0.024893561 -0.076584324
0.49303743 -0.10301992 0.066304706 -0.0951117 -0.0014951474 -0.12135367 0.027914107 0.0011650218
0.049803708 -0.050323408 0.0097690355 -0.00015360294 0.10521934 0.121120885 0.019724634 0.06858934
0.01816508 0.022006724 -0.037092216 0.09792586 -0.09255246 0.045925755 0.114862114 -0.078675814
0.07559928 0.11894041 0.052809007 -0.11836125 -0.08619044 0.0435167 0.10263651 0.09920796
0.40406084 0.09302988 -0.00020112903 0.11445809 0.12176229 -0.010157196 -0.045460723 0.061911315
00000000: 7480 323d 44bb 29bd d431 d73d f325 9abd
00000010: 0cfa 3c3d b1d4 7dbd 9cbf 003d c958 05ba
00000020: c285 db3d 5862 f83c b2bf a83a 147d b0bd
00000030: b2b7 ee3d ac55 d33d 945a c83d f315 e43c
00000040: a2cb 80bd 4b69 633d 4a43 75bd 8d5e eabb
00000050: a106 9ebd 1368 063e f10d 073e 5d15 51bd
00000060: 7fd4 f83e 6140 773d 0e61 a8bd cbfa 2b3e
00000070: ee8c 68bd 02e8 953d 8a32 ffbc bcf0 073e
00000080: 1c26 253d b8c2 1dbb 92ac 8dbd ceee 803d
00000090: c83b f33d fa84 65bd c151 c03b 99a8 2bbe
000000a0: 4852 3f3d 86b8 88bd 6aba dc3d 12ad c5bd
000000b0: dc79 6bbd 854d 563d f853 283e ec63 303c
000000c0: aa8e cbbc 6112 bb3d 8ecd 72bd c92f 4bbd
000000d0: aa82 08bd 10f8 9e3d 8196 11bd a242 9fbd
000000e0: 32c5 f43e 5ed1 d73d f91e ed3c b260 843e
000000f0: 803a ab3d 85a4 393e 41f1 edbd 2512 27bd
00000100: ac10 edbd 6b66 123c 53ae c83d 0bad aebd
00000110: 48fd cdbd 63c7 9cbc a286 8b3d a4ef 3b3d
00000120: 7fad 60bd d179 e43d af64 80bd d425 7c3d
00000130: 0559 85ba ea87 91bc c906 3dba b27e d33d
00000140: adb6 cdbd 8c06 f7bc 85fa f13c fd82 27bd
00000150: 126e ec3d c6b0 563d afc9 57ba 1bb6 5ebd
00000160: 112c 09bf 386b 88bc 4dab a43c d2f7 65bd
00000170: cad5 f1bb c6c0 ecbb 6133 f33c f065 993d
00000180: e95e 773d dec2 6b3b 6518 b0bb d77a b5bc
00000190: bedd a03d b734 e8bd 5928 01be 02c8 d6bb
000001a0: 3ec0 9f3d d2ad 3d3d 4391 b0bc 9cb4 d5bc
000001b0: 19dd babc 82b5 41bd cb5f afbd 59b4 263c
000001c0: 24a3 ff3c 33ea 833d 7c68 f5bd d861 713c
000001d0: 9aab ef3a 087a e1bd a6dd 293c 4c4e 78bd
000001e0: d461 553c fc88 92bd f504 e3bb 0538 03bd
000001f0: b0b3 0c3d 10ef 983d 3454 b63d fe55 bb3d
00000200: c92d 2c3d 66ca 87bd cc29 cabd a969 d93b
00000210: f0b9 ca3d 6abf aabd edb3 d1bd 7899 8abd
00000220: 9f8e 043b 3390 f0bd 8e0c b9bd 7700 3bbd
00000230: b3c5 17bd 2b04 80bd 1ecc a4bd 0738 93bd
00000240: 2f69 803d 9002 a1bd e2a1 11bd 179f 983b
00000250: 0655 c0bc 25e2 ab3d 297c 473d d10f 963d
00000260: f5d4 b73d 35fb c7bd 1101 e4bd eb9d f03b
00000270: cfdd 00be 799c e53d 0e9d eebd d48a 7b3d
00000280: 201a 863d 4a72 bfbb bddd f23d a44d 9c3c
00000290: 5d19 e9bc 5a3f 2abd aeae ba3c ea88 dc3d
000002a0: 62b3 213d 5e74 7a3d 26f2 6d3d 76eb cfbd
000002b0: fdc0 a33d 81ca f53c d49e 3dbc eefb d23d
000002c0: 1203 ea3d cfd3 4f3d f890 a83d cb3c 5abc
000002d0: d124 83bd c42a 50bc d1a9 0dbe f424 b2bd
000002e0: 0745 94be ceb9 9ebd ebfa f4bc beec 96bc
000002f0: 0401 39bc c0d0 69bd 3aab 733c 7350 253d
00000300: bd40 8b3d c108 f23d b246 573d 4fda 8e3d
00000310: 6b6a f23c 0467 483d c9a9 d93c d16b 1c3d
00000320: 30b6 5a3d 6645 8e3d ab5b c33b 7ac2 c93d
00000330: 918f 9abc 116e 41bd 9f6f 87bd b3ee 44b9
00000340: ea6d e33d c850 a93d 6584 133d d695 d53d
00000350: 8438 90bd 18d4 853d 95ed cb3c 3ed8 9cbd
00000360: 676f fc3e 1cfc d2bd c3ca 873d ecc9 c2bd
00000370: d2f8 c3ba 4688 f8bd 20ac e43c a5b3 983a
00000380: f9fe 4b3d eb1f 4ebd 4e0e 203c 7a10 21b9
00000390: 3d7d d73d 3a0e f83d 8e95 a13c 9178 8c3d
000003a0: efce 943c 7247 b43c 02ee 17bd 5a8d c83d
000003b0: 258c bdbd a51c 3c3d d43c eb3d c920 a1bd
000003c0: ccd3 9a3d 0897 f33d 424e 583d 6267 f2bd
000003d0: 9d84 b0bd 913e 323d 1733 d23d 8b2d cb3d
000003e0: 10e1 ce3e 7386 be3d 2ae6 52b9 0169 ea3d
000003f0: 825e f93d 5e6a 26bc 0635 3abd b896 7d3d

net.flow_mapping.0.affine_layers.0.net.8.bias f4 [32]
0.15401027 -0.020470127 -0.16517532 -0.014750458 -0.046684965 0.028120708 -0.28986344 -0.045397177
-0.049998123 -0.24249393 0.03449583 -0.046015643 0.05159792 -0.08463696 0.046426985 -0.104692854
-0.109278075 -0.02530429 0.08242489 0.024634117 0.058453348 -0.031613104 -0.17125684 0.13447948
-0.0009094211 -0.49646762 0.104691625 -0.009553088 -0.09587636 -0.025635544 -0.031724356 -0.20323648
00000000: deb4 1d3e f8b0 a7bc b823 29be e8ab 71bc
00000010: bc38 3fbd 665d e63c fb68 94be 64f2 39bd
00000020: d5ca 4cbd 5450 78be 804b 0d3d e67a 3cbd
00000030: 5758 533d 2456 adbd 392a 3e3d 3569 d6bd
00000040: 2fcd dfbd f14a cfbc 61ce a83d 7dcd c93c
00000050: c76c 6f3d be7c 01bd f45d 2fbe fdb4 093e
00000060: 3866 6eba 0131 febe 9068 d63d 8e84 1cbc
00000070: d35a c4bd a201 d2bc 66f1 01bd 391d 50be

net.flow_mapping.0.affine_layers.0.net.10.weight f4 [2, 32]
-0.1360054 -0.10396576 0.05452237 0.047561686 0.043087743 0.04289147 -0.4304946 -0.09876855
-0.095411815 -0.17766292 0.06427952 0.034014404 0.23414138 0.09398695 0.063684076 0.078629576
0.00153345 -0.025832213 -0.11426619 -0.016583838 0.067177735 0.07150777 0.1843155 -0.084338196
0.05687539 -0.7136185 -0.14252228 -0.057978954 0.082477 0.031197313 0.02483861 0.18332812
-1.5052335 -1.4791787 -0.8644918 0.118285015 0.10071616 -0.45324856 -0.33139694 -1.0634776
-1.5435886 -0.73727685 -0.046933915 -0.010011798 -0.024487035 0.0149647845 -0.033417773 0.09173873
-0.0023487585 -1.5211549 -1.4752964 -0.07585042 0.08663729 -0.04327358 -0.0938046 -1.2184647
-0.10699946 -0.3749013 -1.708642 -1.2282532 -0.1186681 -0.103526086 0.05308416 -0.08917642
00000000: 0045 0bbe 00ec d4bd d952 5f3d 0bd0 423d
00000010: c67c 303d f7ae 2f3d ca69 dcbe 2a47 cabd
00000020: 4567 c3bd 45ed 35be fba4 833d b052 0b3d
00000030: c2c2 6f3e 3b7c c03d cc6c 823d 8b08 a13d
00000040: 0bfe c83a 149e d3bc 6404 eabd d4da 87bc
00000050: 7b94 893d aa72 923d 34bd 3c3e 81b9 acbd
00000060: 2bf6 683d b4af 36bf 5cf1 11be 577b 6dbd
00000070: b4e9 a83d 8291 ff3c 577a cb3c 5eba 3b3e
00000080: 7eab c0bf ba55 bdbf 564f 5dbf 6a3f f23d
00000090: 4644 ce3d 3210 e8be dcac a9be 0920 88bf
000000a0: 5094 c5bf 2dbe 3cbf c73d 40bd 8608 24bc
000000b0: 0999 c8bc db2e 753c 13e1 08bd 84e1 bb3d
000000c0: a1ed 19bb 34b5 c2bf 83d6 bcbf 7757 9bbd
000000d0: e46e b13d a33f 31bd a01c c0bd a7f6 9bbf
000000e0: 8822 dbbd 10f3 bfbe c8b4 dabf 6737 9dbf
000000f0: 4308 f3bd 7c05 d4bd c76e 593d 20a2 b6bd

net.flow_mapping.0.affine_layers.0.net.10.bias f4 [2]
-0.046120707 -1.7769188
00000000: 11e9 3cbd 1372 e3bf

net.flow_mapping.0.affine_layers.1.net.0.weight f4 [32, 1]
-0.56066114 -0.24267803 0.63473445 -0.21071717 -0.012466216 0.18895563 0.65499836 -0.31040987
-0.010083497 0.46024773 0.5257463 -0.28373957 -0.32448882 -0.25506023 -0.40014908 0.40315828
0.21115063 -0.06323719 0.5953812 0.24311647 -0.6644115 0.17823386 0.48793224 0.5368228
0.07919147 -0.6127649 0.04308096 0.03718201 0.24629027 0.6107643 -0.6501677 0.30992684
00000000: 7d87 0fbf 9780 78be f57d 223f 3ec6 57be
00000010: 1a3f 4cbc 967d 413e f9ad 273f 0bee 9ebe
00000020: 4035 25bc 97a5 eb3e 4f97 063f 5046 91be
00000030: 6623 a6be 4197 82be 57e0 ccbe c36a ce3e
00000040: df37 583e 8082 81bd e76a 183f 86f3 783e
00000050: df16 2abf f082 363e 41d2 f93e 386d 093f
00000060: 232f a23d 29de 1cbf a975 303d 2a4c 183d
00000070: 8433 7c3e 0d5b 1c3f 6471 26bf bbae 9e3e

net.flow_mapping.0.affine_layers.1.net.0.bias f4 [32]
0.42006332 0.61395705 0.021098126 -0.32574278 1.4134938 -0.6456524 -0.025777342 0.67297345
0.8739828 0.32979038 0.17059809 0.1654803 0.5022973 -0.37761933 -0.17455225 0.42803144
-0.8076889 -0.31779176 0.049283072 0.03309024 -0.14791198 -0.79551846 0.05665153 -0.8702785
-0.4343635 -0.46203768 0.2621961 -0.24427742 0.2603255 0.004730414 -0.5429182 0.068827085
00000000: 8a12 d73e 4a2c 1d3f fad5 ac3c c2c7 a6be
00000010: 5ded b43f 7a49 25bf 012b d3bc fd47 2c3f
00000020: 56bd 5f3f 49da a83e 44b1 2e3e ab73 293e
00000030: 8e96 003f 5257 c1be d3bd 32be f026 db3e
00000040: b3c4 4ebf 9ab5 a2be 0cdd 493d a289 073d
00000050: 3d76 17be 19a7 4bbf 6f0b 683d 92ca 5ebf
00000060: e564 debe 3490 ecbe 913e 863e dc23 7abe
00000070: 6249 853e 9701 9b3b b0fc 0abf 37f5 8c3d

net.flow_mapping.0.affine_layers.1.net.2.weight f4 [32, 32]
-0.08871877 -0.11489049 -0.0978588 -0.10576998 -0.013973699 -0.11896576 0.02787757 0.008103152
0.10921308 -0.10714091 -0.08537844 0.07954798 0.10899173 -0.07965784 -0.028888678 -0.05903231
0.040308286 -0.015976422 -0.0835694 0.0021854164 0.055765428 -0.0361192 0.036108308 0.024464628
-0.087985806 -0.0655512 -0.04224453 -0.016568447 0.016726168 -0.009666637 0.042644355 -0.07306538
-0.07076877 -0.113070026 0.013944602 -0.024225088 -0.26372224 -0.06861807 -0.018166445 0.09638317
0.07468348 0.1042034 0.10396899 0.1196643 0.103279464 0.059722215 -0.017810157 0.024520896
0.025292382 0.023465713 -0.12208694 -0.11495079 0.062121425 -0.040295154 -0.032614417 0.05618152
-0.10860092 0.03259661 0.10923542 -0.08622634 -0.013788882 0.0750461 -0.041524127 -0.08389205
0.059661068 0.0021068102 -0.05610514 0.061542235 -0.052506927 0.05396878 0.118352816 0.055436544
-0.02920163 0.01845851 -0.03243475 0.059023507 -0.0122481305 2.101515e-05 0.091777064 -0.11170059
0.038215812 -0.0021348752 -0.075268626 0.071085095 -0.067909956 -0.021856671 -0.047536254 -0.09022859
0.0737524 -0.104020715 0.07315613 0.053312354 -0.038127773 0.07455427 -0.012169331 -0.052496973
-0.09142404 -0.0036495824 0.06647219 -0.111788884 0.050612647 -0.010212749 -0.008944749 -0.093574986
0.029210918 -0.008844906 0.016031353 0.08998576 -0.08443999 0.11114296 -0.10146445 -0.05533567
0.07399665 0.0071555628 -0.09372453 -0.08091004 -0.110041335 0.018697204 -0.027544793 0.031352367
-0.116483435 -0.09115534 -0.0071133333 -0.083535224 -0.11898402 0.09289867 0.023851657 -0.045445364
-0.09388482 0.037308335 -0.06685328 -0.057185788 -0.6719002 0.08655555 0.008995317 -0.07933839
-0.48879668 -0.058474023 -0.009639773 -0.018408978 0.100749366 0.07753106 0.0061358856 0.031119209
0.07054874 -0.07002448 0.08434873 0.12686603 -0.105054766 0.05069861 0.022820678 0.13247243
0.05651067 -0.060260512 -0.026552986 0.02789124 -0.08167223 -0.07996043 -0.0972169 0.06501008
0.055968236 0.09235 0.08910471 0.058181956 -0.09641474 -0.03540588 0.025739964 -0.08615896
-0.096726656 -0.09042132 -0.05679489 0.023667233 -0.08951318 0.020465009 -0.037028883 0.07321998
-0.07028036 0.043643933 -0.08325267 -0.041477986 -0.0049790367 -0.054845873 0.024826065 -0.021679264
0.090196334 -0.018642705 0.10344343 0.098831154 0.06167326 -0.084593885 0.057022687 0.07428
-0.11567027 0.11465114 0.06035685 0.093498655 1.0399833 -0.07619344 0.06927112 0.034624014
0.6099303 0.09257658 -0.06495294 -0.022987816 -0.07751262 -0.04071566 0.017870495 0.09122641
-0.05166857 0.09462555 -0.011622852 0.07215213 0.009014794 -0.06671676 0.062233295 0.08637887
-0.0660912 0.017303174 0.038109913 -0.07690086 0.08070828 0.057247553 -0.103656046 0.07119932
-0.01492229 -0.016882462 -0.11113535 -0.08065989 0.09545274 0.051003624 -0.033837356 0.0021499959
-0.050853603 -0.0018656348 -0.017894711 0.011195532 0.07491916 0.03522692 -0.009377217 -0.051209576
0.033780888 0.061189715 -0.03932425 0.025463596 -0.046703976 0.012207193 0.08980348 -0.045390677
-0.068993084 0.081922725 -0.0124567915 0.043606803 -0.010615082 -0.054416336 -0.07075247 -0.03756806
00000000: 30b2 b5bd b54b ebbd 326a c8bd ee9d d8bd
00000010: f1f1 64bc 52a4 f3bd 805f e43c 15c3 043c
00000020: 1bab df3d b26c dbbd e4da aebd 0dea a23d
00000030: 0e37 df3d a623 a3bd f3a7 ecbc ddcb 71bd
00000040: 4d1a 253d fce0 82bc 6f26 abbd 3439 0f3b
00000050: 4a6a 643d baf1 13bd 4ee6 133d 0b6a c83c
00000060: e731 b4bd b53f 86bd 9a08 2dbd 8dba 87bc
00000070: 5105 893c d060 1ebc d9ab 2e3d 4da3 95bd
00000080: 38ef 90bd 4291 e7bd e677 643c b173 c6bc
00000090: 9a06 87be a187 8cbd ccd1 94bc 8a64 c53d
000000a0: a7f3 983d 9868 d53d b2ed d43d 8e12 f53d
000000b0: 2f84 d33d 489f 743d 9be6 91bc 0ce0 c83c
000000c0: f831 cf3c 2b3b c03c b808 fabd 526b ebbd
000000d0: 0973 7e3d 880c 25bd b296 05bd 981e 663d
000000e0: 296a debd 0684 053d d2b6 df3d 6f97 b0bd
000000f0: c3ea 61bc c5b1 993d 3415 2abd 98cf abbd
00000100: 2a5f 743d 6912 0a3b 81ce 65bd b613 7c3d
00000110: 8111 57bd 5e0e 5d3d f662 f23d 6e11 633d
00000120: 4238 efbc 4d36 973c 4dda 04bd a2c2 713d
00000130: 62ac 48bc b149 b037 9df5 bb3d 47c3 e4bd
00000140: 2f88 1c3d 43e9 0bbb 7026 9abd 1095 913d
00000150: 6014 8bbd c30c b3bc 60b5 42bd c4c9 b8bd
00000160: 800b 973d d008 d5bd e2d2 953d 0e5e 5a3d
00000170: de2b 1cbd e9af 983d e061 47bc 1107 57bd
00000180: 873c bbbd d52d 6fbb 9222 883d 92f1 e4bd
00000190: 354f 4f3d 6053 27bc ff8c 12bc 3ea4 bfbd
000001a0: bc4b ef3c 3aea 10bc 2f54 833c 744a b83d
000001b0: e0ee acbd ec9e e33d 98cc cfbd a8a7 62bd
000001c0: 8e8b 973d 3679 ea3b a5f2 bfbd 2ab4 a5bd
000001d0: 5a5d e1bd e12a 993c 9ea5 e1bc 576b 003d
000001e0: de8e eebd a7af babd f716 e9bb 8414 abbd
000001f0: e5ad f3bd a841 be3d 8d64 c33c eb24 3abd
00000200: af46 c0bd a0d0 183d 5fea 88bd a53b 6abd
00000210: a701 2cbf 0944 b13d 1861 133c 2a7c a2bd
00000220: 8f43 fabe 7582 6fbd 23f0 1dbc 6dce 96bc
00000230: af55 ce3d 9bc8 9e3d 8a0f c93b b6ed fe3c
00000240: dc7b 903d ff68 8fbd 07bf ac3d 2be9 013e
00000250: f426 d7bd 58a9 4f3d 6ef2 ba3c daa6 073e
00000260: bb77 673d bad3 76bd a685 d9bc 2b7c e43c
00000270: c543 a7bd 4bc2 a3bd a719 c7bd 0124 853d
00000280: f33e 653d ff21 bd3d 887c b63d 3450 6e3d
00000290: 1775 c5bd c205 11bd 9edc d23c 1c74 b0bd
000002a0: a018 c6bd d02e b9bd c2a1 68bd c9e1 c13c
000002b0: b052 b7bd 3ca6 a73c 99ab 17bd 5bf4 953d
000002c0: 26ef 8fbd fbc3 323d 6080 aabd d2e4 29bd
000002d0: 3027 a3bb 11a6 60bd 0860 cb3c b698 b1bc
000002e0: dbb8 b83d 96b8 98bc 26da d33d fd67 ca3d
000002f0: 1a9d 7c3d 8f3f adbd 9f90 693d 1d20 983d
00000300: 89e4 ecbd 38ce ea3d bf38 773d 397c bf3d
00000310: 2c1e 853f 4e0b 9cbd 04de 8d3d e9d1 0d3d
00000320: 6424 1c3f ca98 bd3d 0c06 85bd f250 bcbc
00000330: f0be 9ebd 77c5 26bd 2565 923c e9d4 ba3d
00000340: 6ca2 53bd 0acb c13d c66d 3ebc 7fc4 933d
00000350: c9b2 133c cca2 88bd 57e8 7e3d 68e7 b03d
00000360: d35a 87bd 63bf 8d3c 2419 1c3d 337e 9dbd
00000370: 624a a53d 697c 6a3d 9f49 d4bd f3d0 913d
00000380: 9f7c 74bc 174d 8abc ee9a e3bd 0331 a5bd
00000390: ba7c c33d 2de9 503d 0a99 0abd f2e6 0c3b
000003a0: de4b 50bd 5188 f4ba ee97 92bc 776d 373c
000003b0: 376f 993d 1a4a 103d e6a2 19bc 22c1 51bd
000003c0: d45d 0a3d 11a2 7a3d 7712 21bd 0899 d03c
000003d0: ab4c 3fbd ae00 483c e3ea b73d 93eb 39bd
000003e0: 3f4c 8dbd 1ac7 a73d 9217 4cbc 0c9d 323d
000003f0: e2ea 2dbc aae3 5ebd ace6 90bd f7e0 19bd

net.flow_mapping.0.affine_layers.1.net.2.bias f4 [32]
0.022992674 0.15902913 0.09382245 0.04894157 -0.21166623 -0.020950107 0.37465757 0.07906013
0.050140597 -0.06942757 -0.0925165 0.2482451 0.036132056 -0.0963456 0.012237365 -0.057058066
0.060142707 0.18281476 -0.07197399 0.04489696 0.011301033 0.0019487266 0.25204208 -0.013632804
-0.04676702 0.18283351 0.0839524 0.008410922 -0.03023216 -0.029291226 0.010882916 -0.19373943
00000000: 225b bc3c 88d8 223e fc25 c03d f576 483d
00000010: 08bf 58be 8f9f abbc 1ed3 bf3e 47ea a13d
00000020: 3a60 4d3d 0b30 8ebd 4a79 bdbd f733 7e3e
00000030: 35ff 133d d850 c5bd 3b7f 483c b8b5 69bd
00000040: 3358 763d cb33 3b3e 1967 93bd e0e5 373d
00000050: f827 393c 6a6c ff3a a90b 813e 205c 5fbc
00000060: c68e 3fbd b538 3b3e 3cef ab3d f7cd 093c
00000070: 6fa9 f7bc 27f4 efbc 424e 323c a163 46be

net.flow_mapping.0.affine_layers.1.net.4.weight f4 [32, 32]
-0.030479534 -0.08604899 0.0024874734 -0.089472406 0.05666872 0.020686287 -0.056993306 0.043334223
-0.10962424 0.07796312 -0.017355783 -0.059988715 -0.08354615 0.03726562 0.10472046 -0.11884724
-0.08995391 0.0726332 0.09407011 0.08461163 0.02831893 -0.06329844 -0.08138819 -0.06990645
-0.04501154 -0.014963988 -0.009601596 0.07072233 -0.09295018 -0.017959606 0.116731204 -0.05863826
0.08648754 -0.1056857 -0.03621401 -0.10550729 -0.032631908 -0.11471243 0.042473882 -0.03638845
0.0837942 0.07278746 -0.0046535647 -0.12928759 -0.04380306 -0.11545124 -0.031496704 0.07534023
-0.014247864 0.02051332 -0.008339394 -0.07942873 0.09718428 -0.111376725 0.026799373 0.09369494
-0.0015158836 -0.053923607 0.07156969 0.11536845 -0.052963458 0.025314888 0.01500005 -0.058790173
0.07423373 0.007978007 -0.0754586 0.054820064 0.10576417 0.112196766 -0.017754924 0.09347383
-0.0076687946 -0.103733264 0.10610025 -0.08410534 0.08027545 -0.05490268 -0.050702784 -0.041441042
0.010602547 0.09043871 -0.067690976 -0.07378588 -0.032268036 -0.00644415 -0.08951213 0.076042466
0.08695938 -0.038281865 -0.047186837 0.057090517 0.1142093 -0.05390262 0.1045637 -0.116787784
-0.051104523 -0.10947766 0.0711048 0.03369262 -0.033178136 -0.036942232 -0.016621554 0.028259123
0.03998307 0.053084604 0.088785134 -0.043001316 -0.01319393 0.057470854 0.049777187 -0.039084125
-0.11776515 0.0860398 0.01577803 0.06879333 -0.037852176 0.016892066 -0.061643094 -0.054501127
0.08617268 0.103236906 -0.029103164 -0.06721785 -0.041247346 -0.10014367 -0.07029729 0.04235013
0.033343203 0.07523452 0.0338945 -0.0252705 0.11649481 0.101510204 0.077278346 0.036907285
-0.02805531 -0.113753825 -0.016045423 -0.039701212 0.066836685 0.048014816 -0.040573556 -0.12874548
-0.055343978 -0.046849865 -0.029586587 0.08223931 0.01728366 0.0215248 0.026383607 -0.032683894
-0.018509716 -0.10968737 0.09905031 0.098157056 0.05024807 0.0196794 -0.10251384 0.090217665
0.009395554 0.06462314 -0.08590271 0.013767468 0.031957112 -0.025946097 -0.033496745 0.08752618
-0.04837751 -0.10688685 -0.027837692 -0.068625964 -0.08402199 0.006954396 0.10713399 0.095558666
0.06278337 0.10265845 -0.04313177 -0.086933 0.013313711 0.076934814 -0.060441345 0.003386149
0.044656053 -0.0006851169 -0.1123317 0.05060102 0.04710515 0.09678019 -0.084536724 0.013754573
0.009905981 -0.08211184 -0.030491142 0.118333064 -0.018647695 -0.06173695 -0.08375519 0.052093785
-0.018129608 -0.07207476 0.015756564 -0.07763223 0.004926532 0.018935462 -0.09011005 0.06841444
-0.068313934 0.01908826 0.082483105 0.0166511 -0.01376656 0.083780676 -0.113762826 -0.047419604
0.11368096 -0.062102217 0.063244976 -0.06191658 -0.09617454 -0.079093836 0.025561979 0.07278566
-0.015493922 0.010145831 -0.11888305 -0.010315675 -0.14116314 -0.0378152 0.13021937 0.06022445
0.08345335 0.0067986124 0.087135375 0.13694914 0.04339986 -0.06194613 -0.047669005 -0.012360664
-0.10381353 0.25683486 -0.003178763 0.077639215 -0.0707661 -0.10048223 -0.033173066 -0.0476142
0.10610355 -0.28063616 0.099061586 0.103138775 -0.09592686 -0.03045986 -0.061923727 0.06417162
00000000: 37b0 f9bc 743a b0bd e104 233b 4f3d b7bd
00000010: 761d 683d 4a76 a93c d071 69bd 3a7f 313d
00000020: ac82 e0bd 21ab 9f3d b72d 8ebc bab6 75bd
00000030: 3e1a abbd d6a3 183d ae77 d63d 2f66 f3bd
00000040: c139 b8bd b7c0 943d d4a7 c03d dd48 ad3d
00000050: 1afd e73c 9da2 81bd daae a6bd 1d2b 8fbd
00000060: 055e 38bd 842b 75bc 0350 1dbc ded6 903d
00000070: aa5c bebd 0620 93bc c510 ef3d ac2e 70bd
00000080: 6120 b13d bf71 d8bd 2455 14bd 3514 d8bd
00000090: 09a9 05bd 5aee eabd 18f9 2d3d 0e0c 15bd
000000a0: 4b9c ab3d 9811 953d ee7c 98bb f763 04be
000000b0: d66a 33bd b371 ecbd b002 01bd fa4b 9a3d
000000c0: df6f 69bc 8d0b a83c f4a1 08bc 88ab a2bd
000000d0: 8d08 c73d 7b19 e4bd 5c8a db3c 22e3 bf3d
000000e0: 9db0 c6ba 00df 5cbd 2193 923d 4b46 ec3d
000000f0: 36f0 58bd 2b61 cf3c c5c2 753c f7cd 70bd
00000100: db07 983d 30b6 023c 0a8a 9abd 018b 603d
00000110: e39a d83d 6bc7 e53d c672 91bc 356f bf3d
00000120: 834a fbbb 1b72 d4bd 164b d93d 6c3f acbd
00000130: 7567 a43d a2e1 60bd b9ad 4fbd 15be 29bd
00000140: 4eb6 2d3c ee37 b93d 91a1 8abd 0d1d 97bd
00000150: 7d2b 04bd 7329 d3bb 2352 b7bd 27bc 9b3d
00000160: c217 b23d 72cd 1cbd fc46 41bd bfd7 693d
00000170: 91e6 e93d fec8 5cbd 7e25 d63d 6f2e efbd
00000180: fa52 51bd d335 e0bd 659f 913d 4601 0a3d
00000190: cce5 07bd bd50 17bd ed29 88bc ad7f e73c
000001a0: 4ac5 233d 3e6f 593d fbd4 b53d 2622 30bd
000001b0: 5a2b 58bc 8f66 6b3d 2ae3 4b3d ad16 20bd
000001c0: db2e f1bd a235 b03d ed40 813c 84e3 8c3d
000001d0: e20a 1bbd 3b61 8a3c 787d 7cbd 933c 5fbd
000001e0: 4d7b b03d df6d d33d c269 eebc 83a9 89bd
000001f0: faf2 28bd 2018 cdbd 07f8 8fbd 5477 2d3d
00000200: e292 083d 8e14 9a3d f6d4 0a3d 1404 cfbc
00000210: d594 ee3d 95e4 cf3d 1c44 9e3d 182c 173d
00000220: 40d4 e5bc c4f7 e8bd b171 83bc bd9d 22bd
00000230: ace1 883d 2fab 443d 7530 26bd dbd5 03be
00000240: 5eb0 62bd a5e5 3fbd 925f f2bc 156d a83d
00000250: 7696 8d3c c754 b03c 6f22 d83c 8cdf 05bd
00000260: b0a1 97bc c6a3 e0bd e4da ca3d 9106 c93d
00000270: ecd0 4d3d b136 a13c c7f2 d1bd 0ac4 b83d
00000280: cfef 193c 2359 843d c3ed afbd f290 613c
00000290: 76e5 023d e98c d4bc e233 09bd ed40 b33d
000002a0: 7f27 46bd 7ee7 dabd df0b e4bc c58b 8cbd
000002b0: b913 acbd b4e1 e33b 1169 db3d 43b4 c33d
000002c0: 9194 803d 983e d23d f0aa 30bd ee09 b2bd
000002d0: c021 5a3c 0090 9d3d 5891 77bd 27ea 5d3b
000002e0: 44e9 363d 6b99 33ba 2a0e e6bd 0443 4f3d
000002f0: 54f1 403d b134 c63d 9721 adbd dc5a 613c
00000300: b24c 223c 412a a8bd 8fc8 f9bc 9b58 f23d
00000310: 0dc3 98bc e2df 7cbd d787 abbd 4b60 553d
00000320: 8b84 94bc ef9b 93bd e913 813c a6fd 9ebd
00000330: bf6e a13b 8b1e 9b3c 9e8b b8bd df1c 8c3d
00000340: 2de8 8bbd fc5e 9c3c e7ec a83d e367 883c
00000350: 238d 61bc 3495 ab3d 7cfc e8bd 0f3b 42bd
00000360: 90d1 e83d e55e 7ebd 9586 813d 3d9c 7dbd
00000370: 28f7 c4bd f3fb a1bd 5b67 d13c a610 953d
00000380: 38da 7dbc b33a 263c f578 f3bd 1403 29bc
00000390: 128d 10be 1ce4 1abd 3a58 053e eaad 763d
000003a0: 97e9 aa3d e5c6 de3b 0874 b23d 653c 0c3e
000003b0: 0dc4 313d 3abb 7dbd 9340 43bd 6284 4abc
000003c0: 309c d4bd dc7f 833e cb52 50bb 4f01 9f3d
000003d0: d1ed 90bd a1c9 cdbd 7be0 07bd 1b07 43bd
000003e0: d14c d93d 8baf 8fbe cde0 ca3d 6c3a d33d
000003f0: 4d75 c4bd f586 f9bc bca3 7dbd 696c 833d

net.flow_mapping.0.affine_layers.1.net.4.bias f4 [32]
0.120429486 -0.09969736 0.0014328137 -0.04336776 -0.2764056 -0.26179686 -0.08233422 0.3657684
0.17856576 0.3133623 -0.073249064 0.03267533 0.017268714 -0.030924244 -0.1143323 -0.062454194
0.39589414 0.07323632 -0.030945731 -0.2646208 0.041501343 0.10612166 0.064214826 -0.24773952
-0.022843717 0.21116443 0.34635118 0.31893444 -0.065996304 -0.13766414 -0.06312227 0.06595833
00000000: bca3 f63d 212e ccbd 40cd bb3a 64a2 31bd
00000010: 0985 8dbe 3d0a 86be d89e a8bd ff45 bb3e
00000020: f1d9 363e 0671 a03e 9b03 96bd 91d6 053d
00000030: 1e77 8d3c d754 fdbc 0e27 eabd f8cf 7fbd
00000040: a3b2 ca3e ecfc 953d e781 fdbc 617c 87be
00000050: 50fd 293d 5056 d93d 1083 833d 6eaf 7dbe
00000060: bf22 bbbc 7d3b 583e f154 b13e 604b a33e
00000070: 1229 87bd d4f7 0cbe 4046 81bd 2915 873d
