ckpt/ckpt_iter800000.pth (torch, 728379 bytes, 462 tensors)

net.rotations.0.LU f4 [2, 2]
0.0 0.0 0.0 0.0
00000000: 0000 0000 0000 0000 0000 0000 0000 0000

net.rotations.0.LU_init f4 [2, 2]
1.0 0.0 0.0 1.0
00000000: 0000 803f 0000 0000 0000 0000 0000 803f

net.rotations.0.ones_mat f4 [2, 2]
1.0 1.0 1.0 1.0
00000000: 0000 803f 0000 803f 0000 803f 0000 803f

net.rotations.0.I f4 [2, 2]
1.0 0.0 0.0 1.0
00000000: 0000 803f 0000 0000 0000 0000 0000 803f

net.flow_mapping.0.scale_layers.0.b f4 [1, 2]
-0.5313745 -0.3505521
00000000: 2908 08bf 917b b3be

net.flow_mapping.0.scale_layers.0.logs f4 [1, 2]
-0.15196656 -0.22488835
00000000: 1f9d 1bbe 2249 66be

net.flow_mapping.0.scale_layers.0.b_init f4 [1, 2]
0.0 0.0
00000000: 0000 0000 0000 0000

net.flow_mapping.0.scale_layers.0.logs_init f4 [1, 2]
0.0 0.0
00000000: 0000 0000 0000 0000

net.flow_mapping.0.scale_layers.1.b f4 [1, 2]
-0.3432624 -0.52463275
00000000: 17c0 afbe 554e 06bf

net.flow_mapping.0.scale_layers.1.logs f4 [1, 2]
-0.21564326 -0.15008447
00000000: 96d1 5cbe beaf 19be

net.flow_mapping.0.scale_layers.1.b_init f4 [1, 2]
0.0 0.0
00000000: 0000 0000 0000 0000

net.flow_mapping.0.scale_layers.1.logs_init f4 [1, 2]
0.0 0.0
00000000: 0000 0000 0000 0000

net.flow_mapping.0.scale_layers.2.b f4 [1, 2]
-0.49384454 -0.32924694
00000000: 31d9 fcbe 0e93 a8be

net.flow_mapping.0.scale_layers.2.logs f4 [1, 2]
-0.12288062 -0.22438587
00000000: d6a8 fbbd 69c5 65be

net.flow_mapping.0.scale_layers.2.b_init f4 [1, 2]
0.0 0.0
00000000: 0000 0000 0000 0000

net.flow_mapping.0.scale_layers.2.logs_init f4 [1, 2]
0.0 0.0
00000000: 0000 0000 0000 0000

net.flow_mapping.0.scale_layers.3.b f4 [1, 2]
-0.29092512 -0.34786415
00000000: 23f4 94be 401b b2be

net.flow_mapping.0.scale_layers.3.logs f4 [1, 2]
-0.09639172 -0.098591425
00000000: 0669 c5bd 4dea c9bd

net.flow_mapping.0.scale_layers.3.b_init f4 [1, 2]
0.0 0.0
00000000: 0000 0000 0000 0000

net.flow_mapping.0.scale_layers.3.logs_init f4 [1, 2]
0.0 0.0
00000000: 0000 0000 0000 0000

net.flow_mapping.0.scale_layers.4.b f4 [1, 2]
-0.3225523 -0.3054533
00000000: 9325 a5be 6064 9cbe

net.flow_mapping.0.scale_layers.4.logs f4 [1, 2]
-0.04731773 -0.18261585
00000000: 3cd0 41bd a6ff 3abe

net.flow_mapping.0.scale_layers.4.b_init f4 [1, 2]
0.0 0.0
00000000: 0000 0000 0000 0000

net.flow_mapping.0.scale_layers.4.logs_init f4 [1, 2]
0.0 0.0
00000000: 0000 0000 0000 0000

net.flow_mapping.0.scale_layers.5.b f4 [1, 2]
-0.29543367 -0.34876654
00000000: 1543 97be 8791 b2be

net.flow_mapping.0.scale_layers.5.logs f4 [1, 2]
-0.08093443 -0.06835229
00000000: f3c0 a5bd 49fc 8bbd

net.flow_mapping.0.scale_layers.5.b_init f4 [1, 2]
0.0 0.0
00000000: 0000 0000 0000 0000

net.flow_mapping.0.scale_layers.5.logs_init f4 [1, 2]
0.0 0.0
00000000: 0000 0000 0000 0000

net.flow_mapping.0.scale_layers.6.b f4 [1, 2]
-0.23489483 -0.19453853
00000000: 4588 70be 1c35 47be

net.flow_mapping.0.scale_layers.6.logs f4 [1, 2]
-0.026524 -0.07990244
00000000: dc48 d9bc e4a3 a3bd

net.flow_mapping.0.scale_layers.6.b_init f4 [1, 2]
0.0 0.0
00000000: 0000 0000 0000 0000

net.flow_mapping.0.scale_layers.6.logs_init f4 [1, 2]
0.0 0.0
00000000: 0000 0000 0000 0000

net.flow_mapping.0.scale_layers.7.b f4 [1, 2]
-0.109462954 -0.3036832
00000000: 1d2e e0bd 5d7c 9bbe

net.flow_mapping.0.scale_layers.7.logs f4 [1, 2]
0.009435609 -0.115305655
00000000: d097 1a3c 5f25 ecbd

net.flow_mapping.0.scale_layers.7.b_init f4 [1, 2]
0.0 0.0
00000000: 0000 0000 0000 0000

net.flow_mapping.0.scale_layers.7.logs_init f4 [1, 2]
0.0 0.0
00000000: 0000 0000 0000 0000

net.flow_mapping.0.scale_layers.8.b f4 [1, 2]
-0.21721661 -0.08472788
00000000: 086e 5ebe d085 adbd

net.flow_mapping.0.scale_layers.8.logs f4 [1, 2]
0.037573468 -0.22051558
00000000: a3e6 193d d6ce 61be

net.flow_mapping.0.scale_layers.8.b_init f4 [1, 2]
0.0 0.0
00000000: 0000 0000 0000 0000

net.flow_mapping.0.scale_layers.8.logs_init f4 [1, 2]
0.0 0.0
00000000: 0000 0000 0000 0000

net.flow_mapping.0.scale_layers.9.b f4 [1, 2]
0.19479686 -0.33612716
00000000: d478 473e dc18 acbe

net.flow_mapping.0.scale_layers.9.logs f4 [1, 2]
-0.00077361136 -0.15507528
00000000: 2ecc 4aba 0ecc 1ebe

net.flow_mapping.0.scale_layers.9.b_init f4 [1, 2]
0.0 0.0
00000000: 0000 0000 0000 0000

net.flow_mapping.0.scale_layers.9.logs_init f4 [1, 2]
0.0 0.0
00000000: 0000 0000 0000 0000

net.flow_mapping.0.affine_layers.0.net.0.weight f4 [32, 1]
-0.013023192 -3.1964585e-06 0.14018239 -0.0036589084 2.6078178e-05 0.16366419 -0.00032158347 0.1507549
-0.012698158 0.15688388 4.1853864e-06 -0.008222695 -0.002700187 0.15800597 -0.0030409398 0.15487744
-0.009675281 0.15925676 0.16383982 -0.014463306 0.15782689 0.14714226 -0.017188167 -0.0014498156
-0.015349322 0.14043103 0.16139296 -0.006877171 -0.018600294 0.15965603 -0.00095182995 0.1451038
00000000: 3a5f 55bc bd82 56b6 f98b 0f3e 4cca 6fbb
00000010: 76c2 da37 9697 273e 349a a8b9 7e5f 1a3e
00000020: ef0b 50bc 2ba6 203e 3270 8c36 7cb8 06bc
00000030: 9ff5 30bb 51cc 213e 814a 47bb 3198 1e3e
00000040: 1285 1ebc 3414 233e a0c5 273e 81f7 6cbc
00000050: 5f9d 213e 76ac 163e 33ce 8cbc bd07 beba
00000060: b97b 7bbc 27cd 0f3e 3244 253e e459 e1bb
00000070: a55f 98bc df7c 233e 3a84 79ba 1796 143e

net.flow_mapping.0.affine_layers.0.net.0.bias f4 [32]
0.018867748 -0.022240346 0.054338213 0.013673827 -0.00844756 0.032690175 0.004131115 0.053332016
-0.015645038 0.034747683 -0.0030934704 -0.037245076 0.016348448 0.03513307 -0.005032526 0.02825756
-0.0067440765 0.04478325 0.023449715 -0.011696862 0.031009054 0.031738162 0.019400783 0.0028025487
0.013609943 0.03624121 0.0337953 0.002590548 0.010245313 0.049173 -0.014370447 0.026053252
00000000: 8990 9a3c 6331 b6bc bf91 5e3d 3008 603c
00000010: a267 0abc 22e6 053d 4e5e 873b ac72 5a3d
00000020: 062a 80bc 9653 0e3d d2bb 4abb 4b8e 18bd
00000030: 2eed 853c b2e7 0f3d e3e7 a4bb 667c e73c
00000040: 6afd dcbb a46e 373d 9e19 c03c 32a4 3fbc
00000050: b306 fe3c e0ff 013d 64ee 9e3c f7aa 373b
00000060: 3dfc 5e3c aa71 143d f16c 0a3d 2fc6 293b
00000070: f5db 273c a169 493d 0672 6bbc a16d d53c

net.flow_mapping.0.affine_layers.0.net.2.weight f4 [32, 32]
0.0010388059 -0.0010863912 0.000713981 -0.0028565277 0.0031138917 -0.0027067729 0.00040187943 -0.00085696555
0.00047164745 0.0006268847 -0.0024963263 0.0009811213 0.003008087 0.001802565 0.0018799575 0.00057388697
0.00039112812 -0.0008716598 -0.002831959 -0.0022142173 -0.00048745528 -0.000675857 0.0029763496 0.0017610383
-0.0010202193 0.001519383 -3.8274884e-05 0.0025413847 -0.0016741129 -0.0028711455 0.0011510627 -0.0005605182
-0.0024371129 0.0014811449 0.001187839 5.186994e-05 0.0011299478 -0.0025011192 -0.0034531443 -0.0031110526
0.0010155756 0.0018066599 -0.0004660519 -0.0015331401 0.00087661087 -0.0015425138 -0.0007929955 -0.0004402075
-0.0023645943 0.0010294258 -0.0025181503 0.0010224346 0.00023511898 -0.0018795672 0.00042261925 -0.003017195
0.0015110784 -0.00070513075 0.00028179184 0.0003573671 0.0025538476 -0.002035277 -0.0010459552 -0.00062451157
-0.002441135 0.0015784057 -0.0014865857 0.00076613337 0.003230546 0.0013774658 -0.001904742 -0.0014369839
0.0009745711 0.0009759043 -0.003213757 -0.0003818719 0.0020978656 -0.0014679822 -0.00037574515 0.00096571754
0.0019051167 -0.00021788647 -0.0024460587 -0.0029470762 -0.00029589058 0.00035846734 -0.0033806432 -0.0030368087
0.0026766316 0.0014552434 -0.0031889868 -9.01924e-05 0.00047827966 -0.0039755492 0.0014559999 -0.003244057
0.0032625918 0.0014565155 -0.0019283058 0.0016558251 -0.0012398943 -0.0018287781 0.0018973367 -0.0032153719
0.0011115059 0.0030664436 -0.00093456486 -0.0032262218 -0.001638452 0.0032645748 -0.0029037388 -0.0017208152
-0.0016443426 -0.0024458051 -0.0004890926 -0.0005320175 -0.0014070735 -0.00095891196 -0.0024765735 0.0032569473
-0.0019921402 -0.0032046267 -0.003030713 0.0036475419 0.0011169739 -0.0013712044 0.0012700431 -0.0012260212
0.0022634834 -0.0008338479 0.1476726 -0.0034212181 -0.0021431418 0.16200882 0.0021126668 0.15582207
-0.000880144 0.15815878 0.0020682516 0.00103666 0.0022757582 0.15945649 0.0032525803 0.1601952
-0.0028600032 0.15932488 0.20836724 -0.0027572617 0.16239685 0.151713 -0.0014208698 0.0021360347
0.00029034124 0.1457746 0.19682726 -0.00067364087 0.0024431332 0.15556014 -8.117842e-05 0.15369757
0.0025422312 0.0034350124 0.0016454718 0.0032477304 0.0005740199 -0.0022896938 -0.00015569806 -0.0002844271
0.0009182933 0.0020145497 0.002657433 -0.0017522882 -0.00024240682 -0.00012323858 -0.0019478442 -0.0025678682
0.0022428401 -0.00015475643 -0.0005327639 -0.002473725 0.0014558408 -0.0020540196 0.00020901486 0.00051071617
-0.00053072145 -0.0022031756 -0.0031387082 0.0010381032 -0.0031583034 -0.0020613368 -0.0015131364 -0.0022201214
0.0003903935 0.0026181007 8.8225344e-05 -0.0018835125 -0.0022158811 -0.0018189006 -0.0020365936 -0.0024943468
-0.001718486 -0.0004381452 -0.0037655097 0.0032732978 -0.0008767882 -0.005697047 -0.0011144743 -0.005113347
0.00041840624 0.00045148117 0.004853812 0.0018340134 -0.00088703807 -0.002313695 -0.0014337825 0.0006241302
-0.0018775318 -3.6549866e-06 0.009473576 -0.00012057821 -0.0028199416 -0.0037899003 -0.0016072415 -0.0016162427
-0.0033153496 -0.00058400974 -0.0018535616 -0.0010481322 0.0026513957 -0.0035793185 -0.0020457741 -0.0017450034
0.0021302223 0.0028821304 0.0008597368 0.0021540204 0.00080606947 -0.0014302686 0.002676981 -0.0006296947
0.0036285773 -0.0029157675 0.0013050336 0.00032443524 0.00015237389 0.00091562164 0.0010171916 0.0013540211
0.0034501601 -0.0030365987 0.0018438178 0.0035115161 -0.0033318917 0.00033751663 -0.003433722 0.0004647699
00000000: 8b28 883a 3d65 8eba 742a 3b3a 9534 3bbb
00000010: 6f12 4c3b 1d64 31bb 58b3 d239 fca5 60ba
00000020: 7347 f739 8555 243a 6899 23bb f898 803a
00000030: 5323 453b 0b44 ec3a e868 f63a e770 163a
00000040: 5410 cd39 1980 64ba 6398 39bb 671c 11bb
00000050: 2491 ffb9 ff2b 31ba dc0e 433b a4d2 e63a
00000060: e1b8 85ba 0926 c73a 5889 20b8 5c8d 263b
00000070: e86d dbba d429 3cbb 41df 963a bdef 12ba
00000080: f8b7 1fbb fa22 c23a 43b1 9b3a ed8e 5938
00000090: c21a 943a d1e9 23bb 264e 62bb cde2 4bbb
000000a0: 101d 853a 72cd ec3a 6d58 f4b9 a5f3 c8ba
000000b0: 5ccc 653a 2d2e caba 07e1 4fba a7cb e6b9
000000c0: 4ff7 1abb cced 863a 8d07 25bb 3603 863a
000000d0: 458a 7639 cf5b f6ba ff92 dd39 22bc 45bb
000000e0: 610f c63a 86d8 38ba 76bd 9339 005d bb39
000000f0: 745e 273b 4862 05bb 6f18 89ba 43b6 23ba
00000100: 73fb 1fbb 82e2 ce3a 8ad9 c2ba 57d6 483a
00000110: 91b7 533b 158c b43a 89a8 f9ba 2e59 bcba
00000120: 5c7a 7f3a d4d3 7f3a e59d 52bb fb35 c8b9
00000130: 587c 093b 4f69 c0ba a9ff c4b9 3528 7d3a
00000140: 1cb5 f93a 7478 64b9 0e4e 20bb bc23 41bb
00000150: c321 9bb9 acf0 bb39 c88d 5dbb 3205 47bb
00000160: 6d6a 2f3b debd be3a 52fe 50bb ad25 bdb8
00000170: 9cc1 fa39 5345 82bb 40d7 be3a 3f9a 54bb
00000180: 35d1 553b 8de8 be3a 35bf fcba 4508 d93a
00000190: f383 a2ba 9cb3 efba 0eb0 f83a fdb8 52bb
000001a0: f3af 913a 63f6 483b 96fd 74ba 056f 53bb
000001b0: 54c1 d6ba 7af2 553b a74c 3ebb fa8c e1ba
000001c0: fb86 d7ba cd49 20bb 7336 00ba 1777 0bba
000001d0: 8d6d b8ba 7e5f 7bba 024e 22bb 8272 553b
000001e0: 918e 02bb b704 52bb ed9e 46bb 990b 6f3b
000001f0: 6d67 923a fcb9 b3ba 9377 a63a 72b2 a0ba
00000200: f356 143b 9696 5aba 7c37 173e 8436 60bb
00000210: f473 0cbb a4e5 253e ab74 0a3b d28f 1f3e
00000220: 77b9 66ba 60f4 213e 818b 073b 8ae0 873a
00000230: e324 153b 9048 233e 3e29 553b 360a 243e
00000240: e46e 3bbb 1026 233e 395e 553e 2db3 34bb
00000250: 5c4b 263e a75a 1b3e 7b3c baba b7fc 0b3b
00000260: f138 9839 f045 153e 168d 493e 4697 30ba
00000270: f91c 203b 284b 1f3e 553e aab8 e562 1d3e
00000280: 909b 263b f21d 613b dfac d73a e0d7 543b
00000290: d379 163a b00e 16bb e142 23b9 291f 95b9
000002a0: 9fb9 703a 8906 043b 5428 2e3b 09ad e5ba
000002b0: 962e 7eb9 9b39 01b9 ce4e ffba ae49 28bb
000002c0: 9dfc 123b 1d46 22b9 2ea9 0bba 381e 22bb
000002d0: e9d1 be3a bb9c 06bb 002b 5b39 95e1 053a
000002e0: 1d20 0bba 2763 10bb c9b2 4dbb f710 883a
000002f0: 8afb 4ebb 7e17 07bb 6f54 c6ba 757f 11bb
00000300: bbad cc39 7194 2b3b 9f05 b938 31e0 f6ba
00000310: 5138 11bb 2d68 eeba 5f78 05bb 3278 23bb
00000320: d23e e1ba dab6 e5b9 c5c6 76bb d384 563b
00000330: 43d8 65ba 4bae babb 8d13 92ba dd8d a7bb
00000340: 895d db39 c7b4 ec39 ba0c 9f3b 4763 f03a
00000350: 1e88 68ba 5ca1 17bb c2ed bbba ab9c 233a
00000360: 8317 f6ba 3148 75b6 0f37 1b3c efde fcb8
00000370: c5ce 38bb fa5f 78bb 13aa d2ba 1bd8 d3ba
00000380: 5646 59bb 3b18 19ba 35f3 f2ba 7b61 89ba
00000390: 0ac3 2d3b 0093 6abb 6512 06bb 99b8 e4ba
000003a0: 339b 0b3b 20e2 3c3b f65f 613a 772a 0d3b
000003b0: 684e 533a da77 bbba 4a70 2f3b 1912 25ba
000003c0: 6dcd 6d3b 7616 3fbb a90d ab3a f618 aa39
000003d0: 8ec6 1f39 5406 703a 4953 853a 6979 b13a
000003e0: 151c 623b ac01 47bb 42ac f13a 7721 663b
000003f0: de5b 5abb b7f4 b039 4c08 61bb 5cac f339

net.flow_mapping.0.affine_layers.0.net.2.bias f4 [32]
-0.0015444296 -0.00017516006 -0.0013332535 0.0011170056 0.08488591 0.0012365817 -0.007143814 -0.0015114519
0.00072987913 -0.0013785845 -0.013273593 -0.003550703 -0.0017338363 0.0010601716 -0.0013421603 -0.0021098088
-0.009984686 -0.0034395887 -0.002497769 -0.0019842624 0.0020297244 -0.015163267 -0.0025398894 -0.005779621
0.083557285 0.08889686 0.08075002 -0.0030156535 -0.003513406 0.002858807 0.00075967616 -0.0034696518
00000000: 756e caba 2cab 37b9 90c0 aeba 7d68 923a
00000010: aad8 ad3d cc14 a23a a816 eabb e91b c6ba
00000020: 5c55 3f3a 9fb1 b4ba 7c79 59bc e9b2 68bb
00000030: e441 e3ba 75f5 8a3a 6deb afba b844 0abb
00000040: cf96 23bc b96a 61bb 9cb1 23bb 660a 02bb
00000050: 2005 053b 5a6f 78bc 4674 26bb fa62 bdbb
00000060: 1520 ab3d 8f0f b63d 4460 a53d 45a2 45bb
00000070: 2c41 66bb d35a 3b3b 0125 473a 1963 63bb

net.flow_mapping.0.affine_layers.0.net.4.weight f4 [32, 32]
0.002893508 -0.0029999455 -0.0036113209 -0.0033725218 -0.002857936 -0.0028391897 -0.0019804272 -0.0020031263
0.00093302387 -0.00096117525 -0.0015332635 0.0013214137 0.002399789 0.0007128831 0.002264472 0.0031167257
0.0035065445 0.0013483958 0.0028054405 -0.0023728875 0.0017680336 9.100891e-05 -0.0007613203 0.0018512313
-0.0019405565 -0.0020942062 -0.0024381797 -0.0029271957 -0.0016952836 -0.0028696281 -0.0020309782 -0.002355099
0.0015071209 -0.0012097452 -0.00045416542 -0.0006329772 0.15425692 0.00034342104 0.0015764453 -0.0029232842
-0.0006479483 0.00049810717 -0.00038076827 0.0014020035 0.0002204343 -0.0017827762 0.0005311339 -0.001887909
0.001093297 -0.0012773016 -0.003282299 -0.0015191641 0.0031137357 0.0025025993 -0.0011350649 0.0031552105
0.16137269 0.16098057 0.15403152 -9.461363e-05 0.0030061638 -0.00038064818 -0.0005564916 0.0014466759
-0.0018744027 0.00014772969 -0.00018873691 0.0030350208 -0.0003886888 -0.0006894223 0.00037344272 0.0008981093
-0.0027015316 0.0018020234 0.0022678603 0.0028934865 0.00038502476 0.0004498687 0.002560808 -0.0026188286
0.002418437 -0.0009519188 0.00203822 0.0010542389 0.00032062357 0.00083785603 -0.0025090575 -0.0029666529
0.0027897088 -0.0032865182 -0.002891973 -0.003108398 0.002591709 -0.0011088018 0.0019993 -0.0031387575
0.0005502691 -0.0015158862 -0.0010417881 -0.00059758744 -0.003613163 0.0010173172 0.0006110853 -0.0032057571
0.002689312 -0.0020840026 0.0020515725 -0.002951387 0.0001195396 0.00088357885 -0.0023954366 0.0016624184
0.001774118 0.0013051394 0.0025176273 0.0013843644 0.00019052964 0.002816338 -0.0023236303 -0.0024104253
-0.00021053493 0.00026470222 -0.001790976 0.00031382902 -0.0009565626 -3.8321454e-05 0.0012366164 -0.00030855098
-0.003453196 -0.0027031808 0.0030549215 0.002131259 0.1494995 -0.00060247234 -0.0035410211 -0.0029503407
-0.0028861389 0.002461477 -0.0015983674 0.002756683 0.0017271587 -0.0022931895 0.0013412 0.001775609
0.004772769 0.001049673 0.00070541905 -0.003414542 -0.0037185303 -0.0013001858 -0.0019971647 -0.0015320751
0.15742639 0.15500645 0.15475887 0.00026902455 0.0006731682 0.00293809 0.0030048315 0.0016393063
0.001454512 0.0021220075 -0.0027263414 0.0033356159 -0.001114911 0.0021513219 0.00039365052 -0.0006773545
-0.00012836607 -0.0009153283 -0.0011399469 -0.00297092 0.00033046695 0.003503588 -0.0014497187 0.0003310794
-0.0018910192 -0.0027396285 0.0027365827 0.002244796 0.0016779762 0.000103917715 -0.00022158764 0.00057530584
0.0013308517 -0.0038331263 0.0017124095 7.140447e-05 0.0033674168 0.00075778906 -0.0019197885 0.0032557715
-0.0033207613 0.0035216503 0.0030397729 -0.0015510217 -0.000760906 0.0034745552 0.0030844996 0.0016414566
0.003630448 0.0027192004 4.4219447e-05 0.0018638178 0.0021311862 0.0003571437 -0.0024669147 -0.00032923967
-0.003378514 -0.0020186545 -0.0029306598 -0.0003468519 -6.522128e-05 0.0025797605 0.0007883417 -0.0014882127
-0.00295001 -0.00067921425 -0.0034619698 -0.0027752593 0.0016652514 -0.00084971637 0.002621483 0.0006657497
0.0011387363 -0.0021366433 0.0030852326 -0.0028088335 -0.0022853327 -0.0015667651 0.0033419526 0.0029217233
-0.0015104942 -0.0014319671 0.0023706353 -0.00013685763 -0.0019998483 0.0012387764 0.0027766034 0.0017736903
-0.00079713314 0.0024553137 0.002708741 0.002455278 0.0021916013 -0.0027793352 0.0017537061 -0.00043708106
0.0018282746 -0.0017105495 -0.00023243019 -0.0026443668 -0.0031682323 0.0005421188 -0.003485746 -0.0019139067
00000000: 02a1 3d3b bc9a 44bb e9ab 6cbb 8705 5dbb
00000010: 364c 3bbb b311 3abb 0eca 01bb e246 03bb
00000020: 2c96 743a 61f7 7bba c9f7 c8ba 4933 ad3a
00000030: c745 1d3b c6e0 3a3a 8967 143b fb41 4c3b
00000040: 0ece 653b a8bc b03a 7bdb 373b 7282 1bbb
00000050: 5dbd e73a 09dc be38 5793 47ba 04a5 f23a
00000060: 455a feba f33e 09bb dec9 1fbb 32d6 3fbb
00000070: 4734 deba 5f10 3cbb 291a 05bb 0158 1abb
00000080: 968a c53a 5090 9eba 0d1d eeb9 61ee 25ba
00000090: 87f5 1d3e 310d b439 baa0 ce3a 9294 3fbb
000000a0: 13db 29ba 6893 023a daa1 c7b9 6ec3 b73a
000000b0: 6224 6739 0bac e9ba cb3b 0b3a b773 f7ba
000000c0: f64c 8f3a 216b a7ba d71b 57bb b01e c7ba
000000d0: d10f 4c3b a602 243b 75c6 94ba a6c7 4e3b
000000e0: e23e 253e 17d8 243e 70ba 1d3e 4e6b c6b8
000000f0: 0f03 453b bc91 c7b9 85e1 11ba 639e bd3a
00000100: 85ae f5ba e3e7 1a39 aee7 45b9 33e7 463b
00000110: edc8 cbb9 59ba 34ba a2ca c339 186f 6b3a
00000120: 2e0c 31bb df31 ec3a 62a0 143b a6a0 3d3b
00000130: 26dd c939 5bdc eb39 3bd3 273b a7a0 2bbb
00000140: a47e 1e3b 308a 79ba a893 053b 632e 8a3a
00000150: 5e19 a839 91a3 5b3a 006f 24bb 2d6c 42bb
00000160: 8cd3 363b a062 57bb 4187 3dbb 44b6 4bbb
00000170: a9d9 293b 3755 91ba b006 033b 9db3 4dbb
00000180: ef3f 103a b3b0 c6ba 9c8c 88ba 6aa7 1cba
00000190: d1ca 6cbb 8057 853a 3e31 203a ae17 52bb
000001a0: 2b3f 303b c393 08bb ad73 063b 0f6c 41bb
000001b0: 56b1 fa38 f99f 673a c2fc 1cbb 81e5 d93a
000001c0: 8689 e83a 3611 ab3a c7fe 243b 9073 b53a
000001d0: e9c8 4739 5092 383b 0c48 18bb 3af8 1dbb
000001e0: 0ac3 5cb9 bbc7 8a39 2fbf eaba 6b89 a439
000001f0: d4c1 7aba 59bb 20b8 f615 a23a 03c5 a1b9
00000200: 044f 62bb d927 31bb 1435 483b 98ac 0b3b
00000210: 6616 193e 3cef 1dba 7a10 68bb 815a 41bb
00000220: 6025 3dbb bb50 213b 4f80 d1ba 77a9 343b
00000230: d461 e23a 5649 16bb 34cb af3a 8dbb e83a
00000240: e364 9c3b 2e95 893a dfeb 383a 82c6 5fbb
00000250: 96b2 73bb ff6a aaba dde2 02bb e9cf c8ba
00000260: 6234 213e 03ba 1e3e 1c79 1e3e dd0b 8d39
00000270: 8e77 303a f88c 403b b5ec 443b fedd d63a
00000280: 53a5 be3a 6111 0b3b 6bac 32bb 599a 5a3b
00000290: 3522 92ba 31fd 0c3b e162 ce39 7e90 31ba
000002a0: 019a 06b9 a4f2 6fba 456a 95ba c4b3 42bb
000002b0: 8642 ad39 749c 653b 7d04 beba ba94 ad39
000002c0: 13dc f7ba 578b 33bb 3d58 333b 6d1d 133b
000002d0: 8aef db3a 66ee d938 fb59 68b9 1fd0 163a
000002e0: f96f ae3a 3035 7bbb ee72 e03a fcbe 9538
000002f0: e1af 5c3b 5da6 463a 6aa1 fbba c85e 553b
00000300: 21a1 59bb 7dcb 663b ed36 473b a74b cbba
00000310: 8a77 47ba 5db5 633b 5125 4a3b 2526 d73a
00000320: cfec 6d3b 9d34 323b 4578 3938 594b f43a
00000330: 5fab 0b3b 043f bb39 f6ab 21bb cd9d acb9
00000340: 0f6a 5dbb 674b 04bb 5010 40bb add9 b5b9
00000350: 68c7 88b8 3311 293b b7a8 4e3a 2210 c3ba
00000360: f454 41bb 4c0d 32ba 37e2 62bb 20e1 35bb
00000370: 9144 da3a 80bf 5eba 30cd 2b3b b585 2e3a
00000380: a641 953a ed06 0cbb 9d31 4a3b 6814 38bb
00000390: 85c5 15bb ea5b cdba a904 5b3b 627a 3f3b
000003a0: c6fb c5ba d8b0 bbba a95c 1b3b 7181 0fb9
000003b0: e30f 03bb 705e a23a adf7 353b 2c7b e83a
000003c0: b3f6 50ba 54e9 203b 2285 313b bbe8 203b
000003d0: f8a0 0f3b 8225 36bb 9ddc e53a 0728 e5b9
000003e0: b7a2 ef3a 8434 e0ba 81b8 73b9 1d4d 2dbb
000003f0: 1ea2 4fbb fa1c 0e3a 1d71 64bb 0ddc faba

net.flow_mapping.0.affine_layers.0.net.4.bias f4 [32]
0.002266862 0.13141008 0.0049089426 -0.005199628 0.12809528 0.003668114 0.0034825087 -0.0014606627
-0.003877385 -0.0131559735 0.00088226434 0.0010812276 -0.0010848294 -0.004918801 0.095299475 0.0038546852
0.0036152499 -0.003024583 0.1260949 0.0012715615 0.001032563 0.0016469853 0.0022534875 -0.00041386887
-0.01108412 0.0074830656 -0.0029988193 0.0010566546 0.00033992447 -0.0013252834 -0.0039878995 -0.0032844176
00000000: a28f 143b 5d90 063e 32db a03b a461 aabb
00000010: 692b 033e be64 703b cd3a 643b b573 bfba
00000020: ba1b 7ebb 278c 57bc c247 673a fab7 8d3a
00000030: d630 8eba e52d a1bb 5f2c c33d e39e 7c3b
00000040: d4ed 6c3b 1538 46bb 051f 013e 86aa a63a
00000050: 1157 873a a8df d73a 3faf 133b 8afc d8b9
00000060: 2b9a 35bc 8134 f53b d787 44bb 727f 8a3a
00000070: e437 b239 22b5 adba edac 82bb 623f 57bb

net.flow_mapping.0.affine_layers.0.net.6.weight f4 [32, 32]
0.0008319761 0.0013069389 -0.0027119794 0.0014495105 -0.003306615 -0.0010209789 -0.0010341652 -0.0010852314
-0.0012497265 -0.0023116467 0.003488979 -0.0017845216 0.0032938444 0.0010812173 -0.003372915 -0.0018442936
-0.0014856476 0.00010885161 0.002560545 -0.0013777022 0.0031335447 0.0026001025 0.0019433084 -0.0017598483
-0.0018918214 -0.0028684912 -0.0015147224 0.0031047675 0.0016753097 -0.0033925446 -0.00044455728 0.00020620071
0.002732678 -0.00011996594 -7.422424e-05 0.001261079 0.0023415303 -0.0045207296 0.0022323125 0.00027285249
0.0005566423 -0.0020859772 -0.00063940266 -0.0013367918 -0.001296899 0.0013631585 -0.00040314056 -0.0024660185
0.0020714297 0.0016307336 -0.002177172 -0.0027631847 0.001955106 0.0029428098 0.003512315 -0.00084392587
-0.00067771954 -0.0040577385 -0.0019258598 -1.4038862e-05 -0.0027501166 0.0014686596 -0.0022316196 0.0026068222
-0.0030896103 0.15751071 0.00018038772 -0.0022295185 0.1507545 0.0035007023 0.0024576646 0.0023101638
-0.0015357224 -0.0008807479 0.0026377046 1.9842462e-05 -0.00017494509 0.0007126596 0.13284014 0.0012573478
0.0023212961 -0.0013487613 0.14738254 -0.0012237863 -0.0011452682 -0.0005880992 0.00048906985 -0.0035373785
-0.0027731394 0.0005293592 -0.0006747606 -0.0001918222 0.00389035 0.00070361816 0.0020044737 0.0015482771
6.680788e-05 0.00016502485 -0.0028342349 -0.0031867737 -0.00035002967 0.0020773076 -0.0025529098 -0.0035301694
-0.0018533799 0.0005589019 -0.0019554424 0.0020605433 0.0025333336 0.0009804997 0.0021005748 -0.0032636812
-0.0010429089 -0.0017460511 -0.003636034 -0.0030791117 0.0004862108 0.00073976535 6.3444563e-06 0.0033057712
-0.000804015 -0.0036461838 0.0008441075 0.0035800284 0.0020399075 0.0015981364 0.001851804 -0.0035884485
0.000119517805 -0.00068217836 -0.001126786 -0.003063212 -0.0017088596 0.00010157859 -0.0006527546 -0.0017683973
0.0017254811 -0.0024210564 -0.00049416366 0.0031381429 0.002673612 0.0015283369 0.003353486 0.0029280747
0.0008845457 -0.00022127539 -0.0029793405 0.0033482243 0.00043261377 0.0005452262 -7.79538e-05 0.00013771605
0.00037090218 -0.0002770661 0.0020513637 -0.00022283396 0.0026629374 -0.002465924 0.0033656831 -0.0017057675
0.0016285591 -0.0025382515 -0.0012443251 -0.0025020356 0.0018433678 -0.00065553194 -0.0019841932 -0.0009820332
0.0018563247 8.26602e-06 -0.0034076727 0.0010640096 -0.0007401863 -0.0012478404 0.0019786945 -0.0031702393
-0.0030445 -0.002634833 -0.0011062984 -0.004616029 0.0014921515 -0.00041013447 -0.0013600372 -0.002859782
-9.739258e-05 -0.0030772726 0.0005829288 0.0026823168 0.0006262836 0.002020223 0.00032514578 0.0009511949
0.001883322 0.16063248 -0.0016085058 -0.0021922446 0.15741582 0.0020034849 -0.0032456769 0.00059680844
-0.00022668536 0.0031250084 0.0011144385 0.0006257814 -0.0034176342 -0.0010000921 0.16415367 -9.548569e-05
0.0031031372 0.0007158922 0.15221576 -0.0024095098 -0.002340794 -0.0019033498 0.0003211879 0.00036654976
0.0033341027 -0.0007359983 0.001476124 -0.0016452766 6.2737774e-05 0.0031058828 0.0018475318 -0.0028423765
0.002792838 0.0006905135 -0.00088633335 -0.0017142671 -0.0016814524 0.0013680765 0.0025402305 -0.00211765
0.00023595769 -0.003548193 -0.0032462592 -0.0005465127 0.0027186936 0.00069122884 -0.0073567647 0.0026478355
-0.0005466383 -0.00042137134 0.00028235253 -0.0003763782 -0.0028961785 0.001789786 -0.0030710895 -0.00010681447
-0.0046408284 0.002551498 0.0017146384 0.002031287 0.00029396568 -0.0010698037 -0.0044504986 -0.003221742
00000000: f918 5a3a 984d ab3a 77bb 31bb 80fd bd3a
00000010: cbb3 58bb 5ed2 85ba d38c 87ba 533e 8eba
00000020: ddcd a3ba ff7e 17bb 5ba7 643b 9ce6 e9ba
00000030: 8add 573b a2b7 8d3a 200c 5dbb 39bc f1ba
00000040: 10ba c2ba 4347 e438 d1ce 273b 0494 b4ba
00000050: 285c 4d3b 7b66 2a3b 9cb6 fe3a b6aa e6ba
00000060: fef6 f7ba 4cfd 3bbb a689 c6ba 5b79 4b3b
00000070: 1196 db3a 7455 5ebb 7813 e9b9 9537 5839
00000080: bb16 333b 3996 fbb8 d6a8 9bb8 ca4a a53a
00000090: 5c74 193b a122 94bb fd4b 123b a40d 8f39
000000a0: a2eb 113a e4b4 08bb 969d 27ba 4a37 afba
000000b0: b6fc a9ba 02ac b23a 9c5c d3b9 ed9c 21bb
000000c0: d3c0 073b 57be d53a e3ae 0ebb 8c16 35bb
000000d0: 3c21 003b 28dc 403b de2e 663b e83a 5dba
000000e0: fda8 31ba c7f6 84bb 226d fcba 7488 6bb7
000000f0: 4d3b 34bb 0a80 c03a 5d40 12bb 38d7 2a3b
00000100: 0f7b 4abb 7d4a 213e 7626 3d39 1d1d 12bb
00000110: 635f 1a3e 0a6c 653b c510 213b 1e66 173b
00000120: 4b4a c9ba fee1 66ba 57dd 2c3b 5d73 a637
00000130: 7771 37b9 c7d1 3a3a 3f07 083e 97cd a43a
00000140: e320 183b ebc8 b0ba 73eb 163e 7467 a0ba
00000150: d31c 96ba ab2a 1aba ec34 003a 5dd3 67bb
00000160: 8fbd 35bb b2c4 0a3a 6be2 30ba e123 49b9
00000170: 3ef5 7e3b 0473 383a 7d5d 033b 8fef ca3a
00000180: 351b 8c38 850a 2d39 92be 39bb 31d9 50bb
00000190: 3084 b7b9 7023 083b b84e 27bb 6a5a 67bb
000001a0: 1ced f2ba 4683 123a e126 00bb 2e0a 073b
000001b0: 4906 263b 1c84 803a cca9 093b 7ce3 55bb
000001c0: 37b2 88ba c1db e4ba 874a 6ebb ecca 49bb
000001d0: 1cea fe39 d0ec 413a 77e2 d436 a3a5 583b
000001e0: 89c4 52ba d0f4 6ebb 1847 5d3a e99e 6a3b
000001f0: f8af 053b 8f78 d13a 3bb8 f23a 2d2c 6bbb
00000200: a2a5 fa38 37d4 32ba aab0 93ba 2bc0 48bb
00000210: d0fb dfba 9706 d538 9f1d 2bba 91c9 e7ba
00000220: 8a29 e23a 96aa 1ebb c38a 01ba 4da9 4d3b
00000230: c437 2f3b 7a52 c83a 29c6 5b3b f1e4 3f3b
00000240: dbe0 673a 2906 68b9 0a41 43bb e26d 5b3b
00000250: 70d0 e239 83ed 0e3a 217b a3b8 df67 1039
00000260: a675 c239 2f43 91b9 2c70 063b 89a8 69b9
00000270: ad84 2e3b 579b 21bb cb92 5c3b 0f94 dfba
00000280: 6075 d53a cb58 26bb 9f18 a3ba 31f9 23bb
00000290: 299d f13a 01d8 2bba 3d09 02bb 91b7 80ba
000002a0: ec4f f33a 49ae 0a37 4353 5fbb 3d76 8b3a
000002b0: 1009 42ba 938e a3ba fcac 013b cac3 4fbb
000002c0: 3c86 47bb 2aad 2cbb 3701 91ba 0f42 97bb
000002d0: 4c94 c33a 5107 d7b9 4743 b2ba 2e6b 3bbb
000002e0: 3e3f ccb8 11ac 49bb b1cf 183a cfc9 2f3b
000002f0: 2e2d 243a b865 043b 5478 aa39 9c59 793a
00000300: cdd9 f63a d77c 243e 80d4 d2ba c3ab 0fbb
00000310: 9d31 213e e64c 033b 6cb5 54bb 2373 1c3a
00000320: 63b2 6db9 f1cc 4c3b 5a12 923a 7b0b 243a
00000330: 63fa 5fbb 8615 83ba e617 283e 7d3f c8b8
00000340: 015e 4b3b b6aa 3b3a 73de 1b3e dee8 1dbb
00000350: 0268 19bb d279 f9ba 1c65 a839 7a2d c039
00000360: f680 5a3b 03f0 40ba 817a c13a 52a6 d7ba
00000370: 1692 8338 118c 4b3b e128 f23a 2a47 3abb
00000380: 0c08 373b 9403 353a d358 68ba 42b1 e0ba
00000390: 2e64 dcba 0851 b33a ff79 263b 45c8 0abb
000003a0: 696b 7739 cd88 68bb 31bf 54bb d943 0fba
000003b0: 1c2c 323b 9533 353a 0411 f1bb 4f87 2d3b
000003c0: 464c 0fba 81eb dcb9 b708 9439 a054 c5b9
000003d0: d0cd 3dbb 4197 ea3a 5544 49bb 9501 e0b8
000003e0: 1712 98bb 0837 273b b8bd e03a 571f 053b
000003f0: 681f 9a39 a838 8cba 7dd5 91bb dd23 53bb

net.flow_mapping.0.affine_layers.0.net.6.bias f4 [32]
-0.00042587784 -0.005745347 0.21219768 0.00091286114 -0.0009710577 -0.0022195817 0.14604118 -0.0023767962
0.004411749 -0.00030649864 -2.6201424e-05 -0.005371471 -0.002642463 -0.005712207 0.00014916525 0.18071936
-0.0014019024 7.458232e-05 0.1876783 -0.0009567364 -0.00028076067 0.0022238372 -0.003127947 -0.00056548667
0.003142531 -0.0034022871 0.0035911868 0.007360149 -0.0025265212 0.17422391 -0.00686699 -0.0019609495
00000000: 5b48 dfb9 7743 bcbb 594a 593e 134d 6f3a
00000010: 948e 7eba 6776 11bb d28b 153e 06c4 1bbb
00000020: 6f90 903b 8db1 a0b9 21cb dbb7 2a03 b0bb
00000030: 2c2d 2dbb 772d bbbb 3e69 1c39 7f0e 393e
00000040: 0ac0 b7ba 1469 9c38 be2e 403e 7ecd 7aba
00000050: 0f33 93b9 ccbd 113b 3efe 4cbb 2b3d 14ba
00000060: ecf2 4d3b e8f8 5ebb 1e5a 6b3b 682d f13b
00000070: fe93 25bb c167 323e 7d04 e1bb 4683 00bb

net.flow_mapping.0.affine_layers.0.net.8.weight f4 [32, 32]
-0.003357205 0.0011890596 -0.0033240535 0.0031011172 -0.0015106242 -0.00039307898 -0.0013691114 0.0031550021
0.001934804 -0.003019715 0.0011473582 0.00017386534 0.0024094004 0.0019424122 -0.001117422 0.0006259704
0.0026538018 -0.0013973655 -0.0026312582 0.0007642119 0.00093405263 0.0014933813 0.000409909 -0.0011551867
0.0023793525 0.0003869603 0.001296266 0.0010015058 -0.0014102433 -0.0027215132 0.0035849838 -0.002772966
0.00035114484 0.002457158 -0.0020304448 -0.0005218146 0.0034727496 0.0031332152 0.0015579021 0.0011484518
-0.002686869 -0.0003790777 -0.0015999569 0.00093437335 0.0024866506 -0.0014713012 -0.0034415384 -0.0008938431
-0.0025281871 0.00060946774 -0.0016840101 -0.0024472412 -0.0020030753 0.0021480257 -0.0009986481 -0.0005508787
-0.002056345 -0.0005665084 0.0031061575 0.0033963893 3.6743993e-05 -0.0020432505 -0.0035827248 0.0006728017
0.00040310397 0.0021733667 -0.0025686987 -0.0014223354 0.0031126782 0.00019778313 0.001622597 -0.002089096
0.0018477787 0.0021170394 -0.0023524498 0.0035361564 0.002527905 -0.0024992109 0.0015482556 0.0010263893
-0.002364719 0.00066815445 -0.002264662 -0.0023418874 -0.00082002115 -0.0035029252 0.0013406578 -0.0034727063
0.0024919752 0.0006417503 -0.0002352154 -0.004442208 -0.0008366107 -0.0005807897 0.0012798505 0.0018795322
-0.0010981074 -0.00023400357 -0.00205205 0.0030569064 -0.00022025993 -0.0013338507 0.0030010305 -0.002437355
0.002087473 -0.0014851071 5.9303704e-05 0.0023142505 0.0014243599 0.00015429282 -0.0023653454 -0.0019567176
-0.0025551522 -0.00078234985 -0.0036185682 0.0018025853 -0.0028610828 0.0008857698 -0.00053521973 -0.0028605284
-0.0015040839 -0.00026556893 -0.0012582982 -0.0002572299 -0.0017592224 0.0018041861 -0.00012210019 -0.0005811896
7.954309e-05 -3.5060748e-05 0.16947708 0.0029076135 0.0019955789 9.144687e-05 0.15566407 -0.0016121984
0.0007728597 0.00018648975 0.0012956219 -0.0029334847 -0.0029492164 0.0019685477 -0.0031542606 0.16475311
-0.0029587527 0.0023968276 0.1632307 0.003155596 -0.0019838195 -0.00011167947 -0.0017011913 -0.0017345622
0.0026217203 -0.0034620843 0.0004215561 0.0020556445 0.0013700977 0.16151597 -0.0010937261 -6.0434948e-05
-0.0029694368 -0.0008661629 0.17114086 -0.0014297918 0.0016905053 0.0027375885 0.16437826 0.0006620529
-0.0018877266 -0.00325879 -0.0032133744 0.001064636 -0.0004990257 0.0005175616 0.0013231407 0.16288178
-0.0033170984 -0.0018080204 0.16357271 -0.0011492769 0.0023221478 -0.0010135834 -0.0016383191 0.0005898011
0.0019940957 -0.001495708 -0.0004982428 0.0031598057 -0.0010918697 0.16621374 -0.0009976131 -0.0036354947
-0.00055600185 0.003462121 6.194142e-05 0.00015588924 -0.0034776435 0.00037870504 -0.0016015371 -0.0046690265
-0.002886096 0.0035182561 -0.0034191445 -0.0005981727 0.0023562892 0.0024383757 -0.00076031534 -0.00032195082
-0.0007896482 -0.00019966564 0.0016867724 -0.00039592778 0.0020859737 0.0007250479 0.0032228546 0.00089243293
0.00037889642 0.00015554011 0.0020018702 0.00041953902 0.001941046 -0.004927311 0.0019154081 0.0009718265
-0.0005121968 -0.0025563815 -0.0035536448 0.0007878976 -0.0006612436 -0.0015323039 -0.00019474373 -0.00290388
-0.00341351 -0.002657673 -0.0010878468 0.0015571035 0.0011208613 0.00084967987 0.003363586 -0.0027303598
0.00047034983 0.0004138358 0.0023282256 -0.0028964942 -0.00091177534 -0.0022043167 -0.0004789543 -0.0011894901
0.0008751162 -0.0010872633 -0.0009634433 -0.0033991532 0.0015485432 -0.0018381703 -0.0030126297 0.000681816
00000000: 8e04 5cbb 38da 9b3a 5dd8 59bb 1d3c 4b3b
00000010: 2300 c6ba 2b16 ceb9 c173 b3ba 27c4 4e3b
00000020: 4099 fd3a 69e6 45bb f462 963a 9f4f 3639
00000030: 08e7 1d3b 8a98 fe3a 7676 92ba 2a18 243a
00000040: 68eb 2d3b ce27 b7ba 3071 2cbb 6455 483a
00000050: 36db 743a 90bd c33a 0ee9 d639 a269 97ba
00000060: e9ee 1b3b efe0 ca39 78e7 a93a f544 833a
00000070: ead7 b8ba 6a5b 32bb 0cf2 6a3b a6ba 35bb
00000080: dd19 b839 4508 213b 3611 05bb 63ca 08ba
00000090: 1297 633b a156 4d3b 8532 cc3a a687 963a
000000a0: 2e16 30bb f3be c6b9 a5b5 d1ba bcf0 743a
000000b0: 13f7 223b add8 c0ba 6f8b 61bb cc50 6aba
000000c0: f1af 25bb b0c4 1f3a 01ba dcba e561 20bb
000000d0: 0746 03bb e4c5 0c3b 12e5 82ba d868 10ba
000000e0: bfc3 06bb bc81 14ba ad90 4b3b f595 5e3b
000000f0: 901d 1a38 0ee8 05bb 26cc 6abb f55e 303a
00000100: b357 d339 0b6f 0e3b 9d57 28bb a86d baba
00000110: 13fe 4b3b 0164 4f39 52ad d43a 37e9 08bb
00000120: 2a31 f23a 07be 0a3b 8f2b 1abb dcbe 673b
00000130: 35ab 253b cdc9 23bb d6ee ca3a e987 863a
00000140: 67f9 1abb 1627 2f3a b96a 14bb 5a7a 19bb
00000150: b0f6 56ba 5591 65bb 03b9 af3a 5896 63bb
00000160: 6850 233b 223b 283a 27a4 76b9 f18f 91bb
00000170: fe4f 5bba 2340 18ba a8c0 a73a a35a f63a
00000180: 5fee 8fba db5e 75b9 b07b 06bb 6156 483b
00000190: 93f5 66b9 9ad4 aeba f0ac 443b 08bc 1fbb
000001a0: fccd 083b eda7 c2ba debc 7838 aeaa 173b
000001b0: 96b1 ba3a aac9 2139 e903 1bbb 463c 00bb
000001c0: 5774 27bb 9c16 4dba 8025 6dbb ba44 ec3a
000001d0: 0181 3bbb 0133 683a fd4d 0cba b477 3bbb
000001e0: ae24 c5ba 0f3c 8bb9 7bed a4ba d0dc 86b9
000001f0: b595 e6ba 717a ec3a 0508 00b9 f95a 18ba
00000200: 5fd0 a638 310e 13b8 668b 2d3e a98d 3e3b
00000210: 42c8 023b 2ac7 bf38 6766 1f3e 6750 d3ba
00000220: bd99 4a3a 768c 4339 dbd1 a93a b53f 40bb
00000230: a447 41bb c002 013b b6b7 4ebb 0ab5 283e
00000240: a2e7 41bb 1814 1d3b f325 273e 1ece 4e3b
00000250: f802 02bb 7535 eab8 82fa deba 405a e3ba
00000260: 2bd1 2b3b 23e4 62bb 4d04 dd39 feb7 063b
00000270: da94 b33a 7164 253e 5c5b 8fba 887b 7db8
00000280: e29a 42bb 350f 63ba 8d3f 2f3e da67 bbba
00000290: f293 dd3a 1d69 333b c652 283e 9e8d 2d3a
000002a0: 986d f7ba 6c91 55bb 7a97 52bb 428b 8b3a
000002b0: 0cd1 02ba f9ac 073a 3c6d ad3a 7bca 263e
000002c0: ad63 59bb 19fb ecba 9b7f 273e 55a3 96ba
000002d0: 2d2f 183b 37da 84ba debc d6ba e29c 1a3a
000002e0: 60af 023b a20b c4ba 829c 02ba be14 4f3b
000002f0: 111d 8fba ef33 2a3e 57c2 82ba 7b41 6ebb
00000300: a7c0 11ba c0e4 623b 8ce6 8138 3376 2339
00000310: 2de9 63bb ee8c c639 abea d1ba a2fe 98bb
00000320: a824 3dbb 8b92 663b ba13 60bb b1ce 1cba
00000330: f96b 1a3b 28cd 1f3b e64f 47ba 82cb a8b9
00000340: 6500 4fba 565d 51b9 b116 dd3a 8794 cfb9
00000350: d5b4 083b 2411 3e3a 8736 533b 29f2 693a
00000360: 9ea6 c639 7b18 2339 cf31 033b 93f5 db39
00000370: b26a fe3a 4875 a1bb 6e0e fb3a 2cc2 7e3a
00000380: f244 06ba f788 27bb 44e4 68bb ea8a 4e3a
00000390: 4f57 2dba 96d7 c8ba 1f34 4cb9 064f 3ebb
000003a0: 32b5 5fbb 5b2c 2ebb 1596 8eba b917 cc3a
000003b0: dde9 923a 0dbd 5e3a 9c6f 5c3b d6ef 32bb
000003c0: 4999 f639 1af8 d839 2595 183b 1cd3 3dbb
000003d0: 3504 6fba 4c76 10bb 281c fbb9 aae8 9bba
000003e0: 0e68 653a 8182 8eba 968f 7cba 54c4 5ebb
000003f0: 7df8 ca3a c3ee f0ba 8a6f 45bb e6bb 323a

net.flow_mapping.0.affine_layers.0.net.8.bias f4 [32]
0.0015794875 0.000703398 -0.0026182353 -0.004175784 0.2342713 0.25146848 0.0015269268 -0.0028760291
0.25288773 0.25028738 -0.0044259084 0.23522203 -0.0032668605 0.0021785975 0.24629334 0.24231589
-0.0026922154 0.0016186743 -0.0007867017 0.22475404 0.21226624 0.001453043 0.23046963 0.0004792764
0.23379785 -0.002285604 0.00052258745 -0.012045245 0.23854047 0.00022489166 0.0014640444 0.25558284
00000000: ce06 cf3a 3e64 383a b396 2bbb 04d5 88bb
00000010: d1e4 6f3e 7ac0 803e 2923 c83a c37b 3cbb
00000020: 807a 813e ab25 803e 3607 91bb 0bde 703e
00000030: d318 56bb cdc6 0e3b 5234 7c3e a821 783e
00000040: e16f 30bb b229 d43a a83a 4eba ec25 663e
00000050: 525c 593e 0874 be3a 3b00 6c3e 6447 fb39
00000060: b468 6f3e 12ca 15bb 40fe 083a 6b59 45bc
00000070: f443 743e e5d0 6b39 2ee5 bf3a c1db 823e

net.flow_mapping.0.affine_layers.0.net.10.weight f4 [2, 32]
-0.003000058 -0.0009462023 0.0013828829 0.0039310316 -0.15757246 -0.1621854 0.002333134 -0.002515675
-0.16333133 -0.16277355 0.0020406465 -0.15582013 0.0014668289 0.0024596658 -0.16073884 -0.15984464
0.0031866496 0.00016662592 -9.094535e-05 -0.1442809 -0.26003918 0.000393437 -0.1532469 0.00033728254
-0.15396328 0.0034063323 0.0030403207 0.0010498795 -0.15921165 -0.0021921778 -0.003250436 -0.17253074
-0.0010122234 -0.0035310746 -5.1521107e-05 -5.1334304e-05 -0.36334077 -0.38387325 -0.0014617521 0.00124891
-0.3905266 -0.38531846 3.457732e-05 -0.3595527 -0.0013478077 -0.003008578 -0.3773511 -0.3768193
-0.00313496 -0.0003348811 0.0009900983 -0.31376737 -0.36328506 -0.0007564415 -0.35254675 -0.000868039
-0.3552838 -0.0034432807 0.0035897705 -0.013337476 -0.36519086 0.0029789885 -0.000731552 -0.34857416
00000000: 9f9c 44bb 900a 78ba da41 b53a e2cf 803b
00000010: ad5a 21be ee13 26be 7ee7 183b 06de 24bb
00000020: 5440 27be 1cae 26be 5ebc 053b 508f 1fbe
00000030: 9c42 c03a 5832 213b b998 24be 50ae 23be
00000040: 1cd7 503b 4eb8 2e39 eab9 beb8 5fbe 13be
00000050: db23 85be 3846 ce39 c1ec 1cbe 4cd5 b039
00000060: 8da8 1dbe c63c 5f3b 1e40 473b 1c9c 893a
00000070: 6108 23be a4aa 0fbb 4405 55bb e6ab 30be
00000080: 95ac 84ba 9a69 67bb 5e18 58b8 ca4f 57b8
00000090: cd07 babe 098b c4be 4398 bfba 77b2 a33a
000000a0: 1af3 c7be 7648 c5be 1d07 1138 4b17 b8be
000000b0: eca8 b0ba 902b 45bb 2a34 c1be 76ee c0be
000000c0: e773 4dbb fb92 afb9 30c6 813a 1ea6 a0be
000000d0: 8000 babe ee4b 46ba 0281 b4be 1c8d 63ba
000000e0: c2e7 b5be aaa8 61bb 5b42 6b3b 6e85 5abc
000000f0: 4cfa babe 223b 433b a0c5 3fba 5078 b2be

net.flow_mapping.0.affine_layers.0.net.10.bias f4 [2]
-0.25851318 -0.3896177
00000000: d75b 84be f97b c7be

net.flow_mapping.0.affine_layers.1.net.0.weight f4 [32, 1]
0.15652809 -0.011110302 0.00049524446 -0.011906179 -0.010398152 0.00035613857 -0.01620483 -0.0125394305
-0.009658239 -0.0149633 -0.0047783908 0.15126054 -0.0032720265 -0.01937033 0.16352636 -0.0119082155
0.00015738753 -0.021011248 -0.01830103 -0.0042265486 -0.019685324 0.00043392213 -0.016633727 0.0005522702
0.14176619 0.00012325236 -0.017223304 0.15477669 -0.004227125 0.13982679 -0.018777285 -0.020252524
00000000: e648 203e fc07 36bc 4bd3 013a 2212 43bc
00000010: 035d 2abc 1cb8 ba39 febf 84bc 2f72 4dbc
00000020: 973d 1ebc a128 75bc 0c94 9cbb 0be4 1a3e
00000030: 7f6f 56bb 87ae 9ebc 7473 273e ad1a 43bc
00000040: 6508 2539 c81f acbc 0bec 95bc dc7e 8abb
00000050: 1e43 a1bc 0b80 e339 7443 88bc 3ac6 103a
00000060: 282b 113e 4e3d 0139 e317 8dbc c87d 1e3e
00000070: b283 8abb c12e 0f3e d2d2 99bc 9fe8 a5bc

net.flow_mapping.0.affine_layers.1.net.0.bias f4 [32]
-0.07889061 0.024248496 -0.037847377 -0.011013718 0.019403681 -0.030605134 -0.010724156 -0.006077922
0.008066652 0.014572854 0.008630284 -0.09053388 0.0023976313 0.016263584 -0.070935376 -0.014008886
-0.013960945 0.02417258 -0.0037270042 0.002220326 -0.015891574 -0.0391043 0.017200561 -0.048471708
-0.0839133 -0.011013456 0.00027140434 -0.08483669 0.012152977 -0.12176832 0.0016630541 -0.0150154065
00000000: 6691 a1bd c8a4 c63c da05 1bbd e272 34bc
00000010: 78f4 9e3c 9eb7 fabc 5fb4 2fbc 4e29 c7bb
00000020: fe29 043c fbc2 6e3c 0966 0d3c d469 b9bd
00000030: 9421 1d3b 353b 853c 9146 91bd 8785 65bc
00000040: 73bc 64bc 9305 c63c c140 74bb e482 113b
00000050: 0c2f 82bc d52b 20bd 31e8 8c3c 458a 46bd
00000060: bcda abbd c871 34bc 464b 8e39 dcbe adbd
00000070: 481d 473c ab61 f9bd d6fa d93a 2e03 76bc

net.flow_mapping.0.affine_layers.1.net.2.weight f4 [32, 32]
0.000835454 -0.0022945523 -0.00036837536 0.0020065778 0.0034612676 -0.0027500812 0.0025713088 -0.002427201
0.00042051036 -0.0031862732 0.0017462794 0.0009626618 0.002584365 0.0008089871 -0.0016488701 -0.0033791394
0.00019272955 -0.0017526502 0.0007522637 0.0011409294 0.0027217346 -0.0012844082 -0.002990687 -0.0076204855
-0.011599017 -0.00028462158 -0.0022288451 0.0020293365 0.00031149088 -0.0008716956 -0.000283994 -0.002234309
-0.0016634039 -0.001963714 -0.0013099969 -0.00039038435 -0.002172663 0.002309969 0.0015764912 -0.0026131393
-0.0010761555 -0.00040907518 -9.442698e-05 -0.0034805902 0.0005092199 0.0031819015 -0.0021799626 -0.0005207064
-0.001387384 -0.0034723785 -0.0023460148 -0.0034335095 0.0019269282 0.000662033 -0.0015488619 0.0015860952
0.0007613028 -0.002326196 -0.0031211753 -0.0040481854 0.00058842415 0.0036486718 0.001275456 -0.0009751823
-0.0033701467 0.00025719535 -0.003260166 0.0012235867 -0.0029511247 0.00042156546 0.0022264004 0.0020749446
-0.00011815557 -0.002105104 -0.0028580301 -0.004461928 -0.00040341006 -0.002572459 -0.0029297192 0.0001594621
-0.0012026253 -0.004667574 -0.00041910447 0.0021437441 0.0011635455 -0.0014365881 -0.0031850014 -0.0019815692
-0.0027211444 0.0031723988 -0.0011736096 0.00070487754 0.0029302253 -0.0018388642 -0.0009765143 -0.0018196128
0.00033921114 -0.0024485597 -0.0018285321 -0.0031212016 -0.001685347 -0.0032372952 0.0035539006 0.0029595704
-0.003269889 -0.0014810663 -3.4616e-05 -0.0020389562 -0.0024326716 0.0028916697 -0.004373847 0.0003574233
-0.004036201 0.0007350712 0.0008444063 0.001410651 0.0032989562 0.0023314373 0.0007897215 -0.004119841
-0.00010271144 0.0012681653 0.0019366689 0.0017729361 0.001679248 -0.0037445975 -0.0035367724 -0.0011978983
0.0022965276 0.0032040987 0.0009484955 -0.0015761231 0.0021322628 0.0032453733 0.0033976827 -0.002781774
0.0024899177 0.0024971552 0.00033310376 -0.001255763 0.0009529058 0.0004895604 -0.0006138734 0.0030958545
-0.0018606886 -0.0035431099 -0.0034059417 -0.0031351072 2.5128362e-05 0.0011421209 -0.0010671838 0.0010759295
-0.001469052 -0.0020004893 -0.0017055465 -0.0018700704 -0.001818476 -0.0016004659 0.0029596416 0.0035647114
-0.05840492 0.0078090634 -0.004087202 -0.0029080345 0.003558512 -0.0016510837 0.0023959158 0.0023374313
0.0025636295 0.004610444 0.0027004904 -0.05367443 0.003525644 -0.0026311155 -0.06260443 -0.0017216585
-0.006532322 0.014433951 0.0024538476 -0.0032887897 -0.0016437805 -0.011630743 -0.0008392823 -0.005536636
-0.056742728 0.0015581067 0.0019639842 -0.05117264 0.0041900873 -0.12575239 0.0006281475 -0.002310709
-0.0045449967 -0.000997429 0.0025817647 -0.0031297659 -0.0011466847 -0.0013675406 -0.0010793799 0.0016947621
-0.0033716413 -0.0032589573 -0.0009677119 -0.00162475 -0.0033777612 0.0018642555 -0.0047992873 0.0012310052
0.00074365083 -0.0053459164 -0.0033250167 0.0032306486 0.0025761845 0.002622703 0.0005093946 -0.0020889912
-0.00014720384 -0.0021338705 0.00016704772 -0.004715052 -0.0012520436 -0.0025471952 -0.001953206 -0.0034039428
-0.002155963 -0.0034106602 -0.0012768928 -0.0027157282 0.0011830161 -0.001030679 0.0031270033 -0.00012751193
0.0022704063 -0.0030838458 0.00087016093 -0.0049121575 -0.0013924745 -0.0017019832 -0.006569783 0.003262127
-0.0035855358 -6.539051e-05 -9.6791264e-05 0.0034578175 0.0012539651 0.0018192093 -0.00037134177 -0.0010733036
-0.000983403 0.0032266222 -0.00042830026 -0.004191262 -0.002103405 -0.0024363904 0.0009368764 -0.0029596095
00000000: 5e02 5b3a 3360 16bb 8122 c1b9 ca80 033b
00000010: 6fd6 623b b53a 34bb 6783 283b ad11 1fbb
00000020: f277 dc39 cbd0 50bb 6ae3 e43a 245b 7c3a
00000030: 735e 293b 3512 543a e61e d8ba 8d74 5dbb
00000040: 7217 4a39 2fb9 e5ba 9033 453a 3d8b 953a
00000050: 215f 323b 9659 a8ba 67ff 43bb 44b5 f9bb
00000060: ce09 3ebc 4339 95b9 d111 12bb 9efe 043b
00000070: 994f a339 8082 64ba 08e5 94b9 7c6d 12bb
00000080: 9306 daba a7b1 00bb 34b4 abba 80ac ccb9
00000090: 3d63 0ebb d962 173b 44a2 ce3a 3441 2bbb
000000a0: c90d 8dba 2479 d6b9 1907 c6b8 9d1a 64bb
000000b0: 2b7d 053a 7387 503b b4dd 0ebb 0480 08ba
000000c0: e2d8 b5ba d890 63bb 99bf 19bb bb04 61bb
000000d0: fb90 fc3a 488c 2d3a 2e03 cbba 86e4 cf3a
000000e0: 2b92 473a 1873 18bb a28c 4cbb a4a6 84bb
000000f0: 7a40 1a3a 8e1e 6f3b 342d a73a 60a3 7fba
00000100: aedd 5cbb 2dd8 8639 82a8 55bb c260 a03a
00000110: a867 41bb 8f05 dd39 cde8 113b cbfb 073b
00000120: 4aca f7b8 c9f5 09bb ca4d 3bbb 5d35 92bb
00000130: c880 d3b9 b396 28bb 8800 40bb 4835 2739
00000140: 69a1 9dba 73f2 98bb 40bb dbb9 0f7e 0c3b
00000150: 1c82 983a e64b bcba 75bb 50bb 37dd 01bb
00000160: 3a55 32bb 05e8 4f3b ced3 99ba 88c7 383a
00000170: 0609 403b 0b06 f1ba c4fc 7fba 1380 eeba
00000180: 26d8 b139 0478 20bb 5bab efba 138d 4cbb
00000190: dce6 dcba cd28 54bb 8fe8 683b 5af5 413b
000001a0: a24b 56bb 5720 c2ba a630 11b8 02a0 05bb
000001b0: 756d 1fbb 2b82 3d3b 7d52 8fbb 8b64 bb39
000001c0: 1c42 84bb cbb1 403a 265b 5d3a 98e5 b83a
000001d0: 4d33 583b 07cb 183b 5005 4f3a bbff 86bb
000001e0: c966 d7b8 9138 a63a d3d7 fd3a dd61 e83a
000001f0: 361a dc3a ec67 75bb 32c9 67bb cc02 9dba
00000200: 5781 163b dbfb 513b 75a4 783a ea95 ceba
00000210: 6fbd 0b3b 54b0 543b a8ab 5e3b 6c4e 36bb
00000220: e32d 233b 50a7 233b 6ea4 ae39 6a98 a4ba
00000230: 6dcc 793a d855 003a 59ec 20ba d2e3 4a3b
00000240: 59e2 f3ba 8533 68bb 3836 5fbb 5f76 4dbb
00000250: bfca d237 38b3 953a bfe0 8bba 3406 8d3a
00000260: 358d c0ba a41a 03bb a58c dfba 261d f5ba
00000270: ee59 eeba b9c6 d1ba 8cf6 413b ef9d 693b
00000280: ff39 6fbd 2ce3 ff3b efed 85bb b994 3ebb
00000290: ed35 693b 2d69 d8ba cc04 1d3b 972f 193b
000002a0: 9102 283b 3513 973b b6fa 303b b8d9 5bbd
000002b0: 7e0e 673b cb6e 2cbb c036 80bd 46a9 e1ba
000002c0: 170d d6bb 617c 6c3c bbd0 203b bc88 57bb
000002d0: 1f74 d7ba df8e 3ebc 4803 5cba ab6c b5bb
000002e0: 106b 68bd 6339 cc3a 30b6 003b 679a 51bd
000002f0: 004d 893b 3cc5 00be 44aa 243a 446f 17bb
00000300: 32ee 94bb 2abc 82ba d332 293b c21c 4dbb
00000310: 5b4c 96ba 0c3f b3ba fb79 8dba c822 de3a
00000320: c1f6 5cbb 3b94 55bb 0cae 7dba 90f5 d4ba
00000330: 6e5d 5dbb 095a f43a 5743 9dbb ae59 a13a
00000340: 90f1 423a cc2c afbb 86e8 59bb 4ab9 533b
00000350: 34d5 283b a8e1 2b3b e588 053a 75e7 08bb
00000360: bb5a 1ab9 68d8 0bbb 8829 2f39 b980 9abb
00000370: 9d1b a4ba d8ee 26bb 5c01 00bb af14 5fbb
00000380: 0f4b 0dbb 6285 5fbb 6a5d a7ba 5cfa 31bb
00000390: 6f0f 9b3a d917 87ba 69ee 4c3b b9b4 05b9
000003a0: 19cb 143b 591a 4abb 831b 643a 2af6 a0bb
000003b0: b183 b6ba 1415 dfba 5647 d7bb 69c9 553b
000003c0: 4ffb 6abb 4322 89b8 6afc cab8 8d9c 623b
000003d0: 165c a43a 8972 ee3a a6b0 c2b9 18ae 8cba
000003e0: 87e5 80ba bd75 533b 7d8d e0b9 db56 89bb
000003f0: 48d9 09bb d9ab 1fbb b698 753a 02f6 41bb

net.flow_mapping.0.affine_layers.1.net.2.bias f4 [32]
-0.04560224 -0.00066736364 -0.00012894624 -0.0019014988 -0.0037306016 0.0036802317 -5.5476263e-05 -0.00029224379
-0.0071708364 -0.043360345 0.08641033 0.00024064463 -0.0037278563 -0.057342533 0.0013385091 -0.00039991204
-0.012807486 -0.0011110988 -0.0009553073 -0.0036512315 4.0881758e-05 -0.00030518582 -0.00045474988 -0.00043138114
-0.0029203733 -0.004418117 -0.0007002527 -0.0012995787 -0.0006647231 -0.0020720172 -0.0010727895 -0.00071926287
00000000: 6ac9 3abd 04f2 2eba be35 07b9 b63b f9ba
00000010: 1c7d 74bb 0b30 713b 2faf 68b8 4c38 99b9
00000020: 56f9 eabb 9e9a 31bd e6f7 b03d 8d55 7c39
00000030: 0d4f 74bb 01e0 6abd ea70 af3a 49ab d1b9
00000040: 7dd6 51bc 4aa2 91ba 966d 7aba 8049 6fbb
00000050: 7478 2b38 5901 a0b9 7f6b eeb9 ff2a e2b9
00000060: bc63 3fbb dac5 90bb 2a91 37ba a056 aaba
00000070: d040 2eba aeca 07bb d89c 8cba ea8c 3cba
