ckpt/ckpt_iter500000.pth (torch, 728379 bytes, 462 tensors)

net.rotations.0.LU f4 [2, 2]
00000000: 0000 0000 0000 0000 0000 0000 0000 0000
0.0 0.0 0.0 0.0

net.rotations.0.LU_init f4 [2, 2]
00000000: 0000 803f 0000 0000 0000 0000 0000 803f
1.0 0.0 0.0 1.0

net.rotations.0.ones_mat f4 [2, 2]
00000000: 0000 803f 0000 803f 0000 803f 0000 803f
1.0 1.0 1.0 1.0

net.rotations.0.I f4 [2, 2]
00000000: 0000 803f 0000 0000 0000 0000 0000 803f
1.0 0.0 0.0 1.0

net.flow_mapping.0.scale_layers.0.b f4 [1, 2]
00000000: a52b 24bf fb9a bebe
-0.64129096 -0.37227616

net.flow_mapping.0.scale_layers.0.logs f4 [1, 2]
00000000: 3719 72be c59f ebbd
-0.23642431 -0.11505083

net.flow_mapping.0.scale_layers.0.b_init f4 [1, 2]
00000000: 0000 0000 0000 0000
0.0 0.0

net.flow_mapping.0.scale_layers.0.logs_init f4 [1, 2]
00000000: 0000 0000 0000 0000
0.0 0.0

net.flow_mapping.0.scale_layers.1.b f4 [1, 2]
00000000: c1e6 bdbe 8a44 1dbf
-0.37090114 -0.6143271

net.flow_mapping.0.scale_layers.1.logs f4 [1, 2]
00000000: 0018 dcbd be94 6cbe
-0.10746765 -0.23103616

net.flow_mapping.0.scale_layers.1.b_init f4 [1, 2]
00000000: 0000 0000 0000 0000
0.0 0.0

net.flow_mapping.0.scale_layers.1.logs_init f4 [1, 2]
00000000: 0000 0000 0000 0000
0.0 0.0

net.flow_mapping.0.scale_layers.2.b f4 [1, 2]
00000000: 8c4f 11bf 8ca0 8cbe
-0.56762004 -0.27466238

net.flow_mapping.0.scale_layers.2.logs f4 [1, 2]
00000000: eb5e 3ebe 02f1 00be
-0.18590896 -0.12591937

net.flow_mapping.0.scale_layers.2.b_init f4 [1, 2]
00000000: 0000 0000 0000 0000
0.0 0.0

net.flow_mapping.0.scale_layers.2.logs_init f4 [1, 2]
00000000: 0000 0000 0000 0000
0.0 0.0

net.flow_mapping.0.scale_layers.3.b f4 [1, 2]
00000000: 9b4d 89be 1b65 0ebf
-0.2681702 -0.55623025

net.flow_mapping.0.scale_layers.3.logs f4 [1, 2]
00000000: ccc6 05be 2ead 39be
-0.13064116 -0.18132469

net.flow_mapping.0.scale_layers.3.b_init f4 [1, 2]
00000000: 0000 0000 0000 0000
0.0 0.0

net.flow_mapping.0.scale_layers.3.logs_init f4 [1, 2]
00000000: 0000 0000 0000 0000
0.0 0.0

net.flow_mapping.0.scale_layers.4.b f4 [1, 2]
00000000: 3429 0dbf 5be2 87be
-0.55140996 -0.26539883

net.flow_mapping.0.scale_layers.4.logs f4 [1, 2]
00000000: 5f49 f7bd d9fb 04be
-0.12074541 -0.12986697

net.flow_mapping.0.scale_layers.4.b_init f4 [1, 2]
00000000: 0000 0000 0000 0000
0.0 0.0

net.flow_mapping.0.scale_layers.4.logs_init f4 [1, 2]
00000000: 0000 0000 0000 0000
0.0 0.0

net.flow_mapping.0.scale_layers.5.b f4 [1, 2]
00000000: 0fb7 5cbe 2cb5 1bbf
-0.21554206 -0.6082332

net.flow_mapping.0.scale_layers.5.logs f4 [1, 2]
00000000: 1b0d 043d bcda 1dbe
0.03223906 -0.15415472

net.flow_mapping.0.scale_layers.5.b_init f4 [1, 2]
00000000: 0000 0000 0000 0000
0.0 0.0

net.flow_mapping.0.scale_layers.5.logs_init f4 [1, 2]
00000000: 0000 0000 0000 0000
0.0 0.0

net.flow_mapping.0.scale_layers.6.b f4 [1, 2]
00000000: e065 e5be d181 f3bd
-0.44804287 -0.11889995

net.flow_mapping.0.scale_layers.6.logs f4 [1, 2]
00000000: fd41 40bc f475 203e
-0.011734483 0.15669996

net.flow_mapping.0.scale_layers.6.b_init f4 [1, 2]
00000000: 0000 0000 0000 0000
0.0 0.0

net.flow_mapping.0.scale_layers.6.logs_init f4 [1, 2]
00000000: 0000 0000 0000 0000
0.0 0.0

net.flow_mapping.0.scale_layers.7.b f4 [1, 2]
00000000: 5d50 c1bd 8c5c c8be
-0.09439156 -0.39133108

net.flow_mapping.0.scale_layers.7.logs f4 [1, 2]
00000000: 506d 113e f963 e83a
0.14201856 0.001772999

net.flow_mapping.0.scale_layers.7.b_init f4 [1, 2]
00000000: 0000 0000 0000 0000
0.0 0.0

net.flow_mapping.0.scale_layers.7.logs_init f4 [1, 2]
00000000: 0000 0000 0000 0000
0.0 0.0

net.flow_mapping.0.scale_layers.8.b f4 [1, 2]
00000000: 5462 50be dbe3 47bc
-0.20350009 -0.012200321

net.flow_mapping.0.scale_layers.8.logs f4 [1, 2]
00000000: bc36 e33c b927 213e
0.02773606 0.15737809

net.flow_mapping.0.scale_layers.8.b_init f4 [1, 2]
00000000: 0000 0000 0000 0000
0.0 0.0

net.flow_mapping.0.scale_layers.8.logs_init f4 [1, 2]
00000000: 0000 0000 0000 0000
0.0 0.0

net.flow_mapping.0.scale_layers.9.b f4 [1, 2]
00000000: 1bad 9cbd a4b1 73be
-0.07650205 -0.23798233

net.flow_mapping.0.scale_layers.9.logs f4 [1, 2]
00000000: d144 0e3e f9a5 53bc
0.13893439 -0.012917989

net.flow_mapping.0.scale_layers.9.b_init f4 [1, 2]
00000000: 0000 0000 0000 0000
0.0 0.0

net.flow_mapping.0.scale_layers.9.logs_init f4 [1, 2]
00000000: 0000 0000 0000 0000
0.0 0.0

net.flow_mapping.0.affine_layers.0.net.0.weight f4 [32, 1]
00000000: ae01 2dbb f56d e83a 2db5 06bd 1b0e e53d
00000010: e75e 79bd 3b49 04bc 5e9c 34ba 6113 f5bc
00000020: 49f9 46bc 4d76 3dbd a181 a6bd fba2 6d3a
00000030: 0e19 b0bc 1279 a2bd 99e4 95bd 61a1 8138
00000040: e0ad 19bb 136a 10bd 493a 31bb 632c 24bc
00000050: 9e5a 97bc e1c1 73bd 91c3 45bd a80e ea3c
00000060: d556 bdbd 04cd b7bd 78af a2bc 21b1 d43d
00000070: 80ca b2bb 1ab5 93bc d811 a03d 02e0 0abc
-0.0026398706 0.0017732965 -0.032887626 0.11184331 -0.06088152 -0.0080741 -0.00068897556 -0.029916467
-0.012144395 -0.0462554 -0.081301935 0.00090651185 -0.021496322 -0.079332486 -0.07318992 6.1812585e-05
-0.0023449585 -0.03525741 -0.0027042797 -0.010020348 -0.018475827 -0.05951107 -0.04828221 0.028571442
-0.092450775 -0.089746505 -0.01985906 0.10385347 -0.005456269 -0.018030692 0.078159034 -0.008476259

net.flow_mapping.0.affine_layers.0.net.0.bias f4 [32]
00000000: 0dd6 f53c 325e dabe a32a 82bd 2f33 b7be
00000010: 044a b63d 66a1 8abe f5dc a4be 1898 7d3d
00000020: e47d e13d bb64 cdbc d624 b03d 9ef9 77be
00000030: f9ca a6bd 0ed5 3bbd 8f54 09bd 7ced 81bd
00000040: 9d8a 133d 73b8 983d 8c41 133d 602a 10bd
00000050: 838e 293e 8693 a03d 4f6a 9bbd bb98 e1be
00000060: 038a 8f3d 3493 333d b1cc b23d 4cea 96be
00000070: e063 4d3c c197 9abd de47 c9be e241 dabd
0.030009294 -0.4264999 -0.063557886 -0.35781237 0.08900836 -0.27076262 -0.32199827 0.061912626
0.1101034 -0.025072446 0.08600776 -0.24216315 -0.08144183 -0.04585748 -0.033527907 -0.06344125
0.036020864 0.07457056 0.035951182 -0.035196662 0.1655827 0.07840638 -0.07588636 -0.44061837
0.070087455 0.043841556 0.08730448 -0.2947563 0.012536019 -0.07548476 -0.39312643 -0.106570974

net.flow_mapping.0.affine_layers.0.net.2.weight f4 [32, 32]
00000000: 5acb 1e3c 299c 813b be3d 8fba 84b8 443b
00000010: 85be 1b3c 9db6 95bc 9d4d 49bc 5c56 e8b9
00000020: 58c9 2c3c 6a02 12bc 1425 133b 841b 28bc
00000030: bed3 4dbc 616c 25bb c120 cc3a ea65 063c
00000040: 19f5 34bb 69d1 743b 6b89 a3bc 344d e5ba
00000050: 5c95 763c 98f9 13bc b4df e2bb 88b7 a2bc
00000060: 67d4 163c dd38 4c3b 0daf 7c3c 53c7 4c3a
00000070: 3ee6 463c ff2a 3abc 40be 92bb 9814 5fbc
00000080: 4c62 633c de37 713b 00a5 df3b e57d c639
00000090: bb19 553c 5a63 3f3c 5182 30bb dcab c5bb
000000a0: 3b62 b73b 54f5 53bc 3eb2 19bc a76d 743c
000000b0: f45a 6a3c 3028 ebba 3ff9 30bc a7be 61bc
000000c0: 0511 a53a 1cc3 1b3c f5a3 38bc 514d 6bbc
000000d0: b4f5 f5bb 7045 d63b 908b 423b 4a7c 403c
000000e0: 5ebf 5a3c 8fd7 48bc 6fbf d4bb b638 80bc
000000f0: 6e9d f63b 1817 dfbb 4c3d 46bc c1b3 6ebc
00000100: e2b6 b6bb fd1e 74ba ba4a c2ba 1acb c3bb
00000110: c0ce 6c3c 5960 5bbc 88bb 263c 6f9b 8c3b
00000120: ba7d cdbb e31a 493c 6815 653c 3c8e 8b3b
00000130: 5cd5 d93b 82a8 393c bb69 15b9 a01a 02bb
00000140: 7d09 e2ba a6f4 fdba a7bb 253c 7f5c 8bbb
00000150: 8e07 b6bb 4482 423c 5564 caba 4b4f 283b
00000160: 6837 463c dec8 b33b e952 d33b 160f 71bc
00000170: 1d70 07bc fbd8 333c 4284 71bc 69df dc3a
00000180: 7632 3c3c 74ae b83b 91d4 da3b d1fb ddbb
00000190: 0fe3 adbb 4e5c 0e3c 8d51 c33b e1eb b83b
000001a0: b585 b2ba fff7 39bc fae7 223c 1fc3 a639
000001b0: bba7 bdbb e479 1fbb acf9 2a3c 9bd3 9abc
000001c0: ae12 1e3c 7735 23bb def2 7cbc d3ed 3d39
000001d0: 1594 43bc aa91 f7bb c435 103c 0ef3 243c
000001e0: c433 e3bb 8489 053c 3e3d cdbb 5623 82bb
000001f0: 3bf7 343b 6c11 49bc 3580 03bc ed84 a63b
00000200: ec48 5abc b319 0dbc 8ce7 023c caa7 9bbc
00000210: 2d9e 28bc 16e5 e93b f851 353c 1592 613c
00000220: 30dd e5bb 7e50 33bb 20b9 c43b 20f9 00bc
00000230: 4f22 1a3b 2b8f 4cba 70b4 70bc 31c1 293a
00000240: 658a 5e3b 7321 dbbb d543 a03b ecaf 1e3c
00000250: fe32 a53b b35f 553c 5fba 45bc 9e0b 23bc
00000260: 4df7 323c aa3c 893b e5e3 e8bb 752d 073c
00000270: 0fa2 2fbc 15e2 31bc 44fe b8bb 982c 6dbc
00000280: e380 b13b b3d7 8ebb 6f5d 41bc 320c a9bc
00000290: 0824 963b 637a 18bb 4528 82bc 6f39 9a3b
000002a0: 50a1 163b 207a 18bc 64de 56bc 5135 af3b
000002b0: 7000 16bc 79c5 d1bb b4c8 09ba 14fc 49bc
000002c0: 6da0 82bc 3e48 063c 3bc9 aabb 6109 34bc
000002d0: 2764 543c 91c3 3cbc 24a0 44bc bfec d5bc
000002e0: 779a 083c cc9c 00bc f8f7 81bc 18cf 5fbb
000002f0: de14 843c dcc2 03bc a872 31bb e515 8dbc
00000300: 9b78 88bc 02d0 24bb a9ae d1bb 9d06 a8bb
00000310: 80cd 4dbb 5a17 6cbc 7d3a 35bb 9024 383c
00000320: cf17 52bc 994d 3a3c b0cc 30bc 77d7 b839
00000330: f6f1 5dbc b86f e1bb 577c 3ab9 a173 56bc
00000340: f4fd 98bc 13ef 693c d56b 883b 5b42 793c
00000350: cdce ec3b 5140 efbb 0132 553c 3c14 1dbb
00000360: 1ef4 ac3b f3c5 4dbc 5bd6 debb d47d 073b
00000370: 500a 56bc 0fa1 4dbc 2c58 aabc 3daa a4bc
00000380: 4138 75bc a8b2 27bc d1da 593c d757 e0bc
00000390: c208 7dbb 3c70 47bd 631b 7dbc b02e 143c
000003a0: 10ac cc3b 1d50 673b cfea 813c 9724 e2bc
000003b0: a279 e5bb 1bcd 64bc b5b8 383c eda6 3ebc
000003c0: 5445 93bc 0e70 2c3c f9e4 7a3b 2971 a63b
000003d0: 961a 5e3d 8ae2 28bc e334 923b aea1 fbbc
000003e0: 1bec 5abc 50d9 8139 6e57 bb3b 5b79 4abc
000003f0: 126d 43ba e88d 523c 600f a7bc 599e cf3a
0.0096920375 0.0039553833 -0.0010928435 0.0030017206 0.009505873 -0.018275553 -0.012286571 -0.0004431483
0.010546051 -0.008911708 0.002245252 -0.0102604665 -0.01256269 -0.00252416 0.0015573726 0.008203009
-0.002761191 0.0037356263 -0.019962987 -0.0017494322 0.0150502585 -0.009031676 -0.00692364 -0.019862905
0.009205914 0.0031161823 0.015422595 0.0007811684 0.012139855 -0.01136279 -0.004478246 -0.01361575
0.013878416 0.003680698 0.0068250895 0.00037859302 0.013006623 0.011681402 -0.0026933143 -0.00603245
0.005596427 -0.012936909 -0.009380875 0.014918721 0.0143039115 -0.0017941054 -0.010801612 -0.013778365
0.0012593573 0.009506967 -0.011269559 -0.014361695 -0.0075060967 0.0065390393 0.0029685237 0.011748383
0.01335129 -0.012258424 -0.006492547 -0.015652042 0.0075260913 -0.006808173 -0.012099575 -0.014569224
-0.0055760005 -0.0009312479 -0.0014823296 -0.0059751393 0.01445359 -0.01338967 0.010176547 0.00429099
-0.0062710913 0.012274477 0.013982154 0.004258899 0.006647749 0.011331679 -0.00014249135 -0.0019852296
-0.0017245259 -0.0019375279 0.010115541 -0.0042529698 -0.0055551 0.011871878 -0.0015441278 0.0025682028
0.012098171 0.0054865917 0.0064490926 -0.014713069 -0.008266476 0.010977025 -0.014741005 0.0016851249
0.01148664 0.005636031 0.006678172 -0.0067744036 -0.0053066085 0.008688999 0.0059606493 0.0056433533
-0.001362017 -0.011350631 0.009943003 0.00031807364 -0.0057878173 -0.0024334127 0.010435503 -0.01889973
0.009648008 -0.0024903694 -0.015438763 0.00018113041 -0.011937161 -0.0075552063 0.008801881 0.010067714
-0.006933661 0.008150462 -0.006263404 -0.0039714975 0.002761318 -0.01227222 -0.008026172 0.005081764
-0.01332305 -0.008612084 0.007989775 -0.019000906 -0.010291618 0.007137905 0.011066906 0.013767739
-0.007014893 -0.002736121 0.006003514 -0.007871896 0.0023518985 -0.0007803316 -0.014691457 0.0006475626
0.0033957001 -0.006687337 0.0048908987 0.009685498 0.005041479 0.013023305 -0.01206836 -0.0099515
0.010923219 0.00418814 -0.0071072453 0.008250584 -0.01071979 -0.010857125 -0.005645545 -0.014475964
0.005416976 -0.0043592094 -0.011802061 -0.020635698 0.004581932 -0.0023266308 -0.015888343 0.0047065536
0.0022984333 -0.009306461 -0.0131145455 0.005346932 -0.009155378 -0.0064017144 -0.00052560424 -0.0123281665
-0.015945638 0.008195935 -0.005211977 -0.010988564 0.012963331 -0.011521236 -0.012001071 -0.026113866
0.008337609 -0.007849883 -0.015865311 -0.0034150537 0.016123232 -0.008042064 -0.0027076397 -0.017222354
-0.016659072 -0.0025148396 -0.006398995 -0.0051277415 -0.0031403005 -0.014409864 -0.002765327 0.011239186
-0.012823059 0.01137104 -0.010790989 0.0003525575 -0.0135464575 -0.006879773 -0.00017784662 -0.0130890915
-0.018675782 0.014278191 0.004163245 0.015213574 0.007226801 -0.0073013683 0.01301241 -0.002396836
0.0052781245 -0.012559402 -0.0068004555 0.0020674365 -0.013063982 -0.012550606 -0.020793997 -0.020100707
-0.014967025 -0.010235466 0.013296799 -0.027385635 -0.0038609956 -0.04869102 -0.015448424 0.009044334
0.0062460974 0.0035295554 0.015859036 -0.027605338 -0.007003025 -0.013964917 0.011274506 -0.011636478
-0.017977394 0.010524763 0.003828345 0.0050794077 0.054224573 -0.010307917 0.004461871 -0.030716743
-0.013361956 0.00024766708 0.0057172095 -0.012358035 -0.00074549124 0.012851216 -0.020393074 0.0015840038

net.flow_mapping.0.affine_layers.0.net.2.bias f4 [32]
00000000: 3704 83bc 66c7 b7bb 70d3 05bc e526 15bc
00000010: 401a 293c 01d1 a2bc 503a 0a3c 9cdb 9b3b
00000020: 79f7 0cb8 b68b 213c 8b96 0dbc c84a 733a
00000030: 2793 a63b 8778 083c 5467 133c 9426 803b
00000040: 607e 15bc 24cd b03c 32a3 643c b1d6 2bbb
00000050: 7712 32bc c50f 873b d0a9 973c 82a6 9ebe
00000060: 2b37 b2bc 58e0 debc f191 31bb b909 a2be
00000070: b55a 573c bf0b 2ebd 6cc9 8dbe 6230 b0bb
-0.01599322 -0.005608487 -0.008168086 -0.009103511 0.0103212 -0.019875051 0.008436754 0.004756404
-3.3609078e-05 0.00985997 -0.008641849 0.00092808576 0.00508346 0.008329517 0.008996803 0.003910849
-0.009124368 0.021582194 0.013954924 -0.0026220495 -0.01086866 0.004121753 0.01851359 -0.3098641
-0.021754822 -0.027206585 -0.0027095044 -0.31648043 0.013144185 -0.04249167 -0.27692735 -0.0053768614

net.flow_mapping.0.affine_layers.0.net.4.weight f4 [32, 32]
00000000: 604e 8d3b fbb1 3dbc be1a 4cbb 8bb0 1abc
00000010: c9ac cfbb 98df 1d3b 6910 85bc 704c 203c
00000020: 8436 4b3c b1e2 273c 3af6 68bc 26ca 3dbc
00000030: 9ecd b0bb 7e20 00ba 938b cbbb 51ca c4bb
00000040: 7508 563a 9fe8 3cbc 6562 af3b 3500 56bb
00000050: 89c7 04bb 449f bebb 16cf 173c 9cc9 b93a
00000060: b5f0 c53b ddd0 f338 f4d0 583a 7e51 7bbc
00000070: d6f6 103c 8525 65b6 65b5 ceba 2658 8fbb
00000080: b501 94bb 6640 4bbc cd37 14bb c358 68bc
00000090: a985 cab9 466c 5cbc 0ec7 b53b 97ae 6f3b
000000a0: 3608 70b9 979d 6cbc 4e09 1e3c 70ed 3abc
000000b0: ca3d a5bb 9522 453c 5de7 9a3b 2624 f138
000000c0: 3ce9 12bc c6b7 e5ba 84ba 1f3c a7f6 f5bb
000000d0: 2c56 653a e979 70bc 2ade 483c c311 53bc
000000e0: 5466 44bd cb9b 90bc 7e83 d2bb 6ccf 9dbd
000000f0: b9ae aaba e4b7 a7bc e584 18bd 334d 2bbc
00000100: efed d73b dce8 31bc 4ddb 6e3b bb1e 003c
00000110: 6804 823b b5a3 03bc b31f 18bc a564 82bc
00000120: 8ea3 1abc 53e6 91bb 7ccf 933b ab7a 31bb
00000130: e7e3 32bc cfb6 493c 6204 81bc d2b6 2a3c
00000140: 4beb 583b a684 23b9 2e8e dabb d9c7 6eba
00000150: e138 f5bb 3864 043c c358 0ebc a7ee 1abc
00000160: af0e a5bc 176d 3e3c 3734 333c 29a0 a1bb
00000170: 497f eebb 0ca7 4c3c a222 43bc 6b16 0bbc
00000180: 23dc 17bc e64e 84bc 30a1 0f3b 2ad8 39bc
00000190: 55c7 30bb 0694 33bc c12a aebb da19 623c
000001a0: e6fd f43b 1f60 29bc 05a4 54bb 9cca 07bb
000001b0: 5446 4e3a bc54 4f3a 0a92 193b 21e9 443c
000001c0: 5374 a2bb 9158 eebb c878 29bc f182 d9bb
000001d0: 3de5 49bb ad72 02bc ab1d 49bc 3ea3 b63d
000001e0: 4bdd b03a b898 613c 01ce ec3b dd8f a33d
000001f0: 5cee 21bb 3c55 723c 681b ba3d 2975 0e3c
00000200: 1d3c c9bb fcd0 e13b 42f1 343b 69c8 5fbc
00000210: 6267 fc3b 6fcc 7d3c aa68 1d3c a616 4c3c
00000220: 9ed0 9c3b f031 6cbb 9dd1 0fbc 86cf 333c
00000230: 0734 e4bb 0e77 b7bb de36 c0bb 5e2a 353a
00000240: beb5 843b e3d1 713c 19b4 563c f94c a4bb
00000250: e787 443b 9238 dcbb 32d3 dd3b 6651 15bd
00000260: 17d2 99bc 62dd 9cbc 9170 7bbc f9e1 57bd
00000270: 2681 dd3a bdb5 66bc 2e61 bebc d0ce 433c
00000280: f70d 523b bb29 613c e280 a63b 75f5 6a3c
00000290: de73 85bc a308 b0ba 48c2 c9ba 0f47 ec3b
000002a0: 8b4e 5cbc c639 57bc 227c db3b da8d 323c
000002b0: 3881 65bc e50c 483c 758d 49bb 7e1e 0fbc
000002c0: 7a82 013c 269b 73bc 8913 873c 9f0a 133b
000002d0: 91c4 4d3b 7d9e 733c c8ad b23a 1c74 77bc
000002e0: 768b 0dbc 1a81 543c bdbb 53bc 5043 14bc
000002f0: f290 49bc 36b9 2b3c 3062 163c 7fc3 9a3b
00000300: bf99 2dbc 064b 33bb e72c 4a3c 2d2d 3ebc
00000310: af41 343b 5403 fcbb 6dcb bf3b 666a 34bb
00000320: 44af e0ba c24e 393c 0177 1c3c d0cd 99bc
00000330: efa2 56bc 070b 9c3a 7e86 343c cbef ee3b
00000340: a90c 3bbc 4b79 a73b 710b 6fbc 7955 553c
00000350: 8eea 5c3a 33f8 163b 70f2 6fbc dfbf 8abc
00000360: 4652 2dbb 54d2 1e3c 63fa 633c 9dd5 543c
00000370: 5023 04bc 958f 27bc 17c2 b8ba df0f 2c3c
00000380: 3a45 d03a 0966 26bc e70e 513c 3277 8fbb
00000390: 5fdc 613c 168a 03bc f194 1bbc ed14 91bb
000003a0: 4249 83ba b4ee 1abc 60bc 60bc 4189 b7bb
000003b0: 9d33 92bb 25d6 09bc 95c7 0d3b 21e5 64bb
000003c0: 1deb 103c 5a4b bb3b f1fc 293c ac94 293c
000003d0: 4fab b5b9 3e1d 4f3c ff46 383b ad64 67bb
000003e0: fc1a 90bb 0c7a 1f3c 49a2 94bb 0c9a c13b
000003f0: badf 0b3a 124e 4bbc 9e64 d9bb 2149 3e3c
0.0043123215 -0.011578078 -0.003114387 -0.009441505 -0.0063377363 0.002408957 -0.016243177 0.009783849
0.012403134 0.010246919 -0.014218861 -0.0115838405 -0.005395605 -0.0004887654 -0.006211707 -0.0060055633
0.00081647123 -0.011530071 0.0053523057 -0.0032653932 -0.0020260534 -0.005817326 0.009265682 0.0014174464
0.0060406574 0.00011626047 0.00082708825 -0.0153392535 0.008847913 -3.4145498e-06 -0.0015770613 -0.004374522
-0.004516805 -0.0124054905 -0.0022616268 -0.014181319 -0.00038628027 -0.013453549 0.005547411 0.003657257
-0.00022891242 -0.014441869 0.009645773 -0.011409149 -0.005042766 0.012032171 0.0047272877 0.00011498509
-0.00896674 -0.0017526082 0.009749059 -0.00750621 0.00087484973 -0.014677503 0.012259999 -0.012882653
-0.04794915 -0.017652413 -0.0064243665 -0.07705578 -0.0013022042 -0.020473428 -0.037236113 -0.010455417
0.006589643 -0.010858741 0.0036446631 0.007819827 0.0039678104 -0.008034636 -0.009284901 -0.015917132
-0.009438409 -0.0044525056 0.004510818 -0.0027081172 -0.010918594 0.012311651 -0.01574916 0.010419564
0.003309923 -0.00015594307 -0.006669781 -0.0009108759 -0.007483587 0.008080535 -0.008688155 -0.009456313
-0.020148603 0.011622689 0.010937742 -0.0049324227 -0.007278357 0.012490999 -0.011910113 -0.008489232
-0.009268793 -0.016150903 0.0021916144 -0.011343041 -0.002697428 -0.0109605845 -0.0053151553 0.013800109
0.007476556 -0.010337858 -0.0032446396 -0.002072013 0.0007868756 0.000790905 0.0023432993 0.012018473
-0.0049577146 -0.0072737415 -0.010343738 -0.006637924 -0.0030806803 -0.007961911 -0.01227514 0.08917855
0.0013493685 0.013769321 0.007226706 0.07986424 -0.0024708724 0.014790829 0.090872586 0.008694925
-0.0061411993 0.006891368 0.0027609621 -0.013658621 0.007702754 0.015490635 0.009607473 0.012456572
0.0047856113 -0.0036040507 -0.008778003 0.01097477 -0.00696421 -0.005598909 -0.0058659157 0.0006910915
0.0040499857 0.014759514 0.013104462 -0.0050140587 0.002998823 -0.006720611 0.006769561 -0.03645458
-0.018776936 -0.019148532 -0.015346662 -0.05270574 0.0016899451 -0.014081416 -0.023239698 0.011951163
0.003205178 0.0137428595 0.005081282 0.014340748 -0.016290601 -0.0013430308 -0.0015392983 0.0072106193
-0.0134464605 -0.013136333 0.0066981474 0.010898078 -0.014007859 0.012210106 -0.003075448 -0.008735297
0.007904643 -0.014868533 0.016488807 0.002243675 0.003139768 0.0148693295 0.0013632113 -0.015103366
-0.008639207 0.012970233 -0.012923178 -0.009049252 -0.012302624 0.010481169 0.009178683 0.004723012
-0.010595738 -0.002735795 0.012339807 -0.01160745 0.002750497 -0.0076908264 0.0058531077 -0.0027529239
-0.0017142077 0.011310281 0.009549857 -0.018774897 -0.01310037 0.0011905142 0.011018394 0.007291769
-0.011416593 0.005110895 -0.01459013 0.013020867 0.00084272854 0.0023036122 -0.014645204 -0.016937194
-0.0026446744 0.009693701 0.013914677 0.0129903825 -0.00806506 -0.010227104 -0.0014095929 0.010501831
0.0015889772 -0.010156163 0.012759901 -0.004378223 0.013785451 -0.008028528 -0.00949596 -0.0044275434
-0.0010016339 -0.009456325 -0.013716787 -0.0056010787 -0.004461719 -0.008412872 0.0021633853 -0.003492661
0.008845118 0.0057157697 0.010375247 0.010350388 -0.00034650645 0.012641249 0.002811849 -0.003530781
-0.004397748 0.009733688 -0.0045359475 0.0059082564 0.0005335767 -0.01240875 -0.006634309 0.011614115

net.flow_mapping.0.affine_layers.0.net.4.bias f4 [32]
00000000: bcad 16bc 795b a539 5d1a 89bb 72da 59be
00000010: 0e2d 703b b5e4 0fbc 63c3 58bc aef3 2abc
00000020: 0c6e b6bb 2a19 5dbc 5865 55bc 05ea 36be
00000030: b392 a7bb da33 06bb f26c 87bc 93d1 78bb
00000040: c685 88be f913 20bb 3353 6cbc 11fa 383b
00000050: d068 c4bb 0b32 6ebc 7dfb 8a3e f26a 60bc
00000060: 0724 053a 7157 70bb f3ee 50bc c31e 5abc
00000070: f4e2 1cbc 9f42 10bb 3407 19bc 6cf3 7fbb
-0.009196695 0.00031539405 -0.004184051 -0.21274737 0.0036647948 -0.008782555 -0.013230178 -0.010434074
-0.005567318 -0.013494769 -0.0130246505 -0.17862709 -0.0051139235 -0.0020477683 -0.016531441 -0.0037966713
-0.2666456 -0.0024425967 -0.014424133 0.0028225223 -0.00599394 -0.014538298 0.27144995 -0.013697373
0.0005078916 -0.0036673213 -0.012752282 -0.013312998 -0.009575594 -0.0022012366 -0.009340096 -0.0039055003

net.flow_mapping.0.affine_layers.0.net.6.weight f4 [32, 32]
00000000: e084 253c 8f49 233c fdc6 193c 45a0 94bd
00000010: d1f0 1a3c 514e a63b c344 203c 3b03 d43b
00000020: 8900 223c 7f29 ddba d6f3 09bb 4e09 8cbf
00000030: 2aa6 e2ba f8e7 97bb abf0 15bc 12ca 54bb
00000040: 70f0 a63d 1b87 2c3c 4798 7b3c 6d0e afbb
00000050: d89e 713a bde0 67bc fefb e0bd 9a8e da3b
00000060: 3669 f93b 84b2 413c dde6 13bb 1de0 733b
00000070: 5a09 7f3c f61d c3bb 43bc 343d 7a3c 6e3b
00000080: 229a 99bc fe31 873a 0180 283c 7a88 0d3e
00000090: 7cf7 78bc d221 d0bb bf88 d3ba 9344 4739
000000a0: a3c4 f7bb f985 303c c09a f5bb 8ce7 c63d
000000b0: f45d bb3b f643 1c3b 7409 133c ce84 623c
000000c0: e605 383e 060d 3fbc 24f1 643c c1ab 1a3b
000000d0: c929 15bc 5a4a 71bc e9e4 b0bd 3c36 063c
000000e0: d484 883a 39c1 403c 9f15 9b3b 0852 de3b
000000f0: fa2e e8bb 61b5 19bc 861c f53b 4f63 35bc
00000100: e3a4 08bc c530 6c3a e7e2 9f3c 2960 54be
00000110: ba96 983c 7c3c 71bc 411c 333b b8cc 053c
00000120: 83d3 743b 6645 d8bb aa49 7bba f50d c8be
00000130: 9989 293c 1eea a33b 2386 733c 3fce 14bc
00000140: 59cb bbbc 9ca4 3a3b 5c6e 503c 4a84 743c
00000150: 9636 06bc 6310 65bc 1f67 123e 1123 15bc
00000160: f045 313b f4aa 62bb ebea a9bb 3611 beba
00000170: 857d a83b 5f36 053c 1529 59bc 63ee b73c
00000180: bc34 96bc ea78 53bc 208e d7b9 ce25 8fbc
00000190: d4b5 8bbc cad4 083c 0b1e 383c 966c 053a
000001a0: 6409 8fbb 1b73 b33b d1af eb3b f3e1 f43b
000001b0: 9d62 a13b 7efc d938 e2bd 43bb 5535 08bc
000001c0: f9e2 2fbc 845c d03b 210d 173a 0ff7 37bc
000001d0: 640b 2bbc 5842 33bc 7fc9 193c cc7c 42bc
000001e0: 1426 17bb 9eac 1cbc 59f4 6ebc 8e1a c13b
000001f0: 31fe 32bc b167 2dbc e774 fe3b 97c8 c5ba
00000200: bd3b 22bc ab5c 33bc bc28 84bc 075d 08bb
00000210: c32b 9dba 1e46 97bc a745 3a3c e217 9bbb
00000220: a269 673c 3b41 35bc 9af3 7ebc ba04 433b
00000230: 6b36 e13b f520 353c bcba 81bc fc6f a83b
00000240: 57ce 3dbc 4fa6 79bc 004c ad3b aa3a 51bc
00000250: 08d8 22bc b489 f9ba 1d06 a0bc c950 7c3a
00000260: 09ef fcbb 3026 ce3b 4d41 f0bb 8e22 5ebc
00000270: 1e0f 593b c10b d5bb 1c60 24bb cacc 67bc
00000280: 3ab5 92bb c8d2 7fbc 858e 6c3a 83b2 923b
00000290: 1309 febb a4cd 363a 690c 9abc e6c8 17bc
000002a0: a6f4 c43b 794e d2bb 1aa6 41bc 80c3 2bbc
000002b0: 7fa1 113b d7db 673c 0c54 f0bb 7d3a 223c
000002c0: aac5 b03b 8b4e 2e3b 57c4 e23b c695 833c
000002d0: 359a 783a 9b47 6cbb e675 55bc 1659 9abb
000002e0: 645f 3d3c 7596 833c fd92 40bc aad1 7dbc
000002f0: 9c80 7d3c 73d1 123c 2437 59bc 77f4 23bc
00000300: 2c56 80bb c06f 003c b77d e73b e0a3 02bb
00000310: c058 593c 27dd a43b 3d81 72bc f4e8 003c
00000320: fbb8 7d3c b37d ba3a a713 d2bb 2ad7 333c
00000330: b425 41bc 1be0 8838 6130 ac39 6146 33bc
00000340: 1f2e 9cbb f578 89bc 500c 563c a4cb 2c3c
00000350: a696 563c b5e9 50bc 1e1b e3bc 7f1d 6e3c
00000360: 01fa 923b 6a4a 453b 0379 ec3b d058 3cbc
00000370: 682d 713b 868c 85bc 8a6b 06ba 1dbc c73b
00000380: de98 423c 9ef5 0f3c 5bcd a83a 7559 c73b
00000390: a974 21bc 0115 b7b9 24eb 85bc 7adb 16bc
000003a0: 7eee 4e3c 4c71 6a3c 605e 1abc becb 14bc
000003b0: fc00 9f39 6294 603b 58d4 81bb b61a d03b
000003c0: 4faf 09bc a2d0 7abb 6a69 c53a f611 12bc
000003d0: 5790 1c3c effb ac3b 65c8 263c 9365 31bc
000003e0: a197 133c c344 533b 5070 4ebc 913b f53b
000003f0: 87a6 063c 0d1b 0c3c 751b 89bc dd0d 733c
0.010102481 0.009966268 0.009385821 -0.072571315 0.009456829 0.005075254 0.009782019 0.0064701117
0.009887823 -0.0016873329 -0.0021049879 -1.094034 -0.0017291952 -0.004635807 -0.009151618 -0.0032469076
0.081513286 0.0105302585 0.01535613 -0.005342296 0.000921709 -0.014152703 -0.10985564 0.0066698315
0.007611419 0.011822347 -0.0022568025 0.003721244 0.015566194 -0.0059544994 0.044124853 0.0036351965
-0.018750254 0.0010314581 0.010284425 0.13821593 -0.015195724 -0.006351688 -0.0016138776 0.00019003665
-0.0075612827 0.010774129 -0.0074952543 0.09712133 0.005717987 0.0023844219 0.008974422 0.013825608
0.17971 -0.01166082 0.013973508 0.0023600908 -0.009104201 -0.014727199 -0.08637411 0.008191641
0.0010415562 0.011764818 0.004732802 0.006784681 -0.007085678 -0.009381623 0.007480207 -0.01107104
-0.008340093 0.0009009953 0.019517375 -0.20739807 0.01862656 -0.014723893 0.0027330073 0.008166485
0.0037357516 -0.00660007 -0.0009585867 -0.39073148 0.010347747 0.005002274 0.014863524 -0.009082376
-0.022924112 0.0028479462 0.012721624 0.014924118 -0.008191725 -0.013980958 0.1429715 -0.009102599
0.0027049743 -0.003458676 -0.005185475 -0.0014500979 0.005141916 0.008130639 -0.013254424 0.022452539
-0.018335693 -0.012907246 -0.00041113887 -0.017474081 -0.017054476 0.008351514 0.011237632 0.0005089728
-0.004365133 0.005476368 0.00719259 0.0074732243 0.0049250857 0.00010394397 -0.0029867818 -0.008313497
-0.010735267 0.006358685 0.0005762149 -0.011228337 -0.010439727 -0.010941111 0.009386419 -0.011870574
-0.0023063468 -0.0095626395 -0.014584624 0.005893058 -0.010924862 -0.010583804 0.0077654007 -0.0015089688
-0.009901938 -0.010947387 -0.016132705 -0.0020807402 -0.0011991191 -0.018466052 0.0113691455 -0.0047330717
0.014124306 -0.011062915 -0.015561009 0.0029757456 0.006872942 0.011055221 -0.015836112 0.0051403027
-0.01158484 -0.015237405 0.005288601 -0.012770334 -0.009939201 -0.0019038231 -0.019534165 0.0009625075
-0.007718925 0.0062911734 -0.007332003 -0.013558043 0.0033120583 -0.0065016453 -0.00250817 -0.014147947
-0.0044771703 -0.015614219 0.00090239226 0.0044768467 -0.0077525466 0.0006973392 -0.018804746 -0.0092642065
0.0060106097 -0.006418046 -0.011819387 -0.010483623 0.0022221503 0.014151535 -0.007334238 0.00990164
0.005394657 0.0026597108 0.006920378 0.016062628 0.0009483428 -0.0036053422 -0.013028597 -0.004710327
0.011558387 0.016062954 -0.011753795 -0.015491882 0.015472557 0.008961069 -0.013257775 -0.010007015
-0.0039165225 0.007839143 0.007064547 -0.0019934103 0.013265789 0.005031246 -0.014801321 0.00786804
0.015485997 0.0014228135 -0.006411034 0.010976592 -0.011788774 6.526728e-05 0.00032842442 -0.010942073
-0.0047662403 -0.01678131 0.013064459 0.010546599 0.013097441 -0.012751033 -0.027722891 0.0145334
0.004485369 0.0030104169 0.007216574 -0.011495784 0.0036800746 -0.016302358 -0.0005127719 0.006095423
0.011877267 0.008786587 0.0012878584 0.006083662 -0.009854474 -0.0003492013 -0.016347475 -0.009207601
0.012630103 0.014309239 -0.009421915 -0.009081779 0.00030327577 0.003426813 -0.003962081 0.0063508404
-0.008403613 -0.0038271328 0.0015061323 -0.008915415 0.009555898 0.0052790563 0.010179614 -0.01082744
0.009008319 0.003223703 -0.01260002 0.0074839075 0.008218414 0.008551371 -0.016736725 0.014834848

net.flow_mapping.0.affine_layers.0.net.6.bias f4 [32]
00000000: 97bb e7bb a1c1 1cbe 9f7a 37bd f88e 40bc
00000010: 8474 34bb d23a ddbc 5e91 80bc 2af3 e0bc
00000020: dc5b 183e 9a8c 46bc 8a3f d9bc b435 84be
00000030: 3c1f f2bd 8aca 23bb db26 b53e a86e 363e
00000040: 346a 2ebc c4c7 1fbc f6a0 06bd dfaa 9f3e
00000050: a853 88bc b7e7 98bc ffa2 eabc b402 47bd
00000060: ea66 23bc 0ec7 bcbc 05ca 783e a35d f1bb
00000070: 2281 00bd e1a8 10bc 7933 45bc f403 10bc
-0.007071923 -0.15308239 -0.044794675 -0.011752836 -0.002753527 -0.027005587 -0.015694316 -0.0274597
0.14878792 -0.012118483 -0.026519556 -0.25822222 -0.11822364 -0.002499255 0.35381207 0.1781565
-0.010645438 -0.009752218 -0.032868348 0.31185052 -0.016641453 -0.018665178 -0.028642176 -0.048586562
-0.009973267 -0.023044135 0.24295814 -0.0073658987 -0.03137315 -0.008829326 -0.012036198 -0.008790005

net.flow_mapping.0.affine_layers.0.net.8.weight f4 [32, 32]
00000000: c2cc b1bd df91 b93c 66ea 033c a5ac c53b
00000010: 482c 0fb9 296d df3b 43e6 15be b5a5 b03a
00000020: 3f6d 433e fcd1 f83b f8f5 7b3c aeb5 18bd
00000030: 67b5 cdbb ed11 ad3a 5ca1 3d3e 120b 533e
00000040: b3cc 513c c8e1 b83b 9037 12bf 9f7a 9f3e
00000050: 9d65 3cbc fdd3 73bd 1630 abbf 16a5 47bf
00000060: 92e5 3f3c 51eb b3be 018a 693e 0650 013d
00000070: cf42 013d 401a 523c c745 4ebc e2ca 223c
00000080: 3023 8cbb 158d 6bbc 1c55 31bc b839 86bc
00000090: eed4 5ebc 6ee2 dc3b 4701 6bbb 9b3b 86bb
000000a0: 8b06 80bc 1e3c 50bc 88e5 5dbc c20d 713c
000000b0: e964 c93b 12cd e9bb 9883 233c ba8f 50bb
000000c0: 8b77 88bb d767 d6ba 3385 4c3c 8442 64bc
000000d0: c9ee 81bc 295f ec3a 14d3 5fbc f405 86bb
000000e0: 9c33 163c ef54 69bc f1f2 723c 61d0 3cbc
000000f0: dc66 e4bb ad32 f4ba a745 38bc 30b0 a0bb
00000100: f782 f33b 2ae4 8abc edd3 693c 0c78 c7bb
00000110: 6234 483c 6802 003c e44b 723c 89de 533b
00000120: 5385 8f3b 6d7f 133c a0b7 5b3c 59dc 2f3c
00000130: 91bd 723c 8080 2d3c 5b57 52bc d0e6 e43b
00000140: a692 f6bb 801a bcbb b661 84bc a11c 57bc
00000150: 9b34 49bc 184c e0bb da04 783c b54d d3bb
00000160: 21ed 1b3c a774 31bc bc19 ddba ac07 54bc
00000170: 3cc8 343c fffd 7cbc 5da6 6e3c 0887 f9bb
00000180: 9331 dfb9 ce25 21bc 3f2a 183b a8a4 913b
00000190: 5df0 493c a29c 24bc c5a3 35bb 8166 d5ba
000001a0: 0e01 543c 76c9 533c f5ad 38bb d7fa 583c
000001b0: 8535 6ebc 1dc5 ee3b 1237 70bc 0c90 7bbc
000001c0: cc92 3d3c 76aa 6a3c f8bc b43b fae7 38bc
000001d0: 73c6 823c 11c6 d6bb 5abc 5dbb 294c 9abb
000001e0: 3d1b f4bb a17b 0dbc 70a6 2a3c 914f 083c
000001f0: 41ac 70bc e7e2 aabb 422f ad3b 3c6e 5dbb
00000200: dc43 afbd 3f1b 4a3e c218 acbc 39ac 2c3c
00000210: e5fd 303b 873e 943c ecb3 383c 6647 b33c
00000220: d95d 3cbe 7f40 493c f905 f83b 9250 e23e
00000230: c861 3abe 9c38 97bc 4473 e7be db0b 80bf
00000240: cc33 38bc 21d4 2cbb c243 353e bb51 bdbc
00000250: 07d3 08bc 962b 293b b55f 283e 63a2 513e
00000260: b65c fabb b76a 183e 135d 373d 4242 7f3c
00000270: f9bc ba3d 4aee 38bc 93dc 853b 06ce 3d3c
00000280: a707 813c 8989 7bbd f998 1c3c c0d8 753b
00000290: 6722 ca3b 6c33 073c f1f8 503c 0d6a 233b
000002a0: 5f95 9a3d 26aa d0bb 38b3 42bc ab27 a4be
000002b0: 546b 3f3c e479 82b9 5fcc f83d 8718 953e
000002c0: 272e ae3b 2c3c 303c 9a29 253c 9bfc c8bf
000002d0: b646 5a3b 9df0 0ebb 6c66 a3bc 1377 49bb
000002e0: b321 cdbb ebaf b1bc b6eb 053f 7cde ab3b
000002f0: 3960 3abc 3c44 00bb aa12 713c 76aa 73bc
00000300: b9b7 46bc 5ab8 c0bd d429 3c3c 150f 5f3a
00000310: 158a 413c ecc3 a23c ec9c b53b 6ba7 1e3c
00000320: 99fe c13d 5397 46bc 56dc 5a3c aa46 73bf
00000330: 296a 10bb c90e 01bc 2bae de3d 49f0 bb3e
00000340: 599b 743c 678c 083c 6a1f 1a3c 19f7 bfbf
00000350: 9a5c 663c 671f 443c 605c eabc 27b4 2e3c
00000360: 9879 9e3b c961 30bc b281 1e3f 0c16 13bc
00000370: f4d9 913b 0272 3dbb c534 46bc ce12 55bc
00000380: 05b2 0a3e ae91 cd3d 995c 2d3d 50e7 07bc
00000390: b670 afbb cf82 db39 7f52 afba 0ba3 fa3a
000003a0: c7bb 903c 81ab 86ba 86f1 cf3a 9764 883e
000003b0: cc42 633d 57cb dd3b 07e4 793c 05a1 9abd
000003c0: 1e1b c2ba b143 68bb 09c5 0e3e 0e5f 50bd
000003d0: 3694 41bb 3aad cd3b e28b 923d 1c2a 313e
000003e0: d1af 23bc be4c a73d 14e2 eabd 2f47 a9ba
000003f0: fab4 d73c 8ac0 b8ba e8ae 883c 6478 663c
-0.086816326 0.022652565 0.00805149 0.0060325437 -0.00013654039 0.006818433 -0.14638619 0.0013477119
0.19084643 0.0075933915 0.015378468 -0.03728264 -0.0062777284 0.0013204195 0.18518585 0.20609692
0.012805152 0.0056421496 -0.5711603 0.3114824 -0.011498836 -0.05952834 -1.337405 -0.77986276
0.011712449 -0.3514047 0.2280655 0.031570457 0.031557854 0.012823641 -0.012589878 0.009936066
-0.0042766556 -0.014376898 -0.010823514 -0.016384944 -0.013600571 0.0067408597 -0.0035858916 -0.004096461
-0.01562812 -0.012709646 -0.013543494 0.014712753 0.0061460626 -0.007135042 0.009980105 -0.003182395
-0.0041646413 -0.0016357851 0.012482929 -0.013931874 -0.015860932 0.0018033731 -0.013661165 -0.004090065
0.009167578 -0.014241441 0.01482843 -0.011524291 -0.0069702696 -0.0018630825 -0.011247075 -0.0049038157
0.0074313837 -0.0169545 0.014271718 -0.0060873087 0.01221952 0.007813074 0.014788602 0.0032328686
0.004379907 0.009002549 0.013410479 0.010733687 0.014815704 0.010589719 -0.01283821 0.006985523
-0.007524806 -0.0057404637 -0.016159873 -0.013129384 -0.0122806085 -0.0068450086 0.015137875 -0.0064484724
0.009516985 -0.010831035 -0.0016868631 -0.012941282 0.011034068 -0.015441417 0.014566031 -0.007614974
-0.0004257081 -0.0098356735 0.002321854 0.0044446774 0.0123253735 -0.01004711 -0.0027716022 -0.0016281159
0.012939705 0.01292645 -0.0028179858 0.013243399 -0.014539127 0.0072866813 -0.014661567 -0.015354168
0.011570644 0.014322868 0.005515691 -0.011285776 0.015963769 -0.006554373 -0.003383419 -0.004708786
-0.007449536 -0.008635432 0.010415658 0.008319751 -0.014689506 -0.005215037 0.0052851746 -0.0033787629
-0.08557865 0.19736956 -0.0210079 0.010539108 0.0027006802 0.018096222 0.0112733655 0.021884631
-0.18395175 0.0122834435 0.0075690714 0.44202095 -0.18201363 -0.01845961 -0.45205128 -1.0003618
-0.011242818 -0.0026371556 0.17701629 -0.023110261 -0.008351094 0.0025813333 0.1644276 0.20472102
-0.0076404465 0.14884458 0.044766497 0.015579762 0.09118075 -0.011287281 0.0040851324 0.011584764
0.01575072 -0.06141046 0.009557956 0.0037513226 0.006168652 0.008252006 0.012754665 0.0024935037
0.075480215 -0.0063679395 -0.011883549 -0.32061514 0.011683304 -0.00024886348 0.12148356 0.29120275
0.0053155604 0.010756534 0.010080719 -1.5702089 0.0033306307 -0.0021810897 -0.0199463 -0.003074114
-0.006260121 -0.02169033 0.5231279 0.005245028 -0.01137548 -0.001957192 0.0147139225 -0.014872184
-0.012128764 -0.09410162 0.011484582 0.00085090223 0.0118127065 0.019868813 0.005542388 0.00968347
0.09472389 -0.012121039 0.013358196 -0.950297 -0.0022035933 -0.00787706 0.10873064 0.3670676
0.014929616 0.008334256 0.009406904 -1.4997283 0.014060164 0.0119703775 -0.028608501 0.010663069
0.0048362724 -0.010765501 0.6191665 -0.008977424 0.004451031 -0.0028907065 -0.012097542 -0.013004972
0.13544472 0.10037552 0.042324636 -0.008294895 -0.0053540124 0.00041868395 -0.0013376026 0.0019122077
0.017667664 -0.0010274501 0.0015864826 0.26639244 0.055483624 0.0067686248 0.01525212 -0.07550243
-0.0014809107 -0.0035440738 0.1394235 -0.0508719 -0.0029537803 0.0062767537 0.07155587 0.1730122
-0.009990648 0.08168934 -0.11468902 -0.0012914891 0.026331414 -0.0014095467 0.016684964 0.014066789

net.flow_mapping.0.affine_layers.0.net.8.bias f4 [32]
00000000: 941a 0d3e cc94 19bc 5113 d8bb e47d 64bc
00000010: d02f 14bf c390 b23d 4a25 443d 85ea fd3d
00000020: 6060 d63d 0d7d c8bc bb47 b73d 0538 b23d
00000030: d241 fc3d 402b 023e a63e 41bc f77c 313b
00000040: 3106 8abd 3a72 663e 9270 adbb 3853 2ebc
00000050: 0c63 22bb 13ae 043e fb4e ac3a 4ed7 2ebc
00000060: 2ce9 00bc f110 233e b534 053e a92a e73d
00000070: eec4 6f3d a3e4 82bc e838 cc3d b71e b23d
0.1377967 -0.009373855 -0.0065940996 -0.01394603 -0.57885456 0.08719017 0.047887124 0.12398247
0.10467601 -0.024473691 0.089492284 0.08702091 0.12317242 0.12711811 -0.011794722 0.0027082541
-0.06739462 0.22504511 -0.0052929604 -0.010639958 -0.0024778275 0.12957029 0.0013146097 -0.01067145
-0.0078680925 0.15924431 0.13008387 0.11287434 0.058537416 -0.015978163 0.099717915 0.08697265

net.flow_mapping.0.affine_layers.0.net.10.weight f4 [2, 32]
00000000: dadf 013f fed6 4dbc 9e33 b63b 9159 823b
00000010: 46c6 e13f 63ae ec3e c5bb 033f 2b21 fbbd
00000020: 8078 acbd 51d6 0e3e d9f8 0cbe 3c31 e83e
00000030: 9b7b ec3e 2d01 e6bd e6bb 8fbb 71ea 983d
00000040: 367b 3e3e e0cd 93be 3cbf 413d e4aa 09bc
00000050: 8a5a e03b 5a87 fbbd 2bff 3ebc 1614 41bc
00000060: d774 9e3b 2322 0fbe 2274 febd a763 b4bd
00000070: 5d7c 91bc ace4 9e3b a6d8 abbd 2c58 82bd
00000080: 914a 0b3e bd28 2dbc 3bdb f83b a732 5bbc
00000090: db28 6bc0 990a 82be 38f6 9ebe aaad cfbe
000000a0: 1e38 cabe 611e 69bd 5d2f e2be 0fd5 90be
000000b0: d166 ef3d 873b c0be f960 3f3c ade8 65be
000000c0: b9af 00bf accd 15be 1c13 e23c 2bd8 4bbb
000000d0: 451c 85bc e512 bebe bcb6 8f3c c3f8 8cbb
000000e0: 0512 f5bb b5ab a1be ba66 c0be 003b c3be
000000f0: 7fed aabe 4192 95b9 f6fe c8be ee2e babe
0.50732195 -0.012563465 0.0055603525 0.0039779623 1.7638633 0.46226797 0.5145839 -0.12262186
-0.08421421 0.13948943 -0.13766803 0.45350063 0.46188053 -0.11230693 -0.004386413 0.07466591
0.18601689 -0.28868008 0.047301516 -0.00840256 0.0068467306 -0.12281676 -0.0116575165 -0.011784574
0.0048357057 -0.13977866 -0.12424494 -0.0880807 -0.017759496 0.004849037 -0.08390932 -0.06364474
0.13602664 -0.010568795 0.0075944937 -0.013378776 -3.6743686 -0.2539871 -0.31047225 -0.40562183
-0.3949594 -0.056913737 -0.4417676 -0.2828755 0.116895325 -0.37545416 0.011680835 -0.2245204
-0.5026813 -0.14629239 0.027597003 -0.0031104188 -0.016248832 -0.3712379 0.01754319 -0.0043021156
-0.0074789547 -0.31576315 -0.37578374 -0.3813095 -0.3338432 -0.00028528462 -0.3925702 -0.3636393

net.flow_mapping.0.affine_layers.0.net.10.bias f4 [2]
00000000: 7ac1 12be b1b4 60be
-0.14331618 -0.21943928

net.flow_mapping.0.affine_layers.1.net.0.weight f4 [32, 1]
00000000: c3c5 c83d 753c 6cbd ee37 4abd dc1d 5ebd
00000010: 920e 0abc 6088 dc3d 659e b9bb 522d 893d
00000020: 987d febc fdfb 9ebb 0d6b bcbd dd03 5c39
00000030: da10 a63d e894 bcbb 2f02 08bc d66b 4c3a
00000040: 2b43 78bd 516f 94b8 d6dc 71bd b26b 023e
00000050: a939 9abd bbc8 8bbd ef38 87bd 39d6 82bc
00000060: 4100 0a3b ad42 2f3a 544d 22bd d720 d03d
00000070: 6394 ac3d ce21 6cbd 875e b2bd f70d abbd
0.09803345 -0.057674844 -0.049369745 -0.054227695 -0.008426325 0.10768199 -0.005664634 0.06698097
-0.031065747 -0.0048518167 -0.09200106 0.00020982274 0.08108683 -0.0057550557 -0.008301302 0.0007798051
-0.06061093 -7.077924e-05 -0.059048496 0.12736395 -0.07530529 -0.06825396 -0.06602656 -0.01597129
0.002105728 0.00066856557 -0.039624527 0.10162514 0.0842674 -0.057649426 -0.08709436 -0.08352273

net.flow_mapping.0.affine_layers.1.net.0.bias f4 [32]
00000000: 05d3 cfbe 95ab a73d dca2 963d a438 963c
00000010: 194c 18bd 2b02 cfbe ecb2 91bd 386c bebe
00000020: e854 043d 2617 f23b 489a 50bd 50ea 84bd
00000030: 109e 02bf 362c 12ba f9c8 6e3d 798e 2ebe
00000040: 7833 27bd 25a4 06bd 48fd 5c3d a549 b3be
00000050: eaf9 b6bd c8e0 f63c c68c 0a3d 9a96 8abb
00000060: 9d6e efbe fdaf 10be e774 a23d 2621 f9be
00000070: 1e4b ccbe a50a b9bd 0ec7 b03d 3be4 9bbd
-0.40590683 0.081870236 0.07355282 0.018337555 -0.037181947 -0.40431342 -0.07114205 -0.3719194
0.032307535 0.0073880134 -0.050928384 -0.06490004 -0.51022434 -0.0005576046 0.05829713 -0.17046537
-0.04082057 -0.032871384 0.053952485 -0.35017124 -0.08934386 0.03013648 0.03382566 -0.004229379
-0.4676408 -0.14129634 0.079324536 -0.48658103 -0.3990106 -0.090352334 0.08631717 -0.07611891

net.flow_mapping.0.affine_layers.1.net.2.weight f4 [32, 32]
00000000: 26fd 20bc c69e 67bc ba00 3b3c 6f9b c4bb
00000010: f1b8 e7bb 5fb7 06bc 7971 2c3c 430b a1b8
00000020: 075a 61bc 16cd dbbb 2839 b83b c4cd 0f3c
00000030: 6169 4c3c 17d0 0ebb bc0b b5bb 569e dc3b
00000040: 4c7f 1abb 1b0a 383c ead6 573c 981e d73b
00000050: b5f4 1f3c 0a1b 81bc 711f 823c c1b4 0cbc
00000060: 7fe4 3d3c 0ce9 c33a 0fc4 5b39 3855 64bc
00000070: 98cf 34bc f5a4 e33b 81ee 0f3c 98e2 f13b
00000080: 30ca 6b39 3279 333c 8de3 363c 2c29 593c
00000090: 0b9c 9b3b 827a 9e3a 0bb0 523c c8ad efbc
000000a0: c7d1 2c3c 9782 1aba 6508 a63a 92f2 e3bc
000000b0: 272c 9b3a 22bb 823c 9a0f 5ebb 7984 01bc
000000c0: fdfd 093c eedf 14bb f21c 85bc 6534 7cba
000000d0: f25e fbb9 d300 663c a59f 303c 8f73 263c
000000e0: 8811 d2b9 5f41 15b9 e9d5 003b 5387 0fba
000000f0: 4af2 dbbb decd 023c 6cc7 1fbc 5a02 4a3c
00000100: d1fb 10bc c22a 66bc 5d79 6fbb 64ad 79bc
00000110: 09cd 3b3c 08b7 3cbc a287 90bb 1279 853a
00000120: f92f 963b f4a1 4c3c 6e0b f73a 8e52 3bbc
00000130: b41a 89b9 7aba 133c 5e02 083c a136 6abc
00000140: 36de 0e3b 5761 e33b 9943 fdba 6bc7 3e3b
00000150: 5b58 2bbc c3c7 cc3b d260 1f3c f657 74ba
00000160: da96 e3bb 9aae 7a3b 4b9a 8a3a 896d 5abc
00000170: b042 e5b9 a7d0 713c 0f9e 75bc 71f4 fd3b
00000180: 8cad 9a3b 683c 983b 3e1e 903a 137e 14bc
00000190: 2029 d63a 2755 9ebc c139 dcbb 0c56 55bc
000001a0: 1807 ef3b 178a 903b 11cf cb3a 2b70 d43b
000001b0: e943 0d3c 76f6 4e3c 26c1 4cbc 8bf2 3dba
000001c0: 5034 263b fdb6 19bc 0540 25ba c7cd ec3b
000001d0: d10d 593c c707 523c ce29 24bc 08be 7abc
000001e0: 56bf 2fba f3be 00bc 97c1 1abc 05d3 2d3b
000001f0: cf86 0c3c 438c 693c 8ba0 7c3c a188 fcba
00000200: cceb 413a b5f3 f13b 08c9 b9bb 71b9 52bc
00000210: 310b 863c 8a8a 403b db5e 2cbb 6540 b83b
00000220: 0994 2a3c 642c 3cbc ef70 223c 3abc bbbb
00000230: 302d 94bc d064 86ba 50c3 1a3c 5ac4 163c
00000240: ace0 b13b 150e 17bb d845 7dbc 3698 2ebc
00000250: 0ab7 803c 8728 97bb 893d 173b fd7c 743c
00000260: 35d1 eabb 256f 7ebb b0a5 4e3c f9cb afbb
00000270: a16b f23b b49f 90b9 a99f 47bc fec6 5a3c
00000280: d85c 81bc 6144 e6bb 13e9 89b9 e5a1 7cbb
00000290: 634d 393c 7f44 313b ae70 3b3c a2cf f13b
000002a0: 62d1 4c3c 6b40 a639 48c6 3f3c a3ff 61bc
000002b0: 5191 6fbc 5b8d 283c 6a54 023c 7f1b 1e3c
000002c0: 6027 583b 464e 1d3c 3a4c 7bbc d3dd e4b9
000002d0: 8fa9 eabb 905d 5c3c 22a6 223b 00f4 68bc
000002e0: 51af 2bbc 6a34 90bc 51f8 cbbb 2077 9fba
000002f0: 5260 ccbc 1abc 58ba 16e9 853c adb8 88b9
00000300: e750 42bc 8266 193b 2805 403c 9a26 143c
00000310: eec1 863b 9fe0 8cbc 2aa1 083c 351f 123c
00000320: c1d1 ddbb 3d98 a3bb 8c2c 1f3b 5d8e 573c
00000330: afe2 02bb b07d 6aba de5b 86bb 1662 253c
00000340: 9570 443b 169d da3b 9417 28bc 34be 893b
00000350: 10ab d6ba f93e 82bc 43ec 213c 0c84 7e3b
00000360: 023f 783b 0bca 6d3b 8065 7bbc a51d 3abc
00000370: cab6 18bb 3d8d 3fbc 597e 2b3b 22f4 dcbb
00000380: 0a0e 303c 4afb ba3a 82e1 a73b 9bb1 10bb
00000390: 5e65 42bc ced7 abba 497e 23bb d4d3 1fbc
000003a0: d6d4 d0bb 6488 c0ba 6e57 073c 2ef9 62bc
000003b0: bb17 bdba c0e4 4c3c 92e9 bcbb c962 153c
000003c0: eeb0 7f3c ec16 1d3c aaf0 253c 1682 e53b
000003d0: d932 623c 7a90 c43b a395 5cbb 59b7 843c
000003e0: c5c2 17bc 2e89 b3bb 6930 cebb 17e5 1fbc
000003f0: 6a38 16bc 9219 243c 2a1b 133c a6cf 533c
-0.00982598 -0.014136976 0.011413747 -0.0059999744 -0.0070716073 -0.00822243 0.010525101 -7.679176e-05
-0.013754374 -0.0067077978 0.005622048 0.008777086 0.012476296 -0.0021791512 -0.0055250805 0.0067327423
-0.002357441 0.011232878 0.013173798 0.0065649264 0.009762933 -0.015759964 0.015884133 -0.008588017
0.011590122 0.0014946773 0.00020958505 -0.013936333 -0.011035822 0.0069471546 0.008784891 0.0073817484
0.00022486667 0.010954188 0.011162651 0.013254445 0.0047488264 0.0012090954 0.012859355 -0.02925767
0.010548062 -0.0005894093 0.0012667297 -0.027825627 0.001183872 0.015958373 -0.003388381 -0.007905119
0.008422372 -0.002271648 -0.016249154 -0.00096208445 -0.0004794519 0.014038282 0.01078025 0.010159387
-0.00040067383 -0.000142341 0.001965875 -0.0005475182 -0.0067122327 0.007983653 -0.009752136 0.012329662
-0.0088491 -0.01404828 -0.0036540844 -0.015239093 0.011462458 -0.011518247 -0.0044107 0.0010183176
0.0045833555 0.0124897845 0.0018848011 -0.011433257 -0.00026150572 0.009016627 0.008301346 -0.014295251
0.0021799929 0.006939094 -0.0019322514 0.0029110562 -0.010458077 0.0062493994 0.009727674 -0.00093209685
-0.006945473 0.0038251043 0.0010574547 -0.013331779 -0.0004372797 0.014759219 -0.014991297 0.007750087
0.0047203954 0.004645873 0.0010995341 -0.009063262 0.001633916 -0.019327713 -0.006720752 -0.013021003
0.007294547 0.004410993 0.0015549381 0.006483098 0.008622148 0.012632003 -0.012497222 -0.00072459196
0.002536077 -0.009382007 -0.000630379 0.007226679 0.013247923 0.012819237 -0.010019733 -0.015304096
-0.00067042315 -0.007858026 -0.0094455695 0.0026523483 0.008577063 0.014254632 0.015419136 -0.0019266793
0.0007397502 0.0073837885 -0.0056697167 -0.0128615955 0.016362758 0.002937945 -0.0026301655 0.005622911
0.010411271 -0.011485193 0.009914621 -0.0057292255 -0.018087953 -0.0010253433 0.00944598 0.009202087
0.0054283943 -0.0023049165 -0.015458547 -0.010656407 0.01571228 -0.0046129855 0.002307745 0.014922378
-0.0071660527 -0.0038823572 0.012612745 -0.0053648916 0.0073980843 -0.00027584808 -0.012184062 0.0133531075
-0.015791342 -0.0070271944 -0.0002630433 -0.0038548645 0.011309954 0.0027048883 0.011440439 0.007379488
0.012501093 0.00031709982 0.011704989 -0.013793859 -0.0146220485 0.010287608 0.007954696 0.00965011
0.0032982454 0.009601181 -0.015337998 -0.0004365282 -0.0071613262 0.013450041 0.002481826 -0.01421833
-0.01047881 -0.017603118 -0.00622467 -0.0012166239 -0.024948273 -0.00082677754 0.016346496 -0.00026077536
-0.011860109 0.0023407047 0.011719979 0.009042406 0.0041124737 -0.017196951 0.008339206 0.008918573
-0.0067693894 -0.0049925135 0.0024288027 0.013156501 -0.001997154 -0.00089451205 -0.004100307 0.010094186
0.002997433 0.006671558 -0.010259528 0.004203582 -0.0016377885 -0.015899168 0.009882989 0.003883603
0.0037879352 0.0036283757 -0.015344024 -0.011359607 -0.002330231 -0.011691389 0.0026167838 -0.00674297
0.010745535 0.0014265564 0.005123318 -0.0022078517 -0.011864988 -0.001311058 -0.0024947098 -0.009755094
-0.0063730283 -0.0014689085 0.008260591 -0.013853354 -0.0014426628 0.01250571 -0.0057651484 0.0091177905
0.015606148 0.0095879845 0.01012818 0.007004033 0.013806068 0.0059986683 -0.0033658526 0.016200708
-0.009262745 -0.0054789996 -0.006292392 -0.009759209 -0.009168724 0.010015862 0.008978644 0.012927925

net.flow_mapping.0.affine_layers.1.net.2.bias f4 [32]
00000000: 0b94 b9bb 838f 2abc 3d53 f73b e773 d7bc
00000010: ecaf 1ebd 713b f43b ad2c d2bc 0529 57bc
00000020: 0dd2 e8bb 0208 51bc cbd0 22bb 35a4 1a3c
00000030: be14 e4bb 9873 1fbc 2cc2 7fbc bf88 9e3a
00000040: ae34 a53a 272e acbe 848e 9bba 75f3 f5bc
00000050: 1d2b 2dbc 040f f6bb 24c9 bc3b 7251 163c
00000060: 2975 88bc 0050 26bb 6e95 b0bb 2f3b 203d
00000070: b2b4 04bc a212 afbe bc31 b1bb 575a 1f3c
-0.0056634 -0.010410192 0.0075477646 -0.026300384 -0.03874199 0.007453375 -0.025656069 -0.013132338
-0.007105118 -0.012758257 -0.0024843689 0.009438564 -0.0069604805 -0.00973215 -0.015610259 0.0012095197
0.0012604201 -0.3362896 -0.0011868034 -0.030023316 -0.010569361 -0.007509114 0.0057612825 0.0091746915
-0.016657429 -0.0025377274 -0.005388907 0.039118942 -0.008099722 -0.34193903 -0.00540754 0.009726129

net.flow_mapping.0.affine_layers.1.net.4.weight f4 [32, 32]
00000000: f0ee 5c3c d03f 2c3c e173 cc3b 9c9a e2bb
00000010: 289a a0bb 28a5 bbbb 1620 8f3b 4b85 47bb
00000020: 5256 7fbc 5a76 b93a 604f c63b 3857 0d3c
00000030: d0e7 ffb9 c615 d5ba 9694 803b 7f1e a83a
00000040: e385 033c 4158 03b8 2546 a3bb dcbc d23b
00000050: c628 cabb a108 04bc a578 7d3c 6512 15bc
00000060: e550 c5bb 16ce 6a3b bd5a 0f3c 81ab 9139
00000070: 999b 38bc 74b6 343b aed8 063c c7a5 b8bb
00000080: 1d62 04bb 20ec 82bc 0fe9 36bb a071 cebb
00000090: 7cb6 6fbb 4cd8 9f3c 8a33 46bc 74d9 81bc
000000a0: 6661 59bc 6a04 1e3c c637 993b 68d8 1e3c
000000b0: 07ac 8db9 47e9 4d3c 66a8 40bc 7ab3 793b
000000c0: bf4a a339 632f ccbe 891c 353c efeb 04bc
000000d0: bffc 25bc f8b3 60bc fd54 56bc 1666 663c
000000e0: 98bc 90bc 6207 c23a d06d 34bc 4931 0c3d
000000f0: cabe 8fba 2691 e8be afa7 5dbc 2390 4abc
00000100: 304a a73b 45b7 7c3c eb34 79bc 36e8 59bc
00000110: a616 d5bb a962 563b 2870 d9bb 76f3 f639
00000120: b74f 9dba 88cf 39bc 173c c93b 6920 223c
00000130: 8cfd ad3b 77a8 203c 2d48 743c 0f42 6a3b
00000140: b478 b4b9 918a efbc ec32 fc3b 9856 60bc
00000150: 2113 b73a 82ec 243c 24a2 193b 1f8a eabb
00000160: 0ec6 fc3b 1107 13bb 9660 d9ba ebb4 0f3c
00000170: f6fc 24bb ccc5 f1bc e02d ae3b 64e6 1bbc
00000180: d775 263c d79d e33b d86e 19bc 27f2 a1b9
00000190: 0e11 fc3b 01c6 013c 2751 25b8 9ab6 313c
000001a0: abe3 19bc 9842 0d3c de4f 49ba 70f9 aabb
000001b0: a2a2 0e3c 1cc9 38bb 8afa 3dbc 72e8 943b
000001c0: 3af4 23bb 84c3 bebd ba7f 4cbc 1258 1d3a
000001d0: 6a9f 0d3b 2e47 1d3a fca3 4ebc 7dae 633b
000001e0: 229d 833b f01c 3dbb 6c58 9ebb 876e 753c
000001f0: ce59 003c 1f29 bcbd ae97 b03b f521 243b
00000200: 6185 5fbc 7012 0aba 48f3 9dbb 06fc d1bb
00000210: 1402 4cbc 98c7 00bc da79 1e3c 72d6 553c
00000220: 744a ba3b d99a f8bb 3307 f4bb 815a 6dbc
00000230: d61a 053b 0476 18bb 02a3 1bbb 67d4 46bc
00000240: 9c56 073c 98e2 d2bc 3f19 653b 02d6 5ebc
00000250: 989c 263c 0cad 853c cce8 c33b 2361 8f3b
00000260: 5bce fd3b 2afd 91bb f0e2 4c3b 2393 0e3c
00000270: 5bb4 0abb ef1d f0bc 1e42 7b3c 0b91 e1bb
00000280: 8939 b1ba d48c 4abc f923 a8bb e5fd 103c
00000290: 4c45 cfbb 9f1a 16ba 9eaa 343c 07f9 933b
000002a0: 14dd 33bb 24ac d63b 7741 0b3c 79ea 2abb
000002b0: d638 dc3b 4747 a439 aa21 04bc f862 78bc
000002c0: b41e 923b 3eac 02bd 2a65 a5bb 40c0 1ebc
000002d0: 2f63 643b 90f9 08bc c0b7 1a3b 7df8 65bc
000002e0: 01e1 61bb cd02 20bc 92a5 5fbb 235d 2c3b
000002f0: d1eb 72bc 0fd0 fcbb 1968 663c 22ec 43bc
00000300: 617a 133c ac35 5c3b 54c1 973b 9249 9abb
00000310: c540 c5bb 0115 2d3c 6e12 ffbb 69f6 40bb
00000320: 1de0 80bc 7284 6d3c df66 5cbc 3a25 01bc
00000330: 0cc5 98bb a13d 613c 3952 5c3c f84e e439
00000340: 1c7c 853c 6ae5 44b9 f33b 393c 13b5 c0bb
00000350: e732 38bc e074 60bc 52c4 79bc 64d4 0d3b
00000360: 4b8b 90bb 719f 72b9 4688 13bb 8a36 92bc
00000370: 5226 43b9 1e5c acbb 750a 8c3b 5672 3e3c
00000380: 2209 babb efd6 e7bb 7d90 72bb 2dd4 5fbc
00000390: 86b0 7a3c 3349 85bc c0cf cd3b b5a3 803c
000003a0: 798f e6bb 5792 913b ac73 de3b b3b8 d3bb
000003b0: 57bf 383c f528 ea3b 4926 2ebb e9bb 72bb
000003c0: a670 50bc 63b1 45bd 45b6 003a 3714 8ebc
000003d0: 568a 07bc dec4 fdbb 25d3 723c fbee 35bc
000003e0: c8cd 193c 679d 9f3b 4c9d 783b 30fe b8bb
000003f0: 2546 7abc 17ef 4dbd 5bb8 023c 5018 64bc
0.0134847015 0.010513261 0.0062394 -0.0069154035 -0.0049011894 -0.0057264753 0.0043678386 -0.003044444
-0.015584545 0.0014149651 0.0060519427 0.008626752 -0.00048810104 -0.0016257099 0.003923963 0.0012826471
0.008027527 -3.1315027e-05 -0.004982727 0.006431205 -0.0061694114 -0.008058698 0.015470658 -0.009098624
-0.0060216063 0.0035828403 0.008749661 0.00027784336 -0.011267566 0.002757457 0.008230371 -0.0056349966
-0.0020200082 -0.015981734 -0.002790991 -0.0063001662 -0.0036577275 0.019512318 -0.012097249 -0.01585076
-0.0132678505 0.009644607 0.004675838 0.00969515 -0.00027021786 0.012567825 -0.011758899 0.003810136
0.00031145473 -0.39879903 0.011054167 -0.008112892 -0.01013106 -0.013714783 -0.013081786 0.014062425
-0.017668054 0.0014803226 -0.011012509 0.03422669 -0.0010966894 -0.4542324 -0.013528748 -0.012363466
0.0051052794 0.015424554 -0.0152103705 -0.013299992 -0.006502944 0.0032712615 -0.0066356845 0.0004710217
-0.0012001906 -0.011340983 0.0061411965 0.0098954225 0.005309766 0.00980579 0.014909786 0.003574494
-0.00034422206 -0.029240878 0.0076965 -0.013692521 0.0013967493 0.0100661535 0.002344259 -0.0071575786
0.0077140396 -0.0022434632 -0.0016584571 0.008771162 -0.002517519 -0.029513262 0.0053155273 -0.009515379
0.010159931 0.006946306 -0.009364806 -0.0003088873 0.0076924628 0.007920743 -3.9414645e-05 0.010846758
-0.009392659 0.008621834 -0.00076794426 -0.0052177235 0.008705767 -0.0028196042 -0.011595378 0.004544311
-0.0025017397 -0.093146354 -0.012481624 0.0006002198 0.002160991 0.00059996813 -0.012612339 0.0034741454
0.0040165344 -0.002885636 -0.004832318 0.014979965 0.007833911 -0.09187531 0.0053891754 0.0025044654
-0.01364264 -0.00052670296 -0.004820261 -0.0064082174 -0.012451667 -0.007860087 0.009672606 0.013051616
0.005685145 -0.0075868187 -0.0074471473 -0.01448691 0.0020310185 -0.0023263702 -0.0023748283 -0.012135602
0.008260395 -0.025742814 0.0034957675 -0.013600828 0.010169171 0.016317867 0.0059786793 0.0043755933
0.0077455468 -0.0044552283 0.0031263195 0.008702072 -0.002116463 -0.029311148 0.015335588 -0.0068837455
-0.0013521175 -0.012362678 -0.0051312414 0.008849596 -0.0063253995 -0.0005726013 0.011027006 0.0045157704
-0.0027445005 0.0065512825 0.008499495 -0.0026079698 0.0067206426 0.00031333623 -0.008064667 -0.015160315
0.0044592265 -0.031902544 -0.00504746 -0.009689391 0.0034849157 -0.008360282 0.0023608059 -0.014036295
-0.0034466388 -0.009766293 -0.0034125787 0.002630063 -0.014826731 -0.007715232 0.014062905 -0.011958154
0.009001345 0.0033601327 0.004631201 -0.0047084773 -0.006019684 0.01056409 -0.0077841794 -0.0029443747
-0.015731866 0.014496909 -0.013452261 -0.007882411 -0.0046621617 0.013747604 0.013447338 0.00043546385
0.016294532 -0.0001877748 0.011305797 -0.0058809607 -0.011242605 -0.01369974 -0.01524456 0.0021641487
-0.0044111363 -0.00023138315 -0.0022511645 -0.017848272 -0.00018610925 -0.0052600047 0.0042737075 0.0116239395
-0.0056773582 -0.0070751826 -0.0037012391 -0.0136614265 0.0153008755 -0.016270256 0.0062808692 0.015703062
-0.0070361462 0.004442494 0.0067886915 -0.006461227 0.011276088 0.0071459957 -0.0026573113 -0.0037038273
-0.01272217 -0.048264872 0.0004909973 -0.017343624 -0.008272728 -0.0077444157 0.014820849 -0.011104341
0.009387441 0.0048710587 0.0037935553 -0.005645536 -0.015275513 -0.050276842 0.007978524 -0.013921812
