param/das_pde_stage2.pth (torch, 95247 bytes, 5 tensors)

input_layer.weight f4 [150, 2]
000000 10 f8 81 be d8 a4 1b 3e b7 c2 8d be e4 0a 5c 3e
       -0.2538457 0.15199602 -0.27687618 0.2148853
000010 b7 97 e2 be 66 05 00 be 01 1a 18 3f ad 30 ab be
       -0.44256374 -0.1250206 0.5941468 -0.33435574
000020 6a 8e 0f bf 07 c3 c4 be 57 c4 b7 be b6 ec 6c be
       -0.5607668 -0.38430044 -0.35891983 -0.23137173
000030 aa b2 09 3f 87 29 4c be dd fd 11 3f d5 30 f2 3e
       0.53788245 -0.19937716 0.5702799 0.4730288
000040 b9 44 94 3e 96 15 b1 3e 1c c0 59 3e 46 82 12 bf
       0.2895868 0.3458678 0.2126469 -0.5723003
000050 c6 d7 d7 3e 85 d1 92 be 0d 6d 1a bf 14 17 0c 3f
       0.4215681 -0.28675476 -0.6032265 0.54722714
000060 5c e4 09 bf 10 ea 10 bd 29 87 2f bf 68 2d 2a bf
       -0.53864074 -0.03537947 -0.68565613 -0.66475534
000070 58 3d a7 3e b2 9a 1a 3e 30 a5 09 3f c7 4a c9 be
       0.3266399 0.15098074 0.5376768 -0.39314863
000080 09 50 c7 be ff 13 99 be 6d 7d 2c 3f 78 5e f5 3e
       -0.3892825 -0.29898068 0.67378885 0.47923636
000090 fc d5 34 bf 2b 5b dd bd b9 d6 bf be bc 53 25 3e
       -0.70639014 -0.108084045 -0.37468508 0.16145223
0000a0 b6 a6 84 be ba a7 10 bf 54 b5 02 bf 52 04 8d be
       -0.2590844 -0.5650593 -0.51057935 -0.2754236
0000b0 92 1c 2b bf 88 95 20 bf d8 0a 30 bf da 1b 7c be
       -0.6684047 -0.62728167 -0.68766546 -0.2462
0000c0 7f 95 47 be f4 fb 8f 3e 05 1d 2d 3f 64 43 c0 3e
       -0.19490622 0.28121912 0.67622405 0.37551415
0000d0 e5 57 12 bf 51 35 9f 3d 08 31 8c be 32 6c 72 bd
       -0.57165366 0.07773841 -0.27381158 -0.059185214
0000e0 52 f6 a4 3e 6b 24 68 be 25 e4 2f 3f 5e 2a 9d be
       0.32219177 -0.22670142 0.68707496 -0.30696386
0000f0 32 f1 df be 64 b3 af be 1d 1b 2b bf 48 11 9d 3d
       -0.43738705 -0.34316552 -0.66838247 0.07669312
000100 b4 bd 06 bf 93 23 07 3f 91 0a 2b bf 03 0e ca be
       -0.52633214 0.52788657 -0.66813 -0.39463815
000110 d4 52 be be e8 7a a9 be ed 2d 7a 3d e7 d0 30 bf
       -0.37172568 -0.33101583 0.061078954 -0.6906876
000120 0d 16 8e 3e 31 82 63 3d c2 8f 29 be a6 59 f1 bc
       0.27751198 0.055544082 -0.16558746 -0.029461693
000130 b1 8f a7 3e 9c 61 bb be 1f f1 81 be d8 c5 96 3e
       0.32726815 -0.36597908 -0.25379273 0.29447818
000140 e9 b5 07 3f 57 38 0f 3f 6d bf ee be d5 91 15 bf
       0.5301195 0.5594534 -0.4663042 -0.5842565
000150 c5 d0 e9 be b8 35 d9 be 20 7e 16 bf f2 3b e3 3d
       -0.4566709 -0.42423797 -0.587862 0.11095418
000160 3d 94 2c 3e 2e 55 7b 3e 51 88 1c 3e 22 04 a2 be
       0.16853423 0.24544212 0.15286376 -0.31643778
000170 f9 20 f5 3e a7 7e 1c 3f a4 a2 81 be cb c4 1f 3f
       0.4787672 0.61130756 -0.25319397 0.6240966
000180 1f 52 63 3e cc 19 fa 3d 6c bf cd 3e bc de 8e be
       0.22199295 0.122119516 0.40185106 -0.27904308
000190 fd 8d 83 3e 08 fe 94 be 0c 02 2d 3e d1 98 0a 3f
       0.25694266 -0.2910006 0.16895312 0.5413943
0001a0 e2 31 f5 3c 65 e5 28 bf d8 78 92 be 0a 31 68 bd
       0.029931013 -0.6597503 -0.2860782 -0.056687392
0001b0 19 0c c6 3e e8 79 1d 3e ea 46 43 be 7e e1 21 3f
       0.38681105 0.15378535 -0.1907002 0.632347
0001c0 eb 84 22 3f 70 2b c4 be a4 d5 ba be d1 83 8e 3e
       0.63484067 -0.3831439 -0.3649112 0.27834943
0001d0 11 9b bb 3e 3d 7d b7 3d 22 c2 1f 3f 0f bb 30 be
       0.36641744 0.08959434 0.624056 -0.17258857
0001e0 ae a5 37 be ff d7 aa be 01 6c 1f 3f 72 dc e6 be
       -0.17934296 -0.33367917 0.62274176 -0.4509006
0001f0 7a 32 01 3f 3a 03 1d bf 7e 1a 17 3f b5 35 71 3e
       0.50467646 -0.6133305 0.590248 0.23555644
000200 b7 b1 fb be be 5b 97 be ca f7 08 3e e0 16 19 3f
       -0.49159023 -0.2956218 0.13375774 0.5980053
000210 7d 11 b7 bd 2a 15 31 bf 86 51 33 bf 5e 3a e4 be
       -0.089388825 -0.6917292 -0.7004627 -0.4457578
000220 fd b1 c4 3e 24 92 04 3f 69 49 16 bf 32 e5 07 3f
       0.38417044 0.5178549 -0.58705765 0.530841
000230 9f 0d a1 3e 94 01 1b 3f 29 5b 20 bf 7b 5c 13 bf
       0.31455705 0.60549283 -0.626391 -0.5756299
000240 a8 63 25 bf d0 6f de be c0 e5 7d 3e 7e 7c 79 3e
       -0.6460519 -0.4344468 0.24794674 0.24363896
000250 80 61 4a be 79 05 e9 be ca c1 a3 3e e3 33 3a 3e
       -0.19763756 -0.45511988 0.31983787 0.18183856
000260 ba 85 3a 3e ea 08 85 be 6c 44 24 3f 55 c1 fc 3d
       0.18215075 -0.25983363 0.64166903 0.12341563
000270 49 51 23 bf 45 24 b2 be 88 d1 80 3d 17 b2 d1 3e
       -0.63795906 -0.34793296 0.06289965 0.40956184
000280 9b 8e 3e 3c 5d 6b d7 bd 93 bb 0f bd 55 36 01 bf
       0.0116306795 -0.10518525 -0.035090994 -0.5047353
000290 d9 64 14 3f 52 f9 d2 be 0a 18 58 3e 3b 18 f9 3e
       0.5796638 -0.4120584 0.2110292 0.486513
0002a0 35 ff 13 bf 86 dc 8b bc f8 c6 0e be 72 27 63 bd
       -0.5781129 -0.017072927 -0.13943088 -0.05545754
0002b0 50 ae 85 3e e5 fb df be fc 15 07 bd 8f 6e cb be
       0.26109552 -0.43746868 -0.03297995 -0.39732787
0002c0 df 82 99 3e 88 a5 94 be 41 51 91 3e 4f 32 17 3e
       0.2998266 -0.2903254 0.28382304 0.14765285
0002d0 e0 a0 df 3e 2e bd d7 be 2c 4b 28 bf 27 fa 9f 3e
       0.43677425 -0.4213652 -0.65739703 0.3124554
0002e0 6c 56 31 bf c8 de 0a bd df 59 e6 be a4 ce fe be
       -0.69272494 -0.033903867 -0.4499044 -0.4976703
0002f0 e3 f8 16 be 71 23 30 bf 10 a0 d2 3d 49 e9 f2 bd
       -0.1474338 -0.6880408 0.10284436 -0.11860902
000300 79 18 4c be 30 9b a4 be a2 fc 62 3e 49 72 c6 bd
       -0.1993121 -0.3214965 0.22166684 -0.09689767
000310 de a9 9f bd 94 ca 24 3e 37 21 81 3e 98 b4 50 be
       -0.077960715 0.16092902 0.25220653 -0.20381391
000320 2a f5 03 3f 39 18 f4 3e 86 ae b5 bd a8 db 10 bf
       0.51545966 0.4767473 -0.08871178 -0.5658517
000330 c2 4d 16 3f 49 c6 99 3e 7e f8 2e bf ec 78 42 be
       0.587124 0.30034092 -0.6834792 -0.1899144
000340 fe 55 29 3f 57 fc b2 3e 5d f1 fb 3e 48 32 ba be
       0.6614684 0.34958145 0.49207583 -0.36366487
000350 49 8a 2b 3e 8b 1c c4 be 91 43 74 be d5 70 b4 3e
       0.1675197 -0.38303027 -0.238539 0.35242334
000360 86 b5 37 be fc dc 28 bf 13 4a 11 bf 57 88 61 3d
       -0.1794034 -0.65962195 -0.56753653 0.055061664
000370 13 d6 90 be 5e 5a a2 3e 97 59 99 be 25 73 d1 3d
       -0.28288326 0.3170957 -0.29951164 0.1022704
000380 f6 06 fa be 84 ae 73 be 98 19 ef 3d 7a cf ae be
       -0.48833436 -0.23797041 0.116748035 -0.34142667
000390 e7 bd b5 be e9 b2 1a be 1c fb 96 3e 09 c3 10 3f
       -0.35496446 -0.15107311 0.29488456 0.565476
0003a0 c5 3a 2f 3e d2 c8 4d 3e ec 49 a2 be 44 44 14 bf
       0.17112263 0.20096138 -0.31697023 -0.57916665
0003b0 87 a6 1f 3f c6 9a d7 3e 53 1e d0 be 21 03 fd bd
       0.62363476 0.4211027 -0.40648136 -0.123541124
0003c0 0e e0 0b 3e 56 64 50 3e 03 41 02 bf 4f 5d 10 bf
       0.13659689 0.20350775 -0.5088045 -0.5639238
0003d0 84 50 f5 3e e2 15 03 bf b0 df f4 3d 80 27 b0 3d
       0.4791299 -0.51205266 0.119567275 0.08601284
0003e0 7c 8c 2b bf a5 b1 cd be 91 d1 f5 be 68 fc b0 3e
       -0.6701124 -0.40174595 -0.4801145 0.3456757
0003f0 2e 90 1d 3e 9e 43 e6 3e ff 48 2c 3e 02 b5 0b 3e
       0.15387031 0.44973463 0.16824721 0.13643268

input_layer.bias f4 [150]
000000 e4 23 5a 3e d0 cf b4 3e 1e de d6 bd 3c ed 83 bd
       0.21302754 0.35314798 -0.10491584 -0.06441733
000010 f8 13 1e 3f 98 e0 96 3e 30 3f 9f be 86 fc 07 3f
       0.6174922 0.29468226 -0.31102896 0.53119695
000020 77 17 18 bf c5 a1 9a 3e e9 d2 9c 3e e0 09 17 bf
       -0.59410805 0.30201545 0.30629662 -0.58999443
000030 fe 59 a2 3c 2a a7 1a bf f6 f4 0f bf b5 d3 23 3f
       0.019818302 -0.6041132 -0.56233156 0.63994914
000040 00 ed 7c 3e fb 94 4d 3e 97 95 1a 3f 75 4e 35 3e
       0.24699783 0.20076363 0.60384506 0.1770571
000050 bf 2e 1d be 21 30 a1 be 34 2f d1 3e d2 27 bb 3e
       -0.15349863 -0.31482032 0.40856326 0.36553818
000060 3f 28 17 bf 61 31 e7 3e be 3f 14 bf 62 72 12 3f
       -0.59045786 0.4515486 -0.5790976 0.57205784
000070 45 39 54 be 87 26 74 3e 96 ea ac 3e 45 0c 02 3e
       -0.20724972 0.23842822 0.33772725 0.12699993
000080 62 49 61 be 80 a1 30 3f 72 22 02 3f 50 ad c2 3e
       -0.2200065 0.6899643 0.5083381 0.38022852
000090 f8 ba ef be c3 a4 b1 3d 44 fe 21 3f 6b f0 c7 be
       -0.46822333 0.08674004 0.63278604 -0.39050612
0000a0 c0 03 8f 3e 5d a9 e6 3d 6c 08 30 bf 14 e5 ea 3e
       0.2793255 0.11262772 -0.6876285 0.45877898
0000b0 5d 88 0c 3d 2a a7 10 be ea 4c df 3e 20 5e 85 be
       0.034309734 -0.14126268 0.43613368 -0.26048374
0000c0 16 08 99 3e 68 14 87 3e 25 0f 2f bf 48 0a ea bd
       0.29888982 0.26382756 -0.68382484 -0.11427742
0000d0 e0 f1 63 3d 99 e4 42 be 0d a8 10 3f a1 d7 75 be
       0.05565059 -0.19032516 0.56506425 -0.24008037
0000e0 e5 4d df 3e 6d 06 78 3e fe 5b fb be fa d2 28 bf
       0.43614116 0.24221201 -0.49093622 -0.65946925
0000f0 86 99 9a 3e c2 e1 f1 3c 0b 64 71 be cf a3 32 bf
       0.30195254 0.029526595 -0.2357332 -0.697812
000100 d0 b3 17 bf 3b 6a c9 be 0d 93 20 be 9a 40 25 3f
       -0.5925875 -0.3933886 -0.15681095 0.645517
000110 20 5d 1a bf b4 17 2a be 27 00 dc 3e ea 3e fe be
       -0.6029835 -0.16610605 0.42968866 -0.49657375
000120 aa 32 07 3f fb a9 ad bd 59 8a e5 bb 13 c3 18 bf
       0.5281168 -0.08479687 -0.0070050177 -0.5967266
000130 b2 e3 31 bf 63 23 1f 3c 73 db 9c be f0 66 18 bf
       -0.6948806 0.009713027 -0.30636176 -0.5953207
000140 47 01 b7 be 2c 1b e4 3e a7 04 a4 3e aa 2a b4 be
       -0.35743162 0.4455198 0.320348 -0.351888
000150 44 05 d5 be 51 68 2e bf 2a e7 23 be c8 e2 ea 3e
       -0.4160558 -0.68127924 -0.16006151 0.45876145
000160 94 fc 59 3d 64 fa ee 3e e4 65 33 be 3e 5c ac 3e
       0.053219393 0.46675408 -0.17519337 0.33664125
000170 96 70 35 be af 9d 17 bf 56 0b a1 be 71 71 29 bf
       -0.1771873 -0.5922498 -0.3145396 -0.6618872
000180 4b 80 c3 3e 01 99 52 bd e5 fb 1b 3f a8 6f 05 bf
       0.38183817 -0.051415447 0.60931236 -0.521235
000190 56 cf 03 bf ef 02 cf 3d 1d dd 1f 3e aa 57 29 3f
       -0.51488245 0.101079814 0.15611692 0.6614939
0001a0 ff 0d 8a be 7d d2 82 3b 21 b0 e4 3e 90 15 36 bf
       -0.26963803 0.0039923773 0.44665626 -0.7112665
0001b0 5b 38 9e bd 6e 72 2d bf b9 6d 1b bf 79 a5 0f bf
       -0.07725593 -0.6775273 -0.607143 -0.56111866
0001c0 61 44 9b be 89 ad 28 bf a1 80 33 3f ff 79 09 bf
       -0.30325606 -0.65889794 0.7011815 -0.53701776
0001d0 c8 30 1f 3f 31 af ef 3e b1 e7 2e 3e 4a 10 12 bf
       0.6218381 0.46813348 0.17080571 -0.57056105
0001e0 02 f7 18 3f 29 9c 71 be 14 f0 6b 3e 97 6c d5 3e
       0.59751904 -0.23594727 0.23040801 0.4168441
0001f0 bc 34 1d 3f 3b 7b 14 bf 19 e8 d7 3d 00 48 f9 3e
       0.6140859 -0.58000535 0.10542316 0.48687744
000200 2c a9 b3 3e 00 38 bc bc 48 9c 7b 3e 1e ce d1 3c
       0.35090005 -0.022975922 0.24571335 0.02561098
000210 7e 0f aa be f8 2b 31 3f 51 79 35 be d0 f2 71 be
       -0.33214945 0.69207716 -0.1772206 -0.23627782
000220 ff 58 ea be bc e5 33 bf b9 4f f4 3e 9f e7 62 be
       -0.45771024 -0.7027242 0.47717074 -0.22158669
000230 8d d9 a2 3e 86 74 80 be c7 84 05 3f e6 14 1a 3f
       0.31806603 -0.250889 0.5215573 0.6018814
000240 a9 8d 23 bf 39 19 98 3e 27 7d 11 bf 4b 48 f6 3e
       -0.6388803 0.29706743 -0.5683159 0.4810203
000250 33 b4 af be c4 e6 73 3e
       -0.3431717 0.23818499

hidden_layers.0.weight f4 [150, 150]
000000 89 b1 fa bc a6 a6 8b bc 3a 61 03 3d 87 71 91 bd
       -0.030602233 -0.017047238 0.032075144 -0.07101732
000010 15 bd 83 3d 29 ab bd bc d1 73 9d bc 5b f2 3f 3d
       0.06432549 -0.023152905 -0.019220265 0.046861988
000020 c7 01 8c 3d 39 ea d6 bc 92 3e 32 3d 9f 6a b4 bc
       0.068362765 -0.026234733 0.043516703 -0.022023497
000030 13 ab f3 3c 21 1d 05 bd 3d a8 73 bd fd f1 75 bc
       0.02974466 -0.032498483 -0.059486616 -0.015011308
000040 ca 67 4d bd 09 f0 13 3d e3 6e 1c bd 00 95 b3 bc
       -0.05014781 0.036117587 -0.038191687 -0.021921635
000050 cb d4 d0 bc 6b b4 5b 3d ea d1 a0 bd d3 e0 93 bd
       -0.025492093 0.053638857 -0.07852538 -0.07220616
000060 c4 c6 64 bd f0 0a 6d bd c5 0a a7 3d f5 37 c6 bc
       -0.05585362 -0.05787176 0.08156351 -0.024196604
000070 6d 04 33 3d 61 ae 77 3d 29 c1 73 bd 18 d2 92 bd
       0.043705393 0.060469035 -0.059510384 -0.071689785
000080 e9 f5 db 3c c7 ad 83 bd 14 06 5f 3d bd 75 6e 3d
       0.026850658 -0.0642963 0.054449156 0.058217753
000090 82 a6 64 3c 1f 94 f3 3c d1 66 7f 3d d4 95 c2 3c
       0.013955714 0.029733716 0.062353913 0.023753084
0000a0 16 32 23 3d 21 db f6 3c fb 25 80 bd 7c 1d 8d bd
       0.039842688 0.030133786 -0.06257244 -0.06890389
0000b0 f5 dd 80 bd a0 3a 9a bd f8 f0 2d 3d 3d 55 07 bd
       -0.06292335 -0.07530713 0.042466134 -0.033040274
0000c0 9b 27 b7 3c 9c 91 37 bd 82 6d 81 3c fd d0 49 3d
       0.022357753 -0.0448166 0.015799288 0.049271572
0000d0 b2 a3 06 bd d5 9e a1 3d 22 c8 8c bc 6b 2a 70 bd
       -0.032870956 0.07891623 -0.017185275 -0.058634203
0000e0 b1 e4 8f bb 8b 90 9a bc 28 8e 5c 3d 4e 16 9a 3d
       -0.004391276 -0.018867752 0.05384651 0.075237855
0000f0 7c a4 24 3d 6d cf df 3b bf f5 48 bd cf 81 5d 3d
       0.040195927 0.006830147 -0.049062487 0.054078873
000100 1c 36 55 bc f9 7c 9e 3d f3 6f 89 bd a6 4e 95 bd
       -0.013013389 0.077386804 -0.06710806 -0.072903916
000110 d0 1b 85 3d 0f 3a 87 3d fd 58 5c bd 92 6c 3f 3d
       0.064994454 0.06602871 -0.053795803 0.0467344
000120 92 b5 61 bc 88 35 9b 3d 89 32 4c bc f4 e9 88 bc
       -0.0137762 0.0757857 -0.01246322 -0.01671312
000130 5b b6 d3 bc 96 3f 3b 3b 4a fe 0f bd 90 5d 31 3d
       -0.02584379 0.0028571836 -0.03515462 0.04330212
000140 be f0 b1 bc 7e 99 23 3c d4 ed c0 3b fa a7 6d 3c
       -0.02172124 0.009985326 0.0058877263 0.014505381
000150 e1 87 82 bc 45 98 8b bc ca b4 de bc b9 de 86 3d
       -0.015933933 -0.017040381 -0.027185816 0.0658545
000160 7c 25 40 3d 08 58 21 bd e8 50 d1 3c be bb 60 bc
       0.046910748 -0.039390594 0.025551274 -0.013716636
000170 6e 1b bc 3c ae df 55 bd 6d 2d 2b 3d 1c 5a 65 bc
       0.022962298 -0.05221527 0.04179137 -0.0139985345
000180 fd d8 69 3d a3 80 c4 bc e2 ff 1a bd 34 b5 5f bc
       0.0570917 -0.02398712 -0.037841685 -0.013654042
000190 9b 9c 4a 3d f7 cd d6 3b 1d 6a 3a 3c 4a 28 b3 bc
       0.049465757 0.0065553146 0.011377838 -0.021869797
0001a0 c1 09 8c 3c a7 6d 8a 3c 1c bc 9a bd 4d 3c 95 3d
       0.017094495 0.01689799 -0.0755541 0.07286892
0001b0 74 fe ce 39 27 bb f0 bc 20 46 5c bd 73 8c 64 3d
       0.00039480964 -0.029386116 -0.053777814 0.055798005
0001c0 44 3b 31 3d 4c fc 29 bd f4 da 85 3d ff d9 60 bd
       0.04326941 -0.041500375 0.065359026 -0.054895397
0001d0 c7 72 13 bc b1 17 56 3c 39 eb 97 3d 8b 0a 75 bd
       -0.008999533 0.013067172 0.07417912 -0.059824508
0001e0 12 66 29 3d bc 5d 21 bc f2 95 17 3d 3e d9 8d 3b
       0.041357107 -0.009849008 0.037008233 0.004328876
0001f0 60 97 83 3c 66 08 3a 3d 1c 0b 93 bc 73 2d 25 bd
       0.016063392 0.045418166 -0.017949633 -0.040326547
000200 6c c6 f7 bc 7e 88 8f 3d f4 93 1a 3d 64 01 92 bd
       -0.030245982 0.07008456 0.037738755 -0.071291715
000210 63 73 81 3d b7 db 59 3d 58 b8 38 bd d7 2d 59 bc
       0.063208364 0.053188052 -0.04509768 -0.013255558
000220 0b a6 93 3c 97 f2 99 3d c5 bb 67 3d 90 7d 04 3c
       0.018023511 0.075169735 0.056575555 0.008086577
000230 a2 d5 27 bc 9a ef 7e 3d fb da ab 3d 9b 71 4c 3d
       -0.010243805 0.06224022 0.083913766 0.04991303
000240 86 ad 2d 3d 65 2d 68 3c ff 7e 2f 3d e8 87 ea 3c
       0.042401813 0.014170979 0.042845722 0.028629258
000250 cc bf 1a bd 48 cf 6f 3d c8 69 4c 3d fe e5 93 3d
       -0.037780568 0.05854729 0.04990557 0.07221602
000260 bd 7d 3e bd d4 fe 06 bd 3a d1 43 3d f2 c1 01 3d
       -0.046506632 -0.032957867 0.047806956 0.0316791
000270 1c f4 65 3d ed 25 87 bd c7 62 95 3d 7d 8d 99 3d
       0.056141004 -0.06599031 0.07294231 0.0749769
000280 2d f5 c5 3c 0a c9 8e 3d 0a 99 82 bd df 79 95 3d
       0.02416476 0.06971939 -0.06376846 0.07298636
000290 4f 6c 29 bd c0 08 81 bb 1e b8 3e bd 55 6e 24 bd
       -0.041363057 -0.0039378107 -0.046562307 -0.040144283
0002a0 dc b5 86 bb f0 b3 31 3d 2e ea b4 bb 16 ac 8c bd
       -0.004111035 0.043384492 -0.0055210805 -0.0686876
0002b0 80 6b 8e 3d 9d 94 ea bc b7 02 a9 3d 7a 01 05 3d
       0.06954098 -0.028635317 0.08252471 0.03247211
0002c0 8c 0a 4b bc ed bb 1d 3d 9d 68 60 bc 27 30 00 bc
       -0.012392651 0.038509298 -0.013696817 -0.00782398
0002d0 e2 b9 52 3d ca 06 7b bd 88 50 36 bc fa 41 12 3d
       0.051446803 -0.06128577 -0.011127599 0.03570745
0002e0 5b 21 a2 bd 0e 7f 90 bd 33 ae 67 3d 26 3b 1f bd
       -0.07916518 -0.07055484 0.056562614 -0.038874768
0002f0 bd cd ac bd cf 75 62 3d ab e6 12 3d b6 97 00 3d
       -0.08437679 0.055288132 0.035864513 0.031394683
000300 47 30 84 bd 72 ce 33 bd a7 b8 36 3d ce 1d 44 3b
       -0.06454521 -0.043898053 0.044609692 0.0029924992
000310 a9 b9 8f 3d 59 02 8e 3d 87 c4 fc 3c 11 63 98 3d
       0.07017834 0.069340415 0.03085543 0.074407704
000320 ae 0f 5a 3d 46 48 3b 3d 85 c9 37 bc c4 37 27 bd
       0.05323761 0.045723222 -0.01121748 -0.040824667
000330 15 3d 84 bc ef 41 49 3a 62 1b 8e bd 90 71 5d 3d
       -0.016142407 0.00076773664 -0.069388166 0.05406338
000340 46 a9 70 bd d4 58 1b bd 5d b8 e4 3c 72 a4 81 bd
       -0.05875518 -0.03792651 0.027919943 -0.063301936
000350 ea f9 43 bb a5 f9 a8 3b c2 43 aa 3d 9a f9 ee 3c
       -0.00299036 0.005156713 0.08313705 0.029171754
000360 13 1e 19 3d 7b e0 5f bc 7f 85 51 bd ea 0b 74 3d
       0.037382197 -0.01366436 -0.051152702 0.059581675
000370 64 32 8d bd 12 fe 8f 3c 30 c2 30 bd ea 7e 31 3d
       -0.06894377 0.017577205 -0.04315394 0.043333925
000380 ce 35 e7 3c 77 48 53 bd e5 50 49 bd a1 94 bf 3c
       0.028223898 -0.05158278 -0.049149413 0.023386301
000390 5b 05 7a 3d 7e 38 72 bb cc 0b 79 bd 56 ae 61 3d
       0.061040264 -0.0036959941 -0.060802266 0.0550979
0003a0 49 cf 76 bd 56 4b 3c 3d a8 60 1f bd 90 8d cb 3c
       -0.060256276 0.045970283 -0.038910538 0.024847776
0003b0 89 59 8a bb f8 df 8f 3d 11 19 06 bd 03 46 94 bd
       -0.004222099 0.070251405 -0.03273875 -0.07239916
0003c0 c0 54 24 bc a4 96 38 bd 23 a9 a0 3d a6 52 85 3d
       -0.010029972 -0.045065537 0.0784476 0.065099046
0003d0 f2 2e f9 bc 26 c2 0a 3b 24 30 6f bc 8d b4 c2 3c
       -0.030417893 0.002117285 -0.01459888 0.023767734
0003e0 2c 84 9b 3d 54 9d 5f 3d 57 0b 1b bd 66 a7 8b 3d
       0.07593569 0.0545934 -0.03785261 0.06819038
0003f0 4a ef 73 3d 05 a8 56 bc 27 d6 10 bd 56 94 4e bd
       0.059554376 -0.013101582 -0.03536048 -0.050434433

hidden_layers.0.bias f4 [150]
000000 db cd 46 3c a6 f5 86 bd 3c 71 49 3d ba 69 90 3d
       0.012134041 -0.065898225 0.049180254 0.07051416
000010 e4 e7 3a bd c4 5a 65 3d de 84 30 bc a2 9d c3 bc
       -0.045631304 0.055994764 -0.0107738655 -0.023878876
000020 5b ea 01 bd 11 ec b4 bc 36 cc ac 3d 00 6b 89 3d
       -0.03171764 -0.022085221 0.08437388 0.06709862
000030 66 a4 34 3d fd 7f ab 3d 34 85 cb 3c f4 3f ea 3b
       0.044102095 0.08374021 0.02484379 0.007148737
000040 95 e5 f9 bc 22 a8 37 3b 29 17 97 bc 8e 0f 67 bc
       -0.030504981 0.00280238 -0.01844366 -0.01410283
000050 28 7c 10 3c 0f 5f 80 3b 4e 14 94 bd 69 14 8d bd
       0.008818664 0.003917582 -0.07230435 -0.068886586
000060 8e 98 89 3d 8f 3d 9f bd 80 3e ec bb 8b 1e 5b 3b
       0.067185506 -0.07775413 -0.007209599 0.0033434953
000070 eb 53 ec bc dd ea 18 bd 2f 14 41 3d 65 f5 7b 3d
       -0.028848609 -0.037333358 0.04713839 0.061513323
000080 e2 c0 b2 bd d5 30 a4 3c b3 cd a1 bd 47 48 2e bd
       -0.08728196 0.020042816 -0.07900562 -0.042549398
000090 43 3e d3 3c 3b 12 9a 3c 9c dd ac 3d 80 e4 09 3d
       0.025786525 0.018807521 0.08440706 0.03366518
0000a0 04 db 9f 3d ca 85 75 bd b1 14 17 3c 87 8f 42 bd
       0.07805446 -0.059942044 0.009221242 -0.04750016
0000b0 7c 96 df bc 76 65 9b bd 31 49 98 3d 35 42 9e 3d
       -0.027293436 -0.075877115 0.07435835 0.07727472
0000c0 1c 35 8d 3d 1b 28 1b bd 9e 29 93 3d bb 5a 6a bd
       0.068948954 -0.037880044 0.07185672 -0.057215434
0000d0 34 b8 3d bd 6a c8 b6 3c b7 1b a4 bd 54 40 de bc
       -0.046318248 0.022312362 -0.08013099 -0.027130283
0000e0 a9 98 f4 3c 1c d5 7b 3c ae 5a 2b 3d b3 2c 24 3c
       0.02985795 0.015370633 0.041834526 0.010020423
0000f0 2f e8 9a bb 7a 7e 7d 3d ab fe a0 3c bd c5 93 3b
       -0.0047273855 0.061888196 0.019652685 0.004509656
000100 02 7b 72 3b 2b 49 37 bd c5 57 a0 3c 91 51 7e 3d
       0.0036999588 -0.044747513 0.019573102 0.062089507
000110 cd 0e 8e bc c7 97 90 bd b1 ec a2 3d fe f3 60 bd
       -0.017341042 -0.07060199 0.079553016 -0.05492019
000120 fa 67 91 bc f8 16 5b 3d 16 a9 db bb f0 96 6e 3b
       -0.017749775 0.0534887 -0.006703506 0.0036405884
000130 da 75 93 3d 0f 3a 7a bc 89 4f 58 3d 18 87 6e bd
       0.07200213 -0.015272631 0.052810226 -0.058234304
000140 78 74 4e bd 10 e8 88 bd 7b 84 90 3c 66 be 45 3d
       -0.050404042 -0.066848874 0.017641297 0.04827728
000150 99 78 27 3d 32 08 2a 3d 80 8d 26 3c 0d 51 23 3d
       0.040886495 0.041511722 0.010165572 0.039872218
000160 45 3e 6b 3c 91 b2 fa bc 43 fe 0b bc d0 7a a1 bc
       0.014358108 -0.030602725 -0.008544507 -0.019711882
000170 c1 a0 a7 bd 2d 52 4b 3d f8 16 e1 bc 4b 38 d2 3c
       -0.08184958 0.049638916 -0.027476773 0.025661608
000180 5e 93 3c bd 6f 27 68 bd 89 d5 48 3d c2 2b 77 3c
       -0.046038978 -0.05667823 0.049031768 0.015086116
000190 b8 7a d9 3b db f5 9d 3c 81 b0 30 bd a6 d7 40 bc
       0.0066369437 0.019282272 -0.043137077 -0.011770165
0001a0 24 d9 25 3d e3 45 b0 bd e0 b2 87 bc 20 2a 8c 3d
       0.040490285 -0.0860708 -0.016564786 0.06843972
0001b0 ff 0c f4 bb 5a 7e 88 bd b2 55 a1 3d 5c 1a 95 3d
       -0.0074478383 -0.06664725 0.07877673 0.07280418
0001c0 b4 5b 83 bd 10 d5 dc ba 77 9f 74 bd 0d fc 6b 3d
       -0.06413975 -0.0016848166 -0.05972239 0.05761342
0001d0 c1 0d 7b 3c 64 24 9c 3d da 96 07 3d 4b 9c 55 3b
       0.015323103 0.076241285 0.033102848 0.0032594379
0001e0 1e e2 88 3d 98 68 5e bd 7a f3 89 bd 94 5e e8 3c
       0.066837534 -0.054298967 -0.067358926 0.02836541
0001f0 60 45 10 bd 62 cf 67 3d ee c9 4a 3c e3 71 2f 3d
       -0.03522241 0.05659426 0.012377245 0.04283322
000200 0f 05 88 3d 5a 7c f7 3b 85 66 62 bd a2 79 8d bd
       0.0664159 0.0075526657 -0.05527355 -0.06907965
000210 11 3a 62 bd c5 7e de 3c 6b e6 a4 ba ef 8b 92 bd
       -0.055231158 0.027160058 -0.0012580877 -0.071555965
000220 79 c7 81 bd 67 58 54 3d bb e6 85 bd 8b b4 ed 3c
       -0.063368745 0.05184212 -0.06538149 0.029016754
000230 a8 c8 0c 3c 69 44 bf bc fc 29 8f bd b7 c5 01 bd
       0.008592762 -0.02334805 -0.0699043 -0.031682696
000240 a0 99 55 bd 46 bc 03 3c eb 7c fb 3c 40 d5 c7 bc
       -0.05214846 0.008040493 0.030699214 -0.024393678
000250 74 94 86 bc 46 87 44 3d
       -0.01642821 0.04798057

output_layer.weight f4 [1, 150]
000000 72 6c 02 bd c1 ab 7b bc 4d 2b c5 3c 97 ec 8c 3d
       -0.031841703 -0.015360774 0.024068499 0.068810634
000010 c2 32 dd bc 97 14 cc bc 11 fd 8d 3c e9 2c 04 bd
       -0.027001742 -0.024912162 0.017332586 -0.032269392
000020 41 bf c9 bc 1f 2e 98 bd 3f c1 32 bd 84 c4 60 bd
       -0.02462733 -0.07430672 -0.043641325 -0.054874912
000030 3f 8b b4 bc 72 9b 49 3d a3 f5 95 bd a5 8f 30 3d
       -0.022039054 0.04922051 -0.07322242 0.04310574
000040 a1 03 b2 bd ad f3 96 3d 06 38 be bc ba 43 87 bd
       -0.086920984 0.07370696 -0.023220073 -0.06604715
000050 37 85 ca bc 7a 0a 22 bd 8d 21 82 bd 98 5c 3a bd
       -0.024721725 -0.039560772 -0.063540556 -0.04549846
000060 be c4 41 bd 2a 44 92 3d 56 b9 f3 bc 3e e4 02 bd
       -0.04730677 0.071419075 -0.029751461 -0.03195595
000070 80 2a 6c 3c 58 54 96 bc 21 94 86 3d 4e 27 08 3d
       0.01441443 -0.018350765 0.06571222 0.03324061
000080 fa af 8f 3d b0 b2 c4 3c 58 97 e6 bc 71 c9 81 bd
       0.07015987 0.024010986 -0.028148338 -0.0633725
000090 99 bc 58 3d c6 35 e3 3c ce dc 19 bd 3e 8d 31 3d
       0.052914236 0.027735602 -0.03756409 0.04334759
0000a0 d2 54 dc 3c 13 ee 34 bd 86 a2 54 bd 1e 42 2a 3d
       0.026895914 -0.044172358 -0.051912807 0.04156696
0000b0 b4 c9 b1 bc ee 2c 8e 3c a6 e9 e7 bc a7 b9 a6 bd
       -0.021702625 0.017355409 -0.028309654 -0.08140879
0000c0 f3 84 45 bd f8 07 ae bd a4 7a 1c 3d 73 c7 96 3c
       -0.048222493 -0.08497614 0.038202897 0.018405652
0000d0 05 00 20 bd c3 ff 7b bd 02 78 75 3d 6a 11 be 3c
       -0.03906252 -0.06152321 0.0599289 0.023201663
0000e0 02 8c 7e bd 7f bf 93 3c 2f 02 5e bc 0f f6 15 3d
       -0.06214524 0.018035648 -0.013550325 0.036611613
0000f0 15 8c f8 3c 52 3c c0 bc f7 4c 80 bd ae 71 ee bc
       0.030340234 -0.023466263 -0.0626468 -0.029106941
000100 9a fc a8 3c a8 a5 6c 3d 92 54 9a 3d b0 fe 8a 3d
       0.020628262 0.05777517 0.07535662 0.06786859
000110 17 e6 96 bd c5 9d e3 bc 7c a4 96 bc 03 e9 2a bd
       -0.07368105 -0.027785191 -0.01838898 -0.041726124
000120 e5 9b 06 bd d8 b2 b6 bc 37 eb d1 bc 08 f7 60 3d
       -0.032863516 -0.022302076 -0.025624854 0.054923087
000130 75 fe b3 bd f2 70 aa 3c 94 4e 43 bd 5c 5e 2f bd
       -0.08788768 0.02080581 -0.04768236 -0.042814597
000140 a2 ff ee 3c fa 39 69 3d a7 6b 7f bd 08 ba 8d bd
       0.02917463 0.056940056 -0.062358525 -0.06920248
000150 70 3b 41 bd 87 7b 04 bd 60 49 81 3d 16 9c 67 bd
       -0.047175825 -0.032344367 0.06312823 -0.05654534
000160 c7 ce 8d 3d a2 7b 58 3c c7 fb 12 bd 36 41 e8 bc
       0.06924205 0.01321307 -0.035884645 -0.028351407
000170 9d 45 7c 3d 59 60 a6 3c c6 5d 62 3d 24 2b f2 bc
       0.061589826 0.020309614 0.05526521 -0.029561587
000180 68 37 95 3d 67 76 55 bc 37 e9 0c 3d 57 79 dd 3c
       0.072859585 -0.013028718 0.0344021 0.027035398
000190 52 13 1d bd cc b6 3a 3d 0d 32 86 bc 74 c4 97 bd
       -0.038348503 0.045584485 -0.016381288 -0.07410517
0001a0 aa 61 21 3d bf 41 85 bd 6d 62 95 bd 5f 91 0f 3d
       0.03939978 -0.06506681 -0.07294164 0.035050746
0001b0 d4 33 6f bd 5a e3 19 bd b1 b2 30 3d ea 93 94 3d
       -0.058399037 -0.037570335 0.043139163 0.07254775
0001c0 3c 18 4c bd 2c 66 87 bc 68 ce fc bb 7b 31 64 3c
       -0.0498278 -0.016528212 -0.007715035 0.013927813
0001d0 0d cf 8a 3d 8b 79 99 bd 59 13 8f bc d9 80 ee 3c
       0.06777773 -0.074938856 -0.01746528 0.029114174
0001e0 75 7a a5 bc 46 ab 05 3d 9f 3c 18 bd cb 95 ca bc
       -0.020199994 0.032634042 -0.037167188 -0.02472963
0001f0 33 04 86 bc 36 f3 78 3d 5c 67 2e 3d 40 00 74 bd
       -0.016359424 0.06077882 0.04257904 -0.05957055
000200 07 4e 38 bd 5e a8 68 3d 92 d1 e8 bc 0d f4 71 3d
       -0.044996288 0.056801192 -0.028420243 0.059070636
000210 6d 59 54 bd c7 33 3d bd 54 a9 a5 bc 9a 71 bf 3c
       -0.051843096 -0.046191957 -0.020222344 0.0233696
000220 b8 58 49 3d 17 49 29 3d 38 62 6f 3d c8 ca 85 bd
       0.049156874 0.04132947 0.058443278 -0.06532818
000230 78 c3 23 3d 7c 24 11 3d 06 84 f8 bc b8 5a 4a bc
       0.039981335 0.035435185 -0.030336391 -0.012350731
000240 1b c6 7f bd 19 1e f6 3b 22 f0 ff bc c8 2c d6 bc
       -0.062444787 0.007510912 -0.031242434 -0.0261444
000250 95 1a ec 3c f0 76 93 3d
       0.028821269 0.0720042
