param/das_pde_stage1.pth (torch, 95247 bytes, 5 tensors)

input_layer.weight f4 [150, 2]
00000000: 6c31 80be e2e4 193e 6385 8cbe 1bb1 543e
00000010: b37b e0be 642e f7bd abcd 153f 642b a6be
00000020: 1a30 10bf d0a9 c4be a56c b5be f183 6dbe
00000030: a034 083f b6e2 49be 97c5 113f 5d60 f23e
00000040: 091e 913e 760e b33e 8a5d 563e 31bc 11bf
00000050: b1b6 d73e 90a5 8ebe 9e5f 18bf a287 0d3f
00000060: 4f8e 08bf 939e ffbc da1f 2ebf b989 2abf
00000070: eadd a93e 7531 163e 9338 063f f4f2 c8be
00000080: 4742 c7be 23ba 9abe 320a 2a3f 2cf8 f33e
00000090: 2ced 31bf 52fd dbbd 3f99 babe 7bd1 263e
000000a0: d2e2 84be 524e 10bf f394 01bf 8d92 88be
000000b0: abd5 2abf ce3f 1fbf 6236 2fbf 3203 7abe
000000c0: b0dd 48be ae78 903e 814c 2a3f 2076 bd3e
000000d0: 8706 11bf 4495 ac3d a411 8abe 83fd 80bd
000000e0: 668a 9f3e 71aa 65be b590 2e3f 1570 9fbe
000000f0: e840 debe f8fe b0be 33d0 2bbf dfe9 9c3d
00000100: 7824 05bf b322 053f 940c 28bf d1b1 cabe
00000110: 79d4 bcbe dc6a a7be e4d0 6c3d 238f 2fbf
00000120: 1a0d 873e 94a3 5d3d 68e7 28be 951f 09bd
00000130: a03c a23e 10a3 bbbe a5ac 80be 3314 993e
00000140: 8712 063f 618c 0e3f 4b1f efbe 8203 16bf
00000150: 72a6 e7be 32db d8be 8115 16bf 28d3 e23d
00000160: 0acb 303e 6f99 793e b385 173e f8b2 a2be
00000170: 9af3 f63e 9a35 193f 736f 7dbe 78f2 1d3f
00000180: 8375 613e c70f f53d 17a8 cd3e ce5c 8dbe
00000190: d0b9 813e 2501 92be c609 2b3e 5c8f 073f
000001a0: ce36 a53c 9a1f 27bf 6d54 93be 72c6 67bd
000001b0: e402 c43e 4b36 1d3e 5147 3cbe 188c 233f
000001c0: 58b4 213f 050b c0be 42df b6be 8a06 913e
000001d0: 15f9 bd3e 846c ba3d 8095 1d3f f62d 2fbe
000001e0: 8a3e 3cbe 4679 a5be 4f5b 1e3f 22a7 e2be
000001f0: 1060 023f 486c 1cbf ae2a 173f f6eb 6f3e
00000200: 2de3 fabe 691a 92be 2729 123e dfad 173f
00000210: 63a8 aabd 51d8 31bf 315a 32bf 3bce e1be
00000220: 5424 c03e 5564 033f 1d32 16bf 35a2 073f
00000230: 1461 9d3e 7b5d 1b3f 725c 1fbf 10de 11bf
00000240: e050 25bf 2a7f dabe a826 803e 82e0 783e
00000250: e1f3 47be a237 e9be 2381 a13e 9e86 3d3e
00000260: 0886 483e b10f 81be ba9a 203f d78a f83d
00000270: 4d6a 21bf 7804 adbe e6bf 833d d1d7 d03e
00000280: f2d7 413c a592 d5bd 470f f2bc 3d4c febe
00000290: dccc 153f 8a53 cebe 8ede 5d3e 0948 f53e
000002a0: 71ba 10bf 1873 8dbc 4828 0fbe 0702 8ebd
000002b0: a2df 803e 8a01 dbbe 5ef6 19bd b58d cdbe
000002c0: 5513 983e d0c5 98be d874 8e3e a7a1 133e
000002d0: 36d7 d63e 04c4 d8be 2841 26bf ce9b 9c3e
000002e0: 77c9 2ebf 4acd babc b6a4 e9be 1b9b febe
000002f0: 6abc 13be 748d 2cbf 67ec d93d cf2a e5bd
00000300: 55da 4dbe 6e90 a2be 95df 5c3e 6c22 c9bd
00000310: 32be 92bd 1577 253e f4b1 833e eb1a 4abe
00000320: c8a3 023f bb82 f03e 66e1 b8bd 8c22 10bf
00000330: afad 153f c37f 983e 240c 2cbf 776a 42be
00000340: 01dd 263f 780e b43e 76f8 f93e 362d bbbe
00000350: ea0e 283e 415a c8be 94c3 72be a21a b13e
00000360: 382c 37be f1c2 26bf e13d 0fbf 8597 493d
00000370: f802 91be ad13 a23e 7bc5 98be 894b c23d
00000380: 0dda f7be 7cc4 6ebe b616 f83d edd1 abbe
00000390: 9ddb aebe a0f3 1bbe ba6d 993e 2dd2 0f3f
000003a0: 4938 333e 4c47 4e3e bb89 a6be e045 13bf
000003b0: 5fb1 1b3f 0cb3 d83e d88b cebe 3a4d efbd
000003c0: 5277 123e 6ac1 513e 3495 03bf be8f 0fbf
000003d0: 3889 f63e 70b0 02bf 7bef ea3d 4180 9e3d
000003e0: bd71 2bbf 56ba cdbe 5158 f6be 7529 af3e
000003f0: 10fe 213e 7864 e43e 713f 313e 21f3 083e
-0.25037706 0.15028718 -0.27445516 0.20770685 -0.43844375 -0.12069395 0.5851695 -0.3245498
-0.563234 -0.38410807 -0.35434452 -0.23194863 0.532053 -0.1971539 0.56942123 0.47339144
0.28343228 0.3497197 0.2093412 -0.5692778 0.4213157 -0.2786069 -0.595209 0.55285084
-0.53342146 -0.031203544 -0.6801735 -0.666164 0.3317712 0.14667304 0.52430075 -0.3924786
-0.38917753 -0.30220136 0.66421807 0.47650278 -0.6950252 -0.107416764 -0.36445042 0.16290848
-0.259543 -0.5636951 -0.50617903 -0.2667431 -0.6673228 -0.62206733 -0.68442357 -0.24415281
-0.19615817 0.2821707 0.66522986 0.37004185 -0.56650585 0.08426908 -0.26966584 -0.062983535
0.31160277 -0.224283 0.68189555 -0.311402 -0.43408895 -0.34569526 -0.6711456 0.07661795
-0.5200877 0.5200607 -0.6564419 -0.39588788 -0.36880854 -0.32698715 0.0578164 -0.68577784
0.26377183 0.05411108 -0.16494524 -0.033477385 0.31686878 -0.36647844 -0.25131717 0.29898223
0.5237202 0.5568295 -0.46703562 -0.585991 -0.45244175 -0.42354733 -0.5862656 0.11075431
0.17264953 0.24374937 0.14797096 -0.31777167 0.48232728 0.59847414 -0.24749546 0.616981
0.22017483 0.119659 0.40167305 -0.27609867 0.25337076 -0.28516498 0.16702947 0.52953124
0.020167734 -0.65282595 -0.2877535 -0.056585737 0.38283455 0.15352742 -0.1838658 0.6388564
0.6316581 -0.37508407 -0.35717207 0.283253 0.37104097 0.09102729 0.61556244 -0.17107376
-0.18383232 -0.32319087 0.61858076 -0.44268137 0.5092783 -0.61102724 0.590495 0.23429856
-0.49001446 -0.28535774 0.14273511 0.5924968 -0.083328985 -0.694707 -0.6966887 -0.44102654
0.37527716 0.5132497 -0.58670217 0.52981883 0.30738127 0.60689515 -0.62250435 -0.56979465
-0.6457653 -0.42675143 0.25029492 0.24304393 -0.19526626 -0.45550257 0.31543836 0.18508384
0.19582379 -0.25207284 0.62736094 0.121358566 -0.6305283 -0.33792472 0.06433086 0.40789655
0.0118312705 -0.10428361 -0.0295483 -0.4966754 0.58515716 -0.4029811 0.21666929 0.4790652
-0.56534487 -0.017266795 -0.1398021 -0.069339804 0.25170618 -0.42774612 -0.03758847 -0.40147176
0.2970225 -0.2983842 0.2782352 0.14417134 0.41961068 -0.42337048 -0.6494317 0.3058762
-0.6827616 -0.022802968 -0.45633477 -0.4972771 -0.14427343 -0.6740334 0.10640793 -0.11189806
-0.20102818 -0.31750816 0.21569665 -0.098210186 -0.07165183 0.16158707 0.25721705 -0.19736831
0.5103116 0.4697474 -0.09027366 -0.56302714 0.58468145 0.29784974 -0.67206025 -0.18985926
0.65180975 0.3516729 0.48822373 -0.3655793 0.1641194 -0.39131358 -0.2370742 0.34590632
-0.17887962 -0.65141207 -0.55953795 0.049216766 -0.28322577 0.31655636 -0.29838166 0.094870634
-0.48408547 -0.2331714 0.12113707 -0.33558598 -0.34151927 -0.15229654 0.29966527 0.5618008
0.1750194 0.20144385 -0.32526955 -0.57528496 0.6081752 0.42324102 -0.40341067 -0.11684652
0.1430333 0.20483938 -0.5139954 -0.5607871 0.48151565 -0.5105047 0.114714585 0.07739306
-0.66970426 -0.40181226 -0.48114255 0.34211317 0.15819573 0.44607902 0.17309357 0.13373996

input_layer.bias f4 [150]
00000000: 3b78 5e3e 951c b33e 4e9b e0bd ee99 81bd
00000010: 699d 1d3f 4816 953e caa8 a1be a439 083f
00000020: e459 17bf ccc7 9a3e 24c1 9e3e 99ca 16bf
00000030: 5f3d b23c 9dc5 1abf 84e9 0fbf c1df 223f
00000040: 8a3d 7e3e 4cc9 4f3e b940 1a3f 229b 363e
00000050: 083f 1abe f3ef a1be 3f4b cf3e 30ff b83e
00000060: c262 15bf c49c e73e a20d 14bf 7ede 123f
00000070: 63ab 56be 97cf 6f3e b4f6 ab3e dc2b 033e
00000080: 95e4 5fbe 9f6d 2f3f edc7 013f aff4 bf3e
00000090: d710 efbe 6e8d b73d e083 213f 0b52 c7be
000000a0: 2fad 8e3e 0025 e23d 915c 30bf e717 ea3e
000000b0: ecb2 0f3d 00d7 11be ca66 df3e 2a34 84be
000000c0: 10a5 973e ac53 873e e615 2fbf 7c53 edbd
000000d0: c689 6f3d 5f2f 3ebe 7d1f 103f 3578 76be
000000e0: 5bc2 df3e d0ce 7b3e 0108 fcbe f811 28bf
000000f0: f9fe 9b3e 6eee e33c e29b 6ebe e3fb 30bf
00000100: 3290 17bf bf7c c8be 8386 1ebe fecd 243f
00000110: 7b48 1abf 4da6 20be 97ff dc3e b45f febe
00000120: 3664 063f 24bf c0bd 9a44 0ebc ec34 19bf
00000130: ebea 31bf fe96 1d3c 5332 9cbe cd97 18bf
00000140: b5f1 b5be 403f e13e 21f2 a03e f373 b3be
00000150: d32c d3be 1665 2dbf 3b21 26be 2e57 ec3e
00000160: 9720 453d f5f7 ee3e b2ff 34be 2265 ac3e
00000170: 564a 37be 87bd 18bf 364d 9fbe c08b 29bf
00000180: 826b c43e 37de 5abd 7a29 1c3f 170e 05bf
00000190: 05bb 03bf 6fae c73d e75e 1d3e d09d 293f
000001a0: 1f1e 89be c643 6d3a a586 e43e 8220 37bf
000001b0: f3df a9bd f3e7 2cbf 29ed 1abf 53a6 0fbf
000001c0: 181c 9bbe 1ee5 26bf 885f 333f 93b1 09bf
000001d0: 5394 1f3f 1c68 f03e a68c 2a3e b782 13bf
000001e0: 9e92 183f 1abc 76be 5239 6c3e 0b2d d53e
000001f0: 0ad1 1c3f 5282 13bf 071b d93d 465b f83e
00000200: 7ce1 b33e 082e b4bc bf63 7d3e 5e46 d83c
00000210: a247 abbe c22b 313f 888d 32be c98c 6dbe
00000220: 6bea e9be 4e5c 34bf 2e5e f53e cdc8 66be
00000230: 1865 a33e d94c 80be 83ee 043f d1b5 193f
00000240: 6b25 23bf 9f12 993e b25d 12bf 5ca9 f53e
00000250: b622 afbe 1d02 733e
0.21725552 0.34982744 -0.10967122 -0.06328188 0.61568314 0.29118562 -0.31574088 0.5321295
-0.5912154 0.30230558 0.3100673 -0.5890289 0.02175778 -0.60457784 -0.5621569 0.6362267
0.24828163 0.20291632 0.6025501 0.17832616 -0.15063107 -0.3162838 0.40487096 0.36132193
-0.5835382 0.4523679 -0.578333 0.57370746 -0.20963816 0.23419033 0.33586657 0.128097
-0.21864541 0.68526644 0.5069569 0.37491366 -0.46692535 0.089625224 0.6309185 -0.3892978
0.27866504 0.110422134 -0.68891245 0.4572136 0.035082743 -0.14242172 0.4363311 -0.25821048
0.2961812 0.26431024 -0.6839279 -0.11588189 0.058481 -0.18572758 0.5629805 -0.24069293
0.4370297 0.24590611 -0.49224856 -0.6565242 0.30467966 0.027823653 -0.23301652 -0.6913435
-0.592044 -0.39157674 -0.15481 0.6437682 -0.60266846 -0.15688439 0.4316375 -0.4968239
0.5249666 -0.09411457 -0.008683348 -0.5984638 -0.6949908 0.009618519 -0.30507144 -0.5960663
-0.3553597 0.43993568 0.3143473 -0.350494 -0.41245136 -0.6773237 -0.16223614 0.46160263
0.048126783 0.4667355 -0.17675665 0.33670908 -0.1789945 -0.59664196 -0.31113595 -0.66228867
0.38363272 -0.053434577 0.6100079 -0.51974624 -0.51457244 0.097500674 0.15368234 0.6625643
-0.26780793 0.00090509315 0.44633976 -0.7153398 -0.08294668 -0.67541426 -0.6051813 -0.56113166
-0.3029487 -0.65193355 0.70067644 -0.5378658 0.623357 0.4695443 0.16655216 -0.5762133
0.5959872 -0.24095193 0.23068741 0.41635928 0.6125647 -0.5762073 0.10600858 0.48507136
0.35132968 -0.021994606 0.24745081 0.026400741 -0.3345309 0.69207394 -0.17436802 -0.23198237
-0.4568666 -0.70453346 0.47923416 -0.22537537 0.31913066 -0.2505863 0.5192644 0.60043055
-0.6372897 0.2989702 -0.5717422 0.47980773 -0.3420617 0.23731275

hidden_layers.0.weight f4 [150, 150]
00000000: 2b0a bfbc 22ff 95bc d490 0b3d c2b0 8bbd
00000010: 8e02 7f3d ddaa f0bc 94f3 8ebc bef5 4d3d
00000020: 9496 463d 2ec2 debc a184 3f3d ead0 84bc
00000030: 4259 eb3c 9d0b b5bc ac3c 5ebd 5b0d 8fbc
00000040: 757a 6dbd 3f2c 0a3d 8ddf 15bd 4eb8 4bbc
00000050: af4b ecbc 0d18 573d 78da 8dbd 163e 95bd
00000060: cd5a 67bd c260 66bd 1690 a93d 4953 01bd
00000070: ec03 273d 6e93 4d3d e5b3 7dbd a408 96bd
00000080: bc12 113d 6e7e 78bd df90 843d de2a 673d
00000090: 323d fe3b e65d 033d 1050 7e3d 1d7c c53c
000000a0: 7b81 203d 3911 ca3c 0de6 6dbd 6e36 8abd
000000b0: cc81 83bd d7c8 97bd 5d7f 393d 0c3d 09bd
000000c0: 2bab 083d d24e 26bd 9b42 4d3c ae0e 483d
000000d0: c1a7 f6bc 7cfc ac3d 90de abbc fdd6 67bd
000000e0: 8f59 3cb6 4956 b3bc fa41 6a3d b6d8 993d
000000f0: 7658 213d 2a3d 553c 4473 3bbd 461a 5c3d
00000100: d02e 4cbc 5c22 953d 9965 79bd 198f 91bd
00000110: fcb7 893d 5c6e 8d3d 823b 58bd 91f7 303d
00000120: a20e 8ebc 1519 a23d 8374 82bb 0f75 06bc
00000130: d5a2 f1bc 8773 76ba c4ff 07bd b243 383d
00000140: 5f90 a9bc 3b29 6b3c fe90 f0b9 e8e9 983c
00000150: e3eb 75bc 3f45 a6bc 9730 d1bc 171a 923d
00000160: 5eab 413d 75a3 12bd cde6 fa3c a40d 32bc
00000170: 49e7 813c a709 3cbd 309f 203d 0f51 56bc
00000180: 5201 713d 426a d7bc 50de 1ebd 9bd3 48bc
00000190: 0886 6b3d 7295 bf3b fc41 543c 9976 afbc
000001a0: a093 683c e98c 5f3c ec98 97bd 460e 963d
000001b0: f9b4 3f3b 5b3a debc b0db 5dbd 0f32 483d
000001c0: a51e 293d fc7a 24bd 5031 773d 5b51 6dbd
000001d0: 8545 51bc 66b0 f23b 5a3e 923d 48ee 6fbd
000001e0: c0e1 1b3d 7ec3 a7bb 3a07 053d 2ef2 243b
000001f0: 9fcf 803c 1d51 463d 8b62 99bc 863f 3fbd
00000200: 7515 07bd 0b29 863d c4b6 1c3d 0584 9fbd
00000210: 372b 773d 7ff7 5a3d bf63 43bd 4db1 9abc
00000220: a2a5 873c 659f 933d c8b0 6b3d 68cc 7d3b
00000230: ad18 25bc 921a 7b3d ee14 a73d 961d 603d
00000240: 1cc3 303d 11ff 9e3c 3fb0 403d 9630 ed3c
00000250: 8704 25bd 8498 693d 1dae 453d 88ad b03d
00000260: 0dd7 40bd 4a89 ebbc d63a 583d d736 fc3c
00000270: 07e1 823d 8357 8abd a1c0 933d 6c0f a83d
00000280: b0b3 d23c 345e 663d 0880 52bd acfc 703d
00000290: 1951 26bd 5097 31bb 2702 49bd f9e2 8bbc
000002a0: e5fc 02bb 6746 543d e83f ff3a 29c7 70bd
000002b0: 29e0 6c3d 109c f5bc 859a b33d e248 c33c
000002c0: 690f 25bc c7dc 1f3d 6a15 5dbc 0942 99bc
000002d0: afa5 523d 034c 5abd 57cb 2cbc 4f99 fe3c
000002e0: 5da0 a3bd c905 98bd a456 643d d69b 29bd
000002f0: 17a4 a8bd c6e9 1b3d 2e49 363d 9454 0c3d
00000300: fc7d 63bd aab7 1bbd e76b 2f3d 3a43 6f3b
00000310: f612 6a3d 3d5a 833d c76a 193d 9412 ac3d
00000320: c212 723d d6ce 3b3d de89 1fbc ff68 29bd
00000330: ca62 a6bc 487e 0ebc fa83 66bd 4891 513d
00000340: c28c 71bd a1bf 0fbd af7a a63c 2e83 68bd
00000350: a0a2 c1bb c757 7cbc 2e5b 973d 77e7 ae3c
00000360: 7110 043d 80dc 8dbc 205d 2fbd 1f84 603d
00000370: 8700 5ebd fbee f53c 386b c6bc e000 3a3d
00000380: c8d2 1c3d 97af 49bd 4d42 3abd 66ca d03c
00000390: 3bf1 7e3d bd49 80bc b4ab 88bd d9cb 673d
000003a0: 2029 74bd 3269 513d 5566 d7bc 891a de3c
000003b0: 89b5 c7bb 054d 8d3d db6a 1abd e1c2 92bd
000003c0: b74b 21bd fdab f9bc 9837 953d 8b43 803d
000003d0: 3158 10bd 6845 3b3c 8e01 75bc a3f9 a13c
000003e0: ed72 9a3d 9bd1 643d ba40 15bd 1b1a 863d
000003f0: 6311 8a3d 1934 32bb ceef b9bc a36e 5bbd
-0.023320278 -0.018310133 0.034073666 -0.06820823 0.062258296 -0.029378349 -0.017450131 0.050283186
0.048483446 -0.027192201 0.046757344 -0.0162129 0.028729085 -0.022100264 -0.05425708 -0.017462423
-0.057978112 0.033733603 -0.036590148 -0.012434078 -0.028844682 0.05251317 -0.06926435 -0.072872326
-0.05648308 -0.05624462 0.08279435 -0.031573568 0.040775225 0.050189428 -0.06193914 -0.07325867
0.035418257 -0.060667448 0.064729445 0.056437366 0.00775876 0.03207197 0.062088072 0.024107033
0.039185982 0.024666416 -0.05808072 -0.06748663 -0.06421241 -0.07411354 0.04528748 -0.033505484
0.033366363 -0.040602513 0.012528087 0.048842125 -0.030109288 0.08446595 -0.02098015 -0.056601513
-2.8066313e-06 -0.02189173 0.057191826 0.075120375 0.039391004 0.013015071 -0.045764223 0.053735994
-0.012462333 0.07281944 -0.060887907 -0.07107372 0.06724545 0.06905815 -0.052791126 0.043204848
-0.017340962 0.0791494 -0.0039811744 -0.00820662 -0.02949659 -0.000940137 -0.0332029 0.044986434
-0.020698724 0.014353092 -0.00045884395 0.018666223 -0.015009853 -0.020296691 -0.025535865 0.071338825
0.04728257 -0.035800416 0.030627633 -0.01086751 0.015857356 -0.045907643 0.039214313 -0.013080849
0.05883915 -0.026295785 -0.038786232 -0.012257482 0.05750087 0.0058466727 0.012955185 -0.021418856
0.014195353 0.013644435 -0.074022144 0.07326941 0.0029252155 -0.027127435 -0.05416459 0.048875865
0.04128899 -0.04015635 0.060349762 -0.057938915 -0.012772922 0.0074062822 0.07140799 -0.058576852
0.03805709 -0.00511974 0.032477595 0.0025168764 0.015724001 0.0484172 -0.018723747 -0.04669144
-0.032979447 0.06550797 0.038260236 -0.077888526 0.060343947 0.053458687 -0.047702547 -0.018883372
0.016558472 0.072081365 0.05754164 0.0038726572 -0.010076684 0.061304636 0.08158289 0.054715715
0.04315482 0.019408735 0.04704308 0.028953832 -0.04028752 0.057030216 0.04826175 0.086268485
-0.04708009 -0.028751988 0.052790485 0.030787868 0.06390577 -0.06754973 0.072144754 0.082060665
0.025720447 0.056242183 -0.05139163 0.058834717 -0.040604685 -0.0027098246 -0.04907432 -0.017076002
-0.0019987163 0.051824953 0.0019474002 -0.058783684 0.057830963 -0.029981643 0.08769707 0.023838464
-0.010074475 0.03902891 -0.013493875 -0.018708246 0.05142754 -0.053295147 -0.010546527 0.031078963
-0.07989571 -0.074229784 0.05574669 -0.041408382 -0.08234423 0.03806474 0.044503383 0.034260347
-0.05554007 -0.038016953 0.042827513 0.0036508576 0.05714699 0.06413696 0.037455346 0.08401981
0.05909992 0.04585155 -0.00973746 -0.041359898 -0.020310778 -0.0086971 -0.056278206 0.05116394
-0.058972128 -0.03509486 0.020322172 -0.056765728 -0.005909279 -0.015401787 0.07390438 0.021350605
0.032242242 -0.017317057 -0.04281342 0.0548135 -0.05419972 0.030021181 -0.024221048 0.04541099
0.038286954 -0.04923972 -0.045473386 0.025487136 0.062241774 -0.015660161 -0.06673375 0.05659089
-0.059609532 0.051125713 -0.026293913 0.027112262 -0.0060946387 0.06899456 -0.03769956 -0.071660765
-0.039378848 -0.030477518 0.07285994 0.06262883 -0.035240356 0.011430122 -0.014953984 0.019772356
0.075414516 0.055863958 -0.03643868 0.06547948 0.067415975 -0.0027191697 -0.022697356 -0.05357231

hidden_layers.0.bias f4 [150]
00000000: 88c2 633c 7c00 a0bd d696 3e3d 1ffa 973d
00000010: 6936 2abd 8b31 6f3d 632b 6fbb 7f1d e9bc
00000020: f482 f8bc ff01 e8bc 1cd6 b53d 19c9 9e3d
00000030: 5f30 363d 7870 a13d 4dcc 0c3d 92d7 693b
00000040: e555 eabc 52cd 183b 7971 b3bc c4a4 04bc
00000050: ce4e abbb 70be efba f105 91bd c2ca 97bd
00000060: cc5c 843d ecb5 a1bd 1e5a 01bc ed29 bcbb
00000070: 6bc3 15bd c470 2bbd 0c99 393d dd36 8d3d
00000080: d483 bbbd 856e d33c 2523 aabd 3090 61bd
00000090: 634b fd3c a707 9e3c 9dd2 a13d b62c d63c
000000a0: 1d0a ae3d e288 51bd 6821 1c3c f735 30bd
000000b0: 700a c3bc 592f 9ebd 02bf a33d c748 b23d
000000c0: 8884 7a3d 32f7 28bd ccf3 883d 3b1d 63bd
000000d0: 2179 37bd 2c5e 623c 5d70 9bbd 4f53 a2bc
000000e0: c9de c83c 7551 253c 12ff 153d 25c3 933b
000000f0: 214c 823a 8109 733d 8fbb e63c 4304 5ebc
00000100: d8ba aa3a 5295 41bd 1d44 a23c 498c 873d
00000110: 85bb dbbc b2d5 a4bd 87ab ab3d e3f9 72bd
00000120: 7175 a0bc 89a1 613d decd b9bc bceb 8b3b
00000130: 3861 973d e682 21bc b6f9 593d 4553 6abd
00000140: 34fd 5cbd 4ec0 88bd fc2e b23c b50d 473d
00000150: 4343 303d f48a 553d e86a de3b 386f 2f3d
00000160: 3cb9 923c 6407 35bc beb0 cfbb 35be babc
00000170: 3873 abbd 71fc 683d 64f5 efbc 1476 e93c
00000180: cd9e 4cbd cda2 7fbd 86c2 fa3c c4f1 2b3c
00000190: 0b70 ca3b e218 e53c 2f2d 10bd 4ccf d7bb
000001a0: 5700 173d 6644 c1bd 6d90 8cbc 9b19 953d
000001b0: a227 abbb 1dd3 69bd b516 a03d 6211 9b3d
000001c0: 34de 8cbd a085 55bc 570e 79bd ac90 593d
000001d0: 605c 7f3c e1fc 8b3d e860 1e3d a6c8 91ba
000001e0: 7082 803d b14d 5fbd 8252 8cbd e8e4 ee3c
000001f0: dcfa 17bd 6fe6 5d3d 7be9 083c 1f11 353d
00000200: 0998 923d 4c83 853c 20f3 64bd 5deb 90bd
00000210: e61f 6abd e290 203d ec3c 593c 0735 9fbd
00000220: 7b9b 86bd 9ce4 493d d8e1 7cbd 8edb 0b3d
00000230: aa0b d43b 37d3 ddbc 6b93 8cbd 4cd0 f5bc
00000240: 9dd2 55bd 6ea9 b0ba c6bd 273d b34a 9bbc
00000250: 0d32 c6bc 67b3 453d
0.01390136 -0.078125924 0.046530567 0.07420754 -0.041555796 0.058396857 -0.0036494366 -0.028456448
-0.03033588 -0.028321264 0.08878729 0.077532 0.044479724 0.0788278 0.034374524 0.0035681468
-0.02860541 0.002331574 -0.021904694 -0.008095924 -0.0052279 -0.0018291008 -0.07081211 -0.0741172
0.06463012 -0.07896027 -0.007895021 -0.0057423026 -0.03656332 -0.04185559 0.045311972 0.0689523
-0.091560036 0.025809536 -0.083074845 -0.05506915 0.030919736 0.019290758 0.079014994 0.026144367
0.08498023 -0.051155932 0.009529449 -0.043020215 -0.023808688 -0.077238746 0.07995416 0.087052874
0.061161548 -0.04125137 0.066871256 -0.0554478 -0.044793252 0.013816398 -0.07589791 -0.019815115
0.024520295 0.010090222 0.036620207 0.004509347 0.0009940901 0.059335236 0.028165607 -0.013550821
0.0013025654 -0.047261544 0.01980787 0.06618554 -0.026822815 -0.08048572 0.083823256 -0.05932034
-0.01958725 0.055085693 -0.022681173 0.004270045 0.0739159 -0.009857869 0.05321666 -0.05720832
-0.05395241 -0.06677304 0.02175092 0.048597056 0.043032896 0.05213447 0.0067876466 0.042830676
0.017910592 -0.011049125 -0.006338208 -0.022795776 -0.083715856 0.056881372 -0.029291816 0.028498687
-0.04995613 -0.06241112 0.030610334 0.010494653 0.0061779073 0.027965967 -0.03519934 -0.006585991
0.03686556 -0.09436874 -0.017158711 0.072802745 -0.0052232305 -0.0570861 0.07816831 0.07571675
-0.068783194 -0.013032347 -0.06080469 0.053116485 0.015585989 0.06835342 0.038666636 -0.001112242
0.06274879 -0.05451745 -0.068516746 0.029161885 -0.037104473 0.054174837 0.008356447 0.04420578
0.07157905 0.016297959 -0.055895925 -0.07076142 -0.057159327 0.03920067 0.013259154 -0.07773786
-0.06572624 0.049290285 -0.06173882 0.03414493 0.006471117 -0.027078254 -0.06864055 -0.03000655
-0.05220281 -0.0013478228 0.040952466 -0.018956518 -0.024193788 0.048266795

output_layer.weight f4 [1, 150]
00000000: e1d7 e8bc 70d0 84bc 3c68 5b3d 71a3 a63d
00000010: 5d94 45bd f26d 02bd ad3b e63c 298d 7bbd
00000020: 5744 3bbd 631f a2bd be41 68bd 6e16 78bd
00000030: 2631 51bd ab67 623d 7f96 1abe 6adc 453d
00000040: e666 03be f65f 9c3d 5fcf 94bd b1a1 90bd
00000050: 5daf 95bd 1acf 46bd 6717 91bd 4158 64bd
00000060: bf42 74bd 16ff a23d b0be a5bd cfeb 15bd
00000070: a045 1a3d 0e6f dabc cb2b 8e3d 0dda 1a3d
00000080: 269b e83d 16d7 3e3d c7e3 b8bd 183a 04be
00000090: 758c 6f3d 3b83 bd3d 5d5e 82bd b740 513d
000000a0: d046 2d3d 80e8 6bbd 13d7 6cbd 875c a03d
000000b0: 8033 53bd 673e ee3c 107d 89bd fe71 f8bd
000000c0: 64f1 a7bd 7c08 f3bd e720 aa3d 0e3a a73c
000000d0: 155e 1dbd ff20 0bbe 979e bb3d ad76 963d
000000e0: 997e 7fbd c77e 303d b583 79bd 9ff7 a33d
000000f0: 4734 aa3d 0769 37bd 07a5 90bd 9057 8bbd
00000100: 1a99 083e 6975 783d ea84 b03d 8b46 a63d
00000110: bb65 b3bd 7b4b 16bd f645 35bd 67ed 2dbd
00000120: 1e57 5cbd 6669 81bd 2679 92bd 905f 9d3d
00000130: 658f 20be 5660 d53c 7b70 6ebd 2391 90bd
00000140: 39ca 823d e005 f93d 33bb 89bd 9a38 99bd
00000150: b436 9cbd 6ac2 9dbd df1c a03d 9859 99bd
00000160: 1b5e 903d cc05 aa3d 5730 28bd b2a7 f3bc
00000170: 5a47 8e3d ced4 273d c812 6b3d 4c16 14bd
00000180: 3b99 b03d 9b0c f7bc 8c12 c23d 78bd 1f3d
00000190: 13c8 1fbd d286 5c3d 95e0 6ebd 6657 a6bd
000001a0: 1be5 293d acff 89bd 7c56 95bd 2500 413d
000001b0: 55b8 71bd aa80 26bd abb9 b73d 03ac d43d
000001c0: 4530 6dbd 07fd a3bc 58f0 96bc e930 8d3c
000001d0: 59eb 8e3d b949 9bbd feb6 68bc aaf5 4a3d
000001e0: fa6b 29bd 50ad 863d 8387 ffbd 9de6 77bd
000001f0: 9e00 c5bc 36ce 8d3d a390 583d 9fdc 0dbe
00000200: 114d 84bd 1596 8d3d 1265 29bd 2ae5 7c3d
00000210: e822 a2bd 9fa9 74bd 60f5 4ebd 06cf 253d
00000220: 11c6 493d 3c09 673d d5e5 733d 3fa1 94bd
00000230: dde1 523d 3ea8 d63d ac6b 07bd 9143 efbc
00000240: d019 b1bd 85a0 7b3c 5612 7cbd 1351 1cbd
00000250: a3d7 433d ac4e 963d
-0.028423252 -0.016212672 0.053566203 0.08136643 -0.048237193 -0.031843133 0.028104628 -0.061413918
-0.04571947 -0.07916143 -0.05670332 -0.060568266 -0.051072262 0.055274647 -0.15096472 0.048305906
-0.12832221 0.076354906 -0.072661154 -0.0706209 -0.073088385 -0.04853735 -0.07084542 -0.055748228
-0.059633967 0.0795881 -0.080930114 -0.036601838 0.037664056 -0.026664283 0.069419466 0.037805606
0.11357717 0.04659184 -0.0902782 -0.12912786 0.05848356 0.09253546 -0.063656546 0.051087108
0.04230386 -0.057594776 -0.0578223 0.07830148 -0.051562786 0.02908249 -0.06713307 -0.12131117
-0.082003385 -0.11866853 0.08307057 0.020413425 -0.0384198 -0.13586806 0.09161108 0.07346854
-0.062376592 0.043089654 -0.06091662 0.08006214 0.08310752 -0.044777896 -0.070627265 -0.068038106
0.13339654 0.060658846 0.08619101 0.08118924 -0.08759638 -0.036693078 -0.044256173 -0.042462733
-0.05379402 -0.06318931 -0.071520135 0.07684243 -0.156797 0.026046913 -0.05821274 -0.07058933
0.06386227 0.12159324 -0.067251585 -0.07481499 -0.07627621 -0.07703097 0.07818007 -0.07487792
0.07049199 0.08301887 -0.041061725 -0.02974305 0.06947203 0.04097443 0.057390958 -0.036154076
0.086229764 -0.030157378 0.09476194 0.03899905 -0.039009165 0.053839512 -0.058319647 -0.08122139
0.041478258 -0.06738219 -0.07291886 0.04711928 -0.059013683 -0.040650047 0.0897096 0.10384371
-0.05790736 -0.020018114 -0.018425152 0.017235236 0.06978483 -0.07582421 -0.014203785 0.04955069
-0.04136274 0.065760255 -0.12477019 -0.060522664 -0.024048146 0.06924097 0.05287231 -0.13853692
-0.06460012 0.069133915 -0.041356154 0.061741985 -0.07916814 -0.059732076 -0.050526977 0.040480636
0.049261156 0.05640529 0.059545357 -0.07257318 0.05148493 0.104813084 -0.03306167 -0.029207023
-0.086475015 0.015358095 -0.061540924 -0.038163256 0.04781307 0.07339224
