param/das_flow_stage1.pth (torch, 246433 bytes, 174 tensors)

net.rotations.0.LU f4 [2, 2]
0.0 0.0 0.0 0.0
00000000: 0000 0000 0000 0000 0000 0000 0000 0000

net.rotations.0.LU_init f4 [2, 2]
1.0 0.0 0.0 1.0
00000000: 0000 803f 0000 0000 0000 0000 0000 803f

net.rotations.0.ones_mat f4 [2, 2]
1.0 1.0 1.0 1.0
00000000: 0000 803f 0000 803f 0000 803f 0000 803f

net.rotations.0.I f4 [2, 2]
1.0 0.0 0.0 1.0
00000000: 0000 803f 0000 0000 0000 0000 0000 803f

net.flow_mapping.0.scale_layers.0.b f4 [1, 2]
0.0060312524 0.017632967
00000000: d0a1 c53b 0373 903c

net.flow_mapping.0.scale_layers.0.logs f4 [1, 2]
0.038815726 0.016432645
00000000: 3dfd 1e3d c19d 863c

net.flow_mapping.0.scale_layers.0.b_init f4 [1, 2]
0.0 0.0
00000000: 0000 0000 0000 0000

net.flow_mapping.0.scale_layers.0.logs_init f4 [1, 2]
0.0 0.0
00000000: 0000 0000 0000 0000

net.flow_mapping.0.scale_layers.1.b f4 [1, 2]
0.018644763 -0.0014811032
00000000: e7bc 983c 9421 c2ba

net.flow_mapping.0.scale_layers.1.logs f4 [1, 2]
0.0675195 0.009430879
00000000: aa47 8a3d f983 1a3c

net.flow_mapping.0.scale_layers.1.b_init f4 [1, 2]
0.0 0.0
00000000: 0000 0000 0000 0000

net.flow_mapping.0.scale_layers.1.logs_init f4 [1, 2]
0.0 0.0
00000000: 0000 0000 0000 0000

net.flow_mapping.0.scale_layers.2.b f4 [1, 2]
-0.0035195376 0.01312044
00000000: 0ba8 66bb 1df7 563c

net.flow_mapping.0.scale_layers.2.logs f4 [1, 2]
0.04845965 0.04183687
00000000: a07d 463d 235d 2b3d

net.flow_mapping.0.scale_layers.2.b_init f4 [1, 2]
0.0 0.0
00000000: 0000 0000 0000 0000

net.flow_mapping.0.scale_layers.2.logs_init f4 [1, 2]
0.0 0.0
00000000: 0000 0000 0000 0000

net.flow_mapping.0.scale_layers.3.b f4 [1, 2]
0.011870565 0.004026801
00000000: c27c 423c 41f3 833b

net.flow_mapping.0.scale_layers.3.logs f4 [1, 2]
0.06675361 0.037089925
00000000: 1eb6 883d 9beb 173d

net.flow_mapping.0.scale_layers.3.b_init f4 [1, 2]
0.0 0.0
00000000: 0000 0000 0000 0000

net.flow_mapping.0.scale_layers.3.logs_init f4 [1, 2]
0.0 0.0
00000000: 0000 0000 0000 0000

net.flow_mapping.0.scale_layers.4.b f4 [1, 2]
0.004595061 0.033571795
00000000: 2a92 963b 9482 093d

net.flow_mapping.0.scale_layers.4.logs f4 [1, 2]
0.07029454 0.05899099
00000000: 95f6 8f3d 89a0 713d

net.flow_mapping.0.scale_layers.4.b_init f4 [1, 2]
0.0 0.0
00000000: 0000 0000 0000 0000

net.flow_mapping.0.scale_layers.4.logs_init f4 [1, 2]
0.0 0.0
00000000: 0000 0000 0000 0000

net.flow_mapping.0.scale_layers.5.b f4 [1, 2]
0.024885628 0.0013484346
00000000: f2dc cb3c f5bd b03a

net.flow_mapping.0.scale_layers.5.logs f4 [1, 2]
0.08773403 0.049208187
00000000: e6ad b33d 868e 493d

net.flow_mapping.0.scale_layers.5.b_init f4 [1, 2]
0.0 0.0
00000000: 0000 0000 0000 0000

net.flow_mapping.0.scale_layers.5.logs_init f4 [1, 2]
0.0 0.0
00000000: 0000 0000 0000 0000

net.flow_mapping.0.scale_layers.6.b f4 [1, 2]
0.00027350886 0.032568753
00000000: bd65 8f39 d066 053d

net.flow_mapping.0.scale_layers.6.logs f4 [1, 2]
0.06283678 0.083036385
00000000: 92b0 803d fb0e aa3d

net.flow_mapping.0.scale_layers.6.b_init f4 [1, 2]
0.0 0.0
00000000: 0000 0000 0000 0000

net.flow_mapping.0.scale_layers.6.logs_init f4 [1, 2]
0.0 0.0
00000000: 0000 0000 0000 0000

net.flow_mapping.0.scale_layers.7.b f4 [1, 2]
0.021893324 -0.01656932
00000000: a159 b33c 62bc 87bc

net.flow_mapping.0.scale_layers.7.logs f4 [1, 2]
0.105982706 0.049988247
00000000: 760d d93d 7ac0 4c3d

net.flow_mapping.0.scale_layers.7.b_init f4 [1, 2]
0.0 0.0
00000000: 0000 0000 0000 0000

net.flow_mapping.0.scale_layers.7.logs_init f4 [1, 2]
0.0 0.0
00000000: 0000 0000 0000 0000

net.flow_mapping.0.scale_layers.8.b f4 [1, 2]
0.006250299 0.02654416
00000000: 4fcf cc3b 2373 d93c

net.flow_mapping.0.scale_layers.8.logs f4 [1, 2]
0.14078622 0.088914596
00000000: 432a 103e db18 b63d

net.flow_mapping.0.scale_layers.8.b_init f4 [1, 2]
0.0 0.0
00000000: 0000 0000 0000 0000

net.flow_mapping.0.scale_layers.8.logs_init f4 [1, 2]
0.0 0.0
00000000: 0000 0000 0000 0000

net.flow_mapping.0.scale_layers.9.b f4 [1, 2]
0.020368751 0.09474241
00000000: 5edc a63c 4f08 c23d

net.flow_mapping.0.scale_layers.9.logs f4 [1, 2]
0.12939571 0.16951706
00000000: 4f80 043e e195 2d3e

net.flow_mapping.0.scale_layers.9.b_init f4 [1, 2]
0.0 0.0
00000000: 0000 0000 0000 0000

net.flow_mapping.0.scale_layers.9.logs_init f4 [1, 2]
0.0 0.0
00000000: 0000 0000 0000 0000

net.flow_mapping.0.affine_layers.0.net.0.weight f4 [32, 1]
0.8036462 0.9276871 -0.23355722 0.8959419 -0.24723397 0.21586764 -0.5925933 0.58944386
0.96538645 -0.8071079 0.94415563 0.22193117 0.8083183 0.13502824 0.5333382 -0.1256819
0.7569679 0.14736187 -0.4654094 0.25409365 -0.45930612 -0.13914348 -0.38184816 0.6162368
-0.86609626 -0.5405132 -0.32313758 -0.5994843 0.14864188 -1.04507 1.0175647 -0.9050923
00000000: c2bb 4d3f e77c 6d3f a029 6fbe 735c 653f
00000010: e72a 7dbe 680c 5d3e 32b4 17bf cbe5 163f
00000020: 9123 773f a09e 4ebf 2fb4 713f ed41 633e
00000030: f3ed 4e3f d844 0a3e da88 083f c2b2 00be
00000040: a6c8 413f 08e6 163e 244a eebe 9018 823e
00000050: 2c2a ebbe a17b 0ebe 9a81 c3be b2c1 1d3f
00000060: 7cb8 5dbf 135f 0abf 4a72 a5be ce77 19bf
00000070: 9435 183e dbc4 85bf 8f3f 823f 21b4 67bf

net.flow_mapping.0.affine_layers.0.net.0.bias f4 [32]
0.83727455 0.17757878 -0.32372105 0.70522785 0.16097714 0.7944671 0.06566341 -0.38412356
0.20350385 -0.3431603 0.36188558 0.95300454 0.63663876 -0.43583143 0.63306874 0.15456797
0.5953594 -0.6077169 -0.9868686 -0.38519824 -0.76469827 0.8616449 0.3227051 0.47674245
0.31331542 -0.074654944 0.8765256 -0.7083678 0.11696601 -0.65788215 0.23831008 -0.35050583
00000000: a057 563f 36d7 353e c4be a5be d089 343f
00000010: 31d7 243e 3262 4b3f 8a7a 863d d8ab c4be
00000020: 5063 503e b5b2 afbe 1149 b93e 1bf8 733f
00000030: c2fa 223f 4c25 dfbe cb10 223f 1147 1e3e
00000040: 7969 183f 5693 1bbf 6ca3 7cbf b438 c5be
00000050: 44c3 43bf c394 5c3f 9a39 a53e 9617 f43e
00000060: e16a a03e b1e4 98bd fb63 603f 9857 35bf
00000070: e08b ef3d f76a 28bf 8f07 743e 8075 b3be

net.flow_mapping.0.affine_layers.0.net.2.weight f4 [32, 32]
0.053999618 -0.03671816 0.14617012 -0.10446296 -0.10511634 -0.10512271 0.15850879 0.05873221
0.16956706 -0.14544258 -0.17480414 -0.13790135 -0.11855812 0.07137814 0.0630983 0.14644103
-0.09102375 -0.12015313 0.09350328 -0.07123041 0.10695471 -0.041826293 0.10081147 -0.1369475
-0.088942096 0.05372742 0.037260175 -0.044936657 0.10505827 0.119816795 -0.12779142 -0.09408488
0.16137595 -0.05947139 -0.062470786 -0.17051174 -0.100921825 0.04402536 -0.023260668 -0.1279174
0.004134018 -0.12039526 -0.14952973 -0.097053744 -0.15424229 -0.112225175 0.17617111 0.033288106
0.05430782 -0.16438511 -0.11574467 -0.05866234 0.027558953 -0.15505785 -0.075944796 -0.10551772
0.00048831897 -0.065578006 -0.0122135505 -0.11943151 -0.12098014 -0.102818914 -0.060331397 -0.13912413
0.22830626 0.023458667 0.15165107 0.13596739 -0.24389291 0.19360669 -0.18146351 -0.23910238
-0.096842684 -0.37320888 0.104332656 0.03302029 0.1496534 -0.14462714 0.21108946 -0.16530365
0.050692324 0.03681153 0.09099306 0.14226662 0.16054462 -0.09400165 -0.004673556 0.005447936
-0.059684917 -0.18796307 0.17026852 -0.129343 0.17795509 -0.06887207 0.105742045 -0.27998087
0.16903307 0.07284269 0.022673503 -0.16078965 0.069762565 -0.012498587 -0.09769169 -0.031154096
0.060806386 -0.093055055 -0.05556277 0.005356504 0.07366518 -0.045038313 -0.08477974 -0.04437418
-0.14276788 0.062843144 0.13642995 -0.16593297 0.04093358 0.10425238 0.04943207 -0.06575755
0.11811613 0.13405798 0.0800736 -0.030968457 -0.07093538 0.08971392 -0.0096506085 -0.052130427
0.10993456 0.14867727 -0.01744642 -0.04217278 0.0025718864 -0.013161042 0.042365 0.046724096
-0.16279016 -0.0650361 0.14570744 0.065964 -0.011511387 -0.10626676 -0.11056858 -0.16008626
-0.060171336 0.05951941 0.112381354 0.08137147 -0.15576896 -0.10858543 -0.027814493 0.16780505
0.025493845 -0.045645878 0.07028113 -0.06712981 -0.11714392 0.12862472 -0.08286572 -0.035326093
-0.17532177 0.11795382 0.13352983 0.06422478 -0.122881845 -0.17393152 -0.14312728 0.13142009
0.084603295 0.14831133 0.09231742 0.044606686 -0.0017258739 -0.1340374 -0.15101032 -0.1648561
0.07214214 -0.08652347 -0.035465002 -0.10142299 -0.0321123 -0.124041624 -0.11515103 0.058459923
-0.052380934 0.10879661 -0.05654387 -0.12927526 -0.031095296 -0.08542382 -0.0539157 -0.16779889
0.14044952 -0.2806672 0.08858289 0.06559848 0.20923422 -0.057764314 0.20137449 -0.15294503
-0.0804169 0.1518073 -0.14219564 0.07674081 -0.040448096 -0.14715877 0.14929092 -0.095228404
0.10227137 0.13186644 0.16668712 -0.041575074 -0.14480011 0.1207151 0.17935069 -0.18519078
-0.047378715 -0.13206366 0.06590174 -0.08674365 -0.0702476 -0.118849434 -0.3096323 0.13413207
0.13451444 -0.027646974 -0.020070225 -0.07192257 -0.16880232 -0.18361388 0.05621926 -0.09676799
-0.11331039 -0.020722155 -0.058689795 -0.0690196 0.0039064307 -0.03738478 -0.08587347 -0.093844295
-0.14341868 0.14778148 -0.07052024 0.046696916 -0.0611455 0.0033614754 0.15444078 0.081199154
-0.1621285 0.061555725 0.15661766 0.046361715 0.11815782 0.16842169 -0.027003497 0.02882522
00000000: b42e 5d3d c865 16bd 9fad 153e adf0 d5bd
00000010: 3c47 d7bd 934a d7bd 2150 223e 3091 703d
00000020: fda2 2d3e e6ee 14be dbff 32be 0336 0dbe
00000030: 9ace f2bd b42e 923d ae39 813d a3f4 153e
00000040: a96a babd d812 f6bd a67e bf3d 40e1 91bd
00000050: 120b db3d 0c52 2bbd 3e76 ce3d f73b 0cbe
00000060: 4627 b6bd 4811 5c3d 209e 183d 800f 38bd
00000070: ca28 d73d 8262 f53d c1db 02be 93af c0bd
00000080: bd3f 253e 4698 73bd 5ee1 7fbd a19a 2ebe
00000090: 1ab0 cebd f053 343d 288d bebc c7fc 02be
000000a0: a876 873b ca91 f6bd 521e 19be 1dc4 c6bd
000000b0: b1f1 1dbe 50d6 e5bd 3366 343e 1c59 083d
000000c0: e071 5e3d 9254 28be 8b0b edbd ec47 70bd
000000d0: 50c3 e13c 7cc7 1ebe f288 9bbd ad19 d8bd
000000e0: 8802 003a c34d 86bd 581b 48bc 8298 f4bd
000000f0: 70c4 f7bd b992 d2bd 0e1e 77bd 8e76 0ebe
00000100: 1ec9 693e 642c c03c 6b4a 1b3e 093b 0b3e
00000110: 10bf 79be d540 463e 92d1 39be 41d7 74be
00000120: 7555 c6bd 3c15 bfbe 5cac d53d 4940 073d
00000130: be3e 193e 2319 14be d627 583e 5c45 29be
00000140: c1a2 4f3d b0c7 163d 925a ba3d 57ae 113e
00000150: cf65 243e f083 c0bd a124 99bb 9984 b23b
00000160: 2c78 74bd 6479 40be df5a 2e3e 7e72 04be
00000170: dc39 363e cd0c 8dbd 498f d83d a759 8fbe
00000180: 0117 2d3e 8c2e 953d c8bd b93c 0ba6 24be
00000190: addf 8e3d e0c6 4cbc 9512 c8bd e036 ffbc
000001a0: 1e10 793d a693 bebd ca95 63bd 9d85 af3b
000001b0: c5dd 963d 187a 38bd 00a1 adbd b3c1 35bd
000001c0: be31 12be e8b3 803d 4bb4 0b3e 55ea 29be
000001d0: f8a9 273d 4682 d53d 4879 4a3d e5ab 86bd
000001e0: dfe6 f13d 7f46 093e a1fd a33d 90b1 fdbc
000001f0: 9246 91bd efbb b73d 961d 1ebc b786 55bd
00000200: 5f25 e13d db3e 183e cbeb 8ebc 5dbd 2cbd
00000210: 188d 283b 69a1 57bc ec86 2d3d c461 3f3d
00000220: 77b2 26be a631 85bd 5534 153e 2218 873d
00000230: 429a 3cbc 63a2 d9bd c871 e2bd a7ed 23be
00000240: 3876 76bd a0ca 733d 3228 e63d 16a6 a63d
00000250: e681 1fbe 0a62 debd 38db e3bc 16d5 2b3e
00000260: 78d8 d03c 2cf7 3abd 8eef 8f3d 5b7b 89bd
00000270: 27e9 efbd 33b6 033e 81b5 a9bd 18b2 10bd
00000280: 8d87 33be c691 f13d 0bbc 083e 4888 833d
00000290: 7aa9 fbbd 1b1b 32be f58f 12be fd92 063e
000002a0: 7e44 ad3d edde 173e ea10 bd3d 80b5 363d
000002b0: b836 e2ba 1a41 09be 73a2 1abe 0ad0 28be
000002c0: 42bf 933d 3833 b1bd c043 11bd dbb6 cfbd
000002d0: 3088 03bd 8909 febd 4ed4 ebbd ac73 6f3d
000002e0: 648d 56bd c2d0 de3d 8c9a 67bd bc60 04be
000002f0: 90bb febc aff2 aebd b6d6 5cbd 79d3 2bbe
00000300: 00d2 0f3e 9cb3 8fbe f26a b53d 7f58 863d
00000310: 7f41 563e 469a 6cbd 1d35 4e3e 9f9d 1cbe
00000320: 9eb1 a4bd 5f73 1b3e bc9b 11be 492a 9d3d
00000330: e7ac 25bd cab0 16be b8df 183e 1c07 c3bd
00000340: a773 d13d ff07 073e 07b0 2a3e a04a 2abd
00000350: 7b46 14be 7a39 f73d b5a7 373e a7a2 3dbe
00000360: 2f10 42bd b23b 07be 7ef7 863d a8a6 b1bd
00000370: f9dd 8fbd 5567 f3bd 2088 9ebe eb59 093e
00000380: 27be 093e e87b e2bc 506a a4bc 244c 93bd
00000390: 84da 2cbe 4705 3cbe 2b46 663d 4c2e c6bd
000003a0: 470f e8bd 82c1 a9bc b664 70bd 265a 8dbd
000003b0: 8401 803b c820 19bd 6ede afbd 7031 c0bd
000003c0: 59dc 12be 0754 173e ea6c 90bd 4445 3f3d
000003d0: b473 7abd 334c 5c3b b925 1e3e be4b a63d
000003e0: 0305 26be db21 7c3d 6160 203e c8e5 3d3d
000003f0: bafc f13d bc76 2c3e 7036 ddbc de22 ec3c

net.flow_mapping.0.affine_layers.0.net.2.bias f4 [32]
-0.091361746 -0.17429742 0.12679937 0.11237625 -0.15393598 0.06318849 0.22845213 -0.0005107677
-0.10618775 0.18255028 0.07526295 0.11670409 -0.12667619 0.10812276 -0.123609 0.19815147
-0.07467672 0.13639735 0.07357083 0.042524103 0.0011259363 0.06962873 -0.008552326 -0.12943438
-0.03296291 0.15075058 -0.053793557 0.029941956 -0.07465472 0.17996846 0.13806206 0.08769843
00000000: de1b bbbd 067b 32be b2d7 013e 8525 e63d
00000010: 65a1 1dbe f868 813d 5bef 693e 0ae5 05ba
00000020: f778 d9bd 76ee 3a3e 7623 9a3d 8e02 ef3d
00000030: 67b7 01be 776f dd3d b726 fdbd 38e8 4a3e
00000040: 1cf0 98bd bfab 0b3e 4eac 963d c12d 2e3d
00000050: 2794 933a 8299 8e3d 0e1f 0cbc 728a 04be
00000060: 1e04 07bd 5c5e 1a3e a256 5cbd d548 f53c
00000070: 93e4 98bd a749 383e 2460 0d3e 3c9b b33d

net.flow_mapping.0.affine_layers.0.net.4.weight f4 [32, 32]
-0.09009325 -0.14400248 0.15522145 -0.033219285 0.14489765 -0.16934167 0.14664003 0.27378267
0.08826657 0.114673525 -0.16954866 0.16950385 0.025398275 -0.24588262 0.17081727 -0.23771715
-0.012467414 0.23243852 -0.25412992 -0.18458849 -0.08039435 -0.023589611 0.104925655 -0.2807177
-0.0018317071 -0.1907901 -0.08835349 -0.05541105 0.08315247 0.12598081 -0.089430846 0.024267111
0.05316235 0.03270267 -0.17070955 0.0007916515 0.17121506 0.12089075 -0.089969695 0.075814985
0.013660006 0.10663453 0.13689594 0.15025671 -0.18920699 0.1786268 -0.11827038 0.008880373
-0.12314514 -0.05662049 0.05290958 0.042460147 -0.014849753 0.026807304 0.23464133 0.12267327
0.16460706 0.080399334 0.13122733 -0.10841098 0.026867023 -0.05840568 -0.17600597 -0.093380906
0.021606013 -0.06896276 -0.0078607 -0.040440038 0.027433738 0.114656046 -0.05844775 0.14112647
0.13917379 -0.14004287 -0.13610926 -0.14257854 -0.09658663 -0.07328142 -0.013266772 -0.04761628
-0.089047946 -0.059750233 -0.068529755 0.16814186 -0.07004988 -0.13069502 0.07326211 -0.01494634
0.13493152 0.10537362 0.16191812 -0.12906176 0.10847897 0.14791082 -0.091807574 0.15715703
0.13211708 0.001929977 0.07977943 -0.06660254 -0.15373473 0.04455152 0.05254513 -0.115176365
0.08546843 -0.15567742 0.15169124 0.1706524 0.047983646 -0.11568255 0.08576392 0.024792146
0.04792361 0.052103084 0.12900123 -0.080872 -0.044866253 0.048062757 0.019205898 0.13692017
-0.09255935 -0.011621369 0.032930702 -0.04680465 0.11484417 0.019277075 -0.16811098 -0.024330266
-0.07993242 0.017127305 0.05721016 -0.1321155 -0.033491854 -0.016881257 -0.07299013 0.30161706
-0.03846076 0.105443664 0.043656617 -0.14877602 0.10609006 0.11158743 -0.11874874 -0.107866
0.17250125 0.18164504 -0.17836985 0.025926461 -0.06357308 -0.17836013 0.013722225 -0.005503136
-0.11399281 0.009628532 -0.15038377 0.21623813 0.07226975 0.18029188 0.018823497 -0.020054318
-0.12750405 -0.044037685 -0.09377144 -0.14840642 -0.12877566 0.11854549 0.17929846 -0.1663244
0.05608481 0.11957057 0.16744052 0.101961866 0.059543405 -0.05225699 0.122440614 0.14509484
-0.16644345 -0.18128504 0.09239112 0.15649456 -0.076065496 0.03323672 0.049185872 0.08092869
-0.026629597 0.12312208 0.11295267 -0.28345248 0.074035816 -0.097315356 0.07732266 0.22419041
0.051685676 -0.040044606 0.12136713 -0.123222806 -0.049727097 0.012033172 -0.034062218 0.019180492
-0.11958103 0.01979323 0.01688625 0.024396911 -0.22550341 -0.18031405 0.081092164 0.15933314
-0.15637502 0.017956646 -0.1371132 0.0028833037 0.15796022 0.14766468 0.01785049 0.1078377
0.21382083 -0.0031713562 0.17071186 -0.069987796 0.012476574 -0.19654286 0.009730021 0.058175925
0.014043696 -0.099156514 -0.07933307 0.059952214 -0.15451074 -0.027446419 -0.0039034812 -0.07140002
0.064131066 0.011360392 0.12372868 -0.015649512 -0.11123529 0.124521896 0.024614006 -0.050472066
-0.116156384 0.041311562 -0.16810948 0.046413764 0.08713807 -0.15457687 -0.115373194 -0.12668699
0.14813493 0.1498345 0.01103285 0.16546725 -0.058918335 -0.1710823 0.061557204 0.06242941
00000000: cf82 b8bd 6375 13be 5ff2 1e3e f210 08bd
00000010: 0d60 143e e767 2dbe ce28 163e 3e2d 8c3e
00000020: 1ac5 b43d f4d9 ea3d 2a9e 2dbe 6b92 2d3e
00000030: 0b10 d03c a7c8 7bbe b9ea 2e3e 206c 73be
00000040: 2044 4cbc 5d04 6e3e 511d 82be c404 3dbe
00000050: cba5 a4bd 003f c1bc 43e3 d63d 3bba 8fbe
00000060: e415 f0ba 7b5e 43be adf2 b4bd b2f6 62bd
00000070: d84b aa3d 1d01 013e 8527 b7bd d2cb c63c
00000080: c4c0 593d 3cf3 053d 7cce 2ebe d586 4f3a
00000090: 0053 2f3e 9295 f73d 0842 b8bd e344 9b3d
000000a0: 38ce 5f3c 3463 da3d 732e 0c3e e5dc 193e
000000b0: 7abf 41be f2e9 363e be37 f2bd fc7e 113c
000000c0: 8533 fcbd e3ea 67bd b7b7 583d b1ea 2d3d
000000d0: 614c 73bc fe9a db3c d145 703e 203c fb3d
000000e0: c18e 283e 68a8 a43d 7560 063e 9306 debd
000000f0: 3b18 dc3c cb3a 6fbd e93a 34be 7d3e bfbd
00000100: 18ff b03c 593c 8dbd 2aca 00bc 74a4 25bd
00000110: b8bc e03c cad0 ea3d e866 6fbd 7583 103e
00000120: 9383 0e3e 6667 0fbe 3a60 0bbe 1c00 12be
00000130: 36cf c5bd 9214 96bd e05c 59bc 4a09 43bd
00000140: c55e b6bd a9bc 74bd 5459 8cbd 612d 2c3e
00000150: 5076 8fbd ead4 05be 720a 963d 7ee1 74bc
00000160: 7d2b 0a3e 20ce d73d ddcd 253e c428 04be
00000170: 392a de3d ef75 173e 9c05 bcbd c6ed 203e
00000180: b349 073e 48f7 fc3a 6663 a33d ea66 88bd
00000190: a36c 1dbe a87b 363d 9039 573d 96e1 ebbd
000001a0: 120a af3d e769 1fbe f354 1b3e 81bf 2e3e
000001b0: 808a 443d f9ea ecbd fea4 af3d e618 cb3c
000001c0: 8c4b 443d 0b6a 553d e618 043e 38a0 a5bd
000001d0: adc5 37bd 74dd 443d b055 9d3c cd34 0c3e
000001e0: c28f bdbd 8e67 3ebc 58e2 063d 3cb6 3fbd
000001f0: 6c33 eb3d f5ea 9d3c 4925 2cbe 4450 c7bc
00000200: 9cb3 a3bd 904e 8c3c 3355 6a3d 4949 07be
00000210: c12e 09bd 904a 8abc d97b 95bd 8d6d 9a3e
00000220: 0889 1dbd d9f2 d73d 48d1 323d be58 18be
00000230: bf45 d93d f387 e43d 8a32 f3bd d9e8 dcbd
00000240: 2ba4 303e 2801 3a3e 96a6 36be bb63 d43c
00000250: 9a32 82bd 0aa4 36be 2fd3 603c a753 b4bb
00000260: 1075 e9bd fec0 1d3c 34fe 19be 876d 5d3e
00000270: 2a02 943d 6f9e 383e bc33 9a3c f448 a4bc
00000280: 6c90 02be dc60 34bd 3e0b c0bd daf7 17be
00000290: c4dd 03be fac7 f23d 049a 373e f250 2abe
000002a0: 30b9 653d 6ae1 f43d 8775 2b3e 62d1 d03d
000002b0: c9e3 733d 6d0b 56bd 25c2 fa3d be93 143e
000002c0: 2770 2abe c9a2 39be 8e37 bd3d 1c40 203e
000002d0: 3ac8 9bbd 3a23 083d 2077 493d f1bd a53d
000002e0: 5026 dabc 6e27 fc3d bb53 e73d af20 91be
000002f0: 17a0 973d 464d c7bd 585b 9e3d 2c92 653e
00000300: 5cb4 533d d005 24bd 548f f83d 3d5c fcbd
00000310: a4ae 4bbd c826 453c d384 0bbd 6820 9d3c
00000320: e6e6 f4bd 6925 a23c 0855 8a3c 08dc c73c
00000330: 5eea 66be 3fa4 38be a613 a63d 3a28 233e
00000340: c620 20be d119 933c 6767 0cbe cff5 3c3b
00000350: 53c0 213e 6935 173e 313b 923c 03da dc3d
00000360: d9f3 5a3e 87d6 4fbb 17cf 2e3e c355 8fbd
00000370: 8b6a 4c3c 8842 49be aa6a 1f3c e149 6e3d
00000380: 8817 663c 9212 cbbd 6079 a2bd 7490 753d
00000390: 1038 1ebe 50d7 e0bc 8cd1 7fbb 2c3a 92bd
000003a0: 2657 833d f020 3a3c 7665 fd3d 6833 80bc
000003b0: 54cf e3bd 5605 ff3d 50a3 c93c ccbb 4ebd
000003c0: 66e3 edbd 5036 293d e424 2cbe 5c1c 3e3d
000003d0: 7275 b23d 6649 1ebe c848 ecbd 3cba 01be
000003e0: afb0 173e 376e 193e 20c3 343c 3f70 293e
000003f0: 5a54 71bd 3330 2fbe 6823 7c3d fbb5 7f3d

net.flow_mapping.0.affine_layers.0.net.4.bias f4 [32]
0.15510201 0.16890419 0.021976463 -0.1649021 0.1351033 0.02487602 -0.0050747376 -0.16790384
-0.04227541 -0.09652895 0.14452302 0.15691309 0.13290173 0.11904115 -0.15480398 -0.08940758
-0.072408624 -0.07579753 0.16259938 0.0378985 0.1386591 -0.01991323 -0.15968733 -0.0640551
0.15628397 0.14158425 0.026872499 -0.051697038 -0.16450651 -0.0067626056 0.114504434 -0.09925533
00000000: 10d3 1e3e 38f5 2c3e fc07 b43c 19dc 28be
00000010: 8558 0a3e ccc8 cb3c fc49 a6bb fcee 2bbe
00000020: fb28 2dbd f8b0 c5bd d8fd 133e d3ad 203e
00000030: 6417 083e d9cb f33d ef84 1ebe 521b b7bd
00000040: f94a 94bd bc3b 9bbd 7480 263e 753b 1b3d
00000050: a7fc 0d3e 1221 a3bc 1385 23be 522f 83bd
00000060: e808 203e 76fb 103e b723 dc3c 46c0 53bd
00000070: 6574 28be d998 ddbb 4d81 ea3d 6146 cbbd

net.flow_mapping.0.affine_layers.0.net.6.weight f4 [32, 32]
0.078313656 0.04094739 -0.06769652 0.10733558 -0.06290886 -0.005854834 -0.06713538 -0.1671936
0.028418673 0.050926566 -0.09456516 0.10240725 -0.16380553 -0.16987215 -0.108850665 -0.060904898
-0.019571021 -0.03406112 0.07441839 -0.16058683 0.025951698 0.0030522738 0.046546787 0.16912363
0.10291745 -0.10439003 -0.15012252 -0.042663693 -0.08840773 0.06155902 -0.004914414 0.14173861
0.013644324 0.042645007 0.0090361945 0.039789867 -0.051682472 0.19260642 -0.14497317 0.085893795
-0.109614976 -0.062695324 0.013011449 0.031174555 0.1001138 0.118823476 -0.20576096 -0.0012354188
-0.07434923 -0.012937709 0.039108224 0.19069956 0.20480004 -0.15419535 -0.0017740806 -0.16223462
-0.13513327 -0.08069233 0.07428069 -0.12706746 0.17398123 0.0931678 -0.25360826 -0.36166057
0.098806396 -0.14140789 0.05173929 -0.11665034 0.16074577 -0.2466601 -0.07724345 -0.09264125
0.082540296 -0.10355 -0.23974316 -0.013297431 0.004836762 -0.27297702 0.16445538 0.0546095
-0.035062756 -0.07062065 0.038412858 -0.13871095 -0.21380886 0.0105326185 0.15894474 0.024750602
0.224816 -0.13657996 -0.022690251 -0.16778986 0.14600982 0.31549037 0.14462683 0.3230123
0.23290762 0.028643291 0.087225735 -0.16779801 -0.12985417 -0.20852757 0.0540722 -0.15246068
-0.13692005 -0.16908659 -0.19943838 0.071559034 0.045447055 -0.18862338 0.0191724 -0.07546367
-0.04673777 0.13130699 0.11876129 -0.06780647 -0.2558302 -0.07363755 0.024961835 0.17198482
0.20696443 -0.14375967 -0.19938478 -0.15423183 -0.05607497 0.037615277 0.049203977 0.05489845
0.018574208 -0.14338593 -0.13534877 -0.1409956 -0.1557824 0.15985693 0.06432219 -0.020898774
0.03627087 0.07204712 0.0010267952 -0.23130941 -0.13391154 -0.14807041 0.23071758 -0.16132994
-0.032041147 -0.06444112 0.1508377 0.1440345 0.09496496 0.009883307 -0.057056665 0.0449564
-0.12176028 -0.080553465 -0.034817602 -0.04141158 -0.16696921 0.06336575 0.044126425 -0.09721475
0.09545291 -0.09980812 -0.007579101 0.008258558 0.17905852 -0.04245244 -0.08272206 -0.063387804
0.08338668 -0.026023505 -0.06014479 0.018866748 -0.0013617487 -0.14772421 0.089828566 0.020040924
0.046797138 0.13197225 -0.07962916 -0.025245568 -0.012948926 0.09182699 0.020220045 0.10004637
0.11329349 -0.22680488 -0.003058694 -0.038524564 0.15903364 0.22165999 0.17156462 0.38591954
-0.22335641 0.21648327 0.15231197 -0.006735634 -0.21513322 -0.037559666 -0.06757592 0.0029109214
-0.1570417 -0.019251853 -0.0834769 -0.08110953 -0.15879953 0.059679378 -0.16368522 -0.08761497
0.018960597 0.118409716 0.18555084 -0.10958838 0.20806685 -0.09933535 -0.13380006 -0.22263888
-0.15379876 -0.08941212 -0.14361133 -0.11796756 0.14481668 0.007445695 -0.28214297 -0.3724314
-0.10787168 -0.20332663 -0.0755615 0.10404664 0.05373341 -0.100915365 0.14348884 -0.10948428
-0.14624426 -0.08290448 -0.17998809 0.09914829 0.1857004 -0.17001353 0.07260748 0.05956094
-0.1575258 0.15448079 -0.14787164 0.054143757 -0.25704008 -0.112858765 0.016925944 0.14704134
0.25238633 0.08633237 -0.040783655 -0.022660628 0.029132098 0.01868852 0.15337047 0.07601331
00000000: e962 a03d 73b8 273d 79a4 8abd c2d2 db3d
00000010: 5cd6 80bd e8d9 bfbb 467e 89bd cd34 2bbe
00000020: 47ce e83c 6098 503d 61ab c1bd e4ba d13d
00000030: a3bc 27be f7f2 2dbe 19ed debd 6a77 79bd
00000040: 6853 a0bc ac83 0bbd ab68 983d e070 24be
00000050: a898 d43c a808 483b d8a7 3e3d bf2e 2d3e
00000060: 62c6 d23d 71ca d5bd b8b9 19be 20c0 2ebd
00000070: 1d0f b5bd 5025 7c3d 1809 a1bb ed23 113e
00000080: 718c 5f3c 88ac 2e3d 8c0c 143c b3fa 223d
00000090: 00b1 53bd 9e3a 453e d973 14be 16e9 af3d
000000a0: d17d e0bd 6866 80bd f92d 553c c861 ff3c
000000b0: 7708 cd3d b959 f33d 00b3 52be c7ed a1ba
000000c0: 6944 98bd aff8 53bc f22f 203d bf46 433e
000000d0: 1ab7 513e 63e5 1dbe 4488 e8ba d520 26be
000000e0: 6060 0abe 0542 a5bd 7920 983d f91d 02be
000000f0: 2328 323e c2ce be3d f1d8 81be 932b b9be
00000100: 025b ca3d 3bcd 10be 94ec 533d 60e6 eebd
00000110: 8a9a 243e 7794 7cbe d031 9ebd b2ba bdbd
00000120: e30a a93d 0612 d4bd 3b7f 75be 78dd 59bc
00000130: b37d 9e3b a5c3 8bbe fe66 283e 36ae 5f3d
00000140: f79d 0fbd 8fa1 90bd cd56 1d3d 3e0a 0ebe
00000150: b6f0 5abe 0191 2c3c 69c2 223e c6c1 ca3c
00000160: 2a36 663e 9edb 0bbe e8e0 b9bc 1bd1 2bbe
00000170: 9983 153e f487 a13e 0e19 143e de61 a53e
00000180: 567f 6e3e 56a5 ea3c 68a3 b23d 3ed3 2bbe
00000190: 7ef8 04be 4088 55be d07a 5d3d a71e 1cbe
000001a0: c534 0cbe 0925 2dbe 9339 4cbe 8b8d 923d
000001b0: b126 3a3d 7d26 41be 700f 9d3c b28c 9abd
000001c0: 1b70 3fbd 5775 063e 1f39 f33d 1ede 8abd
000001d0: 2dfc 82be 49cf 96bd c37c cc3c ca1c 303e
000001e0: 7cee 533e bc35 13be 862b 4cbe f3ee 1dbe
000001f0: deae 65bd 7a12 1a3d 1c8a 493d 32dd 603d
00000200: f028 983c c3d3 12be de98 0abe 2761 10be
00000210: 6c85 1fbe 89b1 233e 5abb 833d e833 abbc
00000220: c490 143d 718d 933d 8895 863a 60dc 6cbe
00000230: 1b20 09be c59f 17be 3b41 6c3e ad33 25be
00000240: 943d 03bd b5f9 83bd 3375 1a3e c87d 133e
00000250: fd7c c23d 98ed 213c 40b4 69bd 3424 383d
00000260: 745d f9bd 37f9 a4bd e79c 0ebd 309f 29bd
00000270: faf9 2abe e7c5 813d e9bd 343d 8718 c7bd
00000280: d17c c33d 3368 ccbd 1b5a f8bb e74e 073c
00000290: 1e5b 373e 9ce2 2dbd 2f6a a9bd 77d1 81bd
000002a0: a3c6 aa3d 3f2f d5bc 625a 76bd 708e 9a3c
000002b0: b47c b2ba 0445 17be 0af8 b73d dd2c a43c
000002c0: 5bae 3f3d bc23 073e 9d14 a3bd cbcf cebc
000002d0: bb27 54bc ca0f bc3d 82a4 a53c 1ce5 cc3d
000002e0: 6b06 e83d 8a3f 68be 5f74 48bb efcb 1dbd
000002f0: b7d9 223e d6fa 623e a3ae 2f3e 3f97 c53e
00000300: 8bb7 64be caad 5d3e abf7 1b3e 98b6 dcbb
00000310: e24b 5cbe 2ad8 19bd 3e65 8abd 28c5 3e3b
00000320: 8acf 20be 10b6 9dbc f0f5 aabd c11c a6bd
00000330: 589c 22be 5d72 743d 199d 27be 7a6f b3bd
00000340: 4153 9b3c cb80 f23d 0a01 3e3e df6f e0bd
00000350: 7a0f 553e 5570 cbbd e202 09be 72fb 63be
00000360: 6c7d 1dbe b41d b7bd d90e 13be fa98 f1bd
00000370: d34a 143e 04fb f33b 0b75 90be 54af bebe
00000380: d4eb dcbd db34 50be fdbf 9abd 6816 d53d
00000390: 9017 5c3d b7ac cebd bdee 123e 4b39 e0bd
000003a0: 0ec1 15be d3c9 a9bd cc4e 38be 420e cb3d
000003b0: 3f28 3e3e 0718 2ebe 3bb3 943d 2cf6 733d
000003c0: 714e 21be 3630 1e3e aa6b 17be d8c5 5d3d
000003d0: c29a 83be 7f22 e7bd 47a8 8a3c 0192 163e
000003e0: c838 813e 07cf b03d c30c 27bd c8a2 b9bc
000003f0: 70a6 ee3c ab18 993c 260d 1d3e deac 9b3d

net.flow_mapping.0.affine_layers.0.net.6.bias f4 [32]
-0.14041023 0.06562839 0.16243419 0.16045134 -0.20916222 0.16501836 0.14157254 0.14991026
0.093504764 -0.039974976 0.13318136 0.15216018 -0.067392915 -0.018952392 0.18427822 0.18910626
0.09507017 0.1378567 -0.09279433 -0.00507548 -0.06734615 0.100165635 0.065052845 -0.15025301
-0.04789352 -0.14370641 -0.16587578 0.16836691 -0.08865417 0.10857009 -0.05762378 -0.001949803
00000000: b3c7 0fbe 2d68 863d 2655 263e 5b4d 243e
00000010: 9f2e 56be 93fa 283e 64f8 103e 1382 193e
00000020: 6d7f bf3d cdbc 23bd b260 083e e1cf 1b3e
00000030: 4c05 8abd 0c42 9bbc 6eb3 3c3e 12a5 413e
00000040: 26b4 c23d 4f2a 0d3e f40a bebd 3650 a6bb
00000050: c7ec 89bd a423 cd3d 6d3a 853d eddb 19be
00000060: ff2b 44bd c627 13be 57db 29be 6068 2c3e
00000070: 5190 b5bd ff59 de3d ea06 6cbd 8890 ffba

net.flow_mapping.0.affine_layers.0.net.8.weight f4 [32, 32]
0.0009107293 0.18989064 -0.15981741 0.0240065 -0.10831126 0.02510794 0.027912991 -0.11157586
-0.09629646 -0.14656289 -0.18260325 0.0592489 0.15789498 0.15561777 -0.06515165 -0.21052073
0.17611477 -0.013526774 0.07077923 -0.20426923 -0.038769044 0.052330986 -0.08188174 -0.05328069
0.20509975 -0.10277833 -0.07226923 -0.040185962 0.027427256 0.07809633 0.14414681 -0.29759532
-0.099252924 -0.102188215 0.17942797 0.077157885 -0.19475421 0.24202514 -0.3897077 0.14660531
-0.08670968 0.037788175 -0.08071134 -0.09641256 -0.14953901 -0.0010674265 -0.09850225 0.19839667
-0.08109187 0.016394272 -0.23308119 0.22132452 -0.2348483 0.14232218 0.070780106 0.055934206
-0.019864354 0.07151529 -0.053150073 0.0142804785 0.06861822 -0.064735696 -0.0121886 0.16365704
-0.106039315 0.12799112 -0.15106538 -0.098156124 -0.15888733 -0.19629201 0.25307634 -0.13885915
-0.023810484 0.050291374 -0.13211048 0.022923859 -0.022368133 0.1220839 0.1857674 -0.1784792
0.11318622 0.000694486 -0.14245322 -0.08640606 0.0029262595 0.06920241 0.007347187 -0.08773927
0.168337 0.026150286 -0.17131366 -0.051887628 -0.04781644 0.0211684 -0.09776706 -0.076873064
0.17244978 -0.12919627 0.0581155 -0.23378281 -0.28695714 -0.13625869 0.028075818 0.058728043
0.13212885 -0.20674597 -0.1855025 0.10276124 -0.021301016 0.069870226 0.115560845 -0.14307703
-0.05855767 0.050056145 0.07722193 -0.21780144 -0.022389516 -0.083348334 0.20663226 -0.16567081
0.14119707 0.023672849 -0.118815705 0.14229767 -0.027395904 0.025927113 0.119669266 -0.20861024
0.03611301 -0.15149102 0.21722513 0.16974162 -0.010662987 0.18052995 -0.15413393 -0.026266107
0.1431699 0.16339599 0.17543943 -0.020713644 -0.09663969 -0.116926454 0.0703028 0.15079753
-0.12244687 0.22193737 -0.0856422 0.041507564 -0.022475025 -0.02061009 0.05723557 0.29235378
-0.29064053 -0.0876264 -0.009959929 0.07792776 -0.1449295 -0.21852691 0.006416715 0.0796138
0.038018003 0.022395596 0.03615257 0.011682816 0.020256743 -0.010172598 0.06328334 0.120291844
-0.087952234 -0.09131117 0.077344105 -0.12743086 0.114522114 0.08142118 0.02548933 -0.076522455
0.0052840603 -0.13936049 -0.15855101 0.16597949 -0.15806392 -0.14623412 -0.06846726 0.009896584
0.04036495 -0.086844236 -0.017103925 -0.039353028 0.14746653 0.15298702 0.07243331 -0.0010865191
0.13216843 -0.1422797 0.073636845 -0.10243991 0.13745902 -0.1557767 0.065480694 -0.14489585
0.10286246 0.03222297 0.15123422 -0.13292572 0.11343981 -0.11761667 -0.09513086 0.067037046
-0.02966623 -0.13916872 -0.14997455 -0.045761555 0.04880029 0.15478091 0.12960927 0.002888048
-0.10809847 -0.15711422 0.15744083 -0.098270334 -0.03099516 -0.14219671 -0.12181001 0.034200355
-0.041453708 -0.0020660213 0.00844018 0.08364281 0.02920406 -0.019160187 0.248435 0.055033483
0.12307547 -0.052446365 -0.06510661 -0.032904554 -0.0134437755 0.18435429 0.24215515 0.018811258
-0.16211838 -0.012015546 0.40260866 0.15868996 0.120356634 0.02693161 -0.22185387 -0.071010284
0.20287314 -0.07645934 0.10759781 -0.21130492 0.15579732 0.18976973 0.11419542 0.113549255
00000000: 02be 6e3a b172 423e 2da7 23be 48a9 c43c
00000010: 4bd2 ddbd 2baf cd3c c9a9 e43c e281 e4bd
00000020: 1437 c5bd 9514 16be 59fc 3abe f9ae 723d
00000030: 39af 213e 445a 1f3e 3a6e 85bd bf92 57be
00000040: 6e57 343e 679f 5dbc b3f4 903d f42b 51be
00000050: 4acc 1ebd 0459 563d 9db1 a7bd da3c 5abd
00000060: ab05 523e 727d d2bd e401 94bd 099a 24bd
00000070: 20af e03c f8f0 9f3d 399b 133e 6a5e 98be
00000080: 1e45 cbbd 0e48 d1bd f7bb 373e f404 9e3d
00000090: a66d 47be 70d5 773e c587 c7be b41f 163e
000000a0: d894 b1bd c6c7 1a3d fd4b a5bd f373 c5bd
000000b0: c120 19be e4e8 8bba 8cbb c9bd 7f28 4b3e
000000c0: 7f13 a6bd 484d 863c d6ac 6ebe e5a2 623e
000000d0: 137c 70be e8bc 113e 29f5 903d 441b 653d
000000e0: 92ba a2bc 9c76 923d e4b3 59bd abf8 693c
000000f0: b687 8c3d 2694 84bd b2b2 47bc b695 273e
00000100: 242b d9bd 1b10 033e e2b0 1abe 1406 c9bd
00000110: 5cb3 22be c600 49be 3993 813e 1831 0ebe
00000120: 340e c3bc 54fe 4d3d f847 07be d1ca bb3c
00000130: 603d b7bc 2007 fa3d cf39 3e3e 40c3 36be
00000140: 2dce e73d 2b0e 363a 42df 11be a9f5 b0bd
00000150: 7dc6 3f3b feb9 8d3d acc0 f03b a5b0 b3bd
00000160: 8960 2c3e 2039 d63c d96c 2fbe 1f88 54bd
00000170: 2cdb 43bd 5a69 ad3c 193a c8bd a06f 9dbd
00000180: ad96 303e 074c 04be 850a 6e3d c364 6fbe
00000190: 0cec 92be 6687 0bbe 42ff e53c d18c 703d
000001a0: c94c 073e 37b5 53be 5ef4 3dbe 7c74 d23d
000001b0: 787f aebc 1f18 8f3d 2aab ec3d c982 12be
000001c0: 2bda 6fbd ac07 4d3d 8826 9e3d 5707 5fbe
000001d0: 386a b7bc 88b2 aabd 6897 533e 9ca5 29be
000001e0: f795 103e 90ed c13c a655 f3bd 7bb6 113e
000001f0: 606d e0bc 1965 d43c 2915 f53d ec9d 55be
00000200: 3ceb 133d 7620 1bbe 4470 5e3e bfd0 2d3e
00000210: cfb3 2ebc d8dc 383e 49d5 1dbe 052c d7bc
00000220: 219b 123e 4751 273e 65a6 333e a9af a9bc
00000230: 08eb c5bd 2377 efbd eafa 8f3d ab6a 1a3e
00000240: 6dc5 fabd 8d43 633e 2e65 afbd d603 2a3d
00000250: 8b1d b8bc 7ed6 a8bc d86f 6a3d 65af 953e
00000260: d6ce 94be 7875 b3bd f82e 23bc 9798 9f3d
00000270: 6668 14be 85c5 5fbe 4f43 d23b 8f0c a33d
00000280: c4b8 1b3d f876 b73c b814 143d 4869 3f3c
00000290: 78f1 a53c f8aa 26bc b29a 813d 925b f63d
000002a0: 4d20 b4bd 5a01 bbbd 9666 9e3d 3c7d 02be
000002b0: 928a ea3d 26c0 a63d 00cf d03c ceb7 9cbd
000002c0: e925 ad3b 84b4 0ebe 325b 22be 87f6 293e
000002d0: 82db 21be 66be 15be 9038 8cbd 4825 223c
000002e0: b855 253d 64db b1bd 881d 8cbc a430 21bd
000002f0: 7701 173e a1a8 1c3e ea57 943d 8869 8eba
00000300: 2957 073e c5b1 11be eace 963d 04cc d1bd
00000310: 0fc2 0c3e ed83 1fbe be1a 863d 945f 14be
00000320: 8ea9 d23d 3cfc 033d 25dd 1a3e ae1d 08be
00000330: 2253 e83d 02e1 f0bd f8d3 c2bd b84a 893d
00000340: 9806 f3bc 3f82 0ebe ee92 19be 7870 3bbd
00000350: d0e2 473d e37e 1e3e 4bb8 043e 6845 3d3b
00000360: bb62 ddbd 8de2 20be 2b38 213e f541 c9bd
00000370: 90e9 fdbc 049c 11be 8777 f9bd ac15 0c3d
00000380: 5dcb 29bd 1666 07bb ae48 0a3c ec4c ab3d
00000390: 5a3d ef3c d3f5 9cbc bf65 7e3e ca6a 613d
000003a0: fe0e fc3d 00d2 56bd 9d56 85bd edc6 06bd
000003b0: 4843 5cbc 5fc7 3c3e 85f7 773e 111a 9a3c
000003c0: 5c02 26be dadc 44bc b922 ce3e 9f7f 223e
000003d0: 8a7d f63d ae9f dc3c a92d 63be d76d 91bd
000003e0: fabd 4f3e b796 9cbd 3e5c dc3d 5160 58be
000003f0: 5589 1f3e ff52 423e 4adf e93d 838c e83d

net.flow_mapping.0.affine_layers.0.net.8.bias f4 [32]
0.12673181 0.13741556 0.0115446625 0.18710706 0.048172895 -0.093198575 -0.09604376 0.14701794
-0.07138651 0.1503247 -0.1711833 6.197074e-06 -0.13615587 0.052346203 0.16948973 0.092430346
-0.060594738 -0.16534437 -0.11273264 -0.10676687 0.1891446 -0.09475573 0.036734417 0.16762236
0.07130971 -0.15463081 -0.020019636 -0.08365044 0.14090952 -0.03099798 0.012326496 0.15459646
00000000: fcc5 013e aab6 0c3e d325 3d3c fe98 3f3e
00000010: f150 453d e5de bebd 97b2 c4bd df8b 163e
00000020: 1733 92bd b8ee 193e ad4a 2fbe 76f0 cf36
00000030: 726c 0bbe f968 563d b78e 2d3e 1f4c bd3d
00000040: 3032 78bd 0950 29be 5fe0 e6bd 97a8 dabd
00000050: 1faf 413e 4b0f c2bd d476 163d 32a5 2b3e
00000060: d30a 923d 8a57 1ebe 3800 a4bc ec50 abbd
00000070: 964a 103e 7aef fdbc 12f5 493c 894e 1e3e

net.flow_mapping.0.affine_layers.0.net.10.weight f4 [2, 32]
-0.023774397 0.14094256 -0.13673857 0.11152669 0.08968321 -0.035397977 0.03396663 -0.24805711
0.0064805225 -0.018455299 -0.16503946 -0.096595734 0.13387388 0.0016423779 0.059920523 0.094291866
-0.07909498 0.14573364 -0.3435221 -0.0615279 0.12171884 -0.14669266 -0.15799055 -0.0030572508
-0.12761226 0.095920935 -0.15052012 -0.25647804 -0.017782085 0.14345676 0.27895063 -0.23653403
0.17990091 -0.06724966 0.25978002 0.15868919 -0.21531937 0.15708522 -0.03151688 0.008986326
0.052704662 0.3301595 0.053180195 -0.16616705 -0.05672532 0.16101621 -0.1684736 -0.17422971
-0.14045934 -0.097292505 -0.28952977 0.039331004 0.135604 0.16821955 0.25813317 0.04313448
0.22075394 0.100730374 -0.15202728 0.14064856 -0.22995375 0.13560118 -0.21126369 0.16620623
00000000: 86c2 c2bc 3f53 103e 3205 0cbe 1b68 e43d
00000010: d5ab b73d 78fd 10bd 9820 0b3d af02 7ebe
00000020: 905a d43b 912f 97bc 1b00 29be fcd3 c5bd
00000030: 3c16 093e 0f45 d73a 396f 753d 181c c13d
00000040: 8dfc a1bd 333b 153e 21e2 afbe ae04 7cbd
00000050: ba47 f93d 9a36 16be 46c8 21be 285c 48bb
00000060: caac 02be 3272 c43d f221 1abe 1751 83be
00000070: bcab 91bc 54e6 123e 9ed2 8e3e fa35 72be
00000080: f237 383e 31ba 89bd e301 853e 6b7f 223e
00000090: ae7c 5cbe f3da 203e d817 01bd 623b 133c
000000a0: d8e0 573d aa0a a93e 7ad3 593d b227 2abe
000000b0: cf58 68bd 6fe1 243e 5884 2cbe 4669 32be
000000c0: 93d4 0fbe 4b41 c7bd 3f3d 94be 8c19 213d
000000d0: c6db 0a3e bf41 2c3e 082a 843e c8ad 303d
000000e0: 520d 623e ba4b ce3d 0aad 1bbe 2d06 103e
000000f0: ff78 6bbe 09db 0a3e 8255 58be f731 2a3e

net.flow_mapping.0.affine_layers.0.net.10.bias f4 [2]
0.00392685 0.074390836
00000000: ceac 803b 395a 983d

net.flow_mapping.0.affine_layers.1.net.0.weight f4 [32, 1]
0.19775155 -0.7485183 0.4720379 0.5536056 -0.4640064 -0.7336912 -0.66124177 -0.48505062
-0.12567365 0.013718115 0.041742038 -0.32169947 0.6546024 0.076023385 -0.57886446 -0.3000458
-0.6175518 -0.43202597 -0.8986951 0.26259556 -0.8559782 0.3987358 0.8058048 -0.7998
-0.5261221 -0.7402801 0.33640122 0.26875362 -0.51639915 0.67519456 0.47662222 -0.8690875
00000000: 627f 4a3e e59e 3fbf f4ae f13e 19b9 0d3f
00000010: 3f92 edbe 30d3 3bbf 2447 29bf 8e58 f8be
00000020: 98b0 00be f2c1 603c b3f9 2a3d cbb5 a4be
00000030: 0694 273f 26b2 9b3d 7630 14bf 9a9f 99be
00000040: e017 1ebf 8232 ddbe e210 66bf ed72 863e
00000050: 6321 5bbf 1927 cc3e 3949 4e3f b1bf 4cbf
00000060: f0af 06bf ff82 3dbf c83c ac3e 139a 893e
00000070: bc32 04bf 8dd9 2c3f d407 f43e 857c 5ebf

net.flow_mapping.0.affine_layers.1.net.0.bias f4 [32]
-0.09006732 -0.42222458 -0.20811169 0.6304219 -0.25525358 -0.6152829 0.7492801 -0.9112209
-0.34236014 0.36283055 0.9013603 0.9964475 -0.28913835 0.36714834 -0.8755492 -0.25216183
-0.33784 0.26835844 -0.7531753 0.21901421 0.5317812 0.81554586 -0.080175474 0.90743625
-0.94194496 -0.3973681 0.41290662 0.27914253 0.47175744 -0.66965866 0.6322807 -0.96846735
00000000: 3775 b8bd d22d d8be 3b1b 55be 5463 213f
00000010: 99b0 82be 2e83 1dbf d2d0 3f3f c645 69bf
00000020: d449 afbe edc4 b93e 8cbf 663f 2f17 7f3f
00000030: f109 94be defa bb3e fe23 60bf 5b1b 81be
00000040: 5df9 acbe 4766 893e 19d0 40bf 4345 603e
00000050: d022 083f 9dc7 503f 0a33 a4bd be4d 683f
00000060: 4e23 71bf d573 cbbe 7f68 d33e c5eb 8e3e
00000070: 318a f13e c06e 2bbf 26dd 213f 7aed 77bf

net.flow_mapping.0.affine_layers.1.net.2.weight f4 [32, 32]
-0.17921594 0.023129767 -0.30011714 -0.13940792 -0.12226853 -0.07941214 0.08822033 -0.05623673
-0.0072429627 -0.108946964 -0.12071062 -0.07497487 -0.31646797 0.1594672 -0.061669655 -0.1409757
-0.13137631 0.077934384 -0.11501746 -0.09826479 0.16216333 0.18710342 -0.30008972 0.1492176
-0.028615043 0.045196943 0.10840287 -0.0019801166 0.19870692 0.10842939 -0.08098808 -0.11764631
-0.17461391 0.05643025 -0.13256675 -0.14772348 -0.11297277 -0.17423768 -0.14349216 0.15718688
0.09845431 0.156137 -0.085482806 -0.0722817 -0.061835274 0.003442062 -0.12648188 0.025837585
-0.112960696 0.027850464 0.16143526 0.029768005 0.1285464 -0.12549964 -0.024869159 -0.10882053
-0.019551352 -0.0700977 -0.100058824 -0.17021935 -0.06534637 0.02360101 -0.031003654 -0.16414838
0.13238849 0.13067527 -0.10626596 0.0179144 0.11702369 -0.16738394 -0.15570816 0.09779669
-0.0034907889 0.05612479 -0.07328994 0.03195089 0.11688788 -0.043113872 -0.056925036 -0.1678331
-0.027194291 0.11168201 -0.1665744 -0.0136135 0.12845634 -0.0502982 -0.065112226 -0.053164147
-0.07139881 0.021094771 -0.16966486 0.06735179 -0.04451187 -0.022439882 -0.011890642 0.098462984
-0.037133038 -0.16037218 -0.05223859 -0.10440227 -0.08606188 0.13921864 -0.24985103 -0.10360135
-0.14366198 -0.08151994 -0.0026346794 -0.12206423 0.06757513 0.068741426 -0.029987112 0.07604854
0.040441588 -0.08136185 -0.008997157 0.17946109 -0.115278654 0.10087437 0.15023287 -0.21188834
-0.1180378 0.07526778 0.0851919 0.18224695 -0.11982676 0.1906099 0.14249 0.005692318
0.16547017 -0.08990085 -0.057821974 0.0076144226 0.09399228 -0.15448269 -0.049337342 0.12797983
0.03669694 0.124597386 -0.059701614 -0.11110156 -0.12032926 -0.09908977 -0.13244672 0.08733688
0.04736972 -0.112770766 0.16154121 0.050171703 0.06558755 -0.07426189 0.12200923 -0.12431632
0.12845497 -0.095772356 0.0748599 -0.06375027 0.114488736 -0.14781049 -0.034367114 -0.047569618
-0.105394594 -0.08656345 -0.049459144 0.018273935 0.12507482 -0.028959826 0.17274018 -0.08387688
-0.09073905 -0.009193197 -0.031901926 0.05598241 0.16284747 0.060347766 -0.1474743 -0.060218483
-0.035007477 -0.1604805 0.054489642 0.15386234 0.08752857 -0.0034899395 -0.013416342 -0.08253754
-0.01957728 0.15454794 -0.09061663 0.028197914 -0.12930253 -0.048196375 0.010205828 -0.13308163
0.11375053 -0.2717662 -0.0033830684 0.119444035 0.080783464 -0.26685637 -0.09927687 -0.14469954
-0.043309137 -0.06704487 0.16799372 -0.08125751 0.16353263 0.052987054 -0.05359935 -0.106569715
-0.017091762 0.037618924 -0.36026135 -0.07396408 0.102982044 0.161889 -0.072905906 -0.04785333
-0.17218336 0.018694678 0.17411287 0.12013175 -0.050763227 0.33713177 -0.051361054 0.034402728
0.1605384 -0.23370476 0.10373337 0.06464278 -0.16057204 -0.042800695 0.17441288 0.14729674
-0.0015898179 -0.07670328 -0.073696226 0.10499053 0.014699635 0.15399484 0.14760427 -0.19521803
-0.23345707 0.12262747 -0.04051032 -0.06081415 -0.036762927 -0.03705171 0.0114946775 -0.09649842
0.094114676 0.016913159 -0.069462515 -0.07012585 -0.024894124 0.33521822 0.102496505 0.007345378
00000000: 6284 37be a37a bd3c f4a8 99be f3c0 0ebe
00000010: ec67 fabd d5a2 a2bd dcac b43d 7c58 66bd
00000020: 6056 edbb 961f dfbd 2137 f7bd 6d8c 99bd
00000030: 1708 a2be 5f4b 233e 5299 7cbd ef5b 10be
00000040: 8387 06be 109c 9f3d 468e ebbd 0d3f c9bd
00000050: 250e 263e 0a98 3f3e 5ca5 99be 80cc 183e
00000060: 186a eabc 6e20 393d 5302 de3d d8c4 01bb
00000070: d479 4b3e 3a10 de3d 14dd a5bd 8cf0 f0bd
00000080: fdcd 32be 6823 673d 94bf 07be d344 17be
00000090: 455e e7bd 5d6b 32be 9cef 12be 99f5 203e
000000a0: 6aa2 c93d 61e2 1f3e 9c11 afbd 6e08 94bd
000000b0: fc46 7dbd 3894 613b 7784 01be 58a9 d33c
000000c0: f057 e7bd a826 e43c 494f 253e 08dc f33c
000000d0: aba1 033e fa82 00be 68ba cbbc 4cdd debd
000000e0: 282a a0bc 628f 8fbd a4eb ccbd fb4d 2ebe
000000f0: 51d4 85bd e856 c13c 60fb fdbc 8316 28be
00000100: d990 073e bdcf 053e f8a1 d9bd 38c1 923c
00000110: 1eaa ef3d b266 2bbe f671 1fbe a249 c83d
00000120: b8c5 64bb 1ce3 653d 0919 96bd f0de 023d
00000130: ea62 ef3d 2c98 30bd 3a2a 69bd 71dc 2bbe
00000140: 90c6 debc 8ab9 e43d 7b92 2abe 280b 5fbc
00000150: 0f8a 033e 7c05 4ebd 8f59 85bd a6c2 59bd
00000160: 8a39 92bd f1ce ac3c a0bc 2dbe bcef 893d
00000170: 1452 36bd d8d3 b7bc f8d0 42bc f6a6 c93d
00000180: d018 18bd 9b38 24be 22f8 55bd dbd0 d5bd
00000190: 3641 b0bd 558f 0e3e f3d8 7fbe f22c d4bd
000001a0: 201c 13be edf3 a6bd 96aa 2cbb d0fc f9bd
000001b0: d464 8a3d 4ec8 8c3d 88a7 f5bc 56bf 9b3d
000001c0: 14a6 253d 0ba1 a6bd d068 13bc a6c4 373e
000001d0: 3717 ecbd 3997 ce3d a5d6 193e 42f9 58be
000001e0: cdbd f1bd fe25 9a3d 1779 ae3d f29e 3a3e
000001f0: bb67 f5bd 3e2f 433e e6e8 113e a086 ba3b
00000200: 0371 293e f01d b8bd bcd6 6cbd 6882 f93b
00000210: 067f c03d b630 1ebe f415 4abd 250d 033e
00000220: 884f 163d ea2c ff3d ae89 74bd 3789 e3bd
00000230: 306f f6bd 94ef cabd 1da0 07be aedd b23d
00000240: c006 423d 5cf4 e6bd 0f6b 253e d880 4d3d
00000250: c452 863d 9e16 98bd fadf f93d 8e99 febd
00000260: b389 033e 4c24 c4bd 2650 993d 808f 82bd
00000270: 1279 ea3d a25b 17be 88c4 0cbd 5cd8 42bd
00000280: 1fd9 d7bd 2e48 b1bd ac95 4abd 38b3 953c
00000290: 9d13 003e 283d edbc cde2 303e a4c7 abbd
000002a0: 65d5 b9bd 109f 16bc 98ab 02bd d04d 653d
000002b0: 7dc1 263e 382f 773d 8103 17be a8a7 76bd
000002c0: 0064 0fbd 0055 24be 8830 5f3d 178e 1d3e
000002d0: 2e42 b33d 78b7 64bb 38d0 5bbc 7109 a9bd
000002e0: 8860 a0bc d141 1e3e 3695 b9bd 50ff e63c
000002f0: e267 04be 9069 45bd 5836 273c 8d46 08be
00000300: 0af6 e83d f024 8bbe 78b6 5dbb 139f f43d
00000310: cd71 a53d 66a1 88be ac51 cbbd 1e2c 14be
00000320: ec64 31bd d24e 89bd 8c06 2c3e 566a a6bd
00000330: 1975 273e f408 593d fe8a 5bbd 3941 dabd
00000340: 0604 8cbc 4d16 1a3d 2d74 b8be 7b7a 97bd
00000350: 40e8 d23d 3bc6 253e b14f 95bd da01 44bd
00000360: d650 30be 9525 993c a54a 323e a307 f63d
00000370: 1aed 4fbd 899c ac3e f85f 52bd e0e9 0c3d
00000380: 2e64 243e 4d50 6fbe 2972 d43d 6f63 843d
00000390: ff6c 24be c84f 2fbd 4a99 323e f5d4 163e
000003a0: 7061 d0ba 9c16 9dbd 0cee 96bd 4605 d73d
000003b0: bdd6 703c d3b0 1d3e 9325 173e 3ce7 47be
000003c0: 5f0f 6fbe 1c24 fb3d 26ee 25bd 4218 79bd
000003d0: b994 16bd 89c3 17bd 2c54 3c3c f7a0 c5bd
000003e0: 32bf c03d 778d 8a3c 5d42 8ebd 249e 8fbd
000003f0: c3ee cbbc b9a1 ab3e b0e9 d13d 7fb1 f03b

net.flow_mapping.0.affine_layers.1.net.2.bias f4 [32]
0.045431662 -0.11507033 0.09739216 0.013224064 -0.08921108 -0.17047767 0.1660096 0.1984048
-0.0038019053 -0.005013607 0.11267448 0.10286666 0.012027971 0.14743249 -0.11249976 -0.020196646
0.1991714 -0.10904532 -0.062125918 -0.07724933 -0.056593623 0.16006559 0.1423862 -0.15363267
-0.06457471 -0.07084649 -0.057299875 -0.081051104 -0.17385373 0.13376933 0.12040829 0.039920375
00000000: 8d16 3a3d fea9 ebbd 8a75 c73d bfa9 583c
00000010: 4cb4 b6bd b391 2ebe 6cfe 293e a12a 4b3e
00000020: 6329 79bb 2f49 a4bb e1c1 e63d c1ab d23d
00000030: f810 453c 8bf8 163e 4666 e6bd 7073 a5bc
00000040: 96f3 4b3e 2753 dfbd bf77 7ebd e634 9ebd
00000050: b7ce 67bd 3ce8 233e b0cd 113e e251 1dbe
00000060: bf3f 84bd f717 91bd 46b3 6abd 1ffe a5bd
00000070: b606 32be d4fa 083e 9f98 f63d 8c83 233d

net.flow_mapping.0.affine_layers.1.net.4.weight f4 [32, 32]
-0.0590062 -0.17081693 -0.0110336095 0.07059151 -0.05114749 0.1387461 0.0785785 0.013793656
0.17506024 0.10608326 -0.16510645 0.04259542 -0.16067083 -0.0053270822 -0.042994455 0.13457598
-0.14892001 0.062604934 -0.06648078 0.14838913 0.02468015 -0.050621 0.094569355 0.20617856
0.14382526 -0.25425535 -0.045678884 0.2180817 0.113738835 0.0017630388 -0.006889714 0.10564532
0.009548335 0.011695631 0.13266678 -0.048441283 -0.046115965 0.033550575 -0.2775278 -0.01159378
0.13378346 0.008738704 -0.112766795 0.002258065 0.19277902 0.023993304 0.111458555 -0.093279794
-0.20685337 -0.06627177 -0.09337969 0.26674584 0.038050126 -0.21741067 0.042739145 0.036909834
-0.14419468 -0.07378142 0.032740787 0.22481371 0.29306868 0.068972826 -0.22294344 0.1648607
0.20800081 -0.05237712 0.0060766973 0.23546305 -0.061973467 0.08355819 0.04182511 0.12535696
0.096359454 0.17041 0.23929462 -0.093812734 0.13040365 -0.04824896 -0.10648652 0.029560432
-0.036459472 -0.11484275 -0.17688692 -0.19087835 0.11076174 0.12692583 0.07359692 0.007199645
0.15545116 0.09491143 -0.11093276 -0.022968965 -0.29537356 0.23377602 0.09126623 -0.19767031
0.20764658 0.08217539 0.14822422 0.15837997 -0.03067121 0.15998329 0.02854852 0.043208353
0.058039118 -0.152616 -0.06370982 0.18936248 -0.09034612 0.087728284 0.10806295 -0.14306915
-0.040425684 -0.0018858761 0.10403899 -0.13287464 0.20358548 -0.13710777 0.034688845 0.0683149
-0.07087521 0.19805926 -0.11226169 -0.028515516 -0.036830734 -0.038762465 0.1968175 -0.21213676
-0.006495468 0.13766392 0.030878574 0.138683 0.103884414 -0.11535448 0.02719059 0.19381705
-0.08870737 0.034745406 0.19108525 0.03926818 -0.02843172 0.080874816 -0.15023501 0.14479093
0.1548315 -0.04935798 -0.060191657 -0.13810426 0.2328673 -0.037808772 0.02271458 -0.21944657
0.07504352 0.32858023 0.05704023 -0.09880081 -0.118319795 0.20532916 0.12490581 -0.19028884
-0.15352759 0.12843426 -0.06561381 0.11024762 -0.03541626 0.0029249135 -0.13835402 -0.06567689
0.014977621 -0.16946949 -0.03795204 0.09229953 0.11331984 0.12021195 -0.05674765 0.013873436
-0.15182775 0.0913042 0.02483812 0.1370182 -0.02741696 0.16484477 0.07566645 0.13980125
-0.022759853 -0.13830134 -0.13823445 -0.17736052 0.015541619 -0.13944441 -0.06777636 0.08879083
0.16021402 -0.04420191 0.12201159 -0.013353579 -0.035264075 -0.020858854 -0.079910316 0.04823795
-0.0009539542 -0.08586325 0.112105 -0.07872708 -0.11936943 0.06117721 -0.010821745 -0.09702306
-0.14386132 -0.05280769 -0.1349497 0.095857546 -0.021952137 0.09078191 0.085780665 0.014196835
-0.027134001 -0.090903506 0.039674833 -0.15326867 -0.08587347 0.14052634 -0.034211278 0.14216281
0.06907349 -0.037153795 -0.14183931 0.06367051 0.014847323 0.16656892 -0.16364507 0.012454135
-0.2116264 -0.0012813988 -0.23672588 -0.16994268 0.0065669343 0.21003129 0.008884215 -0.01632747
0.20198828 0.01613149 -0.06529195 0.1777328 0.031314973 0.13747454 0.1852546 0.18917221
-0.030191122 -0.22211589 -0.06430517 0.042166922 0.19027892 -0.19304395 0.03842234 0.05226004
00000000: 7cb0 71bd a2ea 2ebe 50c6 34bc 4892 903d
00000010: 0880 51bd 7513 0e3e c4ed a03d c9fe 613c
00000020: fe42 333e 2e42 d93d aa11 29be 8978 2e3d
00000030: e586 24be ce8e aebb f41a 30bd 49ce 093e
00000040: 7d7e 18be 0437 803d 1327 88bd 52f3 173e
00000050: 072e ca3c f757 4fbd 94ad c13d 7920 533e
00000060: ee46 133e c22d 82be c819 3bbd cf50 5f3e
00000070: e8ef e83d c415 e73a 1cc3 e1bb 935c d83d
00000080: 9f70 1c3c 089f 3f3c cdd9 073e 5e6a 46bd
00000090: 18e4 3cbd 546c 093d 2018 8ebe d6f3 3dbc
000000a0: 88fe 083e c82c 0f3c 47f2 e6bd 0bfc 133b
000000b0: dd67 453e 9b8d c43c 6244 e43d 7a09 bfbd
000000c0: 5fd1 53be 7eb9 87bd da3d bfbd e992 883e
000000d0: 73da 1b3d e7a0 5ebe 3e0f 2f3d c42e 173d
000000e0: c5a7 13be b71a 97bd 341b 063d 9135 663e
000000f0: 190d 963e a041 8d3d 494b 64be 3ed1 283e
00000100: 2afe 543e 6489 56bd 081f c73b 3a1d 713e
00000110: e4d7 7dbd 8e20 ab3d ce50 2b3d 935d 003e
00000120: 1b58 c53d f67f 2e3e a609 753e e420 c0bd
00000130: 8988 053e b4a0 45bd 9b15 dabd b828 f23c
00000140: 8756 15bd ad32 ebbd d821 35be 9d75 43be
00000150: 0dd7 e23d d8f8 013e fbb9 963d 00eb eb3b
00000160: 972e 1f3e ec60 c23d b730 e3bd 6929 bcbc
00000170: 343b 97be fb62 6f3e cae9 ba3d 166a 4abe
00000180: 4ea1 543e 924b a83d 17c8 173e 5c2e 223e
00000190: 3042 fbbc a9d2 233e 96de e93c 3efb 303d
000001a0: 6dba 6d3d 5e47 1cbe 4b7a 82bd 3de8 413e
000001b0: 6307 b9bd e3aa b33d 1c50 dd3d b880 12be
000001c0: 6795 25bd 802f f7ba 6512 d53d 4a10 08be
000001d0: b678 503e fb65 0cbe e415 0e3d afe8 8b3d
000001e0: 0627 91bd 0cd0 4a3e 75e9 e5bd 5f99 e9bc
000001f0: d3db 16bd 64c5 1ebd 878a 493e 613a 59be
00000200: efd7 d4bb c5f7 0c3e 10f5 fc3c eb02 0e3e
00000210: 5ac1 d43d f83e ecbd cdbe de3c fa77 463e
00000220: 36ac b5bd 3351 0e3d daab 433e acd7 203d
00000230: a3e9 e8bc b2a1 a53d 35d7 19be 1344 143e
00000240: 268c 1e3e 982b 4abd 878b 76bd 346b 0dbe
00000250: c474 6e3e 5fdd 1abd ed13 ba3c 9ab6 60be
00000260: 6bb0 993d ab3b a83e 04a3 693d 1458 cabd
00000270: a651 f2bd cf41 523e 9ece ff3d 14db 42be
00000280: 5636 1dbe 4584 033e 8960 86bd 81c9 e13d
00000290: a410 11bd e8af 3f3b adac 0dbe 9b81 86bd
000002a0: b264 753c 6989 2dbe 9973 1bbd 8907 bd3d
000002b0: 3b14 e83d af31 f63d 3970 68bd 684d 633c
000002c0: bc78 1bbe b2fd ba3d 5079 cb3c 804e 0c3e
000002d0: 8899 e0bc 11cd 283e 03f7 9a3d 0f28 0f3e
000002e0: df72 babc de9e 0dbe 558d 0dbe ff9d 35be
000002f0: 46a2 7e3c 84ca 0ebe 55ce 8abd f7d7 b53d
00000300: 250f 243e 100d 35bd 36e1 f93d f8c8 5abc
00000310: 1071 10bd 30e0 aabc 05a8 a3bd 2895 453d
00000320: c812 7aba 12d9 afbd 4e97 e53d aa3b a1bd
00000330: f677 f4bd f494 7a3d b04d 31bc 07b4 c6bd
00000340: 6250 13be e04c 58bd 4130 0abe f650 c43d
00000350: f8d4 b3bc deeb b93d c6ad af3d d899 683c
00000360: 2048 debc 9e2b babd 1482 223d 76f2 1cbe
00000370: 6ede afbd 23e6 0f3e 2021 0cbd 2193 113e
00000380: 6776 8d3d 942e 18bd 533e 11be af65 823d
00000390: 3042 733c 0b91 2a3e 9392 27be 6e0c 4c3c
000003a0: 97b4 58be 9cf4 a7ba 4568 72be 7405 2ebe
000003b0: 702f d73b 7112 573e 198f 113c 30c1 85bc
000003c0: 04d6 4e3e 3026 843c c9b7 85bd 96ff 353e
000003d0: 2144 003d 20c6 0c3e 62b3 3d3e 5cb6 413e
000003e0: 5f53 f7bc 5972 63be 6eb2 83bd 39b7 2c3d
000003f0: 7ad8 423e 50ad 45be be60 1d3d a00e 563d

net.flow_mapping.0.affine_layers.1.net.4.bias f4 [32]
0.06713933 0.018592075 -0.06747766 0.15306401 0.039489817 -0.06762107 -0.1609762 0.17171688
-0.17475535 0.1682834 -0.037022147 -0.032261997 0.038883734 0.19192877 -0.116013005 -0.12778118
0.10297931 -0.085589714 -0.050541844 0.113470316 -0.073052995 0.08538833 -0.068744205 0.18345845
0.20153789 0.05607624 -0.0503407 0.14533736 0.07704173 0.0007650801 0.16452055 0.0068228496
00000000: 5880 893d 684e 983c ba31 8abd d0bc 1c3e
00000010: 13c0 213d ea7c 8abd f2d6 24be 8dd6 2f3e
00000020: 11f3 32be 7c52 2c3e 89a4 17bd 2825 04bd
00000030: 8d44 1f3d fa88 443e 3a98 edbd 12d9 02be
00000040: d1e6 d23d a949 afbd f704 4fbd 2063 e83d
00000050: cf9c 95bd 14e0 ae3d c3c9 8cbd 88dc 3b3e
00000060: f35f 4e3e 33b0 653d 0d32 4ebd 51d3 143e
00000070: 0ec8 9d3d a88f 483a 1378 283e 3692 df3b
