param/das_pde_stage3.pth (torch, 95247 bytes, 5 tensors)

input_layer.weight f4 [150, 2]
-0.24345474 0.14756094 -0.27604488 0.20228995 -0.43003443 -0.119245775 0.5737653 -0.32248187
-0.56615245 -0.3758726 -0.3496841 -0.230068 0.5276774 -0.19332378 0.5569433 0.47028092
0.2790046 0.3484998 0.20462877 -0.5556818 0.41418627 -0.27099818 -0.5778401 0.537258
-0.5257374 -0.03202785 -0.66568583 -0.6534396 0.33200562 0.14684989 0.50692976 -0.36525962
-0.38056043 -0.3034149 0.66388035 0.4659874 -0.6829667 -0.11455462 -0.362934 0.16081281
-0.2604312 -0.5598777 -0.50189835 -0.26651457 -0.6553981 -0.60916334 -0.671508 -0.24169642
-0.1898313 0.27641106 0.6568913 0.3716187 -0.5604334 0.087821014 -0.26491782 -0.06452057
0.3005861 -0.21544008 0.66582894 -0.31204957 -0.43114653 -0.34031183 -0.6628402 0.07973803
-0.50678366 0.50940835 -0.64644724 -0.38986668 -0.36477935 -0.32699552 0.0520666 -0.679189
0.2518666 0.059537645 -0.16895632 -0.02959469 0.30445015 -0.3556046 -0.24208978 0.29613802
0.5233409 0.5509798 -0.4611018 -0.5746659 -0.4415663 -0.42555577 -0.57873386 0.1132538
0.17333692 0.24398784 0.14964621 -0.31970203 0.47817266 0.59059674 -0.2407157 0.6057486
0.21281596 0.12336074 0.39714712 -0.27451676 0.25761905 -0.2860485 0.16504598 0.52040035
0.018109186 -0.6444888 -0.28456306 -0.052928325 0.37930217 0.15680486 -0.1806935 0.6322568
0.62418234 -0.37257236 -0.3548928 0.28367084 0.36770582 0.084170826 0.605965 -0.15952273
-0.186823 -0.3119263 0.6140656 -0.43805343 0.50447905 -0.5999924 0.58283293 0.23578246
-0.4827262 -0.2771502 0.14526466 0.5838548 -0.092771515 -0.68163246 -0.67133355 -0.44334143
0.36860913 0.5046789 -0.5669622 0.5126831 0.3079875 0.5966366 -0.6219878 -0.5596247
-0.641402 -0.41118935 0.24798116 0.24259275 -0.19350271 -0.4489401 0.3129831 0.18397462
0.1937984 -0.24084952 0.61989945 0.117091365 -0.6337664 -0.33003235 0.06556474 0.4057896
-0.0011284155 -0.09722348 -0.032887317 -0.4919334 0.5771987 -0.39876708 0.22123535 0.46583912
-0.5534658 -0.014279939 -0.13709722 -0.07028868 0.24416982 -0.4244758 -0.040702105 -0.3989523
0.29033166 -0.293423 0.27122298 0.14279601 0.42486703 -0.42155644 -0.6295224 0.30345142
-0.6634171 -0.022321882 -0.45490295 -0.4975865 -0.14314792 -0.6644987 0.105613194 -0.10597918
-0.20127197 -0.3227705 0.21293777 -0.09398601 -0.06855041 0.16073428 0.25031412 -0.19590752
0.5035759 0.4665658 -0.094741665 -0.5594973 0.5728553 0.30197045 -0.65587074 -0.19241443
0.6458121 0.3486435 0.4754884 -0.35966316 0.1524411 -0.39490074 -0.22731252 0.33339232
-0.18604115 -0.63638955 -0.55423915 0.056255907 -0.2765304 0.31314206 -0.29934612 0.09128289
-0.47965562 -0.23002067 0.1196051 -0.32496828 -0.330577 -0.15511286 0.2932838 0.5655046
0.16973346 0.20185421 -0.3237817 -0.5692389 0.6069951 0.41866034 -0.39291504 -0.12229452
0.14324863 0.19695862 -0.5180265 -0.544928 0.4742342 -0.48741496 0.10414173 0.082013465
-0.66314214 -0.40373296 -0.46855474 0.3262561 0.16069663 0.43946776 0.17255054 0.13356164
00000000: 334c 79be 371a 173e c155 8dbe 1925 4f3e
00000010: 792d dcbe 2137 f4bd 48e2 123f 581c a5be
00000020: 5eef 10bf 6072 c0be cb09 b3be f296 6bbe
00000030: de15 073f abf6 45be d693 0e3f a9c8 f03e
00000040: b1d9 8e3e 916e b23e 348a 513e 2a41 0ebf
00000050: 3910 d43e 46c0 8abe 54ed 13bf be89 093f
00000060: ba96 06bf a32f 03bd 636a 2abf d147 27bf
00000070: a4fc a93e d15f 163e 26c6 013f 4f03 bbbe
00000080: d1d8 c2be 3359 9bbe 10f4 293f e795 ee3e
00000090: e8d6 2ebf 9d9b eabd 7cd2 b9be 1dac 243e
000000a0: 3d57 85be 2554 0fbf 697c 00bf 9974 88be
000000b0: 2bc8 27bf 21f2 1bbf f3e7 2bbf 447f 77be
000000c0: 2363 42be c085 8d3e 072a 283f ce44 be3e
000000d0: 9078 0fbf 81db b33d 4fa3 87be 5c23 84bd
000000e0: 6ce6 993e 539c 5cbe c473 2a3f f6c4 9fbe
000000f0: 3dbf dcbe 5a3d aebe e5af 29bf b14d a33d
00000100: 93bc 01bf 9668 023f 917d 25bf 9b9c c7be
00000110: 5cc4 babe f56b a7be ca43 553d 55df 2dbf
00000120: a9f4 803e bfdd 733d e302 2dbe 9070 f2bc
00000130: e4e0 9b3e ce11 b6be 62e6 77be 679f 973e
00000140: abf9 053f 030d 0d3f 8915 ecbe 4e1d 13bf
00000150: fa14 e2be 72e2 d9be e727 14bf 9cf1 e73d
00000160: 3c7f 313e f3d7 793e db3c 193e fcaf a3be
00000170: 0cd3 f43e 5931 173f 2d7e 76be 5712 1b3f
00000180: 6dec 593e 8ea4 fc3d de56 cb3e 768d 8cbe
00000190: a5e6 833e f374 92be d001 293e f538 053f
000001a0: b759 943c 38fd 24bf 40b2 91be 5fcb 58bd
000001b0: e533 c23e 7491 203e b807 39be 95db 213f
000001c0: 6aca 1f3f cec1 bebe 82b4 b5be 4e3d 913e
000001d0: f043 bc3e c161 ac3d 8620 1b3f ed59 23be
000001e0: 874e 3fbe ceb4 9fbe 6733 1d3f 8a48 e0be
000001f0: 8a25 013f 1a99 19bf 8a34 153f f570 713e
00000200: e327 f7be a2e6 8dbe 42c0 143e 8277 153f
00000210: fefe bdbd 777f 2ebf 84dc 2bbf a6fd e2be
00000220: 56ba bc3e a332 013f 6f24 11bf 333f 033f
00000230: 8ab0 9d3e 2dbd 183f 983a 1fbf 9043 0fbf
00000240: ec32 24bf 6987 d2be c6ee 7d3e 3c6a 783e
00000250: 9325 46be 7adb e5be 523f a03e d863 3c3e
00000260: 1673 463e 42a1 76be bbb1 1e3f 99cd ef3d
00000270: 843e 22bf 00fa a8be ce46 863d a8c3 cf3e
00000280: 57e7 93ba 1b1d c7bd dab4 06bd b2de fbbe
00000290: 4bc3 133f 332b ccbe 858b 623e 7782 ee3e
000002a0: efaf 0dbf 68f6 69bc 3763 0cbe 83f3 8fbd
000002b0: a707 7a3e e454 d9be 40b7 26bd 7a43 ccbe
000002c0: 5aa6 943e 8a3b 96be bddd 8a3e 1e39 123e
000002d0: 2c88 d93e 3fd6 d7be 6128 21bf fc5d 9b3e
000002e0: b4d5 29bf 61dc b6bc 0ae9 e8be a8c3 febe
000002f0: 5e95 12be 961c 2abf bb4b d83d 9d0b d9bd
00000300: 3d1a 4ebe 2d42 a5be 5c0c 5a3e bd7b c0bd
00000310: 2864 8cbd 8797 243e 2c29 803e fb9b 48be
00000320: 5aea 003f b6e1 ee3e eb07 c2bd 373b 0fbf
00000330: a5a6 123f df9b 9a3e 25e7 27bf 4a08 45be
00000340: f153 253f 6781 b23e 3773 f33e c525 b8be
00000350: 8519 1c3e 6e30 cabe 9dc4 68be 66b2 aa3e
00000360: 9281 3ebe 6dea 22bf 9ee2 0dbf 986c 663d
00000370: 6595 8dbe 2854 a03e e543 99be 86f2 ba3d
00000380: 6c95 f5be 8a8a 6bbe 85f3 f43d 3e62 a6be
00000390: 6341 a9be e8d5 1ebe 4b29 963e e9c4 103f
000003a0: 9cce 2d3e dfb2 4e3e b7c6 a5be a4b9 11bf
000003b0: 0864 1b3f a65a d63e 292c c9be 8d75 fabd
000003c0: c5af 123e 85af 493e 629d 04bf 6780 0bbf
000003d0: d3ce f23e 748e f9be 4248 d53d adf6 a73d
000003e0: afc3 29bf 16b6 cebe 68e6 efbe 0a0b a73e
000003f0: a88d 243e eb01 e13e 17b1 303e 62c4 083e

input_layer.bias f4 [150]
0.21467552 0.34494713 -0.10615141 -0.06654569 0.6107045 0.2883647 -0.31288263 0.5338344
-0.58975416 0.30165675 0.30947298 -0.587065 0.022866702 -0.6081311 -0.55664194 0.6318015
0.24893798 0.20202425 0.5991158 0.17754199 -0.14945623 -0.31583095 0.39924866 0.35327965
-0.57855135 0.4548576 -0.57861274 0.5684745 -0.20651537 0.23266867 0.3341408 0.13161479
-0.22459678 0.67992866 0.50495493 0.3738515 -0.46045583 0.0842681 0.6278362 -0.3875609
0.27590176 0.10935383 -0.687314 0.4540164 0.03430988 -0.14245084 0.43635198 -0.25999933
0.29605716 0.26371393 -0.68279135 -0.11298204 0.052283585 -0.18261921 0.5590697 -0.23857987
0.43427432 0.2428092 -0.49040088 -0.6561325 0.30051443 0.026510982 -0.23289391 -0.6885014
-0.5916892 -0.39380842 -0.15644999 0.639224 -0.59700346 -0.1545552 0.43129838 -0.4978171
0.5241632 -0.09704408 -0.010430137 -0.5961159 -0.6975286 0.012584095 -0.30322748 -0.59601253
-0.35382795 0.43799543 0.3140099 -0.34403497 -0.407077 -0.6748557 -0.16060959 0.4586084
0.049388763 0.46396908 -0.17768995 0.33521625 -0.1837294 -0.5964407 -0.3088315 -0.6626317
0.38101658 -0.054621473 0.60935426 -0.5169396 -0.51285565 0.100672245 0.15453154 0.6614831
-0.26382664 0.002767356 0.44654733 -0.71399415 -0.08166461 -0.67429143 -0.60419846 -0.56141865
-0.30372646 -0.65200335 0.696588 -0.5394722 0.62303054 0.46771008 0.16555174 -0.57614577
0.59723103 -0.2436058 0.22886671 0.4162355 0.6066155 -0.5764289 0.105627485 0.48486024
0.35013068 -0.02523392 0.24280852 0.025877384 -0.33587387 0.6897663 -0.17274435 -0.22982766
-0.45528042 -0.7033753 0.47891214 -0.22746009 0.31417614 -0.24975722 0.51907235 0.59980434
-0.6361136 0.2978847 -0.5727931 0.47851044 -0.34137905 0.2367221
00000000: e6d3 5b3e e99c b03e e965 d9bd 1b49 88bd
00000010: 2157 1c3f 8aa4 933e 2732 a0be 5fa9 083f
00000020: 21fa 16bf c172 9a3e 3e73 9e3e e449 16bf
00000030: f352 bb3c 7bae 1bbf 1680 0ebf bebd 213f
00000040: 99e9 7e3e 72df 4e3e a75f 193f 91cd 353e
00000050: 0e0b 19be 98b4 a1be 526a cc3e 12e1 b43e
00000060: f11b 14bf 18e3 e83e f71f 14bf 8b87 113f
00000070: c478 53be b240 6e3e 8114 ab3e 07c6 063e
00000080: b3fc 65be ce0f 2e3f ba44 013f 7769 bf3e
00000090: dec0 ebbe c194 ac3d e0b9 203f 626e c6be
000000a0: ff42 8d3e e7f4 df3d cff3 2fbf d674 e83e
000000b0: 8488 0c3d a2de 11be 8769 df3e a21e 85be
000000c0: ce94 973e 8305 873e 6acb 2ebf 2163 e7bd
000000d0: 5027 563d 8800 3bbe 311f 0f3f 484e 74be
000000e0: 3459 de3e faa2 783e d315 fbbe 4df8 27bf
000000f0: 07dd 993e 8f2d d93c be7b 6ebe a141 30bf
00000100: f278 17bf 42a1 c9be 6d34 20be 2fa4 233f
00000110: 38d5 18bf b843 1ebe 24d3 dc3e e2e1 febe
00000120: 8f2f 063f 0cbf c6bd 2ae3 2abc 0d9b 18bf
00000130: 3c91 32bf 852d 4e3c a240 9bbe 4794 18bf
00000140: f028 b5be f040 e03e e8c5 a03e 5a25 b0be
00000150: 666c d0be 58c3 2cbf d776 24be b8ce ea3e
00000160: df4b 4a3d 5b8d ed3e 5bf4 35be 77a1 ab3e
00000170: 8f23 3cbe 56b0 18bf 2a1f 9ebe 3ba2 29bf
00000180: 9b14 c33e c4ba 5fbd a4fe 1b3f 2756 04bf
00000190: 824a 03bf 402d ce3d 843d 1e3e f556 293f
000001a0: 4914 87be 885c 353b daa1 e43e 52c8 36bf
000001b0: c63f a7bd 5d9e 2cbf c0ac 1abf 22b9 0fbf
000001c0: 0982 9bbe b1e9 26bf 9753 323f da1a 0abf
000001d0: ee7e 1f3f b277 ef3e 6586 293e 4a7e 13bf
000001e0: 22e4 183f cd73 79be 095c 6a3e d21c d53e
000001f0: 274b 1b3f d890 13bf 3953 d83d 9a3f f83e
00000200: 5444 b33e 5eb7 cebc cca2 783e cffc d33c
00000210: a9f7 abbe 8694 303f e5e3 30be f157 6bbe
00000220: 841a e9be 6710 34bf f933 f53e 4ceb 68be
00000230: b2db a03e 5bc0 7fbe ede1 043f c78c 193f
00000240: 57d8 22bf 5884 983e 92a2 12bf 52ff f43e
00000250: 3cc9 aebe 4767 723e

hidden_layers.0.weight f4 [150, 150]
-0.016334157 -0.0106359655 0.03377457 -0.06902224 0.06131616 -0.034245573 -0.0014283172 0.054549042
0.04828248 -0.032073908 0.052225903 0.006320192 0.023330875 -0.027060218 -0.055986747 -0.013311611
-0.05896823 0.029030232 -0.0362681 -0.026819382 -0.039144233 0.055632938 -0.07279997 -0.069080025
-0.053723063 -0.053023886 0.07688817 -0.030715842 0.049194977 0.038159337 -0.056855656 -0.068243064
0.048423227 -0.0578296 0.066628106 0.054968514 -0.002035469 0.036162995 0.061352033 0.018505014
0.05206831 0.019648641 -0.048718706 -0.07634127 -0.059643213 -0.069268696 0.039153807 -0.03022583
0.042123523 -0.027716497 0.018236792 0.043326218 -0.020891676 0.08538396 -0.018594123 -0.051812988
-0.0017401474 -0.032032043 0.06302457 0.059387185 0.04035492 0.012753565 -0.039523564 0.055111837
-0.0153558515 0.06896595 -0.05268447 -0.07046287 0.06829865 0.071780354 -0.057237178 0.044451475
-0.023133297 0.08105408 0.004592011 -0.010527979 -0.033308443 -0.0062480313 -0.033273704 0.043710858
-0.016629273 0.022378318 -0.016377421 0.029274667 -0.02447071 -0.024592191 -0.023987237 0.07425612
0.036740877 -0.047237728 0.027917588 -0.01334045 0.015622843 -0.03623021 0.033025026 -0.011636424
0.05806067 -0.017844548 -0.03587381 -0.0019151587 0.063243695 0.0031669626 0.01131815 -0.028371258
0.011068133 0.014724582 -0.07009109 0.076133795 0.0006069474 -0.027249252 -0.049613908 0.0547919
0.044306505 -0.03666335 0.058218457 -0.06421706 -0.014113658 0.007128732 0.068150796 -0.060853984
0.03886592 -0.011991065 0.015609898 3.0383246e-05 0.0134254815 0.043212708 -0.014548521 -0.054485083
-0.029788863 0.05872472 0.03619214 -0.07706922 0.050113603 0.052953385 -0.044156298 -0.023227287
0.018707242 0.07162906 0.06033556 0.012174903 -0.013675833 0.053480763 0.075381964 0.060062215
0.03642717 0.03056482 0.04852277 0.028871424 -0.032668665 0.063637994 0.053005807 0.09884982
-0.058644325 -0.011584287 0.061156124 0.028179586 0.06858383 -0.054586824 0.07991332 0.06929907
0.008782323 0.038340025 -0.047229614 0.03639843 -0.04755568 -0.008150121 -0.0528565 -0.018313274
0.008704977 0.05200045 0.011451746 -0.05710092 0.046671394 -0.030468062 0.08416461 0.031146662
-0.0096223885 0.047217853 -0.017322507 -0.011037327 0.04437622 -0.04979481 -0.013033881 0.020916373
-0.08275497 -0.08130664 0.049806118 -0.031725794 -0.054836597 0.041344736 0.0468441 0.028163854
-0.052745182 -0.03793457 0.04757389 -0.0010959317 0.055140622 0.068341896 0.051923897 0.07450576
0.057834156 0.054535713 -0.0047123246 -0.048825696 -0.014352576 0.00041894589 -0.03705553 0.048239548
-0.054244053 -0.039689507 0.023895172 -0.05535787 -0.0049284617 -0.0061308327 0.06407868 0.005657485
0.040782306 -0.03453229 -0.043945868 0.058846213 -0.045198992 0.045751326 -0.025041688 0.052953057
0.04276175 -0.050973345 -0.05144934 0.00981557 0.055392545 -0.037111517 -0.068759784 0.051874463
-0.045319013 0.053627465 -0.030006975 0.022854079 -0.02143473 0.06766243 -0.035014775 -0.0758609
-0.038323067 -0.011557223 0.06585788 0.051774472 -0.029697014 0.011428123 -0.015809854 0.01424409
0.08964747 0.06653851 -0.025384746 0.04680737 0.07676433 -0.00487513 -0.016343942 -0.047372155
00000000: 36cf 85bc 7942 2ebc 3457 0a3d 885b 8dbd
00000010: a726 7b3d 1645 0cbd 5f36 bbba d16e 5f3d
00000020: dac3 453d ee5f 03bd d4ea 553d 9d19 cf3b
00000030: 6420 bf3c 64ad ddbc 5c52 65bd f118 5abc
00000040: ac88 71bd cfd0 ed3c dc8d 14bd 52b4 dbbc
00000050: b455 20bd 5ddf 633d 2718 95bd d479 8dbd
00000060: b70c 5cbd 932f 59bd 8b77 9d3d ca9f fbbc
00000070: ac80 493d f74c 1c3d 7ae1 68bd 05c3 8bbd
00000080: 6f57 463d bbde 6cbd 5174 883d aa26 613d
00000090: 8165 05bb a61f 143d 454c 7b3d d497 973c
000000a0: 9545 553d 30f6 a03c 448d 47bd d058 9cbd
000000b0: 714c 74bd bfdc 8dbd be5f 203d 299c f7bc
000000c0: b789 2c3d b50d e3bc 5365 953c d576 313d
000000d0: 0525 abbc c9dd ae3d b452 98bc db39 54bd
000000e0: a815 e4ba 0834 03bd 0713 813d fa3f 733d
000000f0: 334b 253d 54f4 503c 76e3 21bd f3bc 613d
00000100: 1c97 7bbc 053e 8d3d accb 57bd d64e 90bd
00000110: 2ae0 8b3d 9401 933d 8871 6abd c012 363d
00000120: 0a82 bdbc aeff a53d 9578 963b 8b7d 2cbc
00000130: 6f6e 08bd 49bc ccbb 024a 08bd 280a 333d
00000140: 1d3a 88bc bc52 b73c f129 86bc 6dd1 ef3c
00000150: cc76 c8bc 9075 c9bc e280 c4bc 9813 983d
00000160: 9a7d 163d 597c 41bd 6db3 e43c e791 5abc
00000170: f4f6 7f3c 2166 14bd 4045 073d b3a6 3ebc
00000180: 06d1 6d3d bb2e 92bc 6bf0 12bd 1006 fbba
00000190: e985 813d d18c 4f3b c36f 393c d76a e8bc
000001a0: 1d57 353c 603f 713c eb8b 8fbd 09ec 9b3d
000001b0: 8d1b 1f3a d339 dfbc f437 4bbd 796d 603d
000001c0: bd7a 353d 4f2c 16bd 7a76 6e3d 3c84 83bd
000001d0: f93c 67bc 2398 e93b a592 8b3d 0742 79bd
000001e0: df31 1f3d 2c76 44bc a8c0 7f3c 86df fe37
000001f0: 8df6 5b3c cfff 303d eb5c 6ebc c02b 5fbd
00000200: c607 f4bc 5589 703d 363e 143d 78d6 9dbd
00000210: ec43 4d3d a6e5 583d 3cdd 34bd 2747 bebc
00000220: ee3f 993c 42b2 923d 6c22 773d 3f79 473c
00000230: 9a10 60bc a50e 5b3d dc61 9a3d cc03 763d
00000240: a834 153d 1363 fa3c d0bf 463d c483 ec3c
00000250: 94cf 05bd a354 823d 9e1c 593d c671 ca3d
00000260: 0835 70bd 05cc 3dbc d87e 7a3d e0d8 e63c
00000270: ae75 8c3d 6f96 5fbd 98a9 a33d acec 8d3d
00000280: bce3 0f3c 6e0a 1d3d d773 41bd 8516 153d
00000290: bfc9 42bd 1688 05bc 0f80 58bd b805 96bc
000002a0: 529f 0e3c 6dfe 543d 1ba0 3b3c a7e2 69bd
000002b0: 812a 3f3d 2898 f9bc 7f5e ac3d 4927 ff3c
000002c0: 39a7 1dbc 8267 413d eee7 8dbc e8d5 34bc
000002d0: d7c3 353d a5f5 4bbd 0f8c 55bc d058 ab3c
000002e0: 707b a9bd 1884 a6bd 8001 4c3d e8f2 01bd
000002f0: 579c 60bd 1959 293d 99df 3f3d e2b7 e63c
00000300: 550b 58bd 4861 1bbd d7dc 423d 5ea5 8fba
00000310: 22db 613d d6f6 8b3d 27ae 543d 7a96 983d
00000320: 82e3 6c3d d760 5f3d d869 9abb 74fd 47bd
00000330: 1127 6bbc f7a5 db39 8ac7 17bd d596 453d
00000340: 032f 5ebd 7791 22bd cfbf c33c efbe 62bd
00000350: ef7e a1bb 27e5 c8bb af3b 833d 6d62 b93b
00000360: 590b 273d bb71 0dbd 9500 34bd ba08 713d
00000370: 9422 39bd be65 3b3d 3a24 cdbc 4ee5 583d
00000380: f226 2f3d 6dc9 50bd 8bbc 52bd 7cd1 203c
00000390: 4be3 623d 3f02 18bd eed1 8cbd 517a 543d
000003a0: 6ea0 39bd 79a8 5b3d 30d1 f5bc 7a38 bb3c
000003b0: e397 afbc 9a92 8a3d a76b 0fbd f65c 9bbd
000003c0: a6f8 1cbd 825a 3dbc 7fe0 863d 7811 543d
000003d0: 2747 f3bc 063d 3b3c ab83 81bc 0b60 693c
000003e0: 1899 b73d 5845 883d acf3 cfbc 16b9 3f3d
000003f0: 9e36 9d3d 8ebf 9fbb bbe3 85bc 4e09 42bd

hidden_layers.0.bias f4 [150]
0.01613611 -0.09071673 0.05527236 0.072615996 -0.041774657 0.055650964 0.00252152 -0.02384257
-0.032624442 -0.03353391 0.08712142 0.07940078 0.046426833 0.08134154 0.03666398 -0.0020174521
-0.03221795 0.0030045514 -0.025290718 -0.010826363 -0.010379067 -0.000511767 -0.066139005 -0.081683755
0.06212568 -0.073540755 -0.009271618 -0.0047817575 -0.039410822 -0.042486735 0.04319827 0.07517841
-0.08969979 0.023755895 -0.08894085 -0.05651895 0.03177545 0.022663327 0.0808065 0.012212092
0.08481686 -0.049462218 0.009015499 -0.04581357 -0.020794306 -0.07406016 0.084595226 0.08304504
0.058370024 -0.041328147 0.061443146 -0.051700454 -0.039054293 0.0035946846 -0.07580636 -0.021248467
0.021928867 0.009424302 0.036199685 0.0074116234 0.00155854 0.057027236 0.034192365 -0.021550095
0.005738513 -0.05130055 0.019604895 0.061111633 -0.02846343 -0.08680618 0.07812769 -0.058641184
-0.007836582 0.05712212 -0.01386188 0.0049293586 0.0757745 0.002517219 0.062416043 -0.0607746
-0.056252193 -0.055783678 0.02058769 0.05025116 0.045514446 0.059604034 0.008125219 0.045574673
0.022417437 -0.014032655 -0.006426221 -0.0215549 -0.09353123 0.05840241 -0.023392925 0.027647594
-0.04997335 -0.057188287 0.03015001 0.010849093 0.009057049 0.022733727 -0.03606108 -0.0052801324
0.03592295 -0.09654395 -0.014403835 0.07279389 -0.01333681 -0.057549156 0.08027516 0.076462775
-0.055732664 -0.010766908 -0.061613094 0.04456375 0.019796317 0.0598967 0.038296223 0.004153582
0.062243048 -0.06194867 -0.07173001 0.02340756 -0.03777125 0.05397821 0.0026374306 0.03702341
0.070879534 0.010564176 -0.0549973 -0.081406474 -0.05679723 0.040260047 0.014924371 -0.07951108
-0.073627174 0.05341841 -0.06793833 0.040135846 0.0057725683 -0.012556966 -0.068424605 -0.03468685
-0.056457043 0.0017474081 0.04300063 -0.017015612 -0.026669953 0.04729611
00000000: e02f 843c b1c9 b9bd 4565 623d b2b7 943d
00000010: e71b 2bbd 44f2 633d 1640 253b 7e51 c3bc
00000020: 35a1 05bd da5a 09bd b76c b23d e09c a23d
00000030: 102a 3e3d 6596 a63d f82c 163d 3b37 04bb
00000040: f8f6 03bd 02e8 443b 7b2e cfbc 0f61 31bc
00000050: f60c 2abc 1a28 06ba e373 87bd d049 a7bd
00000060: 7f77 7e3d 899c 96bd fce7 17bc 4ab0 9cbb
00000070: 3e6d 21bd 9206 2ebd abf0 303d 23f7 993d
00000080: 86b4 b7bd b99b c23c 9f26 b6bd 6a80 67bd
00000090: f926 023d 71a8 b93c e17d a53d 3a15 483c
000000a0: 76b4 ad3d e598 4abd beb5 133c 03a7 3bbd
000000b0: d258 aabc daac 97bd 4340 ad3d 8513 aa3d
000000c0: 6815 6f3d b447 29bd cfab 7b3d dbc3 53bd
000000d0: 65f7 1fbd cd94 6b3b 5d40 9bbd 4411 aebc
000000e0: 2ba4 b33c 6368 1a3c 1f46 143d 34dd f23b
000000f0: ed47 cc3a 6495 693d 4b0d 0c3d d389 b0bc
00000100: 230a bc3b 8720 52bd 729a a03c 3150 7a3d
00000110: 242c e9bc 70c7 b1bd 6901 a03d bd31 70bd
00000120: 0265 00bc e2f8 693d f01c 63bc 7586 a13b
00000130: a92f 9b3d edf7 243b f7a7 7f3d c9ee 78bd
00000140: b368 66bd 6d7d 64bd 84a7 a83c 29d4 4d3d
00000150: 5b6d 3a3d 5c23 743d a31f 053c 82ac 3a3d
00000160: c6a4 b73c 39e9 65bc 0d93 d2bb e793 b0bc
00000170: 4d8d bfbd 5e37 6f3d 85a2 bfbc 357d e23c
00000180: dbb0 4cbd 443e 6abd 27fd f63c 65c0 313c
00000190: 0464 143c 153c ba3c c8b4 13bd f604 adbb
000001a0: f123 133d d6b8 c5bd 10fe 6bbc f714 953d
000001b0: a382 5abc aab8 6bbd 4e67 a43d 8498 9c3d
000001c0: ef47 64bd af67 30bc 035e 7cbd 7b88 363d
000001d0: e32b a23c 3e56 753d 80dc 1c3d c51a 883b
000001e0: 91f2 7e3d e3bd 7dbd 2fe7 92bd 36c1 bf3c
000001f0: 07b6 1abd 4118 5d3d bed8 2c3b dca5 173d
00000200: 4a29 913d 5e15 2d3c d944 61bd 70b8 a6bd
00000210: 36a4 68bd b8e7 243d 5985 743c b5d6 a2bd
00000220: d8c9 96bd 43cd 5a3d 4023 8bbd 7c65 243d
00000230: d027 bd3b bcbb 4dbc 3322 8cbd cc13 0ebd
00000240: 803f 67bd 4909 e53a 6e21 303d 5364 8bbc
00000250: f27a dabc 91b9 413d

output_layer.weight f4 [1, 150]
-0.039847855 -0.069293514 0.12734592 0.12566704 -0.119218834 -0.059658423 0.064482845 -0.13571432
-0.09639716 -0.11095936 -0.13686933 -0.09155835 -0.10756298 0.07642656 -0.3572869 0.077967264
-0.2563303 0.09535822 -0.12840004 -0.11489516 -0.13673417 -0.08413063 -0.108138576 -0.09542871
-0.13189901 0.123485 -0.11959567 -0.07406124 0.13659766 -0.060994674 0.076521896 0.061324403
0.2152827 0.04826609 -0.22656415 -0.23021452 0.08670409 0.22144623 -0.13338389 0.08525084
0.08413783 -0.11219694 -0.10112946 0.16821238 -0.09167075 0.0765709 -0.15150301 -0.22552508
-0.12407906 -0.24351774 0.19109398 0.039710376 -0.039286204 -0.34921938 0.17538193 0.18201366
-0.07099629 0.06820906 -0.17071253 0.21332425 0.19106075 -0.06796519 -0.09293739 -0.13422665
0.29176238 0.07383151 0.1349554 0.11895404 -0.12769344 -0.07920009 -0.098296426 -0.0763378
-0.092022166 -0.1567602 -0.15458424 0.12540817 -0.29463488 0.04331667 -0.08624803 -0.1361952
0.1464236 0.20343818 -0.098199904 -0.0941962 -0.18846658 -0.1446825 0.10261658 -0.12098198
0.08976891 0.22402807 -0.07578013 -0.037956305 0.12534876 0.098137245 0.077014275 -0.057638563
0.12069874 -0.08708983 0.2656257 0.0947477 -0.044319056 0.06998141 -0.14961001 -0.10489823
0.050854873 -0.07605287 -0.07965889 0.08354401 -0.0669489 -0.07275485 0.20712312 0.21439391
-0.08716273 -0.038159367 -0.037208572 0.048334923 0.0913188 -0.088224076 -0.03129701 0.086959995
-0.09958607 0.14686614 -0.3193217 -0.1499374 -0.05836065 0.10366345 0.08144344 -0.2553188
-0.13784057 0.11634977 -0.056683436 0.08074869 -0.14220297 -0.12819865 -0.10981259 0.06784931
0.072973356 0.14586386 0.08320328 -0.105145335 0.13166378 0.2552939 -0.043096207 -0.062918544
-0.16495948 0.04779456 -0.08964244 -0.089642376 0.08187159 0.083029665
00000000: 8137 23bd c2e9 8dbd f866 023e dcae 003e
00000010: 0129 f4bd 645c 74bd 950f 843d b2f8 0abe
00000020: e06b c5bd a93e e3bd 7927 0cbe f282 bbbd
00000030: fb49 dcbd 8785 9c3d 4fee b6be 4dad 9f3d
00000040: ba3d 83be 2c4b c33d 4d7b 03be 274e ebbd
00000050: 0b04 0cbe ae4c acbd c277 ddbd 2170 c3bd
00000060: 8910 07be b4e5 fc3d 93ee f4bd 6bad 97bd
00000070: 42e0 0b3e 8dd5 79bd 83b7 9c3d 4c2f 7b3d
00000080: 1173 5c3e aab2 453d 6f00 68be 5bbd 6bbe
00000090: ea91 b13d cdc2 623e c995 08be fe97 ae3d
000000a0: 7450 ac3d 82c7 e5bd f61c cfbd de3f 2c3e
000000b0: e0bd bbbd 34d1 9c3d 9b23 1bbe 0cf0 66be
000000c0: 2a1d febd b75c 79be 24ae 433e 59a7 223d
000000d0: 92ea 20bd e2cc b2be 5297 333e ca61 3a3e
000000e0: 8166 91bd 31b1 8b3d 44cf 2ebe ac71 5a3e
000000f0: 6ea5 433e 5531 8bbd f555 bebd b672 09be
00000100: e161 953e fa34 973d c031 0a3e 2d9e f33d
00000110: 12c2 02be a833 a2bd a34f c9bd fe56 9cbd
00000120: 1e76 bcbd bf85 20be 554b 1ebe 006b 003e
00000130: 62da 96be d26c 313d cfa2 b0bd c176 0bbe
00000140: 11f0 153e 1952 503e 081d c9bd f0e9 c0bd
00000150: 62fd 40be a627 14be a428 d23d 66c5 f7bd
00000160: c3d8 b73d 9d67 653e 9d32 9bbd 1278 1bbd
00000170: 6d5b 003e 2efc c83d a9b9 9d3d 6a16 6cbd
00000180: e730 f73d 275c b2bd 1700 883e 150b c23d
00000190: e687 35bd 6a52 8f3d 5e33 19be e2d4 d6bd
000001a0: 334d 503d 9bc1 9bbd 3324 a3bd 1f19 ab3d
000001b0: 811c 89bd 7f00 95bd 1518 543e 148a 5b3e
000001c0: 6082 b2bd ff4c 1cbd 0468 18bd d7fa 453d
000001d0: 5a05 bb3d d3ae b4bd 4b31 00bd 1518 b23d
000001e0: c8f3 cbbd 1464 163e 227e a3be 3189 19be
000001f0: 940b 6fbd 814d d43d d1cb a63d 25b9 82be
00000200: 1426 0dbe ca48 ee3d e42c 68bd 925f a53d
00000210: a89d 11be 8246 03be 6ce5 e0bd 94f4 8a3d
00000220: 0e73 953d 565d 153e 7b66 aa3d 7056 d7bd
00000230: dfd2 063e e2b5 823e a685 30bd 70db 80bd
00000240: 23eb 28be 3bc4 433d 7596 b7bd 6c96 b7bd
00000250: 4bac a73d 750b aa3d
