param/das_flow_stage3.pth (torch, 246433 bytes, 174 tensors)

net.rotations.0.LU f4 [2, 2]
0.0 0.0 0.0 0.0
00000000: 0000 0000 0000 0000 0000 0000 0000 0000

net.rotations.0.LU_init f4 [2, 2]
1.0 0.0 0.0 1.0
00000000: 0000 803f 0000 0000 0000 0000 0000 803f

net.rotations.0.ones_mat f4 [2, 2]
1.0 1.0 1.0 1.0
00000000: 0000 803f 0000 803f 0000 803f 0000 803f

net.rotations.0.I f4 [2, 2]
1.0 0.0 0.0 1.0
00000000: 0000 803f 0000 0000 0000 0000 0000 803f

net.flow_mapping.0.scale_layers.0.b f4 [1, 2]
0.011861794 0.015819047
00000000: f857 423c f296 813c

net.flow_mapping.0.scale_layers.0.logs f4 [1, 2]
0.05816473 0.024607975
00000000: 243e 6e3d aa96 c93c

net.flow_mapping.0.scale_layers.0.b_init f4 [1, 2]
0.0 0.0
00000000: 0000 0000 0000 0000

net.flow_mapping.0.scale_layers.0.logs_init f4 [1, 2]
0.0 0.0
00000000: 0000 0000 0000 0000

net.flow_mapping.0.scale_layers.1.b f4 [1, 2]
0.015682258 -0.0052063363
00000000: 1478 803c ea99 aabb

net.flow_mapping.0.scale_layers.1.logs f4 [1, 2]
0.060926642 0.021834832
00000000: 378e 793d f6de b23c

net.flow_mapping.0.scale_layers.1.b_init f4 [1, 2]
0.0 0.0
00000000: 0000 0000 0000 0000

net.flow_mapping.0.scale_layers.1.logs_init f4 [1, 2]
0.0 0.0
00000000: 0000 0000 0000 0000

net.flow_mapping.0.scale_layers.2.b f4 [1, 2]
-0.00641376 -0.0012033395
00000000: 852a d2bb 60b9 9dba

net.flow_mapping.0.scale_layers.2.logs f4 [1, 2]
0.05566744 0.05691211
00000000: 8b03 643d ac1c 693d

net.flow_mapping.0.scale_layers.2.b_init f4 [1, 2]
0.0 0.0
00000000: 0000 0000 0000 0000

net.flow_mapping.0.scale_layers.2.logs_init f4 [1, 2]
0.0 0.0
00000000: 0000 0000 0000 0000

net.flow_mapping.0.scale_layers.3.b f4 [1, 2]
-0.0030159478 0.0049130977
00000000: 35a7 45bb 0dfe a03b

net.flow_mapping.0.scale_layers.3.logs f4 [1, 2]
0.08928501 0.037955303
00000000: 0fdb b63d 0577 1b3d

net.flow_mapping.0.scale_layers.3.b_init f4 [1, 2]
0.0 0.0
00000000: 0000 0000 0000 0000

net.flow_mapping.0.scale_layers.3.logs_init f4 [1, 2]
0.0 0.0
00000000: 0000 0000 0000 0000

net.flow_mapping.0.scale_layers.4.b f4 [1, 2]
0.005007609 0.03342309
00000000: de16 a43b a6e6 083d

net.flow_mapping.0.scale_layers.4.logs f4 [1, 2]
0.06219365 0.091868356
00000000: c5be 7e3d 7a25 bc3d

net.flow_mapping.0.scale_layers.4.b_init f4 [1, 2]
0.0 0.0
00000000: 0000 0000 0000 0000

net.flow_mapping.0.scale_layers.4.logs_init f4 [1, 2]
0.0 0.0
00000000: 0000 0000 0000 0000

net.flow_mapping.0.scale_layers.5.b f4 [1, 2]
0.01780108 0.008327943
00000000: 92d3 913c ed71 083c

net.flow_mapping.0.scale_layers.5.logs f4 [1, 2]
0.11858431 0.041838523
00000000: 55dc f23d df5e 2b3d

net.flow_mapping.0.scale_layers.5.b_init f4 [1, 2]
0.0 0.0
00000000: 0000 0000 0000 0000

net.flow_mapping.0.scale_layers.5.logs_init f4 [1, 2]
0.0 0.0
00000000: 0000 0000 0000 0000

net.flow_mapping.0.scale_layers.6.b f4 [1, 2]
0.0096324 0.031941116
00000000: 37d1 1d3c b0d4 023d

net.flow_mapping.0.scale_layers.6.logs f4 [1, 2]
0.052586317 0.10516867
00000000: c064 573d ac62 d73d

net.flow_mapping.0.scale_layers.6.b_init f4 [1, 2]
0.0 0.0
00000000: 0000 0000 0000 0000

net.flow_mapping.0.scale_layers.6.logs_init f4 [1, 2]
0.0 0.0
00000000: 0000 0000 0000 0000

net.flow_mapping.0.scale_layers.7.b f4 [1, 2]
0.02554937 0.015592836
00000000: ea4c d13c 1879 7f3c

net.flow_mapping.0.scale_layers.7.logs f4 [1, 2]
0.14196855 -0.0006743169
00000000: 3460 113e a4c4 30ba

net.flow_mapping.0.scale_layers.7.b_init f4 [1, 2]
0.0 0.0
00000000: 0000 0000 0000 0000

net.flow_mapping.0.scale_layers.7.logs_init f4 [1, 2]
0.0 0.0
00000000: 0000 0000 0000 0000

net.flow_mapping.0.scale_layers.8.b f4 [1, 2]
0.03606518 -0.038570087
00000000: 15b9 133d abfb 1dbd

net.flow_mapping.0.scale_layers.8.logs f4 [1, 2]
0.15539896 0.12246785
00000000: e820 1f3e 6dd0 fa3d

net.flow_mapping.0.scale_layers.8.b_init f4 [1, 2]
0.0 0.0
00000000: 0000 0000 0000 0000

net.flow_mapping.0.scale_layers.8.logs_init f4 [1, 2]
0.0 0.0
00000000: 0000 0000 0000 0000

net.flow_mapping.0.scale_layers.9.b f4 [1, 2]
0.0032729637 0.16917782
00000000: 387f 563b f33c 2d3e

net.flow_mapping.0.scale_layers.9.logs f4 [1, 2]
0.14946273 0.27926382
00000000: c20c 193e abfb 8e3e

net.flow_mapping.0.scale_layers.9.b_init f4 [1, 2]
0.0 0.0
00000000: 0000 0000 0000 0000

net.flow_mapping.0.scale_layers.9.logs_init f4 [1, 2]
0.0 0.0
00000000: 0000 0000 0000 0000

net.flow_mapping.0.affine_layers.0.net.0.weight f4 [32, 1]
0.8079439 0.89181614 -0.21654561 0.890052 -0.24612354 0.2404722 -0.6128431 0.5791121
0.9555191 -0.7957395 0.9453628 0.24421921 0.81563044 0.13422358 0.55992675 -0.11942325
0.76307315 0.1464678 -0.48020542 0.23948778 -0.4376904 -0.15736057 -0.38197795 0.6045189
-0.89567775 -0.5405617 -0.3388208 -0.61532557 0.14884226 -1.0413938 1.0256575 -0.9388919
00000000: 69d5 4e3f 104e 643f 22be 5dbe 73da 633f
00000010: cf07 7cbe 583e 763e 49e3 1cbf b140 143f
00000020: e69c 743f 95b5 4bbf 4c03 723f 9a14 7a3e
00000030: 28cd 503f e871 093e 5c57 0f3f 2d94 f4bd
00000040: c358 433f a8fb 153e 7cdd f5be 493c 753e
00000050: f518 e0be 2123 21be 9d92 c3be c0c1 1a3f
00000060: 234b 65bf 4062 0abf eb79 adbe fa85 1dbf
00000070: 1b6a 183e 644c 85bf bf48 833f 385b 70bf

net.flow_mapping.0.affine_layers.0.net.0.bias f4 [32]
0.8293254 0.20859428 -0.35798588 0.696693 0.16009298 0.79011697 0.067370385 -0.3891657
0.27674404 -0.40027645 0.357754 0.9433133 0.6283905 -0.43314922 0.6163635 0.16084577
0.5899803 -0.60414064 -0.9833093 -0.39727432 -0.8185494 0.8542458 0.3297957 0.47715595
0.3225208 -0.1312445 0.8610953 -0.6819575 0.111069314 -0.66612405 0.23382393 -0.33628553
00000000: ab4e 543f bd99 553e ed49 b7be 795a 323f
00000010: 6aef 233e 1b45 4a3f 7cf9 893d ba40 c7be
00000020: 65b1 8d3e 09f1 ccbe 882b b73e fb7c 713f
00000030: 33de 203f bcc5 ddbe 00ca 1d3f c1b4 243e
00000040: f308 173f f6a8 1abf 29ba 7bbf 8a67 cbbe
00000050: 748c 51bf daaf 5a3f fbda a83e c94d f43e
00000060: 7221 a53e f564 06be be70 5c3f c494 2ebf
00000070: 4f78 e33d 1b87 2abf 8a6f 6f3e 9e2d acbe

net.flow_mapping.0.affine_layers.0.net.2.weight f4 [32, 32]
0.05366434 -0.036494642 0.14527605 -0.10383711 -0.10449049 -0.10449686 0.15752532 0.058374584
0.16854613 -0.1445485 -0.17373125 -0.13709669 -0.11784287 0.07093111 0.062695965 0.14554696
-0.09048731 -0.11943787 0.092922136 -0.07078338 0.10630639 -0.041580424 0.10018562 -0.13614284
-0.088405654 0.053392142 0.037036657 -0.044668436 0.10443242 0.11910154 -0.12698676 -0.093503736
0.16039248 -0.059113763 -0.062090807 -0.16943885 -0.100295976 0.04375714 -0.023115382 -0.12711273
0.0041088723 -0.11968 -0.14863566 -0.0964726 -0.15334822 -0.11155462 0.17509823 0.03308694
0.053972542 -0.16340163 -0.11502942 -0.058304712 0.027391315 -0.15410504 -0.07549776 -0.104891874
0.00048534828 -0.065175675 -0.012140907 -0.118716255 -0.12026489 -0.102193065 -0.05997377 -0.13831946
0.22599834 0.012053004 0.150757 0.13499568 -0.2557345 0.1902139 -0.2001793 -0.22831538
-0.11139443 -0.53633034 0.0959249 0.030571716 0.14868991 -0.14373307 0.20868306 -0.16137607
0.050263304 0.036588013 0.09045662 0.13711195 0.15956114 -0.09402591 -0.015097949 0.005252251
-0.045005176 -0.23083006 0.17092665 -0.12853834 0.17693017 -0.07103136 0.09629496 -0.39161798
0.1669852 0.06300341 0.040004432 -0.15818627 0.071924835 -0.013370709 -0.10558124 -0.011376559
0.048255883 -0.1277667 -0.06110729 0.0043794382 0.07405634 -0.04477009 -0.08551799 -0.046999373
-0.14061981 0.062444102 -0.2747692 -0.16494949 0.048426732 0.10206417 0.04433583 -0.06393709
0.124735974 0.11666163 0.077492565 -0.054939047 -0.06979858 0.1038182 -0.015818207 -0.07005243
0.104008935 0.14251637 -0.017345836 -0.047205966 0.0025565196 -0.018384708 0.042111997 0.041038595
-0.16714461 -0.06463377 0.13950017 0.060331337 -0.01669779 -0.10564091 -0.11512557 -0.16292372
-0.065078005 0.059161782 0.1117108 0.07690259 -0.15478548 -0.11313411 -0.027646855 0.16146381
0.025337383 -0.045377657 0.06512947 -0.06672748 -0.12135448 0.12782006 -0.08765736 -0.035102576
-0.17273267 0.11852831 0.13272516 0.06528801 -0.122121885 -0.17116664 -0.14223321 0.1313566
0.08540243 0.14741726 0.09311825 0.046061963 -0.00025883794 -0.13323274 -0.1485736 -0.1266124
0.073169574 -0.08598703 -0.035241485 -0.0923609 -0.031911135 -0.12109107 -0.11443578 0.05954301
-0.05206801 0.10812606 -0.05298927 -0.1284706 -0.029477738 -0.08488738 -0.052279785 -0.16681542
0.14285265 -0.26640707 -0.004988497 0.065815136 0.20720951 -0.055559963 0.21585225 -0.15770072
-0.065848075 0.1697952 -0.13312027 0.07809115 -0.039132923 -0.1462647 0.15090905 -0.0943821
0.10257362 0.13106178 0.55801404 -0.041329205 -0.28856713 0.12162896 0.17845616 -0.1832701
-0.07087258 -0.108873166 0.06695597 -0.08562259 -0.06888814 -0.12981753 -0.3005271 0.15197352
0.07876412 -0.027479336 -0.10211187 -0.46755725 -0.1401323 -0.21489929 0.103549026 -0.09618685
-0.11263984 0.08086263 -0.058332168 -0.09915275 -0.3954976 -0.03716126 -0.104688205 -0.07972842
-0.46031448 0.1468874 0.31942573 0.046406344 -0.19682822 -0.0012120857 0.17754348 -0.24964485
-0.12155265 0.12998828 0.15957694 0.049432963 -0.16646317 0.31073242 -0.026835859 0.12191981
00000000: 24cf 5b3d 687b 15bd 3fc3 143e 8da8 d4bd
00000010: 1cff d5bd 7302 d6bd 514e 213e 301a 6f3d
00000020: 5b97 2c3e 8604 14be 9be6 31be 1363 0cbe
00000030: 9a57 f1bd 5444 913d be66 803d 430a 153e
00000040: 6951 b9bd d89b f4bd f64d be3d e0f6 90bd
00000050: 2ab7 d93d 3c50 2abd 1e2e cd3d 0769 0bbe
00000060: 060e b5bd b8b1 5a3d c0b3 173d 40f6 36bd
00000070: aae0 d53d 82eb f33d d108 02be e37e bfbd
00000080: ed3d 243e 4621 72bd ee52 7ebd 6181 2dbe
00000090: fa67 cdbd b03a 333d 785c bdbc d729 02be
000000a0: b8a3 863b ca1a f5bd f233 18be 6d93 c5bd
000000b0: 5107 1dbe c076 e4bd f34c 333e 2c86 073d
000000c0: 5012 5d3d c252 27be 8b94 ebbd ecd0 6ebd
000000d0: c063 e03c b6cd 1dbe 929e 9abd 8dd1 d6bd
000000e0: 5876 fe39 d37a 85bd a8ea 46bc 8221 f3bd
000000f0: 704d f6bd 994a d1bd 0ea7 75bd 9ea3 0dbe
00000100: 1c6c 673e f679 453c 0b60 1a3e 4f3c 0a3e
00000110: a2ef 82be 6fc7 423e cdfb 4cbe 82cb 69be
00000120: c322 e4bd f24c 09bf 4674 c43d 8971 fa3c
00000130: 2b42 183e c32e 13be 03b1 553e c53f 25be
00000140: e5e0 4d3d 50dd 153d 5241 b93d 1367 0c3e
00000150: ff63 233e a890 c0bd 635d 77bc 131b ac3b
00000160: 5957 38bd b75e 6cbe 6507 2f3e 8e9f 03be
00000170: 2f2d 353e e478 91bd 4b36 c53d 2782 c8be
00000180: 2bfe 2a3e ef07 813d b0db 233d 95fb 21be
00000190: 544d 933d d110 5bbc fa3a d8bd bf64 3abc
000001a0: f6a7 453d 46d5 02be a34b 7abd 6481 8f3b
000001b0: daaa 973d d860 37bd 0e24 afbd 6a82 40bd
000001c0: a4fe 0fbe 63c5 7f3d 8cae 8cbe 85e8 28be
000001d0: 1c5b 463d 0507 d13d 7d99 353d 73f1 82bd
000001e0: 9375 ff3d 4bec ee3d 6cb4 9e3d c407 61bd
000001f0: 8ff2 8ebd a39e d43d 2f95 81bc a677 8fbd
00000200: a302 d53d d0ef 113e db18 8ebc 0b5b 41bd
00000210: 488b 273b 879b 96bc a17d 2c3d 1618 283d
00000220: f527 2bbe b65e 84bd 22d9 0e3e fe1d 773d
00000230: cec9 88bc 435a d8bd f4c6 ebbd 7ad5 26be
00000240: 9e47 85bd a053 723d a2c8 e43d 1b7f 9d3d
00000250: 1680 1ebe dbb2 e7bd a87b e2bc c556 253e
00000260: 5890 cf3c ecdd 39bd 9962 853d 6ba8 88bd
00000270: b388 f8bd 43e3 023e b485 b3bd b8c7 0fbd
00000280: d5e0 30be f8be f23d 1be9 073e b8b5 853d
00000290: 0a1b fabd 4f46 2fbe 95a5 11be 5882 063e
000002a0: 78e7 ae3d 8df4 163e c8b4 be3d 78ab 3c3d
000002b0: a4b4 87b9 2a6e 08be ae23 18be aea6 01be
000002c0: eed9 953d f819 b0bd 6059 10bd b627 bdbd
000002d0: 40b5 02bd 98fe f7bd 4e5d eabd 5fe3 733d
000002e0: 4445 55bd 3271 dd3d 470b 59bd cc8d 03be
000002f0: 4c7b f1bc 6fd9 adbd 5423 56bd a9d1 2abe
00000300: f747 123e 8266 88be 8c76 a3bb 16ca 863d
00000310: bb2e 543e d892 63bd 5f08 5d3e 4c7c 21be
00000320: 5bdb 86bd cbde 2d3e ae50 08be 41ee 9f3d
00000330: d849 20bd 6ac6 15be e787 1a3e 674b c1bd
00000340: 1e12 d23d 0f35 063e 02da 0e3f d048 29bd
00000350: 12bf 93be 9b18 f93d 36bd 363e 28ab 3bbe
00000360: a525 91bd e5f8 debd 3620 893d e55a afbd
00000370: 3a15 8dbd e3ee 04be b0de 99be f29e 1b3e
00000380: 154f a13d 581c e1bc 0720 d1bd aa63 efbe
00000390: d77e 0fbe 8f0e 5cbe 8311 d43d 9cfd c4bd
000003a0: b7af e6bd 4e9b a53d b6ed 6ebd 9910 cbbd
000003b0: a97e cabe 6836 18bd c566 d6bd a748 a3bd
000003c0: 57ae ebbe a769 163e c58b a33e 9414 3e3d
000003d0: 568d 49be d9de 9eba f5cd 353e e6a2 7fbe
000003e0: 99f0 f8bd a61b 053e 2368 233e 387a 4a3d
000003f0: 5275 2abe 5218 9f3e e0d6 dbbc 18b1 f93d

net.flow_mapping.0.affine_layers.0.net.2.bias f4 [32]
-0.090825304 -0.17322454 0.124267355 0.11036428 -0.15825112 0.06474488 0.22892982 -0.0137526095
-0.105561905 0.17792286 0.07839968 0.112922825 -0.12923454 0.10730183 -0.13281044 0.19503666
-0.07422969 0.12956612 0.07438969 0.046432767 -0.012438878 0.06922964 -0.0013682906 -0.12383943
-0.018454306 0.14804968 -0.0607261 0.02076373 -0.07278643 0.17075723 0.13746428 0.09532393
00000000: 9e02 babd c661 31be e27f fe3d ab06 e23d
00000010: 950c 22be f798 843d 946c 6a3e a052 61bc
00000020: d730 d8bd 6931 363e 0390 a03d 1544 e73d
00000030: 0f56 04be 10c1 db3d 76ff 07be b1b7 473e
00000040: bc05 98bd fbac 043e 9f59 983d 4930 3e3d
00000050: 70cc 4bbc 45c8 8d3d 3758 b3ba 879f fdbd
00000060: 7c2d 97bc 569a 173e eebb 78bd b318 aa3c
00000070: 0d11 95bd fcda 2e3e 70c3 0c3e 3139 c33d

net.flow_mapping.0.affine_layers.0.net.4.weight f4 [32, 32]
-0.089556806 -0.14310841 0.16927922 -0.049561452 0.14400358 -0.16833952 0.123310626 -0.0043145595
0.087730125 0.086324796 -0.16852926 0.17097148 0.043162223 -0.25187618 0.19627301 -0.42342496
-0.0123905325 0.2096304 -0.2551569 -0.18322924 -0.09447418 -0.023444325 0.090846695 -0.28119937
-0.019476248 -0.19435938 -0.08447483 -0.027941063 0.08283943 0.11688003 -0.119275935 0.03228903
0.052849427 0.032501504 -0.17401133 0.012599667 0.1737364 0.117627524 -0.0826662 0.34719738
0.013576187 0.111680925 0.13466203 0.14656466 -0.20150578 0.18034703 -0.14588805 0.00050089863
-0.12238518 -0.041837916 0.052592583 0.04953678 -0.018539043 0.02664338 0.23522457 0.11961704
0.16247481 0.073754765 0.12774777 -0.13268048 0.006327636 -0.046375953 -0.17067668 -0.09901483
0.021471903 -0.06856043 -0.010874675 -0.042825013 0.0272661 0.11087483 -0.060714003 0.13843128
0.13836913 -0.14963157 -0.138414 -0.14168447 -0.09803767 -0.078150176 -0.013998459 -0.050428666
-0.088511504 -0.062886186 -0.07121265 0.16402951 -0.0727179 -0.13005641 0.07023664 -0.017962212
0.1308556 0.10162342 0.16006182 -0.13061795 0.10472522 0.14430702 -0.09435346 0.15312016
0.13131242 0.0019181026 0.08026905 -0.11191859 -0.14925537 0.041331086 0.052232206 -0.11446111
0.084931985 -0.15422298 0.14910512 0.16957952 0.047693074 -0.11360674 0.085227475 0.025803687
0.047633037 0.007391113 0.12903163 -0.08074754 -0.04347834 0.047772184 0.01909414 0.13705343
-0.09197821 -0.010534078 0.032729536 -0.04651408 0.11536986 0.019165317 -0.16607697 -0.023001896
-0.07944068 0.017026722 0.060486276 -0.13977903 -0.033290688 -0.06274342 -0.07648039 0.008652443
-0.038237244 0.095302545 0.029537352 -0.145438 0.1171679 0.120101474 -0.09030043 -0.10120347
0.17142837 0.16734134 -0.1732525 0.031008823 -0.05889269 -0.17729013 0.016240524 -0.0015539188
-0.11193304 0.01247159 -0.14628018 0.23124051 0.0826884 0.17508084 0.01450616 -0.016047746
-0.12669939 -0.043769464 -0.08290904 -0.1477006 -0.1239254 0.12076429 0.16904043 -0.14670962
0.055749536 0.13130482 0.17034581 0.10133602 0.03549491 -0.03775041 0.121680655 0.16855305
-0.16545998 -0.18309776 0.10236572 0.15721753 -0.05676383 0.033036865 0.04795466 0.10064244
-0.033795837 0.14571306 0.11228209 -0.309155 0.11098289 -0.09108362 0.09227212 0.23745678
0.05137275 -0.039798737 0.14329626 -0.12746865 -0.045451265 0.0019224429 -0.06779695 0.019068733
-0.11886577 0.03250596 0.010338856 0.024251625 -0.22462597 -0.17796393 0.080600426 0.17902179
-0.15539154 0.01054995 -0.11913973 0.008710967 0.17888544 0.14677233 -0.043643977 0.12555249
0.1473797 0.01655331 0.16963898 -0.06957198 0.041257773 -0.22865434 0.02758456 0.0760602
0.013959877 -0.09857537 -0.07884133 0.059594586 -0.15360767 -0.027278781 -0.0038797325 -0.07095298
0.063728735 0.011293337 0.12296872 -0.015553156 -0.11056474 0.12376194 0.02446872 -0.05015914
-0.11544113 0.041065693 -0.167126 0.04612319 0.08660163 -0.15366778 -0.11465794 -0.12588233
0.14724086 0.14894043 0.010965794 0.16448377 -0.058560707 -0.17000942 0.061177224 0.06204943
00000000: 8f69 b7bd 038b 12be 8857 2d3e f300 4bbd
00000010: ad75 133e 3261 2cbe 488a fc3d 2661 8dbb
00000020: daab b33d 0ecb b03d ef92 2cbe 2613 2f3e
00000030: dfca 303d eaf5 80be cbfb 483e 28cb d8be
00000040: a901 4bbc 5aa9 563e eda3 82be 72a0 3bbe
00000050: ae7b c1bd 500e c0bc d50d ba3d 5df9 8fbe
00000060: a78c 9fbc 2506 47be 2401 adbd a8e4 e4bc
00000070: b8a7 a93d cc5e ef3d f146 f4bd 8041 043d
00000080: a478 583d 4c20 053d 0730 32be d56e 4e3c
00000090: f4e7 313e b3e6 f03d e64c a9bd dbc3 b13e
000000a0: a86e 5e3c f8b8 e43d d8e4 093e 0c15 163e
000000b0: 8857 4ebe e4ac 383e ad63 15be bd4e 033a
000000c0: 15a5 fabd 3c5e 2bbd 526b 573d 14e7 4a3d
000000d0: 31df 97bc 3843 da3c b6de 703e c7f9 f43d
000000e0: cc5f 263e bd0c 973d 50d0 023e 64dd 07be
000000f0: 0f58 cf3b b6f4 3dbd dec5 2ebe 4ac8 cabd
00000100: d8e5 af3c 6969 8cbd b12b 32bc 4869 2fbd
00000110: 285d df3c 5812 e33d 3faf 78bd eec0 0d3e
00000120: a3b0 0d3e 0539 19be 66bc 0dbe bc15 11be
00000130: f9c7 c8bd 330d a0bd cb59 65bc 4a8e 4ebd
00000140: 8545 b5bd 79ca 80bd f0d7 91bd 5af7 273e
00000150: 1fed 94bd 822d 05be 3ad8 8f3d 7d25 93bc
00000160: 03ff 053e f11f d03d 3fe7 233e b6c0 05be
00000170: 2d7a d63d 38c5 133e 633c c1bd 88cb 1c3e
00000180: c376 063e d868 fb3a 1a64 a43d 9335 e5bd
00000190: 66d6 18be c94a 293d 70f1 553d 966a eabd
000001a0: d2f0 ad3d a1ec 1dbe 03af 183e 41a6 2d3e
000001b0: d059 433d a7aa e8bd be8b ae3d 4162 d33c
000001c0: dc1a 433d 2631 f23b de20 043e f75e a5bd
000001d0: 5816 32bd c4ac 433d 506b 9c3c bc57 0c3e
000001e0: 125f bcbd 2097 2cbc 680f 063d 8c85 3ebd
000001f0: 0847 ec3d 9500 9d3c 1510 2abe 796e bcbc
00000200: ccb1 a2bd a07b 8b3c 75c0 773d 3c22 0fbe
00000210: d15b 08bd 9f7f 80bd c0a1 9cbd fac2 0d3c
00000220: a89e 1cbd fb2d c33d 51f8 f13c b3ed 14be
00000230: b9f5 ef3d c3f7 f53d 6fef b8bd c443 cfbd
00000240: eb8a 2f3e 875b 2b3e 1a69 31be 3706 fe3c
00000250: 7639 71bd 8b8b 35be d90a 853c ddac cbba
00000260: 263d e5bd a455 4c3c 79ca 15be 50ca 6c3e
00000270: 8958 a93d 6448 333e 3fab 6d3c 9076 83bc
00000280: 7cbd 01be 9c47 33bd 37cc a9bd d33e 17be
00000290: 9acc fdbd 4553 f73d ef18 2d3e 0c3b 16be
000002a0: a059 643d c574 063e 226f 2e3e 4289 cf3d
000002b0: 1c63 113d 2da0 1abd b533 f93d 2c99 2c3e
000002c0: 576e 29be fb7d 3bbe 1ea5 d13d a2fd 203e
000002d0: 3181 68bd aa51 073d 1b6c 443d a01d ce3d
000002e0: 816d 0abd ce35 153e 27f4 e53d 9049 9ebe
000002f0: ff4a e33d 0d8a babd 2af9 bc3d df27 733e
00000300: 3c6c 523d 0004 23bd 41bc 123e 2487 02be
00000310: 1b2b 3abd 7bfa fb3a 21d9 8abd 0836 9c3c
00000320: e66f f3bd f824 053d 4e64 293c 58ab c63c
00000330: 5a04 66be 2d3c 36be d611 a53d 7d51 373e
00000340: f61e 1fbe b3d9 2c3c 88ff f3bd 72b8 0e3c
00000350: bf2d 373e 7c4b 163e 07c4 32bd d590 003e
00000360: b4ea 163e cf9a 873c d7b5 2d3e c17b 8ebd
00000370: e9fd 283d 5d24 6abe 04f9 e13c 73c5 9b3d
00000380: f8b7 643c e2e1 c9bd 9077 a1bd 7419 743d
00000390: 544b 1dbe c077 dfbc 1c43 7ebb cc4f 91bd
000003a0: 3684 823d b007 393c 06d7 fb3d aad2 7ebc
000003b0: c46f e2bd e676 fd3d a072 c83c ac73 4dbd
000003c0: 666c ecbd 8034 283d 1423 2bbe aceb 3c3d
000003d0: 325c b13d 165b 1dbe c8d1 eabd 4ce7 00be
000003e0: 4fc6 163e d783 183e e0a9 333c 6f6e 283e
000003f0: 5add 6fbd f316 2ebe f894 7a3d 8b27 7e3d

net.flow_mapping.0.affine_layers.0.net.4.bias f4 [32]
0.1322414 0.17339057 0.01571595 -0.16336602 0.1267829 0.03672154 0.011084205 -0.16692036
-0.04422722 -0.097910084 0.16010371 0.14453098 0.13245468 0.1190264 -0.14710723 -0.05983198
-0.07350318 -0.075942636 0.16729632 0.048599217 0.13837437 -0.019151833 -0.16133566 -0.06289097
0.15903358 0.14465909 0.030962246 -0.051384114 -0.16352303 -0.011937659 0.10880585 -0.09100947
00000000: 4a6a 073e 4c8d 313e bcbe 803c 6c49 27be
00000010: 60d3 013e 5369 163d 869a 353c 2ced 2abe
00000020: 9a27 35bd 1585 c8bd 3af2 233e eeff 133e
00000030: 33a2 073e 1dc4 f33d 47a3 16be 6112 75bd
00000040: d688 96bd d087 9bbd ba4f 2b3e f90f 473d
00000050: 03b2 0d3e 4ee4 9cbc 2d35 25be fbcc 80bd
00000060: b3d9 223e 8321 143e 89a4 fd3c 2678 52bd
00000070: 9572 27be 2c96 43bc 9ad5 de3d 2c63 babd

net.flow_mapping.0.affine_layers.0.net.6.weight f4 [32, 32]
0.080218054 0.04434931 -0.06729419 0.10666503 -0.06010402 -0.0058185123 -0.06673305 -0.16621013
0.028251035 0.05061364 -0.09144647 0.10428079 -0.16031398 -0.16882579 -0.10818011 -0.060532965
-0.019448087 -0.033859953 0.076438 -0.1572001 0.025795236 0.003034113 0.046256214 0.170516
0.1047914 -0.10088775 -0.14687504 -0.042395473 -0.08787129 0.06117904 -0.002385587 0.14084454
0.017151559 0.026509786 0.009011841 0.03717081 -0.04422941 0.19511439 -0.12503128 0.08535735
-0.10763091 -0.17632392 -0.0059525277 0.056346316 0.11240042 0.11121133 -0.14066748 0.04765741
-0.067079395 -0.012743983 0.03886419 0.19382207 0.22656934 -0.1625767 0.0036851019 -0.18125822
-0.1576669 -0.07956951 0.08044666 -0.1262628 0.17290835 0.10898691 -0.24755931 -0.38862324
0.07408 -0.17337789 0.053807855 -0.13497905 0.13620593 -0.25025934 -0.0865126 -0.092060104
0.080376364 -0.005410783 -0.25718474 -0.029216269 -0.008898526 -0.27833557 0.08014927 -0.08860441
-0.03213282 -0.07060103 0.020865127 -0.15565048 -0.20672855 0.006775113 0.15221442 0.031760044
0.22867586 -0.15183268 -0.041330528 -0.16680638 0.14511575 0.3033748 0.1352215 0.32373106
0.22711065 0.012830631 0.09231253 -0.16681454 -0.13524179 -0.19617921 0.06419043 -0.15156661
-0.13795073 -0.077847466 -0.2057906 0.049598426 0.057988703 -0.18191825 0.056139983 -0.16068727
-0.053425845 0.13038117 0.11486916 -0.06797663 -0.26085058 -0.073516496 0.019161278 0.17974383
0.22707792 -0.14552005 -0.20393907 -0.15333776 -0.055739693 0.057433594 0.08667518 0.12047247
0.01846245 -0.13762598 -0.13143471 -0.14005625 -0.22767319 0.15472467 0.05752913 -0.02077584
0.036047354 0.06849318 -0.14800902 -0.23828009 -0.14331375 -0.14923309 0.13617864 -0.08803955
-0.03183998 -0.06403879 0.14713135 0.13889556 0.07699543 0.00982184 -0.056716926 0.04468818
-0.22259417 -0.08514964 -0.037811052 -0.04116571 -0.16598573 0.056225866 0.043852508 -0.096633606
0.10887724 -0.10169612 -0.00063061673 0.014482807 0.17783758 -0.03731313 -0.092511 -0.06298547
0.08125421 0.06288744 -0.062349316 0.035076544 -0.010930939 -0.13886476 0.04701115 -0.064670004
0.04920947 0.1310519 -0.07435245 -0.026203094 -0.036344294 0.09229631 0.019335603 0.11478889
0.14424853 -0.22456329 -0.007321938 -0.038301047 0.15805016 0.21310858 0.18964668 0.39110813
-0.22245024 0.21594252 0.15140033 -0.0066937245 -0.18963371 -0.065510444 -0.04540864 0.0028927606
-0.15423524 -0.012200881 -0.0769622 -0.049470756 -0.14952913 0.026229177 -0.16270174 -0.05744106
0.020455224 0.117709845 0.19304156 -0.11943736 0.2387302 -0.10838801 -0.13219838 -0.15931116
-0.11124338 -0.0981164 -0.15935375 -0.117252305 0.14392261 0.007235106 -0.30400527 -0.3873294
-0.11188438 -0.21853447 -0.07151057 0.11233541 0.05068867 -0.10992554 0.13741867 -0.108813725
-0.14665973 0.04098188 -0.19314231 0.10029314 0.17272057 -0.17409919 -0.06544311 -0.09919262
-0.15818015 0.15349841 -0.15172711 0.040463783 -0.29224807 -0.115324356 0.015178681 0.1466835
0.25848165 0.07593085 -0.048556503 -0.022526518 0.028953284 0.0108178565 0.1680857 0.11719994
00000000: 5d49 a43d 9fa7 353d 89d1 89bd 3273 da3d
00000010: a22f 76bd 38a9 bebb 56ab 88bd fd32 2abe
00000020: b76e e73c 4050 4f3d 4948 bbbd 2b91 d53d
00000030: 5929 24be abe0 2cbe 898d ddbd 6af1 77bd
00000040: 9851 9fbc bcb0 0abd 878b 9c3d 10f9 20be
00000050: 8850 d33c f8d7 463b 2877 3d3d bf9b 2e3e
00000060: e09c d63d 3d9e cebd 6966 16be e0a6 2dbd
00000070: ddf5 b3bd e096 7a3d 8257 1cbb 8d39 103e
00000080: 6d81 8c3c 0d2b d93c 67a6 133c 6b40 183d
00000090: e629 35bd 11cc 473e 3308 00be d6cf ae3d
000000a0: 986d dcbd 428e 34be 6c0d c3bb 65cb 663d
000000b0: 3132 e63d c4c2 e33d 230b 10be 6b34 433d
000000c0: ec60 89bd 24cc 50bc 0f30 1f3d 4b79 463e
000000d0: cb01 683e 827a 26be c081 713b c19b 39be
000000e0: 6f73 21be 57f5 a2bd 38c1 a43d 094b 01be
000000f0: e30e 313e 8734 df3d 3080 7dbe a0f9 c6be
00000100: 41b7 973d f989 31be a065 5c3d f337 0abe
00000110: 9179 0b3e fe21 80be 852d b1bd 028a bcbd
00000120: 5d9c a43d f04c b1bb b8ad 83be f556 efbc
00000130: 20cb 11bc 0082 8ebe 4d25 a43d 3b76 b5bd
00000140: b49d 03bd 4697 90bd 58ed aa3c d762 1fbe
00000150: a6b0 53be c401 de3b 19de 1b3e d216 023d
00000160: 012a 6a3e 077a 1bbe 334a 29bd 4bcf 2abe
00000170: 3999 143e f153 9b3e 8177 0a3e 14c0 a53e
00000180: b28f 683e 9137 523c 5a0e bd3d 6ed1 2abe
00000190: d37c 0abe 34e3 48be 4676 833d 4734 1bbe
000001a0: f542 0dbe 7e6e 9fbd c5ba 52be b827 4b3d
000001b0: 9085 6d3d c748 3abe 0af3 653d 348b 24be
000001c0: 0fd5 5abd a482 053e 8640 eb3d 5537 8bbd
000001d0: 358e 85be d18f 96bd 1df8 9c3c c40e 383e
000001e0: 1d87 683e 3503 15be 67d5 50be 9304 1dbe
000001f0: 4e4f 64bd 7d3f 6b3d c282 b13d 45ba f63d
00000200: 903e 973c d3ed 0cbe d296 06be e86a 0fbe
00000210: 2923 69be 2570 1e3e aaa3 6b3d 1832 aabc
00000220: 64a6 133d 2746 8c3d ad8f 17be b2ff 73be
00000230: d7c0 12be 8fd0 18be 6a72 0b3e 144e b4bd
00000240: a46a 02bd c526 83bd 9aa9 163e a33a 0e3e
00000250: c8af 9d3d c8eb 203c 0250 68bd f40a 373d
00000260: baef 63be ef62 aebd c3df 1abd 609d 28bd
00000270: 2af8 29be 184d 663d b09e 333d d7e7 c5bd
00000280: 08fb de3d 0e46 d0bd f94f 25ba 4c49 6d3c
00000290: 0e1b 363e a7d5 18bd 6876 bdbd 87fe 80bd
000002a0: 9b68 a63d 21cb 803d ff61 7fbd 6cac 0f3d
000002b0: ae17 33bc 9032 0ebe c38e 403d b571 84bd
000002c0: df8f 493d 7832 063e 1946 98bd dfa7 d6bc
000002d0: c1dd 14bd d905 bd3d b365 9e3c 7016 eb3d
000002e0: e3b5 133e ebf3 65be deec efbb 8fe1 1cbd
000002f0: e7d7 213e 2339 5a3e bd32 423e 533f c83e
00000300: ffc9 63be 0920 5d3e b008 1b3e 0857 dbbb
00000310: 572f 42be 572a 86bd 69fe 39bd 7894 3d3b
00000320: d8ef 1dbe 34e6 47bc 5c9e 9dbd d9a1 4abd
00000330: 2a1e 19be 92de d63c 499b 26be 5147 6bbd
00000340: b791 a73c dc11 f13d b0ac 453e 939b f4bd
00000350: b175 743e 88fa ddbd 035f 07be 7722 23be
00000360: 92d3 e3bd 40f1 c8bd a12d 23be fa21 f0bd
00000370: 7360 133e 7814 ed3b 94a6 9bbe 0a50 c6be
00000380: a323 e5bd 80c7 5fbe 2274 92bd 1c10 e63d
00000390: ec9e 4f3d a420 e1bd 7bb7 0c3e bbd9 debd
000003a0: f82d 16be 9edc 273d 19c7 45be 7d66 cd3d
000003b0: a9dd 303e 0f47 32be 0a07 86bd 8025 cbbd
000003c0: faf9 21be b02e 1d3e 5a5e 1bbe 5abd 253d
000003d0: 8aa1 95be 2d2f ecbd 01b0 783c 3334 163e
000003e0: b557 843e a281 9b3d 2fe3 46bd 8889 b8bc
000003f0: 702f ed3c 613d 313c a81e 2c3e 8606 f03d

net.flow_mapping.0.affine_layers.0.net.6.bias f4 [32]
-0.13716312 0.072949186 0.14194155 0.15704435 -0.21757066 0.15994595 0.14992161 0.14179718
0.092186585 -0.026176916 0.11052571 0.15136325 -0.066990584 -0.018735932 0.18948145 0.16965862
0.09251686 0.13166034 -0.08092999 -0.0037536097 -0.06968918 0.12037492 0.075388245 -0.13523836
-0.031493507 -0.13142215 -0.16112894 0.1703433 -0.09244591 0.10254237 -0.050547108 0.0012583005
00000000: 7d74 0cbe 6266 953d 2059 113e 3cd0 203e
00000010: d8ca 5ebe dfc8 233e 0d85 193e 4833 113e
00000020: 52cc bc3d f970 d6bc 4e5b e23d f8fe 1a3e
00000030: 5c32 89bd 197c 99bc 6d07 423e fdba 2d3e
00000040: 7b79 bd3d f8d1 063e 9fbe a5bd 1fff 75bb
00000050: 33b9 8ebd 2087 f63d 2765 9a3d ed7b 0abe
00000060: 56ff 00bd 8793 06be fcfe 24be 796e 2e3e
00000070: 4854 bdbd bc01 d23d 7c0a 4fbd 8fed a43a

net.flow_mapping.0.affine_layers.0.net.8.weight f4 [32, 32]
-0.003222256 0.17991965 -0.14609008 0.020392925 -0.1028885 0.032011464 0.03333892 -0.104661375
-0.107593864 -0.16267028 -0.17525795 0.052470956 0.1569115 0.13485795 -0.07345372 -0.20491782
0.16521502 -0.007679708 0.029616099 -0.2040713 -0.0944173 0.05290472 -0.090516925 0.052378125
0.16016333 -0.11878712 -0.112594254 -0.038087178 0.024949854 0.048045833 0.1648171 -0.31966585
-0.09606974 -0.11823445 0.20200956 0.10904727 -0.21775794 0.2531512 -0.6259487 0.1601451
-0.10886239 0.09587593 0.0085474495 -0.13172318 -0.14864494 -0.00887132 -0.18737988 0.22357269
-0.090701014 0.024413045 -0.16060625 0.1537989 -0.1342813 0.12744631 0.07066222 0.065486036
0.0027292368 0.06627822 -0.10299014 0.014527047 0.070782825 -0.15898572 -0.0071086166 0.20901264
-0.10541347 0.12176805 -0.112502985 -0.15639728 -0.2499398 -0.15714817 0.3056833 -0.111212686
-0.0318589 0.037126057 -0.22879045 0.0184452 -0.022234023 0.10356978 0.18644181 -0.14279747
0.10876358 0.0004476337 -0.10832437 -0.14221868 0.014091021 0.05949863 0.0055365926 -0.123786494
0.1418702 0.010280375 -0.19107215 -0.027774768 -0.04969526 0.03795255 -0.10004863 -0.08881608
0.16937818 -0.13040169 0.075401105 -0.22622308 -0.28534517 -0.13023156 -0.073406726 0.069435075
0.12107767 -0.21797445 -0.16112645 0.09672915 -0.021166906 0.064360194 0.09732788 -0.12663954
-0.06853823 0.055513218 0.024657251 -0.21696332 -0.054683495 -0.079492144 0.19930516 -0.06559071
0.10440749 0.00512923 -0.19294517 0.1498996 -0.029738206 -0.0058818846 0.13996817 -0.21848539
0.038687773 -0.16426086 0.21598512 0.16559246 -0.0033827547 0.17198712 -0.19251788 -0.019371519
0.12513134 0.18341509 0.1901586 -0.04628182 -0.09605855 -0.13072963 0.044916037 0.14711878
-0.12122387 0.21301533 -0.033147257 0.02685432 0.045842208 -0.034096565 0.064803444 0.19361076
-0.2539003 -0.08109542 0.027529672 0.075345404 -0.14885227 -0.24742083 -0.013834442 0.096555
0.037794486 0.022261485 0.035929054 0.011610173 0.020133808 -0.010111131 0.06288101 0.11957659
-0.08741579 -0.09077473 0.0768845 -0.1266262 0.11381709 0.08092944 0.025332868 -0.07607542
0.0052533266 -0.13855582 -0.15756753 0.16499601 -0.15708044 -0.14534006 -0.06806493 0.009835117
0.04011908 -0.086307794 -0.017003343 -0.03910716 0.14657246 0.15209295 0.07198627 -0.0010802327
0.13136376 -0.14138563 0.07318981 -0.10181406 0.13665436 -0.15479322 0.06507836 -0.14400178
0.10223661 0.032021806 0.15034015 -0.13212106 0.11276926 -0.11690141 -0.094549716 0.066634715
-0.029487416 -0.13836406 -0.14908049 -0.045493335 0.048509717 0.15385327 0.12880461 0.0028700684
-0.10742792 -0.15613075 0.15645735 -0.09768919 -0.03080517 -0.14130265 -0.12106614 0.03399919
-0.040291585 0.040770788 -0.08540997 0.008085376 0.08790184 -0.084591895 0.31197014 0.017693788
0.1749799 -0.09731182 -0.20873576 0.014086086 -0.013359956 0.1933471 0.2955176 -0.057139706
-0.121434756 -0.07379972 0.3120865 0.14545427 0.008705374 0.0136673115 -0.19940591 -0.06654593
0.22865085 -0.06431238 0.16276328 -0.21793632 0.15788469 0.24489203 0.11762141 0.074806914
00000000: 7c2c 53bb db3c 383e a398 15be 100f a73c
00000010: 35b7 d2bd 741e 033d 648e 083d b458 d6bd
00000020: 2c5a dcbd 0a93 26be d276 33be c9eb 563d
00000030: 69ad 203e 3418 0a3e e76e 96bd fad5 51be
00000040: 202e 293e 0fa6 fbbb 769d f23c 11f8 50be
00000050: db5d c1bd 9fb2 583d f060 b9bd 728a 563d
00000060: db01 243e a946 f3bd d197 e6bd 4d01 1cbd
00000070: a363 cc3c b5cb 443d d0c5 283e 3eab a3be
00000080: 36c0 c4bd e724 f2bd 98db 4e3e 2d54 df3d
00000090: f0fb 5ebe 099d 813e 2d3e 20bf 14fd 233e
000000a0: 3ff3 debd 995a c43d 9a0a 0c3c 71e2 06be
000000b0: 6136 18be 0359 11bc 83e0 3fbe 3df0 643e
000000c0: 74c1 b9bd defd c73c f775 24be 757d 1d3e
000000d0: 0981 09be 4981 023e 5bb7 903d 8b1d 863d
000000e0: ffdc 323b e0bc 873d 7fec d2bd da02 6e3c
000000f0: 96f6 903d 27cd 22be 66ef e8bb 6907 563e
00000100: 04e3 d7bd 8761 f93d f767 e6bd 9c26 20be
00000110: 38f0 7fbe 73eb 20be 8682 9c3e 7ac3 e3bd
00000120: 7a7e 02bd 7e11 183d 0b48 6abe 631a 973c
00000130: 2024 b6bc 651c d43d 9aea 3e3e 8039 12be
00000140: 71bf de3d 61b0 ea39 2bd9 ddbd c6a1 11be
00000150: 07de 663c d6b4 733d 4e6c b53b c683 fdbd
00000160: 6c46 113e 056f 283c 6ba8 43be e987 e3bc
00000170: 428d 4bbd 2274 1b3d 4ce6 ccbd 34e5 b5bd
00000180: 7971 2d3e 0588 05be e56b 9a3d 06a7 67be
00000190: c318 92be 6c5b 05be 4456 96bd fa33 8e3d
000001a0: 92f7 f73d b234 5fbe 55fe 24be ef19 c63d
000001b0: 3866 adbc 47cf 833d d753 c73d ccad 01be
000001c0: c65d 8cbd d461 633d 01fe c93c a22b 5ebe
000001d0: cdfb 5fbd c7cc a2bd a716 4c3e 6c54 86bd
000001e0: 98d3 d53d 1a13 a83b 6b93 45be 487f 193e
000001f0: 8a9d f3bc d3bc c0bb d153 0f3e a2ba 5fbe
00000200: 1277 1e3d 0034 28be 342b 5d3e 1291 293e
00000210: 35b1 5dbb 641d 303e 6823 45be 05b1 9ebc
00000220: 6e22 003e 2ad1 3b3e f0b8 423e 0192 3dbd
00000230: 58ba c4bd fddd 05be e1f9 373d 4ea6 163e
00000240: 3844 f8bd b120 5a3e 6bc5 07bd 97fd db3c
00000250: 0ac5 3b3d d7a8 0bbd abb7 843d e641 463e
00000260: 38ff 81be 5b15 a6bd e885 e13c b14e 9a3d
00000270: bb6c 18be e35b 7dbe dba9 62bc a1be c53d
00000280: 64ce 1a3d b85d b63c 582a 133d 9838 3e3c
00000290: a8ef a43c 28a9 25bc c2c7 803d 92e4 f43d
000002a0: 0d07 b3bd 1ae8 b9bd 9f75 9d3d 4caa 01be
000002b0: ef18 e93d 56be a53d e086 cf3c 6ecd 9bbd
000002c0: 1924 ac3b 94e1 0dbe 6259 21be b7f4 283e
000002d0: b2d9 20be 06d4 14be a065 8bbd 7823 213c
000002e0: e853 243d 24c2 b0bd 984a 8bbc d42e 20bd
000002f0: 1717 163e 41be 1b3e 8a6d 933d 9896 8dba
00000300: 3984 063e 65c7 10be 8ae4 953d e483 d0bd
00000310: 1fef 0b3e 1d82 1ebe ce47 853d 3475 13be
00000320: 6e61 d13d 4c29 033d c5f2 193e be4a 07be
00000330: 92f3 e63d 026a efbd 48a3 c1bd c877 883d
00000340: 988f f1bc 4faf 0dbe 8ea8 18be 3857 3abd
00000350: 20b2 463d b68b 1d3e 5be5 033e c217 3c3b
00000360: 2b03 dcbd bde0 1fbe 5b36 203e 4511 c8bd
00000370: 205b fcbc a4b1 10be 86f1 f7bd bc42 0b3d
00000380: ca08 25bd 45ff 263d 6ceb aebd 8678 043c
00000390: e105 b43d 843e adbd 8dba 9f3e 90f2 903c
000003a0: ee2d 333e 6b4b c7bd d4be 55be 54c9 663c
000003b0: b8e3 5abc c8fc 453e 154e 973e 530b 6abd
000003c0: c9b2 f8bd 4f24 97bd cdc9 9f3e f7f1 143e
000003d0: fca0 0e3c dcec 5f3c 1031 4cbe 3c49 88bd
000003e0: 7323 6a3e 36b6 83bd 6bab 263e b32a 5fbe
000003f0: 86ac 213e fac4 7a3e 7ee3 f03d 5e34 993d

net.flow_mapping.0.affine_layers.0.net.8.bias f4 [32]
0.12441913 0.10634686 0.0060386076 0.18228933 0.027048483 -0.09261743 -0.09546261 0.16112116
-0.070939474 0.14689995 -0.17011042 0.001306835 -0.13387373 0.052037828 0.16931099 0.075534366
-0.06023711 -0.1643609 -0.10486889 -0.10972821 0.17839858 -0.094174586 0.04508554 0.16657117
0.07783092 -0.15371682 -0.019896701 -0.07674136 0.14137197 -0.03419368 0.03438317 0.16621666
00000000: 75cf fe3d 62cc d93d 83df c53b 0eaa 3a3e
00000010: c894 dd3c 35ae bdbd e781 c3bd f2fc 243e
00000020: b748 91bd f16c 163e 6d31 2ebe 1b4a ab3a
00000030: 3216 09be 9e25 553d dc5f 2d3e c3b1 9a3d
00000040: 30bb 76bd 394e 28be 80c5 d6bd 2fb9 e0bd
00000050: 1eae 363e 9bde c0bd 9dab 383d a291 2a3e
00000060: d165 9f3d f167 1dbe 68fe a2bc 932a 9dbd
00000070: d0c3 103e ac0e 0cbd 5ed5 0c3d b334 2a3e

net.flow_mapping.0.affine_layers.0.net.10.weight f4 [2, 32]
-0.05142335 0.22658946 -0.21849859 0.09043095 0.17969535 -0.03517446 0.033765465 -0.30635434
0.006441407 -0.07342147 -0.16405599 -0.43546814 0.050231308 0.0016451685 0.14668624 0.1709165
-0.078603245 0.14483957 -0.26230264 -0.21642943 0.09631635 -0.1457986 -0.21231374 -0.021325046
-0.21539712 0.09533979 -0.14962605 -0.117212206 0.02341404 0.14468238 0.24644531 -0.2943257
0.15461698 -0.081607945 0.2368173 0.15689155 -0.20338453 0.15610175 -0.031315714 -0.0016906688
0.052391738 0.29582834 0.05286727 -0.38090214 -0.14013587 0.1600263 -0.1735019 -0.16153495
-0.13957933 -0.09671136 -0.29326484 0.008579197 0.12759642 0.16723607 0.20988172 0.041558202
0.19693586 0.100104526 -0.15113321 0.13818927 -0.2439145 0.12020078 -0.18104035 0.13354217
00000000: 4aa1 52bd 1107 683e 18be 5fbe dd33 b93d
00000010: 0f02 383e 1813 10bd a84d 0a3d 7ada 9cbe
00000020: 7012 d33b ff5d 96bd 4bfe 27be aef5 debe
00000030: 58bf 4d3d b2a2 d73a eb34 163e bc04 2f3e
00000040: bdfa a0bd d350 143e 884c 86be ad9f 5dbe
00000050: 8241 c53d 3a4c 15be c668 59be ddb1 aebc
00000060: 1091 5cbe 8241 c33d 9237 19be f40c f0bd
00000070: cdce bf3c 9e27 143e 295c 7c3e dcb1 96be
00000080: ea53 1e3e 1122 a7bd 3c80 723e 2ea8 203e
00000090: 0944 50be 23d9 1f3e e844 00bd 6e99 ddba
000000a0: b898 563d d076 973e 5a8b 583d 9b05 c3be
000000b0: c77f 0fbe efdd 233e 7baa 31be 6b69 25be
000000c0: e2ed 0ebe 9b10 c6bd cf26 96be c38f 0c3c
000000d0: a3a8 023e ef3f 2b3e 3ceb 563e ef38 2a3d
000000e0: 8ea9 493e 9a03 cd3d aac2 1abe 7d81 0d3e
000000f0: b9c4 79be d42b f63d a462 39be 47bf 083e

net.flow_mapping.0.affine_layers.0.net.10.bias f4 [2]
-0.005059728 0.07366671
00000000: 13cc a5bb 92de 963d

net.flow_mapping.0.affine_layers.1.net.0.weight f4 [32, 1]
0.19493324 -0.62573975 0.45928004 0.5534863 -0.5314635 -0.71789986 -0.62588537 -0.4821896
-0.12487627 0.016774492 0.01519153 -0.35317546 0.6332524 0.06740369 -0.5964197 -0.29363996
-0.6773505 -0.41304252 -0.8724103 0.26929322 -0.8391813 0.40460265 0.8226993 -0.75130796
-0.52290344 -0.83556056 0.3379494 0.28487277 -0.57046884 0.62383395 0.46465063 -0.9146733
00000000: 949c 473e 7b30 20bf c126 eb3e 47b1 0d3f
00000010: fe0d 08bf 49c8 37bf 063a 20bf 8ee1 f6be
00000020: 21bf ffbd a96a 893c e5e5 783c 6ad3 b4be
00000030: d41c 223f f20a 8a3d f6ae 18bf fa57 96be
00000040: d866 2dbf 4f7a d3be 4856 5fbf cde0 893e
00000050: 96d4 56bf 1428 cf3e 6c9c 523f b855 40bf
00000060: 00dd 05bf 4ce7 55bf b407 ad3e d8da 913e
00000070: 3f0a 12bf 95b3 1f3f b0e6 ed3e 0828 6abf

net.flow_mapping.0.affine_layers.1.net.0.bias f4 [32]
-0.0773484 -0.547459 -0.19572751 0.62319726 -0.20647022 -0.6280631 0.7595799 -0.9058565
-0.34021437 0.36402285 0.8909715 0.97464734 -0.2832709 0.3610634 -0.849179 -0.2569963
-0.26376358 0.26659814 -0.7632072 0.23564056 0.5637448 0.80953205 -0.11394341 0.9233576
-0.9362229 -0.32792273 0.42283508 0.28160506 0.46618912 -0.71970654 0.62944067 -0.92257524
00000000: d768 9ebd 4626 0cbf cb6c 48be db89 1f3f
00000010: ee6c 53be bec8 20bf d473 423f 36e6 67bf
00000020: 9430 aebe 3461 ba3e b516 643f 7d82 793f
00000030: e208 91be 4ddd b83e cc63 59bf 0595 83be
00000040: 050c 87be 8d7f 883e 8c61 43bf c24b 713e
00000050: 9451 103f 7e3d 4f3f 2a5b e9bd 2a61 6c3f
00000060: 4eac 6fbf 7de5 a7be d77d d83e 8a2e 903e
00000070: 57b0 ee3e b03e 38bf 0623 213f e42d 6cbf

net.flow_mapping.0.affine_layers.1.net.2.weight f4 [32, 32]
-0.10036811 -0.080041565 -0.17013046 -0.16945818 -0.094738334 -0.08396691 0.08906647 -0.055901453
-0.0071982592 -0.11797173 -0.12875524 -0.078303546 -0.16941124 0.14651114 -0.041093253 -0.078934275
-0.08743229 0.08307071 -0.05580504 -0.11628691 0.16690876 0.16699453 -0.34930542 0.14964531
-0.028439755 0.065572254 0.08173015 -0.034104463 0.2022035 0.107758835 -0.105301574 0.011498369
-0.17354102 0.056094974 -0.13176209 -0.14682941 -0.11230222 -0.1731648 -0.1425981 0.1562034
0.097873166 0.15515353 -0.084946364 -0.07183467 -0.061455294 0.0034211073 -0.12567721 0.025681123
-0.112290144 0.027682826 0.16045178 0.029589191 0.12774174 -0.12471192 -0.024720088 -0.108149976
-0.019428417 -0.069670886 -0.099432975 -0.16914646 -0.06494404 0.023455724 -0.030813664 -0.1631649
0.13158382 0.12987061 -0.10564011 0.01780264 0.116308436 -0.16640046 -0.15472469 0.09721555
-0.003469834 0.055789515 -0.0728429 0.031749725 0.11617263 -0.04284565 -0.05658976 -0.16684963
-0.027026653 0.11101146 -0.16559093 -0.013529681 0.12765168 -0.049985275 -0.064709894 -0.052851222
-0.070951775 0.020971837 -0.16863577 0.06694946 -0.04424365 -0.022305772 -0.011817999 0.09788184
-0.037205998 -0.1593887 -0.05173339 -0.10283666 -0.08546536 0.13841398 -0.22711693 -0.1029755
-0.1427679 -0.0786696 4.5671946e-05 -0.118444204 0.06786554 0.07067294 -0.029808298 0.0756015
0.04019572 0.076845795 -0.008941278 0.17896251 0.037274603 0.101934314 0.14796901 -0.18956941
-0.11732254 0.07482074 0.085885406 0.18236265 -0.10039708 0.24365343 0.14271554 0.0056587905
0.16448669 -0.08936441 -0.057464346 0.007567854 0.09341113 -0.15358217 -0.04904677 0.12717517
0.036473423 0.12383743 -0.059343986 -0.11043101 -0.119614005 -0.098508626 -0.13164206 0.08680044
0.047079146 -0.112100214 0.16055773 0.04985878 0.06518522 -0.073814854 0.12125364 -0.12355636
0.1276503 -0.09519121 0.07441287 -0.063347936 0.113785796 -0.14691642 -0.03416595 -0.047279045
-0.104768746 -0.08602701 -0.04916857 0.018162176 0.12431071 -0.028781012 0.1716673 -0.08338514
-0.09020261 -0.009137318 -0.03170076 0.055647135 0.161864 0.059990138 -0.14658023 -0.059860855
-0.03479821 -0.15949702 0.054154366 0.15296827 0.08699213 -0.0034689847 -0.013332523 -0.0820458
-0.019454345 0.15364149 -0.09008019 0.028030276 -0.12849787 -0.047905803 0.01014436 -0.13227697
0.11284244 -0.4262709 -0.0036641501 0.11999488 0.056862347 -0.32567176 -0.099043354 -0.14380547
-0.043040916 -0.06543268 0.1681788 -0.08021936 0.16167569 0.053931806 -0.053267054 -0.13899343
-0.03478793 0.037533697 -0.39469805 -0.071296215 0.10315348 0.16248426 -0.07078491 -0.048058283
-0.17111048 -0.009760802 0.17479697 0.11988186 -0.052902304 0.39944753 -0.049250457 0.03240384
0.15232754 -0.41299814 0.095901914 0.057821188 -0.19647528 -0.12905139 0.17601244 0.14640267
-0.001580039 -0.07844883 -0.075168885 0.10350884 0.0072717215 0.15020512 0.1467102 -0.27089298
-0.26299006 0.12833606 -0.11995018 -0.06913783 -0.029259956 -0.04105704 0.004243935 -0.09342324
0.09353353 -0.027037697 -0.07458641 -0.07742438 -0.023413353 0.37310275 0.09664727 -0.20582837
00000000: cc8d cdbd d5ec a3bd ae36 2ebe 7286 2dbe
00000010: 2c06 c2bd d8f6 abbd 7b68 b63d ecf8 64bd
00000020: 60df ebbb 2a9b f1bd 6ad8 03be 9c5d a0bd
00000030: 247a 2dbe 0407 163e 6651 28bd 4ba8 a1bd
00000040: b30f b3bd fa20 aa3d d393 64bd d527 eebd
00000050: 21ea 2a3e 9d00 2b3e 29d8 b2be 9f3c 193e
00000060: 7dfa e8bc bf4a 863d 2362 a73d 1fb1 0bbd
00000070: 6f0e 4f3e aab0 dc3d 5aa8 d7bd a863 3c3c
00000080: bdb4 31be d8c3 653d a4ec 06be 735a 16be
00000090: b5fe e5bd 1d52 31be 3c05 12be c9f3 1f3e
000000a0: ba71 c83d 91e0 1e3e 5cf8 adbd 0e1e 93bd
000000b0: 8cb8 7bbd a834 603b 87b1 00be 3861 d23c
000000c0: 60f8 e5bd 18c7 e23c 794d 243e 0865 f23c
000000d0: bbce 023e f768 ffbd c881 cabc bc7d ddbd
000000e0: 5828 9fbc 9caf 8ebd 84a3 cbbd bb34 2dbe
000000f0: 6101 85bd 3826 c03c f06c fcbc b314 27be
00000100: e9bd 063e cdfc 043e d859 d8bd d8d6 913c
00000110: 1e33 ee3d e264 2abe 2670 1ebe f218 c73d
00000120: 2866 63bb 8c83 643d a92e 95bd 000c 023d
00000130: eaeb ed3d ec7e 2fbd aaca 67bd a1da 2abe
00000140: 0067 ddbc fa59 e33d ab90 29be 98ab 5dbc
00000150: 1fb7 023e 5cbd 4cbd 9f86 84bd 867a 58bd
00000160: 2a4f 91bd 21cd ab3c dbae 2cbe cc1c 893d
00000170: d438 35bd 98ba b6bc 48a0 41bc 4676 c83d
00000180: 5165 18bd cb36 23be 64e6 53bd 079c d2bd
00000190: 7608 afbd 65bc 0d3e 5791 68be d2e4 d2bd
000001a0: c031 12be 871d a1bd e18f 3f38 e092 f2bd
000001b0: 17fd 8a3d f9bc 903d 8830 f4bc f6d4 9a3d
000001c0: 44a4 243d 5461 9d3d 707e 12bc f341 373e
000001d0: 41ad 183d f0c2 d03d 3085 173e 7c1e 42be
000001e0: cd46 f0bd 9e3b 993d b0e4 af3d 46bd 3a3e
000001f0: fc9c cdbd 4980 793e 0624 123e 606d b93b
00000200: 336f 283e b004 b7bd bc5f 6bbd c3fb f73b
00000210: 564e bf3d a544 1dbe 44e5 48bd 353a 023e
00000220: 2865 153d 7a9e fd3d ae12 73bd a729 e2bd
00000230: 30f8 f4bd e4be c9bd 2dcd 06be 6ec4 b13d
00000240: 10d6 403d cc94 e5bd 3f69 243e b838 4c3d
00000250: d47f 853d 3e2c 97bd d453 f83d 1e0b fdbd
00000260: c3b6 023e 9cf3 c2bd c665 983d 90bc 81bd
00000270: 8708 e93d 4271 16be 98f1 0bbd aca7 41bd
00000280: ff90 d6bd ee2e b0bd fc64 49bd d8c8 943c
00000290: 9d96 fe3d 28c6 ebbc 8dc9 2f3e d4c5 aabd
000002a0: 25bc b8bd b0b4 15bc a8d8 01bd 40ee 633d
000002b0: adbf 253e 38b8 753d 2119 16be a830 75bd
000002c0: 9188 0ebd 3053 23be f8d0 5d3d b7a3 1c3e
000002d0: ee28 b23d e857 63bb a870 5abc a107 a8bd
000002e0: b85e 9fbc 3254 1d3e f67b b8bd c09f e53c
000002f0: f294 03be e038 44bd 8834 263c 9d73 07be
00000300: f019 e73d 2e40 dabe 3d22 70bb e0bf f53d
00000310: 7ee8 683d 73be a6be 3ed7 cabd be41 13be
00000320: ac4b 30bd 9201 86bd 1037 2c3e 0c4a a4bd
00000330: 508e 253e 99e7 5c3d 8e2e 5abd 4b54 0ebe
00000340: ca7d 0ebd efbc 193d dd15 cabe c003 92bd
00000350: 2242 d33d 4662 263e aef7 90bd c3d8 44bd
00000360: 9637 2fbe c5eb 1fbc fafd 323e 9f84 f53d
00000370: 16b0 58bd 6384 cc3e d9ba 49bd e4b9 043d
00000380: c0fb 1b3e 7e74 d3be 3968 c43d e9d5 6c3d
00000390: d130 49be 0c26 04be 9b3c 343e 95ea 153e
000003a0: 5019 cfba c8a9 a0bd 25f2 99bd 71fc d33d
000003b0: 9f47 ee3b 5fcf 193e 333b 163e 7cb2 8abe
000003c0: a2a6 86be 876a 033e 71a8 f5bd 2298 8dbd
000003d0: 93b2 efbc 6d2b 28bd b510 8b3b af54 bfbd
000003e0: 828e bf3d 297e ddbc c2c0 98bd ac90 9ebd
000003f0: 5ccd bfbc 5307 bf3e 01ef c53d acc4 52be

net.flow_mapping.0.affine_layers.1.net.2.bias f4 [32]
0.036557846 -0.11435507 0.09681101 0.01586207 -0.088674635 -0.16940479 0.1660063 0.19511575
0.01624751 -0.035460744 0.11545785 0.10045739 0.008991591 0.14100878 -0.11294838 -0.020073712
0.19700421 -0.10837477 -0.030532645 -0.071658514 -0.056583352 0.16145413 0.1430924 -0.14858495
-0.07796393 -0.067493975 -0.056944937 -0.077862754 -0.16002072 0.14051846 0.11701323 0.042664163
00000000: aebd 153d fe32 eabd da44 c63d 2cf1 813c
00000010: 0c9b b5bd 7378 2dbe 8efd 293e 6ccc 473e
00000020: 8019 853c 493f 11bd 2a75 ec3d 9bbc cd3d
00000030: 7751 133c 9b64 103e 7b51 e7bd a071 a4bc
00000040: 79bb 493e 97f3 ddbd 991f fabc b3c1 92bd
00000050: f2c3 67bd 3b54 253e d086 123e a726 18be
00000060: 8eab 9fbd 483a 8abd 183f 69bd 8276 9fbd
00000070: 79dc 23be 12e4 0f3e a2a4 ef3d 9ec0 2e3d

net.flow_mapping.0.affine_layers.1.net.4.weight f4 [32, 32]
0.017912544 -0.16974404 -0.010966554 0.026467802 -0.050834566 0.13794143 0.025536869 0.024280235
0.13094409 -0.27390313 -0.1698802 0.10756971 -0.10769803 -0.027051572 -0.0198942 0.13377132
-0.1416636 0.062219128 -0.18956608 0.093536705 -0.011666723 -0.075924255 0.07681708 0.20316593
0.15975705 -0.15982778 -0.045410663 0.16747798 0.020894874 -0.28632492 0.05988886 -0.061582133
0.0087715 0.011622988 0.13186212 -0.04815069 -0.045835428 0.03334941 -0.26564804 -0.016781805
0.13282837 0.00868773 -0.11209623 -0.0019096655 0.17950931 0.02735893 0.09386656 -0.09269865
-0.20218413 -0.065869436 -0.0856605 0.26746872 0.037826624 -0.22435074 0.040860407 0.03178265
-0.14028983 -0.07333439 0.03253962 0.22342944 0.2832199 0.06857053 -0.22050314 0.16387725
0.21375796 -0.052064195 0.0060403757 0.19941767 -0.061593488 0.08306645 0.04215386 0.13791564
0.09538688 0.14748989 0.2051048 -0.07551603 0.15047857 -0.04211366 -0.057092935 0.029381618
-0.025399473 -0.114127494 -0.18448266 -0.16923042 0.07659602 0.13000253 0.07862615 0.029160714
0.17684138 0.050270654 -0.11026221 -0.009815488 -0.30181885 0.17617132 0.10371478 -0.20546308
0.18429674 0.08168365 0.14733015 0.1576309 -0.03048122 0.15899982 0.022837736 0.040372666
0.091226414 -0.18220922 -0.07502308 0.17526467 -0.10223053 0.07821075 0.11860891 -0.14217508
-0.050976094 -0.0018747002 0.09909297 -0.13701706 0.2018518 -0.14000422 0.018390823 0.05749959
-0.06856531 0.15678678 -0.11159114 -0.04281846 -0.07300208 -0.06700621 0.18308093 -0.21369678
-0.019387387 0.13685925 0.030688584 0.107003555 0.103258565 -0.11463922 0.023399822 0.19602786
-0.07253616 0.006497718 0.16071817 0.0417687 -0.02553068 0.080143966 -0.1253268 0.14389686
0.1549721 -0.049067408 -0.0634294 -0.12015898 0.20132194 -0.038571622 0.02172917 -0.20791778
0.08381952 0.2786946 0.05670152 -0.09026373 -0.124492034 0.1579779 0.12185493 -0.18105453
-0.16081788 0.1276296 -0.06521148 0.10957707 -0.035192743 0.0029067528 -0.1375491 -0.064391695
0.014888475 -0.16845669 -0.037728526 0.08425142 0.10425833 0.11103596 -0.06501025 0.0137896165
-0.15907754 0.090767756 0.024691338 0.12737405 -0.027249321 0.16615938 0.0664742 0.13033026
-0.029893 -0.13749668 -0.13742979 -0.18511283 0.006544763 -0.13863973 -0.07407462 0.088254385
0.15923055 -0.04393369 0.12125585 -0.013273589 -0.035040557 -0.02073592 -0.07941858 0.047947377
-0.000948017 -0.085326806 0.111434445 -0.07823534 -0.11865418 0.06079723 -0.01075469 -0.09644192
-0.14296725 -0.052494764 -0.13414504 0.0952764 -0.021818027 0.09024547 0.08524422 0.014113016
-0.026966363 -0.090367064 0.039428964 -0.1523746 -0.08533703 0.13963963 -0.034010112 0.14126875
0.079075955 -0.036930278 -0.14094524 0.08170122 0.014757916 0.16558544 -0.16542709 0.0036277391
-0.2027022 0.01224917 -0.21562085 -0.17287393 0.00043348974 0.2073517 -0.017104995 -0.016226888
0.19571754 0.016030908 -0.055388607 0.19606236 0.04644676 0.13221177 0.19423258 0.19812368
-0.0478418 -0.19746773 -0.06390284 0.06631028 0.2674576 -0.14967097 0.03640136 0.103261836
00000000: 54bd 923c 62d1 2dbe 10ad 33bc 01d3 d83c
00000010: e837 50bd 8540 0d3e b232 d13c 58e7 c63c
00000020: 3516 063e 083d 8cbe 13f5 2dbe 824d dc3d
00000030: c990 dcbd 429b ddbc 29f9 a2bc 59fb 083e
00000040: 4310 11be 7cd9 7e3d 9c1d 42be 2c90 bf3d
00000050: c825 3fbc 2d7e 9bbd 4652 9d3d bb0a 503e
00000060: 5a97 233e e5a9 23be 8800 3abd 597f 2b3e
00000070: ba2b ab3c 2e99 92be 054e 753d 8c3d 7cbd
00000080: 56b6 0f3c 586e 3e3c dd06 073e a839 45bd
00000090: eebd 3bbd 6499 083d 0503 88be ff79 89bc
000000a0: 2904 083e fb56 0e3c b592 e5bd be4d faba
000000b0: 4ad1 373e d61f e03c 1c3d c03d cad8 bdbd
000000c0: 5b09 4fbe 8ee6 86bd c66e afbd a9f1 883e
000000d0: 17f0 1a3d 33bc 65be 3e5d 273d 862e 023d
000000e0: 23a8 0fbe 5730 96bd 4448 053d b0ca 643e
000000f0: 3302 913e b56e 8c3d 93cb 61be 70cf 273e
00000100: 5ee3 5a3e 4441 55bd 58ee c53b 2534 4c3e
00000110: 7449 7cbd be1e aa3d 87a9 2c3d c239 0d3e
00000120: 325a c33d 9707 173e fe06 523e 26a8 9abd
00000130: 0e17 1a3e 607f 2cbd 48da 69bd b8b1 f03c
00000140: 8e12 d0bc adbb e9bd 06e9 3cbe bd4a 2dbe
00000150: 60de 9c3d 621f 053e bf06 a13d 73e2 ee3c
00000160: e815 353e 9ae8 4d3d 27d1 e1bd 24d1 20bc
00000170: 0088 9abe 4166 343e 6a68 d43d ea64 52be
00000180: 49b8 3c3e c249 a73d b7dd 163e ff69 213e
00000190: c0b3 f9bc d9d0 223e 3416 bb3c cf5d 253d
000001a0: ead4 ba3d 0e95 3abe b3a5 99bd 9578 333e
000001b0: 3d5e d1bd f52c a03d 3ae9 f23d 5896 11be
000001c0: 4fcc 50bd 80b8 f5ba 41f1 ca3d 334e 0cbe
000001d0: 3db2 4e3e 445d 0fbe 5aa8 963c b184 6b3d
000001e0: f86b 8cbd b78c 203e e589 e4bd 6962 2fbd
000001f0: 1d82 95bd 8d3a 89bd 9179 3b3e 54d3 5abe
00000200: 4cd2 9ebc d524 0c3e a066 fb3c ae24 db3d
00000210: 3a79 d33d f8c7 eabd fcb0 bf3c 87bb 483e
00000220: d78d 94bd cfea d43b 4e93 243e a815 2b3d
00000230: b725 d1bc 8522 a43d ab55 00be b359 133e
00000240: 02b1 1e3e e8fa 48bd 46e7 81bd e915 f6bd
00000250: 5727 4e3e 47fd 1dbd 5f01 b23c 66e8 54be
00000260: 92a9 ab3d 0fb1 8e3e da3f 683d 31dc b8bd
00000270: aef5 febd f5c4 213e 148f f93d 5c66 39be
00000280: 71ad 24be 55b1 023e 998d 85bd f169 e03d
00000290: 4426 10bd 387f 3e3b acd9 0cbe cbdf 83bd
000002a0: caee 733c e97f 2cbe 3a89 1abd 028c ac3d
000002b0: 6485 d53d d266 e33d 1824 85bd d8ed 613c
000002c0: 39e5 22be 72e4 b93d 7d45 ca3c 586e 023e
000002d0: f839 dfbc af25 2a3e a023 883d 4c75 053e
000002e0: 2ae2 f4bc eecb 0cbe 65ba 0cbe 388e 3dbe
000002f0: 7475 d63b 93f7 0dbe 6fb4 97bd b7be b43d
00000300: 550d 233e d0f3 33bd fd54 f83d 7879 59bc
00000310: b086 0fbd 60de a9bc 35a6 a2bd 7864 443d
00000320: 5884 78ba d2bf aebd be37 e43d da39 a0bd
00000330: f600 f3bd 8406 793d 7034 30bc 5783 c5bd
00000340: 0266 12be c004 57bd 515d 09be 4620 c33d
00000350: b8bb b2bc 9ed2 b83d 8694 ae3d 483a 673c
00000360: 90e8 dcbc 5e12 b9bd 4480 213d 1608 1cbe
00000370: 2ec5 aebd b1fd 0e3e 304e 0bbd c1a8 103e
00000380: 93f2 a13d 3444 17bd f353 10be f852 a73d
00000390: 30cb 713c 3b8f 293e b865 29be 5dbf 6d3b
000003a0: 2a91 4fbe beb0 483c b6cb 5cbe dd05 31be
000003b0: 0246 e339 0154 543e c61f 8cbc 40ee 84bc
000003c0: 2e6a 483e 4053 833c 2adf 62bd 92c4 483e
000003d0: f53e 3e3d 8662 073e e8e4 463e efe0 4a3e
000003e0: c3f5 43bd fb34 4abe 7edf 82bd afcd 873d
000003f0: 34f0 883e 5943 19be 9819 153d f17a d33d

net.flow_mapping.0.affine_layers.1.net.4.bias f4 [32]
0.07709554 0.014218298 -0.05544795 0.14213528 0.040934213 -0.075334534 -0.15999272 0.16504209
-0.17729536 0.16885298 -0.035168916 -0.03206083 0.032235656 0.18124515 -0.11529775 -0.11652064
0.10236543 -0.08505327 -0.05429406 0.1020484 -0.07260596 0.06974972 -0.06834187 0.1907056
0.2062898 0.041351378 -0.05827058 0.14635086 0.08187579 0.0007605399 0.17887273 0.0079369135
00000000: 44e4 9d3d ddf3 683c 641d 63bd e98b 113e
00000010: a2aa 273d fe48 9abd 22d5 23be cb00 293e
00000020: ea8c 35be cce7 2c3e 480d 10bd 3852 03bd
00000030: 8909 043d 5498 393e 3a21 ecbd 60a2 eebd
00000040: f7a4 d13d 6930 aebd 7363 5ebd c0fe d03d
00000050: 6fb2 94bd f1d8 8e3d d3f6 8bbd 5448 433e
00000060: a23d 533e 1060 293d 22ad 6ebd 00dd 153e
00000070: 7fae a73d f85e 473a 6a2a 373e d409 023c
