param/das_flow_stage2.pth (torch, 246433 bytes, 174 tensors)

net.rotations.0.LU f4 [2, 2]
0	0x00000000	0.0
1	0x00000000	0.0
2	0x00000000	0.0
3	0x00000000	0.0

net.rotations.0.LU_init f4 [2, 2]
0	0x3f800000	1.0
1	0x00000000	0.0
2	0x00000000	0.0
3	0x3f800000	1.0

net.rotations.0.ones_mat f4 [2, 2]
0	0x3f800000	1.0
1	0x3f800000	1.0
2	0x3f800000	1.0
3	0x3f800000	1.0

net.rotations.0.I f4 [2, 2]
0	0x3f800000	1.0
1	0x00000000	0.0
2	0x00000000	0.0
3	0x3f800000	1.0

net.flow_mapping.0.scale_layers.0.b f4 [1, 2]
0	0x3c7e41c4	0.015518609
1	0x3cadb2aa	0.021203358

net.flow_mapping.0.scale_layers.0.logs f4 [1, 2]
0	0x3d088c14	0.033336714
1	0x3d27d4a7	0.040974285

net.flow_mapping.0.scale_layers.0.b_init f4 [1, 2]
0	0x00000000	0.0
1	0x00000000	0.0

net.flow_mapping.0.scale_layers.0.logs_init f4 [1, 2]
0	0x00000000	0.0
1	0x00000000	0.0

net.flow_mapping.0.scale_layers.1.b f4 [1, 2]
0	0x3ca278ea	0.019833047
1	0xbb28f6e3	-0.0025781922

net.flow_mapping.0.scale_layers.1.logs f4 [1, 2]
0	0x3d4e219a	0.050325014
1	0x3d11864f	0.035528477

net.flow_mapping.0.scale_layers.1.b_init f4 [1, 2]
0	0x00000000	0.0
1	0x00000000	0.0

net.flow_mapping.0.scale_layers.1.logs_init f4 [1, 2]
0	0x00000000	0.0
1	0x00000000	0.0

net.flow_mapping.0.scale_layers.2.b f4 [1, 2]
0	0x3a84bca4	0.001012702
1	0x3d1b6728	0.037940174

net.flow_mapping.0.scale_layers.2.logs f4 [1, 2]
0	0x3d295f43	0.041350614
1	0x3d59fe91	0.05322129

net.flow_mapping.0.scale_layers.2.b_init f4 [1, 2]
0	0x00000000	0.0
1	0x00000000	0.0

net.flow_mapping.0.scale_layers.2.logs_init f4 [1, 2]
0	0x00000000	0.0
1	0x00000000	0.0

net.flow_mapping.0.scale_layers.3.b f4 [1, 2]
0	0x3d0d0189	0.034425292
1	0xbbdd30ba	-0.0067501934

net.flow_mapping.0.scale_layers.3.logs f4 [1, 2]
0	0x3d6c7b8a	0.057735004
1	0x3d2a2fe3	0.041549575

net.flow_mapping.0.scale_layers.3.b_init f4 [1, 2]
0	0x00000000	0.0
1	0x00000000	0.0

net.flow_mapping.0.scale_layers.3.logs_init f4 [1, 2]
0	0x00000000	0.0
1	0x00000000	0.0

net.flow_mapping.0.scale_layers.4.b f4 [1, 2]
0	0xbaa7d9ba	-0.0012805976
1	0x3d42a829	0.04752365

net.flow_mapping.0.scale_layers.4.logs f4 [1, 2]
0	0x3d2dc425	0.042423386
1	0x3d616c36	0.05503484

net.flow_mapping.0.scale_layers.4.b_init f4 [1, 2]
0	0x00000000	0.0
1	0x00000000	0.0

net.flow_mapping.0.scale_layers.4.logs_init f4 [1, 2]
0	0x00000000	0.0
1	0x00000000	0.0

net.flow_mapping.0.scale_layers.5.b f4 [1, 2]
0	0x3d1e3fce	0.038635068
1	0x3cb1ca5e	0.021702942

net.flow_mapping.0.scale_layers.5.logs f4 [1, 2]
0	0x3d7a96e2	0.06117905
1	0x3d22eeb7	0.039778437

net.flow_mapping.0.scale_layers.5.b_init f4 [1, 2]
0	0x00000000	0.0
1	0x00000000	0.0

net.flow_mapping.0.scale_layers.5.logs_init f4 [1, 2]
0	0x00000000	0.0
1	0x00000000	0.0

net.flow_mapping.0.scale_layers.6.b f4 [1, 2]
0	0x3cec1ce9	0.02882238
1	0x3c8617db	0.016368797

net.flow_mapping.0.scale_layers.6.logs f4 [1, 2]
0	0x3d88276a	0.06648143
1	0x3d77d74d	0.06050806

net.flow_mapping.0.scale_layers.6.b_init f4 [1, 2]
0	0x00000000	0.0
1	0x00000000	0.0

net.flow_mapping.0.scale_layers.6.logs_init f4 [1, 2]
0	0x00000000	0.0
1	0x00000000	0.0

net.flow_mapping.0.scale_layers.7.b f4 [1, 2]
0	0x3c391065	0.011295413
1	0x3cdb6260	0.026780307

net.flow_mapping.0.scale_layers.7.logs f4 [1, 2]
0	0x3d7e6996	0.062112413
1	0x3d83b155	0.06430308

net.flow_mapping.0.scale_layers.7.b_init f4 [1, 2]
0	0x00000000	0.0
1	0x00000000	0.0

net.flow_mapping.0.scale_layers.7.logs_init f4 [1, 2]
0	0x00000000	0.0
1	0x00000000	0.0

net.flow_mapping.0.scale_layers.8.b f4 [1, 2]
0	0x3cbae43f	0.022813914
1	0xba05e6b8	-0.0005107927

net.flow_mapping.0.scale_layers.8.logs f4 [1, 2]
0	0x3d956903	0.0729542
1	0x3d57cfc2	0.052688368

net.flow_mapping.0.scale_layers.8.b_init f4 [1, 2]
0	0x00000000	0.0
1	0x00000000	0.0

net.flow_mapping.0.scale_layers.8.logs_init f4 [1, 2]
0	0x00000000	0.0
1	0x00000000	0.0

net.flow_mapping.0.scale_layers.9.b f4 [1, 2]
0	0xbb6c0e34	-0.0036019208
1	0x3ce4f172	0.027947161

net.flow_mapping.0.scale_layers.9.logs f4 [1, 2]
0	0x3d606c16	0.05479058
1	0x3d8f6a74	0.07002726

net.flow_mapping.0.scale_layers.9.b_init f4 [1, 2]
0	0x00000000	0.0
1	0x00000000	0.0

net.flow_mapping.0.scale_layers.9.logs_init f4 [1, 2]
0	0x00000000	0.0
1	0x00000000	0.0

net.flow_mapping.0.affine_layers.0.net.0.weight f4 [32, 1]
0	0x3f40988e	0.7523278
1	0x3f529649	0.82260567
2	0xbe63c8aa	-0.22244516
3	0x3f5dc83a	0.86633646
4	0xbe93d12a	-0.28870517
5	0x3e061ca5	0.13096865
6	0xbf005a09	-0.5013738
7	0x3f07a0b2	0.52979577
8	0x3f62343c	0.88360953
9	0xbf3d7646	-0.74008596
10	0x3f6d7fb5	0.9277299
11	0x3e477990	0.19479966
12	0x3f3abf4c	0.72948146
13	0x3e0a9938	0.13535011
14	0x3f1133e7	0.5671982
15	0xbdece666	-0.115673825
16	0x3f39536e	0.7239293
17	0x3e1743c8	0.1477195
18	0xbee871f9	-0.45399454
19	0x3e826cf0	0.25473738
20	0xbeeda50c	-0.46414983
21	0xbe1c8977	-0.15286814
22	0xbee76986	-0.45197695
23	0x3f1807ff	0.593872
24	0xbf46d837	-0.7767367
25	0xbefc785b	-0.49310574
26	0xbe9ec8a8	-0.31012464
27	0xbf1dcba5	-0.6163886
28	0x3e121c28	0.14268553
29	0xbf813040	-1.009285
30	0x3f6de7cf	0.92931837
31	0xbf546be6	-0.8297714

net.flow_mapping.0.affine_layers.0.net.0.bias f4 [32]
0	0x3f4b4b56	0.7941183
1	0x3e2f1d87	0.17101108
2	0xbead26c3	-0.33818635
3	0x3f2cc35e	0.67485607
4	0x3e400af3	0.18754177
5	0x3f4f1e9c	0.8090608
6	0x3e034e57	0.12822853
7	0xbec6f300	-0.3885727
8	0x3e8a4d11	0.27011922
9	0xbe8f6d77	-0.28013203
10	0x3ebe3d2e	0.3715605
11	0x3f64a948	0.893208
12	0x3f1d4e5c	0.6144769
13	0xbedfb1ec	-0.4369043
14	0x3f157944	0.5838816
15	0x3e64e9f2	0.22354868
16	0x3f0e2441	0.5552407
17	0xbf1bf116	-0.6091474
18	0xbf805349	-1.0025417
19	0xbec5b294	-0.38612807
20	0xbf43244c	-0.7622726
21	0x3f5bfe81	0.8593522
22	0x3e8cb70f	0.27483413
23	0x3ede2f38	0.433954
24	0x3eb547a9	0.35406235
25	0xbd9749ff	-0.073871605
26	0x3f4e5570	0.8059912
27	0xbf314d2e	-0.6925839
28	0x3dbfbaf1	0.09361828
29	0xbf28c3d0	-0.65923786
30	0x3ea36d6a	0.31919414
31	0xbeb445f1	-0.3520961

net.flow_mapping.0.affine_layers.0.net.2.weight f4 [32, 32]
0	0x3d5dbb54	0.05413373
1	0xbd16c388	-0.036807567
2	0x3e160b5f	0.14652775
3	0xbdd673ed	-0.1047133
4	0xbdd7ca7c	-0.10536668
5	0xbdd7cdd3	-0.10537305
6	0x3e22b741	0.15890218
7	0x3d712730	0.058875263
8	0x3e2e137d	0.16999622
9	0xbe154ca6	-0.1458002
10	0xbe33705b	-0.17523329
11	0xbe0d8a63	-0.13822322
12	0xbdf3649a	-0.118844226
13	0x3d928c74	0.071556956
14	0x3d818e0e	0.06325923
15	0x3e165263	0.14679866
16	0xbdbadb29	-0.09123833
17	0xbdf6a8d8	-0.12043923
18	0x3dbff886	0.09373574
19	0xbd923f00	-0.071409225
20	0x3ddb97b2	0.10722293
21	0xbd2bb92c	-0.04192464
22	0x3dcef97e	0.101061806
23	0xbe0c9057	-0.13726936
24	0xbdb697c6	-0.08915667
25	0x3d5c9de8	0.05386153
26	0x3d18fbe0	0.03734958
27	0xbd388000	-0.045043945
28	0x3dd7ac0a	0.10530861
29	0x3df5f882	0.1201029
30	0xbe033021	-0.12811328
31	0xbdc12973	-0.09431734
32	0x3e25a6dd	0.16176935
33	0xbd742e46	-0.059614442
34	0xbd804428	-0.06263
35	0xbe2f0b21	-0.17094089
36	0xbdcf335a	-0.101172164
37	0x3d34c470	0.04413265
38	0xbcbf0708	-0.023318782
39	0xbe035127	-0.12823926
40	0x3b87cb08	0.0041440763
41	0xbdf727ca	-0.12068136
42	0xbe197c12	-0.14988735
43	0xbdc73dfd	-0.0972862
44	0xbe1e5460	-0.15461874
45	0xbde662f0	-0.112493396
46	0x3e34d6b3	0.17660026
47	0x3d08ad7c	0.033368573
48	0x3d5efe80	0.05444193
49	0xbe28bbb2	-0.1647785
50	0xbdeda18b	-0.116030775
51	0xbd70ddec	-0.05880539
52	0x3ce24ff0	0.027626008
53	0xbe1f2e9c	-0.15545124
54	0xbd9be6b2	-0.07612361
55	0xbdd89ced	-0.10576806
56	0x3a0056e8	0.00048957625
57	0xbd86a223	-0.06573894
58	0xbc489538	-0.012242608
59	0xbdf52e82	-0.11971761
60	0xbdf85a70	-0.121266246
61	0xbdd315f9	-0.10306925
62	0xbd77b40e	-0.060474448
63	0xbe0ecaee	-0.13944599
64	0x3df22d8c	0.118250936
65	0xbc2e624e	-0.010643555
66	0x3e1ba82b	0.1520087
67	0x3d156abd	0.036478747
68	0xbe7456e1	-0.23861267
69	0x3d8eaf5b	0.0696704
70	0xbdb3fb27	-0.08788138
71	0xbd0c222f	-0.034212288
72	0xbe068371	-0.13136078
73	0xbe46c426	-0.19410762
74	0x3d64afc1	0.055831674
75	0xbdb7f65d	-0.08982537
76	0x3d3ce92e	0.046120815
77	0xbe1476e3	-0.14498477
78	0x3dcdfe8b	0.10058316
79	0xbe4f27aa	-0.20229974
80	0xbd48656d	-0.048924852
81	0x3d172570	0.036900938
82	0x3dbacb12	0.09120764
83	0x3e120c17	0.14262424
84	0x3e24ccef	0.16093801
85	0xbe4f8be2	-0.20268205
86	0xbd38f92a	-0.045159496
87	0xbdb97ec5	-0.090573825
88	0xbdb85cc4	-0.09002069
89	0xbe2faa30	-0.17154765
90	0x3dbdf809	0.092758246
91	0xbe04c6de	-0.12966487
92	0x3d9afaa4	0.07567337
93	0x3d7444c0	0.059635878
94	0x3d8d0840	0.06886339
95	0xbde0704e	-0.109589204
96	0x3e138755	0.14407094
97	0x3d446514	0.047947958
98	0x3ca4cd52	0.020117436
99	0xbe2cd588	-0.1687833
100	0x3e1af17a	0.15131178
101	0x3c31860e	0.010835184
102	0xbd63f266	-0.05565109
103	0x3e0dee6b	0.1386048
104	0x3b9c375e	0.0047673425
105	0xbd5c0a6d	-0.05372088
106	0xbde992c1	-0.11404944
107	0x3cf95e89	0.030440586
108	0x3d9cab1b	0.07649823
109	0xbd38ea98	-0.0451456
110	0xbded6d64	-0.1159313
111	0x3bdeac9d	0.0067954795
112	0xbe142b0a	-0.14469543
113	0x3d810848	0.06300408
114	0x3e0d9a2f	0.13828348
115	0xbe2a5175	-0.16632636
116	0x3d28e577	0.04123446
117	0x3e197c16	0.14988741
118	0x3dde22d7	0.10846489
119	0xbd8f822e	-0.07007252
120	0x3dfe1448	0.12406212
121	0x3e12ddde	0.14342448
122	0x3e04ec45	0.12980755
123	0xbd1e04d8	-0.038578838
124	0xbd9958b3	-0.07487621
125	0x3d87f0a2	0.06637694
126	0xbd8185ad	-0.06324325
127	0xbbe7a06f	-0.0070686857
128	0x3de3f2fa	0.111303285
129	0x3e19cea7	0.15020238
130	0xbc8f45a0	-0.017489254
131	0xbd28afaa	-0.04118315
132	0x3b28f438	0.0025780331
133	0xbc47695e	-0.012171118
134	0x3d2df76c	0.042472288
135	0x3d440c07	0.047863033
136	0xbe25fae6	-0.16208991
137	0xbd858606	-0.065197036
138	0x3e16aec6	0.14715108
139	0x3d89a0a2	0.067200914
140	0xbc2a9f63	-0.010413977
141	0xbdda25a3	-0.1065171
142	0xbde0b0e5	-0.1097124
143	0xbe23afed	-0.15985079
144	0xbd728b16	-0.059214674
145	0x3d7460a0	0.05966246
146	0x3de6b4d2	0.112649575
147	0x3da70d36	0.08156817
148	0xbe1fe906	-0.15616235
149	0xbddce5d5	-0.107860245
150	0xbce467d8	-0.027881548
151	0x3e2d550d	0.16926976
152	0x3cd15bb8	0.02555643
153	0xbd3b67ac	-0.045753166
154	0x3d926120	0.071474314
155	0xbd89cfbb	-0.067290746
156	0xbded85ca	-0.11597784
157	0x3e040a93	0.12894659
158	0xbda7db46	-0.0819612
159	0xbd110fd8	-0.0354155
160	0xbe33f80d	-0.17575093
161	0x3df227c6	0.118239924
162	0x3e09106b	0.13385169
163	0x3d83dca8	0.06438571
164	0xbdfc48da	-0.12318583
165	0xbe328b9b	-0.17436068
166	0xbe12edb5	-0.1434849
167	0x3e06e75d	0.13174196
168	0x3dadb4fe	0.08481787
169	0x3e183cad	0.14866896
170	0x3dbd8aca	0.092549875
171	0x3d372600	0.044713974
172	0xbae2c358	-0.0017300649
173	0xbe09957a	-0.13435927
174	0xbe1b0033	-0.15136795
175	0xbe29372a	-0.1652495
176	0x3d941d02	0.07232095
177	0xbdb1a3b8	-0.08673805
178	0xbd11a180	-0.03555441
179	0xbdd03a1b	-0.10167333
180	0xbd03dc90	-0.032192767
181	0xbdfea8e9	-0.12434561
182	0xbdec6a4e	-0.115437135
183	0x3d7009ac	0.058602974
184	0xbd5710a4	-0.052506104
185	0x3ddf5d62	0.10906483
186	0xbd68272c	-0.056677982
187	0xbe04b51c	-0.12959713
188	0xbcff5af0	-0.031171292
189	0xbdaf632f	-0.0856384
190	0xbd5d6356	-0.054049812
191	0xbe2c3a99	-0.16819228
192	0x3e0a722c	0.13520116
193	0xbdb5229f	-0.08844494
194	0x3dbeb16c	0.09311184
195	0x3dec2417	0.11530321
196	0x3d9fe316	0.07806985
197	0xbdf304f5	-0.1186618
198	0x3dc9aad8	0.09847039
199	0xbc02e847	-0.00798995
200	0x3dd4061d	0.103527285
201	0x3deae9e8	0.11470395
202	0x3c59a855	0.013284762
203	0x3c8b8197	0.017029567
204	0xb97a9ac3	-0.00023899511
205	0xbe170e8a	-0.1475164
206	0x3df74c96	0.120751545
207	0xbe43c4f0	-0.19118094
208	0x3e13f204	0.1444779
209	0x3e075c5f	0.1321883
210	0x3e37b09a	0.17938462
211	0xbd2ab1c0	-0.04167342
212	0xbe0d83d9	-0.13819827
213	0x3d3e0f02	0.04640103
214	0x3d4657ed	0.048423696
215	0xbe1a800b	-0.15087907
216	0xbd94d4d3	-0.072671555
217	0xbe1e635a	-0.15467587
218	0xbc875c90	-0.01652363
219	0xbdad410a	-0.08459671
220	0xbcd7c38c	-0.026338361
221	0xbde6bda9	-0.112666436
222	0xbe04c396	-0.12965235
223	0x3dbbfd98	0.091792285
224	0x3e09fd7f	0.13475607
225	0xbce30888	-0.027714029
226	0xbcc44b33	-0.023961639
227	0xbdbd5b29	-0.09245903
228	0xbe2ab3b8	-0.1667012
229	0xbe3f67cd	-0.1869194
230	0x3d7bd56f	0.061482843
231	0xbdc6a82c	-0.09700045
232	0xbde89be7	-0.11357861
233	0xbc2769ad	-0.010218066
234	0xbd70fab6	-0.058832847
235	0xbd93c091	-0.072144635
236	0xbc1ed188	-0.009693511
237	0xbd197e88	-0.037474185
238	0xbd96ac9a	-0.0735714
239	0xbdc27ec5	-0.094968356
240	0xbe282346	-0.16419706
241	0x3e17b1c7	0.1481391
242	0xbd858e77	-0.06521314
243	0x3d3fbf24	0.046813145
244	0xbd7f9cc9	-0.06240538
245	0x3b06ff94	0.0020599114
246	0x3e21bfcb	0.1579582
247	0x3d845e6a	0.064633206
248	0xbe21fc85	-0.15818985
249	0x3d8e4e50	0.06948531
250	0x3e2091ac	0.1568057
251	0x3d1a24c6	0.037632726
252	0x3dd91afc	0.1060085
253	0x3e3b42c9	0.18287195
254	0xbcddc310	-0.027070552
255	0x3d28185a	0.04103885

net.flow_mapping.0.affine_layers.0.net.2.bias f4 [32]
0	0xbdbb8c5e	-0.09157632
1	0xbe32eb86	-0.17472658
2	0x3c160ff5	0.009159078
3	0x3e1bb144	0.1520434
4	0xbe1cf9ec	-0.15329713
5	0x3d81bd58	0.063349426
6	0x3e24cb59	0.16093196
7	0xbb37e693	-0.0028061017
8	0xbdd9fc37	-0.10643809
9	0x3e44b1ea	0.19208494
10	0x3d98f71a	0.07469006
11	0x3deb1efe	0.11480521
12	0xbdccfc2b	-0.10009035
13	0x3d656451	0.056003872
14	0xbe04bd1c	-0.12962765
15	0x3e23e12f	0.1600387
16	0xbd994ddc	-0.074855536
17	0x3df6dc05	0.12053684
18	0x3d765d6b	0.060147684
19	0x3c41a029	0.01181797
20	0xbd1ad471	-0.037800256
21	0x3dc68a39	0.09694333
22	0xbce33012	-0.027732883
23	0xbe3282fd	-0.1743278
24	0xbd8e2b17	-0.069418125
25	0x3e0a136d	0.13483973
26	0xbd349ac1	-0.044092897
27	0x3c9edf29	0.01939352
28	0xbdb38c5d	-0.087670065
29	0x3e1dada3	0.15398268
30	0x3de3a7ba	0.11115976
31	0x3d659370	0.05604881

net.flow_mapping.0.affine_layers.0.net.4.weight f4 [32, 32]
0	0xbdb8f34f	-0.090307824
1	0xbe13d323	-0.14436011
2	0x3ba23545	0.004950198
3	0xbdc17aa8	-0.09447223
4	0x3e14bdcd	0.14525528
5	0xbe2dd867	-0.16977082
6	0x3db0585a	0.08610602
7	0x3e42280a	0.18960586
8	0x3db5359a	0.08848114
9	0x3d8a9ab5	0.06767789
10	0xbe2e0eaa	-0.16997781
11	0x3e2fce6b	0.17168586
12	0xbbb924db	-0.0056501455
13	0xbe21c6d4	-0.15798503
14	0x3e2f90d5	0.17145093
15	0xbd29878d	-0.041389037
16	0xbc4cc760	-0.012498707
17	0x3e2f2382	0.17103389
18	0xbe0e5061	-0.1389785
19	0xbe08fdb5	-0.13378032
20	0x3cbfd7d7	0.02341835
21	0xbcc24fde	-0.023719724
22	0x3d698b38	0.057017535
23	0xbe1b1084	-0.15143019
24	0x3bd1b979	0.006400284
25	0xbd8f6ab4	-0.07002774
26	0xbddb2b94	-0.10701671
27	0xbe07147e	-0.13191411
28	0x3e0a8416	0.1352695
29	0x3d8a6ad9	0.06758661
30	0xbe0b4a9d	-0.13602681
31	0x3e13269b	0.14370196
32	0x3d5a4404	0.05328752
33	0x3d06479c	0.032783136
34	0xbd91e370	-0.071234584
35	0x3ccead3f	0.025229095
36	0x3e2df28d	0.16987057
37	0x3df82b92	0.121176854
38	0xbde3b798	-0.11119002
39	0x3e131d92	0.14366749
40	0x3c605ad8	0.013693534
41	0x3dd696a7	0.104779534
42	0x3e0d3c0c	0.13792437
43	0x3e186c92	0.14885166
44	0xbe2b3a22	-0.16721395
45	0x3e261e5c	0.16222519
46	0xbdf2aa1a	-0.118488505
47	0x3ca9c10e	0.020721938
48	0xbdfcd2e5	-0.123449124
49	0xbcc19f43	-0.023635512
50	0x3cb10200	0.021607399
51	0xbc266a25	-0.010157143
52	0xbb0a989c	-0.0021148091
53	0x3d403e9c	0.04693471
54	0x3e2f0c9b	0.17094652
55	0x3df605ac	0.120128006
56	0x3dc89306	0.097936675
57	0x3da820dc	0.082093924
58	0x3e1b2e5f	0.15154408
59	0xbd417367	-0.047229197
60	0xbade8084	-0.0016975557
61	0x3b6e2f95	0.003634428
62	0xbe0b10c8	-0.1358062
63	0xbdef22a2	-0.116765276
64	0x3cb16f98	0.021659657
65	0xbd8d90b9	-0.06912369
66	0xbb547530	-0.0032418482
67	0xbd260b94	-0.040538386
68	0x3ce14958	0.027500793
69	0x3deb66ca	0.11494215
70	0xbd6ffce8	-0.0585908
71	0x3e10e135	0.1414841
72	0x3e0ed7f3	0.13949566
73	0xbe0ad980	-0.13559532
74	0xbe0bb49a	-0.13643113
75	0xbe125ddc	-0.14293617
76	0xbdc64916	-0.09681909
77	0xbd8cd9c5	-0.06877474
78	0xbc59e020	-0.0132980645
79	0xbd2ffae8	-0.042963892
80	0xbdb6cf45	-0.08926252
81	0xbd65e5bc	-0.056127295
82	0xbd82e213	-0.063907765
83	0x3e317a1d	0.17331739
84	0xbd86197d	-0.0654783
85	0xbe018712	-0.12649181
86	0x3d966832	0.073440924
87	0xbc2731d8	-0.010204755
88	0x3e0a7fdd	0.13525338
89	0x3de21386	0.1103888
90	0x3e2634fd	0.16231151
91	0xbe047d24	-0.12938362
92	0x3de89aa6	0.11357622
93	0x3e17d3af	0.14826845
94	0xbdb2ad1e	-0.08724426
95	0x3e2649e3	0.16239123
96	0x3e079e13	0.13243894
97	0x3afd96a8	0.0019347267
98	0x3dae72ae	0.08517967
99	0xbd7cff54	-0.061766937
100	0xbe1dca63	-0.15409236
101	0x3d36ec28	0.04465881
102	0x3d57bcd0	0.0526703
103	0xbdec7796	-0.11546247
104	0x3daf7a92	0.085683
105	0xbe1a8a0d	-0.15091725
106	0x3e1bb2b3	0.15204887
107	0x3e2f3001	0.17108156
108	0x3d450460	0.048099875
109	0xbde30422	-0.11084773
110	0x3db0157e	0.08597849
111	0x3cf6a450	0.030107647
112	0x3d44c56c	0.04803984
113	0x3d6dd2f0	0.058062494
114	0x3e09bcd7	0.13450943
115	0xbd9b8692	-0.075940266
116	0xbd22c6e4	-0.039740458
117	0x3d455754	0.048178986
118	0x3c9db370	0.019250602
119	0x3e11e0df	0.14245938
120	0xbdbe09a2	-0.09279181
121	0xbbd2d1d0	-0.006433703
122	0x3d0736b8	0.03301117
123	0xbd40301c	-0.04692088
124	0x3df6a94a	0.12044008
125	0x3c9e4cf8	0.019323811
126	0xbe2733ea	-0.16328397
127	0xbc9ccba8	-0.01914008
128	0xbda41abc	-0.08012912
129	0x3c8ca2f0	0.017167538
130	0xbd1d2af1	-0.03837103
131	0xbe1d65f4	-0.15370923
132	0xbd090c0d	-0.03345876
133	0xbc8a9ef0	-0.01692149
134	0xbdc36aba	-0.09541841
135	0x3e3507f6	0.17678818
136	0xbd1de6c8	-0.03855017
137	0x3d9ef7da	0.07762118
138	0x3d3341c8	0.043763906
139	0xbe16eaaa	-0.14737955
140	0x3d89c18a	0.06726368
141	0x3e2054f5	0.15657409
142	0xbdfad132	-0.12246932
143	0xbdfc29bb	-0.12312647
144	0x3e3114ab	0.1729304
145	0x3e13f3b2	0.14448431
146	0xbe132746	-0.1437045
147	0x3d857165	0.06515769
148	0xbd975144	-0.07388547
149	0xbe66997c	-0.22519487
150	0x3cd1c8a0	0.02560836
151	0x3ccd80af	0.025085775
152	0xbd555f51	-0.052092854
153	0x3d112580	0.035436153
154	0xbe30c95c	-0.17264313
155	0x3e09be98	0.13451612
156	0x3e27f54a	0.16402164
157	0x3e0cbc29	0.13743652
158	0x3a0f4175	0.0005464771
159	0x3c1bbee4	0.009505961
160	0xbe02e4cc	-0.12782592
161	0xbd34d15c	-0.044144973
162	0x3d2905ba	0.041265227
163	0xbe22f8fa	-0.1591529
164	0xbe04359e	-0.12911078
165	0x3df35dfa	0.11883159
166	0x3e0b941a	0.13630715
167	0xbe4079dd	-0.18796487
168	0x3d6645d0	0.056218922
169	0x3dbea5c3	0.0930896
170	0x3e2c9540	0.1685381
171	0x3dd154a2	0.102212206
172	0x3df5aa5c	0.11995384
173	0xb99d5cf4	-0.0003001463
174	0x3dfba48f	0.122872464
175	0x3e2db9ba	0.1696538
176	0xbe2ad747	-0.16683684
177	0xbe28bcb2	-0.16478232
178	0x3d92e458	0.07172459
179	0x3e04a16b	0.12952201
180	0xbd8f98b1	-0.070115454
181	0x3d387732	0.04503555
182	0xbd89d2c0	-0.067296505
183	0x3dad12df	0.08450865
184	0xbdc4c5cd	-0.0960804
185	0x3e053922	0.13010076
186	0x3dc8a25e	0.09796594
187	0xbe35dbd4	-0.17759639
188	0x3d1cbe47	0.0382674
189	0xbd3571e0	-0.044298053
190	0x3daca422	0.08429743
191	0x3e4fc87a	0.2029132
192	0x3d54379c	0.051810846
193	0xbd246cf0	-0.040142953
194	0x3e694ced	0.22783251
195	0xbe199cca	-0.15001217
196	0xbd4cc112	-0.049988814
197	0x3c45a0a8	0.012062229
198	0xbe136f5c	-0.14397949
199	0x3c9d7e28	0.019225195
200	0xbdf57ce6	-0.11986713
201	0x3b3da5f7	0.0028938034
202	0x3c9079cf	0.017636208
203	0x3cc855e8	0.024455026
204	0xbe4d7883	-0.20065503
205	0xbe02fa3e	-0.12790772
206	0x3da67ac6	0.08128886
207	0x3e34042a	0.17579713
208	0xbe2087e6	-0.15676841
209	0x3af3d0ce	0.0018601657
210	0xbdf656a4	-0.12028244
211	0x3c042807	0.008066184
212	0x3e29d3cd	0.16584702
213	0x3e072169	0.13196339
214	0xbe5ca097	-0.21545635
215	0x3e055825	0.13021906
216	0x3dbcfae2	0.092275396
217	0x3c4e546a	0.012593368
218	0x3e2f3f97	0.17114101
219	0xbd886b16	-0.0666105
220	0xbd156638	-0.036474437
221	0xbe0fc26f	-0.14039014
222	0x3c9e343f	0.019312022
223	0x3d920b32	0.071310416
224	0x3c66a428	0.014077224
225	0xbdcb9176	-0.09939854
226	0xbda2e080	-0.07952976
227	0x3d762674	0.060095266
228	0xbe1e9f30	-0.15490413
229	0xbce163f0	-0.027513474
230	0xbb803bc8	-0.0039133765
231	0xbd9297ec	-0.07157883
232	0x3d83ab86	0.064292
233	0x3c3a9170	0.011387214
234	0x3dfe04d6	0.12403266
235	0xbc8087c8	-0.015689746
236	0xbde45bf4	-0.11150351
237	0x3dffa4b6	0.12482588
238	0x3cca1d30	0.02467212
239	0xbd4f3f0c	-0.050597236
240	0xbdee7966	-0.11644249
241	0x3d299d70	0.04140991
242	0xbe2c8c04	-0.16850287
243	0x3d3e963c	0.046529993
244	0x3db2e5f2	0.08735265
245	0xbe1eb086	-0.15497026
246	0xbdecdec8	-0.1156593
247	0xbe020e9c	-0.12700886
248	0x3e180e6f	0.14849256
249	0x3e19cbf7	0.15019213
250	0x3c3533a0	0.011059672
251	0x3e29d75f	0.16586064
252	0xbd71ea5a	-0.059061386
253	0xbe2fa0b3	-0.17151146
254	0x3d7cc2c8	0.061709195
255	0x3d802d30	0.06258619

net.flow_mapping.0.affine_layers.0.net.4.bias f4 [32]
0	0x3de679e7	0.1125372
1	0x3e400f34	0.187558
2	0x3cdb2ff0	0.026756257
3	0xbe23f8c8	-0.16012871
4	0x3dc63fcb	0.09680136
5	0x3c889cdb	0.016676357
6	0xbc876cdc	-0.0165314
7	0xbe2c561c	-0.16829723
8	0xbd22a3e4	-0.03970708
9	0xbdc59517	-0.09647577
10	0x3e226bd2	0.15861443
11	0x3e1cf5b7	0.15328108
12	0x3e11743c	0.14204496
13	0x3defe012	0.1171266
14	0xbe0dd925	-0.13852365
15	0xbcd16662	-0.025561515
16	0xbd8d99fe	-0.06914137
17	0xbda48960	-0.08034015
18	0x3e218d9a	0.15776673
19	0x3d204995	0.039132673
20	0x3e18bb8b	0.14915292
21	0xbd0c538c	-0.034259364
22	0xbe2143cd	-0.1574852
23	0xb8f6521c	-0.00011745488
24	0x3e034601	0.12819673
25	0x3dcc1832	0.099655524
26	0x3b923450	0.0044618025
27	0xbd544386	-0.051822208
28	0xbe329e2f	-0.17443155
29	0xbd92e147	-0.071718745
30	0x3d93fc42	0.07225849
31	0xbd859684	-0.06522849

net.flow_mapping.0.affine_layers.0.net.6.weight f4 [32, 32]
0	0x3dbfc4f8	0.09363741
1	0x3d6925e9	0.05692092
2	0xbd8af8d9	-0.06785745
3	0x3ddc5f62	0.1076038
4	0xbd428117	-0.04748639
5	0xbbc053c8	-0.0058693625
6	0xbd89d2a6	-0.06729631
7	0xbe2b9bed	-0.167587
8	0x3ce95ae7	0.028485728
9	0x3d72c0d2	0.05926592
10	0xbda4ecd1	-0.08052982
11	0x3defff5e	0.11718629
12	0xbe195b73	-0.14976291
13	0xbe2e6377	-0.1703013
14	0xbddf79b9	-0.10911889
15	0xbda7408b	-0.081666075
16	0xbca0ba88	-0.019620195
17	0xbcf99e78	-0.030471072
18	0x3db7849a	0.089608386
19	0xbe16623d	-0.14685912
20	0x3cd51be8	0.026014283
21	0x3b488288	0.003059538
22	0x3d3f21b8	0.046663016
23	0x3e3cbf64	0.18432385
24	0x3df08c16	0.11745469
25	0xbdc857ed	-0.097823955
26	0xbe143ec5	-0.1447707
27	0xbd2f30a0	-0.04277098
28	0xbdb57f9d	-0.08862231
29	0x3d7cc4b0	0.061711013
30	0x3c314f5f	0.010822146
31	0x3e1181ad	0.14209624
32	0x3d268af1	0.04065985
33	0xbc7f0f8f	-0.015567674
34	0x3bc6f908	0.0060721673
35	0x3d2d4be8	0.042308718
36	0xbd4d7d13	-0.05016811
37	0x3e3cc641	0.18435003
38	0xbdac1678	-0.08402723
39	0x3db05996	0.08610837
40	0xbde6a45b	-0.11261817
41	0xbdda0a32	-0.10646476
42	0xbd343498	-0.04399547
43	0x3d183183	0.037156593
44	0x3ddfb2a3	0.10922744
45	0x3dab8d0e	0.083765134
46	0xbd2f69ac	-0.042825386
47	0xbda3800b	-0.07983407
48	0xbd92ac13	-0.07161727
49	0xbc158ace	-0.009127332
50	0x3c26a18f	0.0101703545
51	0x3e34da9b	0.17661516
52	0x3e087697	0.13326488
53	0xbdadd3d8	-0.084876716
54	0x3a3f9488	0.00073082047
55	0xbe1a6018	-0.1507572
56	0xbd7fdf1f	-0.062468644
57	0xbdd614bc	-0.104531735
58	0x3d9ef665	0.0776184
59	0xbe027259	-0.12738933
60	0x3e61ca70	0.2204988
61	0x3e29503b	0.16534512
62	0xbe12f403	-0.14350896
63	0xbdd7c57b	-0.10535713
64	0x3d2e2794	0.042518213
65	0xbd2c61d3	-0.04208548
66	0x3d546fd4	0.05186446
67	0xbdf4ec2f	-0.11959111
68	0x3dd237d5	0.10264555
69	0xbe460815	-0.1933902
70	0xbdbef443	-0.09323933
71	0xbdbe3492	-0.09287371
72	0x3daf13da	0.08548708
73	0xbc992d3b	-0.018698325
74	0xbe1ae83a	-0.1512765
75	0xbd859829	-0.06523163
76	0xbd61e95e	-0.055154197
77	0xbe4995a7	-0.19685994
78	0x3cb95260	0.022622287
79	0x3df03b67	0.1173008
80	0xbd04c504	-0.03241445
81	0xbd99b8af	-0.07505929
82	0x3c089046	0.008335179
83	0xbe1bf16c	-0.15228814
84	0xbe14c626	-0.14528713
85	0xbb840688	-0.004029099
86	0x3e20b677	0.15694605
87	0xbca42c00	-0.020040512
88	0x3dff6454	0.12470308
89	0xbdcd6924	-0.100298196
90	0xbd88daf9	-0.06682391
91	0xbe2c383b	-0.16818325
92	0x3e15e159	0.14636745
93	0x3e01715b	0.12640898
94	0x3cd80416	0.026369136
95	0x3da97ed7	0.08276146
96	0x3e26bd36	0.16283116
97	0x3dd468fe	0.10371588
98	0x3dba58d6	0.09098975
99	0xbe2c3a5e	-0.1681914
100	0xbe11c74f	-0.14236186
101	0xbe19e5e9	-0.1502911
102	0x3cd5a609	0.026080148
103	0xbe1c7c67	-0.1528183
104	0xbe0a1906	-0.13486108
105	0xbe0978f9	-0.13425054
106	0xbe28bf69	-0.16479267
107	0x3d5620b0	0.052277267
108	0x3d33971a	0.043845274
109	0xbdfd3391	-0.12363351
110	0x3df8d112	0.12149252
111	0x3b6d5dbc	0.00362192
112	0xbd4bb81c	-0.049736127
113	0x3e022a9e	0.1271157
114	0x3e26ce40	0.16289616
115	0xbc7388e9	-0.014864185
116	0xbe11958d	-0.14217205
117	0xbe20ca1f	-0.15702103
118	0x3cb84c08	0.022497192
119	0x3e1627e7	0.14663659
120	0x3df001a5	0.11719064
121	0xbdc2a1f0	-0.095035434
122	0xbe20c111	-0.15698649
123	0xbe1e515c	-0.15460724
124	0xbde4271b	-0.11140271
125	0x3bafa63f	0.0053603943
126	0xbd6194f3	-0.05507369
127	0xbe50bb08	-0.20383847
128	0x3c9886b0	0.018618912
129	0xbe1cd5bd	-0.1531591
130	0xbe0aed3e	-0.13567063
131	0xbe131140	-0.14362049
132	0xbd31130e	-0.043231063
133	0x3e19bf5b	0.15014403
134	0x3d7c6797	0.06162223
135	0xbcab9b08	-0.020947948
136	0x3d14ee84	0.03636028
137	0x3d191639	0.03737471
138	0xbb483f32	-0.0030555245
139	0xbdf28841	-0.118423946
140	0xbdf6047a	-0.120125726
141	0xbe01e1b8	-0.12683761
142	0x3c8dfd7b	0.017332783
143	0xbe32adaf	-0.17449068
144	0xbd0391f4	-0.032121614
145	0xbd844e15	-0.064602055
146	0x3e28bdda	0.16478673
147	0x3e0cc0ef	0.13745473
148	0x3dbe3421	0.092872865
149	0x3cb0951e	0.02155548
150	0xbd6a4a40	-0.057199717
151	0x3d0bfc8a	0.034176387
152	0xbdf9fcd4	-0.12206426
153	0xbda79100	-0.081819534
154	0xbd27f70b	-0.041007083
155	0xbd2a0650	-0.041509926
156	0xbe516b30	-0.20451045
157	0x3d833771	0.06407059
158	0x3e1002c2	0.14063552
159	0xbdc8457b	-0.09778877
160	0x3dae8d55	0.08523051
161	0x3c172fab	0.0092276735
162	0xbbd32490	-0.0064435676
163	0x3c28b9a8	0.01029817
164	0x3e5b8d28	0.21440566
165	0x3c305957	0.010763488
166	0xbe011046	-0.12603864
167	0xbd8225d7	-0.063548736
168	0x3db0c182	0.08630659
169	0x3c173c6f	0.009230717
170	0xba65402a	-0.0008745218
171	0x3d765558	0.060139984
172	0xbc8d2990	-0.017231733
173	0xbd98a995	-0.0745422
174	0xbd8cc13a	-0.068727925
175	0x3dd3936f	0.10330855
176	0x3d4b3a6f	0.049616273
177	0x3e0a0357	0.13477837
178	0xbcfafc61	-0.030637922
179	0x3c533b27	0.012892521
180	0x3de9397a	0.11387916
181	0x3c803c28	0.015653685
182	0x3cb9f5d0	0.02270022
183	0x3e02c117	0.1276897
184	0x3d6b6db8	0.057477683
185	0xbe2d2122	-0.1690717
186	0x3bdd185d	0.006747289
187	0xbd1e2ad8	-0.038615078
188	0x3d9a7d84	0.075434715
189	0x3e2f0825	0.1709295
190	0x3dab4b09	0.08363921
191	0x3dcc7700	0.09983635
192	0xbddf823d	-0.10913513
193	0x3e2ab98f	0.16672347
194	0x3e1bc36f	0.15211271
195	0xbbdd4338	-0.006752398
196	0xbe33e4bf	-0.17567728
197	0x3bebf8c6	0.007201287
198	0x3c9c554e	0.019083645
199	0x3b3f3f08	0.0029181857
200	0xbe24054c	-0.16017646
201	0x3db36744	0.08759931
202	0xbd33f181	-0.043931488
203	0xbdbb56ef	-0.09147441
204	0xbdcf47df	-0.1012113
205	0x3c7750ab	0.015094916
206	0xbe41a16b	-0.18909232
207	0xbe23ec0c	-0.16008013
208	0x3c855428	0.01627548
209	0x3df4363a	0.119244054
210	0x3e4c3d37	0.19945227
211	0xbdcb9ab9	-0.099416204
212	0x3de2d2f6	0.11075394
213	0xbcd67f18	-0.02618365
214	0xbe0bdfbc	-0.13659567
215	0xbd599ffd	-0.053131092
216	0xbe000b09	-0.1250421
217	0xbdb9342a	-0.09043153
218	0xbe03a5f7	-0.1285628
219	0xbdf22efa	-0.11825366
220	0x3e66b164	0.22528607
221	0x3e02d997	0.12778316
222	0xbdc58f97	-0.09646528
223	0xbd4a273c	-0.049353823
224	0xbde2d5f7	-0.11075967
225	0xbdc97f37	-0.098387174
226	0xbd94e302	-0.07269861
227	0x3dd94ef2	0.10610761
228	0x3dc56399	0.09638137
229	0xbdd483ca	-0.10376699
230	0x3d9e5deb	0.07732757
231	0xbde0c5eb	-0.1097525
232	0xbe1361fa	-0.14392844
233	0xbc890d7f	-0.016730068
234	0xbdd05f89	-0.10174472
235	0x3de287b8	0.110610425
236	0x3e36c1f2	0.17847422
237	0xbde7dff1	-0.1132201
238	0xbdf0a3bf	-0.11749982
239	0x3e0ec3ef	0.1394193
240	0xbe2362ea	-0.15955701
241	0x3e19795e	0.14987704
242	0xbdad6658	-0.08466786
243	0x3d87ee2f	0.06637227
244	0xbe1694e1	-0.1470523
245	0xbe4536dd	-0.1925921
246	0x3c9f6b98	0.019460484
247	0x3de4060c	0.11133966
248	0x3e2e23e9	0.17005886
249	0x3df77d98	0.12084502
250	0xbc6d226b	-0.014473538
251	0xbcba1348	-0.022714272
252	0xbcffba1e	-0.031216677
253	0xbd81169e	-0.06303142
254	0x3d17033e	0.036868326
255	0xbe7000a7	-0.23437749

net.flow_mapping.0.affine_layers.0.net.6.bias f4 [32]
0	0xbe01301d	-0.1261601
1	0x3da30c21	0.07961298
2	0x3defa477	0.11701291
3	0x3e31e072	0.17370775
4	0xbe34ed2e	-0.17668602
5	0x3e48a519	0.1959423
6	0x3e176fa9	0.14788689
7	0x3e4a2ab6	0.19742855
8	0x3dc08693	0.09400668
9	0xbdb50d7b	-0.08840462
10	0x3e19336b	0.1496102
11	0x3e4b4872	0.19851854
12	0xbd8a59ac	-0.06755385
13	0xbc1178f7	-0.008878938
14	0x3e1ca03b	0.15295498
15	0x3e401eec	0.18761796
16	0x3dd25dce	0.10271798
17	0x3e2d0639	0.16896905
18	0xbdb9f0f4	-0.09079161
19	0xbc2f7dc2	-0.010711135
20	0xbd8ce6c4	-0.068799525
21	0x3de60f6a	0.11233409
22	0x3dad4ecf	0.08462297
23	0xbe0ec22d	-0.1394126
24	0xbd44389c	-0.04790555
25	0xbe138586	-0.14406404
26	0xbe2214da	-0.15828267
27	0x3e4ac99a	0.19803467
28	0xbdc1d9e0	-0.094653845
29	0x3da7c28e	0.08191405
30	0xbd2122c4	-0.039339796
31	0xbd1315c9	-0.035909448

net.flow_mapping.0.affine_layers.0.net.8.weight f4 [32, 32]
0	0x3c02620b	0.007957946
1	0x3e2a3555	0.16621907
2	0xbd7864b5	-0.060642917
3	0x3de87ad3	0.11351552
4	0x3dc8216a	0.09771998
5	0x3e15d922	0.14633611
6	0xbdd022b3	-0.10162868
7	0xbdbef68c	-0.09324369
8	0xbddbfd8a	-0.10741718
9	0xbd340873	-0.04395337
10	0xbd920161	-0.07129169
11	0x3d975251	0.073887475
12	0x3e221659	0.15828837
13	0x3de0663a	0.10956998
14	0xbdd0f78b	-0.10203465
15	0xbe205723	-0.1565824
16	0x3e2e6d65	0.17033918
17	0x3d198052	0.03747589
18	0x3d4c6d58	0.049908966
19	0xbe0ccc81	-0.13749887
20	0xbc7f4743	-0.015580955
21	0x3da08f3e	0.07839821
22	0xbda48727	-0.08033591
23	0x3df176a6	0.117902085
24	0x3df284cc	0.11841735
25	0xbdd300b2	-0.10302867
26	0x3c7e174c	0.015508484
27	0xbc25147c	-0.010075685
28	0x3cd16c60	0.025564373
29	0xbb8ce38a	-0.0042995857
30	0x3e2d10f3	0.16900997
31	0xbe42f5e0	-0.19039106
32	0xbdb91a6c	-0.09038243
33	0xbdda69db	-0.106647216
34	0x3de0a49c	0.10968897
35	0x3dbd2274	0.09235087
36	0xbcd19f93	-0.025588786
37	0x3e4d0336	0.20020756
38	0xbe2bbfb8	-0.16772354
39	0x3dff75c8	0.12473637
40	0xbdeb066d	-0.11475835
41	0xbc707eaa	-0.014678637
42	0xbdce81a1	-0.100833185
43	0xbdd4aae0	-0.10384154
44	0xbe197e81	-0.14989664
45	0x3dbd08d3	0.09230199
46	0xbce303fd	-0.027711863
47	0x3e372f4c	0.17889136
48	0xbdeca4c0	-0.11554861
49	0x3c801ba5	0.015638182
50	0x3caf2f58	0.02138488
51	0x3e63b897	0.22238384
52	0xbd097deb	-0.03356735
53	0x3e21782a	0.15768495
54	0x3d3b49c4	0.045724645
55	0x3dd6dc82	0.10491277
56	0x3dc8fc4f	0.09813749
57	0x3d92d45c	0.071694106
58	0xbdff8efe	-0.124784455
59	0xbcb30e8c	-0.021857522
60	0x3d901051	0.07034362
61	0x3d4e80d9	0.050415847
62	0xbc1a7e90	-0.009429589
63	0x3e00322b	0.12519138
64	0xbdd9ae64	-0.106289655
65	0x3dbb4fa8	0.091460526
66	0xbcb199a8	-0.021679714
67	0xbe2a0dd8	-0.16606843
68	0xbd37ee61	-0.04490507
69	0xbe16f61e	-0.14742324
70	0x3d02820b	0.0318623
71	0xbe1e5da8	-0.15465415
72	0xbd6c6e96	-0.05772265
73	0xbc355bc0	-0.011069238
74	0xbe14adbc	-0.145194
75	0xbbb38d4b	-0.00547949
76	0xbcb7ade0	-0.022421777
77	0x3d3e45c9	0.04645327
78	0x3deec2c3	0.116582416
79	0xbdda6a0c	-0.10664758
80	0x3db5974b	0.088667475
81	0xbce1a10f	-0.027542619
82	0xbdcecbfb	-0.100975
83	0xbda416bf	-0.08012151
84	0x3d383200	0.04496956
85	0x3cb6f0fc	0.022331707
86	0xbc545c9c	-0.012961533
87	0xbdb42125	-0.08795384
88	0x3db07e5b	0.086178504
89	0x3cd6bc60	0.026212871
90	0xbdfd0ca7	-0.12355929
91	0xbd2b2cf4	-0.041790918
92	0xbd377467	-0.044788744
93	0xbda21b57	-0.07915371
94	0xbdc8b3f9	-0.09799952
95	0xbe12c33b	-0.14332287
96	0x3e3aaee1	0.18230774
97	0xbe0d5f63	-0.13805918
98	0x3e075d0e	0.13219091
99	0xbe26e182	-0.16296962
100	0xbd4a84f9	-0.04944322
101	0xbd3771dd	-0.044786323
102	0xbd1d8370	-0.038455427
103	0x3d81674d	0.06318531
104	0x3dff7cba	0.124749616
105	0xbdf9f722	-0.1220534
106	0xbddc4d34	-0.10756913
107	0x3e01c94f	0.1267445
108	0xbcaeeff8	-0.02135466
109	0x3d9345c7	0.07191043
110	0x3dfaf8b6	0.12254469
111	0xbdd3ed76	-0.103480265
112	0xbd9908fe	-0.07472418
113	0x3dbaa814	0.091140896
114	0xbd847e90	-0.064694524
115	0xbe1dad7c	-0.1539821
116	0xbda9d078	-0.082917154
117	0xbd4dd7c1	-0.050254587
118	0x3e5053d6	0.20344481
119	0x3d16299f	0.036660787
120	0x3dbdc9d7	0.092670135
121	0x3cc26770	0.023730963
122	0xbd207ff4	-0.039184526
123	0x3e22a7f4	0.15884382
124	0xbd00318e	-0.03129726
125	0x3b795910	0.003804747
126	0x3e136e6f	0.14397596
127	0xbde06639	-0.109569974
128	0x3cf61e61	0.030043783
129	0xbe05da79	-0.13071622
130	0x3e110e7c	0.14165682
131	0x3e074c0a	0.132126
132	0xbe20a4ce	-0.15687868
133	0x3e0f58ea	0.13998762
134	0xba7483e1	-0.0009327513
135	0xbd15fcd4	-0.03661807
136	0x3e035da6	0.12828693
137	0x3dafba56	0.08580463
138	0x3e00f10e	0.12591955
139	0xbd2ba64f	-0.04190665
140	0xbdc664e8	-0.09687215
141	0xbd982df6	-0.07430641
142	0x3dd514e7	0.104043774
143	0x3dfa5eba	0.12225099
144	0xbe0b0abd	-0.13578315
145	0x3e59842b	0.21241824
146	0x3dd2cd46	0.10293059
147	0x3c0dbc2d	0.008650822
148	0x3dada7a3	0.0847924
149	0xbcfe7044	-0.031059392
150	0x3cc1a489	0.023638027
151	0x3e1693a9	0.14704765
152	0xbe4d3385	-0.20039184
153	0xbdb3e5f8	-0.087840974
154	0xbc10a730	-0.008828923
155	0x3d5fad33	0.054608535
156	0xbe14c626	-0.14528713
157	0xbe251655	-0.161218
158	0xbc8a9ea8	-0.016921356
159	0xb9d1068d	-0.00039868467
160	0x3d1c1684	0.03810741
161	0x3cb7e778	0.02244924
162	0x3d147278	0.03624198
163	0x3c3fe328	0.011711873
164	0x3ca65898	0.020305917
165	0xbc271218	-0.010197185
166	0x3d81ef12	0.06344427
167	0x3df6f192	0.12057795
168	0xbdb490cd	-0.08816681
169	0xbdbb71da	-0.09152575
170	0x3d9ecdb6	0.0775408
171	0xbe02d19c	-0.12775272
172	0x3deb2092	0.11480822
173	0x3da72746	0.08161788
174	0x3cd15240	0.025551915
175	0xbd9d158e	-0.07670127
176	0x3bad95c0	0.0052973926
177	0xbe0f08e4	-0.13968235
178	0xbe22c252	-0.1589444
179	0x3e2a5da7	0.16637288
180	0xbe2242a2	-0.15845731
181	0xbe161c26	-0.14659175
182	0xbd8c8cf0	-0.06862819
183	0x3c228c68	0.009921171
184	0x3d25bcd8	0.0404633
185	0xbdb24be4	-0.08705881
186	0xbc8c71e8	-0.017144158
187	0xbd2197c4	-0.039451376
188	0x3e175f37	0.14782415
189	0x3e1d0661	0.15334465
190	0x3d94b5aa	0.07261212
191	0xba8ebde8	-0.0010890337
192	0x3e07ab89	0.13249029
193	0xbe120f85	-0.14263733
194	0x3d972caa	0.07381566
195	0xbdd24f44	-0.10269025
196	0x3e0d166f	0.13778089
197	0xbe1feb0d	-0.15617009
198	0x3d866f1e	0.06564163
199	0xbe14bd54	-0.14525348
200	0x3dd32cce	0.1031128
201	0x3d04509c	0.032303438
202	0x3e1b3ae5	0.15159185
203	0xbe08720e	-0.13324758
204	0x3de8dfc2	0.113708034
205	0xbdf17702	-0.11790277
206	0xbdc34dd8	-0.09536332
207	0x3d899f18	0.06719798
208	0xbcf39c98	-0.029737756
209	0xbe0ed69f	-0.13949059
210	0xbe19f0ae	-0.15033218
211	0xbd3be0f8	-0.045868844
212	0x3d485cb0	0.04891652
213	0x3e1ee603	0.1551743
214	0x3e050cab	0.12993114
215	0x3b3dbf48	0.0028953124
216	0xbdddef5b	-0.10836669
217	0xbe2149ad	-0.15750761
218	0x3e219f4b	0.15783422
219	0xbdc9bbd5	-0.09850279
220	0xbcfe88f0	-0.031071156
221	0xbe11f9c4	-0.14255434
222	0xbdfa16e7	-0.122113995
223	0x3d0c6a0c	0.03428082
224	0xbd560037	-0.0522463
225	0xbce8255d	-0.028338129
226	0x3cc55eff	0.02409315
227	0x3c9839af	0.018582193
228	0xbd65a1f9	-0.056062672
229	0xbd4dca29	-0.050241623
230	0x3c4a3c1d	0.012343434
231	0x3de898ef	0.11357295
232	0x3de1aa44	0.11018804
233	0xbe0de889	-0.13858236
234	0xbe103bf8	-0.14085376
235	0xbd919b14	-0.07109657
236	0xbc5ccfe8	-0.013477303
237	0x3d47e97e	0.04880666
238	0x3e1192bc	0.14216131
239	0x3d9e1176	0.07718174
240	0xbe271090	-0.16314912
241	0xbd6c17d1	-0.0576399
242	0x3de9fe7a	0.11425491
243	0x3dbde8df	0.09272932
244	0xbe06907a	-0.13141051
245	0xbd15233f	-0.036410566
246	0xbe61b4ca	-0.22041622
247	0xbd91cb97	-0.0711891
248	0x3dafec10	0.08589947
249	0xbd9cf477	-0.076638155
250	0x3ddce8de	0.107866034
251	0xbe473320	-0.19453096
252	0x3e1ff075	0.15619071
253	0x3d1bd36e	0.038043432
254	0x3dea754a	0.11448152
255	0x3d81961c	0.06327459

net.flow_mapping.0.affine_layers.0.net.8.bias f4 [32]
0	0x3e099d2f	0.13438867
1	0x3e2299fd	0.15879054
2	0xbd149dcc	-0.0362833
3	0x3e51c195	0.20484002
4	0x3d4b17d5	0.049583275
5	0xbdbf58c5	-0.09343103
6	0xbdc52c77	-0.096276216
7	0x3d953243	0.07284977
8	0xbd9290d7	-0.07156532
9	0x3e173bfe	0.14768979
10	0xbe2fbb2d	-0.17161246
11	0xbc926ed7	-0.017875118
12	0xbe0fd5d2	-0.1404641
13	0x3d7416d4	0.059592083
14	0x3e1f79a0	0.1557374
15	0x3dbd6560	0.09247851
16	0xbd9d7252	-0.076878205
17	0xbe29b729	-0.16573776
18	0xbdb2ad96	-0.08724515
19	0xbdd22aca	-0.102620676
20	0x3e545608	0.20735943
21	0xbdc2892b	-0.09498819
22	0x3d6b0ffe	0.0573883
23	0x3e401485	0.18757828
24	0x3d76f361	0.060290698
25	0xbe1ebeaa	-0.1550242
26	0xbcd0a653	-0.025469935
27	0xbd9f83ea	-0.077888325
28	0x3e08c28c	0.13355464
29	0xbcba7457	-0.022760553
30	0xbd069fe5	-0.03286733
31	0x3e161fac	0.1466052

net.flow_mapping.0.affine_layers.0.net.10.weight f4 [2, 32]
0	0x3d7ac51f	0.061223146
1	0x3e08843d	0.13331695
2	0xbdcaabc7	-0.09896045
3	0x3e0e408b	0.13891809
4	0x3d9c7b6d	0.07640729
5	0xbd115b38	-0.035487384
6	0x3d0b74f8	0.034047097
7	0xbde29ac0	-0.110646725
8	0x3bd4ddd0	0.0064961687
9	0x3d8b13d7	0.067908935
10	0xbe29673b	-0.16543286
11	0xbde0a81d	-0.10969565
12	0x3dd4ccd5	0.10390631
13	0xbcf9b6b8	-0.030482635
14	0x3d2a136d	0.041522432
15	0x3d86d13d	0.06582878
16	0xbdf7c922	-0.1209891
17	0x3e1598f3	0.14609127
18	0xbd49784d	-0.049186993
19	0xbda7862c	-0.08179888
20	0x3de68e4e	0.11257611
21	0xbe16945a	-0.14705029
22	0xbd5838ab	-0.052788418
23	0x3d75c555	0.060002644
24	0xbd48ba2d	-0.049005676
25	0x3dc4ec12	0.09615339
26	0xbe1532eb	-0.14570205
27	0xbcc8b57b	-0.0245006
28	0xbcdf5b6c	-0.027265273
29	0x3e3277ef	0.17428564
30	0x3d8faa7f	0.070149414
31	0xbe234223	-0.15943198
32	0x3ddd87bb	0.10816904
33	0xbd38eb22	-0.045146115
34	0x3e5da34a	0.21644321
35	0x3e10eaad	0.14152022
36	0xbe202af7	-0.1564139
37	0x3e214213	0.15747862
38	0xbd016c38	-0.031597346
39	0xbd5e27ab	-0.05423705
40	0x3d586418	0.05282983
41	0x3e7bf093	0.2460349
42	0x3d5a56ba	0.053305365
43	0xbe55c498	-0.20875776
44	0xbd94e346	-0.072699115
45	0x3e602fe4	0.21893269
46	0xbde4a6de	-0.1116464
47	0xbe00ec77	-0.12590204
48	0xbe23834e	-0.15968058
49	0xbdc7bb2b	-0.09752496
50	0xbdf85b62	-0.12126805
51	0x3d4ec6b9	0.050482485
52	0x3de9f1b5	0.11423055
53	0x3e2ca8df	0.16861294
54	0x3e4238b2	0.1896694
55	0xbc744b2d	-0.014910501
56	0x3e11a5df	0.14223431
57	0x3dcecefa	0.100980714
58	0xbe16b7b2	-0.14718512
59	0x3de024ed	0.10944543
60	0xbe3219ca	-0.1739265
61	0x3e10fb4b	0.1415836
62	0xbda070cb	-0.078340136
63	0x3de4f529	0.11179573

net.flow_mapping.0.affine_layers.0.net.10.bias f4 [2]
0	0x3d1cd931	0.038293067
1	0x3dbd5440	0.09244585

net.flow_mapping.0.affine_layers.1.net.0.weight f4 [32, 1]
0	0x3e415d50	0.18883252
1	0xbf3f4f6a	-0.7473055
2	0x3ede299e	0.43391126
3	0x3f1a989d	0.6038912
4	0xbf0d2922	-0.5514089
5	0xbf28002d	-0.6562527
6	0xbf20c9f6	-0.6280817
7	0xbef550ed	-0.47913304
8	0xbe0104f8	-0.12599552
9	0x3d8b6710	0.06806767
10	0x3cf229df	0.029560981
11	0xbe7b22fc	-0.24525064
12	0x3f20e126	0.6284355
13	0x3da76dc9	0.08175237
14	0xbf136824	-0.5758078
15	0xbe9b2f17	-0.30309364
16	0xbf1b3090	-0.60620975
17	0xbebb6f44	-0.36608326
18	0xbf7dca60	-0.99136925
19	0x3e337674	0.17525655
20	0xbf4f418f	-0.8095941
21	0x3ec4fe70	0.3847537
22	0x3f39fe27	0.7265343
23	0xbf3857db	-0.72009057
24	0xbf05baa0	-0.5223789
25	0xbf59c2e2	-0.8506299
26	0x3ea63fab	0.3247045
27	0x3e8289fe	0.25495905
28	0xbee6d7eb	-0.45086607
29	0x3f2927c5	0.6607631
30	0x3eeae70f	0.4587941
31	0xbf64116e	-0.89089096

net.flow_mapping.0.affine_layers.1.net.0.bias f4 [32]
0	0xbd996071	-0.07489098
1	0xbed6d352	-0.419581
2	0xbe3c5c62	-0.18394616
3	0x3f163111	0.5866862
4	0xbdd8f0bb	-0.10592791
5	0xbf331ecc	-0.6996887
6	0x3f40e2ce	0.75346076
7	0xbf6bae6c	-0.9206302
8	0xbeafba54	-0.34321845
9	0x3ec8af96	0.3919646
10	0x3f68ec67	0.9098572
11	0x3f82505e	1.0180776
12	0xbe8373ea	-0.25674373
13	0x3eaffb5f	0.34371468
14	0xbf621d23	-0.8832571
15	0xbe2c3313	-0.16816358
16	0xbe9dd620	-0.30827427
17	0x3e97ab8e	0.29623073
18	0xbf20204d	-0.6254929
19	0x3e4a02f6	0.19727692
20	0x3f081f6d	0.5317295
21	0x3f4bdca3	0.7963354
22	0xbe30d711	-0.17269541
23	0x3f74ac54	0.9557545
24	0xbf730277	-0.94925636
25	0xbe6db686	-0.23214158
26	0x3eb9d60a	0.3629611
27	0x3e6bdd39	0.23033608
28	0x3f06e0f7	0.5268702
29	0xbf1eff99	-0.6210876
30	0x3f1eefbc	0.62084556
31	0xbf727c97	-0.9472136

net.flow_mapping.0.affine_layers.1.net.2.weight f4 [32, 32]
0	0xbdf81876	-0.121140406
1	0x3d89108c	0.06692609
2	0xbe2fc06e	-0.1716325
3	0xbe53802b	-0.20654361
4	0xbe05b62b	-0.13057773
5	0x3e764829	0.24050964
6	0x3c9aed4d	0.018911982
7	0xbd7bb7ee	-0.061454706
8	0xbbedec60	-0.007260844
9	0xbe4d5418	-0.2005161
10	0xbe545759	-0.20736445
11	0xbe1f0a14	-0.15531188
12	0xbe2f03e4	-0.17091328
13	0x3d8b4cf5	0.06801788
14	0xbdbed637	-0.09318202
15	0x3d199180	0.037492275
16	0xbda127eb	-0.07868942
17	0x3c6ec2bf	0.014572798
18	0x3d7b946c	0.061420843
19	0xbe1c1de9	-0.15245785
20	0x3dcea8c6	0.10090785
21	0x3db261f3	0.087100886
22	0xbe00f1c8	-0.12592232
23	0x3da1f95f	0.07908892
24	0xbd12863a	-0.03577254
25	0x3d131404	0.03590776
26	0x3d12a7dc	0.035804614
27	0xbd7bbb11	-0.061457697
28	0x3e061742	0.1309481
29	0x3dde9cda	0.10869761
30	0xbe425670	-0.18978286
31	0xbca43ffb	-0.02005004
32	0xbe333e7d	-0.17504306
33	0x3d67b008	0.05656436
34	0xbe0813f4	-0.13288862
35	0xbe17a293	-0.14808111
36	0xbde7eae5	-0.113240995
37	0xbe32dbdd	-0.17466684
38	0xbe134d5c	-0.14384979
39	0x3e215cb9	0.15758027
40	0x3dca1c4a	0.09868677
41	0x3e204981	0.1565304
42	0xbdaf821c	-0.08569738
43	0xbd94662e	-0.07246052
44	0xbd7de65c	-0.061987266
45	0x3b6220d8	0.003450444
46	0xbe01d8d7	-0.12680374
47	0x3cd42c98	0.02590017
48	0xbde7e490	-0.11322892
49	0x3ce4b348	0.02791752
50	0x3e25b669	0.16182865
51	0x3cf47208	0.02983953
52	0x3e03f60b	0.12886827
53	0xbe00d75a	-0.1258215
54	0xbccc3da8	-0.024931744
55	0xbddf69ec	-0.10908875
56	0xbca09148	-0.019600525
57	0xbd8fed22	-0.07027651
58	0xbdcd6ee4	-0.10030916
59	0xbe2ebe7b	-0.1706485
60	0xbd8628b1	-0.0655073
61	0x3cc1d0c8	0.023659125
62	0xbcfe9ac0	-0.03107965
63	0xbe287da3	-0.16454177
64	0x3e07e539	0.13271035
65	0x3e06241d	0.13099714
66	0xbdda2538	-0.1065163
67	0x3c931ef8	0.017959103
68	0x3df0401e	0.117309794
69	0xbe2bcdd2	-0.16777733
70	0xbe1fd916	-0.15610155
71	0x3dc8c382	0.09802915
72	0xbb655258	-0.0034991708
73	0x3d666fbc	0.056258902
74	0xbd9676c9	-0.07346875
75	0x3d033350	0.032031357
76	0x3deff8ea	0.117173985
77	0xbd3108ac	-0.04322116
78	0xbd69bc04	-0.05706407
79	0xbe2c4391	-0.1682265
80	0xbcdf5330	-0.027261347
81	0x3de5462a	0.11195023
82	0xbe2af99b	-0.1669678
83	0xbc5f97c8	-0.013647027
84	0x3e03de6f	0.1287782
85	0xbd4e88bc	-0.05042337
86	0xbd85adef	-0.06527316
87	0xbd5a45e6	-0.053289317
88	0xbd92974a	-0.07157762
89	0x3cad36e0	0.02114433
90	0xbe2e2d20	-0.17009401
91	0x3d8a441c	0.06751272
92	0xbd36c294	-0.044619158
93	0xbcb84458	-0.022493526
94	0xbc434ad8	-0.0119197
95	0x3dca20d6	0.09869544
96	0xbd87f099	-0.06637687
97	0xbe249fbb	-0.16076557
98	0xbdaa78f8	-0.08323854
99	0xbdf63ba7	-0.120230965
100	0xbdb027c6	-0.08601336
101	0x3e0ee3b5	0.13954051
102	0xbe496510	-0.19667459
103	0xbdd4b032	-0.10385169
104	0xbe1379e0	-0.1440196
105	0xbde9fe81	-0.11425496
106	0xbd2d81df	-0.042360183
107	0xbe24a0b8	-0.16076934
108	0x3d39c6d6	0.04535564
109	0x3d20543f	0.039142843
110	0xbcf63d88	-0.030058637
111	0x3d9c1d16	0.07622735
112	0x3d260d34	0.040539935
113	0x3e13cebf	0.14434336
114	0xbc13c690	-0.009019509
115	0x3e2596c7	0.16170798
116	0x3dcaba20	0.09898782
117	0x3da5906c	0.08084187
118	0x3e0db2b8	0.13837707
119	0xbe39000a	-0.18066421
120	0xbdf253cd	-0.1183239
121	0x3d9a83be	0.07544659
122	0x3d892efe	0.06698416
123	0x3e28b7e9	0.16476406
124	0xbd974f45	-0.07388166
125	0x3d002296	0.031282984
126	0x3dff55be	0.12467526
127	0x3bbaf720	0.005705729
128	0x3e29d823	0.16586356
129	0xbdb88e70	-0.09011543
130	0xbd6d6cbc	-0.057965025
131	0x3bfa21c8	0.0076334216
132	0x3dc0f8e6	0.094224736
133	0xbe1e97d6	-0.15487608
134	0xbd4a8fd4	-0.04945357
135	0x3e036185	0.1283017
136	0x3d16ad48	0.036786348
137	0x3dffcc4a	0.12490137
138	0xbd751fae	-0.059844665
139	0xbde415d7	-0.11136978
140	0xbdf70530	-0.12061536
141	0xbdcb6bc6	-0.099326655
142	0xbe07f47d	-0.13276859
143	0x3db34e2e	0.08755146
144	0x3d4280a0	0.047485948
145	0xbde780fc	-0.11303899
146	0x3e25d22f	0.1619346
147	0x3d4e0418	0.050296873
148	0x3d86a724	0.06574848
149	0xbd98745e	-0.0744407
150	0x3dfa7f5a	0.12231322
151	0xbdff38ee	-0.1246203
152	0x3e03de13	0.12877683
153	0xbdc49e2c	-0.096004814
154	0x3d99ade6	0.075038716
155	0xbd82e3e0	-0.0639112
156	0x3deb0f12	0.11477484
157	0xbe17b962	-0.14816812
158	0xbd0d18e8	-0.03444758
159	0xbd43523c	-0.047685847
160	0xbdd7717a	-0.10519691
161	0xbd43b7d1	-0.047782723
162	0xbd492f4e	-0.04911738
163	0x3caefd1e	0.02136093
164	0x3e15c76f	0.14626859
165	0x3d28271d	0.041052926
166	0x3e2e5979	0.17026319
167	0xbda51935	-0.080614485
168	0xbdba45e5	-0.090953626
169	0xbd107d95	-0.035276014
170	0xbd548533	-0.05188484
171	0x3d337325	0.043810982
172	0x3e279fd7	0.16369568
173	0x3d05b654	0.032644585
174	0xbe21c0e4	-0.15796238
175	0xbc9c825b	-0.019105127
176	0x3acc3a67	0.001558137
177	0xbe23f740	-0.16012287
178	0x3dca8afd	0.09889791
179	0x3e1cfa9a	0.15329972
180	0x3db86ebe	0.090054974
181	0xbd3a34b2	-0.04546041
182	0xbc558d75	-0.013034214
183	0xbdb0f696	-0.086407825
184	0xbc0ea257	-0.008705697
185	0x3e3723f9	0.17884816
186	0xbdeb4390	-0.11487496
187	0x3ce7b41e	0.028284129
188	0xbe0766f0	-0.13222861
189	0xbd42e389	-0.047580276
190	0xbd539493	-0.051655363
191	0xbd7c0393	-0.061526846
192	0x3d8afc19	0.06786365
193	0xbe5d01a6	-0.2158266
194	0xbd5016f2	-0.050803132
195	0x3e099677	0.13436304
196	0x3e0f67a7	0.14004384
197	0xbdbb653e	-0.0915017
198	0xbdd87f10	-0.1057111
199	0xbe1489de	-0.14505717
200	0xbd31d56c	-0.043416426
201	0xbd5db257	-0.054125156
202	0x3e36c16d	0.17847224
203	0xbdb1d35a	-0.0868289
204	0x3e01692a	0.12637773
205	0x3d8dc465	0.06922225
206	0xbd8ed461	-0.06974102
207	0x3d9ca8ff	0.07649421
208	0x3d12ae27	0.035810616
209	0x3d08b1db	0.03337274
210	0xbe380f37	-0.17974554
211	0xbd1e7ea5	-0.038694996
212	0x3db77ed3	0.08959737
213	0x3e3f0845	0.18655498
214	0xbd3ea962	-0.046548255
215	0xbd78f38b	-0.060779136
216	0xbe30c156	-0.17261252
217	0x3d8c3b59	0.06847257
218	0x3e3df7b2	0.1855152
219	0x3e0671a0	0.13129282
220	0xbd8cfe81	-0.0688448
221	0x3e46f8cc	0.19430846
222	0xbcb4f3e9	-0.022088962
223	0x3cbca38c	0.023027204
224	0x3e06879a	0.13137665
225	0xbe54aaf8	-0.20768344
226	0x3d95b558	0.07309979
227	0x3da580df	0.08081221
228	0xbdf52bed	-0.11971269
229	0x3d979a0e	0.074024305
230	0x3e1e9fce	0.15490648
231	0x3e128446	0.14308271
232	0xbad0e4b0	-0.0015937295
233	0xbd945eb3	-0.07244625
234	0xbd98789f	-0.07444882
235	0x3daab093	0.0833446
236	0xbbe69842	-0.0070371935
237	0x3e26f3a4	0.16303879
238	0x3e0a9051	0.13531615
239	0xbd49c06f	-0.049255785
240	0xbe51d6e7	-0.20492135
241	0x3de3e4ab	0.11127599
242	0x3dd1f5af	0.102519386
243	0xbd050bb6	-0.03248187
244	0xbd67a8c6	-0.05655744
245	0xbc94b6b7	-0.018153531
246	0x3d3f62ca	0.046725072
247	0xbe01bc9a	-0.12669602
248	0x3db4292d	0.08796916
249	0x3d335927	0.043786194
250	0xbd6d315c	-0.0579084
251	0xbd6a8dd8	-0.05726418
252	0xbd5f6a06	-0.05454447
253	0x3e53b663	0.20675044
254	0x3e03065a	0.12795392
255	0xbcf906e9	-0.030398803

net.flow_mapping.0.affine_layers.1.net.2.bias f4 [32]
0	0xbd244f77	-0.040114846
1	0xbdec3ffe	-0.11535643
2	0x3dc7ef6a	0.097624615
3	0xbcd88c9a	-0.026434232
4	0xbdb724cc	-0.08942565
5	0xbe42b0b4	-0.1901272
6	0x3e33e81f	0.17569016
7	0x3e49f317	0.19721638
8	0x3c850c39	0.01624118
9	0xbd81be32	-0.06335105
10	0x3d974f4c	0.073881716
11	0x3df63114	0.1202108
12	0x3bf5a741	0.007496745
13	0x3e27fe07	0.16405497
14	0xbdcabe65	-0.09899596
15	0xbca5da90	-0.02024582
16	0x3e5283b7	0.20558058
17	0xbddfdfc7	-0.10931354
18	0xbdbcf9fa	-0.09227367
19	0xbd907abf	-0.07054662
20	0xbdae601b	-0.085144244
21	0x3df864a7	0.12128573
22	0x3e0647ce	0.13113329
23	0xbe15f9f1	-0.14646126
24	0xbdce253d	-0.100656964
25	0xbc05d164	-0.008167598
26	0xbd7909e4	-0.060800448
27	0xbda00ef8	-0.07815355
28	0xbe14ae94	-0.14519721
29	0x3e162563	0.146627
30	0x3df9c97d	0.12196634
31	0x3cc5d58f	0.024149684
