param/das_pde_stage5.pth (torch, 95247 bytes, 5 tensors)

input_layer.weight f4 [150, 2]
000000 9e ba 77 be a9 e7 16 3e 65 11 8d be 9d d7 4c 3e
       -0.24192283 0.14736809 -0.27552333 0.20004125
000010 33 f3 da be 3e e0 f0 bd 22 df 11 3f 8e d4 a4 be
       -0.4276367 -0.11761521 0.569811 -0.32193416
000020 f2 08 10 bf 2e 32 bf be 03 4d b2 be ec cb 6a be
       -0.5626365 -0.37342972 -0.3482438 -0.22929353
000030 21 0d 06 3f db 50 45 be 0a 8c 0d 3f c8 82 ee 3e
       0.52363783 -0.19269125 0.5529181 0.46584153
000040 ed b5 8d 3e 5c ec b0 3e bc 15 51 3e 98 35 0d bf
       0.2767786 0.34555328 0.20418447 -0.551599
000050 58 4e d2 3e d5 dd 89 be 0f dc 12 bf ce a3 08 3f
       0.41075397 -0.26927057 -0.5736703 0.53374946
000060 09 46 06 bf be c9 01 bd 62 70 29 bf 9e 0c 26 bf
       -0.52450615 -0.031686537 -0.6618711 -0.64863
000070 86 13 a9 3e cd 35 16 3e dc 08 01 3f 11 45 b9 be
       0.33022708 0.14668961 0.50404143 -0.36185506
000080 27 c3 c1 be 27 d7 99 be b3 a6 28 3f e9 17 ed 3e
       -0.37844202 -0.3004696 0.6587936 0.46307305
000090 e7 fa 2d bf 85 d9 eb bd 5d fa b8 be 0f 57 22 3e
       -0.6796097 -0.11516098 -0.36128512 0.15853523
0000a0 e9 38 84 be 7b 2c 0e bf 01 99 ff be e6 b9 87 be
       -0.2582467 -0.5553662 -0.4992142 -0.26509017
0000b0 8d 7f 26 bf b7 84 1a bf b2 e9 2a bf 79 b8 77 be
       -0.6503838 -0.60358757 -0.6676284 -0.24191464
0000c0 ce 9c 41 be 76 9a 8c 3e 7a 73 26 3f 89 c7 bd 3e
       -0.18907472 0.27461594 0.65019953 0.37066296
0000d0 11 0f 0f bf c6 e0 b3 3d 25 c7 86 be fb a4 83 bd
       -0.55882365 0.087831065 -0.2632381 -0.06427952
0000e0 e0 31 99 3e dd b5 59 be b7 b4 28 3f aa 32 a0 be
       0.29920864 -0.21260782 0.6590075 -0.31288654
0000f0 a8 ad db be 9c 24 ad be 59 6c 28 bf 01 93 a1 3d
       -0.42905927 -0.33816993 -0.65790325 0.07889367
000100 8f 3a 01 bf b7 cd 01 3f 57 0f 24 bf d3 83 c6 be
       -0.5047998 0.5070452 -0.64085907 -0.3877245
000110 79 9a b9 be 66 b3 a6 be d5 1b 54 3d c8 7c 2c bf
       -0.36250666 -0.32558745 0.051784355 -0.673779
000120 32 5e 7f 3e ec af 75 3d c7 03 2c be 21 b2 ed bc
       0.24938276 0.059982225 -0.16798316 -0.029015603
000130 55 d6 9a 3e de 9b b4 be 9b 8a 75 be 3c 23 97 3e
       0.30241647 -0.35275167 -0.23978655 0.2951907
000140 e8 e0 04 3f af dd 0b 3f 33 13 ea be a2 7f 12 bf
       0.5190568 0.5463514 -0.45717773 -0.57226
000150 c3 63 e0 be 10 a2 d8 be e6 c9 13 bf 95 7d ea 3d
       -0.43826112 -0.42311144 -0.5772995 0.11449734
000160 d6 fe 30 3e bf 78 78 3e 62 df 18 3e 85 21 a3 be
       0.17284712 0.24264811 0.14928964 -0.3186151
000170 5d 04 f3 3e 56 a8 16 3f 79 bb 76 be 83 ce 19 3f
       0.47464266 0.5885061 -0.24094953 0.60080737
000180 96 ec 59 3e 76 8f fc 3d d8 81 ca 3e 2f 78 8b be
       0.21281657 0.123320505 0.39552188 -0.2724013
000190 30 7c 83 3e 3f 82 91 be 26 67 28 3e a4 f2 04 3f
       0.25680685 -0.28419682 0.16445598 0.5193274
0001a0 e2 29 8b 3c 27 a5 24 bf 01 37 91 be 3f 2b 55 bd
       0.016987745 -0.643145 -0.28362277 -0.052043196
0001b0 a2 50 c1 3e f4 54 21 3e c8 d9 3a be 17 10 21 3f
       0.3775683 0.15755063 -0.1824714 0.62915176
0001c0 ab 97 1e 3f 75 fb bd be 83 f5 b4 be 9a 08 90 3e
       0.61950177 -0.3710591 -0.3534356 0.28131562
0001d0 8c 72 bb 3e cc d2 a9 3d 05 aa 1a 3f 11 f4 20 be
       0.3661083 0.082921594 0.6041568 -0.15718104
0001e0 ef 67 3d be 3e 54 9e be 10 fc 1b 3f c0 f6 de be
       -0.18496679 -0.30923647 0.6093149 -0.4354763
0001f0 77 93 00 3f 4b 72 18 bf 6d 1f 14 3f cc df 6f 3e
       0.50225013 -0.595494 0.5786045 0.23425215
000200 e4 62 f5 be ac 06 8d be c0 32 14 3e 00 b8 14 3f
       -0.4792701 -0.27544153 0.14472485 0.5809326
000210 4e 89 bf bd 48 ea 2d bf 56 8a 2a bf 5f 34 e2 be
       -0.09352361 -0.6793561 -0.66617334 -0.4418058
000220 8b 33 bb 3e 72 d3 00 3f 96 33 10 bf b2 43 02 3f
       0.36562762 0.5032264 -0.56328714 0.50884545
000230 cf c8 9c 3e 47 83 17 3f cf e4 1d bf e5 dd 0d bf
       0.30621955 0.5918469 -0.6167726 -0.5541671
000240 c9 24 23 bf f7 85 d1 be d0 ff 7a 3e dc 4e 76 3e
       -0.63728005 -0.4092252 0.24511647 0.2405352
000250 0c 70 44 be 11 c4 e4 be e7 f1 9e 3e 39 58 3a 3e
       -0.19183367 -0.44680837 0.31043932 0.18197717
000260 d1 45 45 3e 7f 52 74 be 5d 9e 1d 3f fb 1f ed 3d
       0.19264914 -0.23859595 0.6156977 0.115783654
000270 95 37 21 bf c2 e9 a7 be ae 4e 86 3d 78 e5 ce 3e
       -0.62975436 -0.3279553 0.06557976 0.40409446
000280 5a 77 28 ba 0a 90 c3 bd 2a 82 06 bd d4 af fa be
       -0.0006426476 -0.09548958 -0.032838978 -0.4896227
000290 ec e9 12 3f 6a 28 cb be 1f eb 61 3e fd d0 ec 3e
       0.57388186 -0.3967927 0.22062348 0.46253195
0002a0 f8 1a 0d bf 2c fb 6d bc c9 d4 0a be 38 81 8d bd
       -0.55119276 -0.014525216 -0.13557734 -0.06909412
0002b0 b6 1a 78 3e 81 c8 d8 be 49 88 1b bd 4c e8 ca be
       0.2422894 -0.42340472 -0.03797177 -0.39630353
0002c0 f8 78 93 3e dd 1d 96 be f5 b6 89 3e 43 45 11 3e
       0.2880323 -0.2931966 0.26897398 0.14186577
0002d0 bb 5a d8 3e 86 1b d6 be 0f 22 20 bf 17 73 9a 3e
       0.42256722 -0.41817874 -0.6255197 0.30165932
0002e0 3c 9f 28 bf 9b 74 b7 bc 6a 8c e7 be 68 80 fd be
       -0.6586797 -0.022394469 -0.45224315 -0.4951203
0002f0 42 ca 10 be 48 43 29 bf db a2 d6 3d a1 92 d6 bd
       -0.14139655 -0.6611829 0.10480281 -0.10477186
000300 bb ee 4c be 25 a1 a4 be bc 13 59 3e c2 11 bf bd
       -0.20012943 -0.32154194 0.21198934 -0.09329559
000310 fd 42 8b bd 84 04 24 3e db a2 7f 3e d2 34 47 be
       -0.067998864 0.16017348 0.24964468 -0.19453743
000320 81 29 00 3f c6 ad ed 3e 15 f4 c0 bd fb 53 0e bf
       0.5006333 0.4642164 -0.09421555 -0.55596894
000330 e4 bd 11 3f 5a 08 9a 3e 0b de 26 bf a0 b0 44 be
       0.56930375 0.30084497 -0.6518256 -0.19208002
000340 42 6d 24 3f 1a b0 b1 3e dc ca f1 3e b7 db b6 be
       0.64229214 0.34704667 0.47225082 -0.35714504
000350 90 dc 1c 3e fc 62 c9 be ce 9b 66 be d5 76 a9 3e
       0.15318513 -0.39333332 -0.22520372 0.33098474
000360 10 74 3c be 7e 63 21 bf 9e 02 0d bf b4 a5 6e 3d
       -0.1840365 -0.6304244 -0.5508212 0.058263496
000370 78 93 8c be 7e 20 9f 3e df 61 98 be c1 35 ba 3d
       -0.2745626 0.31079477 -0.2976217 0.09092284
000380 8f d8 f3 be 36 21 6a be dc 0e f3 3d b6 32 a5 be
       -0.4762616 -0.22864231 0.118680686 -0.32265252
000390 5d fb a7 be 49 06 1d be 46 a3 95 3e bc 16 10 3f
       -0.32808962 -0.15334429 0.2922613 0.5628469
0003a0 e1 c6 2c 3e 26 91 4d 3e f2 95 a4 be 1d cf 10 bf
       0.16872741 0.20074901 -0.3214565 -0.5656603
0003b0 99 0f 1a 3f 6e 77 d4 3e ec dd c7 be a5 72 f9 bd
       0.6018005 0.41497368 -0.390365 -0.1218007
0003c0 4a d8 11 3e 2c bd 48 3e 16 f1 03 bf 0f e4 0a bf
       0.14242664 0.19603413 -0.5153974 -0.5425424
0003d0 b6 d2 f1 3e df 16 f8 be 07 57 d5 3d 27 78 a6 3d
       0.47231072 -0.4845495 0.1041699 0.08128386
0003e0 a7 96 28 bf c3 4d cd be 6d 50 ed be fb c7 a5 3e
       -0.6585488 -0.4009839 -0.46350423 0.32379135
0003f0 ef 2e 23 3e 7a 56 df 3e b9 eb 2e 3e 7e 3a 07 3e
       0.15935872 0.43620664 0.17082109 0.13205907

input_layer.bias f4 [150]
000000 56 7b 5b 3e 7d f4 af 3e 30 79 d7 bd 59 d8 86 bd
       0.21433768 0.34366217 -0.105211616 -0.06584234
000010 de 8c 1b 3f 08 e5 92 3e a7 40 9f be b3 7e 08 3f
       0.6076182 0.28690362 -0.31104013 0.5331833
000020 0a a3 16 bf 76 73 99 3e ca c5 9d 3e fb b9 15 bf
       -0.5884253 0.29970902 0.30814964 -0.5848691
000030 07 0d c7 3c 3b 6c 1b bf 6d c5 0d bf dd 18 21 3f
       0.024298204 -0.6071202 -0.5537937 0.62928563
000040 92 4f 7e 3e e6 a1 4e 3e 5f f0 18 3f 02 5f 34 3e
       0.24835041 0.20178947 0.5974178 0.17614368
000050 6e 59 19 be 26 14 a1 be 25 40 cb 3e 4b 34 b4 3e
       -0.14975521 -0.31460685 0.39697376 0.35196146
000060 2f 56 13 bf 2a 05 e8 3e e1 cf 13 bf 54 cf 10 3f
       -0.5755338 0.4531644 -0.57739073 0.5656636
000070 5d d4 53 be f5 44 6f 3e 5b 13 aa 3e b6 70 07 3e
       -0.20686479 0.23366149 0.33217892 0.1322659
000080 be 44 65 be bf 47 2d 3f bd 88 00 3f c3 c6 be 3e
       -0.22389504 0.676876 0.50208646 0.37261018
000090 28 72 ea be 7c 72 ab 3d 86 f9 1f 3f 44 cd c5 be
       -0.4579022 0.083714455 0.6249012 -0.38633168
0000a0 06 bb 8c 3e 4c ab e0 3d 16 38 2f bf 64 10 e7 3e
       0.27486438 0.10970172 -0.68444955 0.45129693
0000b0 29 5a 0b 3d 2f 51 11 be 84 df de 3e 51 c7 84 be
       0.03402153 -0.14191125 0.43529904 -0.25933316
0000c0 8c 90 96 3e 79 29 86 3e 8d f6 2d bf 26 af e6 bd
       0.29407156 0.26203516 -0.6795433 -0.11263876
0000d0 8c e2 4d 3d 1a 17 3a be dd 8d 0e 3f 1c e7 72 be
       0.05026488 -0.18172875 0.55685216 -0.23720974
0000e0 bd 86 dd 3e 95 21 78 3e cf 2e fa be 2b 68 27 bf
       0.4326686 0.2423156 -0.48863837 -0.6539332
0000f0 08 3b 99 3e ac 12 d7 3c 21 d6 6e be 53 5c 2f bf
       0.2992785 0.02625402 -0.23323871 -0.6850025
000100 a7 e8 16 bf 5b d8 c8 be ab fd 1f be ec f8 22 3f
       -0.5894875 -0.39227566 -0.1562411 0.63661075
000110 81 43 18 bf eb c5 1d be 0f 2e dc 3e 6b 22 fe be
       -0.59478 -0.15407531 0.4300389 -0.49635634
000120 d7 c8 05 3f e9 9d c3 bd 0c 7a 26 bc a2 1e 18 bf
       0.5225958 -0.09551603 -0.010160934 -0.5942174
000130 db e5 31 bf f8 29 4c 3c e6 ba 9a be af ea 17 bf
       -0.69491357 0.012461178 -0.30220717 -0.59342474
000140 2f 6b b4 be 80 59 df 3e b2 06 a0 3e f6 22 af be
       -0.35238025 0.4362297 0.31255108 -0.3420636
000150 54 9a cf be 44 3d 2c bf d5 6f 24 be 0a 13 ea 3e
       -0.4054743 -0.67280984 -0.16058286 0.4571765
000160 23 c8 4a 3d bd 40 ec 3e 91 6a 35 be 70 80 aa 3e
       0.04950727 0.4614314 -0.17716433 0.33301115
000170 6e e8 3a be 7f 19 18 bf 28 7f 9d be d8 3b 29 bf
       -0.18252727 -0.59413904 -0.30761075 -0.6610694
000180 3b a6 c2 3e 39 92 5d bd 1b 62 1b 3f 6e dc 03 bf
       0.3801745 -0.054094527 0.6069657 -0.51508224
000190 09 c4 02 bf 8b cb cb 3d ac 0c 1e 3e bc be 28 3f
       -0.51080376 0.09950932 0.15434521 0.6591604
0001a0 db 4d 86 be 8c 1f 32 3b 65 06 e4 3e 9c e9 35 bf
       -0.26231274 0.0027179448 0.4453613 -0.71059585
0001b0 d8 01 ab bd 0d 2b 2c bf d9 01 1a bf 45 58 0f bf
       -0.08349961 -0.6725319 -0.6015907 -0.55994064
0001c0 6e ff 9a be e2 59 26 bf 18 97 31 3f 28 9a 09 bf
       -0.30273002 -0.649809 0.69371176 -0.5375085
0001d0 d6 f4 1e 3f db 2d ef 3e 59 7f 29 3e 36 f8 12 bf
       0.6209234 0.46714672 0.16552486 -0.5740999
0001e0 d3 96 18 3f db bd 78 be 47 b1 69 3e 89 8f d4 3e
       0.5960514 -0.24291174 0.22821532 0.4151576
0001f0 80 77 1a 3f 70 e9 12 bf 7e 89 d6 3d 8b 6b f7 3e
       0.6033859 -0.5738745 0.10475443 0.48324236
000200 08 61 b2 3e 86 6f d1 bc 7c e3 76 3e de 07 d7 3c
       0.34839654 -0.025565874 0.24110216 0.026248869
000210 34 86 ab be 69 d7 2f 3f 38 cc 2f be 24 2f 6a be
       -0.33500826 0.68688065 -0.17167747 -0.22869545
000220 d9 c8 e8 be 46 a5 33 bf 04 21 f4 3e fd 2c 68 be
       -0.45465735 -0.7017406 0.4768144 -0.22673412
000230 45 42 a0 3e 5c 40 7f be 3d 47 04 3f 7b 2e 19 3f
       0.3130056 -0.24926895 0.516712 0.5983655
000240 f4 63 22 bf c8 f7 97 3e 90 44 12 bf 04 43 f4 3e
       -0.63433766 0.2968123 -0.5713587 0.4770738
000250 8b 18 ae be 4e a5 70 3e
       -0.340031 0.23500559

hidden_layers.0.weight f4 [150, 150]
000000 4a 35 8d bc bc fd 42 bc 5f e8 0d 3d ba a5 8d bd
       -0.017237324 -0.011901315 0.034645434 -0.069163755
000010 48 ed 74 3d 25 d1 04 bd f7 7f 05 3b bc ef 60 3d
       0.0597966 -0.03242602 0.0020370462 0.05491613
000020 09 54 46 3d 5e d4 fe bc 54 db 50 3d 66 30 f5 3b
       0.048419986 -0.031107124 0.050990418 0.007482576
000030 6b 26 c9 3c 9b 48 e5 bc af 2f 5d bd da 5c 3c bc
       0.024554452 -0.027988723 -0.054000553 -0.011496747
000040 b9 2c 6f bd fe aa c3 3c 6d 44 18 bd bf 2b dd bc
       -0.05839226 0.023885246 -0.03717463 -0.026998399
000050 30 a1 28 bd 9c 99 62 3d 67 43 94 bd 93 f0 8d bd
       -0.041169345 0.055322275 -0.072394185 -0.069306515
000060 b3 4f 55 bd 6d c6 5d bd 27 da 9b 3d a3 a0 02 bd
       -0.05207796 -0.05414431 0.07609969 -0.031891476
000070 47 00 49 3d 48 05 0b 3d 16 90 5b bd 10 0a 87 bd
       0.04907253 0.033940583 -0.053604208 -0.06593716
000080 5d 02 51 3d f4 9d 6e bd 44 3b 8a 3d 59 eb 48 3d
       0.051027644 -0.058256105 0.06749585 0.04905257
000090 0d c9 a0 ba 4d f4 18 3d 17 51 7b 3d b5 c0 95 3c
       -0.0012266949 0.03734236 0.06135663 0.018280366
0000a0 f0 a7 5b 3d 71 08 ac 3c 9e ad 3b bd e8 7a 9d bd
       0.053626955 0.021000119 -0.04581987 -0.07689458
0000b0 63 92 81 bd eb 35 88 bd 36 0f 16 3d f8 c7 00 bd
       -0.06326749 -0.06650909 0.0366356 -0.031440705
0000c0 a7 96 27 3d cc 7c d4 bc a1 c5 91 3c a1 b9 28 3d
       0.040915158 -0.025938414 0.017794432 0.041192655
0000d0 e9 ac 80 bc 7c 32 b0 3d d6 e0 92 bc 31 39 52 bd
       -0.01570745 0.08603379 -0.017929476 -0.051324073
0000e0 6e b3 63 ba 82 de 08 bd 4e 64 80 3d 95 5d 65 3d
       -0.00086861 -0.033415325 0.062691316 0.05599745
0000f0 e5 b8 1d 3d 3b 75 57 3c 49 f7 1c bd 78 f9 68 3d
       0.038506407 0.0131505085 -0.038321767 0.056878537
000100 8f ae 7b bc 66 f2 8d 3d 55 44 4d bd 60 0e 92 bd
       -0.015361442 0.069309995 -0.050113995 -0.07131648
000110 5b be 8b 3d 6d 96 93 3d 3b e6 6d bd 95 f1 1d 3d
       0.06823417 0.07206426 -0.058080893 0.03856047
000120 d5 a1 c2 bc 2a 7a a5 3d 2f 2c b1 3b 0f bb 24 bc
       -0.023758808 0.080799416 0.0054068784 -0.010054364
000130 38 dc 03 bd 3d 8c 14 bc 26 9c 0e bd 92 9d 2e 3d
       -0.03219244 -0.009066639 -0.034816884 0.04263074
000140 13 54 84 bc af 51 9f 3c e0 a5 8e bc 59 da 02 3d
       -0.016153371 0.01944813 -0.01741308 0.031946514
000150 fd e7 cf bc 03 fb cf bc ef c7 b0 bc b3 5f 92 3d
       -0.025379175 -0.025388246 -0.02157971 0.071471594
000160 6c ba 17 3d d1 0d 37 bd 8d a7 f2 3c 6b e0 58 bc
       0.03704302 -0.04469091 0.02962091 -0.013237099
000170 c1 68 8e 3c 26 5a 04 bd c5 0d f0 3c f2 84 50 bc
       0.017383935 -0.032312535 0.02930344 -0.012727009
000180 2d 24 6f 3d 6b a7 95 bc 56 d3 19 bd 16 8a 3d bb
       0.05838411 -0.018268308 -0.03755506 -0.0028921417
000190 01 3b 84 3d 03 4e 79 3b 8e cb 44 3c 45 ee fc bc
       0.064565666 0.0038040883 0.012011422 -0.030875335
0001a0 a5 95 5a 3c 3f 83 62 3c 6f ce 8e bd 4c c1 9c 3d
       0.013341342 0.013825237 -0.06972968 0.07654056
0001b0 f5 32 eb b9 74 f4 db bc e6 17 4c bd 7e 23 6b 3d
       -0.0004486066 -0.026849963 -0.04982748 0.057406895
0001c0 d2 e2 33 3d ae 9c 08 bd ff 1e 71 3d 0d 41 82 bd
       0.043917485 -0.033352546 0.05886745 -0.06360064
0001d0 50 77 67 bc 58 c8 b5 3b 94 b9 85 3d 5c 04 77 bd
       -0.014127567 0.0055475645 0.06529537 -0.06030689
0001e0 18 f0 1b 3d f2 3d 50 bc 69 1d 55 3c 53 63 6b ba
       0.038070768 -0.012710081 0.0130075 -0.0008979339
0001f0 ef 51 4b 3c 64 1a 28 3d d0 08 4f bc d6 3a 60 bd
       0.012409671 0.041040793 -0.012636378 -0.05474361
000200 01 99 fa bc fb bd 79 3d bb 9b 0d 3d 75 a3 9c bd
       -0.030590536 0.060972195 0.034572344 -0.076483645
000210 b6 81 48 3d f1 4d 4e 3d 11 6a 3c bd ce 78 b9 bc
       0.048951827 0.0503673 -0.04599959 -0.022640612
000220 7a e0 92 3c 8f c3 92 3d a2 43 76 3d 45 e9 50 3c
       0.017929304 0.07166206 0.060123093 0.012750928
000230 3d a4 73 bc 80 ca 59 3d 59 0d 9b 3d 79 74 85 3d
       -0.0148707 0.053171635 0.07570905 0.06516356
000240 99 88 19 3d b8 32 fe 3c 54 d5 4d 3d 33 60 e3 3c
       0.037483785 0.031030044 0.050252274 0.027755832
000250 49 57 f8 bc 81 5f 84 3d 5a 32 60 3d 26 4e ca 3d
       -0.030315058 0.064635284 0.05473552 0.09878187
000260 38 f9 73 bd 85 e6 33 bc a3 f2 78 3d c4 48 ed 3c
       -0.059563845 -0.010980253 0.06077827 0.028965361
000270 46 e4 8a 3d 6d ba 5b bd 31 be a3 3d 56 cc 8b 3d
       0.06781821 -0.053644586 0.079952605 0.06826083
000280 8a 89 06 3c 94 6d 17 3d ff 7b 3c bd 0d 01 0f 3d
       0.008211503 0.036969736 -0.04601669 0.03491311
000290 11 c2 46 bd 78 16 ec bb 59 61 54 bd 4a a2 b1 bc
       -0.04852492 -0.007204827 -0.05185065 -0.02168383
0002a0 1d 81 16 3c 7a 3d 54 3d 6c 9d 40 3c f0 a4 67 bd
       0.009186056 0.05181644 0.011756282 -0.05655378
0002b0 9a c8 3b 3d 41 6b fb bc 0b 9e ac 3d 2f 30 04 3d
       0.045845605 -0.030690791 0.08428582 0.032272514
0002c0 c0 59 17 bc bd 47 46 3d b8 1b 94 bc a8 38 21 bc
       -0.009237707 0.04840826 -0.018079624 -0.009840168
0002d0 95 49 37 3d e9 86 44 bd 4f 5e 5a bc 2c 2f ae 3c
       0.044747908 -0.047980223 -0.013328149 0.021262728
0002e0 94 6d aa bd 67 32 a5 bd e7 90 4c 3d 8c 9f 04 bd
       -0.083216816 -0.08066254 0.049942877 -0.03237872
0002f0 bf 34 61 bd 48 58 26 3d 13 29 3e 3d 95 75 e7 3c
       -0.054981943 0.040611535 0.04642589 0.02825431
000300 cb b1 58 bd f4 d5 18 bd 17 71 43 3d 5f 89 6a ba
       -0.05290393 -0.037313417 0.047715273 -0.00089468615
000310 78 e6 5e 3d 53 68 8c 3d a6 b5 52 3d 06 df 95 3d
       0.05441901 0.06855836 0.051442765 0.07317929
000320 e2 c2 6d 3d e6 19 60 3d 55 8c a9 bb 03 d0 4b bd
       0.058047183 0.0547122 -0.0051741996 -0.049758922
000330 96 41 66 bc f0 07 4c 3a 7f 5c 13 bd 77 0f 47 3d
       -0.014053723 0.0007783165 -0.035976883 0.048598733
000340 d6 ec 5d bd ac ad 22 bd 10 e3 bf 3c 42 6f 5a bd
       -0.054180942 -0.039716408 0.023423702 -0.05332876
000350 a1 9b be bb 3f 90 cf bb a5 74 82 3d 24 41 b8 3b
       -0.0058168923 -0.006334334 0.063699044 0.0056229997
000360 38 59 28 3d 90 c1 0f bd 87 c3 34 bd 62 c2 6e 3d
       0.04110071 -0.035096705 -0.044131782 0.058290847
000370 f1 2f 3b bd 7b ed 31 3d 72 5e d9 bc b0 65 57 3d
       -0.045700017 0.04343937 -0.026534293 0.05258721
000380 f7 fb 2a 3d 00 62 51 bd 5c e1 4f bd 89 7b 1e 3c
       0.0417442 -0.05111885 -0.05075203 0.009673008
000390 09 95 63 3d 65 80 28 bd 69 c5 8c bd f1 63 4f 3d
       0.055562053 -0.04113807 -0.068735905 0.05063242
0003a0 4f 41 3c bd cf de 57 3d 74 81 f1 bc 4b 28 c1 3c
       -0.04596072 0.05270272 -0.029480673 0.023578783
0003b0 8c 70 a6 bc e3 89 88 3d 3e fe 0f bd 46 31 9d bd
       -0.020317338 0.06666925 -0.035154574 -0.07675414
0003c0 5b 70 21 bd b1 00 38 bc 38 2b 85 3d 5b fa 53 3d
       -0.03941379 -0.011230634 0.06502384 0.05175243
0003d0 6c f9 ef bc eb 14 38 3c 11 c0 85 bc 39 f4 6f 3c
       -0.029293738 0.011235456 -0.016326936 0.01464563
0003e0 52 d9 bb 3d 6d 79 89 3d e2 ad d4 bc aa 84 3b 3d
       0.0917231 0.06712613 -0.02596182 0.045780815
0003f0 35 bd 9b 3d c1 05 92 bb 4c ba 8b bc 22 d6 3d bd
       0.07604448 -0.0044562523 -0.017056607 -0.04634679

hidden_layers.0.bias f4 [150]
000000 57 d8 8c 3c 8b 9c ba bd 92 f6 63 3d 0b 9e 93 3d
       0.017193003 -0.091118895 0.05565507 0.07207879
000010 89 1a 21 bd ca ca 5f 3d aa f5 96 3b c4 db c2 bc
       -0.039331947 0.054636754 0.004606922 -0.023786433
000020 42 f5 01 bd 52 ee 0a bd bb 8e b0 3d 5d e6 a1 3d
       -0.031728037 -0.033918686 0.08620974 0.079052664
000030 6d 68 43 3d 4a 49 ad 3d 4d 1f 16 3d d2 9f 40 bb
       0.04770701 0.084612444 0.036650945 -0.0029392135
000040 fe cc 03 bd 20 21 4f 3b b9 db cc bc 30 26 5d bc
       -0.032177918 0.0031605437 -0.025007116 -0.013497874
000050 f2 7a 2d bc b8 7f a1 36 94 1f 84 bd a5 87 a5 bd
       -0.0105883945 4.8130423e-06 -0.064513355 -0.08082513
000060 6f 96 77 3d de f4 96 bd 7f 54 0c bc 0e 41 96 bb
       0.0604462 -0.073709235 -0.008565067 -0.004585392
000070 58 84 1f bd 12 26 2d bd 38 c5 33 3d a3 0d 9a 3d
       -0.038944572 -0.042272635 0.043889254 0.07522132
000080 ed db b5 bd 61 1b c1 3c 7e 52 b4 bd 0e f7 60 bd
       -0.08879838 0.023572626 -0.08804797 -0.05492311
000090 c1 72 08 3d 36 01 cc 3c 8a 97 a0 3d d1 68 3b 3c
       0.033312563 0.024902921 0.07841404 0.011438564
0000a0 22 62 ad 3d 9f 38 4c bd 82 8c 08 3c 22 cd 3c bd
       0.08465983 -0.049858686 0.008334281 -0.046094067
0000b0 7c 37 94 bc 38 95 97 bd a8 e7 ab 3d 2c 5f ac 3d
       -0.018092863 -0.07401508 0.08393794 0.0841659
0000c0 90 94 76 3d 9a cd 2f bd 18 79 7c 3d 02 b3 4d bd
       0.060200274 -0.042920686 0.06163892 -0.050219543
0000d0 cd 1a 1f bd f7 84 81 3b be eb 99 bd 05 b8 a9 bc
       -0.03884392 0.003952618 -0.075156674 -0.02071763
0000e0 61 45 c6 3c 5b aa 21 3c 42 91 13 3d db 32 fa 3b
       0.024203004 0.009867276 0.0360272 0.007635457
0000f0 44 24 0d 3b 70 fc 6c 3d 6a be 0b 3d 51 94 a7 bc
       0.0021536509 0.05785793 0.03411714 -0.020456465
000100 56 49 c9 3b c1 22 5b bd a7 6b a7 3c 8b ba 73 3d
       0.0061427755 -0.05349994 0.020437075 0.059504073
000110 6b 3e eb bc d9 be b0 bd 03 fd 9d 3d 2c b5 67 bd
       -0.028716287 -0.08630151 0.07714274 -0.056569263
000120 0f 98 dc bb 79 e1 6a 3d 5a 68 6a bc 52 28 b5 3b
       -0.006731994 0.057343934 -0.014307106 0.005528488
000130 40 36 9c 3d cf 0f 95 3b 9b ae 7d 3d 2a 1f 7e bd
       0.07627535 0.0045490037 0.061934095 -0.06204144
000140 9c b0 6f bd 50 0d 62 bd 1a 52 a2 3c 6f 9e 4c 3d
       -0.058518037 -0.055188477 0.01981454 0.04995578
000150 45 c0 36 3d 1d e6 6f 3d 78 7d ea 3b fc 91 3b 3d
       0.044616956 0.058569063 0.0071560703 0.04579352
000160 13 c5 ba 3c 20 a5 78 bc 21 00 c9 bb 33 2b b1 bc
       0.02279905 -0.015176088 -0.0061340486 -0.021627044
000170 70 dd c2 bd a2 68 71 3d 62 c5 bb bc 57 13 f0 3c
       -0.09514892 0.058937676 -0.022921268 0.029306097
000180 8a 6e 5b bd 83 fc 64 bd 85 32 01 3d 17 35 2e 3c
       -0.053572215 -0.055904876 0.03154232 0.010632775
000190 25 95 24 3c 16 ed b8 3c 31 a6 10 bd e7 4d 88 bb
       0.010045324 0.022573989 -0.035314742 -0.0041596773
0001a0 19 6d 13 3d f2 93 c5 bd 28 b3 5d bc bf 35 96 3d
       0.035992716 -0.09647359 -0.013531484 0.0733447
0001b0 8c e4 61 bc 8c c6 65 bd ba f9 a3 3d a8 51 9c 3d
       -0.0137874 -0.056097552 0.08006616 0.07632762
0001c0 a2 32 61 bd 40 02 0e bc 3a e9 82 bd 59 3b 32 3d
       -0.054979928 -0.008667529 -0.06392141 0.04351363
0001d0 19 47 ab 3c 53 fe 74 3d fe 13 10 3d 10 40 f0 3b
       0.020907925 0.059812855 0.035175316 0.0073318556
0001e0 af 59 80 3d 51 76 83 bd 6a 80 91 bd 6a c5 b6 3c
       0.06267106 -0.064190514 -0.07104571 0.022310931
0001f0 1d 04 1c bd 3d 34 5c 3d f1 3f 90 3a 91 52 11 3d
       -0.03808986 0.053760756 0.0011005384 0.035479132
000200 b1 e9 92 3d 79 40 2d 3c 0b cb 5f bd 70 c1 a5 bd
       0.07173479 0.0105744535 -0.054636996 -0.08093536
000210 7c 0d 69 bd bd e5 1f 3d 90 3f 74 3c 85 1a a2 bd
       -0.056897625 0.039037455 0.014907733 -0.079152144
000220 aa fe 95 bd e5 2c 5b 3d 5e 6b 8e bd b3 76 26 3d
       -0.07323964 0.05350961 -0.069540724 0.040640544
000230 f1 5f ba 3b 74 da 27 bc b5 83 86 bd e4 2b 0a bd
       0.0056877066 -0.010244954 -0.0656809 -0.033733264
000240 49 5a 6c bd f5 43 ec 3a d7 0a 33 3d 8e 51 9e bc
       -0.05770329 0.0018025624 0.04371151 -0.019325998
000250 0e ac d2 bc 96 5a 42 3d
       -0.025716808 0.04744967

output_layer.weight f4 [1, 150]
000000 11 06 3f bd 74 11 8e bd ff ff 0e 3e e3 72 04 3e
       -0.046636645 -0.06936923 0.13964842 0.12934451
000010 bd a7 09 be 9c 9e 78 bd 66 17 87 3d df ec 0e be
       -0.13442893 -0.060698137 0.0659626 -0.13957547
000020 c9 0a e1 bd ec d3 fa bd 29 4f 25 be d5 47 cd bd
       -0.10988385 -0.12247452 -0.16143478 -0.100234665
000030 8b cf de bd b7 54 a6 3d 5f d2 c9 be 4a 8c b1 3d
       -0.108794294 0.08121627 -0.39418313 0.08669336
000040 1e 2f 95 be a8 4f c9 3d 37 d0 0f be d4 1a 1f be
       -0.2913751 0.09829646 -0.14044271 -0.15537578
000050 92 17 0f be 86 f9 c3 bd 65 e2 03 be 35 d3 d1 bd
       -0.13973835 -0.09569077 -0.12879331 -0.10245363
000060 c7 7b 21 be ed da 08 3e 68 01 02 be 95 86 9b bd
       -0.15769874 0.13364764 -0.12695849 -0.07594029
000070 0f 1a 12 3e 79 1d 8c bd e3 62 9c 3d 04 35 78 3d
       0.14267753 -0.06841559 0.07636049 0.060597435
000080 88 79 60 3e 3d e0 3f 3d 1c 93 7f be 4e 0d 8a be
       0.2192136 0.04684471 -0.24958462 -0.26963276
000090 56 c6 b6 3d b8 90 76 3e 91 e5 27 be c4 05 ac 3d
       0.08924548 0.24078643 -0.16396166 0.08399537
0000a0 d0 39 b7 3d 7c 7f f1 bd 38 eb d7 bd 0a 0f 2e 3e
       0.08946574 -0.11791894 -0.10542911 0.16997924
0000b0 29 27 cb bd fc 43 a0 3d 72 81 25 be 3e 51 6c be
       -0.099195786 0.07825467 -0.1616266 -0.23077866
0000c0 b6 14 07 be c9 8a 95 be 20 d2 51 3e 82 eb 30 3d
       -0.13191494 -0.29207447 0.20490313 0.043193348
0000d0 d3 d0 21 bd ce 21 c2 be e8 b3 41 3e 4e 4e 3d 3e
       -0.03950579 -0.37916416 0.18916285 0.18486902
0000e0 bc c3 9b bd a0 94 8b 3d a4 94 47 be 78 a4 6b 3e
       -0.07605693 0.06815457 -0.19490296 0.23011959
0000f0 d0 59 43 3e 50 74 89 bd a6 e7 c5 bd 65 4b 0c be
       0.1907723 -0.06711638 -0.09663324 -0.13700636
000100 58 24 a1 3e f1 06 9b 3d 98 de 15 3e d0 06 f9 3d
       0.3147304 0.07569683 0.14635694 0.121595025
000110 d4 77 07 be f1 04 b2 bd 15 1d d8 bd a0 86 b6 bd
       -0.13229305 -0.08692349 -0.10552422 -0.089123964
000120 f0 08 b8 bd 07 51 34 be 54 19 2f be be 24 0d 3e
       -0.0898608 -0.17609034 -0.17099506 0.13783547
000130 42 f9 a5 be ae 03 2e 3d 4e 15 c7 bd c4 32 11 be
       -0.3241673 0.042483978 -0.097208604 -0.14179522
000140 21 c5 1b 3e 8b e0 5b 3e b1 c9 cb bd 13 89 c9 bd
       0.15211917 0.21472375 -0.09950579 -0.09840598
000150 1c e3 47 be 55 c2 1b be b6 69 d2 3d ec 6f 06 be
       -0.19520229 -0.1521085 0.10274069 -0.13128632
000160 14 8d c3 3d 3d 04 65 3e 8a 65 9b bd be 7d 1c bd
       0.09548393 0.22364898 -0.075877264 -0.038205855
000170 1c 8b 0c 3e b7 bf cb 3d 27 d0 9c 3d e6 7c 83 bd
       0.13724941 0.09948676 0.076568894 -0.06420307
000180 d9 40 0e 3e 63 1e b8 bd 68 76 8d 3e 7a d6 d7 3d
       0.13891925 -0.08990171 0.276294 0.10538955
000190 74 8b 3b bd cc ac 94 3d f1 89 25 be bd ab e6 bd
       -0.04578729 0.07259521 -0.16165902 -0.11263225
0001a0 ad 07 5b 3d 44 59 a1 bd 7b 14 af bd c9 78 ae 3d
       0.053474117 -0.07878354 -0.08548828 0.08519132
0001b0 df d2 90 bd 03 19 95 bd 32 c4 53 3e 9b 98 6a 3e
       -0.070714705 -0.07280161 0.20680311 0.22909777
0001c0 4d 87 b7 bd 23 5f 2e bd ef 18 17 bd cc 03 55 3d
       -0.089613535 -0.0425712 -0.036889013 0.052005574
0001d0 c4 2f c6 3d 0e c7 b7 bd 2f 46 0b bd 82 76 b5 3d
       0.09677079 -0.089735135 -0.03400248 0.08860494
0001e0 70 ae cc bd 01 eb 23 3e a6 75 c7 be c4 2c 23 be
       -0.09994209 0.16007616 -0.38956946 -0.15935045
0001f0 4d eb 71 bd 6f 4a d6 3d 85 b6 b4 3d ab b6 87 be
       -0.05906229 0.10463416 0.08823875 -0.26506552
000200 94 92 18 be 4d 98 0c 3e 09 fc 68 bd d2 75 b5 3d
       -0.14899665 0.13729973 -0.056880984 0.08860363
000210 a6 f9 1e be 09 46 0c be 19 b2 f1 bd d3 59 91 3d
       -0.15524921 -0.13698591 -0.118015476 0.07097211
000220 2d af ba 3d 3d 8b 21 3e 88 b7 cf 3d a7 1a 07 be
       0.091154434 0.15775771 0.10142428 -0.13193761
000230 ac 83 0a 3e 78 f7 8e 3e e6 fa 3e bd 47 0a 79 bd
       0.13526791 0.2792318 -0.046625994 -0.060800817
000240 78 dc 59 be 88 2b 3f 3d 10 da b3 bd fe 1d c4 bd
       -0.21275508 0.046672374 -0.087818265 -0.09576033
000250 b7 67 a9 3d a8 94 ac 3d
       0.08271735 0.084267914
