param/model_original_10_32_5.pth (torch, 247863 bytes, 174 tensors)

net.rotations.0.LU f4 [2, 2]
0.0 0.0 0.0 0.0
00000000: 0000 0000 0000 0000 0000 0000 0000 0000

net.rotations.0.LU_init f4 [2, 2]
1.0 0.0 0.0 1.0
00000000: 0000 803f 0000 0000 0000 0000 0000 803f

net.rotations.0.ones_mat f4 [2, 2]
1.0 1.0 1.0 1.0
00000000: 0000 803f 0000 803f 0000 803f 0000 803f

net.rotations.0.I f4 [2, 2]
1.0 0.0 0.0 1.0
00000000: 0000 803f 0000 0000 0000 0000 0000 803f

net.flow_mapping.0.scale_layers.0.b f4 [1, 2]
-0.13740249 -0.1564357
00000000: 3db3 0cbe ae30 20be

net.flow_mapping.0.scale_layers.0.logs f4 [1, 2]
-0.047051497 -0.0041256174
00000000: 12b9 40bd 3030 87bb

net.flow_mapping.0.scale_layers.0.b_init f4 [1, 2]
0.0 0.0
00000000: 0000 0000 0000 0000

net.flow_mapping.0.scale_layers.0.logs_init f4 [1, 2]
0.0 0.0
00000000: 0000 0000 0000 0000

net.flow_mapping.0.scale_layers.1.b f4 [1, 2]
-0.11955101 -0.11629105
00000000: 29d7 f4bd 012a eebd

net.flow_mapping.0.scale_layers.1.logs f4 [1, 2]
-0.06311623 -0.111890174
00000000: 1543 81bd ad26 e5bd

net.flow_mapping.0.scale_layers.1.b_init f4 [1, 2]
0.0 0.0
00000000: 0000 0000 0000 0000

net.flow_mapping.0.scale_layers.1.logs_init f4 [1, 2]
0.0 0.0
00000000: 0000 0000 0000 0000

net.flow_mapping.0.scale_layers.2.b f4 [1, 2]
0.0043301214 0.11874394
00000000: b1e3 8d3b 0630 f33d

net.flow_mapping.0.scale_layers.2.logs f4 [1, 2]
-0.10965122 -0.049862243
00000000: d290 e0bd 5a3c 4cbd

net.flow_mapping.0.scale_layers.2.b_init f4 [1, 2]
0.0 0.0
00000000: 0000 0000 0000 0000

net.flow_mapping.0.scale_layers.2.logs_init f4 [1, 2]
0.0 0.0
00000000: 0000 0000 0000 0000

net.flow_mapping.0.scale_layers.3.b f4 [1, 2]
0.1657659 -0.095653586
00000000: 89be 293e 07e6 c3bd

net.flow_mapping.0.scale_layers.3.logs f4 [1, 2]
-0.06522564 -0.043216515
00000000: 0595 85bd cd03 31bd

net.flow_mapping.0.scale_layers.3.b_init f4 [1, 2]
0.0 0.0
00000000: 0000 0000 0000 0000

net.flow_mapping.0.scale_layers.3.logs_init f4 [1, 2]
0.0 0.0
00000000: 0000 0000 0000 0000

net.flow_mapping.0.scale_layers.4.b f4 [1, 2]
-0.092309915 0.10868337
00000000: fb0c bdbd 6395 de3d

net.flow_mapping.0.scale_layers.4.logs f4 [1, 2]
-0.022937464 -0.04881684
00000000: 59e7 bbbc 2bf4 47bd

net.flow_mapping.0.scale_layers.4.b_init f4 [1, 2]
0.0 0.0
00000000: 0000 0000 0000 0000

net.flow_mapping.0.scale_layers.4.logs_init f4 [1, 2]
0.0 0.0
00000000: 0000 0000 0000 0000

net.flow_mapping.0.scale_layers.5.b f4 [1, 2]
0.049983095 0.05921276
00000000: 13bb 4c3d 1489 723d

net.flow_mapping.0.scale_layers.5.logs f4 [1, 2]
-0.09198193 -0.0807838
00000000: 0661 bcbd fa71 a5bd

net.flow_mapping.0.scale_layers.5.b_init f4 [1, 2]
0.0 0.0
00000000: 0000 0000 0000 0000

net.flow_mapping.0.scale_layers.5.logs_init f4 [1, 2]
0.0 0.0
00000000: 0000 0000 0000 0000

net.flow_mapping.0.scale_layers.6.b f4 [1, 2]
0.07673346 0.04603139
00000000: 6f26 9d3d 698b 3c3d

net.flow_mapping.0.scale_layers.6.logs f4 [1, 2]
-0.17071286 -0.18657604
00000000: 5acf 2ebe ca0d 3fbe

net.flow_mapping.0.scale_layers.6.b_init f4 [1, 2]
0.0 0.0
00000000: 0000 0000 0000 0000

net.flow_mapping.0.scale_layers.6.logs_init f4 [1, 2]
0.0 0.0
00000000: 0000 0000 0000 0000

net.flow_mapping.0.scale_layers.7.b f4 [1, 2]
0.013870618 0.11826492
00000000: 9741 633c e134 f23d

net.flow_mapping.0.scale_layers.7.logs f4 [1, 2]
-0.18923636 -0.2274912
00000000: 2dc7 41be 74f3 68be

net.flow_mapping.0.scale_layers.7.b_init f4 [1, 2]
0.0 0.0
00000000: 0000 0000 0000 0000

net.flow_mapping.0.scale_layers.7.logs_init f4 [1, 2]
0.0 0.0
00000000: 0000 0000 0000 0000

net.flow_mapping.0.scale_layers.8.b f4 [1, 2]
0.014826887 0.1430541
00000000: 79ec 723c c67c 123e

net.flow_mapping.0.scale_layers.8.logs f4 [1, 2]
-0.17876491 -0.25882548
00000000: 260e 37be c684 84be

net.flow_mapping.0.scale_layers.8.b_init f4 [1, 2]
0.0 0.0
00000000: 0000 0000 0000 0000

net.flow_mapping.0.scale_layers.8.logs_init f4 [1, 2]
0.0 0.0
00000000: 0000 0000 0000 0000

net.flow_mapping.0.scale_layers.9.b f4 [1, 2]
0.12560675 -0.08227424
00000000: 0e9f 003e 667f a8bd

net.flow_mapping.0.scale_layers.9.logs f4 [1, 2]
-0.25270727 -0.2483023
00000000: d962 81be f542 7ebe

net.flow_mapping.0.scale_layers.9.b_init f4 [1, 2]
0.0 0.0
00000000: 0000 0000 0000 0000

net.flow_mapping.0.scale_layers.9.logs_init f4 [1, 2]
0.0 0.0
00000000: 0000 0000 0000 0000

net.flow_mapping.0.affine_layers.0.net.0.weight f4 [32, 1]
-0.23731425 -0.04780141 0.0019556913 -0.28733867 0.83427656 1.0589395 -0.37131232 -0.009170167
-0.72677046 -0.1067883 0.59590095 -0.6656113 -0.34568155 0.9201545 1.2246072 -0.00011629398
0.69122195 0.72442114 -0.4010414 0.83046484 -0.46738023 0.06766885 -0.09742858 -0.45678502
0.027067887 0.13715753 1.0668154 0.938193 -0.26656935 0.63284814 0.8187823 0.86150473
00000000: 8202 73be 69cb 43bd 0e2b 003b 0e1e 93be
00000010: 2693 553f 548b 873f a61c bebe 783e 16bc
00000020: a10d 3abf d3b3 dabd f78c 183f 8165 2abf
00000030: 2cfd b0be 3f8f 6b3f eebf 9c3f dbe2 f3b8
00000040: ecf3 303f aa73 393f 4c55 cdbe 5899 543f
00000050: 764c efbe f795 8a3d a388 c7bd badf e9be
00000060: 79bd dd3c 0673 0c3e 688d 883f 6b2d 703f
00000070: c77b 88be 5602 223f b89b 513f 938b 5c3f

net.flow_mapping.0.affine_layers.0.net.0.bias f4 [32]
-0.42776948 0.28759786 -0.006270999 0.40627688 -0.3201287 0.25302106 -0.611407 -0.06083037
0.79009134 -0.42737234 -0.2360605 -1.0880061 0.33581218 -0.3633531 0.25809324 -0.47363725
-0.24969363 0.07518765 0.09291496 -0.30779737 -0.7613888 -0.3837886 0.11982958 0.51214576
-0.013575808 -0.10890034 -0.4364538 0.14790943 -0.07616784 0.045635004 -0.30720854 -0.3317242
00000000: 9a04 dbbe 0740 933e f47c cdbb 8603 d03e
00000010: e9e7 a3be fa8b 813e 2b85 1cbf 4429 79bd
00000020: 6d43 4a3f 8cd0 dabe d8b9 71be c943 8bbf
00000030: 93ef ab3e 6b09 babe cc24 843e 9580 f2be
00000040: b0af 7fbe fcfb 993d 334a be3d 9e97 9dbe
00000050: 60ea 42bf f07f c4be 3669 f53d fc1b 033f
00000060: 116d 5ebc 2407 dfbd df76 dfbe 9275 173e
00000070: e2fd 9bbd c5eb 3a3d 704a 9dbe c1d7 a9be

net.flow_mapping.0.affine_layers.0.net.2.weight f4 [32, 32]
0.12915517 -0.0528493 0.116690814 0.034251843 -0.13445577 -0.00731362 0.035943553 -0.070004255
-0.029862091 0.42555386 -0.013560681 0.18777679 -0.049205065 -0.09429591 -0.05514264 0.06913354
-0.109300256 -0.09194035 -0.04821466 0.029264929 0.039418284 -0.107026406 -0.12668762 0.009921354
-0.107359916 -0.06483279 -0.074532606 -0.05324484 -0.10921523 0.07315256 0.16875674 -0.033486005
-0.17101885 0.011253292 -0.025634225 0.061654467 -0.15170872 -0.10844275 -0.1346052 -0.0064770537
-0.030821377 -0.13321778 -0.105570704 -0.090048976 -0.07567611 -0.098568425 -0.05145971 -0.09473912
-0.18578589 -0.101640135 -0.1525933 -0.00028448107 -0.18107978 -0.11222804 -0.1321475 0.025489653
0.062885106 0.08190724 -0.0792639 -0.1495906 0.04251106 0.01695002 -0.13551994 0.023856934
0.08262695 -0.17968002 -0.10857447 -0.2824852 0.5716277 0.27484766 0.041164063 0.047751885
-0.9117257 0.050561387 0.42323136 -0.1673408 -0.5111211 1.0956916 0.17198563 -0.049090482
0.40408954 0.041617636 -0.08649384 0.55689913 -0.09510705 -0.02102397 -0.10170983 -0.3534385
0.015297525 0.050398126 0.7335986 0.28062335 0.029593 0.058869153 0.488951 0.9620201
0.022781443 0.07422599 -0.054192312 -0.08865566 -0.118175365 -0.15246354 -0.065494165 -0.05144446
-0.0039709145 -0.08439158 -0.044056825 -0.075156815 -0.15302026 -0.11653715 0.035024844 0.004483544
-0.11727666 0.028055077 -0.14082062 0.014230667 0.024889372 0.08260911 -0.03418181 0.08668829
0.059137695 -0.12749666 -0.19993038 0.01576051 -0.009156697 -0.07636372 -0.0009703382 -0.047579285
-0.09313677 -0.054067336 0.019328319 -0.105991304 0.035266396 -0.06261069 0.035841923 -0.061818883
-0.07678816 -0.039079577 -0.101008914 -0.11675727 0.102850884 -0.08978607 -0.04999191 -0.07187551
0.03190468 0.039952293 -0.056401152 0.05051524 0.08557292 -0.11389136 -0.08258039 0.068320274
-0.04614835 0.090926506 -0.03721849 -0.11672995 -0.089237176 -0.1017007 -0.10543515 -0.0616048
-0.16123317 -0.1482423 -0.09209258 -0.16163114 0.5617297 0.2479855 -0.14082909 -0.10682346
-0.82818794 0.013560706 0.39883992 -0.095623575 -0.257749 1.0446479 0.19078237 -0.07099008
0.59152377 0.00042736827 -0.06326684 0.5274559 -0.08133947 -0.06770374 -0.113164455 -0.31607682
-0.06483228 0.13182501 0.7416222 0.2448475 -0.0030865427 0.11986936 0.49366897 0.88883936
0.0058847377 -0.1028929 0.06812645 0.0800486 -0.049454737 0.052108303 0.01624153 -0.12159286
0.043419138 0.009279927 0.0016150735 0.012548019 -0.13032265 -0.107327044 -0.063805796 0.07942985
-0.1242563 0.019491892 0.027636252 -0.1110283 -0.013717786 0.09021681 0.075611204 -0.018074531
-0.0395617 -0.15128607 -0.14276862 -0.1059094 -0.057445023 0.0014526093 -0.14633025 0.0068739313
0.07244536 0.083755024 -0.11429087 0.07482334 -0.011728957 -0.072399646 -0.08740715 -0.078691274
0.014178159 -0.018097796 -0.081482776 -0.004290927 -0.062411267 -0.16496918 0.0068326364 -0.029999059
-0.09401451 -0.09826762 -0.09011877 -0.13841511 0.026439352 -0.10280242 -0.04538245 -0.114700556
0.07862086 -0.07531614 -0.056407135 -0.10556144 -0.089461096 -0.045685172 -0.071914345 0.010720091
00000000: 4141 043e 8278 58bd 98fb ee3d a94b 0c3d
00000010: c6ae 09be 17a7 efbb 8c39 133d 645e 8fbd
00000020: 58a1 f4bc 32e2 d93e 9e2d 5ebc 8f48 403e
00000030: 408b 49bd 371e c1bd 40dd 61bd e395 8d3d
00000040: d0d8 dfbd 394b bcbd bc7c 45bd 01bd ef3c
00000050: 1175 213d a930 dbbd 66ba 01be 2d8d 223c
00000060: 84df dbbd 0ec7 84bd 8da4 98bd 4317 5abd
00000070: 3cac dfbd 02d1 953d 91ce 2c3e 9f28 09bd
00000080: 911f 2fbe ba5f 383c defe d1bc 6589 7c3d
00000090: 8859 1bbe 3c17 debd f2d5 09be 773d d4bb
000000a0: 1d7d fcbc 3e6a 08be 7435 d8bd 996b b8bd
000000b0: 14fc 9abd 3ede c9bd 6bc7 52bd 9506 c2bd
000000c0: a83e 3ebe b428 d0bd 6b41 1cbe 6726 95b9
000000d0: fa6c 39be d1d7 e5bd ad51 07be adcf d03c
000000e0: e8c9 803d fcbe a73d 1d55 a2bd 472e 19be
000000f0: 1420 2e3d c5da 8a3c bdc5 0abe 9e6f c33c
00000100: 5238 a93d 0afe 37be 4b5c debd e6a1 90be
00000110: 3156 123f d5b8 8c3e a69b 283d 7b97 433d
00000120: db66 69bf 7519 4f3d c8b1 d83e 635b 2bbe
00000130: d5d8 02bf 9f3f 8c3f 001d 303e 1a13 49bd
00000140: d3e4 ce3e 4177 2a3d af23 b1bd f190 0e3f
00000150: 7cc7 c2bd 763a acbc 3e4d d0bd e4f5 b4be
00000160: 78a2 7a3c 446e 4e3d 1ecd 3b3f ddad 8f3e
00000170: 056d f23c c820 713d c957 fa3e f346 763f
00000180: 26a0 ba3c cc03 983d c2f8 5dbd 1991 b5bd
00000190: ed05 f2bd 671f 1cbe ce21 86bd 6db7 52bd
000001a0: 721e 82bb 7ed5 acbd ee74 34bd d1eb 99bd
000001b0: 58b1 1cbe 08ab eebd 3676 0f3d b1ea 923b
000001c0: bf2e f0bd c3d3 e53c 4833 10be be27 693c
000001d0: cce4 cb3c f72e a93d 3a02 0cbd a189 b13d
000001e0: 5e3a 723d 7c8e 02be 8dba 4cbe 2f1c 813c
000001f0: f905 16bc 9564 9cbd 4b5e 7eba 7fe2 42bd
00000200: 7ebe bebd b675 5dbd 6c56 9e3c f811 d9bd
00000210: 7f73 103d 093a 80bd fbce 123d cc35 7dbd
00000220: 1c43 9dbd e811 20bd c3dd cebd 701e efbd
00000230: 7ca3 d23d c2e1 b7bd 51c4 4cbd 7833 93bd
00000240: 7bae 023d 04a5 233d e504 67bd 11e9 4e3d
00000250: db40 af3d e03f e9bd e81f a9bd 80eb 8b3d
00000260: 0d06 3dbd ad37 ba3d 6a72 18bd 1d10 efbd
00000270: fbc1 b6bd 7548 d0bd 62ee d7bd 5155 7cbd
00000280: 4f1a 25be d4cc 17be 099b bcbd a282 25be
00000290: 85cd 0f3f e9ef 7d3e 8035 10be 42c6 dabd
000002a0: 2004 54bf b92d 5e3c bf34 cc3e 4bd6 c3bd
000002b0: adf7 83be 06b7 853f 745c 433e 3f63 91bd
000002c0: 1a6e 173f 6610 e039 0c92 81bd 5a07 073f
000002d0: 4f95 a6bd 42a8 8abd c4c2 e7bd d2d4 a1be
000002e0: c9c6 84bd 23fd 063e f4da 3d3f 4eb9 7a3e
000002f0: 9847 4abb 117e f53d 2ec2 fc3e fa8a 633f
00000300: c2d4 c03b 83b9 d2bd e185 8b3d 85f0 a33d
00000310: 0d91 4abd 846f 553d f50c 853c ad05 f9bd
00000320: 44d8 313d d60a 183c e0b0 d33a 3596 4d3c
00000330: 4d73 05be 48ce dbbd 9dac 82bd 1eac a23d
00000340: 167a febd 76ad 9f3c 6c65 e23c ce62 e3bd
00000350: 91c0 60bc 97c3 b83d 0cda 9a3d 0a11 94bc
00000360: 730b 22bd bcea 1abe f031 12be 07e7 d8bd
00000370: 794b 6bbd 7b65 be3a 99d7 15be b73e e13b
00000380: 3c5e 943d c187 ab3d 5511 eabd fb3c 993d
00000390: d02a 40bc 4446 94bd 8502 b3bd e428 a1bd
000003a0: 824b 683c d441 94bc 71e0 a6bd e89a 8cbb
000003b0: f5a2 7fbd aeed 28be 4fe4 df3b 96c0 f5bc
000003c0: ae8a c0bd 8940 c9bd 3190 b8bd b1bc 0dbe
000003d0: 5797 d83c 138a d2bd f3e2 39bd 20e8 eabd
000003e0: f903 a13d 593f 9abd 2b0b 67bd 9930 d8bd
000003f0: 6137 b7bd 6020 3bbd d447 93bd 52a3 2f3c

net.flow_mapping.0.affine_layers.0.net.2.bias f4 [32]
-0.14114305 -0.09082523 -0.10922428 -0.034131087 -0.041803528 -0.18641642 -0.059943687 -0.030832604
-0.10394585 -0.005820711 -0.10197677 0.12473318 0.26971784 -0.09640923 -0.21167676 0.021030279
-0.04939092 -0.15234855 0.036635425 0.037612736 -0.06223165 0.034737233 -0.10834561 -0.06997354
-0.10808948 -0.16399726 -0.3614515 -0.16666147 -0.050073612 -0.09364098 -0.054114826 0.097821206
00000000: ce87 10be 9402 babd fbb0 dfbd 0acd 0bbd
00000010: 2d3a 2bbd f2e3 3ebe 8387 75bd a894 fcbc
00000020: 90e1 d4bd aabb bebb 32d9 d0bd 1c74 ff3d
00000030: 7518 8a3e 3472 c5bd cbc1 58be b147 ac3c
00000040: 224e 4abd 4201 1cbe 070f 163d d00f 1a3d
00000050: 9de6 7ebd a148 0e3d 4ee4 ddbd 4a4e 8fbd
00000060: 045e ddbd e6ee 27be 2c10 b9be 4ea9 2abe
00000070: fd19 4dbd d8c6 bfbd 82a7 5dbd 7c56 c83d

net.flow_mapping.0.affine_layers.0.net.4.weight f4 [32, 32]
0.034176774 -0.10037025 -0.16057082 -0.038931563 0.11673013 -0.1450015 0.064482294 -0.05382334
0.061038375 -0.07673413 0.08898074 -0.11796449 -0.08690149 0.09139913 0.0037651246 -0.0063490765
0.01789449 0.11912068 0.009339379 0.12727848 -0.00062666583 0.12740038 -0.07117503 -0.055990495
-0.32382572 -0.026242333 -0.046262737 -0.034922488 -0.1442587 -0.06082875 -0.03179926 -0.096921206
-0.12298627 -0.00091956864 0.036654998 0.06726007 0.099015035 -0.12917228 -0.025296539 0.06689945
0.06097439 -0.14455976 -0.067360386 -0.05907075 -0.09317661 -0.048946727 0.087450854 -0.103801824
0.09972711 0.04975709 0.05993283 -0.0050128503 -0.042109687 0.025566489 -0.037746936 0.012293195
-0.053485923 0.060123354 -0.027652863 0.0742129 0.03648667 0.04524201 -0.064431004 -0.040222112
-0.10353541 0.13143744 0.3715384 -0.029109826 -0.049637645 0.44795987 0.038343396 -0.034171417
-0.1732117 0.067947514 0.07677175 -0.059939604 -0.14499782 0.062393583 -0.10483947 0.089944586
-0.044943318 0.016140599 -0.06072822 -0.07377307 -0.10472079 0.09379373 0.040326748 -0.0378213
-0.16312341 -0.09752401 0.5090177 0.0056666336 -0.046582635 -0.08744741 -0.04261464 -0.08803985
-0.06068581 -0.036788 0.31717294 -0.04936651 0.025246665 0.39063707 -0.014095695 0.034070577
-0.17390545 0.058280233 0.06753301 -0.14495994 -0.21608597 0.117070034 0.006468487 -0.02623895
0.03804232 0.008786598 -0.0231816 3.631579e-06 0.058062214 0.016951729 -0.06618889 0.08957837
-0.089205205 -0.07132696 0.43886423 0.030327434 -0.0059390734 0.05175952 0.056300864 0.065456286
0.047220528 0.11575607 -0.17566839 -0.0020417913 -0.092363566 -0.13135126 -0.15762994 -0.024638204
0.11035928 -0.10279163 0.0012996017 -0.0019652864 -0.100139566 -0.27066675 0.100959726 -0.0022152178
-0.072517015 0.08297917 0.10205198 -0.014754023 -0.07503483 -0.11555129 -0.05355126 -0.029870203
-0.06060841 0.13567789 -0.25207648 0.033907827 0.08370996 -0.09395855 -0.078534216 0.083746836
0.09302911 0.037432786 -0.10705801 -0.06822444 0.09814903 -0.019895654 -0.06969705 0.012112538
0.16884711 0.030948497 -0.023354974 0.010125442 -0.28652444 -0.17877547 0.27940708 -0.01691259
-0.040009357 -0.047653697 0.026284521 -0.06322106 -0.02968263 -0.044953525 0.107780926 -0.11069326
0.034499824 0.024955753 -0.09576173 -0.073073216 -0.0127482945 -0.072291166 -0.010140373 -0.1056171
-0.034400348 -0.10652468 -0.09382938 -0.005833118 -0.022828585 0.021215968 -0.03746109 0.075772256
0.015127979 0.01745706 0.07238658 -0.039315436 -0.11597054 -0.097651556 0.28164512 0.02050214
0.07387199 -0.08684791 -0.1081815 -0.12698981 0.10363049 0.077974185 0.072404064 0.04480528
-0.04676614 -0.047263905 0.026317216 -0.02527622 0.0052410415 -0.035047807 -0.06590702 0.08446183
-0.07820764 -0.11376349 -0.1600758 -0.06049605 0.049662575 -0.006357778 -0.080866046 0.040563
-0.1055645 0.08633401 0.023281325 -0.10372506 -0.03326084 -0.041600473 -0.09548605 -0.0010802831
0.09194745 0.04350142 -0.04853437 -0.07328712 0.062548794 -0.037996482 0.09851194 0.1016059
-0.3451809 0.026539916 -0.04943135 -0.10072361 0.08183137 0.08949913 -0.15015128 -0.08867528
00000000: f2fc 0b3d eb8e cdbd ad6c 24be b476 1fbd
00000010: 3510 ef3d 467b 14be 4b0f 843d dd75 5cbd
00000020: 6003 7a3d c926 9dbd 893b b63d 5e97 f1bd
00000030: 69f9 b1bd 782f bb3d 4fc0 763b ea0b d0bb
00000040: 7797 923c 8bf5 f33d 3204 193c 4a55 023e
00000050: d546 24ba 3f75 023e 37c4 91bd 4a56 65bd
00000060: 7ccc a5be 29fa d6bc ff7d 3dbd e20a 0fbd
00000070: 8db8 13be 9127 79bd f13f 02bd a07e c6bd
00000080: 3ae0 fbbd 350f 71ba 8d23 163d a6bf 893d
00000090: 65c8 ca3d bd45 04be b03a cfbc 9402 893d
000000a0: 48c0 793d 7907 14be 3ef4 89bd 2cf4 71bd
000000b0: 61d3 bebd 5d7c 48bd 6f19 b33d 0d96 d4bd
000000c0: ba3d cc3d 17ce 4b3d 217c 753d d642 a4bb
000000d0: 357b 2cbd d070 d13c 889c 1abd 6669 493c
000000e0: 0e14 5bbd e843 763d 4288 e2bc effc 973d
000000f0: 0c73 153d b04f 393d 67f4 83bd f1bf 24bd
00000100: 5f0a d4bd 8997 063e 483a be3e bb77 eebc
00000110: d850 4bbd ff5a e53e f70d 1d3d 54f7 0bbd
00000120: 685e 31be 1128 8b3d 823a 9d3d 3b83 75bd
00000130: 4f7a 14be 6a90 7f3d 13b6 d6bd de34 b83d
00000140: 7c16 38bd 4a39 843c 27be 78bd 5616 97bd
00000150: db77 d6bd ed16 c03d a92d 253d 82ea 1abd
00000160: d309 27be abba c7bd fc4e 023f 2baf b93b
00000170: 6fcd 3ebd a117 b3bd b08c 2ebd 3d4e b4bd
00000180: af91 78bd 04af 16bd 7e64 a23e 8a34 4abd
00000190: 18d2 ce3c 9501 c83e a1f1 66bc 978d 0b3d
000001a0: 4514 32be 41b7 6e3d bf4e 8a3d 6170 14be
000001b0: a445 5dbe 6ac2 ef3d 9af5 d33b 11f3 d6bc
000001c0: 44d2 1b3d aaf5 0f3c 57e7 bdbc 0db6 7336
000001d0: a5d2 6d3d 5ade 8a3c 0a8e 87bd dd74 b73d
000001e0: 38b1 b6bd df13 92bd d0b2 e03e 3d71 f83c
000001f0: 8f9c c2bb ca01 543d bc9b 663d f20d 863d
00000200: 506a 413d 8511 ed3d 6ae2 33be 93cf 05bb
00000210: 1c29 bdbd f280 06be be69 21be 0fd6 c9bc
00000220: 0c04 e23d 6b84 d2bd 6657 aa3a 09cc 00bb
00000230: f915 cdbd d594 8abe f9c3 ce3d 302d 11bb
00000240: cd83 94bd fcf0 a93d a100 d13d dcba 71bc
00000250: dcab 99bd 28a6 ecbd 9158 5bbd 5bb2 f4bc
00000260: 8640 78bd 25ef 0a3e 2b10 81be efe2 0a3d
00000270: 2170 ab3d 576d c0bd 8cd6 a0bd 7683 ab3d
00000280: 0c86 be3d 1f53 193d 3b41 dbbd 41b9 8bbd
00000290: 5c02 c93d 36fc a2bc 54bd 8ebd ab73 463c
000002a0: 42e6 2c3e b487 fd3c ee52 bfbc 2fe5 253c
000002b0: 55b3 92be eb10 37be 720e 8f3e 468c 8abc
000002c0: dae0 23bd 8630 43bd a352 d73c 0b7a 81bd
000002d0: fd28 f3bc 3021 38bd 3fbc dc3d 26b3 e2bd
000002e0: b04f 0d3d 0270 cc3c ba1e c4bd 69a7 95bd
000002f0: 39de 50bc 640d 94bd cf23 26bc c74d d8bd
00000300: 61e7 0cbd 9d29 dabd 9e29 c0bd be23 bfbb
00000310: 0303 bbbc 1ccd ad3c cd70 19bd 7c2e 9b3d
00000320: 58db 773c 1c02 8f3c 6a3f 943d 3909 21bd
00000330: f681 edbd 8afd c7bd ca33 903e 1bf4 a73c
00000340: 334a 973d 51dd b1bd 438e ddbd 9e09 02be
00000350: 393c d43d eeb0 9f3d 9548 943d be85 373d
00000360: da8d 3fbd cc97 41bd 3497 d73c 1310 cfbc
00000370: 0bbd ab3b 4a8e 0fbd 42fa 86bd 53fa ac3d
00000380: 542b a0bd d5fc e8bd e9ea 23be b5ca 77bd
00000390: fc6a 4b3d e854 d0bb 199d a5bd 6325 263d
000003a0: 3332 d8bd e3cf b03d 7ab8 be3c ce6d d4bd
000003b0: 853c 08bd 4265 2abd 318e c3bd 4998 8dba
000003c0: f24e bc3d 8c2e 323d facb 46bd 8f17 96bd
000003d0: 9519 803d 33a2 1bbd a1c0 c93d c116 d03d
000003e0: 8dbb b0be 3d6a d93c 8778 4abd 2e48 cebd
000003f0: 3597 a73d 524b b73d 42c1 19be 639b b5bd

net.flow_mapping.0.affine_layers.0.net.4.bias f4 [32]
-0.10990162 -0.008787572 -0.25667188 -0.23447257 -0.06652779 -0.25092348 -0.21002942 -0.05787967
-0.112536676 -0.13639858 0.022695806 -0.17488004 0.075509876 -0.09882634 -0.04146516 -0.043489248
0.2208563 -0.066569686 -0.059954315 -0.10048588 -0.1495005 0.13674048 -0.011427386 -0.009085974
-0.1474285 -0.04712229 -0.309509 -0.04732185 -0.18393101 -0.044491474 -0.017202381 -0.16014151
00000000: 1a14 e1bd c0f9 0fbc 7f6a 83be 9419 70be
00000010: b93f 88bd 0b79 80be f411 57be 3c13 6dbd
00000020: a179 e6bd 12ac 0bbe 8eec b93c c113 33be
00000030: eca4 9a3d 7765 cabd 5fd7 29bd c821 32bd
00000040: 2728 623e b055 88bd a892 75bd 8bcb cdbd
00000050: a916 19be b205 0c3e ee39 3bbc 56dd 14bc
00000060: 7ff7 16be 4d03 41bd f777 9ebe 8ed4 41bd
00000070: 6958 3cbe b13c 36bd 02ec 8cbc 23fc 23be

net.flow_mapping.0.affine_layers.0.net.6.weight f4 [32, 32]
0.029670827 -0.048982885 -0.10154899 -0.12154949 -0.07268091 -0.04957178 -0.01465127 -0.057313062
-0.015992453 -0.2290293 -0.09818591 -0.063146845 -0.097896084 0.011874296 -0.08847712 -0.12090054
-0.076983154 0.06009916 -0.074035875 0.07424118 -0.027872048 -0.051318713 0.019154413 -0.02663362
-0.17566559 0.031979 0.04933308 -0.13424782 -0.008113617 0.0423602 -0.0606457 -0.21386969
-0.17493248 -0.041603517 -0.21577606 -0.02632269 -0.0051788976 0.06608675 -0.09183745 0.03752028
-0.11092329 -0.15616293 -0.25405937 -0.077232234 -0.06586653 -0.0013135527 -0.10056733 0.010975082
-1.3233186 -0.069350965 0.06184818 -0.051153064 0.1890569 -0.45980534 0.03535818 -0.16898386
0.015005786 -0.16772039 -0.019264132 0.05797671 0.0989352 -0.04656206 -0.08606661 0.006100054
-0.21983254 -0.10609713 -0.17415193 -0.18421155 0.060104523 -0.19279134 -0.15127333 -0.008723563
0.07562321 0.0028630884 0.09472651 0.007196004 -0.19801402 0.07243838 0.0063681807 0.018102959
-0.17618643 0.039291225 -0.1268261 -0.00078687276 0.22081244 -0.23269793 0.05767029 -0.39925352
-0.22486748 -0.057492625 -0.36282802 -0.08451233 0.27065694 -0.035306104 -0.05363417 0.20166102
0.086295396 0.053118885 0.11640687 0.08715836 -0.10725866 -0.082939304 0.00049107004 0.0439714
0.09172432 -0.04043751 -0.20814526 -0.063532844 -0.1979853 0.058255136 0.0958152 -0.10671494
-0.046069283 0.0072579724 0.08931715 0.043010946 -0.08827922 -0.064579286 -0.027673367 -0.086826846
-0.061692093 -0.120269515 0.050405372 -0.044667892 0.038520776 0.10287535 -0.16015692 -0.29735628
-0.03547124 0.048745964 -0.093472466 -0.038390316 0.00084061094 0.092563994 -0.0073851096 0.0734331
-0.11257921 -0.05704833 -0.018141998 0.057942804 0.004298096 0.042802256 -0.033975724 0.035709765
-0.013785271 0.04388092 0.0723438 -0.09037147 -0.015074886 0.02782448 0.01416497 -0.08106722
-0.08866417 -0.024014555 -0.10961682 -0.059470933 0.009644116 0.009740881 0.03688872 -0.14011438
-0.10224793 -0.13682622 0.5670188 0.5248834 0.18181609 0.008750016 -0.035072237 0.06981692
0.07541956 0.077670686 0.26252118 -0.2232225 0.67056525 0.007106724 0.013657088 -0.0013928274
0.25837287 0.041125394 0.053143755 0.001580711 0.16473353 0.51154613 -0.09923944 0.15650368
0.5519438 -0.044017937 0.6212251 -0.008992742 0.23569271 -0.08224333 0.0241502 -0.4399881
0.030728893 -0.056412455 -0.12765442 -0.03419275 0.06729776 0.07950307 0.040327072 0.04078895
-0.029608535 -0.0069672344 -0.0813628 0.03680692 -0.09415917 -0.08601173 0.014909329 0.027308933
-0.022318164 0.019726735 -0.13445795 -0.0070628887 -0.026439212 -0.11364243 0.004177075 -0.08862989
-0.21220766 -0.079028256 -0.09106525 0.048453767 -0.082661286 0.1212279 -0.05332369 -0.18828279
0.14664748 -0.0870597 0.3905466 0.19933733 0.014593738 0.21282819 0.2645536 -0.0051536337
-0.026403189 0.04550437 0.20577177 0.10560763 0.3103825 0.026865887 -0.106131434 0.10334797
0.40041384 0.00954263 -0.013326745 -0.119599506 0.010908577 0.37618414 -0.042794947 -0.08421573
0.2421479 0.016773999 0.35790673 0.073629566 -0.051488616 0.03350845 0.013383669 0.39335573
00000000: 3c10 f33c 47a2 48bd ebf8 cfbd f0ee f8bd
00000010: bbd9 94bd c70b 4bbd e10b 70bc 1ac1 6abd
00000020: 9b02 83bc a886 6abe b215 c9bd 2253 81bd
00000030: be7d c8bd 688c 423c 7e33 b5bd b49a f7bd
00000040: 58a9 9dbd 892a 763d 1fa0 97bd c30b 983d
00000050: ec53 e4bc 9233 52bd b7e9 9c3c c02e dabc
00000060: aee1 33be 69fc 023d 7c11 4a3d 4378 09be
00000070: faee 04bc e481 2d3d a067 78bd a800 5bbe
00000080: 8021 33be 7368 2abd 66f4 5cbe afa2 d7bc
00000090: beb3 a9bb 7d58 873d 4615 bcbd ddae 193d
000000a0: c02b e3bd 2de9 1fbe 1214 82be ef2b 9ebd
000000b0: 08e5 86bd 842b acba 3ff6 cdbd d5d0 333c
000000c0: 8162 a9bf e107 8ebd 8454 7d3d e085 51bd
000000d0: 2298 413e 9b6b ebbe bdd3 103d 1b0a 2dbe
000000e0: d4da 753c e5be 2bbe d0cf 9dbc fd78 6d3d
000000f0: 8a9e ca3d dcb7 3ebd b143 b0bd f6e2 c73b
00000100: c81b 61be 7449 d9bd e254 32be f4a1 3cbe
00000110: 2930 763d 186b 45be 65e7 1abe 46ed 0ebc
00000120: 57e0 9a3d a7a2 3b3b f9ff c13d 75cc eb3b
00000130: 30c4 4abe 935a 943d 2cac d03b a84c 943c
00000140: 376a 34be d6ef 203d b3de 01be 2346 4eba
00000150: a81c 623e 5e48 6ebe af37 6c3d f56a ccbe
00000160: a943 66be 637d 6bbd 98c4 b9be cd14 adbd
00000170: 8c93 8a3e 229d 10bd 81af 5bbd 3a80 4e3e
00000180: a4bb b03d 3093 593d ba66 ee3d 1580 b23d
00000190: 6eaa dbbd 15dc a9bd 27bb 003a 5b1b 343d
000001a0: f6d9 bb3d cda1 25bd 0824 55be 821d 82bd
000001b0: a9bc 4abe f09c 6e3d c23a c43d 5d8d dabd
000001c0: 25b3 3cbd 49d4 ed3b e9eb b63d 3f2c 303d
000001d0: bccb b4bd 2542 84bd 42b3 e2bc 46d2 b1bd
000001e0: d9b0 7cbd dd4f f6bd dd75 4e3d aef5 36bd
000001f0: f6c7 1d3d 50b0 d23d 2d00 24be 153f 98be
00000200: 4a4a 11bd d9a9 473d 7e6e bfbd 2a3f 1dbd
00000210: 725c 5c3a 3192 bd3d cafe f1bb 1864 963d
00000220: ee8f e6bd 82ab 69bd 879e 94bc 6f55 6d3d
00000230: 0bd7 8c3b 6b51 2f3d 212a 0bbd 6744 123d
00000240: 9edb 61bc 7bbc 333d fc28 943d ad14 b9bd
00000250: a8fc 76bc 2af0 e33c 3114 683c 9206 a6bd
00000260: 8f95 b5bd 2cba c4bc c97e e0bd cb97 73bd
00000270: 5b02 1e3c 3798 1f3c a018 173d 257a 0fbe
00000280: 5d67 d1bd 2c1c 0cbe 2528 113f c25e 063f
00000290: ff2d 3a3e 3a5c 0f3c e8a7 0fbd 2cfc 8e3d
000002a0: 9275 9a3d cf11 9f3d 2d69 863e 7094 64be
000002b0: 2aaa 2b3f 86df e83b fbc1 5f3c 888f b6ba
000002c0: 7349 843e 1a73 283d 44ad 593d dc2f cf3a
000002d0: e8af 283e b0f4 023f 0c3e cbbd 8042 203e
000002e0: 304c 0d3f 274c 34bd 9c08 1f3f 4b56 13bc
000002f0: 6e59 713e 316f a8bd a4d6 c53c 1f46 e1be
00000300: 29bb fb3c bf10 67bd d7b7 02be b20d 0cbd
00000310: 68d3 893d 81d2 a23d 002e 253d 5012 273d
00000320: 998d f2bc 664d e4bb 8aa1 a6bd dac2 163d
00000330: 86d6 c0bd eb26 b0bd 4246 743c fcb6 df3c
00000340: 95d4 b6bc f699 a13c 58af 09be ce6f e7bb
00000350: 0c97 d8bc 5dbd e8bd d8df 883b 9683 b5bd
00000360: f74c 59be 91d9 a1bd 6b80 babd 7577 463d
00000370: 524a a9bd 5546 f83d f169 5abd 34cd 40be
00000380: c22a 163e 5b4c b2bd b9f5 c73e 161f 4c3e
00000390: 931a 6f3c a2ef 593e 9273 873e d0df a8bb
000003a0: 804b d8bc ca62 3a3d d6b5 523e d048 d83d
000003b0: 74ea 9e3e d915 dc3c 705b d9bd 1aa8 d33d
000003c0: 0b03 cd3e b158 1c3c 6b58 5abc 96f0 f4bd
000003d0: e3b9 323c 359b c03e c149 2fbd 4c79 acbd
000003e0: 9ef5 773e a069 893c 8d3f b73e 19cb 963d
000003f0: bae5 52bd 2840 093d 2d47 5b3c ec65 c93e

net.flow_mapping.0.affine_layers.0.net.6.bias f4 [32]
-0.003801218 0.1519649 0.31612644 -0.03923673 -0.13599329 -0.10857932 -0.008859169 -0.3243193
-0.3030073 -0.052222524 -0.041498877 -0.0062252986 -0.0022180306 -0.0094914995 0.14903788 -0.060298815
-0.013554598 -0.13911594 -0.06918004 -0.21587946 -0.2755195 0.09940385 -0.0049844705 0.10384338
-0.09462775 -0.26353648 0.13769104 -0.09009031 -0.10858594 -0.03738259 -0.14995952 -0.17265193
00000000: db1d 79bb b09c 1b3e 53db a13e b2b6 20bd
00000010: d341 0bbe d65e debd 0c26 11bc 2e0d a6be
00000020: c623 9bbe 49e7 55bd bafa 29bd 97fd cbbb
00000030: 615c 11bb 3c82 1bbc 639d 183e e4fb 76bd
00000040: 1b14 5ebc 6974 0ebe 44ae 8dbd 810f 5dbe
00000050: e410 8dbe 3f94 cb3d c554 a3bb d7ab d43d
00000060: 32cc c1bd 41ee 86be e1fe 0c3e 4581 b8bd
00000070: 4e62 debd 7d1e 19bd fd8e 19be abcb 30be

net.flow_mapping.0.affine_layers.0.net.8.weight f4 [32, 32]
-0.010951879 -0.12269492 -0.011501625 -0.1350457 -0.060562655 -0.018229969 0.06436331 -0.099438556
0.060110386 -0.071097255 0.061809205 -0.09802117 -0.13940068 -0.105851784 -0.019299174 -0.09632035
-0.15878414 0.019833606 -0.026036354 0.06012088 -0.079132944 0.05028497 0.05876105 -0.0017368958
0.039398983 -0.10164902 0.08963186 -0.1213848 -0.07448517 0.046767518 -0.007908703 -0.05849949
0.11801034 0.019831173 0.11735701 0.15827681 -0.020875053 -0.20151433 0.0023091147 0.016667776
-0.32995084 0.05512784 -0.06009278 0.09467168 0.10812029 -0.09706261 0.043389305 0.07066643
-0.07590179 -0.044292163 -0.1312968 0.028949138 -0.07079093 -0.054258198 0.046059396 -0.10284385
-0.049893018 -0.04295444 -0.06380014 -0.014897523 0.036138013 0.016385972 -0.15849856 -0.2647367
0.043104365 -0.16878998 -0.0800355 0.054525293 0.053729996 -0.013203912 0.025106015 -0.14667419
0.03093316 -0.15131816 0.0753109 -0.0448032 -0.016314868 -0.1620897 0.030155987 -0.03790827
-0.18788579 -0.03365125 -0.045570172 -0.07506652 0.016233886 0.020099306 -0.055619325 -0.013006375
0.07245649 -0.11371519 -0.11028404 -0.0647557 -0.011502406 0.08405468 -0.11240144 0.040705644
0.038259286 -0.13450006 -0.09935012 -0.09618947 0.0093847895 -0.13648628 -0.08624952 -0.015122036
-0.15283674 -0.010679229 -0.055125996 -0.14509903 -0.12921056 0.028091246 -0.03589316 0.060873166
0.049289055 0.024207022 -0.1251027 0.02074596 -0.088582814 0.014934099 -0.019834254 -0.08851132
-0.02354074 -0.09762854 0.046289 0.022003274 -0.09103088 0.024924703 -0.09240541 -0.10969313
-0.07830901 0.03446192 -0.16891454 0.13925079 -0.036056545 0.47971144 -0.08314237 0.14236261
-0.13574615 -0.18203643 -0.05732943 -0.015823355 0.10201652 -0.032169808 0.02271825 0.06774424
-0.022763425 -0.019334901 0.0680657 0.061273307 -0.13833922 -0.0013911411 0.021778965 -0.06495977
0.057003237 -0.195544 -0.24985965 0.20536433 -0.09938297 -0.09335377 0.06965096 -0.10318619
0.11296321 0.20817414 0.29809967 0.009195448 0.12801147 -0.12376125 0.069536746 0.2622299
0.60153633 0.027836448 0.15457393 -0.06134778 0.014201817 -0.029894663 -0.34558612 0.14724456
-0.013447685 -0.009016779 -0.025664946 -0.15646426 0.024390614 0.16740827 -0.0940265 0.08277344
0.058834367 -0.042454407 0.10869216 -0.12012094 0.00598065 -0.09523637 -0.438169 0.34395495
-0.043073844 0.24744585 0.36626157 -0.07955195 -0.051423572 -0.3076777 -0.02443938 -0.28700903
0.28123462 0.08691363 0.14308022 -0.01894334 -0.02748848 -0.06801109 -0.33591932 -0.096696205
0.09048381 0.14701164 -0.23266444 -0.25129852 -0.12769498 0.17331871 0.025655685 0.15196672
-0.07494525 0.037514582 0.28703254 -0.066860765 -0.00076877046 -0.048843727 -0.22568141 0.17304866
0.068085164 0.099279545 0.10840524 -0.027965656 -0.060131896 -0.32685822 -0.004903168 -0.19124393
-0.3664706 0.16299732 -0.06661855 0.11592272 0.12238747 0.11115777 0.24558513 -0.05933292
0.07852736 0.0068184105 -0.009583734 0.004324043 -0.042003527 -0.06457305 -0.015691431 -0.10750702
0.025591096 -0.17813778 -0.09229018 0.08124951 -0.09684081 -0.0789759 0.4567809 -0.031779688
00000000: 836f 33bc 7947 fbbd 5071 3cbc 6c49 0abe
00000010: 8c10 78bd 0457 95bc e9d0 833d 71a6 cbbd
00000020: 4f36 763d 709b 91bd a62b 7d3d 53bf c8bd
00000030: 0dbf 0ebe d2c8 d8bd 4d19 9ebc 9b43 c5bd
00000040: 4f98 22be 167a a23c 314a d5bc 5041 763d
00000050: 7410 a2bd 9df7 4d3d 6daf 703d 8da8 e3ba
00000060: d460 213d 5d2d d0bd e990 b73d 9898 f8bd
00000070: ae8b 98bd 4c8f 3f3d 8193 01bc 299d 6fbd
00000080: 68af f13d fc74 a23c df58 f03d 5113 223e
00000090: 2902 abbc c659 4ebe 8454 173b dc8a 883c
000000a0: 51ef a8be bbcd 613d d923 76bd 3ae3 c13d
000000b0: 2c6e dd3d c3c8 c6bd fcb8 313d 90b9 903d
000000c0: 6672 9bbd b36b 35bd ab72 06be be26 ed3c
000000d0: d6fa 90bd d83d 5ebd c7a8 3c3d cc9f d2bd
000000e0: 9f5c 4cbd fff0 2fbd a6a9 82bd be14 74bc
000000f0: 7405 143d e03b 863c 724d 22be 928b 87be
00000100: 348e 303d 48d7 2cbe a7e9 a3bd ea55 5f3d
00000110: fc13 5c3d 3955 58bc 21ab cd3c c231 16be
00000120: 8a67 fd3c 26f3 1abe 9a3c 9a3d 8f83 37bd
00000130: c2a6 85bc d8fa 25be b009 f73c b445 1bbd
00000140: 2265 40be e5d5 09bd caa7 3abd 7abc 99bd
00000150: edfc 843c 4da7 a43c 17d1 63bd b118 55bc
00000160: 1164 943d 82e3 e8bd 99dc e1bd a39e 84bd
00000170: 9674 3cbc dc24 ac3d ba32 e6bd f6ba 263d
00000180: c5b5 1c3d 62ba 09be 1378 cbbd fcfe c4bd
00000190: a9c2 193c 0fc3 0bbe 97a3 b0bd 6bc2 77bc
000001a0: 3c81 1cbe eff7 2ebc cccb 61bd d794 14be
000001b0: c64f 04be 9d1f e63c b504 13bd 2456 793d
000001c0: 52e3 493d ce4d c63c ec1a 00be 6ef3 a93c
000001d0: e86a b5bd 27ae 743c 727b a2bc 6c45 b5bd
000001e0: 83d8 c0bc 79f1 c7bd 8999 3d3d 3640 b43c
000001f0: 666e babd e42e cc3c 0c3f bdbd cba6 e0bd
00000200: 7960 a0bd f127 0d3d eff7 2cbe c297 0e3e
00000210: 07b0 13bd bd9c f53e 8c46 aabd 81c7 113e
00000220: 0a01 0bbe c267 3abe 44d2 6abd fb9f 81bc
00000230: 0aee d03d 7dc4 03bd a01b ba3c 7ebd 8a3d
00000240: 5d7a babc 3a64 9ebc 0866 8b3d b8f9 7a3d
00000250: cca8 0dbe f356 b6ba cd69 b23c a109 85bd
00000260: 3a7c 693d b03c 48be 35db 7fbe 074b 523e
00000270: 4c89 cbbd 4330 bfbd 2aa5 8e3d 4853 d3bd
00000280: 4159 e73d 9a2b 553e 85a0 983e 81a8 163c
00000290: 7015 033e 8a76 fdbd 4869 8e3d ff42 863e
000002a0: 49fe 193f 4309 e43c a148 1e3e cf47 7bbd
000002b0: bdae 683c a7e5 f4bc aaf0 b0be 47c7 163e
000002c0: ae53 5cbc 1dbb 13bc 4b3f d2bc 2b38 20be
000002d0: d3ce c73c 136d 2b3e f790 c0bd 1f85 a93d
000002e0: 4efc 703d ace4 2dbd ff99 de3d f801 f6bd
000002f0: 54f9 c33b 490b c3bd b057 e0be dd1a b03e
00000300: 336e 30bd 7262 7d3e a386 bb3e 22ec a2bd
00000310: 86a1 52bd ee87 9dbe 1835 c8bc d9f2 92be
00000320: fcfd 8f3e c6ff b13d 9f83 123e 102f 9bbc
00000330: 852f e1bc 6649 8bbd 9efd abbe a908 c6bd
00000340: 934f b93d 388a 163e 963f 6ebe 33aa 80be
00000350: 79c2 02be 767a 313e df2b d23c 2a9d 1b3e
00000360: e57c 99bd e4a8 193d eef5 923e 4cee 88bd
00000370: 5087 49ba 5c10 48bd 0719 67be ab33 313e
00000380: 3c70 8b3d 1353 cb3d 9103 de3d 3b18 e5bc
00000390: dd4c 76bd f659 a7be c1aa a0bb 73d5 43be
000003a0: 09a2 bbbe c5e8 263e 4e6f 88bd e468 ed3d
000003b0: 48a6 fa3d afa6 e33d ab7a 7b3e 1307 73bd
000003c0: f4d2 a03d f96c df3b 1805 1dbc b4b0 8d3b
000003d0: e40b 2cbd e03e 84bd 518b 80bc a42c dcbd
000003e0: 6ba4 d13c c069 36be a202 bdbd 2566 a63d
000003f0: 7954 c6bd 1ebe a1bd 30df e93e 6b2b 02bd

net.flow_mapping.0.affine_layers.0.net.8.bias f4 [32]
-0.09028537 -0.03605221 -0.19301552 -0.037856348 -0.298481 0.2176692 0.28555393 0.043740455
-0.13794437 -0.100397356 -0.086920045 -0.06888879 -0.14895186 0.17438717 -0.13998263 -0.07074814
-0.4384166 -0.08414615 -0.34308723 0.14959116 -0.040776767 0.086688384 -0.098092705 -0.12931603
0.057862215 -0.24996494 0.0664287 -0.24989635 -0.089944355 -0.008902866 0.13658707 -0.07764326
00000000: 89e7 b8bd 7bab 13bd dca5 45be 420f 1bbd
00000010: 80d2 98be ade4 5e3e 2034 923e 3129 333d
00000020: 4a41 0dbe 219d cdbd 2303 b2bd 9115 8dbd
00000030: d686 18be 8d92 323e 9b57 0fbe 67e4 90bd
00000040: 2478 e0be d154 acbd 21a9 afbe 6d2e 193e
00000050: 8a05 27bd ae89 b13d d4e4 c8bd 6c6b 04be
00000060: ee00 6d3d cff6 7fbe c50b 883d d4e4 7fbe
00000070: bf34 b8bd 54dd 11bc 7bdd 0b3e 6e03 9fbd

net.flow_mapping.0.affine_layers.0.net.10.weight f4 [2, 32]
-0.04549818 -0.011164935 0.036773443 -0.01740387 0.26928422 -0.08792721 -0.2351356 -0.071266994
0.025045801 -0.022263983 0.02245763 0.0005418053 0.17980854 0.041677304 0.032536153 0.006077043
0.32015926 0.012497084 0.2854044 -0.09319113 0.0017737777 -0.18562432 0.040046703 -0.019192586
-0.062405676 0.24588722 -0.1059213 -0.053949866 0.0023351551 0.066303745 0.06512212 0.0014197397
0.000853215 0.009374249 0.011408211 0.08176106 -0.37213802 -0.1758235 -0.14829484 0.091257624
-0.028224692 -0.028629659 0.0069308216 0.06770076 0.0576594 -0.39552107 0.046949904 -0.12053251
-0.4182009 0.05906188 -0.39262006 -0.012992953 -0.06742192 0.0031226256 -0.023882924 0.13943447
0.072378494 -0.45850962 0.071435645 0.27133843 0.044221282 0.07480228 -0.21786082 -0.05281626
00000000: 4d5c 3abd 22ed 36bc c09f 163d 9092 8ebc
00000010: 9fdf 893e 2e13 b4bd 63c7 70be 6ef4 91bd
00000020: da2c cd3c f562 b6bc 10f9 b73c f007 0e3a
00000030: bb1f 383e d2b5 2a3d a144 053d ee21 c73b
00000040: eaeb a33e 92c0 4c3c 8720 923e feda bebd
00000050: 1a7e e83a 4d14 3ebe 0308 243d c539 9dbc
00000060: 189d 7fbd dcc9 7b3e 44ed d8bd 89fa 5cbd
00000070: 6709 193b 42ca 873d bf5e 853d 8f16 ba3a
00000080: 4aaa 5f3a 7396 193c 81e9 3a3c 5872 a73d
00000090: e088 bebe 130b 34be 9ada 17be 47e5 ba3d
000000a0: 7837 e7bc bf88 eabc f21b e33b b2a6 8a3d
000000b0: 432c 6c3d bd81 cabe 8b4e 403d c0d9 f6bd
000000c0: 6e1e d6be dfea 713d 7f05 c9be 65e0 54bc
000000d0: 8114 8abd f7a4 4c3b 1fa6 c3bc e9c7 0e3e
000000e0: 2d3b 943d c6c1 eabe da4c 923d dfec 8a3e
000000f0: 6021 353d f031 993d e816 5fbe dd55 58bd

net.flow_mapping.0.affine_layers.0.net.10.bias f4 [2]
-0.07002244 -0.30891657
00000000: ed67 8fbd 502a 9ebe

net.flow_mapping.0.affine_layers.1.net.0.weight f4 [32, 1]
0.27312517 -0.51675147 -0.04265947 -0.0187673 -0.3829067 -0.16292244 0.0087934295 -0.71486264
-0.65910095 -0.44966403 0.0034049165 0.46481818 0.7664659 0.49291283 0.48591775 -0.5222738
-0.36366707 -0.5808392 -0.6405124 -0.6264919 0.24780159 -0.02356413 0.1943531 0.48808745
0.005415484 0.0004358475 -0.005835313 0.5879425 -0.5942659 -0.59196764 -0.13538346 0.0031889463
00000000: 10d7 8b3e d349 04bf b2bb 2ebd e1bd 99bc
00000010: 590c c4be 24d5 26be 5112 103c 3d01 37bf
00000020: d7ba 28bf 5d3a e6be 0525 5f3b a6fc ed3e
00000030: 1c37 443f 125f fc3e 36ca f83e bcb3 05bf
00000040: 9232 babe e1b1 14bf 9ff8 23bf c661 20bf
00000050: b3bf 7d3e 9009 c1bc 8004 473e 99e6 f93e
00000060: 5f74 b13b 7682 e439 2736 bfbb 6683 163f
00000070: cf21 18bf 318b 17bf f6a1 0abe a4fd 503b

net.flow_mapping.0.affine_layers.1.net.0.bias f4 [32]
-0.56354606 -0.44459766 0.018890325 0.3098772 -0.40859917 -0.03985001 -0.032669585 0.37920916
0.117831856 0.110267565 -0.03626245 -0.74397385 -0.96068275 -0.59355783 -0.75656676 -0.5168546
-1.0786818 -0.6427807 0.21297103 0.17861986 -0.43711573 -0.6480491 -0.175509 -0.28379267
-0.06694008 -0.020008912 -0.036220882 -0.5346911 0.11354115 -0.5012526 -0.012854171 -0.041142046
00000000: 8e44 10bf 4ea2 e3be e2bf 9a3c 39a8 9e3e
00000010: e933 d1be c439 23bd 8bd0 05bd b427 c23e
00000020: d451 f13d f6d3 e13d ef87 14bd 1275 3ebf
00000030: 4eef 75bf 68f3 17bf 5cae 41bf 9550 04bf
00000040: 3f12 8abf 478d 24bf 1415 5a3e 20e8 363e
00000050: a2cd dfbe 8ce6 25bf a2b8 33be 464d 91be
00000060: e117 89bd bbe9 a3bc 595c 14bd 84e1 08bf
00000070: 4388 e83d 1752 00bf 4d9a 52bc 9084 28bd

net.flow_mapping.0.affine_layers.1.net.2.weight f4 [32, 32]
0.077364504 -0.015440457 0.002639544 0.054573335 0.012966651 0.022117276 0.099816285 -1.0354433
-0.41418734 -0.6330184 -0.027816765 0.8790698 1.0339094 1.0433575 0.85494214 0.07331169
-0.09580676 0.11355362 -1.164819 -0.79656994 -0.062442888 0.0674103 0.09964473 0.24335338
-0.006728817 0.07903852 0.018646095 0.2837744 -0.07856113 -0.1534795 0.059786867 0.09212359
0.22466236 0.42936 -0.062405683 -0.07983964 0.29909307 -0.07730749 -0.04209566 -0.04013686
0.0678031 -0.037911087 -0.074014515 0.73584634 0.7369167 0.7152026 0.779355 0.47203046
0.4936354 0.4705397 0.063994385 -0.042203587 0.053280953 -0.0141768325 0.049978267 0.04933477
-0.011556344 0.07205041 0.023702327 0.22846577 0.1777897 0.22749397 -0.008297048 0.05130664
-0.032286882 0.09983746 -0.23208067 -0.3267843 0.680558 -0.3256536 -0.0025597245 -0.17042506
-0.076372765 -0.12870489 -0.045467775 -0.08918433 -0.05209822 -0.04223146 -0.053907245 0.1159623
0.5090415 0.08867269 -0.015386563 -0.111722454 -0.019623028 0.117568694 0.093892895 0.055904955
-0.076665014 -0.04575657 -0.14688835 -0.10974278 -0.07591388 0.083367124 0.013123139 0.037413552
0.0893678 -0.068396054 0.1038521 0.02184392 0.07936649 0.05652974 0.040947884 0.054139756
-0.038090315 -0.038769707 -0.07454954 -0.118743874 -0.06059832 0.111819625 -0.07914594 0.10658327
-0.07519161 -0.08121 -0.04502 -0.07464287 0.10303677 -0.0719284 -0.08221982 -0.05240115
0.075218566 -0.06672269 0.10392687 0.0062009627 -0.0833058 -0.03546747 -0.037372816 0.024293376
0.26798758 -0.14359891 -0.10091859 -0.2656938 0.07549332 -0.18098947 -0.0007654517 -0.23405577
-0.22495103 -0.52054983 0.07115498 0.8268815 0.65816253 0.76530814 0.6495714 -0.09016431
-0.09642156 -0.038743284 -0.27136028 -0.51258165 -0.08116887 -0.0016322804 -0.010289303 -0.012730713
0.15833662 -0.049193237 0.054829773 0.16684613 0.03788025 -0.05858898 -0.057473063 0.01363087
-0.15361862 0.031087482 0.058475513 -0.08787004 -0.029361617 -0.057701785 0.038332794 -0.1469343
-0.060866646 -0.12955655 -0.026708674 -0.045815706 -0.10899705 0.13439061 0.030351512 -0.09368872
-0.09756891 -0.10528128 0.08016029 0.017917052 0.010117641 -0.03773333 -0.15803556 -0.056411386
-0.12923516 0.06486919 -0.09985903 0.065129824 0.00420202 -0.059628557 0.06191348 0.021299148
0.19209082 0.012369336 -0.09004607 0.045010954 0.043462057 0.07443353 -0.08737283 -1.1143962
-0.50551665 -0.64596605 0.07704535 0.9065417 0.786245 1.1014458 0.702842 0.04317509
-0.015071253 -0.090824306 -1.304034 -0.83469546 -0.10543643 -0.0839205 0.18493012 0.14668995
0.050250873 0.16339432 -0.038465265 0.31528187 -0.50297976 0.050698984 -0.06342235 -0.030628862
-0.1029469 0.032506406 -0.28499082 -0.29378617 -0.0370299 -0.27272716 -0.040879156 -0.05817739
0.118421294 -0.010451279 -0.15289637 0.08527645 0.12194539 0.055486955 -0.0077803964 -0.03465147
0.06264903 -0.08239265 -0.066672616 -0.011293235 -0.2227966 0.08591462 -0.108866505 -0.24140412
-0.08857623 -0.14861472 0.09722954 -0.07986092 -0.10755772 0.11164666 -0.24232073 -0.26347739
00000000: 4871 9e3d f8f9 7cbc 33fc 2c3b 4a88 5f3d
00000010: 1372 543c 4a2f b53c 7b6c cc3d 6889 84bf
00000020: 5d10 d4be 7e0d 22bf fcdf e3bc b80a 613f
00000030: 2557 843f bd8c 853f 7ddd 5a3f 7024 963d
00000040: 5636 c4bd cd8e e83d ca18 95bf 02ec 4bbf
00000050: 1dc4 7fbd 690e 8a3d 8912 cc3d a131 793e
00000060: 687d dcbb f3de a13d b2bf 983c e14a 913e
00000070: a8e4 a0bd bb29 1dbe 13e3 743d 4bab bc3d
00000080: e40d 663e 13d5 db3e 1a9d 7fbd f782 a3bd
00000090: ba22 993e 6453 9ebd 806c 2cbd 8c66 24bd
000000a0: 5adc 8a3d a848 1bbd ec94 97bd 6d60 3c3f
000000b0: 93a6 3c3f 8517 373f cf83 473f faad f13e
000000c0: c7bd fc3e 94ea f03e 7d0f 833d abdd 2cbd
000000d0: 213d 5a3d f245 68bc 03b6 4c3d 4113 4a3d
000000e0: d256 3dbc 2a8f 933d 622b c23c eef2 693e
000000f0: 810e 363e 2ef4 683e 57f0 07bc e926 523d
00000100: 403f 04bd 9577 cc3d 8ea6 6dbe 4650 a7be
00000110: 0d39 2e3f 12bc a6be 0dc1 27bb e883 2ebe
00000120: 5369 9cbd 37cb 03be 6b3c 3abd 46a6 b6bd
00000130: f164 55bd e5fa 2cbd d8cd 5cbd a47d ed3d
00000140: 8b50 023f 079a b53d ec17 7cbc bece e4bd
00000150: 79c0 a0bc dbc7 f03d eb4a c03d 98fc 643d
00000160: 8c02 9dbd 3e6b 3bbd e669 16be d3c0 e0bd
00000170: bc78 9bbd 62bc aa3d 6f02 573c f43e 193d
00000180: 7706 b73d 3b13 8cbd 69b0 d43d 05f2 b23c
00000190: e68a a23d bb8b 673d f8b8 273d a6c1 5d3d
000001a0: 9704 1cbd fccc 1ebd 6ead 98bd fd2f f3bd
000001b0: f235 78bd b001 e53d 4417 a2bd 5448 da3d
000001c0: 0ffe 99bd 6e51 a6bd e466 38bd 5cde 98bd
000001d0: f104 d33d 324f 93bd dd62 a8bd 97a2 56bd
000001e0: 310c 9a3d e8a5 88bd 9cd7 d43d 7231 cb3b
000001f0: 3b9c aabd 5646 11bd 3d14 19bd e702 c73c
00000200: ab35 893e 980b 13be 68ae cebd 0509 88be
00000210: 3e9c 9a3d 4e55 39be 98a8 48ba 51ac 6fbe
00000220: 9059 66be c142 05bf b4b9 913d 82ae 533f
00000230: 577d 283f 3ceb 433f 504a 263f 11a8 b8bd
00000240: ab78 c5bd 47b1 1ebd bcef 8abe 8d38 03bf
00000250: dd3b a6bd 3ef2 d5ba 7794 28bc 7b94 50bc
00000260: ff22 223e d97e 49bd 2f95 603d b6d9 2a3e
00000270: 5228 1b3d 00fb 6fbd e068 6bbd 0354 5f3c
00000280: 334e 1dbe 2dab fe3c 0584 6f3d 35f5 b3bd
00000290: c687 f0bc b558 6cbd d902 1d3d f275 16be
000002a0: 4e4f 79bd 79aa 04be 26cc dabc 40a9 3bbd
000002b0: d839 dfbd b19d 093e bca3 f83c dfdf bfbd
000002c0: 35d2 c7bd b69d d7bd 142b a43d c8c6 923c
000002d0: 76c4 253c 448e 1abd 13d4 21be a00f 67bd
000002e0: 3956 04be 23da 843d e482 ccbd c962 853d
000002f0: 19b1 893b 133d 74bd fd98 7d3d 8d7b ae3c
00000300: 75b3 443e c1a8 4a3c 136a b8bd 685d 383d
00000310: 4505 323d 9b70 983d 87f0 b2bd 89a4 8ebf
00000320: 8a69 01bf 085e 25bf f4c9 9d3d 1e13 683f
00000330: 5a47 493f 2dfc 8c3f 74ed 333f 5dd8 303d
00000340: 6bed 76bc 1802 babd 96ea a6bf 9aae 55bf
00000350: 0eef d7bd 83de abbd 525e 3d3e e435 163e
00000360: dcd3 4d3d d750 273e c18d 1dbd a06c a13e
00000370: 48c3 00bf bda9 4f3d 94e3 81bd 61e9 fabc
00000380: d3d5 d2bd 7025 053d 51ea 91be 246b 96be
00000390: aaac 17bd e5a2 8bbe e770 27bd 6a4b 6ebd
000003a0: dd86 f23d d73b 2bbc de90 1cbe 6ba5 ae3d
000003b0: 81be f93d 4a46 633d b2f2 febb b3ee 0dbd
000003c0: 224e 803d 7abd a8bd a78b 88bd 4307 39bc
000003d0: cb24 64be 01f4 af3d 67f5 debd a432 77be
000003e0: 7467 b5bd 752e 18be 4820 c73d 1f8e a3bd
000003f0: 3947 dcbd 01a7 e43d ed22 78be 82e6 86be

net.flow_mapping.0.affine_layers.1.net.2.bias f4 [32]
0.11406924 -0.42459083 -0.31354913 -0.10037124 -0.35039744 0.0032100254 0.16740927 -0.120755814
-0.12670016 -0.032853972 -0.0711463 -0.40925694 -0.022040445 -0.29442677 -0.20325932 -0.16970229
-0.16417922 -0.25887161 -0.29790178 -0.30429646 -0.034117676 -0.1357295 -0.44720483 -0.22966546
-0.066625215 -0.111387625 -0.55282867 -0.027773283 -0.08548635 -0.046445068 -0.11287124 -0.5506942
00000000: 229d e93d f863 d9be 8389 a0be 708f cdbd
00000010: 4b67 b3be 4a5f 523b 566d 2b3e d34e f7bd
00000020: b0bd 01be e391 06bd 27b5 91bd 208a d1be
00000030: 2a8e b4bc 1bbf 96be 3623 50be 70c6 2dbe
00000040: 991e 28be d28a 84be 9586 98be bfcc 9bbe
00000050: fabe 0bbd adfc 0abe 08f8 e4be 6c2d 6bbe
00000060: cd72 88bd 321f e4bd 2e86 0dbf cc84 e3bc
00000070: 7813 afbd 2f3d 3ebd 0929 e7bd 4cfa 0cbf

net.flow_mapping.0.affine_layers.1.net.4.weight f4 [32, 32]
-0.21838607 -0.07467524 -0.095416635 -0.036161125 -0.060475428 -0.09962581 -0.12409907 0.015763968
0.04989881 -0.07634523 0.042508308 -0.15857974 -0.18273802 -0.11096705 -0.023601856 0.090691365
0.07142356 -0.06853655 -0.063603684 -0.08097594 0.05539254 -0.06637088 -0.05497233 -0.07970361
-0.05584072 -0.02087174 -0.09998029 -0.06347809 -0.055437203 -0.04505358 0.028517134 -0.16123702
-0.020649007 -0.25856268 -0.12096703 -0.01034831 -0.009021143 0.1011665 -0.08048378 -0.09209196
-0.06507365 -0.17142443 -0.12805887 -0.04442051 -0.15459149 -0.29670507 0.023426626 0.107171685
-0.06670668 -0.21197967 -0.11215885 -0.03788401 -0.009084319 -0.10957546 0.056729674 -0.17713948
-0.069222204 -0.0323003 -0.07303635 -0.056089908 0.054872125 -0.15974686 -0.104796655 -0.21122089
0.10019895 -0.005071038 0.22880234 -0.01913962 0.13196613 -0.01740219 0.1369904 0.05150381
-0.11261754 -0.10293534 -0.25922638 -0.0370622 -0.09084214 0.15413614 -0.070327625 0.010234256
-0.0364912 -0.046073046 -0.008211999 0.07896303 0.028015891 -0.013219954 -0.04611064 0.04701814
-0.040943656 -0.009080297 -0.009807334 -0.04872357 -0.066258065 -0.05947707 -0.08762646 0.09793565
0.07728136 -0.060096733 0.07878571 -0.030157313 -0.043600757 -0.023934381 -0.026468996 0.09587664
0.0630138 0.03645514 -0.10206916 -0.11634247 -0.037165403 -0.11712376 0.074476354 0.09310361
0.024539556 -0.035595752 0.08540379 0.009233848 -0.043637715 -0.10484031 0.057735935 -0.083183326
-0.028516933 0.05492886 -0.0948144 0.005441372 0.00025696302 0.072800055 -0.036570285 0.097156495
0.04809876 -0.0871252 -0.01743163 -0.055501755 0.057523344 0.07601325 -0.121676356 -0.07141795
-0.034777716 0.0024169707 -0.05419115 -0.08453644 -0.0726995 0.023692997 -0.0402491 0.115660205
-0.11040452 0.07643448 -0.121072225 0.02920345 0.038190734 -0.008099432 -0.081382595 -0.10412184
-0.078360245 -0.04266883 -0.013211019 -0.029007945 -0.038534284 -0.07307954 -0.07491281 0.03807807
-0.09477929 0.30725232 0.11867055 0.013272918 0.31710902 0.03358493 -0.17278819 -0.14324392
-0.041448373 0.3801464 0.29164863 0.23018627 0.33198696 0.10635506 -0.036754064 0.010057495
-0.14847864 -0.10849088 0.6266738 -0.027548311 -0.08726687 0.16399895 0.43773133 0.35430366
0.26625946 0.066161305 0.4269072 0.02349342 0.03029864 0.0025382838 0.08467047 0.38520873
0.042124327 0.052060366 -0.04747688 0.11552164 -0.352537 0.0043200883 -0.027996875 0.06832406
-0.012422715 -0.119370416 -0.011718969 -0.12663668 -0.19303207 -0.053905904 -0.03551397 -0.09548382
-0.020604568 -0.087589666 -0.07878398 0.02102573 0.05558658 -0.15081291 0.0021730436 -0.17966855
-0.18546003 -0.08178718 -0.39531383 0.043838777 -0.072909415 -0.06424599 -0.108376175 -0.08281727
0.03891689 -0.015964014 -0.008246051 0.063684076 -0.12281373 0.031583574 -0.10335534 0.041647334
-0.07633219 -0.0685921 -0.09138493 0.050012484 -0.057943787 0.16968808 0.09863025 0.083514206
0.022410015 0.07206929 -0.03889966 -0.05471379 -0.03365235 0.012550793 0.07217831 -0.06779621
-0.049820762 0.13733992 -0.10350741 0.07409813 0.060013454 -0.031552047 0.06562943 -0.07053536
00000000: 99a0 5fbe 55ef 98bd cc69 c3bd b01d 14bd
00000010: 15b5 77bd 9e08 ccbd a727 febd 7023 813c
00000020: b262 4c3d e35a 9cbd 311d 2e3d ba62 22be
00000030: ad1f 3bbe b142 e3bd ae58 c1bc 65bc b93d
00000040: 8446 923d e45c 8cbd a642 82bd b7d6 a5bd
00000050: 4ae3 623d 75ed 87bd aa2a 61bd a53b a3bd
00000060: 3db9 64bd 36fb aabc 77c2 ccbd cd00 82bd
00000070: 1f12 63bd 1a8a 38bd c49c e93c 511b 25be
00000080: 1b28 a9bc 5462 84be 90bd f7bd f58b 29bc
00000090: 6bcd 13bc 6230 cf3d aed4 a4bd b69a bcbd
000000a0: 5545 85bd e389 2fbe dd21 03be 48f2 35bd
000000b0: 3b4d 1ebe bae9 97be 32e9 bf3c d47c db3d
000000c0: 839d 88bd 3311 59be 8ab3 e5bd 432c 1bbd
000000d0: 65d6 14bc 1969 e0bd 605d 683d 0d64 35be
000000e0: 5fc4 8dbd 524d 04bd 1594 95bd 88be 65bd
000000f0: 98c1 603d ae94 23be a19f d6bd 4a4a 58be
00000100: 1b35 cd3d f32a a6bb 294b 6a3e b1ca 9cbc
00000110: 2122 073e 0a8f 8ebc 3647 0c3e a9f5 523d
00000120: 06a4 e6bd c3cf d2bd 52b9 84be 89ce 17bd
00000130: 720b babd ddd5 1d3e ee07 90bd 95ad 273c
00000140: cc77 15bd 17b7 3cbd 9f8b 06bc 5eb7 a13d
00000150: 9581 e53c 8298 58bc 83de 3cbd 1896 403d
00000160: 89b4 27bd 87c5 14bc f1ae 20bc 5e92 47bd
00000170: 4fb2 87bd 3a9e 73bd 8075 b3bd 7c92 c83d
00000180: b145 9e3d fe27 76bd 675a a13d 780c f7bc
00000190: b596 32bd 0912 c4bc 82d5 d8bc f95a c43d
000001a0: 610d 813d fc51 153d a309 d1bd f644 eebd
000001b0: c03a 18bd 95de efbd 0f87 983d 1bad be3d
000001c0: 2e07 c93c dacc 11bd 2fe8 ae3d 9149 173c
000001d0: 76bd 32bd 84b6 d6bd 847c 6c3d 055c aabd
000001e0: 589c e9bc 16fd 603d 0d2e c2bd 894d b23b
000001f0: feb8 8639 3218 953d b9ca 15bd fcf9 c63d
00000200: 3503 453d b26e b2bd c7cc 8ebc cf55 63bd
00000210: 999d 6b3d d6ac 9b3d 7431 f9bd 9343 92bd
00000220: 1473 0ebd 0a66 1e3b 8af7 5dbd 7121 adbd
00000230: 7ae3 94bd d117 c23c 3edc 24bd 42df ec3d
00000240: c41b e2bd ae89 9c3d b7f4 f7bd 133c ef3c
00000250: e36d 1c3d 7bb3 04bc ebab a6bd d53d d5bd
00000260: 567b a0bd 83c5 2ebd 0873 58bc 12a2 edbc
00000270: 20d6 1dbd baaa 95bd e36b 99bd c0f7 1b3d
00000280: a51b c2bd 2d50 9d3e 8c09 f33d a776 593c
00000290: 1d5c a23e 5a90 093d 63ef 30be 89ae 12be
000002a0: c5c5 29bd 8da2 c23e f852 953e f3b5 6b3e
000002b0: 32fa a93e afd0 d93d 6e8b 16bd 31c8 243c
000002c0: c90a 18be 7730 debd b26d 203f ffac e1bc
000002d0: f9b8 b2bd 57ef 273e 521e e03e 4a67 b53e
000002e0: 2953 883e 947f 873d 9593 da3e 4675 c03c
000002f0: da34 f83c 5659 263b b667 ad3d 143a c53e
00000300: 8f8a 2c3d 403d 553d 1e77 42bd 9c96 ec3d
00000310: bb7f b4be 878f 8d3b b459 e5bc 7ced 8b3d
00000320: a588 4bbc 7a78 f4bd eb00 40bc 0cad 01be
00000330: 33aa 45be 70cc 5cbd 1977 11bd 058d c3bd
00000340: e9ca a8bc 3662 b3bd 7f59 a1bd 273e ac3c
00000350: c1ae 633d b36e 1abe 9f69 0e3b 08fb 37be
00000360: 3ce9 3dbe 0980 a7bd 9366 cabe 4a90 333d
00000370: 8851 95bd 6793 83bd 54f4 ddbd 1a9c a9bd
00000380: 5167 1f3d f7c6 82bc 721a 07bc cc6c 823d
00000390: c485 fbbd c75d 013d f7ab d3bd 6596 2a3d
000003a0: 0d54 9cbd 047a 8cbd 0628 bbbd e4d9 4c3d
000003b0: 7756 6dbd b6c2 2d3e a8fe c93d 7f09 ab3d
000003c0: 3595 b73c 1099 933d 4055 1fbd 911b 60bd
000003d0: 0cd7 09bd d7a1 4d3c 39d2 933d bdd8 8abd
000003e0: db10 4cbd d6a2 0c3e b1fb d3bd c3c0 973d
000003f0: abd0 753d b83c 01bd b968 863d d874 90bd

net.flow_mapping.0.affine_layers.1.net.4.bias f4 [32]
-0.026004393 -0.24701232 -0.13925724 -0.103998795 -0.08210228 -0.4520545 -0.027412426 -0.029160706
-0.007777808 -0.0076461444 -0.011478478 -0.09115359 -0.011494539 -0.32830575 0.15930712 -0.09059198
-0.010489458 -0.08514423 -0.06135693 -0.13972607 -0.097203076 -0.0029603539 -0.03380048 -0.020162418
-0.067857176 -0.009447323 -0.38254035 -0.11659096 -0.04171816 -0.046888072 -0.028811231 -0.013270697
00000000: 2a07 d5bc ccf0 7cbe 7399 0ebe 52fd d4bd
00000010: 3d25 a8bd b073 e7be 0690 e0bc 6fe2 eebc
00000020: fbdc febb 828c fabb 3a10 3cbc bcae babd
00000030: 9753 3cbc b117 a8be 6821 233e 4a88 b9bd
00000040: fadb 2bbc 1960 aebd 6751 7bbd 5a14 0fbe
00000050: 6812 c7bd 7f02 42bb 5f72 0abd a82b a5bc
00000060: b4f8 8abd f2c8 1abc 54dc c3be 3ec7 eebd
00000070: a9e0 2abd b50d 40bd 8805 ecbc 566d 59bc
