param/model_my_data.pth (torch, 86117 bytes, 110 tensors)

net.rotations.0.LU f4 [2, 2]
00000000: 0000 0000 0000 0000 0000 0000 0000 0000
0.0 0.0 0.0 0.0

net.rotations.0.LU_init f4 [2, 2]
00000000: 0000 803f 0000 0000 0000 0000 0000 803f
1.0 0.0 0.0 1.0

net.rotations.0.ones_mat f4 [2, 2]
00000000: 0000 803f 0000 803f 0000 803f 0000 803f
1.0 1.0 1.0 1.0

net.rotations.0.I f4 [2, 2]
00000000: 0000 803f 0000 0000 0000 0000 0000 803f
1.0 0.0 0.0 1.0

net.flow_mapping.0.scale_layers.0.b f4 [1, 2]
00000000: 1842 0d3d a666 22bd
0.03448686 -0.039648674

net.flow_mapping.0.scale_layers.0.logs f4 [1, 2]
00000000: 4f39 60bc c101 81bd
-0.013685538 -0.06299163

net.flow_mapping.0.scale_layers.0.b_init f4 [1, 2]
00000000: 0000 0000 0000 0000
0.0 0.0

net.flow_mapping.0.scale_layers.0.logs_init f4 [1, 2]
00000000: 0000 0000 0000 0000
0.0 0.0

net.flow_mapping.0.scale_layers.1.b f4 [1, 2]
00000000: ca4f 19bd eeac fc3c
-0.03742961 0.030844178

net.flow_mapping.0.scale_layers.1.logs f4 [1, 2]
00000000: 7180 80bd 23a5 4ebd
-0.06274498 -0.050450455

net.flow_mapping.0.scale_layers.1.b_init f4 [1, 2]
00000000: 0000 0000 0000 0000
0.0 0.0

net.flow_mapping.0.scale_layers.1.logs_init f4 [1, 2]
00000000: 0000 0000 0000 0000
0.0 0.0

net.flow_mapping.0.scale_layers.2.b f4 [1, 2]
00000000: 1e8a 043d a843 3fbd
0.03235828 -0.04669538

net.flow_mapping.0.scale_layers.2.logs f4 [1, 2]
00000000: a074 58bd ff1e 80bd
-0.052845597 -0.06255912

net.flow_mapping.0.scale_layers.2.b_init f4 [1, 2]
00000000: 0000 0000 0000 0000
0.0 0.0

net.flow_mapping.0.scale_layers.2.logs_init f4 [1, 2]
00000000: 0000 0000 0000 0000
0.0 0.0

net.flow_mapping.0.scale_layers.3.b f4 [1, 2]
00000000: b804 43bd 846a 223d
-0.047611922 0.039652362

net.flow_mapping.0.scale_layers.3.logs f4 [1, 2]
00000000: 246b 7fbd 8c04 f7bc
-0.062358037 -0.030153535

net.flow_mapping.0.scale_layers.3.b_init f4 [1, 2]
00000000: 0000 0000 0000 0000
0.0 0.0

net.flow_mapping.0.scale_layers.3.logs_init f4 [1, 2]
00000000: 0000 0000 0000 0000
0.0 0.0

net.flow_mapping.0.scale_layers.4.b f4 [1, 2]
00000000: 104e 203d 97d0 62bd
0.039136946 -0.055374708

net.flow_mapping.0.scale_layers.4.logs f4 [1, 2]
00000000: 5da4 00bd 84a2 7fbd
-0.03140675 -0.062410846

net.flow_mapping.0.scale_layers.4.b_init f4 [1, 2]
00000000: 0000 0000 0000 0000
0.0 0.0

net.flow_mapping.0.scale_layers.4.logs_init f4 [1, 2]
00000000: 0000 0000 0000 0000
0.0 0.0

net.flow_mapping.0.scale_layers.5.b f4 [1, 2]
00000000: 7422 3dbd e668 b13c
-0.046175435 0.021656465

net.flow_mapping.0.scale_layers.5.logs f4 [1, 2]
00000000: 1596 7fbd bbde e4bd
-0.06239899 -0.11175295

net.flow_mapping.0.scale_layers.5.b_init f4 [1, 2]
00000000: 0000 0000 0000 0000
0.0 0.0

net.flow_mapping.0.scale_layers.5.logs_init f4 [1, 2]
00000000: 0000 0000 0000 0000
0.0 0.0

net.flow_mapping.0.scale_layers.6.b f4 [1, 2]
00000000: 76d9 213d c0b0 fcb9
0.039514028 -0.00048196875

net.flow_mapping.0.scale_layers.6.logs f4 [1, 2]
00000000: ce76 e5bd 5153 80bd
-0.11204301 -0.06265891

net.flow_mapping.0.scale_layers.6.b_init f4 [1, 2]
00000000: 0000 0000 0000 0000
0.0 0.0

net.flow_mapping.0.scale_layers.6.logs_init f4 [1, 2]
00000000: 0000 0000 0000 0000
0.0 0.0

net.flow_mapping.0.scale_layers.7.b f4 [1, 2]
00000000: 828c 0c3d fec2 2bbd
0.034313686 -0.041934006

net.flow_mapping.0.scale_layers.7.logs f4 [1, 2]
00000000: 72d9 77bd 0ee4 2ebe
-0.060510106 -0.17079183

net.flow_mapping.0.scale_layers.7.b_init f4 [1, 2]
00000000: 0000 0000 0000 0000
0.0 0.0

net.flow_mapping.0.scale_layers.7.logs_init f4 [1, 2]
00000000: 0000 0000 0000 0000
0.0 0.0

net.flow_mapping.0.affine_layers.0.net.0.weight f4 [24, 1]
00000000: 4be5 debe 7652 d2bc 020b d8be 8dd3 d7be
00000010: 35ab bbbe c0d2 0abe 79ff f9be 41b0 343f
00000020: c416 2b3f f7de aabe 0a73 d83e 613a e1be
00000030: dfc3 15bf 5e2e 78bc 002b 6d3e e063 36be
00000040: 0ce0 a53e be95 bdbe e8e8 f73e a206 66bd
00000050: 1870 6e3e 2ba1 883e 1025 fc3e b751 0e3f
-0.43534312 -0.025674086 -0.42195898 -0.42153588 -0.36654058 -0.13556957 -0.48827723 0.7058144
0.6683161 -0.33373234 0.42275268 -0.43989852 -0.58502 -0.015147774 0.23160934 -0.17811537
0.32397497 -0.37028307 0.4841988 -0.05615867 0.23284948 0.2668546 0.49247026 0.55593437

net.flow_mapping.0.affine_layers.0.net.0.bias f4 [24]
00000000: 5775 d83e d742 093e 57a8 bb3e 0b28 c9be
00000010: 38bf c8ba c204 a2be d92c 23bd a31b b83e
00000020: 1e17 82be 9928 73be ece6 cf3d efcf d93e
00000030: 9b9f 113e 8732 0bbe 2030 a23e 668b 613e
00000040: cee8 333e f114 e53e 2268 edbe 71e5 903d
00000050: 8113 1dbf 56a8 cebe 0b83 02bf 4556 1ebf
0.42277023 0.13404404 0.3665187 -0.39288363 -0.0015315777 -0.31644255 -0.039837692 0.35958585
-0.25408262 -0.23745956 0.10151467 0.42541453 0.14221041 -0.13593493 0.3167734 0.22025833
0.17569277 0.4474254 -0.4636851 0.070750125 -0.61357886 -0.40362805 -0.50981206 -0.61850387

net.flow_mapping.0.affine_layers.0.net.2.weight f4 [24, 24]
00000000: 5d80 3e3d eb0f 33bd bc64 7dbd 3acf 9e3d
00000010: 9404 bfbd a9b5 64bd 2875 ee3b 176b c73d
00000020: 3e76 d93d 35e4 383d 0725 103e 94cb 603c
00000030: 02cc 5b3d 62ed 84bd 3e11 89bd c155 9dbd
00000040: 1603 ed3c ef12 d0bd 57da 1cbd 4d4f 0a3e
00000050: 4b9a 4bbd 0664 c6bd dcaf f53d 65dc 2e3e
00000060: 1d20 ff3d e07b a43d 6471 033e 6db6 e43c
00000070: a0e2 59bd 865c 69bd 330d 1a3d cb55 ffbd
00000080: 8442 693c 4737 68bd 2cba f13c bfb6 883d
00000090: 11ef fc3d 2969 78bd c053 03be c760 e33d
000000a0: 3220 e7bd e5b8 ee3d bde0 8abc 4242 b3bd
000000b0: 4304 a63d 9829 573c 30e0 02be c19e e5bd
000000c0: 3f4a 06bd 5047 053e eca9 df3d 88cd 2f3d
000000d0: 908f f6bd c8e6 083e d495 07bd b571 3c3d
000000e0: e0d6 183e 4256 99bd 2ece 5d3d 54f9 033e
000000f0: 5e3c cc3d 80f5 053d 9844 82bd fd57 063e
00000100: a700 92bc 0e31 b63d 8dd9 7abd d3e2 84bd
00000110: 2d94 263e 2b00 ef3d d66e 133b 79a4 1f3e
00000120: 1065 b53d f01b e8bd 14b5 2d3d 492c 48bd
00000130: 7a6a 7d3d 4361 93bd 057f 05bc 0747 a6bd
00000140: 3359 383d 77f7 783d c621 393d 69ba f2bd
00000150: b23c 7b3d ccc3 8e3d 2089 1ebd 14e4 b43d
00000160: 043d 24bc af0a ae3d c26e c43d 5560 0c3e
00000170: f63e c4bc fe5b 103d 15b8 fbbd 467e 0cbe
00000180: dbac 84b9 d3f7 823d 0011 fcbd e7d1 053e
00000190: 246e 343a 3e08 09bd d484 01be 97c9 a93c
000001a0: 175d 4b3d f874 0abd 4209 a73a f331 773d
000001b0: 9d0b b53d d1cc d13d ee67 d1bd 018b e63d
000001c0: 1c02 933d a5fc 5b3d dc98 d7bd 0abb 84bd
000001d0: 1165 703d 3995 ea3b f149 713d 7715 edbd
000001e0: 2b70 ee3c 0c6a e8bd 17d7 00be 8dda d9bd
000001f0: b3be df3c e472 5d3d 8177 43bd bada 8d3d
00000200: 672e 17be 98bc 823d 0cfb c23c a952 69bd
00000210: 1aae a63d 63e1 03bc fdce 1e3d d908 69bd
00000220: c258 ebbd 6ac7 053e 68d6 edbb aa78 88bd
00000230: 8754 c6bd 1392 a43d 28c5 753d 6130 9bbd
00000240: 01b3 613d 6646 ce3d ed01 f83d bd32 1d3d
00000250: 6ac6 0dbd cec0 503d bb1c a73d 3612 eb3c
00000260: 22d4 2c3e 75ba 09bd 7fa2 243e 132b bd3d
00000270: f85a 583d 9b41 f4bd a06b 9f3d 121f ce3d
00000280: 4a85 5c3b f959 cf3d b030 69bd 581a 013c
00000290: 24b0 573d f0a8 a2bd 76d1 afbd 0551 af3d
000002a0: d096 aabb 0e83 08be bd6c 603d 296b 073e
000002b0: c488 bb3d e7bb adbc 0474 88bc 3b28 3ebd
000002c0: 9046 d1bd cddb d4bd 519f bcbd c88c 7bbd
000002d0: d69d ccbc 9c01 b1bd fc23 cf3a d6bb e93d
000002e0: 6fca 89bd 612a 083e 42bc 8ebd 3f82 0bbe
000002f0: 7307 a93d fbcd a23d ef2a 913d ba48 6bbc
00000300: 7604 4b3d e3a4 37bd fd11 b63d 7ed4 6bbb
00000310: 16a1 acbd 2d5c dfbd 618c ad3d 5d77 f0bd
00000320: 5443 a5bd d783 7c3c 0e0f 2b3c 8232 6d3d
00000330: d535 68bc 58b9 bdbd bd12 d4bd c336 3cbd
00000340: 43c9 c6bc 51c7 febd 8d2c 6e3d 76ac 753d
00000350: c853 6cbd af24 bebd 441e c8bd 7eb7 a13d
00000360: b550 52bd 7008 7a3d e564 9c3c 67ad 6dbc
00000370: e56d a0bd 49d4 853d 4c07 95bd d3f4 cc3d
00000380: a2f5 0abe c956 c63d 5d5e 73bb bd1f 8f3d
00000390: e320 57bc f8e1 a13d 0c5a 44bc 21ea 65bd
000003a0: 7a21 8bbd fb78 083e 0406 453d fab6 173d
000003b0: a3b7 a53d 8999 99bd 5b00 fabd 9a10 b53d
000003c0: c696 e03d ef19 85bd b65c 8b3b 870b 993c
000003d0: ee2d ea3d c205 90bd 2532 b73d 3b78 333d
000003e0: 7489 64bd 07cb d13d 94e3 a53d 902d df3b
000003f0: 277f fbbd 290b ddbb 127c 35be f43e f6bd
0.046509136 -0.043716352 -0.061863646 0.07754369 -0.09327045 -0.055837307 0.0072771497 0.09737223
0.10618256 0.04513951 0.14076625 0.013720412 0.053661354 -0.0649059 -0.06692742 -0.07682372
0.028932136 -0.10159861 -0.038294163 0.13506813 -0.049707692 -0.09687047 0.11996433 0.17076261
0.12457297 0.0803144 0.12836224 0.027919019 -0.053194642 -0.056973003 0.037610244 -0.124675356
0.01423705 -0.05669334 0.029507719 0.06675481 0.12350286 -0.060647164 -0.12824917 0.11102443
-0.11285438 0.116563596 -0.016952867 -0.08752872 0.081062816 0.013132475 -0.12780833 -0.112119205
-0.03278565 0.13015485 0.10921082 0.04292062 -0.12039101 0.13369286 -0.03310187 0.046006877
0.14925718 -0.074871555 0.054151706 0.1288808 0.099724516 0.03270483 -0.063607395 0.13119502
-0.017822577 0.08896075 -0.06124263 -0.06488576 0.16267462 0.11669954 0.0022496483 0.15590085
0.08857167 -0.11333454 0.042409018 -0.04887036 0.061869122 -0.071962856 -0.00814796 -0.08119016
0.045006942 0.060782876 0.045198224 -0.11851961 0.06133718 0.06970939 -0.03870499 0.08832565
-0.010024313 0.084981315 0.09591438 0.13708623 -0.023955803 0.03524398 -0.1229097 -0.13720044
-0.0002530579 0.06394925 -0.1230793 0.13068353 0.00068828673 -0.033455126 -0.12648326 0.020726008
0.049649324 -0.033802956 0.0012743848 0.06035037 0.08840106 0.10244144 -0.10224901 0.11256982
0.07178137 0.053707737 -0.105272025 -0.06480987 0.058690134 0.007158902 0.058908407 -0.1157636
0.02910622 -0.11348352 -0.1258205 -0.106373884 0.027312612 0.054064646 -0.04772139 0.069264844
-0.14763795 0.06383628 0.02380135 -0.056963596 0.08138676 -0.008049342 0.03877162 -0.056893203
-0.114915386 0.13064352 -0.007258225 -0.0666364 -0.09684091 0.08035674 0.060002476 -0.07577587
0.055102352 0.10072021 0.12109742 0.038378466 -0.03461305 0.050965123 0.08159777 0.028695207
0.16877797 -0.033625085 0.16077612 0.092367314 0.05282113 -0.11926576 0.077842 0.1006452
0.0033648782 0.10124583 -0.056931198 0.007879816 0.052658215 -0.079423785 -0.085848734 0.08560375
-0.0052059665 -0.13331243 0.0547912 0.13224472 0.09156945 -0.021207763 -0.016656883 -0.046425086
-0.10218537 -0.10393486 -0.09210075 -0.061413556 -0.024977606 -0.08642885 0.0015803571 0.1141278
-0.06728064 0.13297416 -0.06969501 -0.13623904 0.08253374 0.07949444 0.07088267 -0.014360601
0.0495648 -0.044834983 0.0889015 -0.003598481 -0.08429162 -0.10906253 0.08474041 -0.11741517
-0.080694824 0.015412292 0.010440601 0.057909496 -0.014172991 -0.09263867 -0.103551365 -0.045950662
-0.024265891 -0.1244036 0.058147956 0.059978925 -0.057697088 -0.092843406 -0.09771398 0.078963265
-0.0513465 0.061043203 0.019091079 -0.014506674 -0.07833461 0.06534631 -0.072767824 0.10007634
-0.13570264 0.09684522 -0.0037135102 0.069884755 -0.013130399 0.07904428 -0.0119843595 -0.056131486
-0.067934945 0.133274 0.04810144 0.037039734 0.080916665 -0.07499988 -0.12207099 0.08841057
0.10966258 -0.06499087 0.0042529954 0.018682254 0.11434542 -0.07032348 0.08945111 0.043815833
-0.055795148 0.102438025 0.08100048 0.0068108514 -0.12280112 -0.006745715 -0.1772311 -0.12023726

net.flow_mapping.0.affine_layers.0.net.2.bias f4 [24]
00000000: db51 693c ee5c 943d 568a a53c 8a3d 443d
00000010: dae8 dcbd 5f63 d83b b761 61bd 4855 353d
00000020: 48df a0bd 7afc 883d 815e 06be a6b9 103d
00000030: 0508 503d 2a66 ca3d a6d6 95bd a1cc fdbc
00000040: 1811 92bc e02a 2b3e fdd2 ca3d d77f 05bc
00000050: d733 b3bd 2d45 05bd 2ffe 8dbd 62ff 133d
0.014240707 0.072442874 0.020207565 0.04791025 -0.107866004 0.006603643 -0.05502483 0.044270784
-0.078550875 0.06688781 -0.13121988 0.0353333 0.050788898 0.098827675 -0.073163316 -0.030981364
-0.017830417 0.16715574 0.09903524 -0.008148155 -0.08750122 -0.032536674 -0.06933247 0.036132224

net.flow_mapping.0.affine_layers.0.net.4.weight f4 [24, 24]
00000000: 1661 ae3c b1f1 51bc 2bdd cf3d 5693 74bd
00000010: 35f8 8e3d c78a 48bd b0df 903c 5722 003e
00000020: bd96 1dbc 69a5 3a3d 6a85 efbd f9d4 5ebd
00000030: b96b 94bd 6d02 053e 7ce3 82bd 6763 1c3d
00000040: ceb5 f6bc 9ff5 eebd b7ef f7bc e388 67bc
00000050: c56c c0bc 5c78 d63d a2f1 f43d 431d a9bc
00000060: 8b35 9abd 3280 113d 0220 0f3c 52d6 c4bd
00000070: 249b e1bc e6fa cbbd 9b1d c43d b1a6 e03d
00000080: ae29 fabc a5f8 0abc e888 553d 4dbd 17bd
00000090: 0b0a cd3c e703 183d 920d 613d 45d3 1fbe
000000a0: a4ee 9c3d cea0 1ebd 27b2 9f3d 8ca5 393c
000000b0: 417f e3bd adb0 f23d 3563 563c 2401 e03d
000000c0: 9db0 d63d b101 a33c e411 883d 5321 20bd
000000d0: 9266 ad3d e011 9abd 6d35 153e d02f 0d3d
000000e0: 1dd4 aebd f944 4b3d 1b59 c33c 3159 923d
000000f0: 5ce0 e4bd 90d6 043d 335c ff3d 2b78 233e
00000100: 6d7a 09bb 79ad 003e b984 ff3d 439d a43c
00000110: 7c50 ae3c e289 a23d f947 a63c f7e4 febd
00000120: ded1 b23d 478f c2bc 7d52 fabd e7a3 a33c
00000130: a93a b43d 386c 43bd 0128 bd3d 7629 2e3d
00000140: 9653 4fbc fbc4 e13d a929 f2bd 7a46 92bd
00000150: f1c0 cc3d 6b22 aabd b777 a8bc 520c fdbd
00000160: 1b36 eebc 8b35 bbbc decf 763d a372 fcbd
00000170: 6c44 823d 1274 01be fa32 9ebd 2eb4 a9bd
00000180: 33e9 6cbd 411c 903d 5913 ccbd 7b91 b33d
00000190: 212d aebd 247d 89bb 4a03 0a3d ab41 0bbe
000001a0: 47c1 7fbd 7425 88bd 92b3 d8bd 4d26 9b3b
000001b0: 7d70 a03d 62a4 03be e206 243d db07 173c
000001c0: 5236 bebd 115c c0bc c2ef a6bd a3e1 5e3c
000001d0: 8712 36b7 b526 323b c765 f3bd f568 83bd
000001e0: f594 24be ca66 413d 9ff0 0b3d cac5 ae3d
000001f0: f17e 023e 8254 1e3d 7082 893c c872 aabd
00000200: fb18 c0bd cda0 b7bd 623f d7bd a83d 0fbd
00000210: ea13 8c3d 5c39 cebd eec3 27bd 9dfd 2bbd
00000220: 2740 133d 0053 30bc a507 233d da4a 013c
00000230: 20fa 963d ffa4 a93c 80b6 1abe 6f62 f43d
00000240: 9729 8f3d 444c fbbc 9cda fbbd fdf3 163b
00000250: 5f19 04be fd28 3f3b a147 80bd 2926 dc3c
00000260: defe 01be abeb 0b3e 604e 89bd 0fcb 4b3d
00000270: 2100 9fbd e2b7 fb3b d806 273d 480d 9f3a
00000280: 4ab8 13be f1eb cdbd b625 e13d 6a86 823d
00000290: 1c2f edbd c4c6 0e3d 2b08 eabd 876e f7bd
000002a0: 5ee3 cebd 286b 9ebb 64b9 3e3d b440 f83d
000002b0: 9b83 903d 0ceb aebc 5e0b c93d 88b8 5abd
000002c0: 172e 973d 1915 30bd 30c9 b1bd 6919 b93d
000002d0: 6a4a e2b9 d21d bfbc b99a c3bd 5511 9fbd
000002e0: 64ab 9bbd 63f0 dabd 9c15 923d e71b db3d
000002f0: 863e 4cbd a199 bcbd 9dea f73d 4d4b 56bd
00000300: c423 e33c f6c2 083e 4fdd 0fbe b665 eebd
00000310: 7d96 0ebd 5aae b83d 6f07 df3c 8218 d6bd
00000320: 17c1 e2bc 5b04 adbd efd0 ff3c fd1f bd3d
00000330: 3f55 b33d 83cd 073e efca f43d b20e 913c
00000340: ff08 ab3d b5e5 d0bd 4cfb debd b206 1f3c
00000350: 9c09 a5bd d654 ebbd fe3c dfbd 645f 0c3e
00000360: 3915 063d 9af5 adbc 25a7 e4bd 09c9 c8bd
00000370: 0779 0abc d7ad fbbc 684b f0bd 8777 e8bd
00000380: 9e4f 8c3a 138a 9ebd 8e1a 9bbc 8cd6 05be
00000390: b952 05be 6cb6 553d 0e84 c43d eae2 f83c
000003a0: 2ca3 21bd 0313 eebd 803a d53c 8fb7 febd
000003b0: 43c5 abbd da4b f43d 247e 573d 0c19 923d
000003c0: 8afa f0bd 4362 bb3d 58a9 c43d d692 f23d
000003d0: 316e 9bbd 53b2 01be fe3a d7bd 4766 983d
000003e0: f60b a8bd 2f09 83bd 5aa7 b83d cc31 43bd
000003f0: e7aa b0bd bbfc 08be 9f11 f93d 9924 643d
0.021286529 -0.012813971 0.10149606 -0.059710823 0.069809355 -0.048960473 0.017684788 0.125131
-0.009618458 0.045567904 -0.116953686 -0.054402325 -0.07247109 0.12989207 -0.063910455 0.038180735
-0.030115988 -0.11667942 -0.030265672 -0.014131757 -0.023489365 0.104721755 0.1196015 -0.020643836
-0.07529744 0.035522647 0.008735659 -0.09611191 -0.027539797 -0.099599645 0.09575959 0.10969294
-0.030537453 -0.008482133 0.052132517 -0.037045766 0.025029203 0.037113097 0.054944582 -0.15607937
0.076627046 -0.038727574 0.07797652 0.011330973 -0.11108256 0.118501045 0.013085176 0.109377176
0.10482905 0.019898267 0.06644037 -0.03909428 0.08466829 -0.07522941 0.14571162 0.034469426
-0.08536551 0.049626324 0.0238462 0.07145918 -0.11175606 0.032431185 0.124687575 0.15963809
-0.0020977512 0.12566175 0.12476487 0.02009452 0.021278612 0.07936455 0.020297991 -0.12446015
0.08731435 -0.02374996 -0.12222765 0.019975616 0.08800251 -0.047710627 0.09236146 0.04252001
-0.012654206 0.11023899 -0.11824352 -0.071423486 0.09997738 -0.08307346 -0.020564897 -0.123558655
-0.029078534 -0.02285268 0.06025683 -0.12326553 0.06360707 -0.12641934 -0.07724567 -0.0828632
-0.057839584 0.07036639 -0.09964628 0.087679826 -0.085047014 -0.004195826 0.033694543 -0.13599269
-0.062440183 -0.066477686 -0.10581125 0.0047347904 0.078339554 -0.12855676 0.040045626 0.0092181815
-0.092877045 -0.0234814 -0.08151199 0.013603601 -1.0852359e-05 0.0027183716 -0.11884647 -0.06416503
-0.16072448 0.047217168 0.03416502 0.08533819 0.12743737 0.03865481 0.01678583 -0.08322674
-0.09379765 -0.08966217 -0.10510136 -0.03497091 0.06839736 -0.10069534 -0.040958337 -0.04198991
0.035949852 -0.010761976 0.039802212 0.007891381 0.07371926 0.02070856 -0.1510868 0.11932837
0.069903545 -0.030676015 -0.12297556 0.0023033612 -0.12900303 0.0029168718 -0.06263662 0.026873665
-0.1269488 0.13664119 -0.06704402 0.0497542 -0.077636965 0.0076818326 0.04077801 0.0012134695
-0.1442577 -0.10054768 0.10993521 0.06373294 -0.11581251 0.034857526 -0.11427339 -0.12081628
-0.101019606 -0.0048345514 0.04656352 0.12121716 0.07056352 -0.021352313 0.09816621 -0.05339864
0.07381838 -0.04298887 -0.086809516 0.0903805 -0.00043161522 -0.02332965 -0.095509954 -0.07766978
-0.076010495 -0.106903814 0.07133028 0.10698681 -0.049864314 -0.0920899 0.12105296 -0.052317906
0.027727015 0.13355622 -0.14049266 -0.116404936 -0.034811486 0.0901763 0.027225224 -0.10453893
-0.027679963 -0.08448096 0.031227557 0.09234617 0.08756494 0.1326199 0.11952769 0.017707203
0.08351325 -0.10200063 -0.10887775 0.009706186 -0.080584735 -0.114907905 -0.10900305 0.13708264
0.032735083 -0.021235276 -0.11164693 -0.098039694 -0.008451707 -0.030722542 -0.117331326 -0.11350923
0.001070488 -0.07741179 -0.01893356 -0.13070124 -0.13019837 0.052175924 0.095955 0.030381639
-0.039462253 -0.1162472 0.026028872 -0.12437355 -0.08387234 0.1192853 0.05261053 0.071336836
-0.117665365 0.09149601 0.09602612 0.11844413 -0.07589377 -0.12665682 -0.10509299 0.07441383
-0.08205406 -0.06398236 0.09016295 -0.047654912 -0.08626347 -0.13377659 0.12161564 0.055698965

net.flow_mapping.0.affine_layers.0.net.4.bias f4 [24]
00000000: 0a4f dcba 21a1 843d a747 d13a 75e9 e93d
00000010: 8392 a63c 0548 19be 58d9 843d f332 163c
00000020: 4e2b 1bbe 7237 08be d5b2 333a 7a6a 3a3d
00000030: d718 a33d ee2a 05be e14a fd3d 42b4 57bd
00000040: f8c1 2bbe 396a a33d 10ae 003e 0989 fabc
00000050: 0b76 283f 10bb c43d 637d 733d 47f9 2fbd
-0.0016808223 0.064760454 0.0015966789 0.114214815 0.020333534 -0.1496888 0.064867675 0.009167421
-0.15153238 -0.133024 0.0006854956 0.0455117 0.07963722 -0.13004658 0.12367798 -0.05266214
-0.16773212 0.07979245 0.125664 -0.030582922 0.6580512 0.09605992 0.05944575 -0.04296234

net.flow_mapping.0.affine_layers.0.net.6.weight f4 [2, 24]
00000000: 59ae 0abd 5d39 553d fe8a 18be abca ffbd
00000010: dd30 afbd 7838 b73c 2b53 043d 7f40 0ebd
00000020: 7ac1 b43c 6307 a3bb 1a9e 433d 7604 743c
00000030: 8c67 22be 2c56 f0bd 9e05 05be 021b 033e
00000040: c752 20be 96b8 803b a7af 97bb 87ad 32be
00000050: 43bd f63c 0550 18bb a042 13be 19dd c4bc
00000060: c5d1 4cbd 2525 01bd b35d 87bc bf79 00bc
00000070: a441 5ebd ab87 0dbe 050b ca3c 307e 8ebd
00000080: 5290 c63c 7586 7e3d 72fb 0bbe f5ba ae3d
00000090: cb9c e1bd c480 8c3d e1f6 01be 4886 9dbc
000000a0: e941 1dbf 4bf7 cbbd f578 26bd 50d2 f7bd
000000b0: 4c39 dabe ac30 9ebc 802f a23d d560 2abd
-0.033857677 0.05205666 -0.14896771 -0.12489828 -0.08554242 0.022365794 0.032305878 -0.034729477
0.022064913 -0.004975246 0.0477582 0.014893642 -0.15859812 -0.11735186 -0.12990424 0.12803271
-0.15656577 0.0039282544 -0.0046290937 -0.17449008 0.030119544 -0.0023241055 -0.14380884 -0.024031209
-0.05000474 -0.031529564 -0.016524171 -0.0078415265 -0.05426182 -0.13821284 0.024663458 -0.06957662
0.02423874 0.062139947 -0.13670138 0.08531753 -0.11016234 0.068604976 -0.12691833 -0.01922907
-0.61428696 -0.09959277 -0.040642697 -0.12100661 -0.4262184 -0.019310318 0.07919216 -0.041596252

net.flow_mapping.0.affine_layers.0.net.6.bias f4 [2]
00000000: ff42 973d 1c14 04bd
0.07385825 -0.03224574

net.flow_mapping.0.affine_layers.1.net.0.weight f4 [24, 1]
00000000: 6f8a 6d3c 4a99 14bc 6d2f 14bf 6d16 d13e
00000010: 29cb 05be 4c8f 27bf 161e 8f3e f726 18be
00000020: b244 d2be d594 c83d 530a 0fbe 00ec 9cbe
00000030: 47ad 873e 00f8 743e 18be 353f 611c 43be
00000040: 7d9b 85bd 6d7f 203f 6c1b 35be 1932 efbd
00000050: 98d0 b93d 1986 b23e 8136 4ebd 1a54 573d
0.014498337 -0.00906975 -0.57884866 0.40837422 -0.1306578 -0.6545303 0.2795264 -0.14858614
-0.41068035 0.097940125 -0.13968782 -0.30648804 0.26499388 0.2392273 0.70993185 -0.19053794
-0.06523798 0.62694436 -0.17686242 -0.11679477 0.09072989 0.34867933 -0.050344948 0.05257044

net.flow_mapping.0.affine_layers.1.net.0.bias f4 [24]
00000000: 886c 24bf 0f8a c7be 38ff 9d3e 5ccc 2b3e
00000010: 0180 24bd 42df 9abe 6c11 8c3d 2d6f 173f
00000020: b578 2b3f a20c b63e e7da e5be ca4a 0f3f
00000030: 377a ba3e 6ec2 b23e d6a9 0d3f 70a8 1a3e
00000040: 992c 2a3d 8f6d 49bc 2fdd 063f 5e55 c43e
00000050: 15a1 2b3f 9d89 c73e 2b1e 13bf d224 d0bd
-0.64228106 -0.38972518 0.3085878 0.16777176 -0.040161137 -0.30248457 0.068392605 0.59154016
0.6698106 0.35556513 -0.44893572 0.55973494 0.36421368 0.34913963 0.55337274 0.15103316
0.041546438 -0.012294187 0.5268125 0.3834638 0.67042667 0.38972178 -0.5746791 -0.10163273

net.flow_mapping.0.affine_layers.1.net.2.weight f4 [24, 24]
00000000: 3eae c63d 0e03 6a3c 5d01 5cbd fd0b 803c
00000010: fe0a 2e3d b007 9c3d 9b24 8b3c 9f28 613d
00000020: 19d9 6d3d 635a 9b3d d120 0ebc 95e5 533d
00000030: 6418 763d 3a22 483d ec11 fabd bf00 c3bd
00000040: 1b57 42bd 6b5d 04be 50cf 1d3d 092c e43d
00000050: debb 92bd e70e f63d 9f33 f33c a079 00be
00000060: eed9 363c a6a3 3ebd cf94 243d 241e e43d
00000070: c980 0cbe a6cc ef3c 9c79 fd3b 052c 79bc
00000080: ac18 d3bd 0c89 f33b e2ab 433c acac 25bd
00000090: 7cd4 143e 62bd 133e b70f 0fba 4f79 babd
000000a0: d108 6ebd d72c 193e ae92 aa3a a116 a33d
000000b0: 16df 0d3e aa4d cd3d 0a81 f83b 190c 96bd
000000c0: ae9d 8c3d 80f9 5b3b 9223 0cbe c45f 0dbd
000000d0: 9ce7 6f3d 0102 d13d 452f 753d f3cd e33d
000000e0: f947 92bd f5b4 493d 875b cf3d 3f92 563d
000000f0: 27e5 f03c c020 b7bd ed2f e33c 867b eebd
00000100: 3313 66bd ebaa 42bc c060 abbd 080e 47bd
00000110: 1771 683c 20c9 003e 91e4 9b3d ef59 833d
00000120: e2dd 783c e7e0 cebd baad ea3d e69e 96bd
00000130: dd9c bbbd 40c3 a83d 0498 e13c 3641 b43d
00000140: 989b cc3d 3188 c5bc daae 52bb 4a95 99bd
00000150: 8832 d53d 3fcf bb3d 1b16 29be d33c 1d3c
00000160: 78fc 97bc 2cc6 92bd 02b9 003e 8034 b0bd
00000170: ca78 f23c 8ce9 703d a464 aa3c e6d7 bbbd
00000180: e89f 1abd 9a00 8dbd f35d ca3d bf66 803d
00000190: 1537 06be 7854 a33c 4ed7 a9bc 20cf 40bd
000001a0: 7129 c3bc 5714 95bd 72ee d6bd 2553 893d
000001b0: 0187 333d 2ff2 1a3e e653 cbbc cdb0 7f3d
000001c0: 1ebf 843c 79ea 2f3e ed7a af3c 7580 c93d
000001d0: 2d0c e03d 4dfc b43d 3f97 05be 1bec 673c
000001e0: 2423 503d 8366 c63d 2833 963c 956a ce3b
000001f0: 5f63 e93d 11c1 be3c 8db5 a9bd cb60 683d
00000200: abba 0cbe fe2c aa3d c50c 2b3d f4f4 b8b9
00000210: f079 063e 2d11 88bd 22de 90bd 0706 0a3e
00000220: 6fd1 8b3d 5f75 7dbd 71f9 ccbd 8df7 c0bc
00000230: 6925 883c 32ec 043e 190b 9bbd f52f 88bd
00000240: a8fc 06be 96e7 dabd bb0d 4cbc 392f 74bd
00000250: 104c ae3d b59d e2bd a56e 76bd 6523 00be
00000260: 7ec1 cc3d 9862 843c 310d 3c3d e5dd 083d
00000270: d34d 003d 4330 bd3c e065 b9bd 8156 6d3d
00000280: 32e0 74bd e520 ae3d 2668 813d 1f95 42bd
00000290: e9b2 58bd e172 84bc 20fa b93d 400d e1bd
000002a0: 5f17 bbbd 5a0e aebd f35d fcbc 4829 bb3d
000002b0: 7c0b b8bd ed3e e2bd e2f1 89bd c870 aa3d
000002c0: 6d3f 8fbd c33d 0bbe ab59 0cbe 460e 6cbd
000002d0: 8a74 c9bc 3fed 823d 3069 ba3b 1c3d d23d
000002e0: 84dd cf3d cd10 ec3c 0a01 873a de27 0c3e
000002f0: eb90 ebbc 7950 c7bd 42e7 a93c 2965 573d
00000300: b5be 323e 228b b7bc aaa3 553d ba01 963c
00000310: ab89 163d 819c c53d 39a6 a9bd d9f3 8cbc
00000320: f185 99bd 03cd 183e be75 0b3e 8bf8 2cbc
00000330: 0fe5 d53c 54c9 57bc 0d38 e83d c121 5bbd
00000340: 2013 073e fa05 253e 89af 01be e9de ba3b
00000350: 08b3 2e3e 3ef3 1bbd 13ee 993d 117d 0d3e
00000360: 4d6e 9e3d 2fee e03d c790 1e3d 9660 4bbd
00000370: 28a3 4dbc d7cf dbbc 20e0 7cbd 6b0b 813d
00000380: 6e94 d03d 734a 183d 5c5c a23d f2f8 5bbd
00000390: fb95 253d 3e50 0a3e bbc4 393b d140 d7bd
000003a0: e2c1 e3bc c950 15ba 8c0a a93b cf8f 5dbc
000003b0: 16cd 74bc bcdc cfbd 2cb5 0bbe 194d ddbd
000003c0: 38c0 9dbd ea42 46bd 910f d3bd cab8 01be
000003d0: 35d3 0c3c fe01 09be cd16 63bd 594b f1bd
000003e0: 47a8 ea3c a60b 27bb a905 093e 15e0 3c3d
000003f0: 42e7 8fbd 3a3a ce3c eb03 253d e0ac 4bbd
0.09701203 0.014282955 -0.053712238 0.015630716 0.04249095 0.07618654 0.016985228 0.05497038
0.05806837 0.07585599 -0.008674816 0.05173262 0.060081854 0.048860766 -0.122104496 -0.09521627
-0.04744635 -0.12926261 0.038527787 0.111412115 -0.07164739 0.12014561 0.0296877 -0.12546396
0.011160357 -0.046542786 0.040180977 0.11138561 -0.13721003 0.029272389 0.007735444 -0.015208249
-0.1030744 0.0074321087 0.0119428355 -0.040447876 0.14534181 0.14427713 -0.0005457359 -0.09105169
-0.058113877 0.14958511 0.0013013685 0.079633005 0.13854632 0.10024579 0.007583742 -0.07326526
0.068660125 0.0033565462 -0.13685444 -0.034515157 0.05857049 0.1020546 0.059859533 0.11123266
-0.07142634 0.04924484 0.10124879 0.052385565 0.029406143 -0.089417934 0.027732814 -0.11644654
-0.056170654 -0.01188157 -0.08368063 -0.048597366 0.014187119 0.12576723 0.07611955 0.06413638
0.01518962 -0.101014905 0.11458917 -0.07354526 -0.09160779 0.08240366 0.027538307 0.088015005
0.09990615 -0.024112793 -0.0032147677 -0.07499178 0.10410029 0.091703884 -0.16512339 0.009597021
-0.018553004 -0.071667045 0.12570575 -0.086037636 0.029598612 0.058816478 0.020799942 -0.09172039
-0.037750155 -0.0688488 0.09881201 0.06269597 -0.1310695 0.019937739 -0.020732548 -0.04707253
-0.023823472 -0.0727927 -0.104946986 0.06705312 0.04382992 0.15131448 -0.02482028 0.06242447
0.016204413 0.17179288 0.02142092 0.09838954 0.10939822 0.08837185 -0.13045977 0.014155413
0.050814763 0.09687521 0.01833494 0.0062993267 0.11395907 0.02328542 -0.08286581 0.056732934
-0.13743083 0.08309363 0.041760225 -0.0003527772 0.13132453 -0.06643901 -0.070736185 0.13478862
0.06827056 -0.061879512 -0.10008515 -0.023555541 0.016619401 0.12980726 -0.07570476 -0.06649772
-0.13182318 -0.10688703 -0.0124544455 -0.059615348 0.085106015 -0.110652365 -0.060164113 -0.12513502
0.09997843 0.016160294 0.045911018 0.03341474 0.03132422 0.023094302 -0.09052634 0.057943825
-0.05978412 0.08502368 0.06318693 -0.047505494 -0.052904997 -0.01616806 0.09080911 -0.10988855
-0.09135317 -0.08498831 -0.030806517 0.09138733 -0.089865655 -0.110471584 -0.067355886 0.083222926
-0.069945194 -0.13597779 -0.1370608 -0.0576308 -0.024591703 0.06392907 0.005688809 0.10265562
0.101496726 0.028816605 0.0010299992 0.13687083 -0.028755626 -0.09732146 0.020740155 0.05258671
0.17455561 -0.02240521 0.052158035 0.01831137 0.036752384 0.096489914 -0.082836576 -0.01720612
-0.074962504 0.14921956 0.13619134 -0.010557304 0.0261102 -0.013170559 0.11338816 -0.053498987
0.1319089 0.16115561 -0.12664618 0.0057028425 0.17060483 -0.03807377 0.07516112 0.1381724
0.07735882 0.1098293 0.03871229 -0.04965266 -0.0125511065 -0.026832504 -0.06173718 0.06301006
0.10184561 0.037180375 0.079277724 -0.05370421 0.040426236 0.13507172 0.002834602 -0.105104096
-0.027802411 -0.0005695937 0.005158728 -0.013523056 -0.014941474 -0.101495236 -0.1364333 -0.10805721
-0.077026784 -0.048403658 -0.103057034 -0.12668148 0.008595278 -0.13379666 -0.055441666 -0.117819495
0.028644694 -0.002548912 0.13381065 0.04611214 -0.07026531 0.025174249 0.04028694 -0.049725413

net.flow_mapping.0.affine_layers.1.net.2.bias f4 [24]
00000000: 9404 debd 17a7 3b3d bd30 42bd 5941 943d
00000010: 4a3c 5c3d 9423 edbd 0820 00be 03bf 803c
00000020: 5987 053e 639f 0bbe 3d92 5cbd 8db7 e13d
00000030: 38c1 14bc ca2f 443e 1687 303e 5474 b8bc
00000040: 21e4 343e f1f1 e1bd cdb9 243c dde6 a6bc
00000050: 330b 23be 30e9 fd3d f386 c03d f771 a4bd
-0.10840717 0.045813646 -0.04740976 0.072390266 0.053768434 -0.115790516 -0.12512219 0.015716081
0.13039912 -0.1363502 -0.0538504 0.11021338 -0.00907927 0.19158855 0.17239031 -0.022516407
0.1766515 -0.11032475 0.010054064 -0.020373756 -0.15922241 0.123979926 0.094007395 -0.080295496

net.flow_mapping.0.affine_layers.1.net.4.weight f4 [24, 24]
00000000: 9916 cebd 0b01 213c 8aa6 9dbd 92ff bb3d
00000010: 70ca 063d 3a89 8b3c fc3d eabc a22b 8bbd
00000020: 83fa a7bd d1e4 d1bd 3e6f dc3c 9261 ffbc
00000030: 3c33 f1bc 9396 34bd 3461 c33c e329 70bd
00000040: cc61 71bd 9ece f7bd 794b 0a3e 8d91 25bd
00000050: 5e47 c0bd 592f 913d d8a1 65bd 917e 1f3d
00000060: fc6c 8bbd 76a6 793d 8ba2 323b 65ed 033e
00000070: 0a80 4ebd cbfc 643d caeb 093e 386f 81bd
00000080: 3a54 d83c cd09 e83d e8ab 2b3d e29b cebd
00000090: 748b 693c cfaf f73d 3f2f f1bd 0a05 fe3d
000000a0: 3962 e83c d36a 2cbd 988d efbd 3119 4abd
000000b0: 7142 18bd 3525 903d 83dc aa3d 11af c8bd
000000c0: bba3 4f3d 57ba 2a3e 0d03 3b3e da39 33bd
000000d0: 2b28 d83d c7fc b5bc 2f5d 6e3d 4823 07be
000000e0: f261 a4bd 4603 253c 30bb a83c eaa6 26bc
000000f0: 5404 c93d 1c2a 2b3e b9a3 ef3c 13a5 f7bd
00000100: 8826 f03c 2275 6b3d d07b 063e ea30 3d3d
00000110: 4593 94bd 7463 c8bd a9bc 343e d800 0e3e
00000120: 8a9a 803c a275 943c 0dce a93c ae53 1cbc
00000130: 22fd 2d3e 97ad 18bd 3eec d4bd feba 83bd
00000140: 0701 e53a 3203 b43d 6cfc f13d 8550 adbd
00000150: e4dd 3f3d d3fc fe3d 1150 bc3d c7a5 f33d
00000160: 948f 1b3e 0ca2 00bc 8419 2e3e fd27 133e
00000170: 146d a8bd cb85 f6bd 5205 083e c2f9 df3d
00000180: b338 013e 90e9 2d3e f679 b13d 100a 0cbe
00000190: 6bc8 aaba d54c af3b 3ef2 1e3d 7d5c 013e
000001a0: 6a32 f83d 9569 b83d e82a 9ebd dc3d 56bd
000001b0: b124 e3bd 127f 94bd b505 643c 994d b2bc
000001c0: 50c3 acbd 8f52 e9bc 2d45 3b3d 343c 893d
000001d0: 8384 db3d b861 c8bd c4ce 163e 4043 e239
000001e0: a2a7 14bd 7bad e7bc c146 f23d 671f 923d
000001f0: 7eca 203e c051 0a3d 2f76 fe3d 0445 ad3d
00000200: aa51 903d 09b6 febd 5828 9cbd 1391 05be
00000210: b446 b8bc 5e9f 1b3e 843b 913d 5ad4 7cbd
00000220: da32 3bbd 60e6 763d 914c 1b3e c432 063e
00000230: 2f54 e23d a8f8 7fbd 1228 2a3e 9ad9 393e
00000240: 4e9f 693d 1fd6 0bbd ebd9 f0bc 281d 873d
00000250: 60be 003e cbdd 1cbd 0218 debc 6bc5 32bd
00000260: f389 a93d cc6b e5bd 1b21 d63d 98c7 383d
00000270: cc65 413c 6f14 80bd a1ad 8a3c 6608 2ebd
00000280: ab22 123e 9b23 623c c298 133e 6bf3 ac3d
00000290: 3d97 f13d 2d23 a7bd f68a 203e d97c 553d
000002a0: 6286 efbc 4588 903d 3b02 d33d 9764 f53d
000002b0: 2318 a03d 3ffa b13d a406 f03c 39f3 bfbd
000002c0: c1b8 0b3d 4549 cb3c 2a34 1d3d 4bf1 e1bd
000002d0: e816 d1bd 42eb 91bd 13f0 f9bd f7e4 393d
000002e0: 251c eebc 2bd8 2cbd 85cc 85bd 61df 8b3d
000002f0: c669 88bc c92d b5bd 5e3d f63d a5b3 6bbd
00000300: 9f3b 8f3d e1ab 3fbd 1c0b d33c be98 043e
00000310: 2b74 f6bb dd1f 0bbd a8e7 a73c 9239 963d
00000320: d46f a6bd 81b4 8bbd 4c18 83bc dd9d a4bd
00000330: d120 83bd c9cc 22be 8cf5 93bd 0b85 0a3e
00000340: fe38 c1bd 12b2 693d dc07 183d 40bd 42bd
00000350: 06f8 f5bd 48b4 07be 4dec b43d 8cb6 8639
00000360: 8411 b43d eae3 1bbd e58d 613d 6cb7 cbbc
00000370: 12c0 373d 858d 113d 7ff8 073e 3bda fd3c
00000380: 9695 ec3d 794c f3bd 0689 4dbd 40fd ea3d
00000390: 7685 c5bd 4df2 113d 1e5e 403e d51c 37bd
000003a0: 371a 12bd ddb9 33bd 6f25 8c3d 82e4 073e
000003b0: 7287 2dbd d81b b63d 8eaf 843d dbb4 fc3d
000003c0: b014 203d 6148 413d 62ca 8d3c 6b11 34bd
000003d0: da69 d1bd b746 ce3d bf29 8abc 897a 883d
000003e0: 1c9d 73bc babe 04be 59ef 423d 02bb 17bd
000003f0: 0f09 d8bd d9bd e13c cefe ccbd 92b9 193d
-0.10062904 0.009826909 -0.076977804 0.091796055 0.032907903 0.017033208 -0.02859401 -0.06795432
-0.08202078 -0.102487214 0.026908513 -0.031174455 -0.029443376 -0.04408891 0.023850061 -0.058633696
-0.058931157 -0.12099956 0.13505353 -0.04042201 -0.09388612 0.07089109 -0.05606255 0.038939063
-0.068078965 0.060949765 0.0027257528 0.12883528 -0.050415076 0.055905145 0.13468853 -0.063200414
0.02640735 0.11329994 0.04191199 -0.10088326 0.01425444 0.1209408 -0.117765896 0.12403305
0.028367149 -0.042094063 -0.11696929 -0.04934043 -0.03717274 0.07038347 0.083428405 -0.09799016
0.050693255 0.16672646 0.18262883 -0.043756343 0.105545364 -0.02221526 0.058194336 -0.13197052
-0.08026494 0.010071581 0.02059707 -0.010171631 0.09815279 0.16715282 0.029252874 -0.12092032
0.029315248 0.057484753 0.13133168 0.046189226 -0.07254652 -0.09784594 0.17650093 0.1386751
0.01569869 0.018122498 0.020728135 -0.009541435 0.16991094 -0.037274923 -0.10396622 -0.0643215
0.001747162 0.08789672 0.11815724 -0.084626235 0.04684247 0.12450566 0.09194959 0.11896854
0.1519149 -0.007851135 0.17001921 0.14370723 -0.0822393 -0.12037238 0.1328328 0.109363094
0.12619285 0.16983628 0.0866584 -0.13675714 -0.00130297 0.0053497353 0.03880524 0.12632938
0.12118991 0.09004513 -0.077230275 -0.052305087 -0.11090983 -0.07250799 0.013917376 -0.021765517
-0.084356904 -0.02848175 0.045720268 0.06700936 0.10718634 -0.09784263 0.14727312 0.00043156184
-0.03629268 -0.028280964 0.118299015 0.07134896 0.15702245 0.03376937 0.124248855 0.08460429
0.07046826 -0.12437064 -0.076248825 -0.13043623 -0.022494651 0.15197513 0.0709143 -0.06172595
-0.045702793 0.060278296 0.15165927 0.13105303 0.11051213 -0.062492996 0.16616848 0.18149415
0.05703669 -0.03413975 -0.029400786 0.06597358 0.12572622 -0.038297456 -0.027111057 -0.043645304
0.08278265 -0.11202201 0.10455533 0.045112222 0.011804055 -0.062538974 0.016928496 -0.042488478
0.14271037 0.013802434 0.14413741 0.08444866 0.117964245 -0.08161006 0.1567801 0.052121017
-0.029238883 0.07057241 0.1030316 0.119820766 0.07817104 0.08690309 0.029300041 -0.09372563
0.034111742 0.024815211 0.038379826 -0.11032351 -0.10209447 -0.0712495 -0.12203994 0.045384374
-0.029066155 -0.04219834 -0.0653315 0.068297155 -0.016652 -0.088466235 0.120234236 -0.05754437
0.06993794 -0.046794776 0.025762133 0.12948892 -0.0075211725 -0.033965934 0.020496204 0.073351994
-0.08126798 -0.06821538 -0.016002797 -0.080379225 -0.064027436 -0.15898432 -0.07224569 0.13527314
-0.094346985 0.057054587 0.03711687 -0.047543764 -0.12010197 -0.13252366 0.08834133 0.0002569448
0.08792403 -0.038059153 0.05506696 -0.024867736 0.044860907 0.035535354 0.13278387 0.03098785
0.11551969 -0.118798204 -0.050179504 0.11474085 -0.09644596 0.035631467 0.18785903 -0.04470523
-0.03566953 -0.043878425 0.068430774 0.13270763 -0.0423655 0.088920295 0.06478797 0.12339183
0.03908223 0.047188167 0.017308418 -0.043961924 -0.10225268 0.100720815 -0.01686561 0.06663997
-0.014869001 -0.12963381 0.04759154 -0.03704358 -0.10548603 0.027556347 -0.10009538 0.03753049

net.flow_mapping.0.affine_layers.1.net.4.bias f4 [24]
00000000: 44c6 c73d 53dd 92bd 5823 7d3b b2de 3a3b
00000010: 47e9 15bb 8347 2d3e 06a1 11bd 9bf6 9d3c
00000020: 8172 233d d23a 7abd 982d c4bc 6288 813d
00000030: 663f 9bbc ebc9 2c3e 99d5 473c d29e 193d
00000040: d998 183e 8d44 da3e 1551 473e d87f 28bd
00000050: 7c9b 9abc c57b 2ebd 31dc 823d 7ee4 0a3e
0.09754613 -0.071711205 0.0038625803 0.0028514084 -0.002287464 0.16921811 -0.035553955 0.01928263
0.03990412 -0.06109125 -0.023947522 0.06324841 -0.01895113 0.168739 0.012196922 0.03750498
0.14902057 0.42630425 0.19464524 -0.041137546 -0.018872969 -0.042598505 0.063896544 0.13563725

net.flow_mapping.0.affine_layers.1.net.6.weight f4 [2, 24]
00000000: 4231 85bd 5b7f 93bc d9d9 1fbe 3534 3ebe
00000010: 5781 30be 8061 b3bd f1aa 05be c356 ffbc
00000020: d7cf 703d cc7c 073c aa53 49bd 10f6 c73c
00000030: 4017 edbd 4f3c 47be d14e f4bc 383a 973b
00000040: 7863 38be 4ca5 bfbf 401f 17be 400a 08be
00000050: 97de f13d 3e5f 743d c864 c83d 1e1b 23be
00000060: 9b63 9f3d 3f48 f8bd a6bf ea3a 7be1 5bbd
00000070: a941 c63d 8fda c2bd 9c0a 20be e5d9 06be
00000080: c0cc 9a3d 60cd dbbd d86e 063e 01e4 403b
00000090: 20e8 e0bd 69c7 eabd 7399 26be 1723 a2bd
000000a0: 0611 7d3c 240d 4abf 9eff a2bd a3ec d8bd
000000b0: f50f dabc 29f4 113e b5bb 973d 1d91 283d
-0.06503536 -0.018005064 -0.15610446 -0.18574603 -0.17236839 -0.08758831 -0.1305349 -0.0311693
0.05879196 0.0082695 -0.049152054 0.024409324 -0.115767 -0.194566 -0.029822739 0.0046150945
-0.18006694 -1.497232 -0.14758015 -0.1328516 0.11810034 0.059661143 0.097848475 -0.15928313
0.0778267 -0.12123155 0.0017909899 -0.05368183 0.096804924 -0.09514343 -0.15629047 -0.13169058
0.07558584 -0.107325315 0.13128221 0.0029432776 -0.10981774 -0.11463816 -0.16269474 -0.07916849
0.015445953 -0.789263 -0.07958911 -0.1059201 -0.026618937 0.14253296 0.07408849 0.041154016

net.flow_mapping.0.affine_layers.1.net.6.bias f4 [2]
00000000: 6586 a23d 7168 7bbd
0.0793579 -0.0613789

net.flow_mapping.0.affine_layers.2.net.0.weight f4 [24, 1]
00000000: 0d69 ad3e bab4 943e 5f9c b3bd 0f92 c1be
00000010: 2dab fbbd 5feb 863c 18b3 b5be 5270 d73e
00000020: b976 d83e 117a 06bf 8446 c23c 5e75 3dbd
00000030: 0751 7e3e 78f2 403d 59ce f43d b05e 973d
00000040: 3809 183f 090e 073f fc46 ab3e 3a81 0b3e
00000050: 343a 973d 2f72 c7be ee32 4d3e 831a ff3e
0.3386921 0.29044133 -0.0877006 -0.37806746 -0.122885086 0.016469656 -0.354882 0.4207788
0.42278078 -0.5253001 0.023715265 -0.04625451 0.24835597 0.047106236 0.1195342 0.07391107
0.59389067 0.5275579 0.33452594 0.13623515 0.07384148 -0.38954303 0.2003896 0.49824914

net.flow_mapping.0.affine_layers.2.net.0.bias f4 [24]
00000000: e36a c93d 1ce9 15bd 53b6 d63e 83e7 2fbe
00000010: 49c0 e03e 3054 493e 8644 9dbe 8764 b9be
00000020: 6efe 60be 60c1 c3be c220 d43e 5a13 f83d
00000030: 7598 7ebe 2076 9e3e df1f 7e3e aed4 95be
00000040: 87da 63be 53bc 2ebf 40f4 7cbe 1cda 07bf
00000050: cc23 893e 35bb 85be c3b6 e5be bb8d f73e
0.0983484 -0.036599264 0.41935977 -0.17178158 0.43896702 0.19661021 -0.30716342 -0.3620951
-0.21972057 -0.3823347 0.41431242 0.12113066 -0.24862845 0.30949497 0.24816845 -0.29263824
-0.2225133 -0.6825611 -0.24702549 -0.53067183 0.26785123 -0.2611939 -0.44866 0.4835032

net.flow_mapping.0.affine_layers.2.net.2.weight f4 [24, 24]
00000000: 6de3 f63d 7e52 79bd f2da bd3c 928c 22bd
00000010: bc35 5cbd 1b4f 893d 61c4 a83c 452c c33d
00000020: 0936 a83d 606f 0abe 8654 cc3d e759 b3bd
00000030: 78a3 3abd ffc1 b53c a31c 3a3e 8491 b7bd
00000040: 06b6 213e bf07 ba3d 6d67 91bc 8375 633d
00000050: 6dce e2bc 40b9 57bd 79c4 dd3d f05b 0c3d
00000060: ca09 25be 11c1 853d 1ccd 88bd 5c7d 073e
00000070: 641f 223d fa24 ebbc f4fc 03bd 1366 42bd
00000080: d8ef 363d 5790 36bd b1d8 af3c 673d e33c
00000090: 07a2 5f3d 0083 223d 41b4 213d 8521 ad3d
000000a0: c1b8 34be b946 9fbd 8f57 e4bd 4768 b33d
000000b0: a67c 813d 7641 083d ae52 d4bc a3c3 6ebc
000000c0: d590 b73d 8c6d 873c 0bdc 763d d845 35bd
000000d0: 5300 8d3d a41c 813d ab73 df3d 9548 a7bd
000000e0: 720f dcbd dabc b23d 9591 a33c 0a72 233b
000000f0: 1e0e 963d 20fa 843c dc3a 14be b2bb 50bd
00000100: c89a e23c cf72 e9bd d8eb febd ca55 6c3d
00000110: a5a1 14be 0ad9 63bd 2571 71bd eed8 acbd
00000120: 7cb3 1cbd 56c1 f93d e7e7 a6bd 0f9d ef3c
00000130: f3ce e2bc 57e4 723d b4f8 9f3d e31c 233d
00000140: d614 ed3c 6930 6e3d 7f8d 863c d273 3fbd
00000150: 8241 d2bd afb7 d43c 98bf b03d 0dfb 03be
00000160: fd20 1e3d 4074 03be 16a5 5f3d ef77 fcbd
00000170: 9124 ab3d cc1e edbd 0bd8 cf3d 2eee 8fbd
00000180: 65c1 72bd e94a d93c d3f7 fb3d 2c58 133c
00000190: 15ed 9fbc c977 84bd 4fe6 9bbc 84bc 453a
000001a0: e08d 4c3d 1310 343d a6df d5bd effe af3b
000001b0: 6cd3 c6bd 7fc5 cfbd fd5d 67bd 77f7 cebd
000001c0: 594f 74bc 9639 e6bd 3c76 0abe 7f7c 0b3e
000001d0: 75dd d0bd ed63 9e3d 07f7 e0bd 81de 84bd
000001e0: 1808 11bd b575 8c3d c550 f93d a43b 803d
000001f0: 9ee9 e4bd 6ec0 8f3d 3645 a03b 408c 7b3b
00000200: 6eea ed3d c07c f03d 4105 28bd c610 bdbd
00000210: ddaf fa3d 5881 28bd 2f7e 463d ed18 1dbb
00000220: 394b 85bd 9ac6 ebbc 7e4b f8bd df5b ce3c
00000230: fc32 9bbd bc21 f0bc 57ab 1abd cffa b2bd
00000240: 2afe 053d 4a54 2bbc 5f77 04be e177 003e
00000250: 0576 3ebd 3ac3 d1bd 8069 d93d e6e2 d3bd
00000260: 5c30 b9bc 28d9 96bd 08e2 b83d 07d5 f2bc
00000270: f35e ca3b 8501 453d 78be 003d 21fb 18bd
00000280: a456 fdbd 6841 83bd fb76 413d 886c 06be
00000290: 5a28 cbbd 4b4f 61bd 8767 14bd 3a89 c0bc
000002a0: 0632 3f3d 9263 9f3d 5978 68bd 304d 5b3d
000002b0: 58d0 c13d a1b7 893d 62c4 32bd 08f8 3fbc
000002c0: 93c6 12be e1e3 313c 794e 8a3d 432c acbd
000002d0: 88f4 993c dc85 a13d bd57 dd3b 71c9 d1bd
000002e0: 3719 b5bd bd14 623d beb5 f9bc 3eef 1bbe
000002f0: 29cf bfbc 5fe3 a6bb 38a7 973c 9273 22be
00000300: 287d 8a3d 54ad 00be 7878 70bd 6a50 163d
00000310: 9399 ba3c f337 cbbd dd04 0abd cc6c 9bbd
00000320: 47a0 e8bb b50c debd 980f dabc 47bb e9bd
00000330: e084 01be 3273 14bd eef9 793d fba0 bb3d
00000340: 696c 893d 85fe f8ba fe91 21bd ae9f c7bc
00000350: 7810 d43d 08f5 873d 2f50 de3d beb9 cabc
00000360: 27f3 81bd 0feb 463d 9bde 23bd 0f13 c3bc
00000370: 454d ddbd 7c38 ce3c eae2 a93d bf34 063e
00000380: 8ccb 0c3d ccad 003e 5cca 76bd 4a06 e23d
00000390: ce17 ca3d a1b8 8b3d b40a 523d fa15 ee3c
000003a0: 3bea 113e d336 d93d 32eb 7eb9 cb68 9cbd
000003b0: 8fae 043c c03b febd df39 113e 44e0 00bb
000003c0: 8b12 c2bd fec9 6f3d 8c31 063c d3c9 07be
000003d0: a1c6 433d 39f7 e0bd 6e01 82bd 464e e2bd
000003e0: 4834 6a3d 9591 98bc 2124 ad3d 6a99 d0bd
000003f0: e90c 673c 309f a73d c980 4f3d ec34 9cbd
0.12055097 -0.060869686 0.02317569 -0.03968484 -0.053762183 0.06704541 0.020601453 0.09529928
0.082134314 -0.13519049 0.09977059 -0.08757382 -0.045566052 0.022187231 0.18174987 -0.08963302
0.15792093 0.09083509 -0.017749513 0.05553199 -0.027686322 -0.052666903 0.1082849 0.034267366
-0.16117015 0.06530965 -0.066797465 0.13231415 0.039580718 -0.028704155 -0.032223657 -0.047460627
0.044662327 -0.044571247 0.021465631 0.02773924 0.05459788 0.039675713 0.039478544 0.08453659
-0.17648603 -0.07777161 -0.11149513 0.08760124 0.06322603 0.033265553 -0.025918331 -0.014573011
0.089631714 0.016531728 0.060268443 -0.04425606 0.068848275 0.06304291 0.10910734 -0.08168141
-0.107451335 0.08727427 0.01996688 0.0024939799 0.073269114 0.01623255 -0.14475578 -0.05096025
0.027661696 -0.11398851 -0.124473274 0.057699002 -0.14514787 -0.055626906 -0.058945794 -0.084398136
-0.038257107 0.12195079 -0.081497006 0.029249696 -0.027686572 0.059299793 0.07811108 0.03982247
0.0289406 0.058151636 0.016424892 -0.046741314 -0.10266401 0.025966493 0.086302936 -0.12888737
0.03860568 -0.12837315 0.054600798 -0.12327563 0.08356584 -0.1157814 0.10148629 -0.07027851
-0.059266467 0.026524978 0.12303128 0.00899319 -0.01952223 -0.0646816 -0.019030718 0.00075430446
0.04993999 0.043960642 -0.10443048 0.0053709666 -0.09708294 -0.10145091 -0.05648612 -0.10105794
-0.014911496 -0.112414524 -0.13521665 0.1362171 -0.101984896 0.07733903 -0.10984617 -0.06487752
-0.03540811 0.06858388 0.12173609 0.062613755 -0.111773714 0.07019125 0.004891063 0.0038383156
0.116169795 0.11742544 -0.041020636 -0.09231715 0.122405745 -0.041138977 0.04846018 -0.0023971156
-0.06508488 -0.028781224 -0.12123774 0.025190292 -0.07578084 -0.02931296 -0.03776106 -0.08739244
0.032713093 -0.010457108 -0.12936161 0.1254573 -0.04649927 -0.10242315 0.10615826 -0.10346012
-0.022606067 -0.07365638 0.09027487 -0.029642595 0.0061758696 0.048097152 0.031431645 -0.03734887
-0.12370041 -0.064089596 0.04723261 -0.13127339 -0.09919806 -0.05500726 -0.036231544 -0.023502935
0.046678565 0.077826634 -0.056755397 0.05354041 0.094635665 0.067244776 -0.043644316 -0.01171685
-0.14333563 0.010857553 0.06753249 -0.0840688 0.01879336 0.0788686 0.006754844 -0.102435
-0.088427 0.05519556 -0.03048217 -0.15227982 -0.023414211 -0.0050930227 0.018512353 -0.15864399
0.06762153 -0.1256612 -0.058708638 0.036697783 0.022778308 -0.09922781 -0.033696044 -0.07589111
-0.0070991847 -0.108422674 -0.026618764 -0.114126734 -0.12648344 -0.03624267 0.061029367 0.09161564
0.06710131 -0.0018996751 -0.03944587 -0.024368133 0.10354704 0.06638533 0.108551376 -0.024746772
-0.06345206 0.048564013 -0.040007215 -0.023812799 -0.108057536 0.025173418 0.082952335 0.13106059
0.034373805 0.12566298 -0.06025158 0.11036356 0.09867822 0.068223245 0.05127974 0.029063214
0.14249508 0.1060616 -0.00024310945 -0.07637175 0.008098259 -0.1241374 0.14182232 -0.0019664923
-0.09476193 0.058542244 0.008190524 -0.13260584 0.04779685 -0.10984654 -0.06347929 -0.11050086
0.057178766 -0.018624106 0.08454157 -0.101855114 0.014102199 0.081846595 0.05065993 -0.076272815

net.flow_mapping.0.affine_layers.2.net.2.bias f4 [24]
00000000: 8e9c a43d e0b7 0e3d 5ae2 f43c 193d e6bc
00000010: 95b2 113d 228a 8c3d 54e1 c03c a421 97bc
00000020: 5003 aebd 3ec4 203e fff6 2cbd 9a3b 96bd
00000030: ee84 c53d ba4b 01be 1142 283e a663 1fbe
00000040: e9b9 cf3d fcb0 2dbe 91ea 09be 4424 0dbd
00000050: 298e b3bd 344a a43d 9092 d6bd 14ab 45bc
0.08037673 0.034843326 0.02989309 -0.028105306 0.0355707 0.06862284 0.023544945 -0.018448658
-0.084967256 0.1569986 -0.04222774 -0.07335587 0.09644495 -0.12626544 0.16431452 -0.15565357
0.101428814 -0.16962045 -0.13468386 -0.034458414 -0.08767349 0.080219656 -0.10477173 -0.012064714

net.flow_mapping.0.affine_layers.2.net.4.weight f4 [24, 24]
00000000: 3347 e83d d76e 91bd ee3d 9abc 1252 68bd
00000010: fb83 0a3e c59b 563d f241 09be 6c43 2fbe
00000020: e7ae 09be 3535 4c3c 2eb4 d73d ec74 3e3e
00000030: 26f6 61bd f77c 93bd d80e e33d c972 f8bd
00000040: 728e 7a3d 7a6f 84bc aee1 803d d803 eb3c
00000050: 937b d93d 2573 0a3e 92d6 c7bd 4a6e a1bd
00000060: e5e0 6a3e a334 c03c de02 00be 27ca ca3d
00000070: 518c 09be 6d29 1dbd e62a 03be d31f fe3d
00000080: 5e9d e1bd 7a4a 80bc e5b1 f13a de69 c03d
00000090: bed7 2ebd 9587 6d3d 36ea 123e 3062 8fbd
000000a0: 326a d33d 5129 0cbe 5f6f 8bbc ac17 493e
000000b0: b7f3 033e 6a8a 34bc c7d2 a8bd a6d8 69bd
000000c0: 899d 92b9 1460 073b d8fd 283e bc2c d4bd
000000d0: 1871 17bd 53e4 3a3d 241f fbbc b0b9 153e
000000e0: 3207 d23c 17af 353e a6f7 4fba b319 92bc
000000f0: 6503 ccbd 9ba5 cdbd a9ca c83b 654c 65bc
00000100: 7607 d3bd 2b73 ed3d 477f 0c3e dc61 d83d
00000110: 9a28 a33d e59e bdbd 8478 ff3c 7e2c 273d
00000120: b65f a1bd 2ca4 013d 7270 b4bd ab48 6cbd
00000130: 8cce 2a3d 08d8 22bd 560e 873d 4a64 923d
00000140: 16d1 06be 94fa d9bb 3c26 9f3d 7345 1ebe
00000150: 5ab1 033e 3d48 d3bd 8d68 29be df6b 27be
00000160: 28e4 bebc 2958 5f3b 0b3b b9bd c85e 773d
00000170: e15d 81bd 613b 09be 12c5 9b3c 6886 8c3c
00000180: be29 9ebd 37a6 953d 7013 d8bd 6b5e 013e
00000190: b7f3 c63d 4884 c6bd 3340 a7bd 1ed9 c93c
000001a0: 665b b23d d7be c6bd 87d1 b0bb 945d 5fbd
000001b0: b78d c43d 33fd b3bd 3a83 d1bd 7d0c ddbd
000001c0: 3148 0bbe 68bc 923c cf05 e9bc 1121 b9bd
000001d0: 8b32 85bc 480b 4dbc 3f71 f43d 8e09 853d
000001e0: c3ae a0bd 7ed6 88bd 8bd6 cb3c ffa4 c43b
000001f0: 5759 613d 27e8 013e 1754 213d 38f9 d13c
00000200: dd0a ee3d e40d febd 81d2 02be 2fe6 6cbd
00000210: f9ea d4bd 80ec fcbd 00ac 3fbc 1dd7 fa3c
00000220: ca00 cbbd adff 133d b020 3a3d bb3c 2fbe
00000230: f912 c43c 533c 5cbd 78da adbd fa35 543d
00000240: 3cdc 8e3d e087 333e 4723 d03d 0b0c d2bd
00000250: a64b c73b df49 b73c ba10 c13d 6207 d43c
00000260: a219 773d 8e0d 1f3e 7490 c93d 031a 9a3d
00000270: 69fd 813d de9f 8ebd c502 d3bc fe08 b6bd
00000280: 6685 1dbd 039a 68bd bb2c 713d 91a1 353a
00000290: 3758 c73d 300f 023b 3a49 ec3d f565 273e
000002a0: 06b3 9fbd b940 563c b094 32bd 7113 c3bd
000002b0: 2752 433c 24ad 94bd 4f00 093e 3a99 d53d
000002c0: 0c17 c93d c14a 33bd 8939 bfbc 23be 95bd
000002d0: 8c33 67bd d9ac 2abd 6b8d e8bc ad66 0e3d
000002e0: 0b7b 223b 2b82 0b3d c954 bdbb 28ae 463d
000002f0: 088d 34bc 8e73 7fbd 0b1f 8ebc 7a25 e1bd
00000300: 88f6 05be 61ae d23c e76b c6bd 8f5c 043e
00000310: 99bf bd3d a514 44bd d9be 6a3d f449 8e3d
00000320: afe3 a5bc 02e1 91bc 7aff 50bd 20f3 09be
00000330: 470b e03d 0125 b93d f450 fb3d 87ef 8bbd
00000340: a9e9 92bd 1213 8abd 5677 0d3c 51bb 20bc
00000350: 1d80 2ebd 04f0 e03d f59f 103d 9ad1 b73d
00000360: 9c54 0a3c d288 7ebc 383c e8bc 76c6 a63d
00000370: eced c03c 2f03 90bc 2e5b 9ebc 9534 a5bd
00000380: 6b81 f43d 1cb5 0f3d e8cf 823d 16b3 d53d
00000390: 87d7 dc3d e89e 6ebd b443 e3bb c4c5 27bd
000003a0: bc9e a33b 3a03 bd3d c20e 873d 4aea f73d
000003b0: 03cd a7bd 6e00 a7bc 4e4b 0b3d b9c3 27bd
000003c0: 7233 1e3d b976 f6bd 27a4 f8bd 4975 ad3d
000003d0: 6f92 b63c 92d5 45bd 7869 b53c cd0d 18bd
000003e0: f763 b8bd 9287 0dbe 087d f6bd 4473 b3bc
000003f0: c92f 9ebd 43e1 853d 26ee 14be 7ff6 95bd
0.11341705 -0.07101219 -0.018828359 -0.056718893 0.13526909 0.052394647 -0.13404062 -0.17115563
-0.13445626 0.012463857 0.105324134 0.1859929 -0.055166386 -0.072015695 0.110868156 -0.121312685
0.061171003 -0.016166437 0.06293045 0.028688356 0.10619273 0.13520487 -0.09757723 -0.07882364
0.22937353 0.0234626 -0.12501094 0.09901839 -0.13432433 -0.038369585 -0.12809333 0.12408414
-0.110163435 -0.015660513 0.0018439858 0.093951926 -0.042686217 0.05799063 0.14347157 -0.0700115
0.103229895 -0.13687636 -0.01702088 0.19637936 0.12885939 -0.011019329 -0.082433276 -0.057091378
-0.00027964663 0.0020656632 0.16503084 -0.10360095 -0.03697309 0.045627903 -0.030654497 0.14621615
0.025638197 0.17742573 -0.0007933326 -0.01783452 -0.09961585 -0.10041352 0.0061276746 -0.013995265
-0.103041574 0.11594232 0.13720427 0.1056554 0.079667285 -0.09258822 0.031185396 0.040813915
-0.078795835 0.031650707 -0.0881051 -0.05768649 0.041700885 -0.039756805 0.06594531 0.07148035
-0.13165697 -0.0066521857 0.077709645 -0.1545618 0.12860623 -0.10316513 -0.16543789 -0.16349743
-0.023302153 0.0034079647 -0.09044465 0.060393125 -0.06316734 -0.13401558 0.019014869 0.017153934
-0.077228054 0.073070936 -0.105505824 0.12633674 0.09714454 -0.096931994 -0.08166542 0.024639662
0.08708839 -0.097043686 -0.0053960714 -0.054532602 0.095973425 -0.08788528 -0.102301076 -0.107933976
-0.13601758 0.017912105 -0.028445153 -0.0903951 -0.016259452 -0.012514897 0.119356625 0.06495963
-0.07845833 -0.06681536 0.024882575 0.0060011144 0.05501684 0.12686215 0.039386835 0.025631532
0.11623166 -0.12404993 -0.12775613 -0.057836708 -0.1039638 -0.12349796 -0.011698723 0.030620152
-0.0991226 0.036132503 0.04544133 -0.1711301 0.023934828 -0.053768467 -0.08488935 0.05180929
0.069756 0.17532301 0.101629786 -0.10256203 0.006082016 0.022374092 0.094270185 0.025882427
0.06032718 0.15532514 0.09842005 0.075244926 0.06347162 -0.06964086 -0.025758157 -0.08888434
-0.038457297 -0.056787502 0.05888055 0.00069286773 0.097336225 0.0019845478 0.11537404 0.16347487
-0.07797818 0.0130769545 -0.04359883 -0.095251925 0.011921442 -0.072595865 0.13379024 0.10429616
0.09818849 -0.043772463 -0.023342865 -0.07311656 -0.056445643 -0.041668747 -0.028387746 0.034765888
0.0024792578 0.034059685 -0.0057779294 0.048505932 -0.011019953 -0.06236606 -0.017348787 -0.10993476
-0.13082325 0.025717916 -0.096885495 0.12925933 0.0926506 -0.04787125 0.057310913 0.06947699
-0.02025017 -0.017807487 -0.05102489 -0.13471651 0.10939651 0.09040261 0.122713 -0.068327956
-0.071734734 -0.067419186 0.008634409 -0.009810285 -0.042602647 0.10983279 0.035308797 0.08975525
0.008443024 -0.01553555 -0.028349027 0.08143322 0.02355095 -0.017579643 -0.019330587 -0.0806667
0.11938747 0.03508483 0.06387311 0.104345486 0.10783296 -0.058257014 -0.006935561 -0.04096009
0.004993288 0.09229131 0.06594612 0.12105234 -0.081934 -0.020385947 0.034007363 -0.04095814
0.03862328 -0.12034363 -0.121406846 0.08469636 0.022286622 -0.04829938 0.022145018 -0.037122536
-0.09003442 -0.13821247 -0.120355666 -0.021905549 -0.07723958 0.06537106 -0.14543971 -0.07322406

net.flow_mapping.0.affine_layers.2.net.4.bias f4 [24]
00000000: e311 9dbe 5ad2 04be 8e6c 45bd 52a7 0c3c
00000010: 850a f6bd 33ad 2bbe 7441 ecbb cce4 02be
00000020: e2df 8dbc 6b20 10be 4102 9f3d 391a 1b3e
00000030: 0ec5 ae3d 9dc7 6f3d 9ea5 433d d6cb e43c
00000040: d097 d4bd 9e1e 8e3c f822 2a3d ba84 c4bd
00000050: 7ac0 103d 8e95 83bd 3f35 bf3d 0039 13bd
-0.3067771 -0.12970868 -0.04819923 0.008584814 -0.12013725 -0.16765289 -0.007209951 -0.12782592
-0.01731867 -0.14074866 0.07764102 0.15146722 0.08533679 0.058539975 0.047765367 0.027929228
-0.103805184 0.017348584 0.041537255 -0.09595628 0.03533981 -0.0642501 0.09336328 -0.03594303

net.flow_mapping.0.affine_layers.2.net.6.weight f4 [2, 24]
00000000: 28b7 0fbe 4157 3bbe 2fe8 9fbd c020 0d3d
00000010: 1cd6 cbbc 2efb b73d a952 62bd 86de b6bd
00000020: 4d72 42bd 837a b03c 819a 843d 84d9 55bd
00000030: d15c 503d a6da 5dbd 6ea0 1f3b 4288 02bd
00000040: e9f1 8bbb b218 be3d 0424 acbc 5a9a bdbd
00000050: f7f3 5c3d 06d4 a23b aeda 18bc 859e 5c3d
00000060: ea7f c23d fd8c cabd d806 97bc 87df f8bd
00000070: 170c 093e 6dc4 5fbd 9ee2 cebb 5e7a 5ebd
00000080: be31 ed3c d930 993d adab eebd 8ce4 e0bc
00000090: 1776 72bb 42a4 f2bd ef22 6b3d 57b3 aebd
000000a0: cf19 87bd 2434 5bbd 9cf2 ca3d f79b fc3d
000000b0: 90a9 aebd 220d a63d 1ceb 3a3d 7d8b c53d
-0.14034712 -0.18295003 -0.078079574 0.03445506 -0.024882369 0.089834556 -0.055254612 -0.08929162
-0.047472287 0.021542793 0.06474782 -0.052209392 0.050869767 -0.054163598 0.0024357098 -0.031868227
-0.0042707813 0.09282054 -0.021013267 -0.09257956 0.0539436 0.004969123 -0.009329481 0.053862114
0.09497054 -0.09890173 -0.01843588 -0.121520095 0.13383518 -0.054630686 -0.006313636 -0.054315917
0.028954383 0.0748002 -0.11653838 -0.02745273 -0.0036996657 -0.11847736 0.057406362 -0.085303
-0.065967195 -0.053516522 0.09909555 0.123344354 -0.08528435 0.08107974 0.045634374 0.09645746

net.flow_mapping.0.affine_layers.2.net.6.bias f4 [2]
00000000: f08f 553c b5b8 25be
0.013034806 -0.16183741
