param/model_2e4data_iter100000_my_data_10_32_5.pth (torch, 251211 bytes, 174 tensors)

net.rotations.0.LU f4 [2, 2]
000000 00 00 00 00 00 00 00 00 00 00 00 00 00 00 00 00
       0.0 0.0 0.0 0.0

net.rotations.0.LU_init f4 [2, 2]
000000 00 00 80 3f 00 00 00 00 00 00 00 00 00 00 80 3f
       1.0 0.0 0.0 1.0

net.rotations.0.ones_mat f4 [2, 2]
000000 00 00 80 3f 00 00 80 3f 00 00 80 3f 00 00 80 3f
       1.0 1.0 1.0 1.0

net.rotations.0.I f4 [2, 2]
000000 00 00 80 3f 00 00 00 00 00 00 00 00 00 00 80 3f
       1.0 0.0 0.0 1.0

net.flow_mapping.0.scale_layers.0.b f4 [1, 2]
000000 70 7d 0e bf 6d ed d2 be
       -0.5566015 -0.41196766

net.flow_mapping.0.scale_layers.0.logs f4 [1, 2]
000000 8e 16 ea bd 69 d8 d5 bd
       -0.11430083 -0.104416676

net.flow_mapping.0.scale_layers.0.b_init f4 [1, 2]
000000 00 00 00 00 00 00 00 00
       0.0 0.0

net.flow_mapping.0.scale_layers.0.logs_init f4 [1, 2]
000000 00 00 00 00 00 00 00 00
       0.0 0.0

net.flow_mapping.0.scale_layers.1.b f4 [1, 2]
000000 29 a6 44 be 8d 80 d7 be
       -0.1920401 -0.42090264

net.flow_mapping.0.scale_layers.1.logs f4 [1, 2]
000000 92 c3 d2 bd 72 fa df bd
       -0.10291208 -0.109364405

net.flow_mapping.0.scale_layers.1.b_init f4 [1, 2]
000000 00 00 00 00 00 00 00 00
       0.0 0.0

net.flow_mapping.0.scale_layers.1.logs_init f4 [1, 2]
000000 00 00 00 00 00 00 00 00
       0.0 0.0

net.flow_mapping.0.scale_layers.2.b f4 [1, 2]
000000 b6 a1 38 be db 72 fe bd
       -0.18030438 -0.12424251

net.flow_mapping.0.scale_layers.2.logs f4 [1, 2]
000000 56 4e 99 bd b2 a2 a4 bd
       -0.074856445 -0.08038844

net.flow_mapping.0.scale_layers.2.b_init f4 [1, 2]
000000 00 00 00 00 00 00 00 00
       0.0 0.0

net.flow_mapping.0.scale_layers.2.logs_init f4 [1, 2]
000000 00 00 00 00 00 00 00 00
       0.0 0.0

net.flow_mapping.0.scale_layers.3.b f4 [1, 2]
000000 66 c1 70 be c0 1a fc bc
       -0.23511276 -0.030774474

net.flow_mapping.0.scale_layers.3.logs f4 [1, 2]
000000 96 85 82 bd 70 aa 66 bd
       -0.06373136 -0.056314886

net.flow_mapping.0.scale_layers.3.b_init f4 [1, 2]
000000 00 00 00 00 00 00 00 00
       0.0 0.0

net.flow_mapping.0.scale_layers.3.logs_init f4 [1, 2]
000000 00 00 00 00 00 00 00 00
       0.0 0.0

net.flow_mapping.0.scale_layers.4.b f4 [1, 2]
000000 47 65 e4 bd 99 05 6f be
       -0.111521296 -0.23341979

net.flow_mapping.0.scale_layers.4.logs f4 [1, 2]
000000 4c e5 5b bd b8 b6 7c bd
       -0.05368547 -0.06169769

net.flow_mapping.0.scale_layers.4.b_init f4 [1, 2]
000000 00 00 00 00 00 00 00 00
       0.0 0.0

net.flow_mapping.0.scale_layers.4.logs_init f4 [1, 2]
000000 00 00 00 00 00 00 00 00
       0.0 0.0

net.flow_mapping.0.scale_layers.5.b f4 [1, 2]
000000 70 17 56 be a6 49 c1 bd
       -0.20907378 -0.094378754

net.flow_mapping.0.scale_layers.5.logs f4 [1, 2]
000000 2f 76 12 bd 16 8c 4e bd
       -0.03575724 -0.050426565

net.flow_mapping.0.scale_layers.5.b_init f4 [1, 2]
000000 00 00 00 00 00 00 00 00
       0.0 0.0

net.flow_mapping.0.scale_layers.5.logs_init f4 [1, 2]
000000 00 00 00 00 00 00 00 00
       0.0 0.0

net.flow_mapping.0.scale_layers.6.b f4 [1, 2]
000000 d6 de bf bd fa 04 2f be
       -0.093686745 -0.17091742

net.flow_mapping.0.scale_layers.6.logs f4 [1, 2]
000000 81 5f 37 bd 85 38 06 bd
       -0.044768814 -0.032768745

net.flow_mapping.0.scale_layers.6.b_init f4 [1, 2]
000000 00 00 00 00 00 00 00 00
       0.0 0.0

net.flow_mapping.0.scale_layers.6.logs_init f4 [1, 2]
000000 00 00 00 00 00 00 00 00
       0.0 0.0

net.flow_mapping.0.scale_layers.7.b f4 [1, 2]
000000 dd 70 d9 bd e1 d9 03 bd
       -0.1061723 -0.032190207

net.flow_mapping.0.scale_layers.7.logs f4 [1, 2]
000000 e2 4b e1 3c 49 d7 1a bd
       0.027502004 -0.03780297

net.flow_mapping.0.scale_layers.7.b_init f4 [1, 2]
000000 00 00 00 00 00 00 00 00
       0.0 0.0

net.flow_mapping.0.scale_layers.7.logs_init f4 [1, 2]
000000 00 00 00 00 00 00 00 00
       0.0 0.0

net.flow_mapping.0.scale_layers.8.b f4 [1, 2]
000000 e6 92 20 bc a5 15 9d be
       -0.009800648 -0.30680576

net.flow_mapping.0.scale_layers.8.logs f4 [1, 2]
000000 c1 dc a3 bc bb 4c 91 3c
       -0.020002725 0.017736783

net.flow_mapping.0.scale_layers.8.b_init f4 [1, 2]
000000 00 00 00 00 00 00 00 00
       0.0 0.0

net.flow_mapping.0.scale_layers.8.logs_init f4 [1, 2]
000000 00 00 00 00 00 00 00 00
       0.0 0.0

net.flow_mapping.0.scale_layers.9.b f4 [1, 2]
000000 00 e0 a0 be 52 c3 9e 3d
       -0.31420898 0.07752098

net.flow_mapping.0.scale_layers.9.logs f4 [1, 2]
000000 07 21 b4 3d 63 bf 0e bd
       0.08795362 -0.03485049

net.flow_mapping.0.scale_layers.9.b_init f4 [1, 2]
000000 00 00 00 00 00 00 00 00
       0.0 0.0

net.flow_mapping.0.scale_layers.9.logs_init f4 [1, 2]
000000 00 00 00 00 00 00 00 00
       0.0 0.0

net.flow_mapping.0.affine_layers.0.net.0.weight f4 [32, 1]
000000 e4 4d 9f 3e f4 ce 05 3f 8f d9 69 3e dc 1a 14 bf
       0.31114113 0.5226891 0.22836898 -0.57853484
000010 79 82 af 3e ea e7 b1 be 02 a1 85 be fd 2b 93 be
       0.3427923 -0.3474725 -0.26099402 -0.28744498
000020 4a 31 22 be 93 6a b7 be b8 f6 55 be b5 5a db be
       -0.15839115 -0.35823497 -0.20894897 -0.4284264
000030 0c 6b 02 3f ca 30 98 3e 7c 22 01 3f cd 9e e5 be
       0.5094459 0.29724723 0.50443244 -0.44847718
000040 44 ae da be fb 3b 10 3f b3 68 62 3e 9f 85 a9 bd
       -0.4271108 0.5634152 0.22110252 -0.08277439
000050 a9 eb 90 bc 27 9a 7f 3d 3c b4 0c 3f d1 46 c5 3e
       -0.017690497 0.06240287 0.54962516 0.3853059
000060 d6 3c 56 bd 90 b6 bf 3e 65 2d f4 3d 55 44 08 bf
       -0.05230411 0.37443972 0.11922721 -0.53229266
000070 1c 84 b3 3d 44 b2 74 3e 37 11 ec be 84 d7 02 3f
       0.08765432 0.23896128 -0.46106884 0.511101

net.flow_mapping.0.affine_layers.0.net.0.bias f4 [32]
000000 cc ee d8 3d b5 cd fb 3e fd c8 f7 be d0 b7 27 3e
       0.10592422 0.4918038 -0.4839553 0.16378713
000010 4c a1 8d 3d 68 48 b2 be 2c 14 63 3d 61 b6 df 3e
       0.069155306 -0.34820867 0.05543916 0.43693832
000020 22 98 f7 be d1 c8 15 3c f9 8f b1 3c 4a 00 94 bc
       -0.48358256 0.009142117 0.021675097 -0.018066544
000030 be 4e ed 3d 16 08 23 bf a8 6b 52 3e 3c cf 30 3d
       0.115872845 -0.63684213 0.2054888 0.043166384
000040 c7 88 11 3f 9c b3 24 bf 9b 87 ea be c7 db 00 bd
       0.5684933 -0.6433656 -0.45806584 -0.031459596
000050 93 09 a3 3e 04 86 16 bf 99 1e 01 3f 65 1e 00 bf
       0.31843242 -0.5879824 0.50437313 -0.5004638
000060 ff 6d 0a bf e8 ce 9c 3e 9f ac b2 3e 85 58 91 3e
       -0.5407409 0.30626607 0.34897324 0.28387848
000070 39 10 fb be ee 48 22 be 9d cb 6f be 6a c2 43 bc
       -0.49035814 -0.15848133 -0.23417516 -0.011948207

net.flow_mapping.0.affine_layers.0.net.2.weight f4 [32, 32]
000000 2a ca bc 3d 1f 86 da bd 3c 5b 17 bd f2 fe 92 3d
       0.09218247 -0.10670113 -0.036952242 0.07177533
000010 96 dc 84 bb d4 4f 66 bc 03 39 5c 3d eb 39 18 3d
       -0.004054616 -0.014057118 0.053765308 0.03716461
000020 6b b9 4c 3d e5 dd 90 3d 40 70 da 3d db 5c c6 3d
       0.049981516 0.07073573 0.10665941 0.096856795
000030 17 e8 a5 3d b9 10 d9 3d 77 b3 d1 bd a7 4b 85 bb
       0.08100908 0.10598893 -0.10239308 -0.0040678564
000040 af eb 92 3d 6b b1 62 3b f7 e6 54 3d 6d f0 fc 3c
       0.07173859 0.0034590613 0.051978078 0.030876363
000050 ce 5a cb bd ee 05 57 bb 07 48 36 3d 2c c0 ed 3c
       -0.09929429 -0.003280993 0.044502284 0.029022299
000060 9a b4 8c bc 39 a2 c4 bd ff 10 56 bd 84 9d 93 3d
       -0.017175961 -0.09601254 -0.052262302 0.07207778
000070 a2 e4 31 3d 7c c4 5f 3d 8f ab 1b 3d a5 c3 ca bd
       0.043430932 0.05463074 0.038005408 -0.099005975
000080 a8 ca 12 3d 87 67 0e 3d 19 83 e5 3d d2 8b 80 bd
       0.0358378 0.0347667 0.112066455 -0.062766686
000090 9e 76 4c 3d 49 ae c2 bd 7b 48 b6 3d 36 b2 d5 3d
       0.04991781 -0.095058985 0.08900543 0.10434382
0000a0 b5 4c 39 bc 5a d5 c0 3d d6 76 47 3a a0 9e 2b bd
       -0.011309792 0.094156936 0.00076089555 -0.041899323
0000b0 61 77 35 3c 34 6b 13 3d 3d 0c 84 3d d7 26 b6 bd
       0.011075825 0.03599091 0.06447647 -0.08894127
0000c0 57 1e a5 3c 7f d9 ba bd 0f f6 94 bb be 8c 6b 3d
       0.020156069 -0.09123515 -0.004545934 0.05750727
0000d0 36 56 c1 3b 77 4e b3 bd c7 02 b0 3d bf 74 dc 3d
       0.0059001697 -0.087552 0.0859428 0.10764455
0000e0 79 a2 33 bd 7e b1 a3 3d 38 f9 10 3d 29 22 ba 3d
       -0.043856118 0.07992838 0.035393924 0.09088547
0000f0 3d f2 b2 3d 07 cd a7 bc 11 f4 58 3d 24 08 aa 3d
       0.087376095 -0.020483507 0.052967135 0.08302334
000100 d4 c1 2c bd 51 e7 e9 3d 65 58 36 bd e8 2d 04 bd
       -0.042177036 0.11421073 -0.044517893 -0.032270342
000110 56 f5 4f bc 86 93 89 38 a0 a8 aa 3d 76 c5 d9 3d
       -0.01269277 6.5601474e-05 0.08332944 0.10633366
000120 34 23 d1 3d 01 15 c0 3d 07 f9 3f bd 2c f4 8d bd
       0.102117926 0.09379006 -0.04686835 -0.06931338
000130 d2 96 8d 3d 2f fc 25 bd 81 9d f0 bc 80 e0 49 3d
       0.06913532 -0.040523704 -0.029371979 0.049286366
000140 81 16 79 3d 45 d3 fd 3d d6 32 86 3d f6 e0 1a 3d
       0.060812477 0.12393812 0.06552665 0.037812196
000150 93 68 a5 bd 57 e9 b2 3c 62 70 7c 3d 03 16 90 3d
       -0.080765866 0.02183978 0.061630614 0.070354484
000160 0b 7e 97 bd a9 43 28 3d 15 ac 62 3d ac ff d8 bc
       -0.07397088 0.04108015 0.05533989 -0.026489101
000170 5b 75 cb 3d a7 b0 6e 3c 5b f5 4f bd e2 7b e1 3d
       0.09934493 0.014568484 -0.0507711 0.11009957
000180 c1 47 de 3c 06 b8 3c bd 5e 0c 9e 3d ea 03 d5 3d
       0.027133824 -0.046073936 0.077172026 0.10401137
000190 39 94 0b 3c f6 7f a8 3d db 64 8e 3d d6 20 cf bd
       0.008519226 0.082275316 0.069528304 -0.10113685
0001a0 79 b9 b8 3d d2 46 a7 3b 3f 33 0a 3d ab f8 87 3d
       0.09019751 0.005104878 0.03374028 0.066392265
0001b0 d4 50 39 bd 7a ed 64 3d 8e 89 51 bd 1f 33 33 bd
       -0.0452431 0.055890538 -0.051156573 -0.043749925
0001c0 51 a9 a9 bd bc 9d 25 3d 1c 49 f3 3c 50 6d 95 bd
       -0.08284248 0.04043363 0.029697947 -0.0729624
0001d0 af a6 7c bd e6 00 ae 3d ea 58 5b bd de d7 93 bc
       -0.0616824 0.08496265 -0.053551592 -0.01804727
0001e0 0a ad 73 bd 09 47 07 3d 09 9f 59 3d 18 a5 8d bb
       -0.059491195 0.03302673 0.053130183 -0.004322659
0001f0 78 42 f3 3c 5e fd a7 3c 4d 88 25 bd 34 83 2b bd
       0.02969478 0.020506557 -0.04041319 -0.041873172
000200 c0 29 68 3c 6c e5 c7 bc 60 4d e1 3c 94 e2 3e bc
       0.01417011 -0.024401389 0.027502716 -0.0116507
000210 9f 52 7e 3d 8a 6d 8d bd 0c 8d e0 bc e7 4a c4 3d
       0.062090512 -0.069056585 -0.027411006 0.09584599
000220 fc d6 11 3c 0d 03 66 3c e9 ad 97 bd 54 49 81 3c
       0.008901354 0.014038813 -0.074062176 0.015782036
000230 c1 73 b2 bc a9 bb a7 3c 06 41 06 3d 8c be e8 3c
       -0.021783711 0.020475226 0.032776855 0.028411172
000240 62 c4 31 3d 0f fc 60 bd 27 c1 22 bd b3 24 2e 3c
       0.043400176 -0.05492788 -0.039734986 0.010628867
000250 f1 f1 92 3d d6 90 32 3c d4 1f 82 3d 42 8a 2e bd
       0.07175053 0.010898789 0.06353727 -0.04261232
000260 33 c7 04 3b 3d d7 7a bd b1 01 19 bc ec 44 94 bd
       0.0020260334 -0.061240423 -0.009338782 -0.07239708
000270 da 2b 8d bc 77 e4 99 bd 99 16 8a bd 13 80 59 3d
       -0.017232824 -0.07514279 -0.067425914 0.053100657
000280 63 2d 70 3d 66 e2 c3 3b 9d e4 6e bd 01 6d d4 3d
       0.058637034 0.0059779165 -0.05832349 0.10372353
000290 80 ec e8 bb c2 03 b6 3d d8 2e 13 bd 51 9f 5d 3d
       -0.007108271 0.088874355 -0.035933346 0.054107014
0002a0 3c 01 79 bd ae 4b 20 3c 90 07 b3 bd 59 96 cf 3d
       -0.060792193 0.009783668 -0.08741677 0.101360984
0002b0 80 57 4c 3d 4a 1a ae bd c4 73 5c bd 3c 50 44 bd
       0.049888134 -0.08501108 -0.05382134 -0.04792808
0002c0 a4 aa 3e bd a2 5a 6e 3b f6 6a db bd 57 17 99 3b
       -0.046549454 0.003636994 -0.107137606 0.004671972
0002d0 1c d5 c5 bd b9 f6 b6 bd d2 4c bf 3c 3b 84 d8 3d
       -0.09659788 -0.08933777 0.02335206 0.10572096
0002e0 79 bd ed bc 47 da 87 bd f4 95 7b bd 7a b8 ee bc
       -0.029021012 -0.0663343 -0.061422303 -0.0291407
0002f0 7a 1f a7 bd 2e 5a 94 3c 43 04 50 3d 6a 12 73 bd
       -0.081603006 0.018109407 0.050785314 -0.059343733
000300 35 82 cf bd a0 32 af 3d 4b af 5c bc 0e 74 4a 3c
       -0.10132257 0.08554578 -0.0134695275 0.012356771
000310 cc 74 3f bc 7c eb d1 bd 1e df 59 bd 52 4a 34 bb
       -0.011685561 -0.10249993 -0.053191297 -0.0027510119
000320 20 ee 10 3d 70 f2 75 bd e2 af ae bd e6 06 8a 3d
       0.035383344 -0.06004566 -0.08529641 0.06739597
000330 44 d5 d0 bd ad 98 8f 3d e8 cf a5 3d be f4 11 3d
       -0.10196927 0.070115425 0.080962956 0.035633795
000340 58 50 d7 3d a7 ce a0 3d 3e 99 46 3d 86 18 a1 bc
       0.10513371 0.07851916 0.048485987 -0.019665014
000350 8c f1 c1 3d a5 57 aa 3c 8c 8d d0 bd bb ea be bb
       0.094698995 0.020793745 -0.10183248 -0.005826322
000360 be 6b b1 3d d0 64 c2 bd 11 95 3c bd 53 b2 55 3d
       0.08663128 -0.09491885 -0.0460406 0.052172016
000370 42 d6 9d 3d 51 dc 85 bd c0 4f 50 bc f4 8a 4d 3d
       0.07706882 -0.06536163 -0.012714326 0.050181344
000380 81 8b a3 3d a4 05 f1 3c 4e 93 3d bd 9c d0 9c bc
       0.07985593 0.029421635 -0.04628306 -0.019142441
000390 58 93 8d 3d 2f 4b f0 bb 69 fd a8 bd 92 95 7f 3d
       0.06912869 -0.0073331813 -0.08251459 0.0623985
0003a0 43 a6 19 bb 31 4e 3e 3c f8 84 b6 3d c4 98 3c 3d
       -0.0023445047 0.011615322 0.089120805 0.046044126
0003b0 17 03 c0 3d de fe be bd ed bb a7 bd b8 df 0b 3d
       0.09375589 -0.09325956 -0.08190141 0.0341489
0003c0 dd 19 80 bd b1 a6 b4 bd 84 34 19 3c 7a 44 b4 3d
       -0.06254933 -0.08820856 0.0093509 0.08802123
0003d0 25 aa 8e 3d db 35 00 bd 6b 55 5c bd f4 2d c9 3d
       0.06966046 -0.03130136 -0.0537924 0.09823218
0003e0 78 88 02 bd f8 39 b4 3d 9f 3f 9b bd 19 4c 8c 3d
       -0.031868428 0.08800119 -0.07580494 0.06850452
0003f0 bd 38 c7 bd 55 ea 85 bd 85 00 25 bd cd 12 27 bc
       -0.09727619 -0.06538836 -0.0402837 -0.010197354

net.flow_mapping.0.affine_layers.0.net.2.bias f4 [32]
000000 f4 d5 0f bd 9a 8e 3f be 89 ff 70 bd 02 4a a3 bc
       -0.03511615 -0.18706742 -0.058837447 -0.01993275
000010 12 c7 23 bc 17 2b 87 bc f7 d2 89 3d 1b d4 49 bd
       -0.0099961925 -0.016500039 0.067296915 -0.049274545
000020 99 1e cd bc 6a 97 45 3e f9 cd 13 3d 95 67 83 3c
       -0.025039004 0.19296041 0.036085103 0.016040603
000030 fb 93 8b 3d 7c 82 cf 3b ca 2a 3b 3b c0 1e 91 bd
       0.068153344 0.0063326936 0.002855944 -0.07085943
000040 be 94 bd bd d5 af a2 3d 92 52 fd 3a 3b a1 cc bd
       -0.09256886 0.079436935 0.0019326976 -0.0999169
000050 53 1b 03 3c 0e 05 c6 3c 2d 5a de 3c f9 46 d9 3c
       0.00800212 0.024172332 0.027142609 0.0265231
000060 74 3e 85 bd ac 99 47 be 40 ea 3d 3d 81 08 88 3b
       -0.065060526 -0.19492215 0.046365976 0.0041514044
000070 7b 9b 7f be 3c b1 77 bd d7 50 8c 3a e3 29 29 3d
       -0.24961655 -0.06047176 0.0010705244 0.041299712

net.flow_mapping.0.affine_layers.0.net.4.weight f4 [32, 32]
000000 73 3c 72 3c 7d 5c c7 bc b2 50 ba bd ab f0 82 bd
       0.01478492 -0.024336094 -0.09097423 -0.0639356
000010 a7 ba 02 3d 92 3a 64 bd c1 33 c6 bd 84 39 fe 3c
       0.031916287 -0.05571992 -0.0967784 0.031033285
000020 c5 cc 5e 3b ff ec d4 bd 64 a0 10 bd 85 9c 80 3d
       0.0033996564 -0.10396766 -0.03530921 0.06279854
000030 c8 c0 4d 3c c0 f2 ff 3c dc 4e 16 bc 0e f0 a9 3d
       0.01255817 0.031243682 -0.009174075 0.0829774
000040 c3 fa 18 3c 55 38 aa bd 47 32 42 3d 44 85 f2 bc
       0.00933713 -0.08311526 0.04741123 -0.029604562
000050 c0 55 35 3d e6 72 ef 3c 98 99 55 3d cc 37 8d 3d
       0.04427123 0.029229593 0.05214843 0.06895408
000060 27 95 bf 3d 40 6e a4 bc df d2 da ba 50 89 7a bb
       0.093546204 -0.020072103 -0.0016694925 -0.0038228817
000070 20 af 88 3d 9a a5 13 bd 2f fc d7 3d 73 a6 e3 3c
       0.066740274 -0.0360466 0.10546147 0.02778933
000080 e4 ac ac bd 45 8a c2 bd cf a8 a7 bd f3 d5 4e bd
       -0.08431414 -0.09499029 -0.081864946 -0.050497007
000090 66 1f d8 bd 4c 12 c2 bc c4 a5 a6 bd e5 3a bb 3d
       -0.10552864 -0.023690365 -0.08137086 0.091420926
0000a0 35 32 d6 bd 64 73 9f bd 28 c2 d3 3d 98 3a 0f bc
       -0.10458795 -0.07785681 0.10339767 -0.008741997
0000b0 5a 65 5f bd d7 86 05 bd e0 51 a4 3b b6 f4 d5 bd
       -0.054540016 -0.032599296 0.005014643 -0.104470655
0000c0 6f 3a 9c 3d e9 02 51 3d 40 3b d7 bd 6d e6 14 3d
       0.07628333 0.051028166 -0.10509348 0.036352564
0000d0 73 a4 93 bc 5f bd 0e bd f8 95 3a bd db cf 2f bc
       -0.018022751 -0.034848567 -0.045553178 -0.010730709
0000e0 6c 27 c8 bd a1 fa be bd df 56 a1 ba b9 3f 18 bd
       -0.09773144 -0.093251474 -0.0012309215 -0.037170146
0000f0 82 ff b1 3d d5 15 cd bc b9 90 8e bd 54 10 d1 bc
       0.086913124 -0.025034824 -0.069611974 -0.025520481
000100 9f 14 04 bb 66 57 80 bd 66 31 4e bd fc f9 fd 3c
       -0.0020153893 -0.0626667 -0.05034008 0.03100299
000110 32 89 ff 3b 29 a1 04 bd e3 fa 0a 3c f8 03 9b bd
       0.0077983374 -0.032380257 0.008482668 -0.07569116
000120 6b 02 43 bd e3 0f b6 bd be 8b 21 bd 3b 14 a3 bc
       -0.047609728 -0.08889749 -0.03943991 -0.019907108
000130 a5 81 1e 3d 45 6b 7e bd 02 da 97 bd 92 c6 78 bd
       0.038697857 -0.06211402 -0.074146286 -0.060736246
000140 e8 62 3c 3d 4d 9b d1 3d ea d1 99 3c 77 cb b7 3d
       0.04599276 0.102346994 0.018776853 0.08974355
000150 5d 0f cc 3d a0 5a 96 3a 90 cf b6 bd 73 fe cf 3c
       0.09963868 0.00114711 -0.08926308 0.025389886
000160 02 72 d8 bd c7 fc ed 3b db 24 c6 bd 59 12 82 3d
       -0.1056862 0.0072627994 -0.096749984 0.06351156
000170 4e 8f 92 bc d1 29 28 3d e0 94 2b 3d 60 03 6e 3d
       -0.017890599 0.041055504 0.041890025 0.058108687
000180 bf 5c 5c 3d 01 51 0f 3d 2d c6 9a bc 12 9b d9 3c
       0.053799387 0.03498936 -0.018893326 0.026563201
000190 2e e3 9d bd ac 0e 9c 3d 5e a3 ce bd b2 ab cd 3d
       -0.07709347 0.07619986 -0.100897536 0.10042514
0001a0 0e b5 18 bd 08 4b 9f bd d4 e4 e0 3b 59 9a 9f 3c
       -0.037282042 -0.07777983 0.006863216 0.019482778
0001b0 c2 55 95 3c 82 68 63 3d a6 65 e3 3c 8b 24 af 3d
       0.01822937 0.05551959 0.02775843 0.08551892
0001c0 5e 8a bb bd d3 a7 2d bd 8a 98 db bc ca 06 93 3d
       -0.09157251 -0.042396378 -0.026806135 0.07179029
0001d0 b8 7c 0b bd c7 1c 97 bd b1 5f 41 bc 75 bd 07 bd
       -0.034054488 -0.07378536 -0.0118026 -0.033139665
0001e0 ba 80 cf 3c b0 42 da bd 60 29 32 3d 2b 47 6b bc
       0.025329936 -0.10657251 0.04349649 -0.0143602295
0001f0 26 c2 f8 bc f0 d2 5f bd f7 1c 75 3d fc ef 84 bd
       -0.030366015 -0.054644525 0.059842076 -0.06491086
000200 0e 5d d0 bc 58 4b 92 bd 35 46 a4 bc 02 dd 98 bd
       -0.025434997 -0.07143277 -0.020053009 -0.07464029
000210 20 09 90 bd d9 4d 2d bd 6b 9e 74 3d f4 0e 15 3d
       -0.070329905 -0.04231057 0.05972139 0.036391214
000220 7b 63 72 bc 3f cf 91 3c ad b4 cc bd 7b 50 e5 bc
       -0.014794226 0.017799018 -0.09995399 -0.027992478
000230 84 49 79 3a e8 25 d5 3c 51 18 7a bd 49 57 ae bd
       0.0009509551 0.026019052 -0.061058346 -0.08512742
000240 28 db 4a bc 86 92 9b bd 22 10 c4 bd 15 1e 9b 3d
       -0.0123813525 -0.075963065 -0.095733896 0.07574097
000250 f6 f1 91 bd ff f5 a7 3d fd 4e c8 3d b5 3e 4c ba
       -0.071262285 0.08201217 0.09780691 -0.00077913265
000260 d0 6c db 3d ef fc 8f bd 49 cf 50 bc ce e2 65 3c
       0.10714114 -0.07030665 -0.012744733 0.014031125
000270 ab 19 3f 3d e4 f3 b4 bc c7 03 90 3d 01 0c ce bd
       0.04665534 -0.022088952 0.070319705 -0.10060883
000280 b6 b8 1c 3d 4e f1 03 3c 6e ea fc bd ba bc 45 bd
       0.03826209 0.008053137 -0.123494014 -0.048275687
000290 db c4 97 3d 95 5f bd 3d 2c 2d d7 bd a2 61 ca bd
       0.07410594 0.092467465 -0.10506663 -0.09881903
0002a0 97 b7 e6 bc 27 4d 0f 3d 01 87 c6 bd 35 fa af bd
       -0.028163714 0.034985688 -0.09693719 -0.08592645
0002b0 7b 43 67 3d d7 35 c6 bc cb 9c 5e bd e6 1b ac bd
       0.05646084 -0.024195595 -0.05434875 -0.08403759
0002c0 04 23 9e bc 49 92 6c bd 62 21 a0 bd b0 93 8a bd
       -0.019303806 -0.057756696 -0.07818867 -0.067664504
0002d0 87 17 aa bd 9b bc af 3d af 68 a4 3d ab 91 a5 3d
       -0.08305269 0.085808955 0.08027779 0.080844246
0002e0 70 8f 8a 3d 10 90 0a bd 8e 11 d3 bc 25 f9 a2 3c
       0.0676564 -0.033828795 -0.025765207 0.019894192
0002f0 4f ae 15 3d e3 af ed bc 4e d4 a7 bd 91 d3 a2 3d
       0.036543187 -0.029014533 -0.08194791 0.07950509
000300 0b 6c cf 3c 2d 67 11 3d e9 35 91 3d d3 f7 66 3d
       0.025320074 0.035498787 0.07090361 0.056388687
000310 dd 74 b0 bd 9d 46 67 3c 8c 43 c1 bd 31 c9 48 3c
       -0.0861604 0.014115957 -0.09436712 0.012254999
000320 d0 d1 ff bc 0a 48 89 3d 0f ab b5 3d 56 d4 fe bb
       -0.031227976 0.067031935 0.088705175 -0.0077767773
000330 b2 c6 82 bd 10 ce 4e bc ea 7a 03 bd 95 ad d5 bd
       -0.063855544 -0.012622371 -0.03209964 -0.10433499
000340 d0 25 d0 3d 31 40 89 3c 15 df 28 ba 86 81 8e bd
       0.10163462 0.016754242 -0.0006441933 -0.069582984
000350 af 4a a3 bd bc e9 1c 3d 9e 2e c2 bc e9 b7 45 bc
       -0.07973229 0.038308844 -0.02370387 -0.012067773
000360 34 dc e5 3c 5c 76 26 bd 31 38 06 3d 7d 97 d1 bc
       0.028059103 -0.04064022 0.032768432 -0.02558493
000370 b2 71 a3 bd ad 74 59 bd 83 57 2d 3d fa 50 cf 3c
       -0.0798067 -0.053089786 0.042319786 0.025307167
000380 3a cd b9 bc 7b c7 23 bd 93 66 dd 3d b7 d1 11 bd
       -0.022680867 -0.03998516 0.1081058 -0.03560039
000390 62 10 90 bd 69 59 8b 3c 7c 7e 00 bd 57 bc 2d 3d
       -0.07034375 0.017010408 -0.031370625 0.042415943
0003a0 5a ca 14 3d 97 44 71 3d 89 fd 2b bd e3 b6 7a 3d
       0.03632579 0.058903303 -0.041989837 0.06120957
0003b0 e4 14 04 bd 4f fa 1a bd 9b 78 cf bc 13 48 87 bd
       -0.032246485 -0.03783637 -0.025326064 -0.06605544
0003c0 42 4b 5e bc e6 e1 3c bd dd 0a b9 3d 9e 64 2b 3c
       -0.013567748 -0.04611387 0.09035275 0.010461001
0003d0 3a 7a 48 3d ec e7 a1 bb df 5f 9b 3d dd aa ab 3d
       0.04894469 -0.0049409773 0.07586645 0.08382199
0003e0 d0 3b 92 bd c3 37 6c 3d 6f bd bd 3d 18 9e 23 bd
       -0.071403146 0.057670366 0.09264647 -0.03994569
0003f0 77 be bc 3d eb 11 2b bd d7 e1 53 bc d3 bf a0 3d
       0.09216016 -0.041765135 -0.012932262 0.078490876

net.flow_mapping.0.affine_layers.0.net.4.bias f4 [32]
000000 7c 9c 91 3c 21 b3 cc 3d d0 96 ab 3c eb cd 8d 3d
       0.017774813 0.099951036 0.020945936 0.06924041
000010 0b 40 49 3d 47 53 ba 3d 8c e1 04 3d 15 df b8 bd
       0.04913334 0.09097915 0.03244166 -0.090269245
000020 d3 fb cf bc d4 f6 12 3e 28 1b c9 bd cb 4e c7 3d
       -0.025388634 0.1435197 -0.09819633 0.097318254
000030 81 08 d1 bd b3 a0 f6 3d d6 cd 9a bc c1 2f 69 be
       -0.102067 0.1204237 -0.018896978 -0.22772123
000040 67 12 5a be 9d d1 5c 3c 81 09 1b bd d5 c4 0f 3f
       -0.21296082 0.01347771 -0.03785086 0.56159717
000050 1b b2 f4 3c 91 dc de 3e 58 6e d8 3d 71 5e ac bd
       0.029870084 0.43527654 0.105679214 -0.08416451
000060 10 c9 c1 3c 6b e5 c3 bd 6f 77 47 3d 71 3b 2b be
       0.023655444 -0.095652424 0.048697885 -0.16721894
000070 a6 17 b4 3d 5f 17 d6 bd 9a 38 83 bd 4a eb 8d bb
       0.08793573 -0.104536764 -0.0640728 -0.004331027

net.flow_mapping.0.affine_layers.0.net.6.weight f4 [32, 32]
000000 c8 94 74 3d 55 9f b9 3d f2 df 60 3d 19 41 a8 bd
       0.0597122 0.09063593 0.05490107 -0.082155414
000010 f4 75 af bd 9a 26 a2 3b 8f 0d 12 bb 72 d0 8e bd
       -0.0856742 0.0049484493 -0.0022285914 -0.069733515
000020 05 cd ae 3d 9b 87 6c bd b1 92 2d bd 3d 43 7c bd
       0.08535198 -0.05774651 -0.042376224 -0.06158756
000030 06 72 c7 3a 24 5e a3 bc 2a d8 1d bd 52 a2 7d 3c
       0.0015216477 -0.01994235 -0.03853623 0.015480595
000040 4b a1 ce 3c ec 5f b6 bd 86 1d cc 3d 42 c4 cf bd
       0.025223395 -0.089050144 0.09966569 -0.10144855
000050 01 b4 9a 3d 27 e4 b6 3d 6c 30 90 bd af 55 d8 bd
       0.07553864 0.08930235 -0.07040486 -0.10563218
000060 a2 7b ff bc 30 b7 51 bc af b5 85 bd a7 26 eb bc
       -0.031186882 -0.012800023 -0.06528794 -0.028704954
000070 9f b8 87 3d cf 15 1e bb 6a b9 62 bd ad ec a2 3d
       0.066270106 -0.0024121886 -0.055352606 0.079552986
000080 41 52 74 39 e9 01 42 3c 7c 98 ad 3c a4 b3 2c bd
       0.00023300295 0.011841276 0.021190874 -0.042163506
000090 e6 29 65 3d 4d a4 75 3d ca f1 3d 3b 41 a1 53 bd
       0.05594816 0.059971143 0.002898323 -0.051667456
0000a0 16 a8 9f bc ed 9e 0b 3d ac e8 1b 3d 99 24 6d 3d
       -0.01948933 0.03408711 0.03806369 0.05789623
0000b0 a6 1f 07 bb 7e 15 4d bd bc 36 b7 3d 26 8f c4 3d
       -0.002061823 -0.050069325 0.08945987 0.09597616
0000c0 aa 90 ac bd 67 95 c3 3d d8 8b bb 3c 6d 6b d7 bd
       -0.0842603 0.095499806 0.022893831 -0.10518537
0000d0 e4 fd d2 bc 2b 78 44 3c 03 1c 39 3d c8 1c 27 3c
       -0.02575583 0.011991541 0.04519273 0.010199733
0000e0 84 5f 94 3d a8 8c cc 3c f9 46 c9 bd b1 48 97 3c
       0.07244781 0.024969414 -0.0982799 0.01846728
0000f0 71 2c 94 bd 66 36 71 3c 4e f8 1c 3d af 5c 47 bd
       -0.07235039 0.014722442 0.03832274 -0.048672374
000100 75 52 a8 3d d3 09 3c 3d cf 78 a3 bc 16 99 d4 bd
       0.082188524 0.045907807 -0.019955067 -0.10380761
000110 52 e1 91 bd d8 5d a3 3d 11 7e 8d 3d fd 27 ef 3a
       -0.071230546 0.07976884 0.06908811 0.001824617
000120 da ca 51 3d c6 bb b7 3d 33 c1 32 bd 51 e9 d7 3d
       0.051218845 0.08971362 -0.04364128 0.105425484
000130 bb 87 c9 3d 42 6e b5 bd 88 f8 c9 bd 25 89 2e bd
       0.09840342 -0.08858921 -0.09861857 -0.04261126
000140 ff aa 74 bd 1d ed 39 3d 29 d6 99 bc c9 10 7c bd
       -0.059733387 0.045392144 -0.018778877 -0.061539445
000150 20 43 9e 3c 4a 6f cd 3a c4 6a b3 3d 7e 0d 53 bc
       0.019319117 0.0015673426 0.08760598 -0.012881635
000160 6f 8d a3 bd ac db 8a bd 07 0e c9 bd ec bb 13 3d
       -0.07985961 -0.0678018 -0.09817129 0.03606789
000170 02 41 d6 3d 89 15 7e 3d 0d c0 de 3b 6a 43 59 bc
       0.10461618 0.062032256 0.0067977966 -0.013260702
000180 a2 90 98 bd 19 52 98 bb 9e ee 0c 3d cf ee 2f bd
       -0.074494615 -0.0046484587 0.03440725 -0.042952355
000190 d1 7f 8d 3d 1f 96 a3 bd 8e 04 9a 3d 00 e1 c6 bc
       0.06909145 -0.07987618 0.075204 -0.02427721
0001a0 72 6b 38 bd 17 b3 80 bd 26 fc 17 bd 98 89 99 3d
       -0.045024343 -0.06284159 -0.037105702 0.07496947
0001b0 7f e0 e2 3c 94 26 b8 bd 8e dd 22 bd 8f c1 75 bb
       0.027694939 -0.08991733 -0.039762072 -0.0037499403
0001c0 2a b2 9e bd f6 75 38 bd 98 cb 21 bd cb 71 8a 3d
       -0.07748826 -0.04503437 -0.039500803 0.067599855
0001d0 80 fe 4b bd ad 8a 65 3c 15 09 57 3d 04 3e 8d bd
       -0.049803257 0.014010114 0.052498896 -0.06896594
0001e0 ae 5a a5 bc bf 64 91 3c c3 28 6d 3a 37 18 2f 3d
       -0.020184841 0.017748235 0.00090469065 0.042747702
0001f0 bf 45 29 bd 9a 5b 4b bd d7 b0 cf 3b b8 11 a3 bd
       -0.04132628 -0.049647905 0.0063382196 -0.07962364
000200 5a c5 84 bd 27 6d 22 3c 82 6c 8e 3c 2c d4 a7 3c
       -0.06482954 0.009913719 0.017385725 0.020486914
000210 ba 2d 8e bd 76 a7 08 bc 19 e3 98 bd 3d 09 7b bc
       -0.069423154 -0.008340707 -0.074651904 -0.015322027
000220 ba ff 18 bc e8 5f 80 3d 23 63 83 bd 3e 9d c9 bd
       -0.009338314 0.06268293 -0.06415393 -0.09844445
000230 e5 d1 c5 bd e8 47 64 bd be c2 b1 bd 2b 0e c5 bc
       -0.09659175 -0.055732638 -0.08679722 -0.024054607
000240 b6 fb 98 bd ab 93 c2 bc c3 a8 be bd 37 d4 0d 3d
       -0.07469885 -0.023752054 -0.093095325 0.034626212
000250 c5 4b 82 3c 86 bd c0 bd 1e 11 9b bd f1 68 23 3d
       0.01590527 -0.09411149 -0.07571624 0.039895
000260 50 45 5a 3d 45 00 b9 3d a5 aa fa 3c 4f 4a 38 3d
       0.053288758 0.090332545 0.030598948 0.04499274
000270 eb 5c 60 3d 4c d3 79 3d 02 35 57 bd 3f d3 cd bd
       0.054776113 0.060992524 -0.052540787 -0.100500576
000280 51 6c b5 3c 75 27 6b 3b 20 c2 96 3c 58 a6 df 3c
       0.022146376 0.0035881673 0.018403113 0.027300999
000290 b9 f5 c8 bd 9a 37 1f bb 67 3f c1 3d 0c ae 41 3c
       -0.09812493 -0.0024294616 0.09435921 0.011821281
0002a0 99 1d c6 3d c6 d4 90 bd 24 d2 a8 bd fd d1 b5 bd
       0.09673614 -0.07071833 -0.08243206 -0.08877943
0002b0 8c 96 20 bd ef 1a ad bd 7b 8a 86 3d ff 07 bc bd
       -0.039206073 -0.08452403 0.06569382 -0.09181213
0002c0 13 fa 56 3d 9f c3 82 3c e8 aa 12 bd 3b 0a d8 bd
       0.052484583 0.01596242 -0.03580752 -0.10548826
0002d0 8a 98 98 3d be 1e 39 bd 3a 5a b4 3d 92 e6 65 3d
       0.074509695 -0.045195334 0.08806272 0.056128092
0002e0 87 f4 9f bd f6 bf af 3d 07 2f 4a bc de 68 0c bd
       -0.07810312 0.085815355 -0.012340314 -0.034279697
0002f0 6b e1 91 bd 0a cd d3 3d 8b f3 66 3d 45 66 2a 3c
       -0.07123073 0.103418425 0.056384604 0.0104003595
000300 ed d1 ca bd 0c 5f 6b 3c 71 9c 29 3d d1 54 94 3d
       -0.099033214 0.014365923 0.04140896 0.0724274
000310 77 62 12 ba 7d 82 1c 3d 38 0a 79 3d 82 04 ac 3d
       -0.00055841304 0.03821038 0.06080076 0.08399297
000320 66 39 87 3d d6 50 3b bd cc 52 4f 3d 50 2f b9 bd
       0.06602745 -0.045731388 0.05061607 -0.09042227
000330 28 35 d4 3d 01 7f c3 3d 2e 5b 9d 3a 00 1e 71 3d
       0.10361701 0.095457084 0.0012005323 0.0588665
000340 1a 21 8d 3d d4 6c 62 3d 1d 3a ce 3d 82 f5 af 3d
       0.06891079 0.055279568 0.10069678 0.08591749
000350 8b dc 9f 3c d3 45 08 3e fa bb 20 bd 25 db d5 bd
       0.019514343 0.13307886 -0.03924177 -0.10442189
000360 06 31 2b 3d 6a 68 d0 bc 56 f9 57 3c 6e 54 01 3d
       0.0417948 -0.025440414 0.013182005 0.03157466
000370 89 94 a7 3c 96 16 ad 3c 49 a1 ba 3d 94 51 d8 bd
       0.02045657 0.021128934 0.09112794 -0.10562435
000380 e8 2b fe bc 92 e9 81 bc 08 66 02 3d 74 bb 7e bb
       -0.031026796 -0.015858445 0.031835586 -0.0038869055
000390 79 3d af ba 77 28 d7 3a 3b 2c e8 3c 62 3f 0a 3d
       -0.0013369761 0.0016415258 0.028341403 0.033751853
0003a0 be fc 29 3d 19 2e cc 3d df 07 07 bb 7f 55 8d 3d
       0.0415008 0.0996973 -0.0020604057 0.06901073
0003b0 a4 a5 0c bd 60 4b 21 bb cc fb be bd 31 56 ae bc
       -0.034337655 -0.0024611577 -0.0932537 -0.021281334
0003c0 a9 8a f1 bd 8c 9f 04 bd 4d ab 03 3d b7 2c 3b bb
       -0.117940255 -0.03237872 0.032145787 -0.0028560588
0003d0 40 b4 16 3d f3 d8 33 bd 38 af 92 3c c9 80 c2 bd
       0.036792994 -0.04390807 0.017905816 -0.0949722
0003e0 72 e6 49 3c 6f 34 94 3d 8f d7 89 bd 6d 95 c6 bc
       0.012323009 0.072365634 -0.06730568 -0.024241174
0003f0 6d d5 b9 bd 77 ff 5f ba c0 1d b4 bd 20 e0 4b bd
       -0.09073911 -0.0008544842 -0.08794737 -0.04977429

net.flow_mapping.0.affine_layers.0.net.6.bias f4 [32]
000000 c3 44 0c 3d 74 ad 83 bc 34 86 08 bc 7e 31 a6 bd
       0.034245264 -0.01607392 -0.008332778 -0.08114909
000010 66 7d 50 3d 44 4e 5a bd 4b 8e 04 3d 1a 7f d1 3d
       0.05090084 -0.053297296 0.032362264 0.10229321
000020 bc b5 b0 3d 96 88 20 be 46 f6 44 bd 9e 06 90 be
       0.08628413 -0.15677103 -0.048086427 -0.2813005
000030 ab 6b 83 3d 5b fb 6a 3d 87 01 f2 bd 32 fa 8e 3d
       0.064170204 0.057368618 -0.118166976 0.06981315
000040 5e 61 ca bd 04 04 44 bc 99 de f2 bc 7f 72 8a bc
       -0.098818526 -0.011963848 -0.029647158 -0.0169003
000050 23 c1 cb 3d 31 37 0b 3e e6 e6 93 3d 47 3d 79 bd
       0.09948947 0.13595273 0.07221775 -0.060849454
000060 15 73 09 bf c3 47 6b bd 12 30 46 bc bf bc 02 3e
       -0.53691226 -0.057441484 -0.012096422 0.12767313
000070 02 27 5e bc 99 f4 d2 3e cb 7e 2c bd 63 b7 fa 3c
       -0.013559105 0.41202238 -0.042113107 0.030605024

net.flow_mapping.0.affine_layers.0.net.8.weight f4 [32, 32]
000000 e9 80 1d 3d 02 c4 15 bd fb e0 bd 3d 9f 03 88 bd
       0.038453016 -0.03656388 0.09271427 -0.06641316
000010 19 be 26 3d 11 f7 5f bd 60 ae 3e 3d 36 1f fc 3a
       0.040708635 -0.05467898 0.046553016 0.0019235376
000020 87 ed ea 3d 4f 59 17 3c 48 e6 94 3a 1f 3d af bd
       0.11471086 0.009237601 0.0011360133 -0.0855658
000030 95 a2 d2 3d 49 79 ba 3d c3 54 d0 3d 8b df cd 3c
       0.10284916 0.091051646 0.10172417 0.025131008
000040 7e 49 63 bd d8 a8 48 3d c6 13 01 bd f0 cb ce bb
       -0.05549001 0.048989147 -0.031512998 -0.0063109323
000050 20 6f 8b bd b0 25 0c 3e 6a d0 0a 3e 4b a8 67 bd
       -0.06808305 0.13686252 0.13556066 -0.05655698
000060 ae b0 06 3f f6 28 5a 3d f6 91 94 bd 0b 0c 0a 3e
       0.5261334 0.05326172 -0.07254402 0.13481157
000070 a1 a8 fc bc 01 cd cc 3e e6 2c e1 bc 11 fb 0a 3e
       -0.030842127 0.40000156 -0.02748723 0.13572337
000080 60 b8 11 3d 0c 33 0b bb 53 07 7a bd 4e 88 63 3d
       0.035576224 -0.0021240143 -0.06104214 0.055549912
000090 6e 9d d6 3d c3 83 4a bd 22 cd bf 3c 10 74 15 be
       0.10479246 -0.049442064 0.023413245 -0.14595056
0000a0 ef e5 78 3d af ca 9d bd 89 c3 c2 3d 15 3e c3 bd
       0.060766157 -0.077046745 0.095099516 -0.095333256
0000b0 22 c6 4f bd d6 17 3d 3d 6e af 23 3e f6 e6 22 3c
       -0.050726064 0.04616531 0.1598489 0.009942761
0000c0 59 9c b3 bc 0a 11 a5 3d d7 2b 00 bd cc 48 33 bd
       -0.021925138 0.080598906 -0.03129181 -0.043770596
0000d0 94 e7 f0 bc dc 1b b6 3d b8 45 51 bc 79 e4 a4 bd
       -0.0294073 0.088920325 -0.01277297 -0.0805139
0000e0 4c fb 04 3f 4c 6c be 3d 09 39 d1 3c 39 ef 5b 3e
       0.5194595 0.09298 0.025539892 0.21477975
0000f0 42 54 bd 3d e8 2d fe 3e 0e f3 d1 bd a2 78 92 bc
       0.092445865 0.496444 -0.10251437 -0.017879788
000100 63 2c d1 bd 20 2c 01 3c 82 12 b1 3d 99 1f 9a bd
       -0.10213544 0.007884055 0.08646108 -0.07525558
000110 83 c1 b5 bd d5 55 8a bc c4 85 50 3d 0d d3 25 3d
       -0.088748 -0.016886631 0.05090882 0.040484477
000120 3d 7b 68 bd f3 60 b4 3d 4b 93 62 bd 53 75 30 3d
       -0.056758154 0.08807554 -0.05531625 0.04308064
000130 c5 52 6b ba 70 69 80 bc 56 c2 2b bc 8d 9d ba 3d
       -0.0008976872 -0.015675277 -0.010483345 0.09112082
000140 37 83 b5 bd 8f f5 d9 bc d1 70 58 bc 30 cc 13 bd
       -0.08862918 -0.02660635 -0.013210491 -0.0360834
000150 15 9d d0 3d 13 56 19 3d 37 c3 12 bc 53 81 44 bd
       0.10186211 0.037435602 -0.008957676 -0.047974896
000160 67 77 03 bf 6d be 70 bc 36 4b 91 3c c5 e9 4a bd
       -0.5135407 -0.014693839 0.017736059 -0.049539346
000170 e6 45 80 bc 18 8e 16 bb 15 96 d6 3c 77 7f 68 3d
       -0.01565833 -0.0022972878 0.026194612 0.056762185
000180 1b 44 5a 3d 9a 06 50 3b 50 61 9b bb ea 20 a0 bc
       0.053287607 0.0031742216 -0.004741825 -0.019546945
000190 da ef 8d 3d 30 e3 cc bd 0e ef e3 bd 54 84 bd bb
       0.06930514 -0.1000427 -0.111295804 -0.005783597
0001a0 c8 f5 8c 3d 93 5d 27 3d 96 cb 9b bc 69 90 bc bc
       0.068828166 0.040860724 -0.019017976 -0.023018079
0001b0 df e1 a4 bc 9f ec 2a bd ff be 9a bd d8 17 13 3c
       -0.020127235 -0.041729566 -0.07555961 0.008977853
0001c0 16 90 e1 3c 2d cb 68 3d 6d 8a d8 bd 2d fc 54 3c
       0.027534526 0.05683439 -0.105732776 0.0129995765
0001d0 1a 79 d3 3a df f2 c6 bd 17 e2 15 3c e3 18 5b bd
       0.0016134114 -0.09714293 0.009148142 -0.05349053
0001e0 15 47 3c 3c 60 4a 81 bd 73 50 c8 bb 40 90 e7 bc
       0.011491557 -0.06313014 -0.006113106 -0.028267026
0001f0 ed 4b f8 3c de f0 86 3d eb e0 a0 3d e4 4c a5 3d
       0.030309642 0.065889105 0.078554 0.08071306
000200 b3 ed 17 3d 19 a4 6f bd 60 60 b2 bd 5e d6 bf 3b
       0.037091922 -0.058506105 -0.08709788 0.005854412
000210 06 e1 b2 3d a3 a7 96 bd f9 07 b9 bd e0 99 74 bd
       0.08734326 -0.07356193 -0.09034724 -0.05971706
000220 6e f0 e9 3a 6e 42 d4 bd a3 46 a3 bd 2e 01 25 bd
       0.0017848143 -0.10364233 -0.07972457 -0.04028433
000230 2f eb 05 bd 3d e9 61 bd 63 68 91 bd c2 e5 81 bd
       -0.03269499 -0.055154074 -0.07099988 -0.06342651
000240 37 9b 62 3d 81 10 8e bd 29 80 00 bd 7d aa 86 3b
       0.055323806 -0.069367416 -0.031372223 0.0041096793
000250 f6 b3 a9 bc 2a aa 97 3d fc 04 30 3d 32 67 84 3d
       -0.020715695 0.07405503 0.042973503 0.064649954
000260 c9 34 a2 3d 19 75 b0 bd 67 2e c9 bd 93 4e d4 3b
       0.07920224 -0.086160846 -0.09823304 0.0064790933
000270 f4 69 e3 bd 6d 98 ca 3d 08 8b d2 bd ca f3 5d 3d
       -0.11104193 0.09892354 -0.10280424 0.054187573
000280 38 a6 6c 3d 75 eb a8 bb 25 4b d6 3d 68 ea 89 3c
       0.057775706 -0.005155022 0.104635514 0.016835406
000290 c4 ac cd bc 95 37 16 bd 20 2e c8 3b 89 97 c2 3d
       -0.025106795 -0.0366741 0.006109014 0.09501559
0002a0 2f b9 aa 3c 5f ac 23 3d d9 f3 51 3d a2 22 d4 bd
       0.020840256 0.039959308 0.051257942 -0.10358168
0002b0 6f 7c 90 3d 57 e0 d8 3c 22 62 c6 bc f2 29 ba 3d
       0.07054984 0.026474161 -0.024216715 0.09090032
0002c0 26 7b ce 3d b0 60 37 3d 8f 1e 75 3d a9 90 40 bc
       0.100820825 0.044769943 0.059843596 -0.01175324
0002d0 50 6e 67 bd 1a 71 ce bc 5a 55 0b be b8 2f 9d bd
       -0.056501687 -0.025200415 -0.13606778 -0.07675117
0002e0 96 d4 82 be a0 0d 8c bd 62 29 d8 bc 44 2c 85 bc
       -0.25552815 -0.06838536 -0.02638692 -0.016256459
0002f0 24 46 c4 bc bd 7c 83 bd 78 ff 56 3c 1a 09 b1 3c
       -0.023959227 -0.06420276 0.013122432 0.021610785
000300 be be 75 3d 11 90 d5 3d 34 f3 3d 3d 36 18 7c 3d
       0.05999636 0.10427869 0.046374515 0.061546527
000310 3d e6 d5 3c d6 d3 30 3d 6e e7 a8 3c 08 05 0a 3d
       0.026110763 0.043170772 0.020618167 0.033696204
000320 c9 5d 17 3d b0 f6 9d 3d d1 5e ac 3b 83 c8 f4 3d
       0.036954675 0.077130675 0.0052603264 0.11952307
000330 cf 60 88 bc c7 ad 2a bd 84 6f 5d bd 81 c4 2d b9
       -0.016647724 -0.041669633 -0.054061428 -0.00016571769
000340 e9 ac c8 3d d5 66 95 3d 04 b8 39 bc 25 75 bc 3d
       0.09798605 0.07295004 -0.011335377 0.09202031
000350 c6 82 7e bd 2e 10 4c 3d e9 95 3f 3c 28 2a 9c bd
       -0.062136434 0.049820118 0.011693456 -0.07625228
000360 70 a8 0a 3f 1a 2a ba bd bb a4 6f 3d 7b de ab bd
       0.54163265 -0.090900615 0.05850671 -0.08392044
000370 ef 8c c0 bb 85 d1 e4 bd f0 c4 c9 3c ef d5 38 b9
       -0.0058761756 -0.11172775 0.02463004 -0.00017627304
000380 40 ff 33 3d 14 e0 35 bd 98 3a 0d 3c d7 1c 0e b9
       0.043944597 -0.04440315 0.008619927 -0.00013552919
000390 d4 22 be 3d f2 df da 3d 34 97 10 3d 98 22 7f 3d
       0.09283987 0.106872454 0.03530045 0.06228885
0003a0 f7 50 10 3d b6 73 91 3a aa 0e 06 bd 16 c6 9b 3d
       0.035233464 0.0011097107 -0.03272883 0.07606141
0003b0 b4 3f a7 bd 3e fa 25 3d 4e 49 ed 3d 95 54 8d bd
       -0.08166447 0.040521853 0.115862474 -0.06900898
0003c0 03 9d 88 3d 88 ed d6 3d e9 aa 89 3d 98 e3 d5 bd
       0.066705726 0.10494524 0.06722052 -0.10443801
0003d0 78 c0 9b bd a0 89 6f 3d d0 e0 de 3d 69 a5 9a 3d
       -0.0760507 0.05848086 0.10882723 0.07551081
0003e0 1d 06 e8 3e 91 1d a8 3d b3 16 3a b9 18 7a b3 3d
       0.45317164 0.08208764 -0.00017746798 0.08763522
0003f0 a4 de 00 3e 4c 9a a6 3e 15 4d 24 bd 9d 46 94 3d
       0.1258493 0.32539594 -0.040112574 0.07240031

net.flow_mapping.0.affine_layers.0.net.8.bias f4 [32]
000000 49 ee 44 3e a0 32 1b 3d e6 a8 1a be cd 3d 55 bc
       0.19231524 0.037890077 -0.15103492 -0.013015223
000010 36 b9 28 bd f0 62 31 3c d8 77 b4 be 8b 03 7c 3c
       -0.041192256 0.010826811 -0.35247684 0.015381704
000020 1e 16 3b 3c 5c 89 95 be 4c 5a f9 3c 4e 4d 26 bd
       0.011418847 -0.2920636 0.030438565 -0.040601067
000030 a4 7b 3a 3d b5 f1 98 bd ee cb 27 3d 5c 30 bd bd
       0.04552807 -0.07467977 0.040965967 -0.092377394
000040 92 79 c5 bd 18 ae e6 3c bc d8 03 3e dc 0e b2 3c
       -0.09642328 0.028159186 0.12875646 0.021735601
000050 3f 42 53 3d c4 85 e4 bc 18 7d 1d be 4e 8a 32 3e
       0.05157685 -0.027895816 -0.1537975 0.17435572
000060 86 5a 52 ba b4 86 ee be 43 5f 18 3e fb 7b 3a 3d
       -0.00080243533 -0.46587145 0.1488009 0.045528393
000070 13 42 ad bd aa 4c b9 bc 9f 51 e5 bc 0b 7b 34 be
       -0.08459868 -0.022619564 -0.027993022 -0.17625062

net.flow_mapping.0.affine_layers.0.net.10.weight f4 [2, 32]
000000 1d ca 1c be 57 35 03 be f1 98 40 3d d7 e3 2b 3d
       -0.15311475 -0.12813316 0.047020856 0.041965332
000010 94 b9 1b 3d a2 50 d9 3c 9d d8 4c bf 1e d6 e3 bd
       0.038018778 0.026527707 -0.80018026 -0.11124824
000020 f4 c2 e5 bd 45 c8 c2 be d6 50 68 3d 58 de f5 3c
       -0.11218825 -0.3804342 0.056717716 0.030013248
000030 54 8d 53 3e d0 d6 a9 3d 11 29 66 3d cf 15 8e 3d
       0.20659381 0.08292925 0.056191508 0.069377534
000040 8f 58 b1 3a 78 85 5f bd 5e a5 06 be ef c0 6f bc
       0.0013530421 -0.054570645 -0.1314902 -0.014633401
000050 e6 c9 72 3d d8 36 81 3d de 4c 24 3e 82 a9 ec bd
       0.059274577 0.06309289 0.16044948 -0.115557685
000060 c0 8d 4d 3d c6 6f 42 bf 61 82 1f be 53 c4 a2 bd
       0.05018401 -0.759518 -0.1557708 -0.07947602
000070 b4 0b 95 3d 8e 80 e1 3c 74 8a b3 3c f1 21 2f 3e
       0.07277623 0.02752712 0.021916606 0.17102791
000080 22 55 ba bf 55 9f ae bf d0 46 43 bf 81 c0 d5 3d
       -1.455723 -1.3642374 -0.76279926 0.10437108
000090 27 00 b6 3d 32 c3 cc be 66 b7 95 be 4d 1f 81 bf
       0.08886748 -0.39992672 -0.29241484 -1.0087677
0000a0 33 8d bb bf fb 88 26 bf 4d 9f 29 bd b3 ba 10 bc
       -1.4652466 -0.65052766 -0.041411687 -0.008833575
0000b0 cb ff b0 bc 7a 57 58 3c 53 8d f1 bc bf c6 a5 3d
       -0.021606347 0.01320445 -0.029486334 0.080945484
0000c0 ed d1 07 bb e6 d0 b2 bf 31 64 b4 bf 30 11 89 bd
       -0.002072449 -1.3970001 -1.4093076 -0.066927314
0000d0 79 8e 9c 3d ed 64 1c bd e9 81 a9 bd e6 16 95 bf
       0.07644362 -0.038182188 -0.082767315 -1.1647613
0000e0 ae 59 c1 bd e2 5c a9 be 68 06 ce bf d8 ae 93 bf
       -0.09440933 -0.33078676 -1.6095705 -1.1537733
0000f0 5b 70 d6 bd 05 14 bb bd e7 da 3f 3d 90 25 a1 bd
       -0.10470649 -0.09134678 0.04683962 -0.078684926

net.flow_mapping.0.affine_layers.0.net.10.bias f4 [2]
000000 93 60 cb bd 9f 35 e3 bf
       -0.099305294 -1.7750739

net.flow_mapping.0.affine_layers.1.net.0.weight f4 [32, 1]
000000 09 4a fd be 40 45 5b be 2f 0b 09 3f 96 62 3e be
       -0.49470547 -0.21413136 0.5353269 -0.18592295
000010 03 ec 76 bc e8 64 26 3e 17 32 10 3f d4 3b 8c be
       -0.015070918 0.1624943 0.5632643 -0.27389395
000020 0e c6 4c bc 4a 72 c8 3e 28 b9 e8 3e 08 30 80 be
       -0.012498392 0.39149696 0.45453763 -0.25036645
000030 57 99 92 be 1c 74 66 be b5 c5 b4 be ac 6f a2 3e
       -0.28632614 -0.2250523 -0.35307088 0.31725824
000040 ee d6 3a 3e 0c 90 64 bd 53 49 04 3f a5 8e 44 3e
       0.18246052 -0.055801436 0.51674384 0.1919504
000050 29 14 16 bf 39 ec 17 3e 10 48 d4 3e 01 55 ec 3e
       -0.5862451 0.14836206 0.4146123 0.46158603
000060 d1 72 95 3d ec 69 0a bf 6e 74 a9 3c d3 24 8c 3c
       0.0729729 -0.54067874 0.0206854 0.017107403
000070 02 19 39 3e 5b 38 07 3f 68 dd 12 bf 1a 73 86 3e
       0.18075946 0.52820367 -0.5736909 0.2625969

net.flow_mapping.0.affine_layers.1.net.0.bias f4 [32]
000000 aa c5 bd 3e fa ad 0a 3f f6 1d b9 3d c8 28 93 be
       0.37064868 0.5417172 0.09038918 -0.2874205
000010 c3 75 a9 3f f3 89 29 bf 78 10 59 3d bb 04 18 3f
       1.3239063 -0.6622612 0.05299422 0.5938222
000020 e3 0a 5c 3f a5 64 a5 3e 58 b1 31 3d 5b 85 15 3e
       0.8595411 0.32303348 0.04338202 0.14601652
000030 2a eb e2 3e 90 99 aa be 00 b7 1d be b2 7c c3 3e
       0.4432004 -0.33320284 -0.1540184 0.38181072
000040 51 9c 47 bf 49 92 8f be 29 87 a0 bc 51 df e9 bc
       -0.77972895 -0.28041294 -0.0195957 -0.028548868
000050 43 a5 05 be 17 bb 46 bf 5e ed fa 3b aa e0 54 bf
       -0.13051324 -0.77629226 0.007657691 -0.8315531
000060 40 0b e0 be d7 ba d0 be bc 2a 8a 3e 1a 9d aa be
       -0.43758583 -0.40767547 0.2698573 -0.33322984
000070 5b 94 c7 3e 20 6c 63 bc 18 47 f5 be e7 2e 03 bd
       0.38980374 -0.0138807595 -0.47905803 -0.03202715

net.flow_mapping.0.affine_layers.1.net.2.weight f4 [32, 32]
000000 ce 51 a0 bd 5d 9d cf bd a3 d6 b0 bd 96 21 bf bd
       -0.07828103 -0.101374365 -0.08634689 -0.09332578
000010 5c 02 4a bc 57 f9 d6 bd 7e 81 c9 3c 63 4c ea 3b
       -0.012329664 -0.104967766 0.02459788 0.0071502193
000020 38 5b c5 3d e6 9a c1 bd 9e 48 9a bd cd c0 8f 3d
       0.09636539 -0.09453373 -0.07533382 0.07019196
000030 e3 f3 c4 3d 7e f3 8f bd ba cf d0 bc 22 5a 55 bd
       0.0961683 -0.07028864 -0.025489677 -0.05208791
000040 e1 ad 11 3d 6c f6 66 bc 90 02 97 bd cb bf fc 3a
       0.035566214 -0.0140968375 -0.07373536 0.0019283233
000050 fc 8a 49 3d 7b 8b 02 bd 76 81 02 3d 7f d6 b0 3c
       0.04920481 -0.0318713 0.031861745 0.021586655
000060 ef fe 9e bd d7 e8 6c bd b0 ad 18 bd 48 88 6f bc
       -0.077634685 -0.05783924 -0.037275016 -0.014619894
000070 f3 cc 71 3c e7 be 0b bc 87 1e 1a 3d f8 07 84 bd
       0.014758336 -0.008529401 0.03762677 -0.064468324
000080 a6 c7 7f bd 1a 53 cc bd d6 05 a7 bb 9f 19 af bc
       -0.06244626 -0.09976788 -0.0050971312 -0.021374522
000090 51 91 75 be f1 7b a2 bd ef f7 08 bd d7 2b ae 3d
       -0.23981215 -0.07933796 -0.033439573 0.085044555
0000a0 6c bf 77 3d b5 07 99 3d 7f 70 98 3d 5f 3e d8 3d
       0.06048529 0.07472173 0.07443332 0.10558771
0000b0 65 a2 ba 3d 11 d8 57 3d 4b bc 80 bc cb 3f 94 3b
       0.091130055 0.05269629 -0.015714785 0.0045242063
0000c0 95 53 59 3b fa 9c a9 3c b5 1b 00 be cd 58 f3 bd
       0.003316139 0.020704735 -0.1251057 -0.11882172
0000d0 1e 84 60 3d c0 df 60 bd 80 fa 3c bd c1 42 01 3d
       0.054813497 -0.054900885 -0.046137333 0.031557802
0000e0 04 f5 ec bd 08 9e eb 3c 7f 7f a5 3d a0 58 c3 bd
       -0.115701705 0.028761879 0.080809586 -0.09538388
0000f0 c1 d9 ef bc 90 de 47 3d b3 12 16 bd 24 17 bb bd
       -0.029278638 0.048796237 -0.036638927 -0.09135273
000100 29 9f 57 3d c4 a9 f3 3a dc c4 4a bd 2f 6c 5e 3d
       0.05264202 0.0018590023 -0.049504146 0.05430239
000110 c0 c4 3d bd d4 0d 43 3d b8 df d5 3d 85 5b 48 3d
       -0.046330214 0.04762061 0.104430616 0.048915405
000120 4f 14 d3 bc ff 6c 85 3c 06 75 ea bc f4 51 55 3d
       -0.02576652 0.016287325 -0.028620254 0.05208011
000130 cc 10 31 bc a8 8c 9b 37 41 d8 a5 3d 50 d9 c9 bd
       -0.010807227 1.8542938e-05 0.08097888 -0.09855902
000140 0f 1e 0a 3d 7c e7 f6 ba 0e 04 88 bd f0 74 80 3d
       0.033720072 -0.0018837298 -0.06641398 0.06272304
000150 a1 70 75 bd 92 fc 9d bc 81 cc 2b bd 84 0b a3 bd
       -0.059921864 -0.019285474 -0.041943077 -0.07961181
000160 54 47 85 3d 3f f8 bb bd ba 31 84 3d c1 ad 40 3d
       0.065077454 -0.091782086 0.06454797 0.047040705
000170 9b cc 09 bd 4b b9 86 3d 89 ed 2f bc a2 bb 3d bd
       -0.033642393 0.065783106 -0.010737785 -0.04632152
000180 59 36 a5 bd 1b 0b 53 bb e2 3e 70 3d 0d 02 ca bd
       -0.080670066 -0.0032202664 0.05865372 -0.098636724
000190 af eb 36 3d a0 a2 13 bc e2 4d 01 bc 12 17 a9 bd
       0.04465836 -0.009010941 -0.007892104 -0.082563534
0001a0 62 25 d3 3c ec be ff bb 08 c2 67 3c 92 9c a2 3d
       0.025774661 -0.007804742 0.014145382 0.0794002
0001b0 20 97 98 bd 09 d8 c8 3d 52 5a b7 bd 3d fd 47 bd
       -0.074507 0.098068304 -0.08952774 -0.04882549
0001c0 06 b8 85 3d 7a e3 ce 3b 83 5c a9 bd a6 36 92 bd
       0.0652924 0.0063137384 -0.08269598 -0.071393296
0001d0 ae d9 c6 bd 81 25 87 3c 28 19 c7 bc 04 9f e2 3c
       -0.09709488 0.016497375 -0.024303988 0.027663715
0001e0 77 7e d2 bd a3 b9 a4 bd a6 aa cd bb 91 f2 96 bd
       -0.102780275 -0.0804322 -0.0062764464 -0.073704846
0001f0 d4 01 d7 bd b6 e0 a7 3d bc 66 ac 3c d3 3e 24 bd
       -0.104983956 0.08197157 0.021045081 -0.040098976
000200 37 a7 a9 bd 14 d6 06 3d 6c ee 69 bd 1c ad 4e bd
       -0.08283847 0.032919005 -0.057112142 -0.05045806
000210 70 72 3c bf e1 f6 ae 3d b9 24 22 3c 5c 5f 8f bd
       -0.7361212 0.08543182 0.009896451 -0.0700061
000220 77 76 1b bf 01 62 54 bd af b0 05 bc 5a 11 85 bc
       -0.6072764 -0.051851276 -0.0081598 -0.016243625
000230 86 0f b6 3d b8 1a 8c 3d f0 67 b1 3b b8 42 d8 3c
       0.088896796 0.06841034 0.0054140016 0.026399001
000240 0c 88 94 3d 2f 14 7d bd 44 04 9a 3d c7 d9 e4 3d
       0.072525114 -0.061786827 0.07520345 0.1117435
000250 7a d7 bd bd 43 69 69 3d b0 c6 a9 3c 5b a0 f9 3d
       -0.092696145 0.05698515 0.020724624 0.121887885
000260 5d 30 7f 3d d3 c8 59 bd ae 21 fc bc e6 b1 58 3d
       0.062301982 -0.053170037 -0.030777778 0.052904032
000270 17 f8 94 bd 1c 3b 8e bd 16 ad af bd f4 a4 6b 3d
       -0.07273882 -0.06944868 -0.085779354 0.05753036
000280 23 46 4a 3d 89 e1 a6 3d 8a 04 a1 3d 0b 47 52 3d
       0.049383294 0.08148486 0.07862194 0.051337283
000290 5b 3a ae bd 1a ef ff bc 43 0e ba 3c f5 b1 9b bd
       -0.08507224 -0.031241942 0.022711879 -0.07602302
0002a0 c2 c9 ae bd f5 64 a3 bd 54 43 4d bd 5d 13 ab 3c
       -0.08534576 -0.079782404 -0.050113037 0.020883257
0002b0 b5 c1 a1 bd 87 eb 93 3c 39 d4 05 bd 19 4f 84 3d
       -0.07898275 0.018056644 -0.032673094 0.06460399
0002c0 1a 01 7e bd 6d bc 1d 3d 7a 70 96 bd 5e e8 15 bd
       -0.06201277 0.038509775 -0.07345672 -0.036598556
0002d0 92 f6 8f bb af 38 46 bd 4a 73 b3 3c 40 b3 9c bc
       -0.004393407 -0.0483939 0.02190556 -0.019128442
0002e0 d3 fc a2 3d ed c0 86 bc 43 ee ba 3d f9 97 b2 3d
       0.07958379 -0.016449416 0.09127476 0.08720393
0002f0 04 e5 5e 3d e5 dd 98 bd 10 16 4e 3d c0 3a 86 3d
       0.054417625 -0.07464198 0.05031401 0.065541744
000300 56 05 d1 bd 89 2e cf 3d 51 53 4a 3d 21 f4 a8 3d
       -0.10206096 0.10116298 0.049395863 0.08249689
000310 ca 70 8a 3f ff 24 a3 bd 5a ab 69 3d de 48 fa 3c
       1.081567 -0.07966041 0.05704818 0.030552324
000320 79 f4 3b 3f 4a 76 a4 3d e3 e3 73 bd 15 28 a6 bc
       0.7341991 0.08030374 -0.0595435 -0.020282784
000330 29 12 8c bd c9 26 13 bd 04 2b 81 3c ad 58 a3 3d
       -0.06839401 -0.03592566 0.015767582 0.07975898
000340 24 64 73 bd 76 ff aa 3d 0d 94 56 bc af c0 7b 3d
       -0.059421673 0.083495066 -0.0130968215 0.061463054
000350 bb 53 02 3c 41 a1 99 bd da 6f 56 3d da 39 8c 3d
       0.007954533 -0.0750146 0.052352764 0.06846972
000360 c8 8b 99 bd 8c 28 7a 3c bb 0e 27 3d 2f 9b cf bd
       -0.07497364 0.015268456 0.040785532 -0.10137021
000370 16 e5 90 3d b3 6f 42 3d 65 4f bb bd 57 69 78 3d
       0.07074945 0.047469806 -0.09146003 0.060647335
000380 4f b9 57 bc 15 12 74 bc 83 d4 c8 bd 10 c2 91 bd
       -0.01316674 -0.014896889 -0.098061584 -0.071170926
000390 43 7c ac 3d ef 54 38 3d 1b 99 f4 bc 0b a7 f8 3a
       0.084221385 0.045002874 -0.029858163 0.0018970681
0003a0 9f ca 37 bd ad c3 d7 ba 73 57 81 bc 5e d9 21 3c
       -0.04487097 -0.0016461514 -0.01578877 0.0098784845
0003b0 a3 61 87 3d 32 a2 fe 3c 20 8f 07 bc a6 13 39 bd
       0.066104196 0.0310832 -0.00827387 -0.045184754
0003c0 d8 2f f4 3c e1 24 5d 3d 9b 1e 0e bd b5 0e b8 3c
       0.02980797 0.05399025 -0.034697156 0.02246795
0003d0 9d ca 28 bd e8 79 30 3c 27 48 a2 3d 10 0c 24 bd
       -0.041208852 0.010771252 0.07923918 -0.040050566
0003e0 9d 5b 79 bd cf 08 94 3d e9 14 34 bc 1c 9a 1d 3d
       -0.060878385 0.072282426 -0.0109913135 0.03847705
0003f0 2f 74 19 bc a3 a9 44 bd b4 b8 7f bd a2 c6 07 bd
       -0.009366079 -0.04801334 -0.062432006 -0.033148415

net.flow_mapping.0.affine_layers.1.net.2.bias f4 [32]
000000 1f 31 a6 3c 86 28 06 3e 27 8a a9 3d d9 e1 30 3d
       0.020287095 0.13101396 0.082783036 0.043184135
000010 5a 5e 8f be b6 6e 97 bc eb 23 e1 3e fc dd 8e 3d
       -0.28001672 -0.018485408 0.43972716 0.06975934
000020 53 36 35 3d 18 ed 7a bd f9 2e a7 bd 0c d4 a4 3e
       0.04424126 -0.061261266 -0.08163256 0.3219303
000030 50 97 02 3d 91 1a ae bd b4 cc 24 bc c8 2e 9e bd
       0.031882584 -0.08501161 -0.010058571 -0.077237666
000040 8a 5c 59 3d d5 fc 58 3e ed 0f 82 bd b9 43 22 3d
       0.053066768 0.21190198 -0.06350694 0.039615367
000050 e7 5e 23 3c e0 5f e1 3a 19 46 b3 3e 23 4a 7f bd
       0.009971357 0.0017194711 0.35014418 -0.06232656
000060 53 04 29 bd 31 83 15 3e d9 b5 97 3d 18 30 f3 3b
       -0.04126389 0.14600827 0.074077316 0.0074215047
000070 58 86 da bc 78 eb 32 bd 70 6d 8d bb 5f 6c 60 be
       -0.026675388 -0.04368159 -0.0043160245 -0.2191634
