param/model_nocdf_iter100000_my_data_10_32_5.pth (torch, 248012 bytes, 167 tensors)

net.rotations.0.LU f4 [2, 2]
-0.1008081 -0.020938843 -0.004755048 -0.102974944
00000000: 7a74 cebd f087 abbc 3cd0 9bbb 87e4 d2bd

net.rotations.0.LU_init f4 [2, 2]
1.0 0.0 0.0 1.0
00000000: 0000 803f 0000 0000 0000 0000 0000 803f

net.rotations.0.ones_mat f4 [2, 2]
1.0 1.0 1.0 1.0
00000000: 0000 803f 0000 803f 0000 803f 0000 803f

net.rotations.0.I f4 [2, 2]
1.0 0.0 0.0 1.0
00000000: 0000 803f 0000 0000 0000 0000 0000 803f

net.flow_mappings.0.scale_layers.0.b f4 [1, 2]
-0.36354482 -0.3156148
00000000: 8c22 babe 4398 a1be

net.flow_mappings.0.scale_layers.0.logs f4 [1, 2]
-0.09822042 -0.11423435
00000000: ca27 c9bd b3f3 e9bd

net.flow_mappings.0.scale_layers.0.b_init f4 [1, 2]
0.0 0.0
00000000: 0000 0000 0000 0000

net.flow_mappings.0.scale_layers.0.logs_init f4 [1, 2]
0.0 0.0
00000000: 0000 0000 0000 0000

net.flow_mappings.0.scale_layers.1.b f4 [1, 2]
-0.23147795 -0.31225702
00000000: 8e08 6dbe 27e0 9fbe

net.flow_mappings.0.scale_layers.1.logs f4 [1, 2]
-0.111708455 -0.0867142
00000000: 67c7 e4bd 3797 b1bd

net.flow_mappings.0.scale_layers.1.b_init f4 [1, 2]
0.0 0.0
00000000: 0000 0000 0000 0000

net.flow_mappings.0.scale_layers.1.logs_init f4 [1, 2]
0.0 0.0
00000000: 0000 0000 0000 0000

net.flow_mappings.0.scale_layers.2.b f4 [1, 2]
-0.09015524 -0.08162075
00000000: 4fa3 b8bd c828 a7bd

net.flow_mappings.0.scale_layers.2.logs f4 [1, 2]
-0.08713457 -0.09374498
00000000: 9c73 b2bd 5efd bfbd

net.flow_mappings.0.scale_layers.2.b_init f4 [1, 2]
0.0 0.0
00000000: 0000 0000 0000 0000

net.flow_mappings.0.scale_layers.2.logs_init f4 [1, 2]
0.0 0.0
00000000: 0000 0000 0000 0000

net.flow_mappings.0.scale_layers.3.b f4 [1, 2]
-0.23134117 -0.016555276
00000000: b3e4 6cbe ee9e 87bc

net.flow_mappings.0.scale_layers.3.logs f4 [1, 2]
-0.08308919 -0.08593766
00000000: aa2a aabd 1500 b0bd

net.flow_mappings.0.scale_layers.3.b_init f4 [1, 2]
0.0 0.0
00000000: 0000 0000 0000 0000

net.flow_mappings.0.scale_layers.3.logs_init f4 [1, 2]
0.0 0.0
00000000: 0000 0000 0000 0000

net.flow_mappings.0.scale_layers.4.b f4 [1, 2]
-0.07806259 -0.23285004
00000000: 47df 9fbd 3e70 6ebe

net.flow_mappings.0.scale_layers.4.logs f4 [1, 2]
-0.09023907 -0.08385814
00000000: 43cf b8bd d1bd abbd

net.flow_mappings.0.scale_layers.4.b_init f4 [1, 2]
0.0 0.0
00000000: 0000 0000 0000 0000

net.flow_mappings.0.scale_layers.4.logs_init f4 [1, 2]
0.0 0.0
00000000: 0000 0000 0000 0000

net.flow_mappings.0.scale_layers.5.b f4 [1, 2]
-0.031038087 -0.10205946
00000000: 9643 febc 8d04 d1bd

net.flow_mappings.0.scale_layers.5.logs f4 [1, 2]
-0.060202625 -0.09133661
00000000: 0797 76bd b00e bbbd

net.flow_mappings.0.scale_layers.5.b_init f4 [1, 2]
0.0 0.0
00000000: 0000 0000 0000 0000

net.flow_mappings.0.scale_layers.5.logs_init f4 [1, 2]
0.0 0.0
00000000: 0000 0000 0000 0000

net.flow_mappings.0.scale_layers.6.b f4 [1, 2]
-0.22534013 -0.06459281
00000000: 90bf 66be 3c49 84bd

net.flow_mappings.0.scale_layers.6.logs f4 [1, 2]
-0.08021043 -0.07447485
00000000: 5e45 a4bd 4586 98bd

net.flow_mappings.0.scale_layers.6.b_init f4 [1, 2]
0.0 0.0
00000000: 0000 0000 0000 0000

net.flow_mappings.0.scale_layers.6.logs_init f4 [1, 2]
0.0 0.0
00000000: 0000 0000 0000 0000

net.flow_mappings.0.scale_layers.7.b f4 [1, 2]
-0.077694975 -0.018413631
00000000: 8b1e 9fbd 2fd8 96bc

net.flow_mappings.0.scale_layers.7.logs f4 [1, 2]
0.015308821 0.011599783
00000000: d9d1 7a3c 040d 3e3c

net.flow_mappings.0.scale_layers.7.b_init f4 [1, 2]
0.0 0.0
00000000: 0000 0000 0000 0000

net.flow_mappings.0.scale_layers.7.logs_init f4 [1, 2]
0.0 0.0
00000000: 0000 0000 0000 0000

net.flow_mappings.0.scale_layers.8.b f4 [1, 2]
0.012663373 -0.10427593
00000000: 097a 4f3c 9e8e d5bd

net.flow_mappings.0.scale_layers.8.logs f4 [1, 2]
-0.016151011 0.007184087
00000000: 204f 84bc 7d68 eb3b

net.flow_mappings.0.scale_layers.8.b_init f4 [1, 2]
0.0 0.0
00000000: 0000 0000 0000 0000

net.flow_mappings.0.scale_layers.8.logs_init f4 [1, 2]
0.0 0.0
00000000: 0000 0000 0000 0000

net.flow_mappings.0.scale_layers.9.b f4 [1, 2]
-0.10832189 0.27004588
00000000: ded7 ddbd 7443 8a3e

net.flow_mappings.0.scale_layers.9.logs f4 [1, 2]
0.2185039 0.28373495
00000000: 7dbf 5f3e b545 913e

net.flow_mappings.0.scale_layers.9.b_init f4 [1, 2]
0.0 0.0
00000000: 0000 0000 0000 0000

net.flow_mappings.0.scale_layers.9.logs_init f4 [1, 2]
0.0 0.0
00000000: 0000 0000 0000 0000

net.flow_mappings.0.affine_layers.0.net.0.weight f4 [32, 1]
0.06226872 -0.016119363 3.3390566e-05 -0.1491118 0.45391488 -0.20560244 -0.44144663 0.0008433847
-0.5350856 0.40274227 -0.053965025 -0.26419753 -0.5969246 -0.053375892 0.27465683 0.44548923
-0.42944604 0.36139432 0.6107881 -0.15480858 -0.12598526 0.2981873 -0.2533745 0.15123013
0.4858015 -0.22684044 0.1429883 0.05574901 0.0022151184 -0.3471342 0.0013002403 0.33636853
00000000: 7c0d 7f3d c10c 84bc d90c 0c38 c4b0 18be
00000010: 8867 e83e 7289 52be 4b05 e2be 9716 5d3a
00000020: 5ffb 08bf 3c34 ce3e 6e0a 5dbd e644 87be
00000030: 0dd0 18bf aea0 5abd d29f 8c3e 2a17 e43e
00000040: 5ae0 dbbe ad08 b93e 9c5c 1c3f 2486 1ebe
00000050: 4802 01be 01ac 983e 4dba 81be 12dc 1a3e
00000060: f9ba f83e dc48 68be 866b 123e 1359 643d
00000070: 852b 113b 93bb b1be d36c aa3a 7f38 ac3e

net.flow_mappings.0.affine_layers.0.net.0.bias f4 [32]
-0.4728643 -0.5762168 -0.01179129 -0.34083754 -0.1211996 -0.30401245 -0.42558712 -0.20385054
0.5978604 -0.45452237 0.45702368 -0.5784317 -0.19737741 -0.3885131 -0.7922629 -0.20661333
0.018324763 -0.63269114 -0.74876165 0.10385455 0.27322066 -0.37309837 0.3432388 0.16552955
-0.3481107 -0.4127922 -0.27096462 -0.27356437 -0.5801666 0.48277882 -0.3243756 -0.7802598
00000000: 451b f2be f282 13bf 4130 41bc 4282 aebe
00000010: 7f37 f8bd 85a7 9bbe 8ee6 d9be 32be 50be
00000020: 610d 193f 28b7 e8be 02ff e93e 1a14 14bf
00000030: 4e1d 4abe 30eb c6be bed1 4abf 7292 53be
00000040: d01d 963c 0cf8 21bf d8ae 3fbf b2b1 d43d
00000050: 94e3 8b3e c006 bfbe ffbc af3e 9480 293e
00000060: 913b b2be 8059 d3be e0bb 8abe a110 8cbe
00000070: cc85 14bf c92e f73e 8f14 a6be 1bbf 47bf

net.flow_mappings.0.affine_layers.0.net.2.weight f4 [32, 32]
0.03888788 -0.09634107 -0.038912702 0.025735766 0.058394175 0.08224774 0.08583835 -0.13015017
-0.087815635 -0.08178988 -0.105838075 0.06830835 0.06834698 -0.09256088 0.053569645 0.0669048
0.05146896 0.0053938534 0.01962781 0.10115758 0.00751684 -0.10114645 -0.046008397 0.015551699
-0.04833816 -0.022902485 -0.07952857 -0.02732872 -0.044645127 0.09727811 -0.034064382 -0.08584131
-0.09555089 0.009950675 -0.0845595 -0.07197948 -0.04924881 -0.002914474 0.06920363 -0.061949775
-0.074896015 0.05031422 -0.003789861 -0.047802735 0.051015582 0.083019085 0.09294435 -0.04384468
0.030825783 0.031565823 -0.033004265 0.049911708 0.016527941 0.041867714 -0.052217636 0.038450383
-0.09422579 -0.07255554 -0.1017726 0.07152495 -0.020562423 -0.0036206695 -0.1052051 0.021322338
-0.056925137 -0.00016742416 0.046838958 -0.09337629 -0.10310966 -0.03794303 0.07553066 -0.003945496
0.075059146 -0.03873749 -0.019284016 -0.033453297 0.047448143 0.0016260111 0.02154974 -0.0006740832
-0.046601307 -0.020671941 0.062786505 -0.03103005 -0.08703526 -0.032295976 0.09545767 0.0068244915
-0.0032690056 -0.09574433 0.054192342 0.08671235 -0.017821306 -0.09498932 0.009246568 0.050669987
-0.009902445 0.057548743 0.054299213 0.017648106 0.037677824 -0.010212015 -0.10082244 0.052291624
-0.10521082 -0.04834145 0.040723994 0.08293154 0.022364225 -0.061493486 -0.057169657 0.056424033
-0.02706632 0.03536947 -0.058595136 -0.042446308 0.081137024 -0.12513752 0.02333046 -0.0073292577
0.05182805 -0.04964624 -0.042672146 0.0020695166 -0.014171217 -0.062257163 -0.072587036 0.060034983
0.059574947 -0.049158733 -0.04522455 0.032915965 -0.02808284 0.08541566 0.088833414 -0.022197424
-0.0023668278 0.023945082 -0.06743112 0.09527448 -0.07617861 -0.07025171 -0.075552784 -0.034241926
0.036904834 0.06491286 -0.08252864 0.0075410525 -0.020643912 0.033177584 -0.0993803 -0.011850541
0.018792631 0.104066655 0.033760916 0.0123190405 0.012704764 0.10075763 -0.06053585 0.019484418
0.013119134 -0.07137054 -0.06974978 0.07635588 0.054292668 0.037567012 0.091678336 -0.037217554
0.08049099 0.0691445 -0.009902375 -0.0104806665 0.038054436 0.01290291 -0.11674323 -0.027478253
0.09469702 0.06376417 0.038616396 -0.097007364 -0.10463471 0.071689636 -0.08098053 -0.09653691
-0.05302164 -0.07225262 -0.060717866 -0.079281375 -0.07865549 -0.044377185 0.011869526 -0.10086745
-0.09314 -0.086862914 0.08806612 0.0411972 -0.03986908 -0.05097088 0.0034763154 0.044218205
-0.10483043 -0.06592286 -0.030455641 -0.049083523 -0.07521482 -0.081680655 -0.013121298 0.050970472
-0.008164225 0.05686669 -0.039301876 0.0393629 0.015306763 0.033551164 -0.07478934 0.040121872
-0.095205456 0.03969617 -0.014909841 -0.016809268 0.01398372 0.016308766 0.1028119 0.0015427693
-0.093022764 0.006017564 0.048790276 -0.0333945 0.057247583 -0.08213471 0.058899246 0.007739392
0.006199876 -0.018329907 -0.08007736 -0.10025922 0.1049577 -0.07482779 0.021446504 -0.06773884
-0.057692956 -0.046849146 0.052487765 0.093396366 0.08362163 0.097440846 0.004039063 0.004119138
-0.056480445 -0.02861968 -0.057873443 0.029245889 0.00948288 0.04551098 0.09466228 -0.09635019
00000000: e648 1f3d 784e c5bd ed62 1fbd d0d3 d23c
00000010: bb2e 6f3d 8171 a83d 04cc af3d 1646 05be
00000020: afd8 b3bd 7481 a7bd a2c1 d8bd 40e5 8b3d
00000030: 80f9 8b3d 8f90 bdbd d86b 5b3d 6205 893d
00000040: 1ed1 523d ecbe b03b 80ca a03c b52b cf3d
00000050: d34f f63b df25 cfbd 4d73 3cbd 8ecc 7e3c
00000060: 3cfe 45bd fe9d bbbc e0df a2bd 7be0 dfbc
00000070: cfdd 36bd bf39 c73d 1887 0bbd 92cd afbd
00000080: 2fb0 c3bd 2808 233c 882d adbd fa69 93bd
00000090: 1fb9 49bd c300 3fbb a2ba 8d3d 0cbf 7dbd
000000a0: 1563 99bd 4916 4e3d 515f 78bb cdcc 43bd
000000b0: b7f5 503d e905 aa3d 9b59 be3d 7b96 33bd
000000c0: 5a86 fc3c 2a4b 013d 7b2f 07bd 3870 4c3d
000000d0: 9b65 873c 7b7d 2b3d 29e2 55bd 267e 1d3d
000000e0: 73f9 c0bd 0098 94bd 276e d0bd ac7b 923d
000000f0: 8772 a8bc c148 6dbb c575 d7bd 2fac ae3c
00000100: 552a 69bd 958e 2fb9 35da 3f3d 113c bfbd
00000110: 282b d3bd 276a 1bbd d2af 9a3d 3849 81bb
00000120: 9cb8 993d 34ab 1ebd 83f9 9dbc 5306 09bd
00000130: fc58 423d e11f d53a 1589 b03c f5b4 30ba
00000140: 03e1 3ebd 3458 a9bc 3696 803d bb32 febc
00000150: 8b3f b2bd c948 04bd 507f c33d fc9f df3b
00000160: d03c 56bb 9a15 c4bd caf8 5d3d 3f96 b13d
00000170: fdfd 91bc c389 c2bd eb7e 173c 558b 4f3d
00000180: dd3d 22bc 3bb8 6b3d da68 5e3d c392 903c
00000190: 1054 1a3d 4c50 27bc ff7b cebd be2f 563d
000001a0: c578 d7bd af01 46bd 34ce 263d 03d8 a93d
000001b0: 2e35 b73c 98e0 7bbd bb2a 6abd e31c 673d
000001c0: 30ba ddbc 94df 103d 7401 70bd 2edc 2dbd
000001d0: 2b2b a63d 0d24 00be 851f bf3c 452a f0bb
000001e0: a649 543d db59 4bbd fdc8 2ebd baa0 073b
000001f0: 642e 68bc 5e01 7fbd 83a8 94bd 3ee7 753d
00000200: dc04 743d ab5a 49bd 613d 39bd e4d2 063d
00000210: fc0d e6bc 68ee ae3d 4bee b53d 5fd7 b5bc
00000220: c81c 1bbb 7a28 c43c 5419 8abd 441f c33d
00000230: 8803 9cbd 21e0 8fbd 6bbb 9abd 4341 0cbd
00000240: 8629 173d 09f1 843d c704 a9bd ef1a f73b
00000250: 6c1d a9bc 38e5 073d e687 cbbd c628 42bc
00000260: 01f3 993c e620 d53d e348 0a3d cdd5 493c
00000270: a427 503c 045a ce3d 70f4 77bd c99d 9f3c
00000280: a3f1 563c b82a 92bd f9d8 8ebd 7960 9c3d
00000290: fd61 5e3d dedf 193d dac1 bb3d 6f71 18bd
000002a0: 76d8 a43d a29b 8d3d 923d 22bc 1ab7 2bbc
000002b0: f8de 1b3d ba66 533c 1317 efbd 131a e1bc
000002c0: 83f0 c13d ca96 823d 3a2c 1e3d ccab c6bd
000002d0: b94a d6bd 04d2 923d 1fd9 a5bd 25b5 c5bd
000002e0: 382d 59bd 2ef9 93bd 4cb3 78bd 465e a2bd
000002f0: 2116 a1bd dac4 35bd 6678 423c 9893 cebd
00000300: 2fc0 bebd 2fe5 b1bd 035c b43d 65be 283d
00000310: c34d 23bd d7c6 50bd e5d2 633b 261e 353d
00000320: 56b1 d6bd 9002 87bd 1c7e f9bc ce0b 49bd
00000330: 3a0a 9abd 3048 a7bd b6fa 56bc 6ac6 503d
00000340: 3ec3 05bc 0ced 683d 01fb 20bd fe3a 213d
00000350: 38c9 7a3c f26c 093d 272b 99bd d556 243d
00000360: 14fb c2bd 7398 223d 6848 74bc 97b3 89bc
00000370: f91b 653c f699 853c 0c8f d23d bf36 ca3a
00000380: b882 bebd fc2e c53b 50d8 473d acc8 08bd
00000390: 717c 6a3d 3e36 a8bd 5640 713d ba9a fd3b
000003a0: 5428 cb3b 9a28 96bc 99ff a3bd b554 cdbd
000003b0: 10f4 d63d 503f 99bd 94b0 af3c a9ba 8abd
000003c0: 734f 6cbd e4e4 3fbd 69fd 563d 9846 bf3d
000003d0: d141 ab3d 118f c73d 1e5a 843b d5f9 863b
000003e0: 0a58 67bd d273 eabc b40c 6dbd 1395 ef3c
000003f0: 155e 1b3c b969 3a3d 4cde c13d 4053 c5bd

net.flow_mappings.0.affine_layers.0.net.2.bias f4 [32]
0.053441983 -0.06276585 0.023902394 -0.11744757 0.07171711 0.036604468 0.0039333426 -0.035700798
0.09807925 -0.10192019 0.0070028477 -0.25528944 -0.04624416 -0.083830595 -0.100955576 0.0037760364
-0.0188017 0.016804747 0.099807754 0.06511465 0.08662915 -0.08786686 0.07797308 -0.11001973
0.0863919 -0.069061324 -0.06319841 -0.009806334 0.10710307 0.094325386 -0.29770806 -0.09250843
00000000: fbe5 5a3d 628b 80bd f4ce c33c 5a88 f0bd
00000010: 6ce0 923d 91ee 153d 45e3 803b 003b 12bd
00000020: c6dd c83d 88bb d0bd 2578 e53b 4cb5 82be
00000030: 846a 3dbd 60af abbd ccc1 cebd 6177 773b
00000040: 0606 9abc 1caa 893c 0268 cc3d d45a 853d
00000050: a06a b13d 8af3 b3bd 5ab0 9f3d 0652 e1bd
00000060: 3dee b03d 0670 8dbd 2b6e 81bd bfaa 20bc
00000070: db58 db3d ab2d c13d 316d 98be 0f75 bdbd

net.flow_mappings.0.affine_layers.0.net.4.weight f4 [32, 32]
0.015978552 -0.040184047 -0.10191887 0.060511302 0.053606838 -0.03907825 0.026862023 0.03680705
-0.02708841 -0.06858442 0.018080626 -0.09922623 0.009396514 -0.0029146273 0.034723908 0.0007916619
0.09827372 0.019004308 -0.015254252 0.05236111 0.056299623 0.024791108 0.06939607 -0.04192772
-0.08853834 -0.034701657 -0.10667338 0.043333847 0.076432355 -0.012457284 -0.029712822 -0.013730241
-0.03819579 0.016123708 -0.051770534 0.08723208 0.057902113 -0.050591886 0.039894845 -0.053754367
-0.030120376 -0.054286875 0.05854718 -0.07715429 -0.07289327 0.0013230242 0.0017635255 0.08102847
-0.0030705992 0.01799073 -0.053660985 0.015522081 -0.044855893 0.021574395 -0.09690482 -0.0100901155
0.09213865 0.05483989 -0.09599122 0.1016203 -0.100093655 0.0798186 0.10357195 -0.076171234
-0.09859684 -0.07150576 -0.035378505 -0.07378915 -0.08997029 0.054116134 -0.0310652 -0.0037240675
0.047755267 -0.0028330768 0.00939563 0.04006775 -0.12374231 0.07751058 -0.05524662 -0.039047528
-0.080539875 0.06888893 0.085251346 0.07369105 -0.055826724 -0.02626351 0.10420387 -0.009213672
-0.06773504 -0.06117128 -0.011460538 -0.019878961 -0.09545364 0.035999652 -0.120263144 0.05349951
-0.06175991 -0.094710894 -0.05868806 -0.0450336 -0.061191104 -0.06766388 0.04855649 0.056403816
0.0033478495 -0.05171124 -0.010970031 0.061981387 -0.034119528 0.037592508 0.022610456 0.09813882
0.011609127 -0.000651358 -0.01995347 0.029259937 0.07880718 0.06723974 -0.023510277 -0.080579974
-0.08709345 0.051703706 -0.010894324 -0.0050999885 0.07081536 0.01042074 0.04718102 0.017111769
0.06868034 0.054845124 -0.014930952 0.07151446 -0.116888 -0.07310146 -0.047208946 -0.086757034
-0.041388318 -0.07669337 0.020338899 0.021607153 0.04601715 -0.00092793896 0.019063443 0.028307237
-0.10358588 0.032305703 -0.10410086 0.026384944 0.07051692 -0.0030311064 -0.023606865 0.09101316
-0.06976102 0.10280215 -0.0947695 0.084143855 -0.047379177 -0.059179086 -0.038175814 -0.08475869
-0.004427253 -0.04473732 0.102106996 -0.048720192 -0.06540137 -0.03999144 -0.07179424 -0.0891579
0.006556079 0.06257321 0.06692705 0.056340806 -0.037713796 -0.08339854 -0.0036010037 0.053713437
0.068782344 0.0018131587 0.102277 -0.034469422 0.008607487 -0.059412725 0.050079823 0.025034469
0.04222581 0.058209553 0.115281895 -0.14526863 0.060910184 -0.10564888 -0.020130867 -0.0862733
-0.09118717 0.015861774 -0.02283751 0.037121832 -0.042459186 -0.001597096 -0.06619928 -0.10154906
0.027829908 -0.028996946 0.036736447 0.03283 0.08610071 -0.07417827 -0.07794523 -0.028605174
-0.03391603 -0.0047945287 -0.0066746403 -0.10353703 -0.09364106 0.009424272 -0.031379037 0.1023942
-0.013613007 0.03676012 -0.07739906 0.045297254 0.050652444 -0.09546633 -0.06701908 -0.0542904
-0.09292139 -0.0031269495 -0.052952465 -0.10736175 -0.030946953 -0.097779125 0.09513965 -0.0071406816
-0.03758633 0.008006932 0.036864903 -0.10945209 0.0016789929 -0.031201042 -0.0789718 -0.097689286
-0.08364146 0.022245977 -0.04500988 0.009277528 0.09592994 0.07896582 0.050401364 -0.08848588
0.015334765 0.10401891 0.042651568 0.05619772 -0.019255757 0.01253089 0.043474764 -0.082747884
00000000: 74e5 823c 0798 24bd d7ba d0bd b3da 773d
00000010: d892 5b3d 8410 20bd bf0d dc3c fdc2 163d
00000020: 83e8 ddbc fd75 8cbd d21d 943c 1f37 cbbd
00000030: d6f3 193c 5503 3fbb a83a 0e3d 8887 4f3a
00000040: bb43 c93d ecae 9b3c f8ec 79bc 9a78 563d
00000050: 6f9a 663d b916 cb3c 871f 8e3d 67bc 2bbd
00000060: 9753 b5bd 5323 0ebd 9377 dabd d57e 313d
00000070: 9188 9c3d a319 4cbc 4e68 f3bc cef4 60bc
00000080: 3073 1cbd de15 843c 570d 54bd bca6 b23d
00000090: c42a 6d3d 7039 4fbd c768 233d 8a2d 5cbd
000000a0: 02bf f6bc ea5b 5ebd 2bcf 6f3d 1203 9ebd
000000b0: 1149 95bd 5369 ad3a 1926 e73a 41f2 a53d
000000c0: 1b3c 49bb 4c61 933c 9fcb 5bbd 5450 7e3c
000000d0: d0ba 37bd c9bc b03c 0976 c6bd 0351 25bc
000000e0: 30b3 bc3d cb9f 603d 0b97 c4bd 4e1e d03d
000000f0: e7fd ccbd ef77 a33d 881d d43d aaff 9bbd
00000100: 24ed c9bd 9d71 92bd 0de9 10bd c41e 97bd
00000110: 5842 b8bd e1a8 5d3d 727c febc 7c0f 74bb
00000120: 079b 433d 24ab 39bb 21f0 193c 151e 243d
00000130: 9c6c fdbd debd 9e3d 484a 62bd 4df0 1fbd
00000140: 17f2 a4bd a415 8d3d 4298 ae3d 55eb 963d
00000150: 90aa 64bd 9326 d7bc d768 d53d f1f4 16bc
00000160: abb8 8abd bc8e 7abd fbc4 3bbc 34d9 a2bc
00000170: 337d c3bd 5f74 133d 864c f6bd 4d22 5b3d
00000180: f6f7 7cbd c9f7 c1bd e462 70bd 2775 38bd
00000190: 86a3 7abd 5c93 8abd 2ce3 463d b007 673d
000001a0: 9867 5b3b 2acf 53bd a5bb 33bc 32e0 7d3d
000001b0: ebc0 0bbd 9afa 193d 9039 b93c 01fd c83d
000001c0: 3534 3e3c e5bf 2aba 7675 a3bc 89b2 ef3c
000001d0: a965 a13d fdb4 893d a098 c0bc 1d07 a5bd
000001e0: 0d5e b2bd 44c7 533d 1b7e 32bc ce1d a7bb
000001f0: a507 913d c0bb 2a3c e340 413d fb2d 8c3c
00000200: 47a8 8c3d 48a5 603d f4a0 74bc 2c76 923d
00000210: fa62 efbd 38b6 95bd 2b5e 41bd acad b1bd
00000220: cc86 29bd 6a11 9dbd c39d a63c 7c01 b13c
00000230: 7b7c 3c3d ee40 73ba f02a 9c3c 94e4 e73c
00000240: d524 d4bd fc52 043d d532 d5bd 3d25 d83c
00000250: 2d6b 903d 87a5 46bb 2f63 c1bc 1c65 ba3d
00000260: dede 8ebd ef89 d23d 8316 c2bd 9d53 ac3d
00000270: ab10 42bd c565 72bd 3e5e 1cbd f795 adbd
00000280: 7d12 91bb 7b3e 37bd 791d d13d d38e 47bd
00000290: 27f1 85bd 10ce 23bd dc08 93bd 6b98 b6bd
000002a0: 60d4 d63b 6226 803d 0d11 893d 9ec5 663d
000002b0: c879 1abd dbcc aabd d1fe 6bbb 9f02 5c3d
000002c0: c2dd 8c3d 83a7 ed3a 9b76 d13d cf2f 0dbd
000002d0: 6b06 0d3c c25a 73bd 8020 4d3d 1615 cd3c
000002e0: f9f4 2c3d 246d 6e3d ea18 ec3d 4dc1 14be
000002f0: f57c 793d 715e d8bd 7de9 a4bc 0eb0 b0bd
00000300: 57c0 babd 8df0 813c bb15 bbbc 100d 183d
00000310: afe9 2dbd a655 d1ba 7d93 87bd f4f8 cfbd
00000320: 8cfb e33c 018b edbc f578 163d c078 063d
00000330: 9255 b03d c7ea 97bd c0a1 9fbd 6655 eabc
00000340: 89eb 0abd 6c1b 9dbb f1b6 dabb 390b d4bd
00000350: e2c6 bfbd 4368 1a3c 4e87 00bd 0db4 d13d
00000360: 1709 5fbc c891 163d 6683 9ebd 9d89 393d
00000370: f078 4f3d da83 c3bd 4d41 89bd 9c5f 5ebd
00000380: 924d bebd 82ed 4cbb afe4 58bd 7ae0 dbbd
00000390: 7784 fdbc 6c40 c8bd 94d8 c23d 61fc e9bb
000003a0: 20f4 19bd 822f 033c a7ff 163d 6b28 e0bd
000003b0: a711 dc3a 5499 ffbc f8bb a1bd 5211 c8bd
000003c0: 374c abbd 323d b63c 485c 38bd c600 183c
000003d0: eb76 c43d d5b8 a13d a971 4e3d 1638 b5bd
000003e0: ab3e 7b3c de07 d53d 69b3 2e3d 952f 663d
000003f0: 40be 9dbc 5d4e 4d3c 9812 323d b977 a9bd

net.flow_mappings.0.affine_layers.0.net.4.bias f4 [32]
0.086787656 0.007045803 -0.056806885 -0.0079747215 -0.041905098 -0.23462614 0.07352509 -0.11910516
-0.044484064 -0.16922261 0.008277239 0.044821057 -0.08075448 -0.16230375 -0.187643 -0.08715684
-0.04918094 -0.03614191 -0.073817246 -0.18534863 0.05536202 0.005063153 -0.07351035 -0.070596546
-0.020208579 -0.026271462 -0.21689704 0.037302483 0.010491706 -0.08436188 0.05612131 -0.035255104
00000000: babd b13d 7be0 e63b 56ae 68bd 68a8 02bc
00000010: aea4 2bbd d641 70be 5394 963d 68ed f3bd
00000020: ec34 36bd b148 2dbe 429d 073c 4996 373d
00000030: 9b62 a5bd f432 26be 7d25 40be 497f b2bd
00000040: f471 49bd 8a09 14bd 7f2d 97bd 08cc 3dbe
00000050: 49c3 623d cee8 a53b 988c 96bd ec94 90bd
00000060: 768c a5bc 4037 d7bc 421a 5ebe 7dca 183d
00000070: 68e5 2b3c ecc5 acbd 75df 653d a867 10bd

net.flow_mappings.0.affine_layers.0.net.6.weight f4 [32, 32]
0.014608268 -0.048475906 -0.05801424 0.03502301 0.09465462 0.043498192 -0.037859567 -0.034818888
-0.07118749 0.091534555 -0.085516565 -0.044552244 -0.011560321 -0.030169385 -0.10380897 -0.022190837
0.03057557 0.059360377 0.061190266 -0.03851459 0.061543044 0.08750643 -0.0375771 0.013393255
-0.10409869 0.08206869 0.02046565 0.0895192 0.09782088 0.023696963 -0.03734337 0.09934121
0.05771065 -0.073557794 0.0032447912 0.0799643 0.08987266 -0.044827115 0.04591358 -0.02017608
0.0883819 -0.085015334 0.017603222 -0.030947715 -0.07833681 -0.097657174 0.02999861 0.048173435
-0.018227784 -0.087666206 0.076878205 -0.044658996 0.046249393 0.03317516 -0.029741643 0.060312033
-0.069399916 0.007779319 -0.030279461 -0.018497663 0.011357427 -0.10292679 0.042000096 0.024202658
-0.06784118 -0.103604585 0.046478692 0.041028254 0.0038298257 0.004091371 -0.029595569 0.033644546
-0.051358443 -0.09115875 0.06547832 8.06277e-05 -0.09460059 -0.025544636 0.073207706 -0.10595217
0.05463698 0.08619201 -0.018128783 -0.012456706 -0.026211005 -0.07672536 -0.021123247 -0.028915908
0.10306887 0.029566925 -0.039088268 -0.006312428 0.012143018 0.042679895 0.076155216 -0.09682269
-0.061239116 0.091320924 0.081729375 -0.007938002 -0.02443418 -0.056562915 -0.024408542 0.038948614
0.004314848 0.05114069 0.011861838 0.004345717 0.021818643 -0.00011536802 0.090576775 -0.027542751
0.0316063 -0.058289405 0.032874804 -0.014634995 0.012244955 -0.081814855 0.056577735 -0.118294515
-0.038289785 -0.054355413 0.08391507 0.10801855 0.106220275 -0.08598189 0.008187995 0.09410332
0.08083014 0.101637505 -0.051280547 -0.07813722 -0.07865855 0.07675876 0.052721873 -0.09840478
-0.045288127 -0.05890419 -0.040039677 0.046045423 0.024288941 -0.06795954 -0.040250823 -0.09533998
-0.0064002797 -0.058638103 -0.059305932 0.06849215 0.09862248 0.06306927 -0.06735001 -0.023054784
0.08019518 0.09572485 0.0028099362 -0.089293174 0.0110615175 0.009816686 0.03754104 0.059319142
0.09961473 -0.03192413 0.0567174 -0.075740166 -0.08783463 -0.08389894 -0.05881909 0.08972611
0.10522764 0.00064123434 -0.03463802 -0.07742248 0.00048434184 0.054019295 0.034449764 0.06614547
0.04618591 -0.087031975 -0.05774552 -0.10257588 0.034398552 0.022392591 -0.03550016 0.065978386
-0.08567267 0.010921872 -0.0144860195 0.04690566 -0.06067828 -0.052590918 0.0535477 0.050357398
-0.089735895 -0.054140974 -0.11359267 0.021232266 0.063317 -0.0064805383 -0.060483035 0.06743672
-0.11782767 -0.11792018 -0.07076875 -0.029746313 -0.07985452 -0.12498626 0.03179421 0.03752065
0.058835268 0.02559813 -0.01252537 -0.0014858581 -0.10595781 0.09965988 -0.12643309 -0.07172281
-0.006091281 -0.033802945 0.02519492 0.07888737 0.06842683 -0.08571865 -0.05631029 0.022298958
-0.060233943 -0.024314567 -0.031931482 0.07759209 0.1021232 0.03504338 -0.07344924 0.027298298
0.004816188 -0.07986218 0.07821894 0.06976073 -0.0061109564 -0.0648671 0.00733213 0.06215567
-0.1024517 0.08647091 -0.09568542 0.06899604 0.08971854 -0.010722059 0.0656358 -0.100259066
0.10667655 -0.08211722 -0.11022304 0.09523177 -0.019135274 0.09531517 -0.030746661 -0.10118868
00000000: 8457 6f3c ac8e 46bd 57a0 6dbd 4a74 0f3d
00000010: 48da c13d 292b 323d a212 1bbd 409e 0ebd
00000020: bfca 91bd 7876 bb3d 4f23 afbd 6a7c 36bd
00000030: 8067 3dbc c925 f7bc cc99 d4bd 8fc9 b5bc
00000040: 9e79 fa3c de23 733d a5a2 7a3d 7ac1 1dbd
00000050: 8f14 7c3d 9236 b33d 72ea 19bd 626f 5b3c
00000060: b231 d5bd a113 a83d 94a7 a73c d855 b73d
00000070: 5056 c83d 2220 c23c 5df5 18bd 6873 cb3d
00000080: 0162 6c3d 78a5 96bd 90a6 543b 53c4 a33d
00000090: 280f b83d a39c 37bd e10f 3c3d 4e48 a5bc
000000a0: 9201 b53d 851c aebd a234 903c 1086 fdbc
000000b0: 0d6f a0bd 7c00 c8bd a5bf f53c 8251 453d
000000c0: 6f52 95bc 578a b3bd 5272 9d3d 5aec 36bd
000000d0: 0170 3d3d ade2 073d bfa4 f3bc c009 773d
000000e0: 8b21 8ebd a8e9 fe3b a20c f8bc 6988 97bc
000000f0: 8014 3a3c 48cb d2bd 4b08 2c3d a744 c63c
00000100: 51f0 8abd a42e d4bd 7160 3e3d 3e0d 283d
00000110: d0fd 7a3b e810 863b 6872 f2bc ddce 093d
00000120: 3b5d 52bd 70b1 babd 7f19 863d ab16 a938
00000130: f4bd c1bd fc42 d1bc eced 953d 74fd d8bd
00000140: 07cb 5f3d 7085 b03d d082 94bc 3617 4cbc
00000150: 76b8 d6bc 2f22 9dbd a90a adbc 0ee1 ecbc
00000160: c615 d33d 5636 f23c 051b 20bd 7cd8 cebb
00000170: 82f3 463c 1dd1 2e3d 44f7 9b3d f94a c6bd
00000180: ded5 7abd 7706 bb3d bb61 a73d 650e 02bc
00000190: 312a c8bc 84ae 67bd 6cf4 c7bc 9588 1f3d
000001a0: 9263 8d3b e678 513d 2858 423c 8466 8e3b
000001b0: 03bd b23c bcf1 f1b8 5180 b93d 56a1 e1bc
000001c0: 9c75 013d dfc0 6ebd bba7 063d 9ec7 6fbc
000001d0: 109f 483c 8c8e a7bd 0ebe 673d 6544 f2bd
000001e0: c0d5 1cbd c8a3 5ebd aadb ab3d d438 dd3d
000001f0: 048a d93d 4617 b0bd f126 063c 3eb9 c03d
00000200: 468a a53d 5327 d03d 8d0b 52bd 6806 a0bd
00000210: bc17 a1bd b233 9d3d e4f2 573d 7288 c9bd
00000220: 0b80 39bd 8545 71bd a500 24bd 209a 3c3d
00000230: 9af9 c63c 5f2e 8bbd 0cde 24bd 9c41 c3bd
00000240: 70b9 d1bb 822e 70bd c7ea 72bd 9d45 8c3d
00000250: 95fa c93d 762a 813d cdee 89bd 63dd bcbc
00000260: 5f3d a43d 640b c43d e826 383b 57df b6bd
00000270: 5e3b 353c 2ad6 203c a2c4 193d a1f8 723d
00000280: cf02 cc3d e0c2 02bd 8150 683d a91d 9bbd
00000290: a4e2 b3bd 35d3 abbd 49ec 70bd 53c2 b73d
000002a0: 9781 d73d 8218 283a 99e0 0dbd ad8f 9ebd
000002b0: 43ef fd39 5643 5d3d 321b 0d3d 4777 873d
000002c0: 702d 3d3d d23d b2bd 9186 6cbd 4e13 d2bd
000002d0: 7fe5 0c3d ab70 b73c 9e68 11bd ad1f 873d
000002e0: 2775 afbd a7f1 323c c556 6dbc 2620 403d
000002f0: ca89 78bd 9369 57bd d554 5b3d 8f43 4e3d
00000300: 74c7 b7bd edc2 5dbd 46a3 e8bd 4aef ad3c
00000310: 58ac 813d b25a d4bb 0fbd 77bd 431c 8a3d
00000320: a24f f1bd 2380 f1bd 35ef 90bd 8aae f3bc
00000330: c48a a3bd ccf8 ffbd a53a 023d 41af 193d
00000340: 40fd 703d 2bb3 d13c 3637 4dbc 20c1 c2ba
00000350: 6900 d9bd 7b1a cc3d ad77 01be 69e3 92bd
00000360: 5e99 c7bb f574 0abd 9465 ce3c b48f a13d
00000370: 5e23 8c3d 428d afbd 9ea5 66bd 4eac b63c
00000380: deb7 76bd 582f c7bc 96ca 02bd 9ae8 9e3d
00000390: f825 d13d a689 0f3d 8e6c 96bd aea0 df3c
000003a0: 1dd1 9d3b c88e a3bd 4031 a03d b7de 8e3d
000003b0: 6b3e c8bb 0bd9 84bd 5d42 f03b f296 7e3d
000003c0: 32d2 d1bd a917 b13d b8f6 c3bd cc4d 8d3d
000003d0: 5bbe b73d 93ab 2fbc 106c 863d a054 cdbd
000003e0: 3c79 da3d 132d a8bd 9ebc e1bd e008 c33d
000003f0: 94c1 9cbc 9a34 c33d 6ce0 fbbc 033c cfbd

net.flow_mappings.0.affine_layers.0.net.6.bias f4 [32]
0.08736096 0.04092993 0.07132617 -0.09531819 0.0074744998 -0.0850165 0.06444021 -0.014785741
-0.13573833 0.10518678 0.039645445 0.08194329 -0.020545594 -0.083753765 -0.0029376508 0.08318537
-0.054224137 0.014065212 0.03558837 0.046381045 0.006075222 0.008008128 -0.04563919 -0.06870807
-0.030288514 -0.08843776 0.07062085 -0.17872553 0.028054653 -0.09718168 -0.024497584 -0.10162589
00000000: 4eea b23d 24a6 273d 7413 923d 2f36 c3bd
00000010: a6ec f43b 211d aebd 3bf9 833d e53f 72bc
00000020: fdfe 0abe 2b6c d73d 4363 223d e2d1 a73d
00000030: 3c4f a8bc 1887 abbd 9a85 40bb 175d aa3d
00000040: 211a 5ebd c671 663c 1cc5 113d 0dfa 3d3d
00000050: a812 c73b 8634 033c 29f0 3abd d1b6 8cbd
00000060: 9e1f f8bc db1e b5bd aaa1 903d d303 37be
00000070: dfd2 e53c 3007 c7bd 28af c8bc 3c21 d0bd

net.flow_mappings.0.affine_layers.0.net.8.weight f4 [32, 32]
-0.046628296 -0.056286275 -0.05470618 -0.15216495 0.017976206 0.04411699 0.057316605 -0.028796833
-0.069190085 0.039213143 -0.0012444592 0.0063151782 -0.046501234 0.024233518 -0.055786416 0.025620522
-0.0731206 -0.08662649 0.038238693 0.0031626087 -0.030683983 0.023121942 -0.048061404 -0.02611324
-0.038410734 -0.04872481 -0.020656172 0.011401352 0.10422361 0.09723677 -0.06038661 -0.09107629
-0.08325638 0.07259983 -0.108082816 -0.06807549 0.10345725 0.05976172 -0.06295706 0.046300698
-0.0057227546 -0.04205254 -0.054439735 -0.04596256 -0.07238897 -0.053176604 0.033340115 -0.09798769
0.07258053 0.06871865 0.055055473 -0.019251727 -0.060333148 0.057038993 -0.025335953 0.026558833
0.04991832 0.09894787 0.098600335 0.07631985 -0.05641918 -0.097553566 0.0040526167 -0.09874816
-0.010147445 0.047315862 0.034878243 -0.10496937 0.065691456 0.08294267 0.07268918 -0.048637085
-0.008948549 0.010844973 -0.042931892 -0.048223965 -0.015890619 0.019777438 0.015954163 -0.03719698
-0.025059227 0.019924093 -0.041028235 0.016747892 -0.07791172 0.04377326 0.01743737 -0.04994159
0.066854715 -0.0083414875 0.0029782557 0.01784936 0.07871268 0.04700202 -0.12351061 0.056842662
0.10342141 -0.04763733 0.059802324 -0.075958155 0.00088895747 0.07376273 -0.04549519 0.09248308
0.03576163 -0.008990958 -0.0066462555 -0.06485936 -0.026381573 0.026661754 0.029235294 0.030837035
-0.04730137 0.0016187425 0.0025383292 0.099108994 0.10314529 -0.062498823 0.04372701 0.024878757
0.03129862 0.01819253 -0.053584944 0.0022856202 -0.07891226 -0.09854767 0.051914778 0.10414345
-0.10121448 0.012440279 -0.067743935 -0.05084815 0.017212385 0.051897485 0.047837965 0.046366304
-0.10619597 0.04846442 0.038418293 -0.07808044 -0.076435134 0.07178666 -0.022539042 -0.05226577
-0.075769514 0.06596621 0.07050614 0.029537478 0.10217213 0.089214996 0.07806644 0.0014480738
0.079040304 -0.06734221 -0.08019916 -0.0088852225 -0.089983426 -0.06392469 0.057271123 -0.009235651
0.0071463836 0.08334809 -0.0279862 -0.038432725 -0.02496585 -0.10364812 -0.04146473 -0.03535179
-0.020228425 -0.050768964 -0.031150147 0.08418769 0.01712438 -0.09325102 0.10464477 -0.0390937
0.045062497 -0.10910617 0.08004225 0.077453025 -0.045705132 -0.057563163 -0.057497278 -0.0014315506
-0.08662016 -0.08977982 0.038129386 -0.036325004 0.06125088 -0.04442359 -0.008341234 0.061196327
0.03036298 -0.07103995 -0.11741853 -0.09640661 0.0072552436 0.09134876 0.0387497 0.0100022415
-0.10100789 -0.10243889 -0.1039006 -0.10593013 0.05807842 0.009492568 -0.055120703 -0.07581183
0.0061747343 0.07164082 -0.00474151 -0.021587266 0.023038939 -0.027985547 -0.08222905 -0.02545232
0.039212495 0.008806721 0.05157044 0.01767495 0.045264047 -0.008655378 -0.13146606 0.013875304
-0.009223508 0.043451242 0.012671426 -0.005108508 0.06343185 0.08328104 -0.04329671 -0.048095282
0.08424231 0.041936845 -0.03614552 0.023651863 0.07751649 0.0960717 -0.119518936 -0.07658515
0.073497616 -0.037308212 -0.051885124 -0.10033118 0.062788986 -0.0039194566 0.08739529 0.093167365
0.045435816 0.015526542 0.037043296 -0.042439077 -0.025382033 0.0570497 -0.059058346 0.047244124
00000000: 50fd 3ebd 708c 66bd 9613 60bd 21d1 1bbe
00000010: d642 933c 04b4 343d d1c4 6a3d 56e7 ebbc
00000020: 88b3 8dbd f69d 203d 1f1d a3ba 8eef ce3b
00000030: 1478 3ebd 5f85 c63c 4c80 64bd 21e2 d13c
00000040: 41c0 95bd 3b69 b1bd 2da0 1c3d c543 4f3b
00000050: fa5c fbbc 3a6a bd3c 09dc 44bd 6feb d5bc
00000060: 9354 1dbd ab93 47bd 2237 a9bc bccc 3a3c
00000070: 3073 d53d 1224 c73d f357 77bd 3586 babd
00000080: 5282 aabd 38af 943d 865a ddbd 2a6b 8bbd
00000090: 65e1 d33d b5c8 743d a2ef 80bd cda5 3d3d
000000a0: f285 bbbb 493f 2cbd 33fc 5ebd 3d43 3cbd
000000b0: ab40 94bd b6cf 59bd a58f 083d c5ad c8bd
000000c0: 1aa5 943d 5dbc 8c3d d981 613d ccb5 9dbc
000000d0: e41f 77bd b8a1 693d 588d cfbc e991 d93c
000000e0: 2777 4c3d 2ea5 ca3d f9ee c93d 954d 9c3d
000000f0: cc17 67bd 2aca c7bd d0cb 843b 7a3c cabd
00000100: 7841 26bc 47ce 413d 7ddc 0e3d 2efa d6bd
00000110: 3e89 863d d9dd a93d 11de 943d ae37 47bd
00000120: ef9c 12bc 1daf 313c 5ad9 2fbd 7e86 45bd
00000130: 0b2d 82bc 4b04 a23c 4eb2 823c dc5b 18bd
00000140: 0249 cdbc da37 a33c 390d 28bd e032 893c
00000150: 2e90 9fbd 974b 333d d1d8 8e3c 8d8f 4cbd
00000160: 20eb 883d bcaa 08bc d72e 433b d238 923c
00000170: 1d34 a13d 3185 403d 21f3 fcbd dad3 683d
00000180: 9bce d33d 5c1f 43bd 48f3 743d f38f 9bbd
00000190: ed08 693a ea10 973d 2a59 3abd c567 bd3d
000001a0: c97a 123d d04e 13bc d5c8 d9bb fcd4 84bd
000001b0: 2b1e d8bc c069 da3c db7e ef3c f39d fc3c
000001c0: 15bf 41bd fc2b d43a 195a 263b a8f9 ca3d
000001d0: d63d d33d c4fe 7fbd 181b 333d 89ce cb3c
000001e0: fb32 003d 8008 953c e37b 5bbd 58ca 153b
000001f0: c09c a1bd 5cd3 c9bd 97a4 543d 2949 d53d
00000200: 8a49 cfbd 50d2 4b3c 55bd 8abd 2646 50bd
00000210: fd00 8d3c 7592 543d bef1 433d 98ea 3d3d
00000220: 467d d9bd a182 463d 805c 1d3d a3e8 9fbd
00000230: 068a 9cbd e204 933d cca3 b8bc a214 56bd
00000240: 0c2d 9bbd 4b19 873d 8665 903d 95f8 f13c
00000250: 9f3f d13d 5ab6 b63d 4ce1 9f3d 4bcd bd3a
00000260: e2df a13d b6ea 89bd 753f a4bd 5393 11bc
00000270: 3b49 b8bd f3ea 82bd 2095 6a3d 2151 17bc
00000280: 362c ea3b 67b2 aa3d 5143 e5bc a26b 1dbd
00000290: 2f85 ccbc 7745 d4bd ecd6 29bd 0acd 10bd
000002a0: 15b6 a5bc 1ef3 4fbd 982e ffbc 986a ac3d
000002b0: 6e48 8c3c 64fa bebd ff4f d63d b720 20bd
000002c0: 7493 383d 0e73 dfbd 31ed a33d b19f 9e3d
000002d0: 4e35 3bbd 5ac7 6bbd 4482 6bbd dea2 bbba
000002e0: e965 b1bd 7bde b7bd 8f2d 1c3d 87c9 14bd
000002f0: 34e2 7a3d 83f5 35bd aca9 08bc 00a9 7a3d
00000300: c9bb f83c 657d 91bd 2079 f0bd d470 c5bd
00000310: 65bd ed3b 0f15 bb3d 01b8 1e3d 71e0 233c
00000320: 3add cebd 7bcb d1bd d6c9 d4bd e5f1 d8bd
00000330: a3e3 6d3d b786 1b3c 3fc6 61bd 3c43 9bbd
00000340: 6d55 ca3b 6cb8 923d ab5e 9bbb c7d7 b0bc
00000350: 28bc bc3c f241 e5bc b467 a8bd 6281 d0bc
00000360: 489d 203d 114a 103c 873b 533d 0fcb 903c
00000370: cb66 393d 49cf 0dbc 0a9f 06be 3e55 633c
00000380: 321e 17bc eef9 313d d09b 4f3c 4565 a7bb
00000390: 8fe8 813d 408f aa3d e457 31bd 8fff 44bd
000003a0: 3b87 ac3d f8c5 2b3d 530d 14bd 8dc1 c13c
000003b0: f7c0 9e3d 3dc1 c43d 58c6 f4bd add8 9cbd
000003c0: eb85 963d 7fd0 18bd 7f85 54bd 6f7a cdbd
000003d0: 8397 803d c96e 80bb 4dfc b23d 88ce be3d
000003e0: e81a 3a3d 0a63 7e3c b6ba 173d 99d4 2dbd
000003f0: fbed cfbc f2ac 693d 2ae7 71bd 0e83 413d

net.flow_mappings.0.affine_layers.0.net.8.bias f4 [32]
-0.0020316665 -0.25392106 -0.10136909 -0.035107866 -0.0024563055 0.011664294 -0.026088992 0.014784918
-0.006478287 -0.1270209 0.32738143 -0.118412286 -0.28674406 -0.18222938 -0.09200474 -0.123281576
0.044716816 -0.09947008 -0.17983031 -0.12163578 0.25515637 -0.058977675 -0.02691786 0.052211594
-0.006842631 -0.082105294 -0.02442897 0.00056639174 0.0010382633 0.033088237 0.023432959 -0.019006817
00000000: b525 05bb f101 82be 999a cfbd 44cd 0fbd
00000010: f8f9 20bb 981b 3f3c 95b8 d5bc 713c 723c
00000020: cf47 d4bb c411 02be 8a9e a73e 2482 f2bd
00000030: 1ed0 92be 579a 3abe fb6c bcbd 0d7b fcbd
00000040: fb28 373d f8b6 cbbd 7025 38be 2e1c f9bd
00000050: dba3 823e 9392 71bd d882 dcbc d3db 553d
00000060: 2638 e0bb d226 a8bd 431f c8bc e879 143a
00000070: 5616 883a 8887 073d 7af6 bf3c 2fb4 9bbc

net.flow_mappings.0.affine_layers.0.net.10.weight f4 [2, 32]
0.009845702 -0.17583077 0.09738304 -0.0011768456 0.07189738 0.013243703 0.008927758 0.019971048
0.0738157 0.0061270595 0.21838616 -0.1253437 -0.2191093 -0.14133528 0.011275609 -0.13955104
0.02490993 -0.025355244 -0.06283974 -0.051791128 0.27599567 0.048176296 -0.08180545 -0.0031444172
0.036762353 -0.04536884 -0.053801335 -0.10606405 0.06252677 0.066078946 0.012464619 0.04461017
-0.09405196 0.030965867 0.057998873 -0.31432906 -0.01287482 0.051177688 -0.00685515 -0.48421055
0.0129132485 -0.025079893 -1.8905534 -1.4686139 0.006683542 -1.4424906 0.010074974 -1.5868435
-0.15480283 -0.04961592 -1.0759099 -1.1204152 -1.6379863 -0.09058125 -1.6634313 -0.08834432
0.06985337 -1.6133385 -1.5660725 -1.6167568 0.03812942 -0.06195231 -0.17969097 0.03131862
00000000: de4f 213c fb0c 34be c270 c73d 6340 9aba
00000010: ef3e 933d 1efc 583c bb45 123c 539a a33c
00000020: b02c 973d 80c5 c83b 9fa0 5f3e 195a 00be
00000030: 305e 60be 32ba 10be 55bd 383c 78e6 0ebe
00000040: e90f cc3c cdb5 cfbc 1fb2 80bd ef22 54bd
00000050: 4e4f 8d3e 8254 453d 9e89 a7bd 9112 4ebb
00000060: 1f94 163d add4 39bd ca5e 5cbd 1c38 d9bd
00000070: 090e 803d 6654 873d 6738 4c3c 27b9 363d
00000080: 509e c0bd 21ac fd3c 3a90 6d3d bdef a0be
00000090: e9f0 52bc b29f 513d 2ba1 e0bb 72ea f7be
000000a0: 1792 533c 5974 cdbc a7fd f1bf 8afb bbbf
000000b0: 9d01 db3b 88a3 b8bf 8111 253c b01d cbbf
000000c0: a284 1ebe 103a 4bbd 6ab7 89bf c469 8fbf
000000d0: 89a9 d1bf aa82 b9bd 51eb d4bf deed b4bd
000000e0: 490f 8f3d e081 cebf 1075 c8bf e3f1 cebf
000000f0: 982d 1c3d b5c1 7dbd e900 38be f447 003d

net.flow_mappings.0.affine_layers.0.net.10.bias f4 [2]
0.007636695 -1.7485993
00000000: 3e3d fa3b 1ad2 dfbf

net.flow_mappings.0.affine_layers.1.net.0.weight f4 [32, 1]
-0.07255985 -0.12427157 -0.051701237 -0.046282806 -0.57219696 -0.032831587 0.09408678 -0.40222475
0.5397974 -0.39960548 -0.34573057 0.19885725 -0.18785338 -0.28859055 -0.42404145 -0.51524127
0.35082132 -0.1544354 0.22178255 0.37812448 0.069152296 -0.3274808 -0.1690869 -0.43155116
-0.4853069 -0.16334003 0.5474724 -0.15675394 -0.21505372 -0.22547603 -0.22284012 0.13122782
00000000: 429a 94bd 1882 febd adc4 53bd 0a93 3dbd
00000010: 807b 12bf 6a7a 06bd 92b0 c03d 67f0 cdbe
00000020: 2a30 0a3f 1799 ccbe 9903 b1be 3ca1 4b3e
00000030: a35c 40be 24c2 93be f61b d9be dae6 03bf
00000040: da9e b33e 5024 1ebe f71a 633e 8899 c13e
00000050: b89f 8d3d 90ab a7be 1e25 2dbe 46f4 dcbe
00000060: 257a f8be 9c42 27be 2727 0c3f 1b84 20be
00000070: 0b37 5cbe 30e3 66be 3330 64be 9660 063e

net.flow_mappings.0.affine_layers.1.net.0.bias f4 [32]
0.445668 -0.54484344 0.8165729 -0.17202187 0.43832165 0.14124326 -0.5003251 -0.35889018
-0.67222756 -0.5672643 -0.27959946 -0.120796725 0.51276416 0.40144017 -0.5923042 0.302954
-0.7054566 -0.10515298 -0.2544179 0.26035774 -0.3675867 -0.11448895 0.34919676 0.15482242
-0.3482304 -0.104639515 -0.4318664 0.030283222 0.13301365 0.14843203 -0.28865397 -0.54284084
00000000: 992e e43e dc7a 0bbf ec0a 513f 8026 30be
00000010: b26b e03e 13a2 103e 4e15 00bf 74c0 b7be
00000020: 1b17 2cbf 3c38 11bf a927 8fbe 4664 f7bd
00000030: 8344 033f 9189 cd3e 40a1 17bf c91c 9b3e
00000040: ce98 34bf 725a d7bd 1043 82be 9c4d 853e
00000050: 5334 bcbe 2f79 eabd ebc9 b23e c589 1e3e
00000060: 414b b2be 3e4d d6bd 981d ddbe 8514 f83c
00000070: bb34 083e 91fe 173e 74ca 93be 9ef7 0abf

net.flow_mappings.0.affine_layers.1.net.2.weight f4 [32, 32]
0.09014175 0.071339816 0.22256234 0.034159105 -0.04652928 -0.022765096 -0.11822614 -0.050942097
-0.051655523 -0.08381928 0.016384048 -0.004325154 -0.04485205 -0.07644841 0.07567703 0.022144359
-0.13651502 0.10319885 -0.11033001 0.04622681 -0.08724763 -0.023366455 0.029999897 0.061234307
0.022851918 -0.10059233 -0.08856908 0.032894786 -0.03478351 0.032012273 -0.10178128 -0.35538292
-0.06999881 -0.03182832 0.048181463 0.07285182 0.016860267 0.0043570315 -0.072300345 -0.0926374
0.023858793 -0.10109321 0.06552204 -0.027290931 0.04560726 0.10269424 0.071379535 0.057846904
0.08452063 0.018380146 -0.10711019 -0.047559515 -0.045546643 0.05227101 0.00065693987 -0.022586774
-0.07752405 0.079365596 -0.059318036 -0.104159616 0.021666644 -0.040874906 -0.03928264 -0.019169778
0.0793344 0.062261373 -0.06710047 0.0035441723 -0.07370598 0.06982825 0.07805739 0.0997646
-0.020009773 0.0066629024 -0.015919626 0.058783814 -0.0029308477 0.08724057 -0.06448415 0.08785669
0.028590955 0.08510134 -0.055437595 -0.10287875 0.013766098 -0.09525703 -0.08509452 0.022149017
0.06602973 0.10350538 -0.076370515 -0.005783609 -0.08047552 0.02470715 0.0331624 0.091214925
0.07064749 0.040897146 -0.07605423 -0.06292596 0.06765961 -0.10396237 0.020999867 -0.06692186
-0.082356945 -0.063610554 -0.082924835 -0.03887198 0.08353013 0.024790056 -0.039216787 0.09740485
-0.09889739 -0.045432992 -0.03897579 0.08426053 -0.0027900438 -0.03668948 0.037482563 -0.06256588
0.018135753 0.0066525675 -0.008925186 -0.09791412 -0.015219747 -0.028695531 -0.09603165 -0.04611419
0.0852574 0.01575903 -0.3092195 -0.00068353815 0.039048456 0.07210136 0.0018315299 0.03219285
0.057269894 0.07011008 0.047772057 -0.05961188 -0.10229333 -0.075043485 -0.088575445 -0.089543164
-0.024921386 -0.072840184 0.10268292 0.0770918 0.1247098 -0.100167856 -0.07680161 0.03624821
-0.045527883 -0.10260056 0.053895667 -0.017201563 0.053756565 0.026670597 0.068646275 0.04979584
-0.022626435 -0.06637184 0.070688315 -0.0059107533 -0.066406794 -0.0013181719 0.05968693 -0.023852691
-0.00056926865 -0.03490565 -0.046853315 -0.07789715 0.022434644 0.088261455 0.07057087 -0.027105037
0.018865786 0.065165535 0.0005832379 0.01750877 0.07992688 -0.09518255 -0.06993976 -0.0065065427
-0.083045416 0.089341156 -0.067907065 0.036236126 0.08498342 0.03676077 -0.09334428 -0.09864134
0.0507809 -0.041757874 -0.042914692 0.06446787 0.072079726 -0.02902269 -0.042282127 -0.053346347
-0.097395256 0.104528494 0.074393384 -0.04617069 -0.10201116 -0.091347165 0.00028222363 0.01084304
0.022346023 0.02072366 -0.007912904 -0.082072 -0.026352795 0.092458405 -0.016052857 0.054031394
-5.1184332e-05 -0.06093095 0.08219419 -0.020885369 -0.042590182 0.076386586 -0.0003157154 -0.021223018
0.089800395 -0.019902846 0.59724945 -0.03196347 0.054823805 0.14537667 -0.364307 -0.10640688
-0.076860406 -0.07606397 0.1000948 -0.09696777 -0.08252721 -0.0329814 -0.055968344 -0.087191805
0.016636403 -0.021079818 -0.032085065 0.058856547 -0.3769039 0.072702795 0.10326498 0.048588883
-0.0035322013 -0.046204098 0.006738049 0.036580507 0.042933293 -0.005336302 -0.098524556 -0.11932051
00000000: 3d9c b83d 9c1a 923d 62e7 633e 6bea 0b3d
00000010: 7c95 3ebd de7d babc 8c20 f2bd a9a8 50bd
00000020: be94 53bd 71a9 abbd d737 863c 05ba 8dbb
00000030: c8b6 37bd fc90 9cbd 8ffc 9a3d 1668 b53c
00000040: 98ca 0bbe eb59 d33d b3f4 e1bd 5358 3d3d
00000050: e3ae b2bd 026b bfbc 58c2 f53c d3d0 7a3d
00000060: f233 bb3c 5a03 cebd b563 b5bd afbc 063d
00000070: 2779 0ebd 4d1f 033d b472 d0bd c0f4 b5be
00000080: 895b 8fbd 6a5e 02bd ed59 453d 5633 953d
00000090: 8b1e 8a3c 6ec5 8e3b 3412 94bd adb8 bdbd
000000a0: 8473 c33c f509 cfbd 6b30 863d 3b91 dfbc
000000b0: aece 3a3d 5c51 d23d 6f2f 923d e0f0 6c3d
000000c0: 2719 ad3d f691 963c 965c dbbd c4cd 42bd
000000d0: 1e8f 3abd 201a 563d 7d36 2c3a e607 b9bc
000000e0: eec4 9ebd 6e8a a23d 78f7 72bd a351 d5bd
000000f0: 3f7e b13c 726c 27bd d5e6 20bd f009 9dbc
00000100: 137a a23d c805 7f3d f96b 89bd 5845 683b
00000110: 29f3 96bd 1d02 8f3d 8edc 9f3d 6251 cc3d
00000120: 89eb a3bc 7a54 da3b e069 82bc 4cc7 703d
00000130: 7713 40bb 2fab b23d 4410 84bd 35ee b33d
00000140: 9437 ea3c 9d49 ae3d 8812 63bd 18b2 d2bd
00000150: 338b 613c 1e16 c3bd 0946 aebd db71 b53c
00000160: 983a 873d a1fa d33d 2568 9cbd 6e84 bdbb
00000170: 59d0 a4bd a666 ca3c 4cd5 073d e4ce ba3d
00000180: a2af 903d c483 273d 52c2 9bbd 53df 80bd
00000190: 1f91 8a3d 39ea d4bd ea07 ac3c 540e 89bd
000001a0: c2aa a8bd 4046 82bd 7fd4 a9bd 3a38 1fbd
000001b0: d811 ab3d 8414 cb3c c8a1 20bd 327c c73d
000001c0: b78a cabd f217 3abd 14a5 1fbd c990 ac3d
000001d0: 2bd9 36bb b547 16bd 5187 193d 8a22 80bd
000001e0: 6e91 943c c8fd d93b f13a 12bc 3387 c8bd
000001f0: 3f5c 79bc e412 ebbc 3eac c4bd 3ce2 3cbd
00000200: 6f9b ae3d 1519 813c 0552 9ebe 782f 33ba
00000210: 46f1 1f3d e1a9 933d f20f f03a a6dc 033d
00000220: d693 6a3d e095 8f3d a2ac 433d 962b 74bd
00000230: 2a7f d1bd 66b0 99bd 0b67 b5bd 6862 b7bd
00000240: ef27 ccbc 3c2d 95bd 6c4b d23d 4ee2 9d3d
00000250: da67 ff3d ce24 cdbd 2a4a 9dbd 0179 143d
00000260: 727b 3abd 3e20 d2bd b4c1 5c3d 4bea 8cbc
00000270: d82f 5c3d 4c7c da3c 6b96 8c3d b9f6 4b3d
00000280: 135b b9bc f6ed 87bd 09c5 903d feae c1bb
00000290: 4900 88bd 82c6 acba 487a 743d b866 c3bc
000002a0: f93a 15ba 3af9 0ebd 43e9 3fbd 8a88 9fbd
000002b0: dcc8 b73c 6cc2 b43d 7687 903d 620b debc
000002c0: 6c8c 9a3c 8275 853d 6fe4 183a 8d6e 8f3c
000002d0: b4b0 a33d 12ef c2bd 943c 8fbd d634 d5bb
000002e0: b713 aabd 7ff8 b63d dc12 8bbd 556c 143d
000002f0: ca0b ae3d 7692 163d 492b bfbd 7904 cabd
00000300: a2ff 4f3d 4e0a 2bbd 51c7 2fbd bb07 843d
00000310: 899e 933d fec0 edbc 0630 2dbd b381 5abd
00000320: 2a77 c7bd 0913 d63d 8f5b 983d 7a1d 3dbd
00000330: 3aeb d0bd 3914 bbbd 6af7 9339 02a7 313c
00000340: 020f b73c aac4 a93c 20a5 01bc 5d15 a8bd
00000350: d1e1 d7bc d55a bd3d 4881 83bc 0650 5d3d
00000360: c2ae 56b8 bb92 79bd 6d55 a83d cb17 abbc
00000370: 0b73 2ebd 9270 9c3d 9b86 a5b9 e5db adbc
00000380: 45e9 b73d 4b0b a3bc 57e5 183f 21ec 02bd
00000390: ed8e 603d 9fdd 143e 7286 babe daeb d9bd
000003a0: fd68 9dbd 6dc7 9bbd 81fe cc3d 0a97 c6bd
000003b0: 0704 a9bd 8117 07bd 103f 65bd 9e91 b2bd
000003c0: 1149 883c 95af acbc a16b 03bd 9013 713d
000003d0: 8cf9 c0be 34e5 943d 977c d33d 2305 473d
000003e0: 817c 67bb 8240 3dbd daca dc3b 71d5 153d
000003f0: d2da 2f3d 25dc aebb 3ec7 c9bd 505e f4bd

net.flow_mappings.0.affine_layers.1.net.2.bias f4 [32]
0.0881281 0.017596485 0.072302505 -0.09814159 -0.107003175 0.01733473 0.025377123 0.26008067
-0.13773252 -0.05747859 -0.08412483 -0.04862547 -0.06593564 0.0651492 -0.070234954 -0.027278632
-0.15573311 0.07275991 -0.11876696 0.0053840224 0.07388439 -0.26582542 0.015986571 -0.02164561
-0.097636834 0.0772323 0.0074832495 -0.2698251 -0.08941568 -0.062283866 0.008170052 -0.18421349
00000000: 817c b43d 8126 903c 5613 943d 75fe c8bd
00000010: 7b24 dbbd 9001 8e3c afe3 cf3c 4b29 853e
00000020: c109 0dbe ac6e 6bbd a449 acbd 802b 47bd
00000030: 4409 87bd f26c 853d 58d7 8fbd 7077 dfbc
00000040: 8078 1fbe 2603 953d 183c f3bd 746c b03b
00000050: b350 973d 451a 88be 45f6 823c 2252 b1bc
00000060: d2f5 c7bd f82b 9e3d 0c36 f53b 8426 8abe
00000070: 911f b7bd 5e1d 7fbd afdb 053c 76a2 3cbe

net.flow_mappings.0.affine_layers.1.net.4.weight f4 [32, 32]
0.09610848 0.07474943 0.09086267 -0.071825415 0.020045025 0.059194256 0.10165298 0.008512233
-0.0941615 0.07339779 0.057716478 0.09471168 0.10151654 -0.033445127 -0.051146235 -0.04076538
-0.0036130676 -0.025491597 -0.0049075107 0.0017170123 0.051419575 -0.060753077 -0.048174903 0.0012035177
-0.08418595 0.07562748 0.06736609 -0.08669365 -0.009621809 0.0029966647 -0.03563023 -0.06781808
-0.24401245 -0.054289363 0.027745465 -0.09836264 0.023035882 0.03695959 -0.055713747 -0.09559949
-0.083342135 -0.059116453 0.005277904 -0.09320429 -0.09106542 0.09679909 0.04763189 0.10025062
0.08996234 -0.07308234 0.052064825 -0.08591312 0.025352634 -0.039099313 0.07755214 -0.069106184
0.037633173 -0.036615983 0.037721332 -0.009625626 0.14969844 0.022289494 -0.094789505 -0.05776193
0.07698682 -0.06898167 -0.03042313 0.06055065 -0.04729437 0.0019212927 -0.019460788 0.15787116
-0.2401336 -0.0336486 0.009011267 -0.04809226 -0.0018062213 0.07345399 -0.07400871 -0.02725279
-0.16618486 0.04107763 0.087931275 -0.084579974 -0.03742944 -0.09468959 0.061630007 0.07673766
-0.024020078 -0.10024175 -0.000109581044 -0.41669092 -0.07295728 -0.100239985 0.014216162 -0.010288582
0.07757469 -0.07143989 -0.10619211 -0.076960474 0.006969447 -0.09954483 -0.10096218 0.011667395
-0.016318168 -0.038875118 -0.01449899 -0.020809432 -0.08140787 -0.103934325 0.046058573 -0.096873604
0.01288036 -0.039775696 -0.10240547 0.0032408407 -0.059236187 0.019624233 -0.09355364 0.09807181
0.047428776 0.040177394 -0.053528532 -0.03514107 -0.030208582 0.024424523 -0.09351929 -0.123475574
0.046575654 0.08503682 0.09469897 -0.002688014 -0.05573567 -0.072896615 0.007472937 0.058528513
-0.11954507 -0.058251582 -0.0502469 -0.10269887 -0.105932765 0.008505688 0.07992521 0.033682737
0.02378979 -0.04776098 0.079335436 -0.09921823 -0.028219562 -0.100736946 -0.0646794 0.026186422
0.0030259057 -0.066731475 0.028789936 -0.07252027 0.0034588606 0.01670081 -0.044346213 -0.09076576
0.11351665 0.059819557 -8.9344605e-05 -0.0039626756 -0.0015874935 -0.017560085 -0.04957236 -0.028705308
-0.025871798 0.09731668 0.076535486 0.10572519 0.020691821 0.055819243 0.049187653 -0.058608815
0.15763521 -0.08885377 -0.07563652 -0.095160395 0.0822691 -0.0036185759 0.050290853 0.060424987
0.050058436 0.06677258 0.024974596 0.13709544 0.023914568 -0.036794923 0.0741833 -0.06786873
0.013262211 0.011705484 0.07707544 0.061617024 -0.028824577 -0.022675594 -0.051212247 0.066270605
-0.07118326 -0.089217946 -0.074624725 0.011875574 -0.07294187 0.04213007 0.011679717 0.004853606
0.04275964 -0.026733998 0.061536323 0.061410613 -0.08087907 0.10317415 -0.12737018 0.04680648
0.06341169 -0.03425921 -0.10949238 -0.043626096 -0.12044239 -0.053519927 -0.09961543 0.047387373
-0.052083183 0.0066917436 0.03317484 0.018198445 -0.088358454 -0.06829153 0.09757647 0.03800817
-0.13462457 0.030037422 -0.032347884 -0.04390965 -0.05564693 0.0039111674 -0.044852387 -0.03019783
-0.0664192 0.023662318 0.0193324 -0.0075137066 0.06455416 -0.10719017 0.03557913 -0.03258059
-0.013054844 -0.011939105 0.004585301 -0.15379025 -0.0056738877 0.09210055 0.056984648 -0.007840314
00000000: 86d4 c43d 3b16 993d 3516 ba3d 3419 93bd
00000010: 7735 a43c ad75 723d 702f d03d e576 0b3c
00000020: bfd7 c0bd 9551 963d 1d68 6c3d 33f8 c13d
00000030: e7e7 cf3d c2fd 08bd b77e 51bd 99f9 26bd
00000040: 37c9 6cbb c1d3 d0bc 2fcf a0bb 5f0d e13a
00000050: 559d 523d 38d8 78bd 0c53 45bd 5abf 9d3a
00000060: af69 acbd 95e2 9a3d 3cf7 893d 718c b1bd
00000070: cba4 1dbc b163 443b 01f1 11bd 35e4 8abd
00000080: 66de 79be 865e 5ebd 754a e33c 5a72 c9bd
00000090: bfb5 bc3c f062 173d 1934 64bd aac9 c3bd
000000a0: 48af aabd 1824 72bd 45f2 ac3b e4e1 bebd
000000b0: 8280 babd 9a3e c63d a819 433d 3250 cd3d
000000c0: 2d3e b83d 32ac 95bd ed41 553d 38f3 afbd
000000d0: 54b0 cf3c 9a26 20bd a8d3 9e3d 8b87 8dbd
000000e0: 3e25 1a3d a4fa 15bd af81 1a3d cdb4 1dbc
000000f0: 8c4a 193e 7598 b63c 0021 c2bd c697 6cbd
00000100: 44ab 9d3d 4346 8dbd ee39 f9bc f503 783d
00000110: beb7 41bd e3d3 fb3a 3b6c 9fbc faa8 213e
00000120: 95e5 75be 1dd3 09bd fea3 133c 64fc 44bd
00000130: bbbe ecba 0c6f 963d e191 97bd 3e41 dfbc
00000140: 5d2c 2abe 0441 283d 5015 b43d 4438 adbd
00000150: 9d4f 19bd 9eec c1bd bf6f 7c3d a228 9d3d
00000160: c1c5 c4bc 8c4b cdbd e0ce e5b8 8358 d5be
00000170: a06a 95bd 9f4a cdbd e8ea 683c 7191 28bc
00000180: 7bdf 9e3d 144f 92bd 407b d9bd 749d 9dbd
00000190: f55f e43b 29de cbbd 42c5 cebd 9a28 3f3c
000001a0: aead 85bc 843b 1fbd 2c8d 6dbc 8b78 aabc
000001b0: 2bb9 a6bd 85db d4bd eaa7 3c3d ab65 c6bd
000001c0: 2508 533c d7eb 22bd f6b9 d1bd 4964 543b
000001d0: a5a1 72bd 00c3 a03c 0d99 bfbd e0d9 c83d
000001e0: ad44 423d 0d91 243d bc40 5bbd 15f0 0fbd
000001f0: fd77 f7bc f015 c83c 0b87 bfbd c3e0 fcbd
00000200: 1dc6 3e3d c927 ae3d 89f1 c13d 6429 30bb
00000210: 164b 64bd d24a 95bd 8adf f43b 98bb 6f3d
00000220: 0cd4 f4bd 3699 6ebd b2cf 4dbd c953 d2bd
00000230: 47f3 d8bd 715b 0b3c d4af a33d e9f6 093d
00000240: cee2 c23c 04a1 43bd 9e7a a23d ed32 cbbd
00000250: b62c e7bc 2c4f cebd a276 84bd e884 d63c
00000260: 464e 463b 83aa 88bd dfd8 eb3c 8285 94bd
00000270: 0dae 623b 23d0 883c 60a4 35bd 66e3 b9bd
00000280: 6b7b e83d 5a05 753d 855e bbb8 55d9 81bb
00000290: 7113 d0ba 2bda 8fbc 630c 4bbd 6527 ebbc
000002a0: 18f1 d3bc f84d c73d a3be 9c3d 7386 d83d
000002b0: e581 a93c b8a2 643d fe78 493d cc0f 70bd
000002c0: 206b 213e f7f8 b5bd 52e7 9abd 74e3 c2bd
000002d0: b47c a83d a125 6dbb c8fd 4d3d 3180 773d
000002e0: 130a 4d3d 10c0 883d 8697 cc3c bf62 0c3e
000002f0: 7ce8 c33c 46b6 16bd 6aed 973d c3fe 8abd
00000300: bf49 593c 5cc8 3f3c bad9 9d3d 2262 7c3d
00000310: 8521 ecbc 2bc2 b9bc efc3 51bd e2b8 873d
00000320: 87c8 91bd e6b7 b6bd d9d4 98bd c491 423c
00000330: 8c62 95bd 9590 2c3d 495c 3f3c 000b 9f3b
00000340: bb24 2f3d 4201 dbbc 830d 7c3d b289 7b3d
00000350: eda3 a5bd f84c d33d 546d 02be 27b8 3f3d
00000360: fddd 813d 6353 0cbd 8a3d e0bd 47b1 32bd
00000370: 80aa f6bd b637 5bbd 2d03 ccbd 4319 423d
00000380: 2d55 55bd 6a46 db3b 57e2 073d e814 953c
00000390: 47f5 b4bd 6edc 8bbd 2cd6 c73d 74ae 1b3d
000003a0: 06db 09be 0a11 f63c 377f 04bd 9bda 33bd
000003b0: 09ee 63bd 4029 803b 23b7 37bd 7161 f7bc
000003c0: ca06 88bd 7ad7 c13c fb5e 9e3c 8a35 f6bb
000003d0: f934 843d 8586 dbbd 6cbb 113d 3a73 05bd
000003e0: fce3 55bc 3c9c 43bc 4b40 963b 317b 1dbe
000003f0: 05ec b9bb 379f bc3d bc68 693d a974 00bc

net.flow_mappings.0.affine_layers.1.net.4.bias f4 [32]
-0.004172542 0.08399031 0.20762461 -0.11966318 -0.07681686 -0.015144628 -0.04275724 0.30101871
0.004314663 0.026148712 -0.21126115 0.014527892 0.2921594 -0.0774703 0.004690401 -0.0104301125
-0.09675729 -0.124959365 0.14773463 0.06885814 -0.1020723 -0.12628943 -0.07330195 -0.10256371
-0.064223155 -0.03126207 -0.027926685 -0.008607813 -0.082728945 -0.0076766014 0.018495899 0.02833497
00000000: d2b9 88bb 1d03 ac3d 8c9b 543e f811 f5bd
00000010: 2852 9dbd 2c21 78bc 3722 2fbd 201f 9a3e
00000020: 0462 8d3b d335 d63c d854 58be 6506 6e3c
00000030: eb95 953e c0a8 9ebd efb1 993b 10e3 2abc
00000040: b028 c6bd b2ea ffbd bf47 173e 7f05 8d3d
00000050: 480b d1bd 0452 01be 551f 96bd ec0c d2bd
00000060: 6e87 83bd a80c 00bd 81c6 e4bc c907 0dbc
00000070: cb6d a9bd 008c fbbb b684 973c bd1e e83c
