param/model_original.pth (torch, 86301 bytes, 110 tensors)

net.rotations.0.LU f4 [2, 2]
00000000: 0000 0000 0000 0000 0000 0000 0000 0000
0.0 0.0 0.0 0.0

net.rotations.0.LU_init f4 [2, 2]
00000000: 0000 803f 0000 0000 0000 0000 0000 803f
1.0 0.0 0.0 1.0

net.rotations.0.ones_mat f4 [2, 2]
00000000: 0000 803f 0000 803f 0000 803f 0000 803f
1.0 1.0 1.0 1.0

net.rotations.0.I f4 [2, 2]
00000000: 0000 803f 0000 0000 0000 0000 0000 803f
1.0 0.0 0.0 1.0

net.flow_mapping.0.scale_layers.0.b f4 [1, 2]
00000000: ac54 93bd 55de 11be
-0.07193884 -0.14244969

net.flow_mapping.0.scale_layers.0.logs f4 [1, 2]
00000000: 7fd4 48bd d58a 0f3d
-0.049030777 0.03504451

net.flow_mapping.0.scale_layers.0.b_init f4 [1, 2]
00000000: 0000 0000 0000 0000
0.0 0.0

net.flow_mapping.0.scale_layers.0.logs_init f4 [1, 2]
00000000: 0000 0000 0000 0000
0.0 0.0

net.flow_mapping.0.scale_layers.1.b f4 [1, 2]
00000000: e2db 85bc bd7a c33d
-0.0163402 0.09544895

net.flow_mapping.0.scale_layers.1.logs f4 [1, 2]
00000000: c74f 7e3b d7bb 9dbc
0.0038804875 -0.019254608

net.flow_mapping.0.scale_layers.1.b_init f4 [1, 2]
00000000: 0000 0000 0000 0000
0.0 0.0

net.flow_mapping.0.scale_layers.1.logs_init f4 [1, 2]
00000000: 0000 0000 0000 0000
0.0 0.0

net.flow_mapping.0.scale_layers.2.b f4 [1, 2]
00000000: 63d1 773d dba2 1a3c
0.06050242 0.009438242

net.flow_mapping.0.scale_layers.2.logs f4 [1, 2]
00000000: d3c9 7e3d 4877 043d
0.062204193 0.032340318

net.flow_mapping.0.scale_layers.2.b_init f4 [1, 2]
00000000: 0000 0000 0000 0000
0.0 0.0

net.flow_mapping.0.scale_layers.2.logs_init f4 [1, 2]
00000000: 0000 0000 0000 0000
0.0 0.0

net.flow_mapping.0.scale_layers.3.b f4 [1, 2]
00000000: 7ddf 97bd 5a1b 63bc
-0.07415674 -0.013861502

net.flow_mapping.0.scale_layers.3.logs f4 [1, 2]
00000000: fedd 903c decc 9b3d
0.01768398 0.07607435

net.flow_mapping.0.scale_layers.3.b_init f4 [1, 2]
00000000: 0000 0000 0000 0000
0.0 0.0

net.flow_mapping.0.scale_layers.3.logs_init f4 [1, 2]
00000000: 0000 0000 0000 0000
0.0 0.0

net.flow_mapping.0.scale_layers.4.b f4 [1, 2]
00000000: 775d a43d e18e c3bd
0.080256395 -0.09548736

net.flow_mapping.0.scale_layers.4.logs f4 [1, 2]
00000000: 3a70 91bc aec4 39bc
-0.01775371 -0.011338396

net.flow_mapping.0.scale_layers.4.b_init f4 [1, 2]
00000000: 0000 0000 0000 0000
0.0 0.0

net.flow_mapping.0.scale_layers.4.logs_init f4 [1, 2]
00000000: 0000 0000 0000 0000
0.0 0.0

net.flow_mapping.0.scale_layers.5.b f4 [1, 2]
00000000: 71ef 8ebc acce 623e
-0.017448159 0.22149152

net.flow_mapping.0.scale_layers.5.logs f4 [1, 2]
00000000: c25c 373d 2f67 89bb
0.044766195 -0.0041932086

net.flow_mapping.0.scale_layers.5.b_init f4 [1, 2]
00000000: 0000 0000 0000 0000
0.0 0.0

net.flow_mapping.0.scale_layers.5.logs_init f4 [1, 2]
00000000: 0000 0000 0000 0000
0.0 0.0

net.flow_mapping.0.scale_layers.6.b f4 [1, 2]
00000000: 93ef 0d3e a38e aa3d
0.13860922 0.08327987

net.flow_mapping.0.scale_layers.6.logs f4 [1, 2]
00000000: f449 183d df9f 4a3c
0.037179902 0.012367218

net.flow_mapping.0.scale_layers.6.b_init f4 [1, 2]
00000000: 0000 0000 0000 0000
0.0 0.0

net.flow_mapping.0.scale_layers.6.logs_init f4 [1, 2]
00000000: 0000 0000 0000 0000
0.0 0.0

net.flow_mapping.0.scale_layers.7.b f4 [1, 2]
00000000: bb80 c63c 8cb2 ebbb
0.024231305 -0.0071929153

net.flow_mapping.0.scale_layers.7.logs f4 [1, 2]
00000000: ab21 ef3d e88a a63b
0.116763435 0.005082477

net.flow_mapping.0.scale_layers.7.b_init f4 [1, 2]
00000000: 0000 0000 0000 0000
0.0 0.0

net.flow_mapping.0.scale_layers.7.logs_init f4 [1, 2]
00000000: 0000 0000 0000 0000
0.0 0.0

net.flow_mapping.0.affine_layers.0.net.0.weight f4 [24, 1]
00000000: 2a7c a5be 17bb 663e 1ea3 e63c 4dd1 a93e
00000010: 405e fc3e 8adc 043f 9c8c 9d3e 0586 ed3c
00000020: c686 47bf e40f f0be c748 2ebf d307 5c3f
00000030: 6f2a 14bf b93a dcbc e89a 043e 7394 08bf
00000040: 10d7 16bf d145 60bc 26f9 933e 3d6e 1f3e
00000050: 143b e1bd 2fcc f13e a2d4 8f3e d00e 5fbf
-0.32321292 0.22532307 0.028153952 0.33167496 0.49290657 0.51899016 0.3077134 0.02899457
-0.7794002 -0.46887124 -0.680798 0.8594944 -0.5787725 -0.02688347 0.12949717 -0.53351516
-0.5892191 -0.0136885205 0.28901023 0.15569396 -0.109975964 0.47226092 0.28091913 -0.8713198

net.flow_mapping.0.affine_layers.0.net.0.bias f4 [24]
00000000: 24bd 5c3e 8e76 303f 1107 0bbe fcc2 58bf
00000010: 19c4 99bf 3f31 00be eaf4 63bd d104 aabe
00000020: 60d5 35bf c585 143e 0c8e 50bf cbcd 85bf
00000030: 5f35 2bbf b450 94be ba65 a83d 9c0f 71be
00000040: bbf9 64bf 083d 3cbd 1e83 bf3d 6e84 d13d
00000050: 1fe8 b53e c07a 16bf a21a babe 9c21 d0be
0.21556526 0.689309 -0.13576914 -0.8467252 -1.2012969 -0.12518786 -0.05565349 -0.332068
-0.7102871 0.14504154 -0.81466746 -1.0453428 -0.6687831 -0.28967822 0.08222528 -0.23541111
-0.8944356 -0.04595664 0.093511805 0.10230337 0.35528657 -0.5878105 -0.36348444 -0.40650642

net.flow_mapping.0.affine_layers.0.net.2.weight f4 [24, 24]
00000000: fd44 3b3e 684d f23d 9bd6 46bd d751 b5bd
00000010: 1325 90bc 1278 85bf 6865 13bf fe91 cd3d
00000020: 0110 a03e a387 7b3e 75e1 8e3e 5bcb f1bd
00000030: 0585 153e 29c5 8abd 7200 b33c 3c05 41be
00000040: 8ffa 82bb ce77 ca3d cddb 47be 7146 683d
00000050: d5ad 913e 4d76 66be 524d 5ebe fd15 c93e
00000060: 145d e83e 47c6 07be 69c1 a63d 27e7 edbd
00000070: f158 cfbc 17e0 71bf df51 87be eb78 d93d
00000080: 515a cbbe 7b42 c53e 62bc 98be 9f60 09be
00000090: 51cf 23be 17d2 2fbd 818f d3be 2be5 cabe
000000a0: aff9 1cbf 54ce e1bd a809 92bf 8748 fdbe
000000b0: 32a2 a73d 3bcd a1bd 7336 35be 17b4 7cbd
000000c0: 4c1d aebc 5a63 3b3b 5410 673d 76cd f7bd
000000d0: b725 81bd 9bd2 0ebe b39e 02be 7682 783d
000000e0: fcd9 eebc 4340 99bd 6ccf b2bc d4b9 aebd
000000f0: f0a0 02bc 331b 6aba db08 e23c 5370 13be
00000100: 60f8 debd 3676 793c 084e 05be c1de e93b
00000110: 3259 2ebe a8da 4a3d bab4 7d3d db09 1dbd
00000120: 661b 52bf 7245 93bd 9614 3c3c 58b3 bfbd
00000130: 61be c03d ad00 29be 984a 07bd d7b8 c23d
00000140: b516 15be c022 73bf df95 b83c 63ca 3b3e
00000150: 8abc bcbd a931 55bd dbd5 0abd 19a8 a1bd
00000160: 1e3c b4bd 3aca 2bbe 2d17 b53b a181 38be
00000170: 62b0 103b 35d5 5cbe ea3c ec3d 75bd f5bb
00000180: e47f 1cbe 9131 04be 9dcf 15be bd1e bfbd
00000190: 4be2 fbbd 9edd c1bd 1baf 553d 9f4f 123b
000001a0: ec42 2ebe 6945 36be 6965 11be 9cda d63d
000001b0: 8dab c93a 5240 013e d061 04be 4406 1cbc
000001c0: a3f5 2dbe 08da 8b3c 3cf2 293c 5c40 6abc
000001d0: 4912 a5be f054 bcbd 52ac d1bd bbc6 3bbd
000001e0: d5cf 07bc 1f75 32be a75e 03be b65c 073e
000001f0: db3f 983d b826 c0bd 2188 b8bd efd1 5fbd
00000200: e313 b03d 314e 0dbe 5f44 963d aa0a c2bd
00000210: ceab 9fbd 013a c3bd b8f8 b23d d44b 6b3d
00000220: 8e17 20be 784a 2bbe b611 34bd 2142 93bd
00000230: ca13 12be 356e b8bd c964 e1bd 6d9d a3bd
00000240: 6aca 573d 3112 19be 6f5e 803d d491 97bc
00000250: 73f3 9bbc e471 b2bd c10f 94bc fd0b c33d
00000260: a897 303d bed7 603c 48d6 8abc e672 a63d
00000270: 4dc9 cfbd 3334 4abd c85f 24be a99c 23be
00000280: 1c47 15be d1a4 37bd 2913 433d c304 91bd
00000290: cdd9 35be 37b5 ecbc 9f85 3cbd 366a 68bd
000002a0: 3d2a 453d 5645 8d3e 91ae bd3c 52ee abbf
000002b0: a2ed cebf 28d0 943b d956 873d e49b 893d
000002c0: bc61 eabd 21e3 cf3d 978e cdbd fca9 2ebf
000002d0: 4b33 90be 7a6a e5bc cb56 b83d 3ad4 483e
000002e0: 0318 63bf d974 953d f4d3 fe3d 9778 433e
000002f0: f44e c53e 367c 76be 3c42 abbc 347f 653d
00000300: 0895 373e 1fab 583c e727 e83d 46c8 c4bf
00000310: 2dca ebbf 5c48 c03d 5e42 2a3e eae8 3ebd
00000320: f852 313f 3b7f a73d 9c49 443f 4b9d 913f
00000330: 8adf 193f b019 27bd 3437 83bd 1fdc f13e
00000340: fa8e c33e e76e 64bd e832 b03d 527b 1b3d
00000350: 8b77 abbc 6b37 e13e 4b8b adbc 873e ec3e
00000360: a210 ccbe fdcd 913d 5fd8 72bd 1235 e8be
00000370: de92 35bf 5bb4 23bc 2c15 49bd cfd1 cc3d
00000380: af50 9abe 97bb 2cbe df71 2dbe fadf a5be
00000390: d966 d0bd 33b0 26be eb44 f63d c814 583e
000003a0: 7136 c9be d738 4f3d 8e8d d7bc a0f4 253d
000003b0: cef4 793d f567 c3be a4ed 74ba 0b97 1dbe
000003c0: f8ab 443c bf7a 3cbe e704 85bc ed67 9cbf
000003d0: 27de b7bf ef5c 4cbd 8412 0e3e 8126 79bd
000003e0: b8f2 1ebd 1916 74be c092 41be 1198 0d3e
000003f0: 90b9 09be 7f51 9fba 0dc5 983d 5415 d4bd
0.18288036 0.1183117 -0.048544507 -0.088535 -0.017595803 -1.0427268 -0.5757661 0.100376114
0.3126221 0.2456346 0.27906385 -0.11806365 0.14601524 -0.067758866 0.021850798 -0.18849653
-0.003997154 0.09886132 -0.19517441 0.056707803 0.28452936 -0.22506066 -0.21709183 0.39274588
0.45383513 -0.1325923 0.08142359 -0.116163544 -0.025310965 -0.9448256 -0.2642965 0.106187664
-0.39717343 0.38527283 -0.29831225 -0.13415764 -0.15997054 -0.042924967 -0.41320422 -0.39627966
-0.61318487 -0.11025682 -1.1409197 -0.49469396 0.08185233 -0.07900473 -0.17696552 -0.061695185
-0.021254204 0.0028593154 0.056412056 -0.120997354 -0.06306022 -0.13947527 -0.12755851 0.060671292
-0.029156677 -0.0748296 -0.021827422 -0.08531538 -0.007972941 -0.00089304446 0.027592113 -0.14398317
-0.108872175 0.015225938 -0.13018048 0.00713715 -0.17026213 0.049524933 0.061939932 -0.038339477
-0.82073057 -0.0719098 0.011479517 -0.09360379 0.09411312 -0.16504164 -0.033030123 0.09507912
-0.14559443 -0.949749 0.022532402 0.18338923 -0.092156485 -0.052049313 -0.033895355 -0.0789339
-0.08800529 -0.16776362 0.0055264444 -0.180182 0.0022077789 -0.21565707 0.11535056 -0.0074993917
-0.15283161 -0.12909533 -0.1462998 -0.09332035 -0.12299021 -0.09466098 0.052168947 0.002232529
-0.17017716 -0.17799915 -0.14198841 0.10490915 0.0015386209 0.12622193 -0.12927938 -0.009522978
-0.16988234 0.017071739 0.010372695 -0.014297571 -0.32240513 -0.09195888 -0.102379456 -0.04584382
-0.008289297 -0.1742749 -0.12829076 0.1321896 0.074340545 -0.09382385 -0.090103395 -0.054643568
0.08597543 -0.13799359 0.073372595 -0.0947469 -0.07796441 -0.09532548 0.087388456 0.057445362
-0.15633985 -0.16727626 -0.043962203 -0.071903475 -0.14265361 -0.09005395 -0.11005551 -0.07989011
0.05268327 -0.14948346 0.06268012 -0.018502153 -0.019036984 -0.08713129 -0.018073918 0.09523771
0.04311338 0.013723312 -0.01694788 0.08127384 -0.10145817 -0.049366187 -0.16052163 -0.1597773
-0.14577907 -0.044834916 0.047625694 -0.07080986 -0.17758866 -0.028895004 -0.04602587 -0.056741916
0.048135985 0.27591962 0.023154529 -1.3432105 -1.616627 0.0045414157 0.06608362 0.06719187
-0.114444226 0.10150743 -0.100369625 -0.68228126 -0.28164133 -0.028004874 0.090009294 0.19612208
-0.88708514 0.072976775 0.124427706 0.1908897 0.385368 -0.2407082 -0.020905606 0.056029513
0.17927945 0.013224392 0.11335736 -1.5373619 -1.8421074 0.093888015 0.1662688 -0.046608843
0.69267225 0.08178564 0.7667482 1.1376127 0.6010672 -0.040795982 -0.064070135 0.47238252
0.3819502 -0.055769827 0.086034596 0.037959404 -0.020931026 0.43987593 -0.021184584 0.46141455
-0.3985644 0.07119367 -0.05928838 -0.4535299 -0.70927227 -0.009991731 -0.049092457 0.10000955
-0.30139682 -0.16868435 -0.1693797 -0.32397443 -0.10175867 -0.16278152 0.12024864 0.21101677
-0.39299348 0.050591316 -0.026312616 0.040516496 0.06102448 -0.3816525 -0.00093432725 -0.1538965
0.012003891 -0.18406199 -0.01623769 -1.2219216 -1.436467 -0.049893316 0.1387425 -0.060827736
-0.038805693 -0.23836555 -0.18903637 0.1382754 -0.13449693 -0.0012155025 0.074594595 -0.103556305

net.flow_mapping.0.affine_layers.0.net.2.bias f4 [24]
00000000: 8201 373e 1c5b 843d 03eb a0bc 63e0 86bd
00000010: 166e 80bd 1dd3 523d 33e7 313d ecab 0d3f
00000020: 2d03 13be ec86 f9bd 5321 c6bd e032 143c
00000030: b531 d2be ff1c 113d bfba 45bd 5695 af3d
00000040: 18a7 6d3d 615c 7bbe 4391 7abd 089c 10be
00000050: b22e 963c f700 84bd 3315 aabd b476 113e
0.17871669 0.0646269 -0.019643312 -0.06585767 -0.06270997 0.051470865 0.04343338 0.55340457
-0.1435668 -0.121839374 -0.09674325 0.009045333 -0.41053548 0.035428043 -0.048273798 0.085734054
0.05802068 -0.24546959 -0.06117369 -0.14122021 0.018332813 -0.064454965 -0.08304825 0.14205438

net.flow_mapping.0.affine_layers.0.net.4.weight f4 [24, 24]
00000000: 3a6f 223e 1a29 193d 6ea9 343d 5c18 6abe
00000010: 0050 423d ea47 34bd 1b56 4bbd 0f8f de3d
00000020: 9b93 043f 6bad e1bd aa80 563e 5078 61bf
00000030: 146a 883f 931f adbc fbea d8bd 88f7 9d3e
00000040: 150b a03c f251 503a a900 eabc d8d3 843c
00000050: 1fee aabd 50ba ec3e 3297 b93d 5e89 b13e
00000060: ff0c 693d e9a5 ee3d 5cf9 943d 35ec b33b
00000070: f5de 7b3d e475 be3d be99 213e dc94 34be
00000080: 2019 973d 6e54 efbd 027f ecbb 5e56 39bd
00000090: 0201 d7bd d9e4 0bbd c2cd eb3d 433f 4ebd
000000a0: df2a 343d 61e2 3cbd af48 363d 76bc b7bd
000000b0: 8ae1 abbd 8f0a 873c befd 56bd 2c4b 22be
000000c0: d37a 0abe 3ca2 bbbd 85e4 ea3d e130 3dbd
000000d0: 0e2a b83d d979 9c3c fb8f ec3b e5f6 0abe
000000e0: b724 29bd 7da3 f53c 0d87 ccbd ab82 b5bd
000000f0: 55b0 583d 5ef3 b63c 1a49 6d3d 6070 ffbd
00000100: 0bb2 a83d 8623 6ebd 6266 263d e5e3 e13c
00000110: 5b49 b23d a26c 34bd 90a0 a83d 3105 ef3c
00000120: e477 12be f09a 56be 1611 213d 661e 5dbe
00000130: d9a4 dabc 1da2 e3bd bd9e 503d 34cc b4bd
00000140: 511c ffbd 559f 81bd ca40 f0bd e7b3 d2bc
00000150: b638 7bbd 09db 87bd 6710 033e 5fdb e5bd
00000160: d452 cc3c 8b11 8dbc 127c 93bd 4d1e db3c
00000170: 4483 9a3b b985 4abe 6828 ad3c 7265 34bc
00000180: 3d01 11be 003e 82bd 8b6a 28bd 25a7 b43d
00000190: 70c0 2cbd 36e3 c03c 820c 013e cd17 c8be
000001a0: bf02 27bf 5d3e 42bc cadd e5bc f3da 543e
000001b0: d208 e5bd 201b 53bc a9fa dc3d 5d4a 363e
000001c0: f8ce 14be d459 82bd a121 58bc dabb b0bc
000001d0: 1420 5b3d ec4c b1be 394f fc3c 172a c9bd
000001e0: 0f8c 3d3e d6f9 1c3e b9a9 f53d cc70 cb3c
000001f0: a43b f93d a2dd be3d a96d ad3c 0014 593e
00000200: 9ffb f93d 5949 bebc 18af e33e e041 79be
00000210: 84bf 81be e872 2c3d 99c8 a73b 3040 2e3e
00000220: a719 f13c 0234 1b3e ebb6 8dbd c18a 7cbd
00000230: 57c8 9bbc ab9f 183e 7cf2 14bd 2dd0 e53c
00000240: dd98 91bd 4122 af3d 94d6 ba3d 60e1 9a3d
00000250: c3df 12be a052 5a3d 8df4 9c3d 4498 d4be
00000260: f5aa 67bf a248 aabe dbe6 9fbe 029a 8c3e
00000270: ab17 75bd cd29 693d e83b 94bd 292e b63a
00000280: 5f04 e3bd 43ef f7bc ac84 803d df4a cdbd
00000290: fef2 383c e185 9ebe 9103 bd3c 3df5 483d
000002a0: a1ee 6bbd fc55 0a3d 0e87 23be b377 05be
000002b0: 5dcd ebbd e2bb 043c afe7 1a3d 6d41 0ebc
000002c0: 8636 3abd 2241 9f3d 466e 3d3b 9f9e e3bd
000002d0: e70c 07be ccc6 023e 2090 003e 9e30 b8bd
000002e0: 8281 46bd 53bc 1a3c 92ef a0bb b521 28bd
000002f0: 7fb3 1fbd 9d44 ca3d b898 ac3d 9cc1 b6bd
00000300: 2153 a3bd 2938 e2bd 3d98 16be 2527 cabd
00000310: 4c41 b53d b6fe 933d c6f0 ba3d 69fd 1dbe
00000320: 539f 3bbe 5c75 b4be 4918 be3b 5e41 dcbd
00000330: 3433 59bc 321e c73c 0bb8 eb3d b5f1 3abe
00000340: 9087 96bd 3dd3 2d3d cf07 a1bd 6a8f fbbd
00000350: 586b 1cbe a3e9 3cbe b39d 9bbd 3b8e 303d
00000360: a53b d0bd 6cee d9bc 21cd 11be b6b0 ebbd
00000370: bf1b 153d d0a9 b73d 1105 5dbc ad22 0ebd
00000380: 0352 48bd da0b a5bc 6b93 4e3d d079 41bd
00000390: 5511 90bd 8450 15bd e838 573d 666b 49bd
000003a0: 8da9 aebb 0f29 9fbd 7c02 b53d 45db 0f3c
000003b0: 1e5b 40be 9a33 a2bd 6a28 40bd d652 7e3d
000003c0: f8da bbbd d641 1fbd 6413 62bb 8d3b 01be
000003d0: 16b1 b63d c666 03be ea66 35bd f267 0fbe
000003e0: aadb a1bc 28b5 35bd ff75 39bd 383f a7bd
000003f0: 7fee 883d b625 9abd 9cd7 96bd a28f 8abd
0.15862742 0.037392713 0.044106893 -0.22860855 0.047439575 -0.044013895 -0.049642663 0.1086713
0.5178773 -0.11019405 0.20947519 -0.8807421 1.0657372 -0.02113322 -0.10591694 0.30852914
0.019536534 0.0007946781 -0.028564768 0.016214296 -0.08346199 0.46235895 0.09062041 0.34675115
0.05689716 0.116527386 0.07274124 0.0054908046 0.061491925 0.092998296 0.15781304 -0.1763491
0.07377839 -0.116860256 -0.007217289 -0.04524838 -0.10498239 -0.034153793 0.115138546 -0.0503533
0.043986198 -0.04611433 0.04450291 -0.08971493 -0.083926275 0.016484527 -0.05248808 -0.15848988
-0.13523416 -0.09161803 0.11469368 -0.046189193 0.08992396 0.01910107 0.0072193122 -0.13570745
-0.04129478 0.029985184 -0.099866964 -0.088628136 0.05290254 0.022332843 0.057931043 -0.12472606
0.08237084 -0.058139347 0.040624984 0.027574489 0.08705398 -0.044048913 0.0823375 0.02917728
-0.14303547 -0.20957541 0.039322935 -0.21593627 -0.026689934 -0.11114905 0.050932635 -0.08828011
-0.12456573 -0.06329218 -0.117311075 -0.02572055 -0.06133338 -0.066335745 0.12799226 -0.11223482
0.02494184 -0.01722028 -0.07201399 0.026747847 0.004715355 -0.19777574 0.021137431 -0.011010515
-0.14160629 -0.06359482 -0.041117232 0.08820943 -0.04217571 0.023545843 0.12602428 -0.3908066
-0.65238565 -0.011855689 -0.028059859 0.20786647 -0.11183323 -0.012884885 0.10789997 0.17801805
-0.14532077 -0.063647896 -0.0131916115 -0.02157395 0.05349739 -0.34629 0.030799495 -0.09822481
0.1851046 0.1532968 0.11995263 0.02483406 0.12169579 0.09319617 0.021170454 0.21199036
0.12206196 -0.023228334 0.44469523 -0.24341536 -0.25341427 0.04210177 0.0051203487 0.17016673
0.029431177 0.15156558 -0.069196545 -0.061655764 -0.019016428 0.14904658 -0.036364064 0.028053368
-0.071092345 0.08551455 0.09122959 0.07562518 -0.14343171 0.053301454 0.07663832 -0.4152242
-0.90495235 -0.3325854 -0.31230816 0.2746125 -0.059837025 0.05692463 -0.07237989 0.0013899255
-0.11084818 -0.030265456 0.06275305 -0.10024046 0.011288403 -0.30961516 0.02307299 0.049062002
-0.05760062 0.033773407 -0.15969488 -0.13033943 -0.11513779 0.008101435 0.037818607 -0.008682591
-0.045462154 0.07776095 0.002890484 -0.11114239 -0.13188516 0.12771147 0.1255498 -0.08993648
-0.048463352 0.009444314 -0.0049113715 -0.04104777 -0.03898954 0.09876368 0.08427566 -0.08923647
-0.0797484 -0.11045868 -0.14706512 -0.098707475 0.08850345 0.07226317 0.09127955 -0.154287
-0.18322496 -0.35245788 0.005801235 -0.10754655 -0.013256837 0.02430639 0.11509713 -0.18256266
-0.07350075 0.04243778 -0.078628175 -0.122832134 -0.15275323 -0.184485 -0.07598438 0.04310439
-0.10167626 -0.026602946 -0.14238407 -0.11508314 0.036403414 0.08967936 -0.013489977 -0.03470104
-0.048906337 -0.020147253 0.050433557 -0.04723531 -0.07034556 -0.03645374 0.052544504 -0.04917469
-0.0053302706 -0.07771503 0.088383645 0.008780305 -0.18784758 -0.079199985 -0.04691354 0.062090717
-0.09172624 -0.038881145 -0.003449642 -0.12620373 0.08920495 -0.12832174 -0.0442876 -0.14004496
-0.019758064 -0.044362217 -0.045278545 -0.08166355 0.066861145 -0.07526724 -0.07365343 -0.06765677

net.flow_mapping.0.affine_layers.0.net.4.bias f4 [24]
00000000: d2f5 b23d 52d6 b4bd 589f a7bd c0bf f23b
00000010: e211 72be 175e a43c 0e66 eabd 0051 7ebd
00000020: 253e 19bc 4c6e 1fbe d339 4ebd c216 b2be
00000030: 25b4 9b3e fe1c 41be 6540 443e ea0b 37bb
00000040: 0da8 47bc 388f 673e 9a8e 23be 8c13 fdbd
00000050: e091 d0bd 9f8f 71be 7341 b8be cacf bf3e
0.08738293 -0.08829941 -0.08184689 0.0074081123 -0.23639634 0.020064397 -0.11445247 -0.062088966
-0.009353195 -0.15569419 -0.050348114 -0.34782988 0.30410877 -0.18858716 0.1916519 -0.0027930685
-0.0121860625 0.22613227 -0.15972367 -0.12357244 -0.101840734 -0.23589943 -0.35987434 0.37463218

net.flow_mapping.0.affine_layers.0.net.6.weight f4 [2, 24]
00000000: 5565 133f f9c0 a03c 1ada 7a3d 0f7d 11bd
00000010: 251e e73e bc07 e03d aeba 0a3f c0c9 3f3d
00000020: ac71 553d e7e3 8a3a ffff c8bd 8997 d2bd
00000030: de78 6ebe 32c5 f3bc dde9 ccbe 0ee3 a03c
00000040: 0bb9 f43c 7835 77be 4044 3abc 1181 bebc
00000050: d4e7 903b e132 153f cc56 8c3f 02d8 4bbe
00000060: 01ee ea3b 73a6 ac3c c918 e53b 0772 a93c
00000070: 735c 923d 7e2a eebd 9306 cbbd 0f34 3bbc
00000080: ef31 fabb 15fc 6b38 df78 c0bd d32a 013d
00000090: b03e 2e3e 003f 83bc 4179 6cbd 2173 8e3d
000000a0: cace 983c d3d2 17be f4b5 cc3c f795 ec3c
000000b0: d06a 86bd f879 edbd 2222 c33e 872a dd3e
0.57576495 0.019623267 0.061243154 -0.035519656 0.45140186 0.10938975 0.541911 0.046823263
0.05211036 0.0010596485 -0.098144524 -0.10282809 -0.23288295 -0.029757116 -0.40022174 0.019639518
0.029873392 -0.2414149 -0.011368811 -0.023254903 0.0044221673 0.5828076 1.0963988 -0.19906619
0.0071694856 0.021075463 0.00699148 0.020684255 0.071465395 -0.116291985 -0.09913363 -0.011425986
-0.007635347 5.6263136e-05 -0.09398054 0.03153498 0.17016101 -0.016021252 -0.057732824 0.06955553
0.018653292 -0.14826517 0.024989106 0.028880103 -0.065633416 -0.11595529 0.3811198 0.43196508

net.flow_mapping.0.affine_layers.0.net.6.bias f4 [2]
00000000: 9703 8dbe 5a70 80bd
-0.275418 -0.06271429

net.flow_mapping.0.affine_layers.1.net.0.weight f4 [24, 1]
00000000: 07f1 92bd f16a c8be 0125 7dbe 630e 4abf
00000010: 62cf f9be adff d4bd c02f a33d d400 23bf
00000020: 3604 c43b 31a5 a5be 98a0 c0be 41c7 0b3f
00000030: a1e8 47bc 4fb8 00bf 70db 6b3d 2977 a63a
00000040: 4279 d5be efdc ccbe 7e99 e1be 489e 103f
00000050: 99cd b7bd 2b11 1c3f 7cfa 52bf 72d1 49bd
-0.071748786 -0.3914409 -0.24721147 -0.789282 -0.48791033 -0.10400329 0.07968092 -0.6367314
0.0059819473 -0.32352594 -0.37622523 0.5460091 -0.012201459 -0.5028123 0.05758232 0.0012700307
-0.41694075 -0.4001231 -0.44062418 0.5649152 -0.089747615 0.60963696 -0.8241346 -0.04927201

net.flow_mapping.0.affine_layers.1.net.0.bias f4 [24]
00000000: 8761 7d3c cde8 933e fc21 973f 7ad8 9cbe
00000010: 744b 43be d29f 05bf 7f1c 83be 23d6 2bbf
00000020: 720a f2bc cbd5 a4be 3c40 b53e b6a6 40bf
00000030: 1428 b3bd 0d56 e13e e08a 023f 4b11 d8bc
00000040: a259 24be 24bd d6be c879 853e 0ead e6be
00000050: dc3b a63d 535f f3be b195 a3be ea02 57bf
0.015465147 0.2888855 1.1807246 -0.3063391 -0.19071752 -0.5219699 -0.25607678 -0.6712362
-0.029545996 -0.3219436 0.3540057 -0.7525438 -0.08747879 0.44010964 0.50993156 -0.026375433
-0.16049817 -0.41941178 0.26069474 -0.45053905 0.08116886 -0.47533664 -0.31950143 -0.8398882

net.flow_mapping.0.affine_layers.1.net.2.weight f4 [24, 24]
00000000: 2818 77bd 0326 85bd 90cf 4ebc 7d08 52bd
00000010: e729 30be dd62 0fbb 755d 0a39 5a23 7dbc
00000020: 6d81 56bc 7247 19bd f98e 14bd d583 b63d
00000030: 445c efbd 0980 8bbd 595a 30be 4c98 d53a
00000040: 5b4f 48bd 719e 453d 080a 28bc 0fba 963d
00000050: b7db b4bd 6633 c5bd 81b1 7fbc 58ed 083d
00000060: 8081 b1bd 40eb c6bd 0cb7 82bd 05bc 42bd
00000070: a78a c63d 7699 9f3d 2922 c4bd 847f 6dbd
00000080: 6d9a c6bc 0dcc d5bd b065 0bbd 31fc abbb
00000090: 4dd8 d3bc 4305 7dbd c8ee f2bd 7ced 39be
000000a0: db9d 343d 1259 713d e0a3 85bd 1240 d9bd
000000b0: bd5b 26be 6bde 88bb 9dd3 0bbe 415b 7c3d
000000c0: 16ae 3bbd b866 a2be ba67 fcbe 8358 b8bd
000000d0: 47dd e03d 61cf 4e3d bfa8 b43d 315a 35bd
000000e0: a613 82bd 60b2 893d 1d3a 71be bb5f 353f
000000f0: e9a5 8e3c 2ce1 3bbe b908 9a3d 3db7 38bc
00000100: 010a be3d a2eb d8bd 2e7d 693c 2379 943e
00000110: f5d9 08bd 2475 b13e bb93 b03b 8896 0cbe
00000120: 92c7 cdbd bc24 56bc dba3 a43d badd 19be
00000130: eec3 27be 5549 3abf 675d fabd e2d8 06bf
00000140: abc6 c23a da92 15be feb0 203d 5208 8fbf
00000150: d367 ff3c b8ff c6bc 622e 823d 2d6b 0abe
00000160: 1ed5 39be 6947 a9be 119c 75be 2905 94be
00000170: 04dd 3ebc 6b6b 7bbe 4ba4 bcbe e5a0 733c
00000180: 22a0 ab3d faeb 853d 5013 3a3d 7eb0 82be
00000190: 2c16 43be cd68 3ebf 3d84 93be 3325 e9be
000001a0: 3a4a 79bb 0167 74bc 7062 e8bd 4837 94bc
000001b0: cd8b 373d c1d2 f53c b53b ef3d c728 a5be
000001c0: 1b43 febd 7ebf a5be aabc e6bd 0b54 08c0
000001d0: c39d 1abe 076c bebf 4640 8bbe 6886 d8bd
000001e0: 8057 053e 2654 a43d ab1b 3d3e 667b 03bc
000001f0: 2848 2dbe e340 40bf 3617 6bbd b0a9 a4be
00000200: 8127 f6bc ae49 34be d907 703e ea27 d6be
00000210: ebc6 a6ba 697a ca3d 6e80 233e add0 babb
00000220: a9dd cbbd e03a aebe 8e98 d43c 83d5 1b3d
00000230: aca9 513e ca21 e43d 09c5 2abd b70a c83d
00000240: dcbc 2bbe 8433 c9bc b3b4 ae3d 1d0f e0bd
00000250: 68a7 9bbd e734 a83d 1f9d 383d d7c0 c73d
00000260: 1986 fdbd 25c8 7f3d 2ed7 ab3d 48d5 a6bd
00000270: 636e a33d d638 9b3c fe02 2cbe 6e95 113d
00000280: 8168 0dbe 50f0 a23d 652c e9bd 221c b43c
00000290: 699b e7bd c682 393b 9eba 0cbe 712d a0bd
000002a0: 54f7 dabd ccf4 83be fd12 0fbf 9e75 27bd
000002b0: 542d d6bb a874 e0bd 5c90 db3d f114 e33b
000002c0: 2a0a e53d cec0 49bc 8be6 97be 6126 403f
000002d0: 27c1 01be e614 86bd 8f76 f13b 74b6 573d
000002e0: 0714 473d 635c f23d 6230 0ebe b7a2 9f3e
000002f0: a3c0 883d 8462 ac3e a09f 75bc b85d 96be
00000300: af0d f8bb abc5 8dbd 08c9 26bd 2114 b23c
00000310: f6cf eebd b35b 0a3e 36c6 55be 2cc4 bcbc
00000320: 0bd3 71be b9a4 9cbc ed0f 80be 246d e7bd
00000330: 58ca 763c 414f 05be e171 acbd 55b9 29be
00000340: 9625 80bd 9405 d4bd 63c1 01be c898 f3bd
00000350: be0f 21bd 7952 91bd cbd1 b3bb b1b7 ecbc
00000360: 2b47 6dbc 794b 8cbe dee9 06bf 7a00 b4bd
00000370: dd12 11be 6abf 16be ab33 70bd c087 37be
00000380: a31f 8c3d d19a 5d3d c9ca 24bd 9d03 7e3e
00000390: 39a6 bc3b 3d49 99bd dbb0 7fbd c189 853d
000003a0: ccdc 28be cc0c e5bd 26e9 983d 92c1 ae3d
000003b0: 37e6 aabd b20f f03d 712c 8e3d 2e10 063b
000003c0: 2ea9 b93d 32d9 3a3e d432 123f 6248 0fbf
000003d0: 56fc d0be cb98 aebc 7c3a 94be c5ee 47bf
000003e0: 7d6e fe3c 27c3 aebe ef85 853e bd86 38c0
000003f0: cab3 95bc e1e1 d83d a441 c03e 2cc8 683d
-0.06032577 -0.06501391 -0.012622729 -0.051277626 -0.17203484 -0.0021878995 0.00013195521 -0.015450323
-0.013092381 -0.03742165 -0.03626916 0.08911864 -0.1168752 -0.0681153 -0.17221965 0.0016295998
-0.048903804 0.048246805 -0.010256298 0.073597066 -0.0883097 -0.09628944 -0.015606285 0.033429474
-0.08667278 -0.09712839 -0.0638257 -0.04754259 0.096944146 0.07792942 -0.09576828 -0.057982937
-0.024243558 -0.1043931 -0.034032524 -0.0052485694 -0.025859976 -0.061772596 -0.1186195 -0.18157
0.044095855 0.058922835 -0.06525397 -0.106079236 -0.16245933 -0.004176905 -0.13654943 0.061610464
-0.04582032 -0.31718993 -0.49297887 -0.09001257 0.10979705 0.05049074 0.08821248 -0.044275466
-0.06351404 0.067234755 -0.23557325 0.708492 0.017413097 -0.18347615 0.07521195 -0.011274156
0.09279252 -0.105918184 0.014251037 0.2899867 -0.033410985 0.34659684 0.0053887046 -0.13729298
-0.10047831 -0.013070282 0.080390655 -0.15025988 -0.16383335 -0.72768146 -0.12224846 -0.52674687
0.0014860233 -0.146068 0.039231293 -1.1174414 0.031177437 -0.024291858 0.06356503 -0.13517447
-0.18147704 -0.33062294 -0.23985316 -0.28910187 -0.011649374 -0.24552695 -0.36844096 0.014869903
0.08380152 0.065391496 0.045428574 -0.25525278 -0.19051427 -0.74378663 -0.28811827 -0.45536193
-0.0038038627 -0.014917136 -0.113469005 -0.018092766 0.04481106 0.030007722 0.1168131 -0.32257673
-0.12415143 -0.3237266 -0.112664536 -2.1301296 -0.15099244 -1.4876717 -0.27197474 -0.10572511
0.1302166 0.080238625 0.18467586 -0.008025026 -0.16922057 -0.7509901 -0.057395183 -0.3216071
-0.030048134 -0.17606232 0.23440494 -0.41827327 -0.0012724077 0.09886629 0.15966961 -0.0057011456
-0.09954388 -0.34029293 0.02595165 0.038045418 0.20474881 0.11139257 -0.041691814 0.09767669
-0.16771263 -0.024560697 0.085305594 -0.10940383 -0.076002896 0.08213215 0.045071717 0.09753578
-0.12379093 0.062446732 0.08390652 -0.08146149 0.07980039 0.018948 -0.16798016 0.035542898
-0.13809396 0.07955992 -0.11385421 0.021986071 -0.11308939 0.0028306707 -0.13743064 -0.07821167
-0.10691705 -0.25772703 -0.5588835 -0.040883653 -0.0065361653 -0.109597504 0.10720894 0.0069299866
0.11183579 -0.012314035 -0.29668078 0.7505856 -0.12671338 -0.06546955 0.0073688696 0.052664235
0.048603084 0.118340276 -0.13885644 0.3117883 0.066773675 0.3366891 -0.014991671 -0.29368377
-0.0075699906 -0.06922468 -0.040719062 0.021738114 -0.11660759 0.13511543 -0.20876393 -0.02304276
-0.23615663 -0.019121515 -0.2501215 -0.11300114 0.015062891 -0.13018514 -0.08420158 -0.16574605
-0.06257169 -0.103526264 -0.12671427 -0.11894375 -0.039321654 -0.070958085 -0.0054876558 -0.028896185
-0.0144823 -0.2740133 -0.52700603 -0.087891534 -0.14167352 -0.14721456 -0.058643024 -0.17922878
0.06841972 0.054102723 -0.040232453 0.24806066 0.00575712 -0.07484672 -0.062424522 0.06520415
-0.16490477 -0.111840814 0.074663445 0.08533014 -0.08344691 0.11721744 0.0694207 0.0020456421
0.090654716 0.18246916 0.5710881 -0.5596982 -0.40817517 -0.021313092 -0.2895087 -0.7809871
0.031058544 -0.34133264 0.26078746 -2.8832238 -0.018274207 0.10589958 0.3755008 0.056831524

net.flow_mapping.0.affine_layers.1.net.2.bias f4 [24]
00000000: fbb3 4cbd 6a47 633d dfcc 53be 5855 1c3e
00000010: 72ed 903e 8043 c53e e9d1 0cbd 2249 d1bd
00000020: b3bf d5bd 8a12 5bbe 10d7 aa3e 9f3a 30be
00000030: 89ff 933d 11e8 0ebf b8f2 6cbe a7c3 93be
00000040: ab3e 4b3e b80d f9bc ee05 203e d308 32bd
00000050: 4854 033d 1b52 38bd f8f1 9ebd f384 27be
-0.04997633 0.055488028 -0.20683621 0.15266931 0.28306156 0.3852806 -0.034379873 -0.10219027
-0.10436954 -0.21393791 0.33367205 -0.17209862 0.07226474 -0.55822855 -0.23139465 -0.28860208
0.19848125 -0.03040205 0.15627262 -0.043465447 0.0320628 -0.045000177 -0.077609956 -0.1635931

net.flow_mapping.0.affine_layers.1.net.4.weight f4 [24, 24]
00000000: 7140 c33d a340 b03d 9cf8 833d f3a7 1fbe
00000010: 7e47 a83d 7a8a 49be 13aa ffbd 5450 aabd
00000020: 60e0 20bd 19a7 1ebd 2a26 d2bc 6d99 53bc
00000030: 66b0 cb3d 029c f1bd 529f a8bd 7a77 69bc
00000040: 45bb 8cbc eb6c 62bd 7f5a 243d 5012 b8bd
00000050: 577f 54bd 59c8 383d 0a41 8dbd c931 bdbd
00000060: 6cb4 1d3d 70a2 48bd 2d4c 8a3d 8bbc 95bd
00000070: 7456 483d 8912 4bbe a59b 8fbd e871 cfbd
00000080: b314 913c fe96 86bc 6f3a 74bd 808b 4fbb
00000090: d2c5 cbbc 1ff1 a6bd e562 6abe 6eaa e7bd
000000a0: f532 26be efa0 59bd 23c6 9bbd c9d6 03bd
000000b0: 686a 033e be8e f0bc 41ba c1bd 5ad4 a0bc
000000c0: 7e92 cd3d 8414 08be 5ef9 373f fe91 23bf
000000d0: 02d3 06be daf7 14bd bd8e f63c 012f 1e3f
000000e0: 1164 af3c 0cfe b23e bd56 97bd dab2 00bd
000000f0: 33b2 0abe 8b58 843f 6a8d 08bf d1ba c73e
00000100: 1ab3 a1be ac51 0dbd 639d 95bf 66f4 04be
00000110: dcca acbd 205c c5be f36b d73d d7cc 3cbd
00000120: 591e 42bd d277 27be 15d1 8abd 174e 44b9
00000130: 852e 98be 7dde cabd 2ce6 92bd 7fad 0cbf
00000140: 653f 9b3d 50a4 ce3c d10b 76bf 0ed5 193c
00000150: 9b63 6e3d c5a9 72be bb2f 84be 5483 27bf
00000160: c565 253d cde4 563d f1c2 7f3c 41fa efbc
00000170: 02eb 4dbd 7299 9bbd 691d 2fbd 0586 8a3a
00000180: 216b eebd 278b 82bd 187f e6bd 109f aabd
00000190: 5360 4abe 37bf 1cbe 12a8 6ebd f451 3abc
000001a0: c767 883d cb40 583d 0d48 15be e5d3 02be
000001b0: d772 ae3c 7e1f 76bd 7ee0 f33e 4fd4 dabc
000001c0: 3568 743d 6ed3 e93c e255 003e f860 debd
000001d0: 6f35 2bbb b337 8c3d 5bb9 913c d568 953d
000001e0: 2e2e 9c3d 1cc6 a63d a614 e43d 2f97 16be
000001f0: a050 e4bd 69c9 f3be 1263 1d3e ca25 d03d
00000200: 4d0e aabd 270b 2cbb 43c4 a1be a1ee 6abe
00000210: 678a 0abd 43e5 af3f 170b 6fbd e1b9 9dbb
00000220: 15a5 bbbe b412 cabd 57c5 97bd 2e24 c1bd
00000230: d895 91bd 43da f4bd 1399 9f3d aaff f1bd
00000240: cabd ef3d 9690 0dbe b71c dbbe d068 1bbe
00000250: b1e9 15bc 8e55 d8bd e19a d13d 601b ccbe
00000260: ddf6 41bd 33df 53bd 8da3 9dbe b91b 55be
00000270: c5fa 283e 1946 33be 492a 77be 0b29 febd
00000280: e511 e3bb 96c0 223c 2b65 0dbe 6453 a9bd
00000290: 5c92 8ebc 2d04 14bd 3219 ce3d 317f 543c
000002a0: 778b 9cbd d039 c63d ebe6 b03d 3420 70bd
000002b0: 4111 24bd 70ad 0abe a267 94bc 1239 21bd
000002c0: f590 f53c 2bd5 82bd bac8 b43d c24a d8bd
000002d0: 03d9 b63d 3c13 0abe 3769 07be 5ef1 eabd
000002e0: 9cce adbc bb98 2ebc 6b35 b0bd 0c8e f2bc
000002f0: 87a1 b0bd d77d 84bd 05c3 c2bc 47ea 0b3e
00000300: 202e e53b 49f4 9fbd 9423 32bd 862d afbe
00000310: 2313 27bf b9f1 7bbf 8d9d f1bc a2bb 7bbd
00000320: dbef 05be d694 ccbd 9020 6fbc 940e 0ebe
00000330: a032 ce3d e5f1 953d 1068 733d 8890 883c
00000340: 53ed abbd 1b5a ea3a c0c6 13bd 797b c3bc
00000350: 47b3 8e3a b381 c4bd a3cc c83d 1c8d 82bc
00000360: a704 c43d 55a7 0b3d 4a73 24bc 5e5d b1bc
00000370: 065d f4bc 3266 93bd c425 07bd 3fc8 01be
00000380: 276c 9cbd 18e7 a43d 5e8f c03d 9b46 a3bd
00000390: 7c47 c13d a006 b23d 0df3 41bd bb7d 9ebb
000003a0: 37d7 12be 6dc3 2bbd 5315 08bd 23ec 5d3d
000003b0: 62c1 473d 9f53 47be 2e58 d93c e90d 8a3c
000003c0: f9ad 3cbd a8f6 31bc d370 8c3d c784 79bd
000003d0: aa0c e7bd 05fb 0bbe 846a 063d 3f29 febc
000003e0: afcd 133d 270c 15bd dbf4 83bd 5662 083e
000003f0: b585 84bd 7336 503d e8ee 80bc 2cd3 18be
0.095337756 0.086060785 0.06443903 -0.15591411 0.08216761 -0.19681731 -0.12483611 -0.083161026
-0.03927648 -0.038733575 -0.025652964 -0.0129149975 0.09945755 -0.11797334 -0.08233513 -0.014249677
-0.01717914 -0.055279654 0.040125366 -0.08987868 -0.051879253 0.04511294 -0.06897171 -0.092380114
0.03850214 -0.048983037 0.067528106 -0.07311352 0.048910573 -0.1983129 -0.07012109 -0.10129148
0.017710065 -0.01642942 -0.05962604 -0.0031668842 -0.024874602 -0.08151459 -0.22889288 -0.11311804
-0.16230376 -0.053131994 -0.07606151 -0.032187257 0.1283356 -0.02936494 -0.09459353 -0.019632507
0.10037707 -0.13289076 0.7186488 -0.6389464 -0.1316643 -0.036369182 0.03009736 0.6179047
0.02141002 0.34959447 -0.07389591 -0.031420566 -0.1354454 1.0339521 -0.5334078 0.39009717
-0.31581956 -0.034501716 -1.1688656 -0.12983856 -0.0843713 -0.38546848 0.105186366 -0.046093788
-0.047392223 -0.16354302 -0.067781605 -0.00018721107 -0.29722992 -0.099057175 -0.07172808 -0.54952234
0.07580451 0.025224835 -0.9611178 0.009389175 0.05820046 -0.23697574 -0.25817665 -0.65434766
0.040380258 0.052464295 0.0156104425 -0.029294135 -0.05027295 -0.07597627 -0.042752657 0.0010568505
-0.11641527 -0.063741975 -0.1125471 -0.0833112 -0.19763307 -0.15307318 -0.058265753 -0.011372078
0.06660419 0.052796166 -0.14578266 -0.12776144 0.021294994 -0.060088627 0.4763221 -0.026712565
0.059669692 0.0285432 0.12532762 -0.10858339 -0.0026124378 0.06846561 0.01778858 0.07295386
0.076259956 0.08143255 0.11136751 -0.1470611 -0.111481905 -0.476146 0.15369824 0.10163458
-0.08303509 -0.0026251765 -0.31595048 -0.22942592 -0.033823397 1.374184 -0.058360185 -0.0048134183
-0.36649385 -0.098668486 -0.074106865 -0.09430729 -0.071086586 -0.119556926 0.077928685 -0.11816342
0.11706121 -0.13824686 -0.42795345 -0.15176702 -0.009149955 -0.10563193 0.10234619 -0.39864635
-0.047354568 -0.05172653 -0.30788842 -0.20811357 0.16501911 -0.17507209 -0.24137224 -0.12410172
-0.0069296234 0.009933611 -0.13808124 -0.082678586 -0.017403774 -0.036136795 0.100633994 0.012969778
-0.07643788 0.096789956 0.08637794 -0.05862446 -0.040055517 -0.13542724 -0.018115822 -0.039361067
0.029976347 -0.06388315 0.08827348 -0.10561134 0.089281105 -0.134839 -0.1322373 -0.114718184
-0.021216683 -0.010656531 -0.08603939 -0.029608749 -0.08624559 -0.064693145 -0.023774633 0.13663588
0.006994024 -0.078102656 -0.04349096 -0.3421442 -0.65263575 -0.98415715 -0.029494071 -0.061458237
-0.13079779 -0.09989326 -0.014595166 -0.13872749 0.1006825 0.07321528 0.059425414 0.01667048
-0.083948754 0.0017879637 -0.036078215 -0.023862587 0.0010887169 -0.09595051 0.09804656 -0.015936427
0.095712 0.034095127 -0.010037253 -0.021650966 -0.029829513 -0.071972266 -0.032995 -0.12674044
-0.07637816 0.0805189 0.09402345 -0.07972451 0.09437463 0.0869267 -0.047350932 -0.0048367656
-0.1433991 -0.04193442 -0.03322346 0.054180276 0.04876841 -0.19465493 0.026531305 0.016852336
-0.04606435 -0.01086203 0.06857457 -0.060917642 -0.11281712 -0.13669975 0.032816425 -0.031025527
0.036084827 -0.036388543 -0.06443187 0.13318762 -0.06470815 0.050833177 -0.01573892 -0.14924306

net.flow_mapping.0.affine_layers.1.net.4.bias f4 [24]
00000000: f547 08be 494d 96be 4fad da3d c9f6 1d3d
00000010: e641 80be bb0d 26bf 4419 5b3d d428 9ebd
00000020: 40b9 18bf 677e 50be 3772 dbbc 0d3a 6cbe
00000030: 6d14 0ebe 47c2 bdbe 980f 793e 6aa3 76bc
00000040: 85af f2be b199 91be cc6c 7a3d 90b1 87bd
00000050: 844b f2bd 7e65 173d 7252 183d 6f9a 89bc
-0.133087 -0.2935584 0.10677587 0.03856543 -0.25050277 -0.648647 0.053490892 -0.07722631
-0.5965767 -0.20360719 -0.02678786 -0.2306902 -0.1387498 -0.37062284 0.24322355 -0.015053609
-0.47399536 -0.2843757 0.061138913 -0.06625664 -0.1183081 0.036962025 0.037188 -0.016797272

net.flow_mapping.0.affine_layers.1.net.6.weight f4 [2, 24]
00000000: 9ab8 49be 8a85 3f3e b9c9 3340 998b 5cbe
00000010: ffbb ba3e 0cc2 b13e 877b 09be 6193 29bd
00000020: ad24 52bd 9cf8 073c e5e2 b23d ae8c c6bc
00000030: f740 9c3d 9a51 803e 4fd6 a3be 8cdf 2abc
00000040: 78a8 113e 2c8a 6d3c cd0e 7d3c 9985 2bbb
00000050: 6a77 313f 6f43 55bb a5d4 a33d dd7a b83a
00000060: f19c cebc 66c0 9e3d 71da 7a3e 6cb0 53be
00000070: 7366 a43e 9f2b c03e a304 c73d 019f 94bd
00000080: c078 1b3f b658 90bd 13c5 133e 7a92 dc3d
00000090: 68e7 4b3d b4ba 7c3e dc9d 8ebe 4c25 a1bb
000000a0: 056e ef3e e31f dc3d c774 3b3c 3511 943d
000000b0: 1668 26be 3d00 7ab8 cb58 7f3d bfa3 023c
-0.19699326 0.18703285 2.8091872 -0.21537627 0.36471555 0.3471836 -0.13426028 -0.041400317
-0.051304508 0.008299019 0.08734683 -0.024237003 0.076295786 0.25062257 -0.31999442 -0.010429274
0.14224422 0.014498275 0.015445423 -0.002617216 0.69322836 -0.0032541414 0.07999543 0.0014074702
-0.02522132 0.07751541 0.24497391 -0.20672768 0.32109413 0.3753328 0.09717681 -0.0725689
0.60731125 -0.0704817 0.14430647 0.10770126 0.049781233 0.24680597 -0.27854812 -0.004917776
0.46763626 0.107482694 0.011441416 0.072298445 -0.16250643 -5.9604867e-05 0.06234054 0.00797361

net.flow_mapping.0.affine_layers.1.net.6.bias f4 [2]
00000000: 2d65 023e 1a9f a0be
0.12733908 -0.31371385

net.flow_mapping.0.affine_layers.2.net.0.weight f4 [24, 1]
00000000: 250d a03e 0f3e 96bd 6c10 18bf 8683 1c3f
00000010: 5f85 8ebc 69fd f8be fe9e cb3e b0d4 f0be
00000020: f3a1 dabe 657d 0e3f bf1f 4f3d 2ad5 0aba
00000030: 4ccb e03e 955e 553f 2f96 573f 4e5d 143d
00000040: ea84 7fbe 6f86 0cbf 7b46 063f ea3f ebbd
00000050: 0b12 bebd c7d7 3dbe 26bb 3d3f a053 6d3d
0.31260028 -0.073360555 -0.5940006 0.6113819 -0.01739758 -0.48630837 0.3976974 -0.47037268
-0.42701682 0.55660087 0.050567385 -0.0005296046 0.43905103 0.83347446 0.84213537 0.036221795
-0.24953046 -0.5489263 0.52451295 -0.114868 -0.09280785 -0.18539344 0.7411369 0.05794108

net.flow_mapping.0.affine_layers.2.net.0.bias f4 [24]
00000000: 9157 52be d97e 06bf 2f01 44bf 6648 9f3e
00000010: 7f0a 24bf 87fd 003f decf 39bf 8ead 1bbf
00000020: 0f98 0dbf 8dbd b9be b125 f93e bab3 6bbc
00000030: 6ce5 0d3f d957 67be a0eb e0be b6a9 1ebf
00000040: af46 a93e 89ec 80bf acfa eabe b2a4 cfbe
00000050: c949 b6be 50ff b0be 236d e0be 8524 4ebd
-0.20541216 -0.52537304 -0.76564306 0.31109923 -0.64078516 0.5038685 -0.72582805 -0.608117
-0.5531015 -0.36277428 0.4866157 -0.014386112 0.55428195 -0.22592105 -0.43929768 -0.6197771
0.3306174 -1.0072185 -0.45894372 -0.4055534 -0.3560317 -0.34569788 -0.43833265 -0.050327796

net.flow_mapping.0.affine_layers.2.net.2.weight f4 [24, 24]
00000000: d5cb 113d 868e d6bd 8653 f53d 753d 2abf
00000010: c36a 0abe 6b42 913e c7d1 933c fd79 8c3e
00000020: ce94 493e e590 53be c2c6 103e 7ad3 393e
00000030: d44f bd3e d981 63c0 fc6c 24be 3d54 e7bd
00000040: 4884 a23e e88e 3f3e 9f5d a4bd 9a4d 1fbf
00000050: 0be6 963e 3e1b 6d3e 2025 cbbd d590 ecbe
00000060: f40e 93bd be17 65bd 0d0c 29be f0a4 47bc
00000070: aec7 b2bd aec7 d33d 6cc0 2cbe 0fbc 14bd
00000080: 84b4 12be f2a5 a8bd 6ced 7abd 7c8c 413d
00000090: 47a3 bb3b f213 3c3d 39a7 463d 6493 f7bd
000000a0: 4ee0 78bd 1b3a 24be c3ec 3cbe 9b53 c93d
000000b0: 4c5e 9cbd 7082 9d3d b62e 8038 aad0 f83c
000000c0: 260d e03d 456c 983d 0100 763e c281 30be
000000d0: aac2 3f3d c952 b2bd 3290 57bd 1d31 c13d
000000e0: e51f 003d 91fa be3d 8eba eabe 5681 3a3c
000000f0: 1b23 0abe 88d6 bfbd bd81 b43d ae35 c23d
00000100: 3fbe 4abe a4f9 953d 1834 fe3c 1907 febc
00000110: 477c 893d bbf6 b13d c1a9 ec3d 6027 dabd
00000120: b6f1 7c3e 9539 c5bd e3fe 31be 7415 263e
00000130: cf96 c33d 44d8 3ebd 9a29 fdbf c681 d0bd
00000140: 8c18 e83d 2203 54bc 1039 673d a823 e4bd
00000150: 252c bd3b dbd4 123e da89 cf3e ab52 ca3b
00000160: 251d febc 8c40 edbe 8c48 f6be fd73 82be
00000170: a9f7 203e 056a cdbd 4e99 623d ba6b 42bc
00000180: ce40 2c3e 5895 0abe 4b4a 26bf 4c7b 613e
00000190: 4e01 d93d 7eea 3ebf baa7 a0bf 5257 303c
000001a0: 57f4 a63d 363c 9abe 01e1 d7bb 6c97 6c3d
000001b0: 3f73 833e 122f 0b3f 7d1f 3c3f c8d7 8a3d
000001c0: ce3d 6abf fcc3 7fbe b670 0fbf eeb8 f0be
000001d0: 823f 923e 3f70 4d3e 9e46 c33c d153 aabc
000001e0: c98c 23be f8e1 463d aeed febe e445 3bc0
000001f0: 615d 863d 1472 65bb bf98 22bd 23ac 89be
00000200: 05be 10be 65d2 19bd 03b2 043e 720a 763d
00000210: 4bbd 9c3f 52ac 8bbd cb78 b8bd 2379 2cbd
00000220: fd62 fabb e38c aebe b8f0 fabd a4b4 c4be
00000230: 78c7 95bd 42e4 e5bd 4e9d 303d 2151 503d
00000240: aeaf e03d 0dd6 a6be e4ce 7ebe 5bad b5bc
00000250: bae1 d4bd 80e5 ff3d e2d4 b7bf 9e43 2c3e
00000260: 9efa 743d a068 52bd 24c2 363e d836 02bd
00000270: 9ba8 bd3c 1f6f c5be 5936 373e 0b94 9dbd
00000280: e762 5e3d 5a06 68be d22f dbbe 5357 69be
00000290: 1001 073e d94e f8bd cc37 debd d78a 023d
000002a0: 6af6 81bd 145b 063e 4adb b03d 2f06 52bd
000002b0: 148a 95bd 1a04 edbd d589 87bd bc56 f4bc
000002c0: eec2 f7bd c438 c93c 4e6e d2bd 6632 9ebd
000002d0: bd9b 06be c61c d6bd d428 aebb 3659 853d
000002e0: 6266 1e3d 741f c4bd 2a00 e03d 30d3 2dbd
000002f0: ffcc a4bd fcec a0bd 3686 053d 5da7 2a3d
00000300: e9fb a03d cab1 09bd 937e 82bd 4cc2 f2bc
00000310: 3f3b ee3d 84bc e2bc c595 b73d 4113 013e
00000320: 0b80 a4bc c564 3e3d b140 053c 0485 2abd
00000330: 9f3c e63d 60ba 02be 0742 b0bd b626 dbbd
00000340: 156d bfbd a92a 51bd c3c0 ac3d f252 4ebd
00000350: 5380 50bd 83d1 10bc da1c 0f3b e5db 493d
00000360: 7aaf 683e 7738 033e 4203 523e 5a65 2b3e
00000370: b710 d2bb 3000 81be ee3b b53f 593d ea3d
00000380: 8506 003e c303 3d3e 5d76 60be 7eff 1a3b
00000390: 224e db3d 068d 833d b489 bd3e da26 c03d
000003a0: 0876 5dbd bffd 143e 042e 313f a7a1 60bd
000003b0: 9af9 163d 3a96 673c d3d9 d43e 876a a1bd
000003c0: d2ae 8fb9 b465 e03c 902e f9bc 1cf5 b9bd
000003d0: ae63 d9bd e524 e93b ee34 ea3d 84c7 aabc
000003e0: da0c d03d 9b9e 01be d84e 6fbb 7a1d 4dbd
000003f0: 81f8 a63d 2334 abbd 65ba c83d d656 ecbd
0.03559478 -0.10476403 0.119788215 -0.66500026 -0.13517289 0.28370985 0.018044366 0.2743682
0.1968567 -0.20660742 0.1413832 0.18147078 0.36974967 -3.5548003 -0.16057199 -0.11295364
0.31741548 0.18706858 -0.08025669 -0.62227786 0.29472384 0.23154923 -0.099191904 -0.46204248
-0.071805865 -0.055930845 -0.16508503 -0.01218532 -0.08729492 0.1034082 -0.16870278 -0.03631216
-0.14326674 -0.082347766 -0.06126158 0.047253117 0.0057262513 0.04591746 0.04849932 -0.120886594
-0.06076079 -0.1603779 -0.18449692 0.098303996 -0.07635173 0.076908946 6.112216e-05 0.030372936
0.10940008 0.07442526 0.24023439 -0.17236999 0.046816505 -0.08707196 -0.05262775 0.09433196
0.031280417 0.093251355 -0.45845455 0.011383375 -0.13489954 -0.093670905 0.08813808 0.09482895
-0.19799136 0.07323006 0.0310307 -0.031009244 0.06713157 0.08689638 0.115558155 -0.106520414
0.2470158 -0.096301235 -0.17382388 0.16219121 0.09550249 -0.046592966 -1.9778321 -0.10181002
0.11332807 -0.0129402 0.056450903 -0.111396134 0.0057730847 0.1433901 0.4053486 0.0061744056
-0.031019757 -0.46338308 -0.48102224 -0.25479117 0.15719475 -0.10029987 0.055321984 -0.011866504
0.16821596 -0.13533533 -0.6495711 0.2201969 0.10595952 -0.74576557 -1.2551186 0.010763006
0.08152073 -0.30124062 -0.006588102 0.057761595 0.25673863 0.543687 0.7348555 0.06779438
-0.91500556 -0.24977106 -0.5603136 -0.4701609 0.28564078 0.2006235 0.023837384 -0.02079192
-0.15971674 0.048555344 -0.4979071 -2.9261408 0.06560779 -0.0035010623 -0.03969645 -0.26889142
-0.14134987 -0.037554163 0.12958531 0.060068555 1.2245268 -0.06819977 -0.090074144 -0.042107712
-0.007641195 -0.34091863 -0.12252945 -0.38419068 -0.07313436 -0.11225177 0.043118767 0.05085862
0.10971008 -0.32585183 -0.2488361 -0.022177389 -0.103946164 0.124949455 -1.4361842 0.16822669
0.05980932 -0.05136931 0.17847496 -0.031790584 0.023151686 -0.3856134 0.17891826 -0.076942526
0.05429354 -0.22658673 -0.42809922 -0.22787218 0.13183999 -0.12124414 -0.10850486 0.03187069
-0.06345828 0.13120681 0.08635576 -0.05127543 -0.07301727 -0.11573048 -0.06618086 -0.029826514
-0.12097727 0.0245632 -0.10274945 -0.077244565 -0.13145347 -0.10454707 -0.0053149257 0.06511156
0.03867186 -0.09576312 0.10937531 -0.042437732 -0.080469124 -0.07857701 0.032598697 0.041663516
0.07860548 -0.03361682 -0.06371798 -0.029633664 0.11632394 -0.027677782 0.08964113 0.12605001
-0.020080587 0.04648282 0.008133099 -0.04163076 0.11242031 -0.12766409 -0.08606344 -0.10700743
-0.093469776 -0.051066075 0.08435204 -0.05037207 -0.05090363 -0.008839014 0.0021837265 0.049281973
0.22723189 0.12814508 0.20509055 0.16737881 -0.006410684 -0.25195456 1.4158914 0.114374824
0.12502487 0.18458466 -0.21920152 0.002365082 0.10708262 0.064233825 0.37019122 0.0938241
-0.05406764 0.14549921 0.6921084 -0.054841664 0.036859132 0.014134938 0.41572437 -0.078816466
-0.00027405337 0.027392246 -0.03041771 -0.09079954 -0.106147155 0.007114994 0.11435877 -0.02084709
0.10158701 -0.1265816 -0.00365155 -0.05007694 0.08152867 -0.08359554 0.09801177 -0.1154

net.flow_mapping.0.affine_layers.2.net.2.bias f4 [24]
00000000: 4631 863e c46d d1bd f577 d4be aafc cb3d
00000010: c2ed 2fbe ebd3 2fbd 60e4 e03d 5034 8b3d
00000020: ea5a cebd 6369 b0be bfe1 4fbd a546 a33e
00000030: 371c 05be 4948 18be ca58 263e 3666 a3bd
00000040: d719 a13e 7e19 723c a6fd 313e 731a 79be
00000050: 7b86 113b 4176 b3bd 1cd4 b9be e206 d03c
0.26209468 -0.10226014 -0.4149777 0.09960301 -0.17180541 -0.04292671 0.10981059 0.06797087
-0.10075934 -0.34455404 -0.050752398 0.31889835 -0.12999044 -0.14871325 0.16244808 -0.079784796
0.31465027 0.014776586 0.17381915 -0.24326496 0.00222054 -0.087627895 -0.3629464 0.025393907

net.flow_mapping.0.affine_layers.2.net.4.weight f4 [24, 24]
00000000: 05aa 153e e4d7 a1bd 1644 3abe aaad 2dbe
00000010: 20b0 563b 296c 323e d253 1b3e 802f 4dbd
00000020: c0aa eebd 3cb9 89bc 352f ebbc d8d9 18be
00000030: 228e 233d 9712 c13d ca06 d7be 9950 18be
00000040: 1616 1b3e 22d9 3f3e c5d4 e23d edbd bdbd
00000050: 724b a8bd cb4b df3d b986 043e e843 c8bf
00000060: 7441 5ebe a23d dbbc 1d68 44bd a7e1 57bd
00000070: 58c4 5b3e 74f8 963d caf2 49be 5978 cb3d
00000080: b3c4 e6bd 0250 673e 5601 e53d 66cf bdbf
00000090: 36e9 45bd 3430 983d 6043 e1bd cb8c 86bc
000000a0: 325d 0fbf fcf3 7b3d 8d49 93bc 93ff 31be
000000b0: d132 13bd be5c 2bbd d4b2 1a3e b687 703e
000000c0: ed9f 163d 4125 913d a17d 823e 4c46 ecbd
000000d0: 6479 a6be eccd 81bd 67fb 67bd eabc 053e
000000e0: 3a8d d23b d2eb db3b b47b 693d a7e4 c23d
000000f0: 2478 70bd c014 4a3c 3745 84bd 7899 0cbd
00000100: 2903 d7be 0dcc bcbd b09b 5abe 298e 59bd
00000110: 223e 25be 1aa4 343d e708 733e b23e 6fbe
00000120: 0a23 033e 0d43 d63d 217d babe 6d73 9d3e
00000130: 951a 593e e7a7 6a3e 2d39 e13d 70a7 883c
00000140: ff48 8bbd f674 7fbe 9c35 893d 1d58 19bf
00000150: 2771 0a3e 86d2 3dbd 3b97 04bf fa31 a7bb
00000160: 30fb 0bbe 205b 363d 9613 b13e 3506 1abd
00000170: 15ff 0ebe 16e3 dcbd da84 4ebe d090 233e
00000180: 959f a43e 4c23 b43d 845f 8abc 0f51 a2be
00000190: a6fe 3fbe f0c2 aa3e 15fb f3be fff2 053d
000001a0: 374f abbd ad49 3bbe 8fc1 2bbd e859 40be
000001b0: 6567 9bbd 3ea0 9ebd 75e1 52be bfb1 3b3d
000001c0: 6ea8 a7be 7da9 cd3d 458f 3abf e1bb bebd
000001d0: 1965 7abb c5a3 f03c 2857 3b3e 2e38 1fbe
000001e0: 23c1 b4bc fee8 233d 6c4c 6cbd 9f81 8d3d
000001f0: b30c afbd e01f 71bd 45b2 af3d 513c 113d
00000200: 3c37 6d3d d050 01bd ed0a dbbb 6962 a0bc
00000210: 37bb e2bb ecf7 a43d 2389 433d d9a4 843d
00000220: 1d15 07be 21b1 9a3b d4c3 83bd b290 483d
00000230: ad54 10bd a67b fcbd 5e3d d2bb 752d debd
00000240: 7f11 87bd 3a83 6e3d b562 b33d 193b 02be
00000250: 2ce3 06bc 67d1 80bd 1a3a 3bbd d8d4 da3d
00000260: 499b 6a3d cdd2 80bd 3d6c ca3d 69dd 03be
00000270: 702f 003d 01cb a93d 0d5d 9e3d d665 04be
00000280: aea3 9f3d c057 bbbc e8ba 84bd 97ca c23d
00000290: da81 b5bb 840c 323d aabd 8cbd 34e3 bdbd
000002a0: b4b3 483b 139b aa3d 2925 e2bd b18a 21bd
000002b0: d230 723d 1c7f 803d 6093 133d 7394 d7bd
000002c0: 26c8 be3d e167 f1bd 3608 49bc 6251 013d
000002d0: 1812 0abe 5a94 2ebe d5eb abbd 0ec0 e9bd
000002e0: 8c68 92bd 386a d0bb 5c4b 8ebd 299e 4cbc
000002f0: 88d5 2bbc 99ee b4bd 4298 6dbd c429 2b3b
00000300: 1076 9bbd ac53 70bc b6c0 0abe d5fe 1abd
00000310: 6f3d 97bd ed98 0dbe 6772 dbbb d0a1 36bd
00000320: 2976 e53c 0fb1 d5bd 2501 d2bd 2168 21be
00000330: ae0d 1d3d 968e 88bd b063 d0bd 20a7 99bd
00000340: 3f9b 39bc 0713 a5bc 08d8 3b3d a71f 84bd
00000350: 13db 1e3d 7b07 083e 7da2 d23d d12c c1bd
00000360: 97a8 05be 9e18 45bd b4a5 cabc 206b a1bd
00000370: 78d5 d7bd 7ebb 01be c28e 71bd 3a30 92bd
00000380: 7f1d 6e3d f079 9f3d 99f0 3cbe 701d db3c
00000390: 0cfb 00be 63fb 06be a215 52bd c73a 213d
000003a0: 4631 7abe 8916 223d a93d 56be 4b3e b9bd
000003b0: 81f8 7dbd 5a15 173d 1041 36be 1406 a2bd
000003c0: 2ce5 c7bd 1b9d 153c 2219 c1bd 2151 d2bd
000003d0: e0d9 19be d34e 983d 431e a53d 5960 9dbc
000003e0: 5781 b6bc 6c7a 28be f24c c7bc 2135 debc
000003f0: 100a e9bd 823b af3d 231b 7dbd d595 8cbc
0.14615639 -0.07902506 -0.18190035 -0.16960779 0.0032758787 0.17424072 0.15168694 -0.050094128
-0.11653662 -0.01681196 -0.028709034 -0.14926851 0.03993047 0.09427374 -0.41997367 -0.14874496
0.15145144 0.18735173 0.11075739 -0.09264741 -0.08217515 0.10903128 0.12942018 -1.5645723
-0.21704656 -0.026762787 -0.047950853 -0.052705433 0.21461618 0.073716074 -0.19721523 0.09935064
-0.11267986 0.22589114 0.111818954 -1.4828918 -0.04831811 0.07431069 -0.10999179 -0.016424557
-0.5600158 0.06151198 -0.017979408 -0.1738265 -0.035937134 -0.041836493 0.1510728 0.2348927
0.03677361 0.07087184 0.25486472 -0.115368456 -0.3251449 -0.063381046 -0.05663624 0.13060346
0.006425527 0.0067114616 0.057002738 0.09516268 -0.058708325 0.012334049 -0.06458514 -0.034326047
-0.41994599 -0.09218607 -0.21348453 -0.05311409 -0.16136983 0.044101812 0.23733865 -0.2336376
0.12806335 0.10462008 -0.3642359 0.30752125 0.21201546 0.22915612 0.109972335 0.016681403
-0.06801032 -0.24946961 0.06699678 -0.59900075 0.13519727 -0.04634335 -0.5179326 -0.005102393
-0.13670039 0.044520497 0.34585255 -0.037603576 -0.13964494 -0.10785501 -0.20167866 0.1597321
0.32153 0.08795795 -0.016891249 -0.31702468 -0.18749484 0.3335185 -0.47652498 0.032702442
-0.083647184 -0.18289824 -0.04193264 -0.18784297 -0.0758808 -0.077454075 -0.20593818 0.04582381
-0.3274569 0.10042093 -0.7287486 -0.09313179 -0.0038207232 0.029374966 0.18294966 -0.15548775
-0.022064751 0.04001712 -0.05769007 0.06909489 -0.08547344 -0.05886829 0.08578924 0.035457913
0.057914004 -0.03157121 -0.006684652 -0.019578176 -0.0069192904 0.080551 0.047738206 0.06476755
-0.13191648 0.0047208224 -0.064338356 0.048966117 -0.035237003 -0.123282716 -0.006416007 -0.10848514
-0.06595134 0.058230616 0.08759061 -0.12717856 -0.008232873 -0.0628994 -0.045709707 0.10685128
0.057276998 -0.06290207 0.09883926 -0.1287743 0.03129524 0.08290673 0.07732592 -0.12929472
0.07794891 -0.02286899 -0.06480962 0.09511297 -0.005539161 0.043468967 -0.06872113 -0.09271851
0.003062469 0.08330359 -0.11042244 -0.039438907 0.05912859 0.06274244 0.03602922 -0.10526361
0.09315519 -0.117873915 -0.012270024 0.031571753 -0.13483465 -0.17048779 -0.08394591 -0.11413585
-0.07148847 -0.0063603185 -0.069479674 -0.01248888 -0.010487922 -0.088345714 -0.058006532 0.0026117424
-0.07590878 -0.014668386 -0.13550076 -0.037840683 -0.073847644 -0.13827868 -0.0066969874 -0.04458791
0.028010445 -0.10434162 -0.102541246 -0.15762378 0.038343124 -0.06667821 -0.10175264 -0.0750258
-0.011328517 -0.020150675 0.04586032 -0.0645135 0.038783144 0.13284104 0.102848984 -0.09432376
-0.13052593 -0.04811918 -0.024737217 -0.078817606 -0.10538763 -0.12669179 -0.058974035 -0.07138105
0.0581336 0.077869296 -0.18451156 0.026747435 -0.12595767 -0.13181834 -0.051290162 0.039362695
-0.24432859 0.039572272 -0.20921959 -0.090450846 -0.06200457 0.036885597 -0.17798257 -0.079113156
-0.09760508 0.009131695 -0.09428622 -0.1026938 -0.15024519 0.074369095 0.080624126 -0.019210981
-0.02227847 -0.1645295 -0.024328683 -0.027124943 -0.113788724 0.08556272 -0.061793458 -0.01716129

net.flow_mapping.0.affine_layers.2.net.4.bias f4 [24]
00000000: 805b 023e 16be d8bd 66f7 afbe 5c2b a83e
00000010: cf0e 7c3d f599 09be 3b9a aabc d8c2 75be
00000020: 9a29 34bc 2bf8 153d dff0 01be bf10 ccbd
00000030: 9f8a 4c3d 9cdb 393c 3344 dd3d 1ba1 08be
00000040: 2de0 863e 26c9 383e 64cd f8bc 0bab 8fbe
00000050: bca0 8bbe 73a7 05be 24d1 903e a891 4ebe
0.12730217 -0.10583131 -0.34368438 0.3284558 0.06153756 -0.13437636 -0.020825496 -0.24000108
-0.010996247 0.036613625 -0.12689541 -0.099641316 0.049936887 0.011343863 0.108040236 -0.13342707
0.26342908 0.18045482 -0.030371375 -0.28060183 -0.27271068 -0.13052158 0.28284562 -0.20172751

net.flow_mapping.0.affine_layers.2.net.6.weight f4 [2, 24]
00000000: e9ca 1cbe 2990 7a3f 8308 593e 77ad 99be
00000010: f33b a23d 18fb 77bd d34f 8bbd f77f b83b
00000020: 5a9d abbc 87d4 2ebe 3c88 d1bc d626 e5bd
00000030: 4f64 3dbd 1f72 433d 32d0 62be cd16 ef3d
00000040: 142b 2ebe 4683 ebbe e0cc 983e 6783 473f
00000050: f531 833f ab0e c63d 6a9c ae3e a2a0 d93c
00000060: 1f02 1bbe 5828 903d d79d c9bd 41d8 84be
00000070: 4829 08bf 0aa5 d03d c66a edbc abd3 7b3b
00000080: 96c4 463c eae9 a63d 1a0b 08bd ff2e 90bd
00000090: 26fe 583d 04a5 8fbd 5721 acbd 4907 403e
000000a0: 5460 87be c2e0 8f3e ae5f 873d 57ec d83d
000000b0: 5d4a 293e d65e a7bd 29e6 41bf 803a e63d
-0.15311779 0.9787622 0.21194653 -0.30015156 0.07921591 -0.060542196 -0.06802335 0.005630489
-0.020949055 -0.1707326 -0.025577657 -0.11189048 -0.04623824 0.047716256 -0.22149733 0.11674271
-0.1700862 -0.4599859 0.29843807 0.7793488 1.0249621 0.096707664 0.3410371 0.026565854
-0.15137528 0.07038945 -0.09844559 -0.2594624 -0.5318799 0.10187729 -0.028981578 0.0038425724
0.012131831 0.08150084 -0.033213712 -0.07040214 0.05297675 -0.07013896 -0.084047966 0.18752779
-0.2644068 0.28101164 0.06610046 0.10591953 0.16532274 -0.081723854 -0.7574182 0.11241627

net.flow_mapping.0.affine_layers.2.net.6.bias f4 [2]
00000000: 768f 3fbd 2111 51be
-0.046767674 -0.2041669
