param/model_lr_shrink_iter100000_my_data_10_32_5.pth (torch, 251583 bytes, 174 tensors)

net.rotations.0.LU f4 [2, 2]
0.0 0.0 0.0 0.0
00000000: 0000 0000 0000 0000 0000 0000 0000 0000

net.rotations.0.LU_init f4 [2, 2]
1.0 0.0 0.0 1.0
00000000: 0000 803f 0000 0000 0000 0000 0000 803f

net.rotations.0.ones_mat f4 [2, 2]
1.0 1.0 1.0 1.0
00000000: 0000 803f 0000 803f 0000 803f 0000 803f

net.rotations.0.I f4 [2, 2]
1.0 0.0 0.0 1.0
00000000: 0000 803f 0000 0000 0000 0000 0000 803f

net.flow_mapping.0.scale_layers.0.b f4 [1, 2]
-0.0020602006 0.007989796
00000000: 6e04 07bb a2e7 023c

net.flow_mapping.0.scale_layers.0.logs f4 [1, 2]
-0.104214355 -0.08040189
00000000: 566e d5bd bfa9 a4bd

net.flow_mapping.0.scale_layers.0.b_init f4 [1, 2]
0.0 0.0
00000000: 0000 0000 0000 0000

net.flow_mapping.0.scale_layers.0.logs_init f4 [1, 2]
0.0 0.0
00000000: 0000 0000 0000 0000

net.flow_mapping.0.scale_layers.1.b f4 [1, 2]
-0.042633746 0.0902831
00000000: b9a0 2ebd 59e6 b83d

net.flow_mapping.0.scale_layers.1.logs f4 [1, 2]
-0.078624666 -0.09708137
00000000: f805 a1bd 99d2 c6bd

net.flow_mapping.0.scale_layers.1.b_init f4 [1, 2]
0.0 0.0
00000000: 0000 0000 0000 0000

net.flow_mapping.0.scale_layers.1.logs_init f4 [1, 2]
0.0 0.0
00000000: 0000 0000 0000 0000

net.flow_mapping.0.scale_layers.2.b f4 [1, 2]
-0.09922445 -0.03216943
00000000: 3036 cbbd 18c4 03bd

net.flow_mapping.0.scale_layers.2.logs f4 [1, 2]
-0.09116006 -0.07220074
00000000: 20b2 babd fbdd 93bd

net.flow_mapping.0.scale_layers.2.b_init f4 [1, 2]
0.0 0.0
00000000: 0000 0000 0000 0000

net.flow_mapping.0.scale_layers.2.logs_init f4 [1, 2]
0.0 0.0
00000000: 0000 0000 0000 0000

net.flow_mapping.0.scale_layers.3.b f4 [1, 2]
0.015719172 -0.09617838
00000000: 7ec5 803c 2cf9 c4bd

net.flow_mapping.0.scale_layers.3.logs f4 [1, 2]
-0.046878852 -0.090284556
00000000: 0a04 40bd 1ce7 b8bd

net.flow_mapping.0.scale_layers.3.b_init f4 [1, 2]
0.0 0.0
00000000: 0000 0000 0000 0000

net.flow_mapping.0.scale_layers.3.logs_init f4 [1, 2]
0.0 0.0
00000000: 0000 0000 0000 0000

net.flow_mapping.0.scale_layers.4.b f4 [1, 2]
-0.0732026 0.014207445
00000000: 3feb 95bd 58c6 683c

net.flow_mapping.0.scale_layers.4.logs f4 [1, 2]
-0.07456894 -0.0631139
00000000: 9ab7 98bd dc41 81bd

net.flow_mapping.0.scale_layers.4.b_init f4 [1, 2]
0.0 0.0
00000000: 0000 0000 0000 0000

net.flow_mapping.0.scale_layers.4.logs_init f4 [1, 2]
0.0 0.0
00000000: 0000 0000 0000 0000

net.flow_mapping.0.scale_layers.5.b f4 [1, 2]
0.116725825 -0.05095944
00000000: f30d ef3d d9ba 50bd

net.flow_mapping.0.scale_layers.5.logs f4 [1, 2]
-0.03418649 -0.07078877
00000000: 2207 0cbd b4f9 90bd

net.flow_mapping.0.scale_layers.5.b_init f4 [1, 2]
0.0 0.0
00000000: 0000 0000 0000 0000

net.flow_mapping.0.scale_layers.5.logs_init f4 [1, 2]
0.0 0.0
00000000: 0000 0000 0000 0000

net.flow_mapping.0.scale_layers.6.b f4 [1, 2]
-0.25266874 0.082262784
00000000: cc5d 81be 6479 a83d

net.flow_mapping.0.scale_layers.6.logs f4 [1, 2]
-0.06509674 -0.035552833
00000000: 7151 85bd d99f 11bd

net.flow_mapping.0.scale_layers.6.b_init f4 [1, 2]
0.0 0.0
00000000: 0000 0000 0000 0000

net.flow_mapping.0.scale_layers.6.logs_init f4 [1, 2]
0.0 0.0
00000000: 0000 0000 0000 0000

net.flow_mapping.0.scale_layers.7.b f4 [1, 2]
0.1397004 -0.22079542
00000000: 9f0d 0f3e 3218 62be

net.flow_mapping.0.scale_layers.7.logs f4 [1, 2]
-0.045968115 -0.06463908
00000000: 1049 3cbd 7e61 84bd

net.flow_mapping.0.scale_layers.7.b_init f4 [1, 2]
0.0 0.0
00000000: 0000 0000 0000 0000

net.flow_mapping.0.scale_layers.7.logs_init f4 [1, 2]
0.0 0.0
00000000: 0000 0000 0000 0000

net.flow_mapping.0.scale_layers.8.b f4 [1, 2]
-0.2769566 0.077164955
00000000: 41cd 8dbe a908 9e3d

net.flow_mapping.0.scale_layers.8.logs f4 [1, 2]
-0.049208704 -0.05912071
00000000: 118f 49bd 8f28 72bd

net.flow_mapping.0.scale_layers.8.b_init f4 [1, 2]
0.0 0.0
00000000: 0000 0000 0000 0000

net.flow_mapping.0.scale_layers.8.logs_init f4 [1, 2]
0.0 0.0
00000000: 0000 0000 0000 0000

net.flow_mapping.0.scale_layers.9.b f4 [1, 2]
0.10410208 -0.31176
00000000: 7933 d53d 029f 9fbe

net.flow_mapping.0.scale_layers.9.logs f4 [1, 2]
0.019881442 -0.01588853
00000000: 68de a23c aa28 82bc

net.flow_mapping.0.scale_layers.9.b_init f4 [1, 2]
0.0 0.0
00000000: 0000 0000 0000 0000

net.flow_mapping.0.scale_layers.9.logs_init f4 [1, 2]
0.0 0.0
00000000: 0000 0000 0000 0000

net.flow_mapping.0.affine_layers.0.net.0.weight f4 [32, 1]
0.18626723 -0.4587052 0.20772547 0.66252154 0.37676364 0.73540515 0.344061 0.8035138
0.16592672 -0.76235574 -0.32839286 0.6111204 -0.21240336 0.66465545 -0.82417035 -0.4395431
0.3204234 -0.02848374 0.08533705 0.28687745 -0.4158418 0.807193 -0.7308677 -0.6805772
0.77619 0.030741991 -0.6217846 0.39104387 0.06628537 -0.13951683 0.43198973 -0.7908363
00000000: d6bc 3e3e 68db eabe fcb5 543e 039b 293f
00000010: 2ae7 c03e 8343 3c3f c328 b03e 15b3 4d3f
00000020: b2e8 293e bf29 43bf 1c23 a8be 6372 1c3f
00000030: 4480 59be dc26 2a3f d4fc 52bf cb0b e1be
00000040: 890e a43e bb56 e9bc 31c5 ae3d 9ae1 923e
00000050: 37e9 d4be 33a4 4e3f 251a 3bbf 4f3a 2ebf
00000060: 63b4 463f a1d6 fb3c 472d 1fbf e736 c83e
00000070: a0c0 873d 80dd 0ebe c22d dd3e 3f74 4abf

net.flow_mapping.0.affine_layers.0.net.0.bias f4 [32]
-0.41695952 0.3797883 -0.21692792 0.15571295 -0.28926355 -0.14714085 -0.55702263 -0.6497806
-0.22824392 -0.7338106 0.15112716 0.20488559 0.1574598 0.035475884 -0.50408405 0.6464772
0.80987656 -0.65522045 0.5827894 0.15611808 -0.18234721 0.28273907 0.23478141 0.6440474
0.10317205 0.82522297 0.7340196 0.77262634 0.7055399 0.578421 -0.8470299 0.39613235
00000000: b87b d5be 9d73 c23e 5a22 5ebe 3773 1f3e
00000010: 5a1a 94be 17ac 16be 0999 0ebf 0558 26bf
00000020: c6b8 69be 03db 3bbf 14c1 1a3e 87cd 513e
00000030: 243d 213e 294f 113d a70b 01bf 887f 253f
00000040: 1254 4f3f 87bc 27bf b031 153f 6bdd 1f3e
00000050: 3ab9 3abe 2dc3 903e 8a6a 703e 4ae0 243f
00000060: de4b d33d d041 533f b5e8 3b3f d7ca 453f
00000070: 439e 343f 6613 143f f4d6 58bf dcd1 ca3e

net.flow_mapping.0.affine_layers.0.net.2.weight f4 [32, 32]
0.10124485 0.016067842 0.080481 -0.021036625 0.1318371 0.027246324 0.09101457 0.017446978
0.081867136 0.11435945 0.086968936 0.1361309 0.13266979 -0.04265161 0.06733589 0.044292428
0.0035403138 0.11956233 -0.15157422 0.0110145435 -0.026995976 -0.0782012 -0.08696637 -0.095279135
0.075199775 -0.05988919 -0.1274161 0.092433624 -0.06342894 0.061855353 -0.03036093 0.032484658
-0.07800094 0.045512196 -0.1443048 0.1428259 0.13316667 -0.05305948 -0.10356428 0.039269406
-0.02380099 0.10402738 -0.008987737 0.01465996 -0.09279245 -0.049063466 -0.028149562 0.026034778
-0.09686491 0.021784373 -0.11920842 -0.12818919 -0.0013883521 -0.08780814 -0.13975969 0.008376062
-0.09027848 0.012609863 0.05076218 0.05031239 -0.09376959 0.066970594 0.049485505 0.058172464
-0.14629044 0.10711757 -0.085565716 -0.13103504 0.13841107 -0.02299627 -0.019296797 -0.053067587
-0.05032009 0.04907015 0.086882874 -0.022863524 -0.03250374 0.04630948 -0.0028136394 0.13444549
0.108609855 -0.05528857 -0.0069135916 0.015692484 0.13178644 0.13483384 -0.014020918 0.02553808
0.003879307 -0.091081776 -0.048321925 0.024787368 -0.07650038 -0.107707396 -0.03880623 0.10100018
-0.10282396 -0.0150689 -0.13458538 -0.058609568 0.14407526 0.014313741 -0.113053806 -0.12303687
-0.10975104 -0.13601291 -0.048462015 0.13553429 -0.016894152 0.10769196 -0.09506182 0.11868543
-0.07495125 -0.03709037 0.085296705 -0.09653989 0.1248816 0.102360904 0.08339171 0.030513015
-0.11260977 -0.04698562 0.10112711 -0.08635712 -0.008504579 -0.027442848 0.13763116 -0.13836648
0.07782283 -0.018376244 0.030187791 -0.037461672 -0.046684045 0.057265367 -0.09688772 -0.09820487
-0.13571109 0.03045198 -0.14390068 -0.097466424 -0.06826676 -0.054995965 -0.08750584 0.064522624
0.06256185 0.089693114 0.02583631 0.13595791 0.011487204 -0.038330037 -0.0115755005 -0.025220037
0.03819775 0.067442745 0.12918797 -0.007038035 0.07339663 -0.101661965 -0.08292788 0.0124867475
0.08770262 -0.07659461 0.07457063 -0.08944923 -0.013067499 -0.061130922 0.06391945 0.058714677
-0.086918 -0.030522611 -0.14040373 0.032262515 0.051250044 -0.021543108 -0.058595907 -0.06990708
0.115103714 -0.12467618 0.0072334018 -0.043101244 0.09524962 0.108079754 -0.08369072 0.058927465
-0.03117019 -0.0348742 -0.060548894 -0.16490708 -0.1753376 0.056579825 -0.013116391 -0.117703736
0.10843502 -0.018849555 0.042036947 -0.09159608 0.006543305 -0.15243797 0.11464825 0.026614409
-0.13952449 -0.053896714 -0.05151396 0.12136829 -0.11464048 -0.0074071423 0.13039425 -0.04048628
0.07780484 0.037736244 -0.06328833 0.037002735 0.10495183 0.106024034 0.10222584 0.10481299
-0.009348405 0.009804652 0.14733166 0.06373346 0.010961416 0.0963393 -0.13547215 0.14042127
-0.014265625 -0.035061695 -0.1260835 -0.047647517 0.0010404574 -0.0008900386 -0.08885691 -0.12989172
0.054566786 -0.0013790642 0.0065937107 -0.05611922 0.08475134 -0.14100699 0.024401689 0.018713383
0.10893782 -0.070728295 0.078321226 0.017477795 -0.020702902 0.09965753 0.0532293 -0.14321314
0.010605827 0.11348924 0.11250192 -0.10242474 0.06822396 0.010072693 0.0054787393 -0.06188231
00000000: 7659 cf3d b5a0 833c 39d3 a43d 0055 acbc
00000010: 4e00 073e af33 df3c d965 ba3d f7ec 8e3c
00000020: f5a9 a73d 4a35 ea3d c51c b23d e665 0b3e
00000030: 97da 073e 74b3 2ebd 66e7 893d fa6b 353d
00000040: 9c04 683b 18dd f43d 4636 1bbe 5876 343c
00000050: aa26 ddbc f327 a0bd 6d1b b2bd b521 c3bd
00000060: 5702 9a3d 5e4e 75bd 5e79 02be d74d bd3d
00000070: 08e7 81bd 0a5c 7d3d 7cb7 f8bc a20e 053d
00000080: f5be 9fbd ff6a 3a3d a3c4 13be f440 123e
00000090: d85c 083e e654 59bd 8219 d4bd f5d8 203d
000000a0: 4bfa c2bc 4f0c d53d 4d41 13bc 5430 703c
000000b0: f809 bebd c6f6 48bd e999 e6bc e346 d53c
000000c0: 1c61 c6bd 2475 b23c 8b23 f4bd 0744 03be
000000d0: 5ef9 b5ba c1d4 b3bd 2a1d 0fbe c03b 093c
000000e0: ece3 b8bd 9999 4e3c 01ec 4f3d 5d14 4e3d
000000f0: 450a c0bd e127 893d 50b1 4a3d 4046 6e3d
00000100: 29cd 15be 7560 db3d 143d afbd 0d2e 06be
00000110: a2bb 0d3e ac62 bcbc 5114 9ebc 665d 59bd
00000120: 701c 4ebd c8fd 483d a6ef b13d 494c bbbc
00000130: a422 05bd 02af 3d3d 0965 38bb 14ac 093e
00000140: d86e de3d 4476 62bd 698b e2bb 868d 803c
00000150: 06f3 063e e211 0a3e feb7 65bc 3c35 d13c
00000160: f93b 7e3b 1589 babd 36ed 45bd e10e cb3c
00000170: 3bac 9cbd b295 dcbd 48f3 1ebd 2fd9 ce3d
00000180: 5e95 d2bd 8ce3 76bc c0d0 09be 9610 70bd
00000190: 7788 133e 2e84 6a3c c188 e7bd c1fa fbbd
000001a0: 27c5 e0bd f846 0bbe 1b80 46bd 80c9 0a3e
000001b0: 9b65 8abc 9a8d dc3d c5af c2bd 5911 f33d
000001c0: 0a80 99bd 12ec 17bd 0ab0 ae3d b5b6 c5bd
000001d0: edc1 ff3d 98a2 d13d 46c9 aa3d 6ef6 f93c
000001e0: f39f e6bd fe73 40bd bb1b cf3d 00dc b0bd
000001f0: ca56 0bbc d3cf e0bc 2fef 0c3e f1af 0dbe
00000200: 9361 9f3d c789 96bc 634c f73c 6971 19bd
00000210: c537 3fbd 178f 6a3d 126d c6bd a31f c9bd
00000220: d9f7 0abe 6e76 f93c b35a 13be 7a9c c7bd
00000230: 71cf 8bbd 7343 61bd 4336 b3bd 7024 843d
00000240: 6d20 803d 06b1 b73d aba6 d33c 8d38 0b3e
00000250: d334 3c3c f5ff 1cbd 2ba7 3dbc 409a cebc
00000260: 3e75 1c3d 6c1f 8a3d da49 043e 519f e6bb
00000270: f950 963d 2634 d0bd 18d6 a9bd 3795 4c3c
00000280: 6e9d b33d a3dd 9cbd 7db8 983d 2831 b7bd
00000290: 1019 56bc 6b64 7abd 33e8 823d cd7e 703d
000002a0: 1002 b2bd 8e0a fabc ffc5 0fbe b325 043d
000002b0: 91eb 513d 2c7b b0bc 4302 70bd 712b 8fbd
000002c0: 7fbb eb3d 3a56 ffbd 2c06 ed3b ee8a 30bd
000002d0: 3c12 c33d eb58 dd3d 0a66 abbd ed5d 713d
000002e0: a058 ffbc 40d8 0ebd 1e02 78bd 67dd 28be
000002f0: b38b 33be 3fc0 673d 22e6 56bc a80e f1bd
00000300: 2e13 de3d 626a 9abc ef2e 2c3d ba96 bbbd
00000310: 3869 d63b b318 1cbe b4cc ea3d 7606 da3c
00000320: 82df 0ebe cdc2 5cbd 4d00 53bd f08f f83d
00000330: a1c8 eabd 9db7 f2bb 1286 053e f1d4 25bd
00000340: 2558 9f3d 5291 1a3d 509d 81bd 2e90 173d
00000350: fcf0 d63d 2123 d93d c85b d13d 31a8 d63d
00000360: 0d2a 19bc b1a3 203c 1cde 163e b086 823d
00000370: 8397 333c 8a4d c53d 36b9 0abe 98ca 0f3e
00000380: 5eba 69bc da9c 0fbd 081c 01be 0b2a 43bd
00000390: f55f 883a 7b51 69ba 9dfa b5bd 5602 05be
000003a0: 6c81 5f3d b7c1 b4ba 0e10 d83b 44dd 65bd
000003b0: 1c92 ad3d 2364 10be 0de6 c73c cf4c 993c
000003c0: cb1a df3d ffd9 90bd e166 a03d 982d 8f3c
000003d0: 2299 a9bc 3f19 cc3d f706 5a3d 77a6 12be
000003e0: 10c4 2d3c 0c6d e83d 6867 e63d 10c4 d1bd
000003f0: 01b9 8b3d f007 253c ff86 b33b 4e78 7dbd

net.flow_mapping.0.affine_layers.0.net.2.bias f4 [32]
-0.35571778 -0.053316675 0.33795926 0.044149015 -0.023309788 0.006030302 0.32057548 -0.049909472
0.048850782 -0.04022108 0.18288587 -0.14515111 0.1425524 0.30189833 -0.060129944 0.07897974
-0.071641445 -0.020230236 0.064830914 -0.05675805 -0.043719005 0.044054378 -0.0027544661 -0.12486762
-0.26716006 0.088461906 0.036331065 -0.12943119 -0.3472949 -0.19024418 -0.2030937 0.11826859
00000000: a420 b6be 9662 5abd ff08 ad3e 99d5 343d
00000010: 2bf4 bebc d799 c53b 7822 a43e e06d 4cbd
00000020: c217 483d dcbe 24bd 6f46 3b3e 7ea2 14be
00000030: 42f9 113e 6b92 9a3e d14a 76bd 21c0 a13d
00000040: c0b8 92bd e1b9 a5bc 12c6 843d 217b 68bd
00000050: b312 33bd 5d72 343d 4684 34bb 98ba ffbd
00000060: 34c9 88be 842b b53d e2cf 143d 9c89 04be
00000070: a3d0 b1be 5fcf 42be cbf7 4fbe cd36 f23d

net.flow_mapping.0.affine_layers.0.net.4.weight f4 [32, 32]
-0.12848951 0.08356976 0.031695276 0.142026 0.03458707 0.11201118 -0.1219086 0.09190542
0.048458233 0.09195672 0.12057907 -0.03347952 -0.008206679 -0.0035940222 0.0043879948 -0.08532015
0.122259125 -0.0776691 0.007106765 0.056686822 -0.076588504 -0.13567999 0.08415167 -0.08055453
0.082525946 0.012573996 0.010075868 -0.07684679 0.13942683 0.05594775 0.0050105792 0.013488592
-0.07296586 -0.057339434 0.023902712 0.05218128 -0.03745888 -0.00657816 -0.070211485 -0.12666705
-0.05607801 0.0077433786 0.056100864 0.084603064 0.12016891 -0.012482015 0.101194285 0.08727214
-0.05605118 0.10954608 0.048494812 -0.0858604 0.09878354 0.0078510335 0.009752949 0.01314063
0.06368144 -0.059323315 0.013370092 0.08843054 0.101863414 -0.08879724 -0.0025101427 0.044665296
-0.12390157 0.14318524 0.017526185 0.03964439 -0.070847414 -0.12896289 -0.06794221 0.0153928315
-0.025198538 0.00448411 0.08272678 -0.13598177 -0.06019325 0.039912272 -0.08491465 -0.03202124
-0.13058457 0.028877847 0.032272723 -0.13635468 -0.016903581 -0.06527265 -0.14084987 0.08460386
0.106906824 0.0074399915 0.055665016 -0.070820935 -0.09315318 -0.13783395 0.1034719 0.01839553
-0.095232494 -0.11713956 0.011227098 0.06245452 0.11897124 -0.02536715 0.14756863 -0.010249235
0.1442081 -0.012436994 0.038606904 0.010050836 -0.05853615 0.021188129 -0.086219646 -0.11044275
-0.14702176 -0.049913414 0.08754973 0.010528196 -0.018928131 0.0793398 -0.026390763 0.08962275
-0.056958042 0.023842806 -0.11116879 -0.009186799 -0.065571465 0.032637227 -0.11776302 0.05392586
-0.0450531 -0.007140126 -0.10739906 -0.06825368 -0.14200236 0.0661921 -0.07264007 -0.12868425
0.07600047 -0.13975342 -0.014582263 0.1015329 -0.008268641 -0.024595285 -0.08828761 0.022070576
0.097804256 0.04555503 0.113967426 0.026068034 0.119461946 0.110701784 0.046866935 -0.14230588
-0.10216033 -0.05203175 0.038772214 0.0085257925 -0.08321027 -0.0032997148 -0.120119356 0.007598934
-0.10736624 -0.113361485 -0.013541934 -0.13127188 0.06783342 -0.13164717 -0.031769272 0.054370172
0.011720843 0.057896458 0.046879135 0.040041547 -0.011042998 0.0055905636 -0.00014715237 -0.104271434
-0.13322768 0.06327412 0.116736844 0.086750455 0.057619367 -0.13602331 0.08536758 -0.011928229
-0.08029762 0.032101933 -0.12331566 -0.14562926 -0.07388612 -0.14171189 -0.10486818 -0.0047280793
0.10774039 -0.13535534 0.08098293 0.09660731 -0.009350672 0.1281365 0.124296375 -0.08469861
0.053924132 -0.14330213 0.02747573 0.13823973 0.13889739 -0.07599821 -0.062969 -0.07036068
0.0992514 0.054465756 -0.00046488436 0.009554712 0.04229463 -0.067376286 -0.0011347204 0.038089737
-0.093465246 0.11394099 0.05784309 -0.124800764 -0.13455723 -0.06636198 -0.090006374 -0.08911541
-0.01175765 0.010597423 -0.12152051 0.075710975 0.07271968 -0.123103075 0.0006866315 -0.0019841774
0.10395669 -0.009451382 -0.031962354 -0.11344225 -0.035932463 -0.011157597 0.013053237 0.004413733
0.046224676 0.12416516 0.0062513286 0.006146248 0.07171245 -0.11789486 -0.06456161 -0.08879716
-0.019955233 -0.047287125 0.0040113544 0.08252227 -0.120936535 0.09926922 0.11920983 0.106830254
00000000: c192 03be 9f26 ab3d e8d2 013d 446f 113e
00000010: 2cab 0d3d 1e66 e53d 37ab f9bd e938 bc3d
00000020: 247c 463d ce53 bc3d 29f2 f63d d221 09bd
00000030: 4e75 06bc b089 6bbb 2bc9 8f3b 55bc aebd
00000040: fe62 fa3d fa10 9fbd dedf e83b 7130 683d
00000050: 6fda 9cbd b2ef 0abe b657 ac3d c6f9 a4bd
00000060: 5d03 a93d 2903 4e3c 4115 253c da61 9dbd
00000070: e8c5 0e3e 7829 653d c92f a43b 41ff 5c3c
00000080: 206f 95bd c1dc 6abd 9fcf c33c 0abc 553d
00000090: 7c6e 19bd 9b8d d7bb 0acb 8fbd 02b5 01be
000000a0: 0eb2 65bd 2bbc fd3b 05ca 653d 5f44 ad3d
000000b0: 1e1b f63d 5e81 4cbc f33e cf3d bcbb b23d
000000c0: ec95 65bd b259 e03d 7fa2 463d 94d7 afbd
000000d0: 064f ca3d 9fa1 003c d5ca 1f3c cc4b 573c
000000e0: 6a6b 823d 01fd 72bd 3b0e 5b3c 121b b53d
000000f0: c49d d03d 54db b5bd 3581 24bb f5f2 363d
00000100: 1bc0 fdbd 279f 123e 1393 8f3c 2862 223d
00000110: 7318 91bd d90e 04be 4925 8bbd 3732 7c3c
00000120: 2a6d cebc 71ef 923b a86c a93d ce3e 0bbe
00000130: 338d 76bd 0d7b 233d bbe7 adbd b428 03bd
00000140: f6b7 05be 3c91 ec3c 6730 043d 90a0 0bbe
00000150: 6179 8abc abad 85bd f33a 10be ca44 ad3d
00000160: f7f1 da3d 2ccb f33b 0001 643d 910a 91bd
00000170: 18c7 bebd 5824 0dbe 13e9 d33d 39b2 963c
00000180: 4109 c3bd dee6 efbd ddf1 373c 50d0 7f3d
00000190: 32a7 f33d c5ce cfbc 3b1c 173e 68ec 27bc
000001a0: 4aab 133e 89c4 4bbc 4622 1e3d 43ac 243c
000001b0: 9ac3 6fbd ba92 ad3c ed93 b0bd cf2f e2bd
000001c0: df8c 16be 0272 4cbd 464d b33d 747e 2c3c
000001d0: 2b0f 9bbc e87c a23d 7131 d8bc 228c b73d
000001e0: d64c 69bd fd51 c33c 76ac e3bd 3a84 16bc
000001f0: 554a 86bd 9dae 053d bd2d f1bd 5de1 5c3d
00000200: 9989 38bd b8f7 e9bb 0af4 dbbd 96c8 8bbd
00000210: 1169 11be b98f 873d 51c4 94bd cec5 03be
00000220: 22a6 9b3d 851b 0fbe 72ea 6ebc 7bf0 cf3d
00000230: 3279 07bc 0d7c c9bc 22d0 b4bd 5acd b43c
00000240: 994d c83d e997 3a3d c167 e93d a18c d53c
00000250: 77a8 f43d 9eb7 e23d 8bf7 3f3d a2b8 11be
00000260: 6f39 d1bd 3f1f 55bd 9dcf 1e3d c4af 0b3c
00000270: 256a aabd 0740 58bb 2301 f6bd 7b00 f93b
00000280: d5e2 dbbd 112a e8bd fdde 5dbc 236c 06be
00000290: 40ec 8a3d 84ce 06be 7f20 02bd 42b3 5e3d
000002a0: c708 403c d624 6d3d 5604 403d 9b02 243d
000002b0: b1ed 34bc 0c31 b73b ea4c 1ab9 438c d5bd
000002c0: d66c 08be dd95 813d ba13 ef3d 39aa b13d
000002d0: 4902 6c3d b249 0bbe 33d5 ae3d 9e6e 43bc
000002e0: 1473 a4bd 517d 033d ec8c fcbd d61f 15be
000002f0: 9b51 97bd ec1c 11be 21c5 d6bd 01ee 9abb
00000300: fea6 dc3d 979a 0abe 61da a53d 0eda c53d
00000310: 9033 19bc 3736 033e 198f fe3d 7776 adbd
00000320: 8ddf 5c3d cbbd 12be c814 e13c b78e 0d3e
00000330: 1e3b 0e3e f3a4 9bbd e4f5 80bd 4319 90bd
00000340: 5144 cb3d 7c17 5f3d b9bb f3b9 5e8b 1c3c
00000350: 223d 2d3d 94fc 89bd e6ba 94ba fc03 1c3d
00000360: b56a bfbd e559 e93d e0ec 6c3d 8b97 ffbd
00000370: 5fc9 09be cae8 87bd 4355 b8bd 2482 b6bd
00000380: 29a3 40bc d0a0 2d3c bfdf f8bd 5b0e 9b3d
00000390: 0eee 943d 771d fcbd 0fff 333a f908 02bb
000003a0: 3fe7 d43d f8d9 1abc f5ea 02bd 6954 e8bd
000003b0: eb2d 13bd 5bce 36bc 3fdd 553c 13a1 903b
000003c0: 1656 3d3d 4e4a fe3d f2d7 cc3b 7766 c93b
000003d0: fadd 923d dc72 f1bd e138 84bd 49db b5bd
000003e0: 2879 a3bc 25b0 41bd ae71 833b 7001 a93d
000003f0: 93ad f7bd a94d cb3d 4924 f43d d2c9 da3d

net.flow_mapping.0.affine_layers.0.net.4.bias f4 [32]
-0.3161885 0.22082725 0.0669669 0.33568242 -0.13158225 0.110706426 -0.13932164 0.0042092116
0.08120685 0.1147996 -0.24841817 -0.082258485 0.09466966 -0.04939699 -0.0044263997 -0.3245345
0.10136248 0.1026582 -0.059024576 -0.123560876 0.21813934 0.1767523 0.060876694 -0.028486192
-0.13588801 0.01015664 -0.22226179 0.10235346 -0.007372196 0.005106011 0.066161804 -0.1141726
00000000: 76e3 a1be 8a20 623e f125 893d 91de ab3e
00000010: 7fbd 06be 0dba e23d 55aa 0ebe 6ded 893b
00000020: c74f a63d 0d1c eb3d 5561 7ebe 2377 a8bd
00000030: 2be2 c13d 8054 4abd 550b 91bb 6329 a6be
00000040: 2297 cf3d 763e d23d c1c3 71bd 7c0d fdbd
00000050: eb5f 5f3e 8efe 343e d759 793d e05b e9bc
00000060: 3a26 0bbe 0968 263c 9898 63be b19e d13d
00000070: 7692 f1bb 5350 a73b d77f 873d 53d3 e9bd

net.flow_mapping.0.affine_layers.0.net.6.weight f4 [32, 32]
0.03792598 0.054326233 -0.039528105 -0.19684187 0.10659786 0.102518216 0.0017055392 0.009347893
0.030900992 0.14341278 0.036608305 0.14161767 0.028931247 0.08682522 -0.030505344 0.05847077
0.0921179 -0.10448902 0.10022168 -0.14948325 0.041222587 0.08711651 -0.07600397 0.10489498
-0.12549964 0.018820569 0.0016918747 0.08253499 -0.019959126 -0.09246127 -0.045118596 -0.12198567
-0.06515049 -0.023625704 0.011116435 -0.736448 -0.094064705 -0.13546823 0.03835486 -0.12856762
0.069006234 0.014967297 -0.08510182 -0.07893086 -0.070432715 -0.0053999787 0.02018593 0.053987905
-0.1322609 -0.071523 -0.115593016 0.026935542 0.049353924 -0.24479648 -0.07716783 -0.07383862
-0.102235034 0.1289914 0.12024573 0.06775591 0.041609757 0.04989294 -0.03839099 0.1374676
0.012114715 -0.07813051 0.016888745 -0.020621596 0.081118956 0.07819828 -0.032719903 -0.1382577
0.054516703 -0.07262016 0.0073778955 0.14600182 -0.11140585 -0.05322259 0.13858873 -0.1258788
0.035699956 -0.04069864 -0.046231266 0.0737113 -0.0059801857 0.03555778 0.031213831 0.14330605
-0.010290618 -0.028813386 0.064595774 0.11395042 -0.03423165 0.09360377 0.046737175 -0.061195
-0.032765448 0.082784094 0.09357966 -0.38092422 -0.01218416 0.11628002 0.1384848 0.003421463
-0.098632835 0.14313476 -0.06797866 0.08681957 0.097091265 0.08566013 -0.11774379 -0.08690409
-0.0047768117 -0.042445727 -0.09251353 0.10900386 0.11053041 -0.10419524 0.05547126 -0.06339425
0.12022247 -0.044359874 -0.0023533588 -0.008712614 0.04296239 -0.041741554 -0.12141763 -0.023564283
-0.13900018 0.11649391 0.062734775 0.04584076 -0.034785897 0.06354675 0.05077136 -0.14537336
0.061969116 0.11810445 -0.09480692 0.033052035 0.09286719 -0.09668158 -0.04759529 -0.097209156
0.103486516 -0.07253845 0.08817179 -0.07811562 -0.09377093 -0.14602584 -0.101370916 -0.12223228
-0.06488274 0.038883936 0.086616196 -0.10951771 0.0044040815 -0.052387115 0.14025846 -0.1425168
-0.06460832 0.020344676 0.10029867 0.19854069 0.09391469 0.025307506 0.01851866 -0.026991813
0.14395794 -9.364008e-06 -0.04599444 -0.02454787 -0.11472771 0.073464036 -0.02652027 -0.18338093
0.022940662 0.079647444 -0.13189386 0.10258208 0.06428944 -0.0148585895 0.044484165 -0.13534248
-0.112627365 -0.07754858 0.079109915 -0.13297933 0.023025466 -0.049639665 0.016288074 -0.058472734
0.050208494 -0.1304783 0.13912997 -0.106124096 0.06911292 -0.058665402 0.09161537 0.13520904
-0.045995027 0.11894963 0.01687346 0.08151698 0.12164961 -0.033808943 -0.104281686 -0.14222074
0.14667454 0.092305236 -0.110380426 -0.0058026114 -0.0805025 0.008087472 -0.114620365 -0.041860946
-0.1217116 0.009013969 -0.052140355 0.13750342 0.08342283 0.09609424 -0.02068561 0.04783318
-0.12403624 0.11577442 0.014744439 -0.69720685 -0.10371833 0.04783988 0.13113536 0.006726634
-0.07770565 0.12295616 0.024856102 0.1443171 -0.09350645 0.033574283 -0.08211125 -0.0317634
0.022737874 0.0072487714 0.13001296 -0.13435404 -0.01169085 -0.012431992 0.050401766 0.02906034
0.04228462 0.10914921 0.14274052 0.057176277 -0.04298518 -0.08880708 0.11478124 -0.079015434
00000000: 4658 1b3d 2f85 5e3d 39e8 21bd ea90 49be
00000010: fb4f da3d 12f5 d13d 668c df3a e827 193c
00000020: 1424 fd3c cdda 123e 97f2 153d 3904 113e
00000030: 3901 ed3c 6cd1 b13d 58e6 f9bc 0c7f 6f3d
00000040: 4fa8 bc3d 57fe d5bd 0641 cd3d 2312 19be
00000050: 04d9 283d 246a b23d f8a7 9bbd 2ed3 d63d
00000060: fa82 00be 982d 9a3c e5c1 dd3a 1b08 a93d
00000070: 5281 a3bc 565c bdbd 47ce 38bd 9fd3 f9bd
00000080: 9f6d 85bd b18a c1bc b521 363c db87 3cbf
00000090: ffa4 c0bd 2fb8 0abe fc19 1d3d 3ba7 03be
000000a0: 2453 8d3d 6539 753c dd49 aebd 81a6 a1bd
000000b0: 073f 90bd 4ef2 b0bb f75c a53c 6c22 5d3d
000000c0: 676f 07be a77a 92bd 08bc ecbd eda7 dc3c
000000d0: 5727 4a3d eeab 7abe 2b0a 9ebd b438 97bd
000000e0: 9a60 d1bd 5216 043e 6543 f63d 9cc3 8a3d
000000f0: fe6e 2a3d 8a5c 4c3d df3f 1dbd 4ec4 0c3e
00000100: cc7c 463c e402 a0bd 445a 8a3c 9fee a8bc
00000110: b221 a63d 6b26 a03d 4e05 06bd 6d93 0dbe
00000120: e84c 5f3d e1b9 94bd 46c2 f13b 8081 153e
00000130: c028 e4bd eeff 59bd 34ea 0d3e 5fe6 00be
00000140: 1e3a 123d 9eb3 26bd ff5c 3dbd f3f5 963d
00000150: 6ff5 c3bb 09a5 113d 26b4 ff3c d2be 123e
00000160: fb99 28bc 0d0a ecbc ca4a 843d d65e e93d
00000170: 7d36 0cbd 55b3 bf3d 7b6f 3f3d 9ca7 7abd
00000180: 1035 06bd b58a a93d b1a6 bf3d 8008 c3be
00000190: 12a0 47bc 3824 ee3d f6ce 0d3e a03a 603b
000001a0: 0300 cabd eb91 123e 6538 8bbd 75ce b13d
000001b0: c9d7 c63d 946e af3d a823 f1bd c6fa b1bd
000001c0: cd86 9cbb 92db 2dbd bc77 bdbd 6a3d df3d
000001d0: c55d e23d 5064 d5bd d535 633d d8d4 81bd
000001e0: 3337 f63d b3b2 35bd cf3a 1abb 5abf 0ebc
000001f0: 55f9 2f3d 31f9 2abd cea9 f8bd e209 c1bc
00000200: 1056 0ebe 5c94 ee3d 177b 803d 85c3 3b3d
00000210: a87b 0ebd cc24 823d a1f5 4f3d c1dc 14be
00000220: 54d3 7d3d bfe0 f13d 212a c2bd 9261 073d
00000230: 2731 be3d fe00 c6bd 47f3 42bd 9815 c7bd
00000240: bdf0 d33d 0a8f 94bd 6993 b43d 15fb 9fbd
00000250: f90a c0bd cc87 15be 8e9b cfbd eb54 fabd
00000260: 3ee1 84bd c344 1f3d d563 b13d d24a e0bd
00000270: 1d50 903b df93 56bd ea9f 0f3e edef 11be
00000280: 5e51 84bd e1a9 a63c 6469 cd3d 404e 4b3e
00000290: 5856 c03d b051 cf3c 72b4 973c ef1d ddbc
000002a0: b669 133e 1c1a 1db7 aa64 3cbd 9d18 c9bc
000002b0: 5df6 eabd 5074 963d 0a41 d9bc 36c8 3bbe
000002c0: 0eee bb3c 331e a33d 2f0f 07be 8e16 d23d
000002d0: 2faa 833d 7171 73bc 0735 363d 3897 0abe
000002e0: 2da9 e6bd cad1 9ebd 6104 a23d bc2b 08be
000002f0: e79f bc3c f652 4bbd 916e 853c 1b81 6fbd
00000300: 6ca7 4d3d 1a9c 05be 1678 0e3e 9757 d9bd
00000310: 138b 8d3d 224b 70bd d7a0 bb3d 3d74 0a3e
00000320: 4865 3cbd dd9b f33d 363a 8a3c 60f2 a63d
00000330: 6e23 f93d 3f7b 0abd a391 d5bd 50a2 11be
00000340: da31 163e 870a bd3d 220f e2bd d523 bebb
00000350: 7fde a4bd 5181 043c 15be eabd 6276 2bbd
00000360: ee43 f9bd 54af 133c 2091 55bd b2cd 0c3e
00000370: 97d9 aa3d 0fcd c43d de74 a9bc b9ec 433d
00000380: b606 febd 241b ed3d a992 713c 267c 32bf
00000390: 476a d4bd c0f3 433d 5948 063e 196b dc3b
000003a0: 2424 9fbd 70d0 fb3d 069f cb3c ddc7 133e
000003b0: 4f80 bfbd 3085 093d f129 a8bd 571a 02bd
000003c0: c744 ba3c 1a87 ed3b 1e22 053e 1b94 09be
000003d0: fb8a 3fbc 8eaf 4bbc 1572 4e3d f30f ee3c
000003e0: a332 2d3d 9f89 df3d 922a 123e ac31 6a3d
000003f0: 3a11 30bd 7de0 b5bd 6d12 eb3d d8d2 a1bd

net.flow_mapping.0.affine_layers.0.net.6.bias f4 [32]
-0.1065749 0.16143683 -0.092721984 0.19463187 0.09881131 0.05827012 -0.07682295 -0.008152076
0.107492626 0.023629917 -0.11613965 -0.09535865 -0.06669553 0.112147 0.0060199825 -0.07652299
0.3093444 0.05082126 0.12976862 -0.11472192 0.03430163 -0.10205273 0.09911611 -0.13519882
-0.09795119 0.2966418 0.13948695 0.04948444 0.043215625 -0.053771935 0.015590444 -0.03402823
00000000: f143 dabd b24f 253e 06e5 bdbd 944d 473e
00000010: 965d ca3d a6ac 6e3d 5a55 9dbd 4990 05bc
00000020: 1825 dc3d 8793 c13c a0da edbd 654b c3bd
00000030: ab97 88bd 54ad e53d 4643 c53b 16b8 9cbd
00000040: 6462 9e3e f429 503d 11e2 043e 53f3 eabd
00000050: de7f 0c3d 0601 d1bd 63fd ca3d 8f71 0abe
00000060: a29a c8bd 6fe1 973e abd5 0e3e 32b0 4a3d
00000070: de02 313d f63f 5cbd 106f 7f3c 2f61 0bbd

net.flow_mapping.0.affine_layers.0.net.8.weight f4 [32, 32]
-0.012226667 -0.013218466 0.054352343 0.17775498 -0.09721344 0.0914896 0.068482466 -0.05313049
-0.10540716 -0.13733548 -0.05530602 0.09210695 -0.045250274 0.14210466 0.061254404 -0.06146776
-0.595269 0.07413095 0.12224304 -0.1336847 -0.08329326 -0.078003295 0.03419146 0.007314316
0.10424548 0.1239179 0.33152467 0.26324287 0.14685327 0.019945055 0.030121842 0.022827337
0.08134961 -0.070945665 -0.14234722 -0.14900175 0.04738093 0.06394099 0.13356279 0.10054927
-0.03993409 -0.11584745 0.03688856 0.036928926 0.11157253 0.032263443 -0.07284198 0.07017743
0.037844144 -0.026532838 0.031428326 0.14691919 -0.03555949 0.026847864 0.02479468 -0.10213734
-0.09311432 -0.08713092 0.010275348 0.020822655 0.0417863 0.0743407 0.03533775 0.13831277
-0.10637666 -0.057377305 0.06377434 -0.034401722 -0.06296752 0.099810325 -0.010099606 -0.047316674
0.17820723 0.054563046 0.019383986 0.09912782 -0.10171202 0.0090857595 -0.010276969 -0.004977768
-0.45128793 0.064629614 0.10980887 0.12588997 0.12009393 -0.044707976 -0.051463366 0.041347176
-0.03433434 -0.036106538 0.38168842 0.29795536 0.062360536 -0.014281404 0.11470622 -0.12607898
-0.1297768 0.11133628 0.028886933 -0.075842634 -0.1447223 0.011975488 -0.1147425 -0.11077617
-0.14463544 0.036415916 0.09888377 0.0825812 0.13299194 -0.057349943 -0.034668043 -0.14327735
-0.0025849745 -0.033696204 -0.024965407 0.0706994 -0.054569818 -0.05243794 0.031847015 0.057917826
-0.043458693 0.065686226 0.046608765 -0.015846154 0.05274517 -0.019088961 0.08964061 -0.12830624
0.094989635 0.012916225 0.05260579 0.24800481 0.13933621 0.19335243 -0.042350665 -0.13705018
-0.00829408 0.0017596254 0.055550564 -0.05301978 0.023016497 -0.12935303 0.07614663 -0.026251396
-0.6075697 0.10129323 0.009821753 0.010999659 -0.011626232 0.06571865 -0.062829204 -0.010874284
-0.10855525 0.08765224 0.5544957 0.426814 0.10238398 0.06832183 0.07558478 -0.100264035
-0.011024983 0.05629685 0.0019865995 0.08786441 0.012824081 -0.0028470221 0.08006724 -0.16476797
0.003975349 0.04863176 -0.12019179 -0.12588091 -0.031672552 -0.03128668 -0.054037996 0.037287056
0.062662415 -0.09519984 -0.1377894 -0.06071601 0.0005009205 0.04314565 -0.14616555 -0.06203643
0.07423264 0.05345203 0.0797986 -0.12164757 -0.107642874 0.0051579885 -0.025428884 -0.06956069
-0.026440822 0.020038122 -0.023833506 -0.16758993 0.1250949 -0.102117926 0.12217131 -0.10603747
-0.018098274 0.06280698 -0.028592747 0.039141014 0.07021056 -0.10992873 -0.1049742 0.08257259
0.42096677 -0.10376026 0.07273663 0.13229777 0.13076305 -0.10936363 -0.12530395 0.12784947
0.13337928 0.045164045 -0.35381147 -0.042258058 -0.0219901 -0.10136891 -0.09896714 -0.08163013
0.09621251 0.15027596 -0.08206253 0.12308104 -0.01679645 0.0007266333 -0.0005686718 0.038602725
0.13614108 0.087687336 0.10797599 0.04985023 -0.01579376 0.07816204 0.133791 -0.032574594
-0.46831775 -0.14208052 -0.14722572 -0.1021966 0.039629053 -0.018388912 0.001816278 -0.03349528
0.04008451 0.11837977 0.07953273 0.16389796 0.089376375 -0.09548606 0.0708508 -0.05056718
00000000: 5c52 48bc 4492 58bc 90a0 5e3d 6705 363e
00000010: d717 c7bd e65e bb3d 8940 8c3d 5b9f 59bd
00000020: b6df d7bd aca1 0cbe 9188 62bd 92a2 bc3d
00000030: 5a58 39bd e283 113e e6e5 7a3d 9ec5 7bbd
00000040: 8d63 18bf f8d1 973d 8f5a fa3d a4e4 08be
00000050: a895 aabd 31c0 9fbd 580c 0c3d eeac ef3b
00000060: a77e d53d abc8 fd3d 9abd a93e c5c7 863e
00000070: b460 163e d063 a33c 15c2 f63c 6500 bb3c
00000080: a09a a63d f64b 91bd 78c3 11be ea93 18be
00000090: 8212 423d 7ef3 823d afc4 083e c7ec cd3d
000000a0: ee91 23bd 6e41 edbd 7518 173d c942 173d
000000b0: 2380 e43d ac26 043d 2d2e 95bd 2fb9 8f3d
000000c0: 7602 1b3d 655b d9bc fdba 003d fc71 163e
000000d0: d4a6 11bd 0df0 db3c 361e cb3c 622d d1bd
000000e0: b8b2 bebd b271 b2bd ef59 283c 4694 aa3c
000000f0: 1c28 2b3d f03f 983d 51be 103d dda1 0d3e
00000100: 02dc d9bd 7704 6bbd 1f9c 823d d2e8 0cbd
00000110: 1df5 80bd 5b69 cc3d d178 25bc 21cf 41bd
00000120: f57b 363e 807d 5f3d 2acb 9e3c 8703 cb3d
00000130: 644e d0bd 70dc 143c bb60 28bc 8b1c a3bb
00000140: 360f e7be 885c 843d 79e3 e03d 4de9 003e
00000150: cef3 f53d b61f 37bd 40cb 52bd a85b 293d
00000160: 2aa2 0cbd 73e4 13bd aa6c c33e 9b8d 983e
00000170: c36d 7f3d 8dfc 69bc 18eb ea3d d91a 01be
00000180: 36e4 04be 4704 e43d 4aa4 ec3c 6253 9bbd
00000190: 1532 14be d634 443c 1efe eabd 9ede e2bd
000001a0: 501b 14be db28 153d 9383 ca3d 5520 a93d
000001b0: 0a2f 083e c6e7 6abd 1400 0ebd 4cb7 12be
000001c0: ad68 29bb 0805 0abd 4184 ccbc d9ca 903d
000001d0: 9a84 5fbd 2ac9 56bd 0472 023d 3e3b 6d3d
000001e0: be01 32bd 8086 863d d5e8 3e3d cbcf 81bc
000001f0: 520b 583d 7460 9cbc 7f95 b73d b662 03be
00000200: ed89 c23d 939e 533c 2b79 573d f9f4 7d3e
00000210: 27ae 0e3e 2efe 453e e477 2dbd e256 0cbe
00000220: e5e3 07bc 3ba3 e63a fd88 633d 452b 59bd
00000230: 188d bc3c 1f75 04be c4f2 9b3d 2b0d d7bc
00000240: b089 1bbf d372 cf3d 6beb 203c ea37 343c
00000250: f47b 3ebc 8097 863d 99ac 80bd 0e2a 32bc
00000260: 3752 debd 0583 b33d 6ef3 0d3f 5d87 da3e
00000270: b1ae d13d 51ec 8b3d 31cc 9a3d 3b57 cdbd
00000280: 21a2 34bc 8797 663d 9c31 023b 41f2 b33d
00000290: 181c 523c 1b95 3abb 4bfa a33d efb8 28be
000002a0: a543 823b 1932 473d 1d27 f6bd ede6 00be
000002b0: 14bb 01bd 7626 00bd f256 5dbd 50ba 183d
000002c0: 2755 803d 22f8 c2bd aa18 0dbe 5ab1 78bd
000002d0: 3550 033a 7eb9 303d 6cac 15be e919 7ebd
000002e0: 4807 983d 84f0 5a3d 736d a33d 5c22 f9bd
000002f0: de73 dcbd 5804 a93b 3c50 d0bc d675 8ebd
00000300: 6c9a d8bc fd26 a43c 7c3e c3bc b29c 2bbe
00000310: e118 003e 3423 d1bd f434 fa3d 2c2a d9bd
00000320: d542 94bc f2a0 803d 563b eabc 5452 203d
00000330: 8eca 8f3d 5022 e1bd b7fc d6bd d11b a93d
00000340: f588 d73e 4280 d4bd f1f6 943d 1179 073e
00000350: c0e6 053e 0afa dfbd ae4f 00be f9ea 023e
00000360: 9494 083e effd 383d c726 b5be c916 2dbd
00000370: 9524 b4bc 819a cfbd 49af cabd b32d a7bd
00000380: 100b c53d f1e1 193e 6610 a8bd ea11 fc3d
00000390: b598 89bc 897b 3e3a eb12 15ba e41d 1e3d
000003a0: 9168 0b3e 6b95 b33d 8422 dd3d c12f 4c3d
000003b0: ea61 81bc 6b13 a03d 8200 093e f06c 05bd
000003c0: 58c7 efbe 8e7d 11be 57c2 16be 734c d1bd
000003d0: 1352 223d 58a4 96bc 2d10 ee3a 5932 09bd
000003e0: a82f 243d 1871 f23d 0ee2 a23d ded4 273e
000003f0: f60a b73d 328e c3bd 391a 913d 881f 4fbd

net.flow_mapping.0.affine_layers.0.net.8.bias f4 [32]
0.09249535 -0.21795912 0.17845382 -0.14090662 0.2590172 -0.05677438 -0.09062015 0.052685946
-0.052885965 -0.05217312 -0.0068600094 0.096297525 0.05684605 -0.031813264 0.025628895 0.26354477
0.0901597 -0.1253334 -0.123587474 -0.024652215 0.21889599 -0.15685762 0.13459376 -0.106683604
0.059919946 -0.088018306 0.25085545 0.10188584 0.10537016 -0.15734325 -0.122806825 0.08079267
00000000: 346e bd3d ad30 5fbe 99bc 363e d349 10be
00000010: e79d 843e 418c 68bd 0f97 b9bd 38cd 573d
00000020: f49e 58bd 7bb3 55bd eec9 e0bb a337 c53d
00000030: 67d7 683d a04e 02bd b0f3 d13c 57ef 863e
00000040: a6a5 b83d 6657 00be 6e1b fdbd 71f3 c9bc
00000050: 4526 603e 499f 20be f2d2 093e ef7c dabd
00000060: 9e6e 753d f142 b4bd 2070 803e 86a9 d03d
00000070: 4fcc d73d 971e 21be 2582 fbbd a176 a53d

net.flow_mapping.0.affine_layers.0.net.10.weight f4 [2, 32]
-0.025211012 0.20418908 -0.11593555 -0.07309635 -0.22382928 -0.11896697 0.14340743 -0.04094057
0.04910164 0.14679623 0.07629148 -0.9860835 -0.5621229 -0.11551165 0.13430813 -0.268998
-0.14831768 -0.071311355 0.1566276 0.00093357364 -0.28400174 0.043356054 -0.17953005 -0.102880955
-0.030535601 0.015806554 -0.091228254 0.14210205 -0.59956425 0.13526931 0.051194157 0.29420522
0.12718982 0.23568502 0.06575184 0.032294236 -0.4143958 -0.10172883 0.057745896 0.16614832
0.02302224 0.14981753 0.048119117 -1.9789796 -0.61426175 -0.09748356 0.12441098 -0.22215664
-0.052620735 0.019434134 0.27385822 0.08077968 -0.33968356 0.020809287 -0.4326632 0.063939914
0.117925934 0.20409872 -0.14569455 -0.16116957 -0.84610546 0.18999799 -0.05141034 0.10514526
00000000: 5387 cebc f116 513e 9e6f edbd 8ab3 95bd
00000010: 8133 65be f4a4 f3bd 66d9 123e 4db1 27bd
00000020: cd1e 493d c051 163e b53e 9c3d f86f 7cbf
00000030: 49e7 0fbf 5f91 ecbd 1288 093e 1bba 89be
00000040: 97e0 17be b00b 92bd fc62 203e 11bb 743a
00000050: ad68 91be 1e96 313d bad6 37be 40b3 d2bd
00000060: cc25 fabc bf7c 813c e1d5 babd 3383 113e
00000070: 0b7d 19bf 0a84 0a3e f7b0 513d 11a2 963e
00000080: 0c3e 023e 6a57 713e e7a8 863d f646 043d
00000090: b02b d4be 3457 d0bd f686 6c3d c922 2a3e
000000a0: 2399 bc3c c469 193e 8d18 453d 344f fdbf
000000b0: 4240 1dbf 76a5 c7bd 2fcb fe3d 087d 63be
000000c0: d788 57bd 5534 9f3c 2537 8c3e d16f a53d
000000d0: 01eb adbe 3d78 aa3c 0886 ddbe eef2 823d
000000e0: 2783 f13d 41ff 503e f430 15be a309 25be
000000f0: 5e9a 58bf d58e 423e a693 52bd 6656 d73d

net.flow_mapping.0.affine_layers.0.net.10.bias f4 [2]
-0.037229817 -0.18537845
00000000: 4b7e 18bd d9d3 3dbe

net.flow_mapping.0.affine_layers.1.net.0.weight f4 [32, 1]
0.16795777 -0.26734915 0.6091226 0.20315835 0.48610386 -0.04359275 -0.05450789 0.5299525
-0.19733365 0.7561211 -0.49205008 -0.02149559 -0.21730782 0.16598137 0.63796794 0.73481494
0.8126155 -0.03044818 0.49261376 -0.111690834 -0.464581 -0.4523206 0.5058047 -0.67946535
-0.7593657 0.43799022 0.096735366 -0.6756317 -0.49640903 -0.51268655 -0.48894125 0.6169537
00000000: 1ffd 2b3e fde1 88be 75ef 1b3f be08 503e
00000010: 9be2 f83e 508e 32bd aa43 5fbd f8aa 073f
00000020: d511 4abe 2791 413f fded fbbe 8517 b0bc
00000030: f185 5ebe 05f7 293e de51 233f d51c 3c3f
00000040: 9207 503f 766e f9bc df37 fc3e 2abe e4bd
00000050: 90dd edbe 9196 e7be 6b7c 013f 71f1 2dbf
00000060: ca65 42bf 4140 e03e 311d c63d 33f6 2cbf
00000070: 5329 febe 6d3f 03bf 8256 fabe adf0 1d3f

net.flow_mapping.0.affine_layers.1.net.0.bias f4 [32]
-0.80792266 0.4146526 -0.46139362 0.74860305 0.81554705 -0.7296853 0.31362104 -1.003448
-0.21357293 -0.259193 -0.25429213 -0.07674858 -0.09899405 -0.22810687 -0.11865017 -0.60193807
0.90566355 0.48237303 0.45347974 0.1273731 0.483704 -0.6438556 0.13942726 0.7465479
0.38806668 -1.0656977 -0.36679238 0.4494002 0.03227483 -0.56716365 0.5406274 -0.32087377
00000000: 05d4 4ebf 584d d43e c93b ecbe 73a4 3f3f
00000010: b1c7 503f a8cc 3abf f092 a03e fc70 80bf
00000020: ddb2 5abe f2b4 84be 9432 82be 5c2e 9dbd
00000030: 64bd cabd d994 69be dcfe f2bd 9d18 1abf
00000040: 91d9 673f 99f9 f63e 7f2e e83e 186e 023e
00000050: 0da8 f73e b8d3 24bf 05c6 0e3e c31d 3f3f
00000060: adb0 c63e c868 88bf 36cc bbbe c817 e63e
00000070: 9d32 043d a331 11bf 8f66 0a3f 9149 a4be

net.flow_mapping.0.affine_layers.1.net.2.weight f4 [32, 32]
-0.12306877 0.03612753 0.12148477 0.08907063 -0.022192895 0.01206131 0.12440813 -0.10075828
-0.06281489 0.09674357 -0.14311813 0.11975978 0.051115245 -0.005039916 -0.06298582 -0.07830563
-0.09289045 0.08857687 -0.052020382 -0.03942536 -0.1231762 -0.10840049 0.079172395 0.08386423
0.12131491 -0.019049047 0.11428581 -0.019883875 -0.117398255 -0.010639493 -0.058552075 -0.046592996
-0.06330023 0.13919237 -0.040874824 0.012646396 0.06857597 0.05235774 -0.022532817 0.06694571
-0.018771255 -0.08581558 0.030036291 0.03474392 0.0738073 -0.062208775 -0.097487524 -0.033564977
0.01444729 0.11427276 0.06818125 0.113882124 -0.00032454895 0.019656781 0.120833606 -0.06780554
-0.026969807 0.0574156 -0.15766197 0.13083707 -0.05838939 0.10874044 -0.03687456 0.08204964
0.04427134 -0.08724989 -0.057256293 -0.13396047 -0.096536666 0.049092386 0.011184314 -0.09177226
-0.0074479873 0.012525088 0.060566314 -0.11486176 0.08258606 0.055182997 -0.026367225 0.0004841656
-0.018097948 0.04890619 0.1120595 -0.12891601 0.06824063 -0.005165433 0.06620192 -0.007954061
-0.07266696 -0.05610673 0.053696834 0.07728864 -0.07029849 0.09272133 -0.109073825 -0.05607971
-0.09730625 0.100155145 0.1247177 -0.039600626 -0.11086365 0.111010425 0.14493129 0.038742956
0.12652929 0.078770936 0.09297647 0.048173223 0.07177762 -0.011912908 -0.084293745 0.117563106
0.08692342 0.07057928 -0.12869579 0.136965 -0.09629835 0.034650974 -0.072528385 -0.004429665
-0.08981249 0.10519666 -0.12972692 -0.040082905 0.10978 0.04460306 0.09781085 0.040188428
0.017069772 0.13407144 -0.11399274 0.13103244 0.013397434 0.094933614 -0.07016779 -0.101268835
-0.025849959 -0.14063308 0.12450197 -0.030138573 0.084300205 -0.10428614 -0.024336815 -0.030793162
-0.06411398 -0.12591055 -0.022052908 0.08957112 -0.12740526 -0.08283454 0.056043006 -0.064924926
0.12936965 0.08589028 0.10549683 0.039281167 -0.021865455 0.028019313 0.066219345 -0.09938408
0.09946215 0.07466335 0.057393078 -0.005047353 0.09602829 -0.110603295 0.08952463 -0.13539408
0.008637512 0.11143618 0.11815782 -0.049025994 0.06663891 -0.018595926 0.010934938 -0.13103661
0.06807301 0.058721587 -0.036035806 -0.10267271 0.12384761 0.109221034 -0.092864186 0.06369453
-0.09288048 -0.09314318 0.132381 0.14339988 0.0556862 -0.078140914 0.049311366 0.13105598
0.08736992 0.053824604 0.08264498 0.05557694 -0.0817766 0.12794147 -0.04991942 0.009968524
-0.12263834 -0.008653117 0.025706371 -0.050114047 0.09483233 0.07851447 -0.14262362 0.11068286
-0.03746727 -0.12291898 -0.05217664 0.0279649 -0.08018955 0.13897336 -0.12244849 -0.024314592
-0.13071178 0.027605819 0.1429443 0.10615438 -0.072746456 -0.09869764 -0.0041045947 0.103384465
-0.03937224 0.027380183 0.014346146 0.09560472 -0.0061304434 -0.010616435 0.12761067 -0.04991663
-0.14095485 0.057100203 0.0785207 0.08909476 -0.13629837 -0.048922088 -0.11104933 0.08009053
-0.10022911 -0.014031608 0.031042092 -0.008949643 0.07690004 0.03884933 0.001514575 0.09577032
-0.109527655 0.041644514 0.019516893 0.0072598546 -0.12425175 0.13613638 0.092678614 0.06420653
00000000: 7b0b fcbd 76fa 133d 02cd f83d aa6a b63d
00000010: e0cd b5bc cd9c 453c b1c9 fe3d 5b5a cebd
00000020: 18a5 80bd 7e21 c63d 8f8d 12be 9e44 f53d
00000030: 385e 513d e125 a5bb b6fe 80bd b45e a0bd
00000040: 593d bebd ca67 b53d 5313 55bd 7c7c 21bd
00000050: ce43 fcbd 1301 debd 2325 a23d 02c1 ab3d
00000060: f473 f83d bf0c 9cbc ae0e ea3d 82e3 a2bc
00000070: 7f6e f0bd 4551 2ebc 4dd4 6fbd 4cd8 3ebd
00000080: 8da3 81bd 7288 0e3e 5c6c 27bd d432 4f3c
00000090: 8f71 8c3d 1275 563d be96 b8bc d51a 893d
000000a0: 2dc6 99bc 14c0 afbd ab0e f63c a44f 0e3d
000000b0: 4828 973d a1ce 7ebd 8aa7 c7bd 6e7b 09bd
000000c0: 54b4 6c3c d607 ea3d 9ca2 8b3d 083b e93d
000000d0: 3928 aab9 4207 a13c 9c77 f73d a2dd 8abd
000000e0: c9ef dcbc 9f2c 6b3d 2472 21be 27fa 053e
000000f0: b729 6fbd 4fb3 de3d c709 17bd a409 a83d
00000100: dd55 353d 12b0 b2bd 9385 6abd ef2c 09be
00000110: 04b5 c5bd 1915 493d 6a3e 373c 18f3 bbbd
00000120: 3f0e f4bb 0736 4d3c 6214 783d a43c ebbd
00000130: e122 a93d 9107 623d 1400 d8bc 9bd7 fd39
00000140: 2642 94bc db51 483d 737f e53d 8f02 04be
00000150: bec1 8b3d cb42 a9bb df94 873d c051 02bc
00000160: 6ad2 94bd 2cd0 65bd 36f1 5b3d 8249 9e3d
00000170: a8f8 8fbd aee4 bd3d 1962 dfbd d7b3 65bd
00000180: 8048 c7bd 241e cd3d fe6b ff3d 4434 22bd
00000190: 7b0c e3bd 6f59 e33d de68 143e efb0 1e3d
000001a0: e590 013e a852 a13d 736a be3d 4951 453d
000001b0: 2500 933d 5c2e 43bc 33a2 acbd edc4 f03d
000001c0: e804 b23d df8b 903d d4c8 03be 8e40 0c3e
000001d0: 1238 c5bd 2eee 0d3d c389 94bd b926 91bb
000001e0: 9cef b7bd 5971 d73d 22d7 04be f92d 24bd
000001f0: 56d4 e03d b3b1 363d 0e51 c83d 9f9c 243d
00000200: e8d5 8b3c 064a 093e 0775 e9bd 5e2d 063e
00000210: e980 5b3c 8e6c c23d 21b4 8fbd 0966 cfbd
00000220: 4bc3 d3bc 1e02 10be e4fa fe3d 2be5 f6bc
00000230: 96a5 ac3d f993 d5bd 005e c7bc f141 fcbc
00000240: 314e 83bd b2ee 00be 4da8 b4bc 1071 b73d
00000250: 8676 02be 28a5 a9bd 5a8d 653d 5cf7 84bd
00000260: 7a79 043e 3ee7 af3d b90e d83d 4ae5 203d
00000270: 2f1f b3bc c288 e53c 029e 873d e189 cbbd
00000280: d0b2 cb3d 19e9 983d 0115 6b3d 4464 a5bb
00000290: 7baa c43d fb83 e2bd b058 b73d bfa4 0abe
000002a0: 5a84 0d3c a738 e43d bafc f13d 7bcf 48bd
000002b0: fb79 883d 7c56 98bc 7428 333c 762e 06be
000002c0: dd69 8b3d 0c86 703d 489a 13bd 1246 d2bd
000002d0: d1a3 fd3d 47af df3d 942f bebd 4772 823d
000002e0: 1f38 bebd dac1 bebd e38e 073e 6bd7 123e
000002f0: 3617 643d 5808 a0bd b7fa 493d 8a33 063e
00000300: 00ef b23d 3077 5c3d c541 a93d a5a4 633d
00000310: 7d7a a7bd 1703 033e 4e78 4cbd 0553 233c
00000320: cf29 fbbd cec5 0dbc 2b96 d23c 6344 4dbd
00000330: 7437 c23d 32cc a03d ed0b 12be b2ad e23d
00000340: 4877 19bd f2bc fbbd 2cb7 55bd a516 e53c
00000350: 6b3a a4bd 084f 0e3e 46c6 fabd 652f c7bc
00000360: 4fd9 05be 9925 e23c fe5f 123e 7867 d93d
00000370: 18fc 94bd fd21 cabd d67f 86bb 3cbb d33d
00000380: c944 21bd 684c e03c 190c 6b3c 68cc c33d
00000390: e3e1 c8bb 8ef0 2dbc 5fac 023e 6175 4cbd
000003a0: 7856 10be e7e1 693d 76cf a03d 5077 b63d
000003b0: cd91 0bbe 8762 48bd d56d e3bd 8106 a43d
000003c0: eb44 cdbd d4e4 65bc fc4b fe3c 86a1 12bc
000003d0: c57d 9d3d 7a20 1f3d b484 c63a 3b23 c43d
000003e0: 0950 e0bd 7093 2a3d e4e1 9f3c 13e4 ed3b
000003f0: b477 febd 5667 0b3e 49ce bd3d b77e 833d

net.flow_mapping.0.affine_layers.1.net.2.bias f4 [32]
-0.08750885 0.5238731 0.14467973 0.036707345 -0.061304074 0.54088485 -0.5692022 -0.13697998
-0.016516171 -0.020508746 0.18203588 -0.04712051 -0.07983189 0.07356683 -0.011773833 -0.13065132
-0.0494873 0.49966443 -0.5563799 -0.3310927 -0.2436016 -0.3313203 -0.42694795 -0.08259046
0.32256863 0.035771504 0.028755412 -0.03157976 0.0021711818 0.115091205 -0.14650784 0.33736876
00000000: d737 b3bd 8c1c 063f ec26 143e 715a 163d
00000010: fb19 7bbd 6e77 0a3f 3cb7 11bf 7b44 0cbe
00000020: ec4c 87bc f501 a8bc 9d67 3a3e 7001 41bd
00000030: e77e a3bd 35aa 963d 09e7 40bc 76c9 05be
00000040: 32b3 4abd 04d4 ff3e ea6e 0ebf fb84 a9be
00000050: b372 79be d0a2 a9be ec98 dabe 3025 a9bd
00000060: b727 a53e 2485 123d 7890 eb3c c759 01bd
00000070: 634a 0e3b f0b4 eb3d 2706 16be 99bb ac3e

net.flow_mapping.0.affine_layers.1.net.4.weight f4 [32, 32]
-0.12407071 -0.10709918 0.077511966 0.15093723 0.0903715 -0.05445145 0.1311058 0.10734797
0.07371177 0.074719146 -0.112727866 -0.1323313 0.021256018 0.054607794 -0.023522316 0.045721415
0.07820369 -0.20877339 -0.10894809 -0.060181607 0.09878683 0.09493137 0.082512565 -0.04911073
0.04487268 0.11274731 -0.07459709 0.053043127 -0.10971803 0.02318485 0.053845257 -0.09040964
0.11307762 0.060995303 -0.11092764 -0.10169537 0.095260456 -0.105480775 -0.1313894 -0.10259094
0.114241704 -0.1175565 -0.10837597 0.027919115 -0.019161396 0.102135755 -0.033483755 0.03783925
0.05901964 -0.005680113 0.13457835 -0.058477364 -0.090425074 0.053127054 -0.014166406 0.004959967
-0.047651216 -0.065026484 -0.11149378 0.14445834 -0.09798706 -0.04878865 -0.0075790496 0.068634324
0.092131406 -0.028126348 0.008741299 0.039110787 0.023797022 -0.08195706 0.11304068 0.12886366
0.12258039 -0.05177224 0.04660572 -0.032063097 0.0622909 -0.11769545 -0.054283105 -0.009222126
-0.09945285 -0.11472072 -0.029932633 -0.08185536 0.028633874 0.00810643 0.041784875 -0.0025172352
-0.032122113 -0.07159423 -0.1304219 -0.06571353 -0.07786694 0.09783728 0.062077772 0.026254823
0.085588716 -0.008022698 -0.120989084 -0.025365517 -0.04795797 -0.111618884 0.006246821 0.11948924
0.04325615 -0.10684209 0.0022673344 0.12825537 0.027063297 -0.11721179 -0.10947299 0.0064155273
0.120152466 -0.11635967 -0.082862735 0.07490169 -0.12589528 -0.025999865 0.046354827 0.0018497634
-0.096563436 -0.030953491 0.0904396 -0.10154604 -0.040872954 0.026295738 0.034878697 0.10260481
-0.027104968 -0.14792976 0.14263523 0.0022581166 0.12939046 0.044243682 0.11739395 -0.028533684
0.008730335 0.13860631 -0.07926593 -0.012602032 0.08370987 -0.11925895 -0.1263577 -0.0075671114
-0.01832446 -0.10013666 0.052702587 0.074314095 -0.029358057 -0.15261011 0.10419094 0.085996024
-0.044514038 0.13223706 -0.0740614 -0.08763765 0.028902497 -0.11219407 0.09926538 0.10180364
-0.0049028494 0.024427578 0.01976513 -0.16340053 0.08017399 0.15063031 -0.0088121565 -0.05780521
-0.08991712 0.1297058 0.0028635452 -0.045501053 -0.100189574 0.11011821 -0.1156743 0.115989536
-0.049273238 0.07041812 -0.1264921 0.07681849 0.0894095 -0.11987426 -0.009319327 0.1228093
-0.042092096 0.092521265 0.11370743 -0.045775857 -0.023591353 0.13874839 0.08027123 0.04553867
-0.071179435 -0.019745989 0.087014906 -0.05839506 0.08572959 0.14215453 0.0657128 -0.07703498
-0.14510566 -0.07574536 0.04999375 -0.1221592 -0.14015941 0.058635414 -0.13544458 -0.08264696
-0.08197545 0.082495384 -0.013739675 0.13279021 0.074107185 -0.06389771 -0.03191007 0.07136637
-0.12467848 -0.03462787 -0.14195378 -0.10861383 -0.13434283 -0.095149204 -0.0572136 0.08704438
0.0119391 0.13261019 0.083579086 0.008562558 0.08367862 0.13161848 -0.0039127707 0.096851
0.11211899 -0.010717763 -0.13848819 -0.033222873 -0.097062446 -0.050363246 -0.0025683912 -0.074306935
-0.09063356 0.103839576 0.13818718 0.009009328 -0.005829509 0.018277502 0.026391447 0.07107826
-0.1113805 -0.07192646 -0.012932593 -0.06936328 -0.04466461 0.054930992 -0.016225744 -0.06836564
00000000: c918 febd d156 dbbd 98be 9e3d 4a8f 1a3e
00000010: b114 b93d 7c08 5fbd 9940 063e 41d9 db3d
00000020: 32f6 963d 5a06 993d dedd e6bd db81 07be
00000030: 1a21 ae3c 6cac 5f3d dfb1 c0bc 6146 3b3d
00000040: 4229 a03d b1c8 55be 2d20 dfbd fd80 76bd
00000050: c050 ca3d 616b c23d 59fc a83d 5528 49bd
00000060: 6acc 373d 10e8 e63d 5cc6 98bd c043 593d
00000070: d9b3 e0bd 28ee bd3c d88c 5c3d b028 b9bd
00000080: 3d95 e73d 36d6 793d 082e e3bd aa45 d0bd
00000090: ea17 c33d 4e06 d8bd f18a 06be 331b d2bd
000000a0: 8ef7 e93d 76c1 f0bd 38f4 ddbd a1b6 e43c
000000b0: 5cf8 9cbc 8d2c d13d 4326 09bd 54fd 1a3d
000000c0: 94be 713d 3e20 babb e8ce 093e f685 6fbd
000000d0: c830 b9bd c19b 593d 371a 68bc 3887 a23b
000000e0: ec2d 43bd 9b2c 85bd da56 e4bd e3ec 133e
000000f0: 71ad c8bd 9cd6 47bd ad59 f8bb 2790 8c3d
00000100: 64af bc3d 3a69 e6bc aa37 0f3c a232 203d
00000110: f9f1 c23c 1ad9 a7bd df81 e73d d6f4 033e
00000120: 6d0b fb3d 210f 54bd a4e5 3e3d 9854 03bd
00000130: be24 7f3d 500a f1bd f657 5ebd 6618 17bc
00000140: f0ad cbbd b2f2 eabd 4835 f5bc c8a3 a7bd
00000150: 9691 ea3c d5d0 043c 9e26 2b3d 33f8 24bb
00000160: 7a92 03bd ff9f 92bd 528d 05be d194 86bd
00000170: b478 9fbd e95e c83d 4345 7e3d 5b14 d73c
00000180: 2349 af3d a271 03bc 20c9 f7bd 58cb cfbc
00000190: 946f 44bd 7198 e4bd 22b2 cc3b c6b6 f43d
000001a0: 5c2d 313d 07d0 dabd 8f97 143b 6055 033e
000001b0: d9b3 dd3c bc0c f0bd 6033 e0bd 5839 d23b
000001c0: 7f12 f63d fb4d eebd f0b3 a9bd 0f66 993d
000001d0: b1ea 00be abfd d4bc 8fde 3d3d c373 f23a
000001e0: 0dc3 c5bd 2d92 fdbc 6638 b93d 5ff7 cfbd
000001f0: 666a 27bd 296a d73c f7dc 0e3d 7822 d23d
00000200: 3d0b debc e67a 17be f80e 123e e9fc 133b
00000210: ef7e 043e dd38 353d 3d6c f03d 79bf e9bc
00000220: ae09 0f3c d0ee 0d3e 2d56 a2bd c178 4ebc
00000230: 1570 ab3d 093e f4bd ea63 01be 88f5 f7bb
00000240: 2e1d 96bc 7314 cdbd abde 573d fd31 983d
00000250: 4f80 f0bc d345 1cbe 0f62 d53d af1e b03d
00000260: 5a54 36bd 2769 073e 81ad 97bd 5e7b b3bd
00000270: eec4 ec3c 01c6 e5bd a64b cb3d 6d7e d03d
00000280: 15a8 a0bb 581c c83c 7bea a13c 7852 27be
00000290: 4332 a43d d53e 1a3e dd60 10bc 28c5 6cbd
000002a0: 7826 b8bd 99d1 043e 51aa 3b3b 505f 3abd
000002b0: 3130 cdbd a885 e13d a6e6 ecbd ec8b ed3d
000002c0: bcd2 49bd 6037 903d 2587 01be 0353 9d3d
000002d0: 541c b73d a380 f5bd 17b0 18bc 7183 fb3d
000002e0: c368 2cbd ca7b bd3d 71df e83d 777f 3bbd
000002f0: a742 c1bc 0f14 0e3e 3e65 a43d c286 3a3d
00000300: 86c6 91bd 57c2 a1bc df34 b23d a92f 6fbd
00000310: ff92 af3d f590 113e 6f94 863d 84c4 9dbd
00000320: 9496 14be 6220 9bbd 3fc6 4c3d 9a2e fabd
00000330: f385 0fbe b02b 703d fcb1 0abe cf42 a9bd
00000340: bfe2 a7bd 57f3 a83d 601c 61bc 28fa 073e
00000350: 82c5 973d cddc 82bd 22b4 02bd 8828 923d
00000360: 6e57 ffbd f4d5 0dbd 555c 11be ed70 debd
00000370: 2b91 09be 96dd c2bd cf58 6abd 5344 b23d
00000380: 379c 433c f7ca 073e 832b ab3d f949 0c3c
00000390: b25f ab3d ffc6 063e b336 80bb d159 c63d
000003a0: a49e e53d 8e99 2fbc d9cf 0dbe b514 08bd
000003b0: adc8 c6bd b149 4ebd 7452 28bb 3c2e 98bd
000003c0: 179e b9bd d8a9 d43d f180 0d3e dc9b 133c
000003d0: 7705 bfbb b3ba 953c e032 d83c 7b91 913d
000003e0: 761b e4bd 2e4e 93bd 3ae3 53bc 560e 8ebd
000003f0: 3df2 36bd 52ff 603d daeb 84bc 4903 8cbd

net.flow_mapping.0.affine_layers.1.net.4.bias f4 [32]
-0.30541715 0.10197756 0.06961275 -0.018177232 0.03159737 0.18316288 0.040736746 -0.09002403
0.0821748 -0.13868709 0.03333054 0.25683865 -0.13028121 0.093319565 -0.12738828 0.061166577
-0.14042363 0.0781495 -0.3422419 0.24799563 -0.08489908 0.44619843 -0.21216057 0.39400938
-0.024097698 -0.455547 -0.06033881 0.11344036 -0.36846828 0.05168799 0.0071186386 0.2547598
00000000: a35f 9cbe 9cd9 d03d 2191 8e3d 6be8 94bc
00000010: 3e6c 013d 0d8f 3b3e 93db 263d 855e b8bd
00000020: 434b a83d fd03 0ebe 9b85 083d 5b80 833e
00000030: 7068 05be 541e bf3d 1372 02be ce89 7a3d
00000040: 36cb 0fbe d80c a03d 553a afbe 91f2 7d3e
00000050: 92df adbd 1f74 e43e 9f40 59be 99bb c93e
00000060: 8968 c5bc 753d e9be d425 77bd 6b53 e83d
00000070: e0a7 bcbe c9b6 533d 7843 e93b e06f 823e
