param/model.pth (torch, 83429 bytes, 110 tensors)

net.rotations.0.LU f4 [2, 2]
00000000: 0000 0000 0000 0000 0000 0000 0000 0000
0.0 0.0 0.0 0.0

net.rotations.0.LU_init f4 [2, 2]
00000000: 0000 803f 0000 0000 0000 0000 0000 803f
1.0 0.0 0.0 1.0

net.rotations.0.ones_mat f4 [2, 2]
00000000: 0000 803f 0000 803f 0000 803f 0000 803f
1.0 1.0 1.0 1.0

net.rotations.0.I f4 [2, 2]
00000000: 0000 803f 0000 0000 0000 0000 0000 803f
1.0 0.0 0.0 1.0

net.flow_mapping.0.scale_layers.0.b f4 [1, 2]
00000000: fbe9 0d3d a0b8 78ba
0.03464697 -0.00094879605

net.flow_mapping.0.scale_layers.0.logs f4 [1, 2]
00000000: cbb7 0f3c db2a 6d3b
0.008771847 0.0036188874

net.flow_mapping.0.scale_layers.0.b_init f4 [1, 2]
00000000: 0000 0000 0000 0000
0.0 0.0

net.flow_mapping.0.scale_layers.0.logs_init f4 [1, 2]
00000000: 0000 0000 0000 0000
0.0 0.0

net.flow_mapping.0.scale_layers.1.b f4 [1, 2]
00000000: adc6 e83c 433c c83d
0.028415048 0.09777119

net.flow_mapping.0.scale_layers.1.logs f4 [1, 2]
00000000: 2c32 efbc 5f35 a13d
-0.029198729 0.07871508

net.flow_mapping.0.scale_layers.1.b_init f4 [1, 2]
00000000: 0000 0000 0000 0000
0.0 0.0

net.flow_mapping.0.scale_layers.1.logs_init f4 [1, 2]
00000000: 0000 0000 0000 0000
0.0 0.0

net.flow_mapping.0.scale_layers.2.b f4 [1, 2]
00000000: 4010 253c 046d 81bd
0.010074675 -0.06319621

net.flow_mapping.0.scale_layers.2.logs f4 [1, 2]
00000000: 19d2 833c ed06 9bbc
0.016091393 -0.0189242

net.flow_mapping.0.scale_layers.2.b_init f4 [1, 2]
00000000: 0000 0000 0000 0000
0.0 0.0

net.flow_mapping.0.scale_layers.2.logs_init f4 [1, 2]
00000000: 0000 0000 0000 0000
0.0 0.0

net.flow_mapping.0.scale_layers.3.b f4 [1, 2]
00000000: 5dbd 803d b7d0 833d
0.06286118 0.064362936

net.flow_mapping.0.scale_layers.3.logs f4 [1, 2]
00000000: 20cc 42bd 89ea 09bc
-0.04755795 -0.008417734

net.flow_mapping.0.scale_layers.3.b_init f4 [1, 2]
00000000: 0000 0000 0000 0000
0.0 0.0

net.flow_mapping.0.scale_layers.3.logs_init f4 [1, 2]
00000000: 0000 0000 0000 0000
0.0 0.0

net.flow_mapping.0.scale_layers.4.b f4 [1, 2]
00000000: 8b81 9dbc dae9 bd3d
-0.01922681 0.09273119

net.flow_mapping.0.scale_layers.4.logs f4 [1, 2]
00000000: 6146 693b 4ad4 073d
0.0035594928 0.03316144

net.flow_mapping.0.scale_layers.4.b_init f4 [1, 2]
00000000: 0000 0000 0000 0000
0.0 0.0

net.flow_mapping.0.scale_layers.4.logs_init f4 [1, 2]
00000000: 0000 0000 0000 0000
0.0 0.0

net.flow_mapping.0.scale_layers.5.b f4 [1, 2]
00000000: 8608 d3bc b948 78bc
-0.0257609 -0.015154057

net.flow_mapping.0.scale_layers.5.logs f4 [1, 2]
00000000: cccf 563c 1f1b 50bd
0.013111066 -0.050807115

net.flow_mapping.0.scale_layers.5.b_init f4 [1, 2]
00000000: 0000 0000 0000 0000
0.0 0.0

net.flow_mapping.0.scale_layers.5.logs_init f4 [1, 2]
00000000: 0000 0000 0000 0000
0.0 0.0

net.flow_mapping.0.scale_layers.6.b f4 [1, 2]
00000000: e7a7 34bc 8471 4bbd
-0.011026359 -0.049668804

net.flow_mapping.0.scale_layers.6.logs f4 [1, 2]
00000000: 4bdd c33d 57df e83d
0.09563693 0.11370724

net.flow_mapping.0.scale_layers.6.b_init f4 [1, 2]
00000000: 0000 0000 0000 0000
0.0 0.0

net.flow_mapping.0.scale_layers.6.logs_init f4 [1, 2]
00000000: 0000 0000 0000 0000
0.0 0.0

net.flow_mapping.0.scale_layers.7.b f4 [1, 2]
00000000: 29a9 c23b 3e12 d93d
0.0059405756 0.105991825

net.flow_mapping.0.scale_layers.7.logs f4 [1, 2]
00000000: 81bb 9c3d 74a0 d23c
0.07652951 0.025711276

net.flow_mapping.0.scale_layers.7.b_init f4 [1, 2]
00000000: 0000 0000 0000 0000
0.0 0.0

net.flow_mapping.0.scale_layers.7.logs_init f4 [1, 2]
00000000: 0000 0000 0000 0000
0.0 0.0

net.flow_mapping.0.affine_layers.0.net.0.weight f4 [24, 1]
00000000: 6489 fcbe 4983 a53e f7a4 90ba d468 f93d
00000010: 5ec7 c3be 902a 553e f5a9 5cbd 749c 16bf
00000020: 3287 41bf 1280 26bd 5490 28bf 12cb 27be
00000030: ea5f ac3e 5179 e1bd ee7d aebe b043 07bb
00000040: 0696 273f 3421 8fbe 8042 0f3e 235a 7abf
00000050: d533 fbbe bbe8 993e a192 e4be 85cc 903d
-0.4932357 0.32326725 -0.0011035491 0.121781975 -0.38238043 0.20817018 -0.05387302 -0.5883248
-0.75596917 -0.04064948 -0.6584523 -0.16386059 0.33666927 -0.110094674 -0.34080452 -0.002063971
0.6546329 -0.2795502 0.13990211 -0.9779379 -0.49062982 0.30060372 -0.4464312 0.07070259

net.flow_mapping.0.affine_layers.0.net.0.bias f4 [24]
00000000: 6d4e 29bf cebd 96bf f19a ddbc a01c f9bc
00000010: db24 04bf cc65 943e 595c e4be f0b5 4abf
00000020: 19f2 0cbf fa08 c8be fd76 62bf 6523 153f
00000030: 2d35 45be 84d7 df3d 42bc 993c efae 10bd
00000040: 3767 80be bf47 c23d 5097 773d 9da0 da3e
00000050: ae4e 27bf d9ca 85bf b54c 2cbf 3756 1ebf
-0.66135293 -1.1776674 -0.02705142 -0.030409157 -0.51618737 0.28983915 -0.44601706 -0.79183865
-0.5505691 -0.3906935 -0.8846281 0.5825713 -0.19258566 0.10929778 0.018766526 -0.03532308
-0.25078747 0.09486341 0.060447037 0.42700663 -0.6535443 -1.0452529 -0.67304546 -0.61850303

net.flow_mapping.0.affine_layers.0.net.2.weight f4 [24, 24]
00000000: 4379 e9bd f5d2 25bd e2e1 f7bc 4259 44be
00000010: 5d1b 88bd f147 c0bc c084 dcbd 22cd 74bd
00000020: fa30 0abe 5e37 aebd 6d61 98bd e090 85be
00000030: a241 b4bc f28c 88bc 2352 023d c672 933d
00000040: 9914 c0bd 1a5b adbd 19c6 46be cd73 eabd
00000050: 8d6d 903d 8fb7 a8bc 1d02 34bd fef8 febd
00000060: 4f1d 22be cbf1 883c d083 33be 2601 103d
00000070: 0221 d2bd 9da9 aabd d506 043e 93f5 fcbd
00000080: 1316 c63d 04d6 363d 5a15 793d 2ae3 afbd
00000090: ada4 b03d 595a bd3c b26f bfbd 3b1b 31bd
000000a0: 4601 9bbc e763 0dbe 0d0e 663d ce83 693d
000000b0: 2705 15bd 614a d43d 4f13 813c a47f ddbd
000000c0: 917c a2bd ae82 f03d d6da 433c 1586 95be
000000d0: a168 b23d f6a4 c1be 9ebf bfbd df7c 55bd
000000e0: 1a85 b3bb 1229 a33d 0c87 b4bd 0234 9abe
000000f0: 1802 84be 274d 2abe 1683 40be 58c5 113d
00000100: ae30 bfbd 5586 a1bd cc0f 46be 71ff d7bd
00000110: 8e61 24be f19b 9b3e 7fa2 f0bd db9a 84bd
00000120: 920a b4be d4be d73c e262 31bd 8696 c0bd
00000130: c266 34bf 1a96 683d 58d1 aebd 50a8 23bf
00000140: e336 b4bf 8b4d 26bc 2715 d3be 3ad7 1c3e
00000150: 4724 cabe 2fd4 0b3e 8f76 cc3e 6a2f 85bd
00000160: bee8 fbbe 5724 073e 561f 6abd 012b 963d
00000170: 94df 73bf 9129 17bf 9316 96bf 5712 58bd
00000180: 5a23 eab8 6fdc 68be abb5 8cbe 4c54 42be
00000190: 6ac1 cb3b 1dc7 0fbe 3115 ab3d d2a4 63bd
000001a0: 3674 05be b3b3 c53d 6248 843d 0f48 a7be
000001b0: 5389 1bbe 0975 5d3d e6a5 f7bd 1485 88bc
000001c0: 4d5b 14be 9f49 abbd 18a9 9ebe 4da8 dabd
000001d0: 3bcd 433d 508f 80be 8da3 9fbd 5674 a23d
000001e0: 6f77 f1bd 6d9b 02be 2d18 353d 808a c0bd
000001f0: b652 03bd af6d 2abe a2f5 32bd 3d67 b83c
00000200: 57ce 04be 61d5 b13d 84a7 013d 0352 403d
00000210: 4d23 9d3b d484 44be e92f d4bd ad7e a33d
00000220: cfc7 8fbd f493 773c 3b0c d5bd 9f92 fdbd
00000230: 0931 333d e032 03be 7ed9 6bbd c623 93bd
00000240: 7019 50bd 8ceb 023f c006 913d f306 123e
00000250: 2f08 013d f74f 0cbe be42 503c 81e1 a93c
00000260: ba1c ff3e eb66 113d b8b0 fb3b 7e6d e93d
00000270: 3a55 43bf 82bf c7bd 4655 913d 956e 48b9
00000280: 95c6 49bf bf95 f43d ad3e 713d b084 1fbc
00000290: a533 083e cf32 163f 6913 c43e 23b6 b93b
000002a0: 61c4 023e c9b1 5cbe dcda 34bd 5784 46bd
000002b0: cb76 c2bd 30b5 433d 6f07 b2bc 3609 2f3d
000002c0: 8952 473d 4dbe c7bd b9fc f2bd a7a9 ce3b
000002d0: 64d5 48be 6556 b1bd e91e 383c f453 97bd
000002e0: d75e 063d 10c3 1fbe 923d f9bd e752 a8bd
000002f0: a523 e73d bb18 31be ff54 a23d 2f35 9cbd
00000300: a44d 8fbd 3547 febd 7d2e 17be 9ddc 3cbe
00000310: 9c18 8fbd 37e1 90be 95b1 85bd 788f 0a3e
00000320: d7c0 9bbc d6c4 973c c815 d0bd 2387 8bbd
00000330: 6028 7abe 83c5 8dbe 587e 97be 29f8 8dbd
00000340: 47e3 8abe 6a76 13be 04cb b3bd 8480 94be
00000350: 9bc4 a33d d84b 913c cb96 c8bd 321c 88bd
00000360: 7d7c 36bd 0f0a 593c bd6a 1ebe c3bc 00be
00000370: e824 983b 42e6 00be 02d4 6bbd 307c babd
00000380: 1d4c 48bd 169e 0c3e 3543 e73b d6b5 e7bd
00000390: bca3 d4bd 4f1d 3dbe ccae f43d 71ab 39be
000003a0: 37f9 af3d d594 3c3d 7cca 31be 5791 9ebd
000003b0: 0c75 043d 7b81 293c 7da9 d43b 2298 aa3d
000003c0: 0d22 56be b055 89bf d92e 3e3b 3ae9 cbbc
000003d0: 3870 2ebf 519a 3a3d a6fe 8c3c 0cd7 27bf
000003e0: 9171 58bf 825e eebd 292a c6be 80b3 7b3d
000003f0: 7514 a33e bb92 123e ff45 e43e e4b0 723d
-0.11400082 -0.040484387 -0.030259077 -0.19174674 -0.06645844 -0.023471804 -0.107675076 -0.059765942
-0.13495246 -0.08506654 -0.074404575 -0.26087093 -0.022003952 -0.01666877 0.031816613 0.07199626
-0.09378929 -0.08464642 -0.19411506 -0.114478685 0.07052145 -0.02059534 -0.043947328 -0.12449835
-0.15831493 0.016716858 -0.17530751 0.035157345 -0.10260202 -0.083331324 0.12893231 -0.12351527
0.09672179 0.044637695 0.060811378 -0.0858825 0.086251594 0.02311437 -0.09347476 -0.04323886
-0.018921506 -0.13807641 0.056165744 0.057010464 -0.036381867 0.10365749 0.015756277 -0.10815361
-0.079339154 0.11743675 0.01195403 -0.2920386 0.08711363 -0.37821168 -0.0936272 -0.05212104
-0.0054785134 0.07966818 -0.08814821 -0.30117804 -0.25782847 -0.16630994 -0.18800005 0.035588592
-0.09335457 -0.0788695 -0.19341964 -0.105467685 -0.16052839 0.3039241 -0.11749744 -0.06474849
-0.35164315 0.026336111 -0.043307193 -0.0940371 -0.70469296 0.056783773 -0.08536023 -0.639287
-1.407925 -0.010150324 -0.41227075 0.15316477 -0.39480802 0.1365516 0.39934203 -0.06503184
-0.49201006 0.13197456 -0.05715879 0.07332421 -0.9526303 -0.590478 -1.1725639 -0.052751865
-0.00011164574 -0.22740339 -0.27482352 -0.18977469 0.006218125 -0.140408 0.08353651 -0.055577107
-0.13032612 0.096534155 0.064591184 -0.32672164 -0.15189104 0.05406669 -0.120921895 -0.01666502
-0.14487953 -0.083636515 -0.30988383 -0.10676632 0.047803145 -0.2510934 -0.07794867 0.079323456
-0.11790358 -0.12754603 0.04421251 -0.09401417 -0.0320613 -0.16643403 -0.043691285 0.022510165
-0.12969337 0.08683277 0.031653896 0.046953212 0.004795468 -0.19191295 -0.10360701 0.07983146
-0.07020532 0.015110958 -0.104027234 -0.123814814 0.043747935 -0.12812376 -0.057580464 -0.071845576
-0.05080551 0.51140666 0.070813656 0.14260463 0.031501945 -0.13702379 0.012711225 0.020737411
0.49826604 0.03549854 0.0076809786 0.11397837 -0.7630192 -0.09753324 0.07096343 -0.00019114681
-0.7881864 0.11942624 0.058897663 -0.009736225 0.13300951 0.5867128 0.3829606 0.0056674643
0.12770225 -0.21552195 -0.044154033 -0.048466053 -0.09495314 0.047780216 -0.02173206 0.042733394
0.048662696 -0.09753094 -0.11864609 0.006306845 -0.19612652 -0.086590566 0.011237838 -0.0738906
0.03280529 -0.15601754 -0.12169947 -0.08218937 0.112860955 -0.1729459 0.07926368 -0.076273315
-0.06997231 -0.124159254 -0.14763828 -0.18443532 -0.06987116 -0.28296825 -0.06528012 0.13531291
-0.019012852 0.018526476 -0.101604044 -0.06812885 -0.24429464 -0.27689752 -0.2958858 -0.069320984
-0.27126524 -0.1440064 -0.087789565 -0.290043 0.07996484 0.01773636 -0.097943865 -0.06646003
-0.044552315 0.013247027 -0.15470405 -0.12572007 0.0046430714 -0.12587836 -0.057575233 -0.09105718
-0.048900712 0.1373218 0.0070575722 -0.11313979 -0.10382792 -0.18468212 0.11947402 -0.18131806
0.08592456 0.046040375 -0.17362398 -0.07742565 0.032338187 0.010345812 0.006489931 0.08329798
-0.20911427 -1.0729275 0.0029019623 -0.024891485 -0.6813998 0.045557324 0.01721127 -0.6556251
-0.8454829 -0.1163912 -0.3870404 0.06145048 0.31851545 0.14313786 0.44584653 0.059250727

net.flow_mapping.0.affine_layers.0.net.2.bias f4 [24]
00000000: e6c1 dcbc c15e 1bbe a663 06be b0db 063e
00000010: 5a0e a6be 1036 98bd b204 813d 0adc 23be
00000020: 5b1a 9ebd 75e7 a73c 9c05 573d 9577 72bd
00000030: 4de3 d6bd c62a fabd ce71 09bf f1da 393d
00000040: 1ca2 b1be 2661 cebe 9944 273d 5f22 a9bc
00000050: 2fe8 c63e f4e2 0ebb 83f5 95be 65eb c6be
-0.026947927 -0.15172864 -0.1312395 0.13169742 -0.32432824 -0.074321866 0.06299724 -0.16001907
-0.07719871 0.02049611 0.052495584 -0.059196074 -0.10492573 -0.1221519 -0.5368928 0.045374814
-0.34693992 -0.40308493 0.040836904 -0.020646272 0.38849017 -0.0021802755 -0.29288873 -0.38851467

net.flow_mapping.0.affine_layers.0.net.4.weight f4 [24, 24]
00000000: 6db9 3dbe a439 4b3d 1a70 c03d 4990 573e
00000010: d520 223e 417c 00bc bf0d 13bd 57e2 183e
00000020: 9f8d 863e 9e03 843d 67e9 fa3d 5769 4f3d
00000030: 1b75 71bd dcc6 36bd 2607 783e 966f b7bd
00000040: d0bb d63d c4f1 cc3e 0e42 dabd adfc 133e
00000050: d5c2 0e3f 4eb3 783b e2f7 b6be cf3e 03be
00000060: 9a3f bb3d edbc dc3d ccf2 e4bd da43 0fbd
00000070: 336c 80bd 7c86 d4bd 5bc5 d1bd 4ab4 3e39
00000080: f446 b23d 56f0 23bd 5e12 b03d 4a5b b33d
00000090: 4fff e2bd 7924 b7bd 77a7 04be 545d 3a3d
000000a0: 1775 91bd 0423 f2bd 2169 7dbc 9677 333c
000000b0: 7121 78bd 51e1 8dbd 9799 59bd 27b6 6bbd
000000c0: 90d8 493d 4690 e63d df15 40be 61fe 6ebe
000000d0: e1af c8bd 7996 443d b896 803e 5554 953d
000000e0: 6e8c ecbd e653 5c3b f5e7 d6be 49e1 25be
000000f0: 212c d53d dc24 3fbe 554e b1be 2c3c 36be
00000100: 7534 bcbd 33e4 0cbf 7f0a 81bd eb83 083e
00000110: d2e0 393e aff6 f1be 5a70 3dbf 24b9 46bd
00000120: 30b9 ec3d f309 063d 7162 11bd bb57 7c3c
00000130: 8d53 6cbd 1c7f 533d a098 17be b416 bbbd
00000140: 31a7 03be 0aac adbd c80b f7bc ad7d 6abd
00000150: b67d eb3d 0a6b 1ebc d942 a73d de66 e53d
00000160: 1057 8e3c da42 9ebd 1bea 873d 0d65 f8bd
00000170: 153d 00be be0d 86bd 175b 83bd 4972 85bd
00000180: 350b aebd a7a6 1fbc c289 f1bb a1b6 553c
00000190: 9d7d e13c b155 8dbd 9268 293d 66c1 a3bc
000001a0: 7172 8c3d be01 ab3d d7b9 62bd 01b2 733d
000001b0: 325c e0bb f1b8 46bd 0ff6 29be 3718 60bd
000001c0: 8b0a b1bc 3856 bfbd 974e 05be d5f5 3abd
000001d0: 9835 9c3c 9810 fe3b 1a48 1bbe 80a7 f3bd
000001e0: cb56 e23d 5e4f da3d ef2b a03d 3faa b6bd
000001f0: f138 fb3d 2b49 a3bc b97e 67bd 50f6 6dbc
00000200: c16f af3d 776e 2f3d 87dc ab3a 86bf 153d
00000210: 7623 0a3e 572a eebd 03fb c7bd 0e21 e5bd
00000220: 65d1 9e3c 9fb0 88bd 59f4 773d 28a3 c93d
00000230: a5b5 a93c 78d0 73bd 7975 1cbd fab5 683c
00000240: bdee 33bd 1a10 e7bd 19e6 27bc 77f0 90bc
00000250: 59e3 e1bb a7e4 5d3b 44ec 15be 5558 7bbc
00000260: 4536 40bd 5695 30be f492 89bd 9adf ccbc
00000270: 6a5e b83d 0d98 dfbd 3a95 e2bc 6f3e c83c
00000280: 6456 8dbd c856 303d c103 bcbd afde c83c
00000290: cc37 6a3c 5ab6 21be 8988 453c 8f27 46bd
000002a0: f330 e73c d733 c73d b678 8bbd 7465 023e
000002b0: 3160 b33d a32a b0bb b4a3 053e a1a4 eebd
000002c0: a34d 8abe 946e 8bbc da16 c03c c423 09be
000002d0: 9bfe acbd f3ca 063e 2030 953f 9083 afbd
000002e0: c33c 8d3f 5120 55be 3b1d 0ebe ac06 b1bc
000002f0: c22e 563e 139a 4ebf 93f0 f63e 9f85 253f
00000300: 9bf4 7ebc 8463 63bd 30ba 5c3d 55c1 42be
00000310: a9c1 09bd a07e 35bc 2583 9a3c b1fa cebd
00000320: 6fc2 fdbd 86b2 b0bd 648f 9e3c ace0 c4bd
00000330: 029b 61bd c3e6 a73d ee64 a8bc 383c 123c
00000340: e70b 05bd a543 de3c 30c1 9f3d 9be7 5c3d
00000350: 528c fabe 5930 a93c 3dde d7bd 130f 47be
00000360: 989d e7bd 8277 e9bd 4ae6 083c bd68 6c3d
00000370: 406e 953d 1d7a 2dbd 4559 47be 8e87 aebd
00000380: 3bb1 ec3c 8be8 3a3d 2476 50be 00f6 ee3d
00000390: bff4 91bd 07d3 90bd ca71 9d3c 0e06 053e
000003a0: 762c 753d 3241 d43d 4c0c c4bd 661e 803d
000003b0: da10 b9bd be6d a5bd 1e78 93be 1027 04be
000003c0: ef02 77be 8c76 053e 8b71 2cbe a929 da3d
000003d0: 859a 0abe 4cb9 25be 13b9 9b3e 4f89 a6bc
000003e0: 1b20 183e da2e 033c 4868 883e f767 203e
000003f0: a160 883c fd93 80be 40b1 f1bf bfee b3bd
-0.18527766 0.049615517 0.09396382 0.21051134 0.15832837 -0.007842124 -0.03590178 0.14930092
0.26279923 0.064460024 0.12251549 0.05063757 -0.05894957 -0.04462324 0.24221477 -0.0895683
0.10485041 0.40028203 -0.1065713 0.14451857 0.5576604 0.003794867 -0.35735995 -0.12816928
0.091429904 0.10778222 -0.11179122 -0.034976818 -0.06270637 -0.10377213 -0.10242721 0.00018186975
0.087049395 -0.040024124 0.08597253 0.087576464 -0.110838525 -0.089425035 -0.12954508 0.04549916
-0.07102411 -0.11823085 -0.015466959 0.0109538045 -0.060578767 -0.06927741 -0.05312499 -0.05754676
0.049278796 0.11257987 -0.18758343 -0.23339225 -0.09799171 0.047995064 0.2511499 0.07291476
-0.11550222 0.0033619343 -0.41973844 -0.1619922 0.104088075 -0.18666404 -0.34630075 -0.17796391
-0.09189693 -0.55035704 -0.0630083 0.13331573 0.18152168 -0.47258517 -0.7399956 -0.048516408
0.11558759 0.032724332 -0.03549427 0.015401776 -0.057696868 0.051634893 -0.14804316 -0.0913519
-0.12856747 -0.084800795 -0.030156985 -0.05724876 0.11498587 -0.009669075 0.08167047 0.11201261
0.017375499 -0.07727595 0.06636449 -0.12128649 -0.12523301 -0.0654559 -0.064138584 -0.06515939
-0.08498231 -0.009744323 -0.0073711583 0.01304403 0.027525717 -0.0690111 0.04135949 -0.01998968
0.068577655 0.08349942 -0.055353012 0.05949593 -0.006846928 -0.048516218 -0.1659777 -0.054710593
-0.021611473 -0.09342617 -0.13018261 -0.0456446 0.019068524 0.007753443 -0.15164223 -0.118971825
0.11051711 0.10659669 0.0782088 -0.089191906 0.1226672 -0.01993235 -0.056517337 -0.0145240575
0.08566237 0.042829957 0.0013111987 0.036559604 0.1349009 -0.116291694 -0.097646736 -0.11187945
0.019386956 -0.06674313 0.060535762 0.09845573 0.020716498 -0.059524983 -0.03819797 0.014203543
-0.04392885 -0.11282368 -0.010247731 -0.017692788 -0.006893557 0.0033858211 -0.1464091 -0.015340884
-0.046926755 -0.17244467 -0.06717482 -0.025008965 0.09002383 -0.10917673 -0.027659047 0.024443833
-0.06901243 0.04305151 -0.091804035 0.024520246 0.01429553 -0.15792218 0.012056478 -0.04837757
0.028221583 0.097266845 -0.06810133 0.12734014 0.087585814 -0.0053761764 0.13050729 -0.11652494
-0.27012357 -0.017020501 0.023448396 -0.1339255 -0.08447 0.13163356 1.1655312 -0.085700154
1.1034168 -0.20813109 -0.13878338 -0.021609627 0.20916274 -0.8070385 0.4823042 0.64657015
-0.015561248 -0.055514827 0.0538885 -0.19019063 -0.033631954 -0.011077553 0.018861363 -0.10106409
-0.12390601 -0.08627801 0.019355483 -0.09613165 -0.055079468 0.08198311 -0.02055594 0.00892549
-0.032482054 0.027131865 0.078005195 0.053931814 -0.4893518 0.020652937 -0.105404355 -0.19439344
-0.113093555 -0.113997474 0.008355686 0.057717074 0.07296419 -0.042352784 -0.19467647 -0.08521949
0.028893104 0.045631927 -0.20357567 0.116680145 -0.0712676 -0.070715 0.019219298 0.12990591
0.059856854 0.103639975 -0.09572658 0.06255798 -0.09036417 -0.08077572 -0.2880258 -0.12905526
-0.24122213 0.13033503 -0.16840188 0.10652477 -0.13535507 -0.16183966 0.30414638 -0.020329146
0.14855997 0.008006776 0.2664206 0.1566466 0.016647639 -0.25112906 -1.8882217 -0.087857716

net.flow_mapping.0.affine_layers.0.net.4.bias f4 [24]
00000000: 33d4 bbbc 8566 26bd a77b d33e 88d9 ddbd
00000010: 86e7 cabd 3847 81bd d8fc 86bd ceff 2a3e
00000020: c284 b4bd 9925 8fbd 164f e23d e1ae 13be
00000030: 6514 b33d 206d cfbc fd76 48be 9326 2ebd
00000040: 042e 96be 26da e8bb 852f 223d b99d 8ebe
00000050: 6fe0 13bd a63c 20be 2b56 7abe d265 c0bd
-0.022928333 -0.040625114 0.41305277 -0.108325064 -0.09907441 -0.06312412 -0.06591195 0.16699144
-0.08814384 -0.06989593 0.11050241 -0.1442218 0.08744124 -0.02532059 -0.1957664 -0.042517256
-0.29331982 -0.0071060834 0.0395961 -0.27854708 -0.03610271 -0.15648136 -0.24446933 -0.09394421

net.flow_mapping.0.affine_layers.0.net.6.weight f4 [2, 24]
00000000: 9390 3e3e f82a adbd 09ff fc3d 0fa7 f13d
00000010: e5c5 c6bd 70d9 b9bc fa15 45bd 82ca 3e3f
00000020: 8db7 1bbd 802c 81bd 5958 8dbe d1ad 5abd
00000030: ce14 49be ab7d 68bc c063 df3c 10a6 d2bd
00000040: b83f 993f 311d 023b 1e99 f53c afdd 753d
00000050: 6541 c73e c663 b7bd b62c aabe fe58 c83c
00000060: 7d83 8c3e faa5 f6bd d0d0 29bf d241 46bd
00000070: 6414 153d 1a5b 323d ad03 893d 9375 db3c
00000080: 1828 78ba 399e 953b 640f 833e 7a80 6fbb
00000090: 8990 49be b3a4 133d d4ce 783d 7eda 39bf
000000a0: 3b97 733b 4b5b d53c 5664 473e 9f6d c6bd
000000b0: 0ef5 083e a76a d63d f7d1 d3be 106c 94bd
0.18609838 -0.08455461 0.123533316 0.11799442 -0.09705714 -0.02268669 -0.04811666 0.7452775
-0.038016845 -0.06307316 -0.27606466 -0.05338842 -0.19636843 -0.014190118 0.027269244 -0.1028558
1.197257 0.0019853825 0.029980239 0.060025867 0.3891708 -0.08954577 -0.33237237 0.024456497
0.27444068 -0.12043376 -0.6633425 -0.048402615 0.0363964 0.043543912 0.06690154 0.026789462
-0.00094664237 0.0045659808 0.2559768 -0.0036545084 -0.19684042 0.03604574 0.06074412 -0.7259902
0.0037168998 0.026044508 0.19471869 -0.09688877 0.13374731 0.10469561 -0.41371128 -0.07247174

net.flow_mapping.0.affine_layers.0.net.6.bias f4 [2]
00000000: 78c7 da3d c413 68bd
0.10682577 -0.056659475

net.flow_mapping.0.affine_layers.1.net.0.weight f4 [24, 1]
00000000: 8578 2bbf 4cea 5aba bd3e b1bc f38c d5be
00000010: 3043 293e ad9e 68bc 0927 ffbd 1596 3a3f
00000020: 90ce 3bbf 1f8a f1bd 9751 cdbe c20d a23e
00000030: 5e2b 503f bbc4 8f3e 5901 833d b73b 383f
00000040: fb36 773d 9c02 46bd 17b5 10bf a3e0 3ebe
00000050: 79ea fe3e bc83 6bbe d17c 21bf 98bb 2d3e
-0.66980773 -0.0008350953 -0.021636361 -0.41709098 0.16529536 -0.0141979875 -0.12458617 0.72885257
-0.73362064 -0.11793923 -0.4010131 0.3165112 0.81316173 0.2807978 0.063967414 0.7196612
0.060355168 -0.048342332 -0.5652632 -0.1864038 0.49788263 -0.22999471 -0.6308108 0.16966093

net.flow_mapping.0.affine_layers.1.net.0.bias f4 [24]
00000000: 7b94 83bf 5002 59bc 5fb4 bebe 992f a73e
00000010: 3cb1 6cbe 9cff 8bbd 51f0 1bbf c695 10bf
00000020: 344e 0bbf 3661 4dbf 6ece a03e 1cb2 36be
00000030: 46eb 5dbf d891 b3be a2b2 aebe ac2b c6be
00000040: dc96 db3e c3ad 02bf 0dd0 c5be 5f19 cbbe
00000050: 0bb0 d43d 7990 f9be 1a55 5ebf 6d52 e43e
-1.0279688 -0.01324518 -0.37246987 0.32653502 -0.23114485 -0.06835863 -0.6091357 -0.56478536
-0.54416203 -0.8022646 0.31407493 -0.17841381 -0.86687124 -0.35072207 -0.3412066 -0.38705194
0.42888534 -0.5104639 -0.38635293 -0.39667794 0.1038514 -0.48743036 -0.86848605 0.44594136

net.flow_mapping.0.affine_layers.1.net.2.weight f4 [24, 24]
00000000: a53b 2ebc 1290 e93b 7328 123d 6681 99bd
00000010: 2d02 aa3d 44dc e3bd 48bf 3bbd b176 9c3d
00000020: 8396 02be a63e 8a3d f8de 5dbd 2ca0 13be
00000030: 5c81 d8bd a56a bd3d acdc b33d d42a bebd
00000040: a4e8 acbd a6e4 893c 719c 37bc 73a8 39bc
00000050: 5d22 c5bd ea7a 033e a7b5 09be 72d3 c6bd
00000060: 03d8 e13e b14b f2bc d4ac 7b3d 803a 833d
00000070: 0aeb 79bd c7ca 003d 2597 21bd 41a6 e9bd
00000080: 0e84 0f3e 5d87 203e 06af b4bd f6d7 d8bb
00000090: 223c fabd 4a4f 41be 97a0 e83d 7bc9 8dbd
000000a0: c1f6 1abf bfaf c43c 3003 843e e9c0 a83d
000000b0: a691 b8bd 9bba e63e fe2a 003f dcc8 5bbf
000000c0: 57ba 17be 6be5 16be a6ff 993b 1f78 b7bc
000000d0: 3011 0ebe ab1d 1ebe 032f 063c f47c 523d
000000e0: ecc8 28be 1b20 84bd 9b8e e1bb 52b7 99bd
000000f0: 95e6 33be 0b78 52bc a31a 1abc 44a1 b63d
00000100: adea 7bbd c7a7 f33d fc40 3cbd abc7 1ebe
00000110: 2b96 2cbe 8c18 b1bd 83ce c8bd 2d38 3f3d
00000120: 3d4a 5c3c f748 533c ef41 123c d90a e0bd
00000130: 95e7 1fbe eba1 d3bd 1ac2 b1bd 5487 0fbe
00000140: e4a3 04be d732 a6bd 6bd8 623d 60e5 75bc
00000150: d4df be3d 26e2 cd3c 76c0 1b3d 680e b7ba
00000160: 6ead de3c 22a5 9c3d 641c 53bc dca2 0f3c
00000170: 6e82 8c3d e67f 663c 140d 43bd eddc d0bd
00000180: 7935 cbbc c1c1 ffbd 4997 633d 2729 eabd
00000190: ec48 37bd a79c c4bc 4970 f7bd 79c2 2f3d
000001a0: 94de e2bd cf48 8dbd 9fb1 cebd 56d9 22bb
000001b0: 8d44 e7bd 92bb 423d fad3 ff3d 261e cbbd
000001c0: 4a45 073e 6fb0 603d 1e78 f03d 0dba d9bc
000001d0: c517 633d f989 0d3d 3ed8 1bbd f5d9 d7bd
000001e0: da53 f2be 20d6 7d3d 2b7f e63d dd59 8d3e
000001f0: 913a 04be 9da6 b1ba 995e 8f3d c712 68bd
00000200: cdbf 89be 4e51 0cbf d0bc b53e 3a04 49be
00000210: fc98 91bf a0c3 853b 9d46 223d 0bf9 08be
00000220: 7196 9d3e fdab 7cbc 5e05 e4bd ecdd a7bd
00000230: 2082 96be 70be 36bf 946a f7be b5a6 a3be
00000240: 6656 963b 8df2 3ebd 61f4 01be 1744 11bd
00000250: f706 a83c 7e97 dfbd 4385 223d b612 31be
00000260: 276b debc c1f9 8d3c 1b52 ae3c 9297 5dbd
00000270: d0e4 36be 6df4 e3bd cad3 6bbc 3873 593b
00000280: 003a 96bd 8a48 24bd 470d 17be 2681 a1bd
00000290: c210 7eba 8673 20bd 5b7a f1bc dff7 c83c
000002a0: 4293 e53d 948c a0bc 09e8 acbd c8b4 c5bd
000002b0: e62d 6dbe c052 31bc 8d5a 6fbd 2a52 21be
000002c0: 66d3 cc3d 57fc 65be 8db3 34be 3fdf 02be
000002d0: 8d2a c5bd 3034 fcbd 89e2 88bd d7f9 54be
000002e0: a39e efbd 473f d2bd 0de1 123b 54e2 16be
000002f0: cc24 86bd 321a 1ebe 16e3 0d3e f9ce 493d
00000300: f5f3 1dbd ce9a c53d 6aa3 43bd 3ec2 c4bc
00000310: 8620 0d3d 4081 a1bd 5316 0dbd 54fc 1dbd
00000320: 6b7f 04be 3e56 35bd f8e9 09be 1117 37be
00000330: 3074 623d 8afc 563c 036c 103c cdbf 20be
00000340: 9aa3 9bbd fcdb 51bc a895 45bd 0db2 8b3d
00000350: 543c 66bd a3a3 be3c 5120 ab3d b8e1 933c
00000360: 5cd6 46be 8165 973d 96d6 06be 52f5 82bf
00000370: e4ac 55be 22b0 343d 3361 6b3d 299a 23bf
00000380: 0fea cfbd 9306 173d dbcb 89bf 778a 113e
00000390: 8cbf 92be ad96 30be a990 07bc 35db 03bf
000003a0: 4e50 7b3e 35c5 afbd d0b5 1dbd 9eb4 783c
000003b0: ceb6 be3e 8b82 3dbe 195d 97bc 1c74 1e3e
000003c0: 34e8 dabd 9bb3 8e3b f005 883d 0377 f9bc
000003d0: 14e6 1a3c 07dc b1bd ac5e 973d 3b2d 0abe
000003e0: b35a 09be 7934 963c 1f9b 8f3d 48b2 883d
000003f0: ebe1 7bbc ab4a b4bd 354f 9cba fc76 da3c
-0.010634338 0.00712777 0.035683107 -0.07495384 0.08301196 -0.11125997 -0.045836717 0.07639826
-0.12752728 0.067502305 -0.054167718 -0.1441657 -0.10571548 0.092488565 0.08782324 -0.092855126
-0.0844281 0.01683266 -0.011206732 -0.011331665 -0.09625695 0.12839857 -0.13448201 -0.09708299
0.44110116 -0.029577108 0.06144412 0.06407642 -0.061015166 0.031443384 -0.039450783 -0.114086635
0.14015219 0.15676637 -0.088224456 -0.0066175414 -0.12218501 -0.18877903 0.11358755 -0.06923195
-0.60532767 0.024009584 0.25783682 0.0823992 -0.09012155 0.45064244 0.500656 -0.8585336
-0.14817177 -0.14735954 0.004699665 -0.022396145 -0.13873744 -0.15441005 0.008189919 0.051388696
-0.16482896 -0.06451436 -0.006883455 -0.07505669 -0.17568429 -0.012846003 -0.009405765 0.08917478
-0.0615031 0.11897235 -0.04596041 -0.15505855 -0.1685416 -0.0864726 -0.09805014 0.046684433
0.013445434 0.012895814 0.008926853 -0.10939569 -0.15615685 -0.10333618 -0.086796 -0.14016467
-0.12953144 -0.08115166 0.055382174 -0.015008301 0.093200356 0.02513225 0.038025342 -0.0013966085
0.027182307 0.07648684 -0.012885187 0.008766856 0.06860815 0.014068579 -0.047619894 -0.10198388
-0.024805771 -0.124881275 0.0555642 -0.114336304 -0.044747278 -0.024000479 -0.120819636 0.042910073
-0.1107761 -0.06898653 -0.10092472 -0.002484878 -0.11292372 0.047542162 0.12491603 -0.0991786
0.13210025 0.05485576 0.117416605 -0.026577974 0.05544259 0.03455541 -0.03804802 -0.10539619
-0.473296 0.061971784 0.11254724 0.27607623 -0.12912966 -0.0013553683 0.07000465 -0.056658532
-0.26904145 -0.5481156 0.35495615 -0.19630519 -1.1374812 0.004082158 0.039618123 -0.13376252
0.3077884 -0.015421865 -0.11133836 -0.08196625 -0.29396152 -0.71384335 -0.483235 -0.31963125
0.004587936 -0.046618033 -0.1269088 -0.035465326 0.020511134 -0.10917567 0.03967787 -0.17292294
-0.027150704 0.017331006 0.021279385 -0.054099627 -0.17860723 -0.11130605 -0.014393756 0.0033180248
-0.07335281 -0.04010824 -0.14751159 -0.07885961 -0.0009691828 -0.03917267 -0.029477289 0.024532257
0.11209728 -0.019598283 -0.08442695 -0.09653622 -0.2316204 -0.010822952 -0.058435965 -0.15754
0.100012586 -0.22459541 -0.17646618 -0.12780474 -0.096272565 -0.123146415 -0.06683833 -0.20798431
-0.117001794 -0.102659754 0.0022411973 -0.14734775 -0.06549987 -0.1543968 0.13856158 0.04926965
-0.038562734 0.09648667 -0.047763266 -0.024018403 0.034454845 -0.078859806 -0.03444512 -0.038570717
-0.12939231 -0.0442717 -0.13468158 -0.17879893 0.055286586 0.013121733 0.0088148145 -0.15698166
-0.07599564 -0.012808796 -0.048238426 0.0682107 -0.056209877 0.023271387 0.08355773 0.018051967
-0.19417709 0.07392407 -0.13167796 -1.0231116 -0.20866734 0.044113286 0.057465743 -0.63907105
-0.10152065 0.036871504 -1.0765337 0.14212976 -0.28661764 -0.17244978 -0.008274236 -0.5150636
0.24542353 -0.08582536 -0.038503468 0.015179781 0.37248844 -0.1850683 -0.01847701 0.1547398
-0.106888205 0.0043549067 0.066417575 -0.030452257 0.009454269 -0.08684545 0.07391104 -0.13493817
-0.13413505 0.018335568 0.07012009 0.066746294 -0.015373687 -0.08803304 -0.0011925461 0.026668064

net.flow_mapping.0.affine_layers.1.net.2.bias f4 [24]
00000000: 2caf 9ebc d90d f4be 0590 03bd 4380 02be
00000010: 63e7 86bd 70ab 053f 1a1f b2bd ffb4 aebd
00000020: e211 03be f2cd 933e dabb 41be 2b76 af3e
00000030: 6262 f9be 138e fe3b 8d15 5e3e 54ff 8ebd
00000040: 8329 bfbd 04c1 59bd 2be3 0dbe 888b e2be
00000050: bb5f cf3e 106c babc 313a 63bc d4fd d6bc
-0.019370638 -0.47666815 -0.03211977 -0.1274424 -0.06587102 0.5221472 -0.086973384 -0.08530616
-0.1279979 0.2886806 -0.18919316 0.34269843 -0.48707873 0.0077684014 0.21687908 -0.06982294
-0.093340896 -0.05316259 -0.13856189 -0.4424708 0.40502724 -0.022756606 -0.013868854 -0.026244082

net.flow_mapping.0.affine_layers.1.net.4.weight f4 [24, 24]
00000000: 7647 04be 9296 06be 0b63 8c3d 2bc0 9dbc
00000010: c7fc e7bd 735d d1bd 655e 9b3d 0abc 573a
00000020: d0df ac3c 985f 843c 7714 c03c 5b89 7abd
00000030: d2ba e4bd 002e 5e3b 8809 503d b870 0abe
00000040: e5d5 29bc ad89 b53b 00e4 af3d faeb d1bc
00000050: ff62 ec3c 9f82 85bd ff16 07bb 8f27 41bd
00000060: d7a6 bebc c6ba f2bd 763d 16be 41ca 8c3d
00000070: f07f 593b 0cf6 d23e 86d3 d63d 8ed8 873d
00000080: c742 2a3d 634f 03be b8cf 92bd 5e34 9cbf
00000090: 2ffe bbbc d84b 72bc 5fbb 01c0 0a6d c23d
000000a0: d467 ee3b 8f71 e93d 0074 033e d0b9 803d
000000b0: 8722 863e 2bfe 45bc 4d24 9b3d 26b1 3abd
000000c0: d0c9 a6bd 6336 9cbd 0312 0a3d f811 9f3d
000000d0: 2e93 0d3d 039c dcbd f2f3 1f3d 0c69 843b
000000e0: 2b22 863d 8e5e 473f 8abb 203e 95e0 603e
000000f0: 820e 0ec0 e5f3 e23d 4821 81be 405a 7e3c
00000100: e7bf c7bd 798e 1abd 706e 863d 06da dcbd
00000110: b20b c7bb 58a8 5a3c 6db5 133d e9fc a03d
00000120: e70e a5bd 09aa 39bd 49d6 39be 26a0 193d
00000130: d27f 703d de23 7bbe f60a 4ebd 8f2f 703e
00000140: 2885 ab3d 953f a13d 2f0f 113d 46af b53d
00000150: f813 a83e 22d6 27be a77f ca3c 364e 513d
00000160: 19c1 a13b bea6 a1bd a96e 133d b24e abbd
00000170: 38fd cfbe 24b5 273c 7005 b6bc 7143 64bd
00000180: 6f25 fdbd ef34 38bd 7839 3f3d 0b8a ec3c
00000190: 3267 9e3c c455 063d 08ac 003e 1557 07be
000001a0: 557b 37bc f601 8b3d e97c bd3d c1ab 23bd
000001b0: 531f 33bd 7985 66bd 73d3 bdbc f733 693c
000001c0: d494 4abc 751d cdbd 6726 c9bd abdd 8a3d
000001d0: 317f a23c 6321 3cbd ad4c 01be 0311 2c3d
000001e0: a726 8ebc 6544 dcbd 5bcb 803d 2c26 34bd
000001f0: b6ff a03d 8f65 f6bd 1a0c dfbc 3c57 c5bd
00000200: da42 6abd eae5 92bd f49c d1bc 65f9 393d
00000210: d58f 99bd 0493 943c 8a12 343c b6b3 8ebb
00000220: 0a37 babd dd72 fabd cbbd c83d 2b87 743d
00000230: 6c38 fabd 1807 afbc 34c9 2a3c 8751 473d
00000240: 1e5c 2dbd e81f 56be 265d 393d 9cc8 053c
00000250: 5e85 dd3d 870a 03bf c634 48ba fabf f4bd
00000260: b2b3 433c 7f23 12be 74a4 af3c 878a e0be
00000270: 5ec1 ffbf 71d0 cd3c be1d 9dbe 9903 08bd
00000280: 21ff 14bc ee9c a9bd 7350 09be 1150 68be
00000290: 3784 ce3e 4b95 fcbd 22a6 27be e589 18bd
000002a0: 209d 293d 6013 debd 58d9 f5bc 061b fabc
000002b0: 7061 e43d 4f21 733e 51d3 babd 1517 023c
000002c0: da5a 943d 9c92 cf3e b61c 9fbc eaec 92be
000002d0: 1ef2 1fbe f686 363d b829 bebe f6d4 ebbb
000002e0: f3b8 753d 379c b33d b994 403e cd5d 1abc
000002f0: 61fb b9bd bfd4 883d 31cb 22be cf34 d93c
00000300: 1375 83bb 973a 6abe ee1d 0d3d 8785 97bd
00000310: f1c5 093d 5679 24bd 4beb 5e3d a618 93bd
00000320: 4aab 8fbd 48f8 223f 4aa5 17bd 9feb 003e
00000330: 84af e4bf 8c5f 55bd 469c 93be c253 ad3d
00000340: 431a 21be 024a 34bd 339c 6cbc abf9 bbbe
00000350: 5b26 96bb d07b 013e 16a9 8fbd c49a e13b
00000360: a515 233d 820e 823d 7bad 75be d812 2abe
00000370: fb2e a9bd 5240 9bbe d445 d6bd 6943 523d
00000380: 75de 02bd 0c22 853e 4414 a23d caa5 dcbe
00000390: e7fc bcbe 3fe8 88bd a6ca f5bf f90d 103d
000003a0: 3ce1 d83d 4743 a7bd ab48 453d 48e0 8bbd
000003b0: ccf5 e63e 51e5 f5bd dcc3 223d 029c 29bd
000003c0: 8acd 79bd 1af8 47bc 9b47 a93c 6dc4 f9bc
000003d0: 4a0d 903c 17e0 03be ea8b ba3d 2238 a6bd
000003e0: eea6 0abd 7a70 823d f833 dd3d 337d 2f3d
000003f0: 616a 94bc 1f4b e7bd 147b 583c e897 d2bd
-0.12917885 -0.13143376 0.068548284 -0.019256672 -0.1132751 -0.10222902 0.07586364 0.0008229619
0.021102816 0.016158864 0.023447258 -0.06116615 -0.11168446 0.003390193 0.05079034 -0.13519561
-0.010365938 0.005540094 0.085884094 -0.025625218 0.028855799 -0.065190546 -0.0020613072 -0.047156867
-0.023272915 -0.118520305 -0.14671883 0.06874514 0.003318783 0.41203344 0.10489564 0.066331014
0.04156759 -0.12823252 -0.071685255 -1.2203481 -0.022948353 -0.01478859 -2.0270612 0.09493454
0.007275561 0.11398613 0.12837219 0.06285441 0.26198217 -0.012084524 0.07575283 -0.0455791
-0.081439614 -0.07627561 0.033708584 0.07767099 0.03456419 -0.107719444 0.039051004 0.004040843
0.06549486 0.77878654 0.1569654 0.21960671 -2.2196355 0.110816754 -0.25220704 0.015524447
-0.09753399 -0.03773353 0.06564033 -0.10783772 -0.0060743922 0.0133458 0.036061693 0.07860739
-0.08059483 -0.045328174 -0.1814815 0.037506245 0.05871565 -0.24525401 -0.050303422 0.23455642
0.08375007 0.078734554 0.03541487 0.088713214 0.32827735 -0.16390279 0.024719073 0.05109998
0.004936349 -0.07893132 0.035994206 -0.08364619 -0.40622878 0.010236058 -0.02221939 -0.05572838
-0.123606555 -0.044972356 0.046685666 0.028874418 0.019336317 0.032796636 0.12565625 -0.13216813
-0.011198838 0.067874834 0.0925234 -0.03995872 -0.043731045 -0.056279633 -0.023172116 0.014233581
-0.012364585 -0.10015384 -0.09821778 0.06780561 0.01983604 -0.045930278 -0.12626906 0.04200841
-0.017352415 -0.10755233 0.06288787 -0.043981716 0.07861273 -0.120310895 -0.02722745 -0.09635779
-0.05719266 -0.07172759 -0.025587536 0.045403857 -0.07498137 0.018136509 0.010990748 -0.0043549193
-0.09092529 -0.1222894 0.09801825 0.05969922 -0.12217793 -0.021365687 0.010423947 0.048661735
-0.042324178 -0.20910609 0.04525485 0.008165505 0.108164534 -0.5118794 -0.00076372584 -0.11950679
0.011944698 -0.14271353 0.021440722 -0.43855688 -1.9980886 0.025123807 -0.30686754 -0.033206556
-0.009094031 -0.08281885 -0.13409595 -0.22686793 0.40335247 -0.12333163 -0.16371968 -0.03724088
0.04140961 -0.10843539 -0.030010864 -0.030530464 0.11151397 0.23743175 -0.09122337 0.0079400735
0.07243891 0.40541542 -0.01942287 -0.28696376 -0.15619704 0.044562303 -0.37141204 -0.007197018
0.059990834 0.0877003 0.18806733 -0.009421778 -0.0908115 0.06681203 -0.15897824 0.026514439
-0.004011759 -0.22873913 0.03445237 -0.07398515 0.033636037 -0.040154777 0.05442361 -0.07182436
-0.07015093 0.636601 -0.037022866 0.12589882 -1.7866063 -0.052093074 -0.28830165 0.08463241
-0.15732674 -0.04401589 -0.014441538 -0.3671392 -0.004582209 0.12644887 -0.070146725 0.0068849046
0.039815564 0.063504234 -0.23991959 -0.16608751 -0.08260914 -0.3032251 -0.104625374 0.05133382
-0.031950433 0.26002538 0.079140216 -0.43095237 -0.369117 -0.066849224 -1.9202468 0.035169575
0.10589835 -0.08167129 0.048165005 -0.06829888 0.45109403 -0.12006629 0.039737567 -0.041408546
-0.060987033 -0.012205148 0.020664027 -0.03048917 0.017584462 -0.12878452 0.09108718 -0.08116175
-0.033850603 0.063691095 0.10800928 0.04284401 -0.018117132 -0.11293625 0.013212938 -0.1028288

net.flow_mapping.0.affine_layers.1.net.4.bias f4 [24]
00000000: 4e76 67bd cc13 603e 98c2 22bc eb5c 9cbe
00000010: e220 3cbe 0b7b 8cbc 6d8a 143e c5d5 9d3e
00000020: b81f a4bc cfaf 683e dc3a 3dbe c041 e4bd
00000030: d2a8 0f3d de76 3dbe d2a7 863e e325 6b3e
00000040: 9d5f 043e ae05 13bd 944c 9fbd 8782 a6bd
00000050: dd0c 31be 3317 febc b125 b9be 95b7 11be
-0.05650931 0.21882552 -0.00993409 -0.3053964 -0.18371919 -0.017148515 0.1450593 0.30827156
-0.020034656 0.22723316 -0.18479484 -0.11145353 0.03507311 -0.18502375 0.26299912 0.22963671
0.12927099 -0.03589409 -0.07778278 -0.08130365 -0.17290063 -0.031016922 -0.3616157 -0.14230187

net.flow_mapping.0.affine_layers.1.net.6.weight f4 [2, 24]
00000000: 4ae6 c5bd f83e a0be a4be c8be 6d89 79be
00000010: bbc7 22bd 4e0a ee3d 9743 803e d9b8 73be
00000020: 79d4 93be 857e 89be f8a1 bc3d d949 1c3d
00000030: 6a96 e3bb e38f c83c 6692 7fbe 896a 863e
00000040: 6953 babd 6344 4f3f dc01 7abe b39f 9b3d
00000050: 8201 9a3d 38eb 61bb f84d 39ba 86ff 2c3e
00000060: 8bf1 683b 2a64 21bc bca1 ce3e 080f b7be
00000070: 5c88 7c3d 714f 0b3e f786 883f 04c5 853d
00000080: 47c7 933e 522f c6bd a396 293d 4855 95bd
00000090: 1985 003d 5ea5 c23b 73df 573d bf87 143f
000000a0: fa03 933e 25dd b93d 287b 093b 2ff5 833c
000000b0: 2151 e9bd b127 083b 7dd4 cebe efc3 683d
-0.09663065 -0.3129804 -0.39207947 -0.2436883 -0.03974126 0.11623059 0.25051567 -0.23800983
-0.2887304 -0.2685434 0.092105806 0.038156364 -0.006945421 0.024482673 -0.2495819 0.26253155
-0.090979405 0.80963725 -0.24414772 0.075988196 0.07519819 -0.0034472477 -0.0007068808 0.1689435
0.0035544361 -0.009850541 0.4035777 -0.35753655 0.06165348 0.13604523 1.0666188 0.065317184
0.28862974 -0.096769944 0.041403424 -0.07291657 0.03137693 0.0059401235 0.052703332 0.5801963
0.2871397 0.09075383 0.0020977948 0.016108124 -0.11392427 0.002077561 -0.4039649 0.05682748

net.flow_mapping.0.affine_layers.1.net.6.bias f4 [2]
00000000: 35bd 78be a50e ec3d
-0.24290927 0.11526231

net.flow_mapping.0.affine_layers.2.net.0.weight f4 [24, 1]
00000000: b80d a33e f19b 8bbd 3bdf 3abf 133b 7fbf
00000010: e861 e6bc a082 a13c 72f4 623e f2b9 e93e
00000020: 894b 653e 2759 8cbf 977e 21bf f4e1 36bf
00000030: 55c8 2e3f c7eb b0be a516 f6be 0914 793e
00000040: f644 393f 36a6 aa3e f5ed 06bf 43d5 ae3c
00000050: 2776 23bf 7ccb 3e3b 3ba2 38bd dfa7 343f
0.31846404 -0.06816853 -0.7299687 -0.99699515 -0.028122857 0.019715607 0.22163561 0.45649678
0.22392096 -1.0964707 -0.63083786 -0.7143853 0.6827443 -0.34554884 -0.4806415 0.24324049
0.7237085 0.33329934 -0.52706844 0.021341925 -0.6385216 0.0029112985 -0.04507659 0.7056865

net.flow_mapping.0.affine_layers.2.net.0.bias f4 [24]
00000000: a697 983e a16c 85bd ede7 23bf f020 7bbe
00000010: efc9 1cbd eda3 a03e e639 833e dcf6 8ebf
00000020: 7000 833e ac61 d03e bb49 903e e06b 13bf
00000030: 0bcb b8be 94ac c7be a88e 593f 7b7b 023e
00000040: 6a1b 17be 62b7 9b3e 6697 333f 2666 f7bd
00000050: 809e fabe ce86 a9bc 4eb6 34be 7046 233f
0.298032 -0.0651486 -0.64025766 -0.24524283 -0.038278516 0.31375065 0.2563011 -1.1169086
0.2558627 0.40699518 0.28181252 -0.5758648 -0.3609241 -0.38998854 0.849833 0.12742417
-0.14756551 0.30413347 0.7015289 -0.1208003 -0.4894905 -0.020694163 -0.17647669 0.63779354

net.flow_mapping.0.affine_layers.2.net.2.weight f4 [24, 24]
00000000: 95dc 05be f7df 02be caf4 a03d 0cdc a53d
00000010: fd54 b1bb bef3 05be ba62 a9bd 5ba1 9e3d
00000020: a84e 303d 4347 f8bd e4a7 523c a3b6 843d
00000030: 3d41 f5bd 328f aa3d 39f4 74bc a4ed f5bd
00000040: f59e 463d a1c1 96bd 17fb 99bd 5dea 74bb
00000050: dae6 c4bd b2c8 92bd 55e0 e43d 681b 18bd
00000060: 442f 90bf f197 e33c 6d36 88bf 1b17 b43d
00000070: d044 be3c 8a47 1f3e 3aa0 b4bf 8579 f4bd
00000080: a61c a9bf 7544 093e 2bd2 cf3d b5f8 34be
00000090: 062b 4bbd 5b9f 85be b56b 123e cba5 88bf
000000a0: e476 a7bd 253c f2bf 3067 373e c8e8 06be
000000b0: 956d 38be db6d 31be 75bf c9bc 32fb 16c0
000000c0: 92fb 0cbe 8e61 b03d 89d2 623d 64e5 7a3d
000000d0: d4a5 653d 02b0 b53d 73c6 3bbd 8a33 1cbe
000000e0: 905a 973c 90d5 01be 8eed e1bd dd69 35bb
000000f0: 625d 71bd 4196 77bd f92c 83bd 2eda c23d
00000100: 7077 623b cea3 19be c0dd c1bc 4f66 5cbe
00000110: c025 a93c e7a3 6fbd e591 bc3d 7380 a3bc
00000120: 865f bfbd b6da e1bd 4703 6fbd afad 863d
00000130: 07b0 b8bd 9aa9 c13b 688a 8cbc 291b d9bd
00000140: b585 bcbd cbd4 09be b46a 11bb 0e00 bebd
00000150: 8dd9 03be 4371 953c 010a 683c cd19 243d
00000160: 0852 f5ba 58eb d2bc d956 0ebd 24be e13d
00000170: 0887 bbbd 972a f5bd 0da1 7d3d db19 d53b
00000180: 080e bc3c 39c2 94bd bc5a ee3c c7fd d0bd
00000190: 899e a63b 5f7b 8f3d e62c 1e3e 4247 afbf
000001a0: 7a7b f3bc fa70 ccbe 1577 8abe 6f1f febe
000001b0: 4b67 7e3c c171 5cbd 2dd9 723e 55ab c5bb
000001c0: 7ff1 dc3d 3bf5 3c3c a3b1 b33d 9782 033d
000001d0: 1322 ccbe e9a2 d3bc 81d4 f7bd 28f5 563d
000001e0: ce5c 31be 8b8e 07be ec76 e93d b003 f53c
000001f0: 3317 f53c 4419 84bd f9d8 b1bc a927 98bd
00000200: 9f96 d4ba 8b5c ffbc 3e40 fbbc 8ee3 ebbd
00000210: 053f 72bc f8fc 34bd 78d9 aebd 4db9 a03c
00000220: 4859 d1bd e0aa 30bd d736 66bd 8593 13be
00000230: 8ae0 89bd 1443 e5bd a561 99bd d390 9e3d
00000240: 998f 89bf 8a07 85bd 0e7c 1ac0 99d5 0c3e
00000250: a3fa 5a3d c52b 84be 894b a5bf bb02 cbbd
00000260: 3d29 80bf adab 123e 9743 353e cbd7 3d3f
00000270: faad 2b3d ecfe cabe 917e c83c 050a 84bf
00000280: 99bc 89bd db85 b7bf 7c62 37bd ee2f a43d
00000290: 48ca fb3e f604 00be ca60 80bc 8b61 14c0
000002a0: 7bab aabd 29e9 ccbd 97fb b0bc 6937 a7bd
000002b0: b43e 4f3d d1cd 9f3d 0748 803d cfd0 0fbd
000002c0: f70d f2bd d718 babc a925 7cbc 909e e43c
000002d0: 08b1 16be 6257 18be 36a5 e6bd 91aa f7bc
000002e0: 663f b8bd 5350 8b3c a919 cb3d 033e 49be
000002f0: 7d84 763d b063 173d baff bfbd ccb8 623c
00000300: a667 fdbd 568a 62be 9de7 fabb 7122 5d3d
00000310: eb2a 84bd 48ed abbe 0dd7 14be 9320 f7bd
00000320: 0310 04be 8486 4ebd e4e7 f8bd 6a19 a7bd
00000330: 847f 18bd 3df8 e83d 0241 83be 6752 a7be
00000340: a251 00be 4d2b 99be 7ce7 4ebe 8c61 eebd
00000350: a829 8dbd b796 173b bbfe a4bd 104a dcbd
00000360: b68f 95bd adf3 123d f333 083c 3351 2cbd
00000370: deac 7a3d bfdb ab3c 3de7 b9bd 7e0f f3bd
00000380: 7ffd f03d da02 42bd b2b0 303d 1c2f e33d
00000390: 94de 89bd 4f90 9abc 184c dabd 3c60 c8bd
000003a0: 5528 7f3d 2ddc 96bd 98b5 efbd 1913 d0bd
000003b0: 65f5 bbbc 6759 b1bd 74c6 df3d 92d0 b1bd
000003c0: 9742 733d 5a4a 793d bd9c 31bc 531c a0bf
000003d0: 3e3a ac3c b3c5 853d 2663 8c3d 9b0c 45be
000003e0: b518 b13d 5f89 41c0 c922 e8bf 7cb8 07be
000003f0: 74fd e9bf 4edc d63c 6694 9e3d 1af1 8f3c
-0.13072427 -0.12780748 0.0785919 0.08098611 -0.0054117427 -0.13081262 -0.08270784 0.0774562
0.043043762 -0.12122967 0.012857411 0.06480148 -0.11975334 0.083280936 -0.014950805 -0.12008217
0.048491437 -0.073611505 -0.07518595 -0.0037371137 -0.09614344 -0.07167186 0.111756004 -0.03713551
-1.1264424 0.027782412 -1.064161 0.087934695 0.023226172 0.15554634 -1.4111397 -0.119372405
-1.3211868 0.1340502 0.10147508 -0.17672999 -0.049601577 -0.2609814 0.142989 -1.0675596
-0.081769735 -1.8924605 0.17910457 -0.13174736 -0.18010552 -0.17327063 -0.024627427 -2.3590817
-0.13767841 0.08612357 0.055376563 0.06125392 0.05606635 0.088714615 -0.045843553 -0.15254036
0.0184758 -0.12679124 -0.11031638 -0.0027681508 -0.058926947 -0.060446028 -0.06405062 0.09514271
0.0034556054 -0.15003893 -0.023665309 -0.21523403 0.020647883 -0.05850592 0.09207515 -0.01995871
-0.093443915 -0.11028044 -0.058352735 0.06576096 -0.090179496 0.0059101107 -0.017155841 -0.106008835
-0.0920519 -0.1346008 -0.0022188844 -0.09277354 -0.12875958 0.018242484 0.014162541 0.040063668
-0.0018716464 -0.025746986 -0.034750793 0.110225946 -0.091566145 -0.11971014 0.061921168 0.0065033264
0.02295591 -0.072636075 0.029096 -0.10204654 0.005084817 0.07005953 0.15446815 -1.3693621
-0.029721964 -0.39929944 -0.27043977 -0.49633357 0.015527557 -0.05381942 0.23715658 -0.0060323873
0.10788249 0.011533077 0.08774116 0.032106962 -0.39869747 -0.025834518 -0.12101079 0.052479893
-0.17320558 -0.1323797 0.11399636 0.029908985 0.029918289 -0.064501315 -0.021709906 -0.074294396
-0.0016219205 -0.031172058 -0.030670281 -0.11518012 -0.014785533 -0.044186562 -0.085375726 0.019619608
-0.10222107 -0.04313171 -0.056204643 -0.14411743 -0.067322806 -0.11194435 -0.07489327 0.07742467
-1.0746948 -0.064955786 -2.4138217 0.13753356 0.053461682 -0.25814644 -1.2913677 -0.0991263
-1.0012585 0.14323302 0.17701565 0.741574 0.041913964 -0.39647615 0.024474414 -1.0315558
-0.06725425 -1.4337724 -0.044771656 0.08016954 0.49177766 -0.12501892 -0.015671153 -2.3184536
-0.083334886 -0.10005409 -0.021604342 -0.081648655 0.050596908 0.07802928 0.06263738 -0.035111245
-0.1181907 -0.022716923 -0.015389838 0.02790764 -0.1471597 -0.14877084 -0.1126198 -0.0302327
-0.08996467 0.017006075 0.09917004 -0.19652562 0.060184944 0.036960304 -0.09374948 0.013838004
-0.12373285 -0.22123083 -0.007657005 0.053987924 -0.064534985 -0.3357947 -0.1453516 -0.1206676
-0.12896733 -0.050421253 -0.121536046 -0.08159144 -0.037230983 0.11375473 -0.25635535 -0.32680055
-0.1253114 -0.29915848 -0.20205492 -0.11639699 -0.06892711 0.0023130605 -0.080563985 -0.10756314
-0.07302801 0.03587692 0.008313167 -0.042069625 0.061200015 0.020978807 -0.09077308 -0.11868189
0.117671005 -0.047366 0.04313726 0.1109297 -0.067319065 -0.01886764 -0.10659045 -0.0978398
0.062294323 -0.07366214 -0.11704558 -0.101598926 -0.022944162 -0.0865963 0.10926524 -0.0868236
0.059389677 0.060861923 -0.010840592 -1.2508644 0.021023866 0.06531849 0.068548486 -0.1924309
0.086472906 -3.0240095 -1.8135616 -0.13253969 -1.8280473 0.026228096 0.077431485 0.01757102

net.flow_mapping.0.affine_layers.2.net.2.bias f4 [24]
00000000: e942 603d 71ba de3d 7843 93bd fcc6 bdbd
00000010: 2018 d5bd 3531 03be a01c 25be fa3f ebbd
00000020: 2d8c 50be fe85 153b 693f 983d 7759 05bd
00000030: fab0 debd cec5 7c3d 8210 a0be 88ea 503d
00000040: 5963 c2bd 9cde 823c 102a 1ebc 3b01 9abd
00000050: 835d f0bd c14f d43d 4742 013e 7bf7 123d
0.05475131 0.108754046 -0.07190603 -0.09266469 -0.10404992 -0.1281174 -0.16124201 -0.11486812
-0.20365973 0.0022815461 0.074339695 -0.032556023 -0.10873599 0.06171208 -0.31262594 0.051004916
-0.09491605 0.015975289 -0.009653583 -0.07519766 -0.11736586 0.10366774 0.12622939 0.035880547

net.flow_mapping.0.affine_layers.2.net.4.weight f4 [24, 24]
00000000: d9b1 b7bd 23e6 8cbd 46ae 03be 7702 dfbd
00000010: 55d3 3cbe 939a a6bd dd82 47be 324f c5bd
00000020: 479b 173d fb61 02be 6874 22bc a995 223d
00000030: f05d 29be e15d 4bbd 74b2 eabc e0c7 a8bc
00000040: 83ef b53d 36ab 883d b084 d03d b293 aa3d
00000050: a1a0 353d 70ce adbd 817e 10be e1b5 33be
00000060: 0716 f03d 34de 7abe 5a94 893d cc3a 7d3d
00000070: 5ecd 933b 377b d93c 7484 0c3d 2a66 b43d
00000080: d97a dcbd f5b3 0f3c e09e e0bd cdbf 623d
00000090: d5e6 0c3d b0b0 d6ba 5633 d5bd bad9 13bd
000000a0: 9113 33bd b768 14bd d21b 97bd 37f9 8d3c
000000b0: 0191 ba3d cea1 21be c84f 97bd d1a7 a3bd
000000c0: d78b 2c3d da62 74bd c569 903d e2f5 e8bd
000000d0: 1255 37be c144 1cbe 3a3a 81bd 41b8 0bbe
000000e0: 78c3 fcbd 5278 fd3c 94d6 e8bd cec8 a23d
000000f0: 2323 933d f4f6 04bd 2474 1cbd 809c 273d
00000100: 4e3a 4b3c 2ce2 babc 7874 c33d 69ef 7dbd
00000110: 0718 3cbb ac21 693d 5844 20be 6f55 313d
00000120: 0f14 debc 528b dfbd a1f3 c4bd fe3e 92bd
00000130: d7d3 3a3d ce3f f7bc 0b68 32be 2e9c 20be
00000140: 7e5f a13c 6e44 713c 1546 5b3d 4333 0b3e
00000150: a5e6 f93c fd52 e1bc 023a 18be bf5e 093e
00000160: 412b 30bd 085e f0ba 6016 9fbd 17da 643b
00000170: 8afb f63c c089 84bd 315a 6dbe b3f3 36be
00000180: c551 cc3c 4cb0 453c fd98 5f3d bf9f 9e3d
00000190: d1d7 31be ea7b be3c 7671 5c3d 6c65 193c
000001a0: 12ab 6c3c a16f c6bd 9010 c33d 7bba e53d
000001b0: ad6d 14bc cb9b a63d 583d b9bd ef9f 803c
000001c0: 0fc4 abbd 714a f3bc 280d 0d3c 8dd4 ef3d
000001d0: 3e56 01be 38be 92bd 7841 cebd 3ec1 dc3c
000001e0: 73d7 c6bd bbcc b3bd b788 08bd 40fa 3cbc
000001f0: 5eb3 3bbd 2f92 e23c f53e da3d e0e7 babd
00000200: 66ff 27bd 2ab3 c5bd 58e8 d23d 26cb 8bbd
00000210: f70d b03d a52d 8a3d 8bb9 483d b2c9 afbb
00000220: 60e0 aa3d a9c2 ecbd 05e2 bcbd a5b3 e6bd
00000230: 4782 29be df6a 85bd fe40 cfbd 14f9 1fbe
00000240: d3b7 9dbd 6682 50bd 2b3d e7bd 88ce a53d
00000250: 3167 90be db64 8b3d 09c4 16be 33df 43bc
00000260: 999e 803d d638 1a3d 8f96 bf3d 4e9f 7dbd
00000270: 9d11 1abe 48e1 23be bc12 a83b 0659 903d
00000280: f71f 01be dd2b 74be 485b a4bc ab8d 0d3d
00000290: 11f2 0e3d 7714 b4be 6c60 21be e315 a2be
000002a0: 3f7a a73c 0e55 d8be 139f 7a3d 421f a13d
000002b0: 4e64 1cbe 1e30 563d 682b 8f3d ae1f 82bd
000002c0: 81a2 8abd c545 64bd 0a10 c6be 2457 663d
000002d0: bec7 193e 5d27 273d 635c eb3e 3653 60bd
000002e0: 4619 22bc b977 b13e 1188 d43d cffa 13bc
000002f0: dd12 a53d e473 5c3e 8c4e a63c bafa 9d3e
00000300: 5fdd cc3b 459d 7e38 79fc dcbc 7d85 83bd
00000310: 7b0d b33c 0bc1 4cbd 2688 58bd 43cb 243e
00000320: 9591 cfbd ad49 063e b5be 24bd 0a4a ed3d
00000330: 906a 403e d0b8 fbbd 0486 40be 17da 5dbc
00000340: a5c9 bc3b ce18 30bf f095 bf3c af86 debd
00000350: 3b12 3c3e d5aa 94be 9998 c13e 9eeb 913d
00000360: c175 f8bc 5bfb 4fb9 b97d d8bc 0d19 e0bd
00000370: cde5 b2bc 319f 503d 9dfe 35be 44bd 9b3d
00000380: a157 e33d f803 30bd 4e7a 7f3c d6e5 e8bd
00000390: 3cd8 d3bc decb 943d 982a 9e3d 0884 7b3d
000003a0: 09c6 9f3d 0d52 00be 865c ea3d 0b26 5c3d
000003b0: 996d a9ba 0972 dfbd 7049 acbd de3b 56bb
000003c0: e3c6 033e 2a4c 0abf 0d47 553d ce66 d6bd
000003d0: 54be 03be 5852 8cbd 2f96 7abc 99ef bf3d
000003e0: a693 b43c ec55 f7bc 9a71 30be 49be 223d
000003f0: 18a3 aebd 8413 d0bd 3618 933e 0836 06be
-0.089694686 -0.068798326 -0.12859449 -0.10889142 -0.18439992 -0.081349514 -0.19483514 -0.09634246
0.03701332 -0.12732689 -0.009915449 0.03969351 -0.1653974 -0.049650077 -0.028649546 -0.02060312
0.08883574 0.06673281 0.10181558 0.08328952 0.04434264 -0.084866405 -0.14110757 -0.1754985
0.117229514 -0.24498826 0.06717749 0.06182365 0.0045105657 0.026548011 0.034306005 0.08808549
-0.10765619 0.008770932 -0.10967803 0.055358697 0.034399826 -0.0016379561 -0.10410182 -0.036096312
-0.04371983 -0.036232676 -0.07378353 0.017330749 0.091096886 -0.1578438 -0.07388264 -0.07990993
0.04212555 -0.059664585 0.07051424 -0.113750234 -0.17903545 -0.15260603 -0.06309934 -0.13644506
-0.1234197 0.030941162 -0.113690525 0.07948457 0.07184436 -0.032462075 -0.038196698 0.040920734
0.012404038 -0.022812925 0.09543699 -0.061995897 -0.0028700845 0.056916878 -0.15651071 0.043294366
-0.027109174 -0.10915245 -0.09616781 -0.07140921 0.045612182 -0.030181792 -0.17422502 -0.15684578
0.019698855 0.014725788 0.053533632 0.13593774 0.030505488 -0.027505392 -0.14865878 0.13415049
-0.04301 -0.001833857 -0.077679396 0.003492003 0.03014924 -0.06471586 -0.23178937 -0.17866401
0.024941335 0.012065958 0.05458926 0.07745313 -0.17367484 0.023252446 0.053819142 0.00936256
0.014445083 -0.0968926 0.095246434 0.11217209 -0.009059352 0.08135184 -0.090449035 0.015701262
-0.083870046 -0.029698582 0.008609094 0.11710463 -0.12630555 -0.071651876 -0.10071081 0.026947614
-0.097090624 -0.087792836 -0.033333506 -0.011534274 -0.045825355 0.027657596 0.10656539 -0.09126258
-0.04101505 -0.096533135 0.10298222 -0.06825857 0.085964136 0.06746987 0.049005073 -0.00536462
0.083435774 -0.11560566 -0.09222797 -0.11264733 -0.16553603 -0.06514525 -0.10119818 -0.1562236
-0.07701077 -0.050905608 -0.11290964 0.08096033 -0.2820373 0.06806346 -0.14723219 -0.01195507
0.0628025 0.03765186 0.09354889 -0.061919503 -0.15045781 -0.16003907 0.0051291864 0.0704823
-0.1260985 -0.23844858 -0.020063058 0.034558933 0.03489882 -0.35171863 -0.15759438 -0.31657323
0.020444034 -0.42252392 0.06118686 0.0786729 -0.15272638 0.052291982 0.06990701 -0.06353699
-0.067692764 -0.0557306 -0.38684112 0.056235448 0.15017602 0.040809024 0.45968923 -0.054766856
-0.009893721 0.34661654 0.10377515 -0.009031965 0.080602385 0.21528584 0.020301126 0.30855352
0.0062519754 6.0704788e-05 -0.026975857 -0.06421945 0.021857014 -0.049988788 -0.052864216 0.16093163
-0.101351894 0.13114043 -0.040220935 0.115863875 0.1879065 -0.122911096 -0.18801123 -0.013540766
0.0057613426 -0.6878785 0.023386925 -0.108655326 0.1836633 -0.29036584 0.37811735 0.071250185
-0.030329587 -0.00019834696 -0.026427137 -0.10942278 -0.021838093 0.050933067 -0.17772909 0.07604459
0.11100698 -0.042972535 0.015593125 -0.11371963 -0.025859945 0.07265447 0.07722968 0.06140521
0.07801444 -0.125313 0.11443429 0.053747218 -0.0012926339 -0.10910422 -0.084124446 -0.0032689492
0.12868838 -0.5402247 0.052069712 -0.10468827 -0.12865573 -0.06851643 -0.015294596 0.093718715
0.02204306 -0.030192338 -0.17230836 0.03973225 -0.085272014 -0.10159972 0.2872941 -0.13106549

net.flow_mapping.0.affine_layers.2.net.4.bias f4 [24]
00000000: deeb 443d 5314 bfbd 790e 65be dd84 8ebc
00000010: 401b 48be b71e 343d 4912 03be 9b34 e3bc
00000020: d471 ae3e b69d 4d3d a3b3 e9bd a790 10be
00000030: 6331 313e e2d3 a0bc f141 473e 5945 cbbc
00000040: 8023 9fbe 1f6b 943c d17b 863e ed72 273d
00000050: 4762 65bd 811a 69bd 00ba 943c a916 68bd
0.048076503 -0.093300484 -0.22368802 -0.017397339 -0.19541645 0.043974604 -0.12799944 -0.027735045
0.3407122 0.050199233 -0.11411216 -0.1411768 0.17303996 -0.019632284 0.19458748 -0.024813341
-0.31081772 0.018117486 0.2626634 0.040881086 -0.056001928 -0.05691004 0.018155098 -0.056662235

net.flow_mapping.0.affine_layers.2.net.6.weight f4 [2, 24]
00000000: c85b d93c fb29 8abd 0d4f 963d 1dad 933b
00000010: c3df 4d3e 1780 133d 1caf cfbd 24a6 8c3e
00000020: 887b cfbe 3985 7ebc e2a4 783e 1280 88bd
00000030: b1f3 c5bd b29b e63c 7097 26be 9bf7 8bbd
00000040: 43e5 c73f 92d0 373d 9b01 98be ad95 cfbd
00000050: 04ec 67bd 8a8b 7e3d c234 493e a720 92bc
00000060: f865 94bd 76f2 973c 028e 02bc c3fe 593d
00000070: bbbf 2bbc 1d24 c5bd dee7 18bc 8071 1b3e
00000080: 6b58 5dbe d84b 68bd b4f8 743e 481d 04be
00000090: 1605 b53e 0996 32be 65e7 c53e 835a 743d
000000a0: 01a3 b6bd 89aa 873d a868 86be d91a 863d
000000b0: 1371 0bbd 0d60 d53d 94c7 e7bd 43bb 5e3e
0.026533023 -0.067462884 0.073392965 0.0045067207 0.2010489 0.036010828 -0.10140821 0.27470505
-0.40523934 -0.015534692 0.24281648 -0.066650525 -0.09665621 0.028150413 -0.16268706 -0.06834336
1.561684 0.044876643 -0.29688725 -0.1013597 -0.056621566 0.062144794 0.19649032 -0.017837835
-0.072460115 0.018548232 -0.007968428 0.053221475 -0.010482724 -0.09626029 -0.009332625 0.15180016
-0.2161576 -0.056712955 0.23922998 -0.12901795 0.35355443 -0.17440046 0.38653103 0.05965663
-0.08917809 0.06624324 -0.2625172 0.065480895 -0.034043383 0.10418711 -0.113173634 0.21751122

net.flow_mapping.0.affine_layers.2.net.6.bias f4 [2]
00000000: 7385 7bbe ba0e ca3c
-0.24562626 0.024665225
