param/model_iter50000_my_data_10_32_5.pth (torch, 249537 bytes, 174 tensors)

net.rotations.0.LU f4 [2, 2]
0	0x00000000	0.0
1	0x00000000	0.0
2	0x00000000	0.0
3	0x00000000	0.0

net.rotations.0.LU_init f4 [2, 2]
0	0x3f800000	1.0
1	0x00000000	0.0
2	0x00000000	0.0
3	0x3f800000	1.0

net.rotations.0.ones_mat f4 [2, 2]
0	0x3f800000	1.0
1	0x3f800000	1.0
2	0x3f800000	1.0
3	0x3f800000	1.0

net.rotations.0.I f4 [2, 2]
0	0x3f800000	1.0
1	0x00000000	0.0
2	0x00000000	0.0
3	0x3f800000	1.0

net.flow_mapping.0.scale_layers.0.b f4 [1, 2]
0	0xbeb00e42	-0.34385878
1	0xbe44e445	-0.19227703

net.flow_mapping.0.scale_layers.0.logs f4 [1, 2]
0	0xbd85a4f4	-0.06525603
1	0xbe04e6fe	-0.12978742

net.flow_mapping.0.scale_layers.0.b_init f4 [1, 2]
0	0x00000000	0.0
1	0x00000000	0.0

net.flow_mapping.0.scale_layers.0.logs_init f4 [1, 2]
0	0x00000000	0.0
1	0x00000000	0.0

net.flow_mapping.0.scale_layers.1.b f4 [1, 2]
0	0xbdd25516	-0.10270135
1	0xbe8c957b	-0.27457795

net.flow_mapping.0.scale_layers.1.logs f4 [1, 2]
0	0xbdf0e8f5	-0.11763183
1	0xbd70b784	-0.058768764

net.flow_mapping.0.scale_layers.1.b_init f4 [1, 2]
0	0x00000000	0.0
1	0x00000000	0.0

net.flow_mapping.0.scale_layers.1.logs_init f4 [1, 2]
0	0x00000000	0.0
1	0x00000000	0.0

net.flow_mapping.0.scale_layers.2.b f4 [1, 2]
0	0xbe3791e6	-0.1792675
1	0xbcadc855	-0.02121369

net.flow_mapping.0.scale_layers.2.logs f4 [1, 2]
0	0xbd549619	-0.051900957
1	0xbdd3e677	-0.10346692

net.flow_mapping.0.scale_layers.2.b_init f4 [1, 2]
0	0x00000000	0.0
1	0x00000000	0.0

net.flow_mapping.0.scale_layers.2.logs_init f4 [1, 2]
0	0x00000000	0.0
1	0x00000000	0.0

net.flow_mapping.0.scale_layers.3.b f4 [1, 2]
0	0xbda7c836	-0.08192484
1	0xbe000c2d	-0.12504645

net.flow_mapping.0.scale_layers.3.logs f4 [1, 2]
0	0xbdbec380	-0.093146324
1	0xbd049345	-0.03236701

net.flow_mapping.0.scale_layers.3.b_init f4 [1, 2]
0	0x00000000	0.0
1	0x00000000	0.0

net.flow_mapping.0.scale_layers.3.logs_init f4 [1, 2]
0	0x00000000	0.0
1	0x00000000	0.0

net.flow_mapping.0.scale_layers.4.b f4 [1, 2]
0	0xbde00355	-0.109381355
1	0xbd741974	-0.059594586

net.flow_mapping.0.scale_layers.4.logs f4 [1, 2]
0	0xbca85222	-0.020546976
1	0xbdc700fb	-0.09716984

net.flow_mapping.0.scale_layers.4.b_init f4 [1, 2]
0	0x00000000	0.0
1	0x00000000	0.0

net.flow_mapping.0.scale_layers.4.logs_init f4 [1, 2]
0	0x00000000	0.0
1	0x00000000	0.0

net.flow_mapping.0.scale_layers.5.b f4 [1, 2]
0	0xbd87e447	-0.06635337
1	0xbd706643	-0.058691274

net.flow_mapping.0.scale_layers.5.logs f4 [1, 2]
0	0xbd88edba	-0.06685968
1	0xbc449dc2	-0.012000503

net.flow_mapping.0.scale_layers.5.b_init f4 [1, 2]
0	0x00000000	0.0
1	0x00000000	0.0

net.flow_mapping.0.scale_layers.5.logs_init f4 [1, 2]
0	0x00000000	0.0
1	0x00000000	0.0

net.flow_mapping.0.scale_layers.6.b f4 [1, 2]
0	0xbd5bc1a8	-0.053651482
1	0xbda2211f	-0.079164736

net.flow_mapping.0.scale_layers.6.logs f4 [1, 2]
0	0xbbabaa41	-0.0052388017
1	0xbd8d8369	-0.0690983

net.flow_mapping.0.scale_layers.6.b_init f4 [1, 2]
0	0x00000000	0.0
1	0x00000000	0.0

net.flow_mapping.0.scale_layers.6.logs_init f4 [1, 2]
0	0x00000000	0.0
1	0x00000000	0.0

net.flow_mapping.0.scale_layers.7.b f4 [1, 2]
0	0x3d13fcb9	0.036129687
1	0xbd0bc51c	-0.034123525

net.flow_mapping.0.scale_layers.7.logs f4 [1, 2]
0	0xbce222a3	-0.027604407
1	0xbc9d4914	-0.019199885

net.flow_mapping.0.scale_layers.7.b_init f4 [1, 2]
0	0x00000000	0.0
1	0x00000000	0.0

net.flow_mapping.0.scale_layers.7.logs_init f4 [1, 2]
0	0x00000000	0.0
1	0x00000000	0.0

net.flow_mapping.0.scale_layers.8.b f4 [1, 2]
0	0xbd974bf2	-0.07387532
1	0x3d6052b1	0.05476636

net.flow_mapping.0.scale_layers.8.logs f4 [1, 2]
0	0xbbd04e08	-0.0063569583
1	0xbd144527	-0.03619876

net.flow_mapping.0.scale_layers.8.b_init f4 [1, 2]
0	0x00000000	0.0
1	0x00000000	0.0

net.flow_mapping.0.scale_layers.8.logs_init f4 [1, 2]
0	0x00000000	0.0
1	0x00000000	0.0

net.flow_mapping.0.scale_layers.9.b f4 [1, 2]
0	0x3c9279b7	0.017880304
1	0xbd7c7b4b	-0.06164102

net.flow_mapping.0.scale_layers.9.logs f4 [1, 2]
0	0x3d3b3654	0.04570611
1	0xbc50407c	-0.012710687

net.flow_mapping.0.scale_layers.9.b_init f4 [1, 2]
0	0x00000000	0.0
1	0x00000000	0.0

net.flow_mapping.0.scale_layers.9.logs_init f4 [1, 2]
0	0x00000000	0.0
1	0x00000000	0.0

net.flow_mapping.0.affine_layers.0.net.0.weight f4 [32, 1]
0	0x3f1a2dea	0.6022631
1	0x3f370e64	0.71506333
2	0xbd319288	-0.043352634
3	0x3f23c1d5	0.6396764
4	0xbea5287b	-0.32257447
5	0x3f04fb0d	0.51945573
6	0x3f078d23	0.5294973
7	0x3f45362d	0.7703579
8	0xbe6e8d2b	-0.23296039
9	0xbf0e2e0e	-0.55539024
10	0xbf24486a	-0.64172995
11	0x3f30c331	0.6904784
12	0xbea08c89	-0.3135722
13	0xbf0c2c24	-0.54754853
14	0x3f41a2a2	0.7563878
15	0x3f1f2ade	0.62174785
16	0xbf0f8fbb	-0.5607869
17	0x3adadb83	0.00166975
18	0x3e58cd51	0.21172072
19	0xbe9fd8ba	-0.31220037
20	0xbf14b49f	-0.58088106
21	0x3e271a52	0.16318634
22	0xbf00ae81	-0.5026627
23	0xbf3f4a0b	-0.74722356
24	0x3e52f9f4	0.20603162
25	0xbd4685ce	-0.04846745
26	0xbd9a5809	-0.075363226
27	0xbed1844a	-0.4092124
28	0xbef0c6d0	-0.47026682
29	0x3f09cbfa	0.5382687
30	0xbf1c6de3	-0.61105174
31	0x3f36f2d6	0.7146429

net.flow_mapping.0.affine_layers.0.net.0.bias f4 [32]
0	0x3ee2a0ac	0.44263208
1	0x3f6db1f8	0.92849684
2	0x3f0f260d	0.55917436
3	0xbeaec0d1	-0.34131482
4	0xbef43741	-0.47698405
5	0x3e057028	0.13031065
6	0xbea7a004	-0.3273927
7	0x3ecababe	0.39595598
8	0x3f0cc3e0	0.5498638
9	0xbf2ef7dd	-0.6834696
10	0x3ed5a80d	0.41729775
11	0xbd78057f	-0.060552116
12	0x3f10cbf3	0.565612
13	0x3f0997e0	0.5374737
14	0x3efad6ce	0.48992008
15	0xbf2425dc	-0.6412027
16	0x3e106d44	0.14104182
17	0xbf2d458b	-0.6768424
18	0xbdbfec32	-0.093712226
19	0xbea8ae8d	-0.32945672
20	0xbf164ca6	-0.58710706
21	0x3edb6169	0.42847756
22	0x3e0d9594	0.13826591
23	0x3e178519	0.14796866
24	0x3f11909c	0.5686128
25	0x3ec06426	0.37576407
26	0x3f41f4cc	0.75764155
27	0xbef22898	-0.47296596
28	0x3ec082ee	0.3759989
29	0x3edde2da	0.43337137
30	0x3e144ea3	0.14483123
31	0x3be2c7d8	0.006920796

net.flow_mapping.0.affine_layers.0.net.2.weight f4 [32, 32]
0	0x3d9d124d	0.07669506
1	0x3c5e6d68	0.013575889
2	0x3d90cc2c	0.07070193
3	0x3cbb1c9b	0.022840789
4	0x3dbc4e23	0.09194591
5	0xbd69911f	-0.057023164
6	0xbd8acc9f	-0.067773096
7	0xbdc6ae6c	-0.09701237
8	0x3dd7dccf	0.10540163
9	0x3dc46c4c	0.095909685
10	0x3dac59ba	0.084155515
11	0x3de9be70	0.11413276
12	0x3d70bcfa	0.058773972
13	0x3dac744c	0.08420619
14	0xbdb5eec8	-0.088834345
15	0x3d979739	0.0740189
16	0x3de44ca5	0.11147431
17	0xbd0c2992	-0.034219332
18	0xbdb1f33d	-0.08688972
19	0xbaac4ee1	-0.0013146066
20	0x3b8626d5	0.0040939846
21	0xbd4a48ce	-0.04938584
22	0xbce0a716	-0.027423423
23	0x3cfaf4d8	0.030634329
24	0x3d5d37e5	0.054008383
25	0x3cb27dea	0.021788556
26	0xbd8982e5	-0.06714419
27	0x3e00050f	0.1250193
28	0x3db79821	0.08964563
29	0x3e0594ec	0.1304509
30	0xbbe62988	-0.007023994
31	0x3d9a7a48	0.075428545
32	0x3d9cee65	0.07662658
33	0x3d67d9ff	0.05660438
34	0xbe01ef1f	-0.12688874
35	0xbdd1d25f	-0.10245203
36	0xbdfec5a0	-0.12440038
37	0xbe05c46c	-0.1306321
38	0xbd899f9d	-0.06719897
39	0x3d02dc0e	0.03194814
40	0x3ddc67b3	0.107619666
41	0xbc9aa9db	-0.018879822
42	0x3c5b9163	0.013401362
43	0xbe0f8da5	-0.14018877
44	0x3d884718	0.06654185
45	0x3d8a3e0a	0.06750114
46	0xbd04a435	-0.032383163
47	0x3b9e8854	0.004838029
48	0x3d53c4e7	0.051701453
49	0xbde4996c	-0.111620754
50	0x3dbcb59a	0.09214325
51	0xbd648003	-0.055786144
52	0xbdef8a9f	-0.11696362
53	0x3da84479	0.08216185
54	0xbe083e84	-0.13305098
55	0xbdac99d9	-0.084277816
56	0x3dbe6b33	0.092977904
57	0x3d9e1ce7	0.077203564
58	0xbc838c43	-0.016058093
59	0x3d5b1817	0.05348977
60	0xbc9cb1e0	-0.019127786
61	0x3d34a4e8	0.04410258
62	0xbdecdbf4	-0.1156539
63	0x3dd29441	0.102821834
64	0x3dc11b2b	0.0942901
65	0x3dc4a2e5	0.09601382
66	0x3d0fd022	0.0351106
67	0xbd8a3c6a	-0.06749804
68	0xbcb7f008	-0.022453323
69	0xbd477a35	-0.04870053
70	0x3dc214a1	0.09476591
71	0x3e080bdf	0.13285778
72	0x3e071568	0.1319176
73	0x3d26f870	0.040764272
74	0xbd81d937	-0.063402586
75	0xbdefb251	-0.11703933
76	0x3d70586c	0.058678076
77	0xbdeef46c	-0.116677135
78	0x3d24b5f8	0.0402126
79	0x3cf64a13	0.030064618
80	0x3b9d9f7c	0.004810272
81	0xbdb5d762	-0.08878972
82	0x3d7f38ea	0.062310137
83	0xbd97514e	-0.073885545
84	0xbd6492ba	-0.05580399
85	0xba2c0149	-0.0006561471
86	0x3e03d9c0	0.12876034
87	0xbaa8f505	-0.0012890404
88	0xbd303df8	-0.043027848
89	0xba17b0ea	-0.0005786555
90	0x3d794390	0.06085545
91	0xbd87c084	-0.06628516
92	0x3dc60fdc	0.09670994
93	0x3dc34400	0.09534454
94	0x3bf8b573	0.00758999
95	0x3c1fceb5	0.009753873
96	0xbddcf5a4	-0.1078904
97	0x3d8b11bc	0.06790492
98	0xbe0047a8	-0.12527335
99	0xbb43b6c0	-0.0029863566
100	0xbd8f619a	-0.07001038
101	0xbce862e3	-0.028367465
102	0xbd947c06	-0.07250218
103	0xbd56d33a	-0.052447535
104	0x3d9f6975	0.07783786
105	0xbcc663d0	-0.024217516
106	0x3df02a27	0.1172679
107	0xbcc5d341	-0.024148585
108	0xbdcf6089	-0.101258345
109	0xbe085229	-0.13312592
110	0x3c0b8543	0.008515659
111	0x3dd4bd0b	0.103876196
112	0xbd5dcf4a	-0.054152764
113	0xbd448ed2	-0.047987767
114	0x3e0ce145	0.13757809
115	0xbdbf9cb9	-0.09356064
116	0x3d9ac57e	0.075572
117	0x3d02f3b9	0.031970713
118	0xbd0d3182	-0.034471042
119	0xbdfdd7d7	-0.12394684
120	0xbd7397ca	-0.05947093
121	0x3dd62b89	0.104575224
122	0x3df8475e	0.12122987
123	0xbde7534a	-0.11295183
124	0xbe0ace52	-0.13555267
125	0xbe038c6c	-0.12846535
126	0x3de9c583	0.114146255
127	0xbc31746a	-0.010830978
128	0xbe08e242	-0.1336756
129	0xbcf4b584	-0.02987171
130	0xbb8e5278	-0.004343327
131	0xbda78958	-0.08180493
132	0x3d809540	0.06278467
133	0xbe07340a	-0.13203445
134	0xbdaa9754	-0.08329645
135	0xbce18d88	-0.027533308
136	0xbe001892	-0.12509373
137	0xbc8e325a	-0.017357994
138	0xbdf10c1d	-0.117698886
139	0x3dad641d	0.08466361
140	0xbc840dbf	-0.016119836
141	0xbcf09bb2	-0.029371116
142	0x3dfadc8d	0.12249098
143	0x3df7225e	0.12067102
144	0xbc6ff00e	-0.014644636
145	0x3d07e08b	0.033173125
146	0xbcd36051	-0.025802763
147	0xbd7145d4	-0.058904484
148	0xbde04915	-0.10951439
149	0xbd51df69	-0.05123845
150	0xbd222f9b	-0.03959618
151	0x3de54249	0.111942835
152	0x3971229f	0.00022996448
153	0xbd18fa82	-0.037348278
154	0xbdb52322	-0.08844592
155	0x3d9b7cdc	0.075921744
156	0xbd390f8a	-0.045180835
157	0x3dc0deaf	0.094174735
158	0xbd1a5399	-0.03767738
159	0x3dfbd0a7	0.12295657
160	0x3d81a777	0.063307695
161	0xbdc45ccf	-0.09588014
162	0xbde1db24	-0.11028126
163	0x3d810d78	0.06301397
164	0x3ddcbdea	0.10778411
165	0xbd6d35ef	-0.057912763
166	0xbdbf9427	-0.0935443
167	0xbd3d7eab	-0.046263378
168	0x3d5a7650	0.053335488
169	0x3defb22e	0.11703907
170	0xbca67e55	-0.020323912
171	0x3cc0ee77	0.023551209
172	0xbd0902c9	-0.03344992
173	0x3dd34a80	0.10316944
174	0x3deb36b6	0.11485045
175	0x3da3276d	0.07966504
176	0x3df268d3	0.118364
177	0xbd2c0dc4	-0.042005315
178	0xbd6d2f22	-0.057906277
179	0xbdb5870d	-0.088636495
180	0xbe03fc37	-0.12889181
181	0xbde0b954	-0.109728485
182	0xbcbba8d7	-0.022907658
183	0xbd9ecf32	-0.07754363
184	0xbe0bfe35	-0.13671191
185	0xbdacc790	-0.08436501
186	0x3d2d8dfa	0.042371728
187	0xbde9f8f0	-0.11424434
188	0xbd5a3a82	-0.053278454
189	0xbe026a58	-0.1273588
190	0x3d9ba5a5	0.075999536
191	0xbdcef4ff	-0.10105323
192	0xbe0602fa	-0.13087073
193	0x3d91828e	0.071049795
194	0x3daca553	0.084299706
195	0xbda008e0	-0.07814193
196	0x3d5e403f	0.05426049
197	0xbdc8628d	-0.09784422
198	0x3d88394f	0.06651556
199	0x3dc469fd	0.09590528
200	0xbca7debb	-0.020491948
201	0x3cc80163	0.024414724
202	0x3dd87304	0.105688125
203	0xbd2d90ad	-0.0423743
204	0x3dbacd8d	0.09121237
205	0x3e0ac3ca	0.1355125
206	0xbdc1e348	-0.094671786
207	0xbd9f9399	-0.07791824
208	0xbc5fc4af	-0.013657733
209	0xbcf01e99	-0.029311465
210	0xbd80f88b	-0.06297406
211	0xbde5aa4c	-0.11214122
212	0xbd7f0d3a	-0.062268473
213	0xbd3e9afc	-0.046534523
214	0x3dc07d29	0.093988724
215	0xbd7de5a1	-0.06198657
216	0x3ddaf2f8	0.10690874
217	0x3da4b731	0.080427535
218	0x3c3548e3	0.011064741
219	0x3d9e1e64	0.0772064
220	0x3dc9f7ac	0.09861693
221	0x3ca8603d	0.020553702
222	0x3dc5c2a3	0.09656265
223	0x3d109b84	0.03530456
224	0xbdbd5cde	-0.09246229
225	0xbc893e55	-0.016753355
226	0xbdcd3d38	-0.10021442
227	0x3cf6b0ea	0.030113656
228	0x3db3b877	0.08775418
229	0xbd4ca533	-0.049962234
230	0xbe0716fc	-0.13192362
231	0x3c31dc62	0.010855766
232	0xbd68598f	-0.056726035
233	0xbc99dfac	-0.018783413
234	0x3da3c26d	0.07996068
235	0x3da931fb	0.08261486
236	0xbccc94ce	-0.0249733
237	0xbdbe549e	-0.09293483
238	0xbe063e20	-0.13109636
239	0xbd9cb8bf	-0.07652425
240	0x3b3cddea	0.0028818795
241	0x3c93c7a6	0.018039536
242	0xbdc0406c	-0.093872875
243	0x3d05a06f	0.032623705
244	0x3dc78a52	0.097431794
245	0x3caa1c8f	0.02076557
246	0xbd9c280c	-0.07624826
247	0x3d34ecee	0.044171266
248	0xbd9646f7	-0.07337754
249	0xbd5465d4	-0.051854923
250	0xbdb72097	-0.08941763
251	0xbcdd592d	-0.027020061
252	0x3b7d7807	0.0038676278
253	0xbdf6ebf0	-0.1205672
254	0x3e0a9fc7	0.13537513
255	0x3de10630	0.10987508

net.flow_mapping.0.affine_layers.0.net.2.bias f4 [32]
0	0xbdffb29b	-0.12485238
1	0x3e230732	0.15920714
2	0x3d9a3625	0.075298585
3	0x3d1d5c91	0.038418356
4	0xbea21313	-0.31655177
5	0xbdfd8827	-0.123794846
6	0xbd673db5	-0.056455333
7	0xbdfb6a18	-0.12276095
8	0x3e065d9c	0.13121647
9	0xbe32465b	-0.17409651
10	0x3c9055bd	0.017619008
11	0xbdc51375	-0.09622852
12	0xbd061622	-0.03273595
13	0xbe0862a2	-0.13318875
14	0x3e202748	0.15639985
15	0x3db41faf	0.08795106
16	0x3cf78ce1	0.030218543
17	0xbddcebca	-0.10787161
18	0x3d22aa68	0.039713293
19	0xbeb44760	-0.35210705
20	0xbd167abd	-0.036738146
21	0xbe04cf10	-0.12969613
22	0xbd91160f	-0.070842855
23	0xbd81dfcf	-0.06341516
24	0x3c48180b	0.012212764
25	0xbe606751	-0.21914412
26	0x3c207005	0.009792333
27	0xbe2432da	-0.16035023
28	0xbdf55fdc	-0.11981174
29	0xbdadf96e	-0.084948406
30	0xbd1cd8eb	-0.038292807
31	0xbd11bf48	-0.03558281

net.flow_mapping.0.affine_layers.0.net.4.weight f4 [32, 32]
0	0xbd3332ed	-0.04374974
1	0x3df9e0d2	0.12201084
2	0x3e0b5a86	0.1360875
3	0xbca284eb	-0.01983877
4	0x3b72480e	0.0036969217
5	0xbe04cffe	-0.12969968
6	0xbdb3f01e	-0.08786033
7	0x3c09b580	0.008405089
8	0xbe001ede	-0.12511775
9	0x3dec0cda	0.11525889
10	0x3d7caf22	0.061690457
11	0xbdd8352b	-0.10557016
12	0xbd08d39f	-0.033404943
13	0x3cf2b4f2	0.029627297
14	0x3d2e2b3a	0.042521693
15	0x3d685073	0.056717347
16	0x3d9f6e27	0.07784682
17	0xbe1494c5	-0.14509876
18	0xbad1c38f	-0.0016003716
19	0xbde303db	-0.1108472
20	0xbd26103e	-0.040542834
21	0x3cce2014	0.02516178
22	0x3cd918ad	0.026501024
23	0xbd9fc614	-0.07801452
24	0xbde6197e	-0.11235331
25	0x3df03aeb	0.11729988
26	0x3dde64b6	0.10859053
27	0x3dced146	0.100985095
28	0x3dfc786d	0.12327657
29	0xbd85f730	-0.06541288
30	0x3d6111ff	0.054948803
31	0x3d0d5d21	0.034512643
32	0x3db1542e	0.08658634
33	0xbe1891c4	-0.14899355
34	0xbd9b894e	-0.07594548
35	0x3dfc942e	0.123329505
36	0xbdc793e2	-0.09745003
37	0x3d900bb7	0.070334844
38	0x3d071458	0.032978386
39	0xbd85abfa	-0.065269426
40	0xbdc28bd6	-0.09499328
41	0x3d8ec245	0.06970648
42	0xbd9b9245	-0.07596258
43	0x3b934e7b	0.0044954396
44	0xbc00e40c	-0.007866871
45	0x3c9eb544	0.019373544
46	0x3b6139eb	0.0034366797
47	0xbdd8e0f9	-0.10589785
48	0xbc4217b8	-0.011846475
49	0xbdcf8b2e	-0.10133968
50	0x3d93e3ea	0.072212055
51	0xbd85da64	-0.06535795
52	0x3dad0530	0.08448255
53	0xbd842f63	-0.06454351
54	0x3d72f946	0.059319757
55	0xbc94c5f3	-0.018160796
56	0x3db65177	0.08902257
57	0xbd889292	-0.06668581
58	0xbd942363	-0.07233312
59	0x3df815e0	0.12113547
60	0x3d615933	0.055016708
61	0x3d0e908d	0.034805823
62	0xbdc6e7d6	-0.09712188
63	0xbb936ff8	-0.0044994317
64	0xbe004b36	-0.1252869
65	0xbdb27302	-0.08713342
66	0x3dc26684	0.094922096
67	0x3d3f9022	0.046768315
68	0xbe08a91d	-0.13345762
69	0xbd5faad4	-0.054606274
70	0x3d83b95e	0.0643184
71	0x3dcbb1f5	0.09946052
72	0xbd02d56c	-0.031941816
73	0xbdb27083	-0.08712866
74	0x3de81359	0.11331815
75	0x3d80249e	0.06256984
76	0xbdf2448d	-0.11829481
77	0xbde68fde	-0.11257909
78	0x3d296381	0.04135466
79	0x3e068fcf	0.13140796
80	0xbc2d2b51	-0.0105694095
81	0xbd4766d4	-0.04868205
82	0xbdcc1882	-0.09965612
83	0xbd24c59e	-0.040227525
84	0xbd06adba	-0.032880522
85	0xbd42b0e7	-0.04753199
86	0x3cbdc958	0.023167297
87	0xbd8b733c	-0.068090886
88	0xbd898fac	-0.06716856
89	0xbe04cf5a	-0.12969723
90	0xbdee8081	-0.11645604
91	0x3c6f6d07	0.0146133965
92	0x3c8b57d4	0.017009653
93	0x3dd4d8ce	0.10392915
94	0x3dc18101	0.09448434
95	0x3dbaf4c7	0.09128719
96	0xbe020072	-0.12695482
97	0x3db1fb4b	0.086905085
98	0xbd8d9003	-0.06912234
99	0xbc679676	-0.014134994
100	0x3c493497	0.012280605
101	0x3d980055	0.07421938
102	0xbbd259e9	-0.0064194095
103	0x3ca84f70	0.020545691
104	0xbc4923ed	-0.012276632
105	0x3e03b932	0.12863615
106	0x3d8fbdf3	0.07018652
107	0x3d3ed96b	0.046594065
108	0x3dac362c	0.0840877
109	0xbcd1a4c9	-0.025591271
110	0xbde1b27b	-0.110203706
111	0xbdfdf6c0	-0.124005795
112	0xbdb5686f	-0.0885781
113	0xbd6a619f	-0.057222005
114	0x3bc41f52	0.005985179
115	0x3cfddd50	0.03098932
116	0xbdef8d85	-0.116969146
117	0x3cde9528	0.027170733
118	0xbd6e6f89	-0.058211837
119	0x3df18d09	0.117944784
120	0xbe0aabb5	-0.13542064
121	0xbd5119bd	-0.051049937
122	0x3d744ac6	0.059641622
123	0xbe045450	-0.12922788
124	0xbd9d1862	-0.07670666
125	0xbd840762	-0.06446721
126	0xbd5a5d70	-0.053311765
127	0xbd411ea5	-0.047148366
128	0xbde3d98f	-0.111254804
129	0x3d498af7	0.049204793
130	0x3cc76b7a	0.024343241
131	0xbdc88db4	-0.09792653
132	0x3c06e0ca	0.008232305
133	0xbdd3dd52	-0.10344948
134	0x3df7fdc4	0.12108949
135	0xbdcedf4e	-0.10101186
136	0xbe0bf36f	-0.13667081
137	0x3c4244bc	0.011857208
138	0x3c5147e9	0.012773492
139	0x3d20e348	0.039279252
140	0xbc9ff741	-0.01952708
141	0xbdd22cec	-0.102624744
142	0x3c8e0b68	0.017339423
143	0xbe01cec4	-0.12676531
144	0xbd86ab16	-0.06575601
145	0xbe05c8f8	-0.13064945
146	0x3d017371	0.031604234
147	0x3e06fa50	0.13181424
148	0x3d0a098c	0.03370051
149	0x3d256347	0.04037788
150	0x3daa26e1	0.08308197
151	0xbd0d0393	-0.034427237
152	0xbdebdece	-0.11517106
153	0x3d375bf5	0.04476543
154	0xbc2154d2	-0.009846883
155	0xbcbc98e0	-0.023022115
156	0xbbb8b38b	-0.0056366376
157	0xbce3bdb0	-0.027800411
158	0xbd487ec1	-0.048949007
159	0xbdde8f4b	-0.10867175
160	0xbdf238e3	-0.118272565
161	0xbe024577	-0.12721811
162	0x3ca1650f	0.019701509
163	0xbdd75691	-0.10514558
164	0xbd2c291f	-0.042031404
165	0xbe0910df	-0.13385342
166	0x3e042b19	0.12907065
167	0xbda83b9d	-0.08214495
168	0x3e029bb6	0.12754712
169	0xbdd9cbe5	-0.10634593
170	0x3dbb7f34	0.091551214
171	0xbc4ed9d0	-0.012625173
172	0x3df6618f	0.120303266
173	0xbe0ce910	-0.13760781
174	0xbc7db182	-0.015484216
175	0x3d8a0fef	0.0674132
176	0xbc0b6328	-0.008507527
177	0x3d524e10	0.051343977
178	0xbd764ae7	-0.060130026
179	0xbe16e92c	-0.14737386
180	0xbdc994c7	-0.0984283
181	0xbd3cf18c	-0.046128795
182	0xbe042663	-0.12905268
183	0x3b3ec341	0.002910808
184	0xbcb51513	-0.022104776
185	0x3d41e18d	0.047334243
186	0x3c427348	0.0118683055
187	0xbd882a2d	-0.066486694
188	0x3d46f076	0.048569165
189	0xbd96e0d2	-0.073671
190	0xbe14bdf7	-0.14525591
191	0xbe0a0859	-0.13479747
192	0x3d9b804b	0.07592829
193	0xbe0c42d2	-0.13697365
194	0x3bacc037	0.005271937
195	0x3d19bbf1	0.03753275
196	0x3dda14f8	0.10648531
197	0xbd838a3c	-0.064228505
198	0xbd97e557	-0.0741679
199	0xbde166c0	-0.11005926
200	0x3d8ab8f2	0.06773557
201	0x3da192f5	0.07889358
202	0x3dc1f5ba	0.09470697
203	0xbd24ccaf	-0.040234264
204	0xbd918f8a	-0.07107456
205	0x3dc426c3	0.09577706
206	0x3d49e9ca	0.049295224
207	0x3d368c06	0.04456713
208	0x3b1bb786	0.0023760512
209	0xbdef67ea	-0.11689742
210	0xbbb47b2d	-0.0055078478
211	0xbdf8b4f4	-0.12143889
212	0x3cc5bd43	0.024138099
213	0xbd6d3218	-0.0579091
214	0x3c5ecb96	0.013598343
215	0x3daed021	0.08535791
216	0x3c1b14ee	0.009465439
217	0x3d8ca7c1	0.06867934
218	0x3c86b3bc	0.016443126
219	0xbd5520ce	-0.052033238
220	0x3d60fc95	0.05492838
221	0x3d8d2efc	0.06893727
222	0xbdcc5b18	-0.09978312
223	0x3e07ced0	0.13262486
224	0x3ce75df5	0.028243044
225	0xbd818a9d	-0.063252665
226	0xbd567c0d	-0.052364398
227	0x3b7394e6	0.0037167608
228	0x3db9fe45	0.09081701
229	0x3d1c7dd9	0.038205955
230	0xbe081d4a	-0.13292423
231	0xbc556893	-0.013025421
232	0x3d0fb3fc	0.035083756
233	0x3e0c9547	0.1372882
234	0x3d63e917	0.055642214
235	0x3dd7f572	0.10544862
236	0xbae8dce9	-0.0017766032
237	0x3da94469	0.08265001
238	0xbd80e266	-0.06293182
239	0x3b7ba42c	0.0038397415
240	0xbd903c1b	-0.07042714
241	0xbe0ce65c	-0.1375975
242	0x3ddfca0e	0.10927211
243	0xbdcefc7b	-0.101067506
244	0x3debfae1	0.11522461
245	0xbd28a55d	-0.041173328
246	0x3db7cd95	0.089747585
247	0xbdf5e523	-0.12006595
248	0x3c7a6d44	0.01528484
249	0xbda9c383	-0.08289244
250	0x3d9fb244	0.07797673
251	0x3db2844a	0.087166384
252	0xbd8afd4e	-0.06786595
253	0x3d81aed2	0.063321725
254	0xbd76e006	-0.06027224
255	0xbddeaa13	-0.10872283

net.flow_mapping.0.affine_layers.0.net.4.bias f4 [32]
0	0xbd52539b	-0.051349264
1	0x3dd8a887	0.10579019
2	0x3cc21eb6	0.023696285
3	0x3d5064b7	0.0508773
4	0x3d5a5f02	0.053313263
5	0xbe086f9f	-0.1332383
6	0xbde10e46	-0.109890506
7	0xbe09ab54	-0.13444263
8	0x3d986944	0.07441953
9	0xbb0a3598	-0.0021089073
10	0x3def00b2	0.116700545
11	0xbce78089	-0.028259533
12	0xbeb566f2	-0.35430104
13	0x3cc7218d	0.02430799
14	0xbd7a3cec	-0.061093256
15	0xbdcc1946	-0.09965758
16	0x3d6313ee	0.05543893
17	0xbd33c3cd	-0.043887902
18	0x3ed2131f	0.41030213
19	0xbc7d70e1	-0.015468807
20	0x3dca3a76	0.09874432
21	0xbd2a248c	-0.04153876
22	0xbe2a789d	-0.16647573
23	0x3e826b48	0.25472474
24	0x3d90b166	0.07065086
25	0x3cca1844	0.024669774
26	0x3d11d186	0.035600208
27	0x3e756ca5	0.23967226
28	0x3d2897ac	0.04116027
29	0xbde80d13	-0.11330619
30	0xbe4ab00f	-0.19793724
31	0x3e86bce3	0.26315984

net.flow_mapping.0.affine_layers.0.net.6.weight f4 [32, 32]
0	0x3d9da3bc	0.076972455
1	0xbbdc56cc	-0.006724214
2	0x3abee2a6	0.0014563396
3	0xbb9d07d2	-0.004792192
4	0xbde5f208	-0.112278044
5	0x3e07f8c6	0.13278493
6	0xbdbc7b42	-0.09203197
7	0x3d2af17c	0.041734204
8	0x3cd57892	0.026058469
9	0x3c9e54ee	0.019327607
10	0xbe0a50a4	-0.13507324
11	0xbdfa152e	-0.12211071
12	0xbcc07691	-0.023494037
13	0x3cd29a82	0.02570844
14	0xbd88abfb	-0.06673428
15	0xbb493777	-0.0030703226
16	0xbca63b67	-0.020291997
17	0x3e08dad2	0.13364723
18	0xbd84ec63	-0.064904
19	0xbda8a832	-0.08235206
20	0xbcda4c1a	-0.026647616
21	0xbd627a55	-0.055292446
22	0x3d684379	0.056704972
23	0x3caf4044	0.021392949
24	0x3ce603a9	0.028077917
25	0x3cb4bf18	0.022063777
26	0xbdf958ec	-0.121751636
27	0xbdd15abd	-0.10222385
28	0x3d8cefc8	0.06881672
29	0x3d7ad18e	0.061235003
30	0xbd9d2cc8	-0.07674557
31	0x3d9f0bfd	0.077659585
32	0x3b5540d9	0.0032539873
33	0x3ca8b2b0	0.020593017
34	0x3dd0a679	0.10188002
35	0xbd69910c	-0.057023093
36	0x3d305ffe	0.043060295
37	0xbe001e5c	-0.12511581
38	0xbd5242a1	-0.051333074
39	0x3d00f342	0.03148199
40	0x3d7cd36b	0.06172506
41	0x3c54b91e	0.0129835885
42	0x39cb589f	0.00038785205
43	0xbd64ccea	-0.055859484
44	0xbda598e4	-0.08085802
45	0x3d7b9a70	0.06142658
46	0xbdd29d64	-0.10283926
47	0x3d836f43	0.06417706
48	0xbdc7c58d	-0.09754477
49	0xbdae5fdd	-0.08514378
50	0xbdafb62d	-0.08579669
51	0xbd686f5d	-0.05674683
52	0xbe0b31ee	-0.13593265
53	0x3d938371	0.07202805
54	0xbdae0a6c	-0.084980816
55	0xbdba8480	-0.091073036
56	0xbde30d20	-0.11086488
57	0x3dfc83d0	0.12329829
58	0xbd997fd5	-0.07495085
59	0x3baf9e38	0.0053594373
60	0xbd915f79	-0.07098288
61	0xbd9702a3	-0.0737355
62	0xbc6b2740	-0.01435262
63	0x3daa6bc9	0.0832134
64	0xbdafbcaa	-0.08580907
65	0xbd3c693f	-0.045998808
66	0xbe02acef	-0.12761281
67	0x3a9ab1d3	0.0011802263
68	0xbc9d33d8	-0.01918976
69	0x3c57d6b9	0.013173752
70	0x3dd33684	0.103131324
71	0x3d586850	0.052833855
72	0xbd3df14f	-0.046372708
73	0x3d0b7422	0.0340463
74	0x3d2c0214	0.04199417
75	0x3dbbe578	0.09174627
76	0xbd7a3f61	-0.0610956
77	0x3d6ee270	0.058321416
78	0xbde4c80e	-0.1117097
79	0xbdd8a469	-0.10578234
80	0xbd810104	-0.06299022
81	0x3b546233	0.0032407164
82	0xbd92b356	-0.07163112
83	0xbe097e5d	-0.1342711
84	0xbda297e6	-0.079391286
85	0x3d95bc40	0.073112965
86	0x3dd3d24a	0.10342844
87	0x3d188cae	0.037243538
88	0xbde4b893	-0.11168017
89	0x3d849b93	0.06474986
90	0xbe00f29a	-0.12592545
91	0xbddeca9a	-0.10878487
92	0x3d185db5	0.03719874
93	0xbdbf53fc	-0.093421906
94	0x3c83f61a	0.016108561
95	0xbd85a9fc	-0.065265626
96	0xbe171b76	-0.1475657
97	0x3d737668	0.059439093
98	0x3dd0d025	0.101959504
99	0x3dc27b9e	0.09496234
100	0xbd8ca954	-0.06868234
101	0x3d5ba536	0.053624354
102	0x3dd7b3f6	0.10532372
103	0x3cefb817	0.029262586
104	0x3c2c0fbb	0.010501797
105	0xbd205e26	-0.039152287
106	0x3dc3bd85	0.09557632
107	0xbd2889d3	-0.041147064
108	0xbd09e810	-0.033668578
109	0xbe003544	-0.12520319
110	0x3c203d1c	0.009780195
111	0x3de77809	0.11302192
112	0xba921250	-0.0011144374
113	0xbddd107d	-0.107941605
114	0xbc01fbbb	-0.007933552
115	0x3d642052	0.055694886
116	0x3df24c9d	0.11831019
117	0xbdfbc4cd	-0.12293396
118	0xbbbe5d3c	-0.0058094542
119	0x3c0dd80f	0.008657469
120	0xb985d2ac	-0.000255247
121	0x3dcece22	0.100979105
122	0x3de387ba	0.11109872
123	0x3ddb518c	0.10708913
124	0xbde8f9c5	-0.11375765
125	0xbe066436	-0.13124165
126	0xbe07f611	-0.1327746
127	0xbd08870a	-0.03333191
128	0xbdf8975c	-0.121382445
129	0xbcd79cfb	-0.026319971
130	0x3d84dba0	0.06487203
131	0xbdcbf228	-0.09958297
132	0xbde91107	-0.11380201
133	0xbd5dff1f	-0.05419838
134	0xbac53695	-0.0015046174
135	0xbde6f5aa	-0.112773255
136	0xbd6a4ca2	-0.05720199
137	0x3d0135a0	0.03154528
138	0x3d8298a8	0.06376773
139	0x3cb82099	0.022476481
140	0xbda206b0	-0.07911432
141	0xbd5ffd66	-0.05468502
142	0xbbf59d22	-0.0074955383
143	0x3bb9ec77	0.0056739408
144	0x3d0d112b	0.0344402
145	0x3e0ebc47	0.1393901
146	0xbe0aaf3e	-0.13543412
147	0x3d61564b	0.055013936
148	0xbd0346aa	-0.032049812
149	0xbd91035c	-0.07080719
150	0x3d8f2934	0.06990281
151	0xbda966fb	-0.08271595
152	0xbd9825d8	-0.07429093
153	0xbd84f827	-0.06492644
154	0xbd0f7c6b	-0.035030764
155	0x3d623a8b	0.055231612
156	0xbd609865	-0.054832835
157	0x3df5f19f	0.12008976
158	0x3e03de67	0.12877809
159	0x3dab3ff5	0.08361808
160	0x3d2fee2b	0.042951744
161	0xbd29fd6b	-0.041501444
162	0xbc7db2a2	-0.015484484
163	0xbe0c07e9	-0.13674892
164	0x3d3ab754	0.04558499
165	0xbd19340c	-0.03740315
166	0x3da8f8b7	0.082505636
167	0xbd98567a	-0.07438369
168	0xbd636b58	-0.055522293
169	0xbde4aa04	-0.111652404
170	0xbe01f773	-0.1269205
171	0x3db6faec	0.08934578
172	0x3d2a3357	0.041552868
173	0x3ca28e3f	0.019843219
174	0xbd310b8a	-0.043223895
175	0x3dd8603e	0.10565232
176	0xbd1e257f	-0.038609978
177	0x3d97e67f	0.074170105
178	0xbd9b97a2	-0.07597281
179	0x3d7202a5	0.059084553
180	0x3d689eea	0.056792177
181	0xbe0b6e87	-0.13616382
182	0x3ded0f36	0.11575167
183	0x3db461bf	0.08807706
184	0x3c36a73f	0.011148273
185	0x3de7698e	0.1129943
186	0x3df9cb88	0.12197024
187	0xbd53595c	-0.05159889
188	0xbd863569	-0.06553156
189	0xbcca3bc1	-0.024686696
190	0x3db01eed	0.085996486
191	0xbd906347	-0.07050186
192	0xbd9d7ac3	-0.076894306
193	0xbde7195b	-0.11284133
194	0xbd63717a	-0.05552814
195	0x3d8f8080	0.07006931
196	0x3dca91eb	0.09891113
197	0x3e07e42a	0.13270631
198	0x3da1941b	0.07889577
199	0xba511838	-0.0007976326
200	0x3cb49b69	0.022046762
201	0x3d08f968	0.033440977
202	0xbdab066e	-0.08350836
203	0xbd9eba13	-0.077503346
204	0x3dd92b42	0.10603954
205	0xbdbf0741	-0.093275554
206	0x3cdfbcf9	0.027311789
207	0xbb7bfa1b	-0.0038448635
208	0xbd9f511b	-0.077791415
209	0x3c055938	0.008138947
210	0x3c46b8bb	0.012129004
211	0x3dd6a08a	0.10479839
212	0x3dcdd980	0.100512505
213	0x3de6aa5e	0.11262964
214	0xbd13ecaf	-0.03611439
215	0x3d5e83e3	0.054324996
216	0x3d63946f	0.05556148
217	0x3ca3b874	0.019985415
218	0xbc0cf6ed	-0.008603794
219	0x3e04bdf8	0.12963092
220	0xbdc583c8	-0.09644276
221	0xbd96e6a7	-0.07368212
222	0x3de9f4d5	0.11423651
223	0x3dd32184	0.10309127
224	0x3cbc3959	0.022976564
225	0x3dd8ed96	0.10592191
226	0x3c4a467d	0.012345907
227	0xbdc10246	-0.09424262
228	0xbce17a87	-0.027524246
229	0xbb95e7fd	-0.0045747743
230	0x38ff2490	0.00012166158
231	0xbdfd0919	-0.12355251
232	0x3ddb3440	0.10703325
233	0xbc5fbc19	-0.013655686
234	0x3dfa1669	0.12211306
235	0x3d886011	0.06658948
236	0x3bf47183	0.0074598207
237	0x3c561519	0.0130665535
238	0xbd380a8c	-0.044931933
239	0x3a5d668b	0.0008445761
240	0xbc9ab248	-0.01888384
241	0xbcc7f8ac	-0.024410568
242	0xbd7dc944	-0.06195952
243	0xbd041bc4	-0.032253042
244	0x3b4a3b98	0.0030858275
245	0x3df32e28	0.11874038
246	0x3d069c51	0.03286392
247	0x3ce3f4b2	0.02782664
248	0x3d9ed06c	0.07754597
249	0x3dd944df	0.10608839
250	0x3decf8eb	0.11570915
251	0x3d53a5d1	0.051671807
252	0x3da19b90	0.07890999
253	0x3dc0fba6	0.09422998
254	0xbd9e1839	-0.07719464
255	0xbd155d99	-0.036466215

net.flow_mapping.0.affine_layers.0.net.6.bias f4 [32]
0	0xbda27264	-0.079319745
1	0xbdf2a31a	-0.118475154
2	0x3d2e7f81	0.042602066
3	0x3dee68dc	0.11641094
4	0xbdfead5c	-0.124354094
5	0x3e8616dd	0.26189318
6	0xbd15f8c7	-0.036614206
7	0xbe107045	-0.14105327
8	0xbdfeaf8c	-0.12435827
9	0xbba69ce0	-0.005084619
10	0xbdb73021	-0.08944727
11	0x3ceec73a	0.029147733
12	0x3e21480e	0.15750143
13	0xbd3b10c5	-0.04567029
14	0x3dda6301	0.10663415
15	0x3cffffee	0.031249966
16	0x3dc6371a	0.096784785
17	0xbc79423e	-0.015213547
18	0xbdf3b308	-0.11899382
19	0xbdb0e55a	-0.08637495
20	0xbe252eba	-0.16131106
21	0xbe4ebcac	-0.2018916
22	0x3e0a7dad	0.13524504
23	0xbe043841	-0.12912084
24	0x3dfc79f1	0.12327946
25	0xbdc3f596	-0.09568326
26	0xbe07ce97	-0.13262402
27	0xbc7cc45d	-0.015427676
28	0x3d9a645d	0.07538674
29	0xbd1b5a49	-0.0379279
30	0xbf3a8d28	-0.7287164
31	0x3d211ab4	0.039332107

net.flow_mapping.0.affine_layers.0.net.8.weight f4 [32, 32]
0	0xbdeeae00	-0.116542816
1	0x3c389b62	0.011267515
2	0x3d1dbc75	0.038509805
3	0xbdaac938	-0.08339161
4	0xbdc73d07	-0.09728437
5	0x3d59394b	0.053033154
6	0x3d1b012f	0.037842926
7	0x3c4b4660	0.012406915
8	0xbd9758e8	-0.073900044
9	0xbdf9b183	-0.12192061
10	0xbdd7fbd8	-0.10546082
11	0xbdf7e954	-0.12105051
12	0xbdd68aaa	-0.10475667
13	0xbde739ed	-0.11290345
14	0x3dd4d82a	0.103927925
15	0x3c998d53	0.018744146
16	0x3d7292f7	0.059222188
17	0xbdc42f39	-0.095793195
18	0x3dfbb605	0.12290577
19	0xbd81b124	-0.06332615
20	0xbc830e23	-0.015997952
21	0x3dc08475	0.09400264
22	0x3dad99ef	0.08476626
23	0x3daac4af	0.08338296
24	0xbd2e5a85	-0.042566795
25	0xbd26d963	-0.04073466
26	0x3e081e2f	0.13292764
27	0x3de08811	0.109634526
28	0x3c8c1fe9	0.01710506
29	0x3da08538	0.078379095
30	0x400a476f	2.16061
31	0xbd9fcabb	-0.0780234
32	0xbd947f4b	-0.07250842
33	0xbd8461db	-0.06463977
34	0xbdc9014d	-0.09814701
35	0xbd4b5acc	-0.049647138
36	0xbd92ba89	-0.07164485
37	0xbd89aaa9	-0.06722004
38	0x3dced6b8	0.10099548
39	0xbd9d42d3	-0.07678761
40	0xbe0c6504	-0.1371041
41	0xbe056c16	-0.13029513
42	0xbd3f825e	-0.046755187
43	0x3c863a2d	0.016385162
44	0x3d384b63	0.04499377
45	0x3de2b274	0.110691935
46	0xbdc67440	-0.09690142
47	0x3de3d4d5	0.11124579
48	0xbdc75613	-0.09733214
49	0xbd4edbe0	-0.050502658
50	0xbe189d1c	-0.14903682
51	0xbe0171e4	-0.12641102
52	0x3dee98ea	0.1165026
53	0xbdd4e26b	-0.10394748
54	0xbdf7976a	-0.12089427
55	0x3c990fbf	0.018684266
56	0x3d1e3c12	0.038631506
57	0xbd809d3c	-0.0627999
58	0x3d26eaa6	0.040751122
59	0xbe13062d	-0.14357825
60	0x3e0aff48	0.13573945
61	0xbd4a6302	-0.049410827
62	0x3ca39ffd	0.01997375
63	0x3dc2030e	0.09473239
64	0xbd2d2abd	-0.042277087
65	0xbd0d528e	-0.03450256
66	0xbc97993c	-0.018505685
67	0xbd4262eb	-0.047457617
68	0x3e077fcf	0.13232349
69	0xbdffc040	-0.12487841
70	0x3d597301	0.053088192
71	0xbbecf249	-0.007231031
72	0x3dd4c01a	0.10388203
73	0x3dc815e0	0.09769797
74	0xbd569e96	-0.052397333
75	0x3ddecae8	0.10878545
76	0xbdf31cdb	-0.11870738
77	0xbdb5783b	-0.08860823
78	0x3d8cb307	0.06870084
79	0xbdccb9f8	-0.09996408
80	0x3ddc86a3	0.107678674
81	0x3e09070c	0.13381594
82	0x3e082542	0.13295463
83	0x3cf5d509	0.03000881
84	0xbcac7be2	-0.021055166
85	0x3cc2ad85	0.023764381
86	0xbd86ff34	-0.06591645
87	0x3d6b590d	0.057457972
88	0xbd9aff73	-0.07568254
89	0xbdfaaef8	-0.12240404
90	0xbdb06527	-0.08613043
91	0xbd008ffc	-0.031387314
92	0x3d83d8d4	0.06437841
93	0x3da2ff3a	0.07958837
94	0x3e656996	0.22403559
95	0x3d9269eb	0.071491085
96	0xbd926336	-0.07147829
97	0xbda06ee0	-0.07833648
98	0x3e014182	0.12622645
99	0x3e0b4f60	0.13604498
100	0x3cadd595	0.021220008
101	0x3dd4259d	0.10358737
102	0xbe149592	-0.14510182
103	0xbdcf5b86	-0.101248786
104	0x3df8bdfc	0.12145612
105	0xbcefb8f4	-0.029262997
106	0xbc6fc562	-0.014634462
107	0xbdc720ab	-0.09723028
108	0x3bf18676	0.0073707653
109	0x3d7a5072	0.061111875
110	0xbcc6b567	-0.024256421
111	0xbd6d7890	-0.057976305
112	0xbd47b585	-0.048757095
113	0xbd8db140	-0.069185734
114	0x3dcec791	0.10096658
115	0x3da6f6f8	0.08152574
116	0xbdc2be8b	-0.095089994
117	0x3da2383b	0.07920881
118	0x3d255dc0	0.04037261
119	0xbd9f065c	-0.07764885
120	0x3db2992a	0.0872062
121	0x3dde99ef	0.10869204
122	0xbc52aa13	-0.012857932
123	0xbd274594	-0.04083784
124	0x3daf2104	0.08551219
125	0x3d00403a	0.03131125
126	0x3df1aa02	0.118000045
127	0x3d095270	0.033525884
128	0x3d9d50e8	0.07681447
129	0x3d79db83	0.06100036
130	0x3d2db964	0.04241313
131	0xbc542c42	-0.012950005
132	0xbd690422	-0.056888707
133	0xbdca3990	-0.098742604
134	0xbd42aa82	-0.04752589
135	0x3d8d7a33	0.06908073
136	0x3de741f6	0.11291878
137	0x3e022788	0.12710392
138	0xbda80fbe	-0.082061276
139	0x3d6c5eaf	0.057707485
140	0xbde32c4a	-0.11092432
141	0x3c91d319	0.017800855
142	0xbd65cc71	-0.056103174
143	0x3d569a05	0.05239298
144	0x3d98251a	0.074289516
145	0x3cfae53e	0.03062689
146	0x3de4e8e0	0.1117723
147	0x3d9f12be	0.07767247
148	0xbc590097	-0.01324477
149	0xbd6ad277	-0.05732962
150	0x3d0115cc	0.031514928
151	0x3de63a2d	0.11241565
152	0xbd363c01	-0.044490818
153	0xbe01e0cf	-0.12683414
154	0xbd22bfd1	-0.03973371
155	0x3da7a3c3	0.08185532
156	0xbe09d70d	-0.13460942
157	0x3e0023f8	0.12513721
158	0x3d19b6c2	0.037527807
159	0x3e0acc42	0.1355448
160	0xbd9b18e1	-0.07573105
161	0x3dc6cb5e	0.09706758
162	0x3d9ce531	0.07660902
163	0x3cee3935	0.029080013
164	0x3c546738	0.012964062
165	0xbcaebff3	-0.021331763
166	0x3d139638	0.03603193
167	0x3dd8c610	0.105846524
168	0x3d76d7f3	0.06026454
169	0xbd038492	-0.03210885
170	0xbdb9d2c6	-0.09073405
171	0xbd4fcca9	-0.05073229
172	0xbd621a44	-0.05520083
173	0x3dfc52c7	0.12320476
174	0xbd9f84b4	-0.07788983
175	0x3e099f59	0.13439693
176	0xbccbf5f3	-0.024897551
177	0x3d3d1016	0.04615792
178	0xbd5eddb4	-0.05441065
179	0x3dbc3f90	0.09191811
180	0xbc328bb4	-0.010897566
181	0xbdf0e3cd	-0.117621996
182	0xbdebeaaf	-0.11519372
183	0xbc158e73	-0.009128201
184	0xbd6b1965	-0.057397265
185	0xbde17c38	-0.11010021
186	0x3d41443a	0.047184207
187	0xbd88293a	-0.06648488
188	0x3dfb21a0	0.12262273
189	0xbc61b70d	-0.013776553
190	0xbddb0401	-0.10694123
191	0x3d4bdb36	0.049769603
192	0xbdf8fa64	-0.12157133
193	0x3d1c3e72	0.03814549
194	0x3dddc48c	0.10828504
195	0xbdb3847a	-0.08765502
196	0x3c1b35f0	0.009473309
197	0xbde68e7a	-0.11257644
198	0xbdf86039	-0.12127728
199	0xbdf99fce	-0.121886835
200	0xbdbfb766	-0.09361152
201	0xbc7fafb6	-0.015605858
202	0xbd185e8c	-0.037199542
203	0x3dc10000	0.09423828
204	0xbd92b7e3	-0.0716398
205	0x3ca7b372	0.020471308
206	0xbdcf67b9	-0.101272054
207	0x3dc25116	0.09488122
208	0xbc7cb447	-0.015423841
209	0xbd8c3f63	-0.068480276
210	0x3dcc685d	0.09980843
211	0x3d00feee	0.03149312
212	0xbd44fefc	-0.048094735
213	0x3e0c0adb	0.13676016
214	0xbd842c90	-0.06453812
215	0xbd5f7224	-0.054552212
216	0x3d85b19d	0.06528018
217	0xbdede523	-0.1161597
218	0x3d3e7905	0.046502132
219	0xbb38aa8e	-0.002817783
220	0x3da984db	0.08277293
221	0xbd433d8c	-0.047666118
222	0x3d1123de	0.035434596
223	0xbe0ac6db	-0.1355242
224	0x3d91d719	0.07121105
225	0x3dbda521	0.092600115
226	0xbd6b21c5	-0.057405252
227	0xbe0c95c6	-0.13729009
228	0x3dae0ad5	0.0849816
229	0xbc7dd12a	-0.015491763
230	0x3c906542	0.017626408
231	0xbdb9d10f	-0.09073078
232	0x3e046f14	0.12932998
233	0xbdca48bf	-0.098771565
234	0xbda67441	-0.081276424
235	0x3d3d9f21	0.046294335
236	0x3da6bba5	0.08141259
237	0x3ca5f611	0.020258935
238	0xbe202a45	-0.15641125
239	0xbd600621	-0.054693345
240	0x3d0a6f26	0.033797406
241	0xbe08b9e1	-0.13352157
242	0x3d6423b7	0.055698123
243	0xbcc6804e	-0.024231102
244	0xbcdc33c0	-0.026880145
245	0xbdf8c5fc	-0.121471375
246	0xbd3b5eb8	-0.045744628
247	0x3d2a795e	0.04161965
248	0x3d88bcc8	0.06676632
249	0xbdd4b9e3	-0.103870176
250	0x3ddd38e7	0.10801869
251	0xbe230781	-0.15920831
252	0x3dd205ae	0.102549896
253	0xbd9b04c3	-0.075692676
254	0x3cd042f3	0.025422549
255	0xbd0c5c90	-0.034267962

net.flow_mapping.0.affine_layers.0.net.8.bias f4 [32]
0	0x3d99a80c	0.075027555
1	0xbdccfc84	-0.10009101
2	0xbe946298	-0.2898147
3	0x3d056362	0.032565482
4	0x3df43460	0.11924052
5	0xbd77d6d6	-0.060507618
6	0x3dc6da90	0.09709656
7	0xbe4cf120	-0.20013857
8	0xbc4b9699	-0.012426042
9	0x3d83438f	0.0640937
10	0x3d3d4045	0.04620387
11	0x3ccca0bd	0.02497899
12	0xbd83fdf5	-0.06444923
13	0x3edeca46	0.43513697
14	0x3dc6d32d	0.09708247
15	0x3e5e2d25	0.21696909
16	0xbd331d34	-0.043729022
17	0xbce8cd22	-0.028418127
18	0x3c283f02	0.0102689285
19	0x3e2f32d4	0.17109233
20	0xbde369f3	-0.111041926
21	0xbe4f0ef4	-0.20220548
22	0x3dc6341f	0.0967791
23	0x3e486a34	0.19571763
24	0x3e639fab	0.22228877
25	0x3e0e45a5	0.13893755
26	0x3cff550a	0.03116848
27	0xbd76f050	-0.060287774
28	0xbe002a1e	-0.12516066
29	0x3ded7565	0.11594657
30	0xbe45382f	-0.19259714
31	0x3d951d06	0.072809264

net.flow_mapping.0.affine_layers.0.net.10.weight f4 [2, 32]
0	0xbe2a4304	-0.16627127
1	0x3da10a7a	0.07863326
2	0xbf07d804	-0.5306399
3	0x3d459079	0.048233483
4	0x3dbab335	0.09116212
5	0x3d8eb46d	0.06968007
6	0xbdc1fa6f	-0.094715945
7	0x3d1bce29	0.038038407
8	0x3e001fb3	0.12512092
9	0x3d924132	0.07141341
10	0x3dced0f3	0.10098448
11	0x3d11c4df	0.03558814
12	0xbc8cd1ff	-0.017189978
13	0xbed2fd79	-0.4120901
14	0xbdb51190	-0.088412404
15	0xbea6d637	-0.32585308
16	0x3df4b89a	0.119492725
17	0xbc35a6a5	-0.011087094
18	0x3de13b18	0.10997599
19	0xbdeba46b	-0.115059696
20	0x3d9770b4	0.07394543
21	0x3f0d87d8	0.55285406
22	0x3d264ec9	0.04060248
23	0xbe9b396a	-0.3031724
24	0xbe37586f	-0.17904828
25	0xbdd9c641	-0.10633517
26	0xbda4c00a	-0.08044441
27	0x3e503719	0.20333518
28	0xbdd9df53	-0.10638299
29	0xbd8e5059	-0.06948919
30	0x3e3669ad	0.1781375
31	0x3dd88e48	0.10574013
32	0x3d3bddc3	0.045865785
33	0xbd5e3669	-0.05425111
34	0x3d9d4c7b	0.07680603
35	0x3cfb2bb5	0.03066049
36	0x3e05a5e8	0.1305157
37	0x3d576a1f	0.05259144
38	0xbe0c2527	-0.13686047
39	0xbb9e34f7	-0.0048280912
40	0x3db6c548	0.08924347
41	0x3d00135a	0.031268455
42	0xbe4a2171	-0.1973932
43	0xbe1962cd	-0.14979096
44	0xbda0b8b6	-0.07847731
45	0xbfdf3a49	-1.7439662
46	0x3e133917	0.14377247
47	0xbf4a03bb	-0.7891194
48	0xbd20f7fb	-0.039298993
49	0xbda2675d	-0.07929871
50	0x3d561786	0.052268527
51	0x3d7db7d5	0.061942894
52	0x3b1e46cc	0.0024151085
53	0xbf64b043	-0.89331454
54	0x3dd720eb	0.105043255
55	0x3e5a30b2	0.21307638
56	0xbd77b9e1	-0.060480002
57	0xbd8cad7b	-0.06869026
58	0x3df84ba8	0.12123805
59	0x3d64af8b	0.055831473
60	0x3dc9d5d1	0.09855235
61	0xbd637ce4	-0.055539027
62	0xbd581fed	-0.05276482
63	0xbda207cc	-0.079116434

net.flow_mapping.0.affine_layers.0.net.10.bias f4 [2]
0	0x3da971b2	0.08273639
1	0xbeda2634	-0.42607272

net.flow_mapping.0.affine_layers.1.net.0.weight f4 [32, 1]
0	0x3e811fc3	0.25219545
1	0xbf04f918	-0.51942587
2	0x3f37d945	0.718159
3	0x3f407a82	0.7518693
4	0x3f2cb976	0.6747049
5	0xbd8bc310	-0.068243146
6	0x3e1127dc	0.14175361
7	0xbf41867e	-0.75595844
8	0x3e3112f3	0.17292385
9	0xbee593c6	-0.44839305
10	0x3f10ed9c	0.56612563
11	0xbea1078d	-0.31451073
12	0xbc84c82e	-0.016208734
13	0x3f0424fd	0.5161894
14	0x3e73be0b	0.23802964
15	0x3f0bbabe	0.5458182
16	0xbf124254	-0.5713246
17	0x3eb4101b	0.35168537
18	0x3eff4d1c	0.49863517
19	0x3f19b07d	0.60034925
20	0xbc1f1b73	-0.009711134
21	0x3ed8c404	0.42337048
22	0xbf438f20	-0.76390266
23	0x3f348c4d	0.7052658
24	0x3ef3fcf7	0.47653934
25	0x3f0ab4aa	0.5418192
26	0xbe56b4c0	-0.20967388
27	0x3f365d27	0.7123589
28	0xbf12b1c7	-0.57302517
29	0xbf423bc0	-0.7587242
30	0x3f2abff7	0.66699165
31	0xbef7304a	-0.4827903

net.flow_mapping.0.affine_layers.1.net.0.bias f4 [32]
0	0xbd8928cf	-0.06697237
1	0x3f2783d7	0.65435547
2	0xbf0b3ed1	-0.54392725
3	0x3dee95c5	0.1164966
4	0xbf1198bd	-0.56873685
5	0x3ef5dd30	0.48020315
6	0xbf64a5a4	-0.8931525
7	0xbe32e2ee	-0.1746938
8	0xbf813a93	-1.0096
9	0x3db93277	0.090428285
10	0x3e877dba	0.2646311
11	0xbe939ca2	-0.2883044
12	0x3f0e2378	0.5552287
13	0x3c56c1ec	0.013107758
14	0xbee51220	-0.4474039
15	0xbf31a730	-0.6939573
16	0xbe65a598	-0.2242645
17	0x3f5a5770	0.8528967
18	0x3f158df4	0.5841973
19	0x3e249f26	0.16076335
20	0xbf2946ca	-0.6612364
21	0xbee4e696	-0.44707173
22	0xbf0a9ebb	-0.54148453
23	0xbf89158f	-1.0709704
24	0xbf772c7c	-0.9655225
25	0x3f11f115	0.57008487
26	0x3d432643	0.04764391
27	0x3f07b254	0.5300648
28	0x3eba25ee	0.36357063
29	0x3eefe97d	0.46857825
30	0xbad30495	-0.0016099388
31	0xbef83543	-0.48478135

net.flow_mapping.0.affine_layers.1.net.2.weight f4 [32, 32]
0	0x3cb67cd8	0.022276327
1	0xbbb0d8d7	-0.005396943
2	0x3cffff2b	0.031249603
3	0xbdf1766b	-0.117901646
4	0x3dadce61	0.08486629
5	0xbf866013	-1.049807
6	0x3e2bffc0	0.1679678
7	0x3c35c523	0.011094364
8	0x3e34c37b	0.17652695
9	0xbd812cad	-0.06307349
10	0x3d0e53e2	0.034747966
11	0x3dc33076	0.095307276
12	0xbf18dede	-0.5971507
13	0xbdd094e4	-0.10184649
14	0x3da6cf17	0.08144968
15	0xbd3c310a	-0.045945205
16	0x3d8e59f1	0.06950749
17	0xbdec8d69	-0.11550409
18	0xbcf28456	-0.029604118
19	0x3dddcd65	0.108301915
20	0xbd48700c	-0.04893498
21	0x3dd08383	0.10181334
22	0xbdee8da9	-0.11648113
23	0x3db02c6d	0.086022235
24	0x3d8bd1fa	0.06827159
25	0x3d102270	0.035189092
26	0x3cfade20	0.030623496
27	0xbc37dd15	-0.011222144
28	0x3d1cf78b	0.038322013
29	0x3dbe2321	0.09284044
30	0x3d2474a9	0.04015032
31	0xbe015418	-0.12629735
32	0x3cfdadc1	0.030966641
33	0x3e02499f	0.12723397
34	0xbe05cdd7	-0.13066803
35	0x3d8101a4	0.06299141
36	0xbdf760e8	-0.1207903
37	0xbd958d53	-0.07302346
38	0x3d0b7774	0.034049466
39	0x3c95a4c1	0.018267037
40	0xbd56a362	-0.052401908
41	0xbc5a970c	-0.013341676
42	0x3c5061ef	0.012718662
43	0x3dbe9476	0.093056604
44	0x3cc4e3b5	0.02403436
45	0xbdf1ffb7	-0.11816352
46	0xbdddcfb7	-0.10830634
47	0xbca0c0f4	-0.019623257
48	0x3d8d7b33	0.06908264
49	0xbdf1afd1	-0.118011124
50	0x3e0ad4a7	0.13557683
51	0xbd0729ef	-0.032998975
52	0x3c1ade1b	0.009452368
53	0x3d4bde94	0.049772814
54	0xbcd29913	-0.025707757
55	0x3dc39044	0.09549001
56	0xbbad8d59	-0.005296391
57	0x3d0810f3	0.03321929
58	0x3e07fdb5	0.13280375
59	0xbd4ea405	-0.05044939
60	0xbdea8216	-0.11450593
61	0xbca0fff8	-0.019653305
62	0xbd17316a	-0.03691236
63	0xbdfe1e8b	-0.12408169
64	0xbda5a675	-0.0808839
65	0x3b254785	0.002521963
66	0xbdd2c5f8	-0.10291666
67	0xbd79106f	-0.060806688
68	0xbda1c196	-0.07898252
69	0xbd5abee0	-0.05340469
70	0xbc466a34	-0.012110282
71	0xbe0c2ce4	-0.13689
72	0x3d56dbe9	0.052455816
73	0xbda4609c	-0.08026239
74	0xbdfff69e	-0.1249821
75	0xbd81529a	-0.06314583
76	0x3ae85279	0.0017724774
77	0xbd56f913	-0.05248363
78	0x3dc343f6	0.09534447
79	0x3defe853	0.11714234
80	0x3c1eb6f1	0.009687171
81	0x3d838d93	0.064234875
82	0x3e020d9f	0.12700509
83	0xbcdcd203	-0.02695561
84	0x3d98acd3	0.074548386
85	0xbc9e4dae	-0.01932415
86	0xbd6279d2	-0.05529196
87	0xbdedd947	-0.11613708
88	0xbdabb2e0	-0.08383727
89	0x3d45bae1	0.048273925
90	0xbdf3379c	-0.11875841
91	0xbe0bd6ca	-0.13656154
92	0xbdb66949	-0.089068
93	0x3cd59229	0.026070671
94	0xbacf890b	-0.0015833689
95	0xbbe4e7ed	-0.0069856555
96	0x3e097e99	0.134272
97	0xbd446886	-0.047951244
98	0xbdc05563	-0.09391286
99	0xbdba1aa7	-0.09087115
100	0x3dd9dfc0	0.1063838
101	0x3dd6c660	0.10487056
102	0x3ddac51d	0.106821276
103	0xbdb1113e	-0.08645867
104	0x3d6b351f	0.057423707
105	0xbbe51cc2	-0.0069919536
106	0xbe026165	-0.12732466
107	0xbdffb2aa	-0.12485249
108	0x3c837c53	0.016050493
109	0xbda1256a	-0.07868464
110	0xbd830792	-0.06397928
111	0x3d95398f	0.07286369
112	0xbd032943	-0.032021772
113	0xbdefbf6a	-0.11706431
114	0x3c8ed184	0.01743389
115	0xbd7168db	-0.05893789
116	0x3c09ad8a	0.008403191
117	0xbc9078f0	-0.017635792
118	0xbd530fbf	-0.05152869
119	0xbd3776bc	-0.04479097
120	0x3d0a7282	0.03380061
121	0x3d5e8948	0.05433014
122	0x3daf245e	0.08551858
123	0xbe01a249	-0.12659563
124	0xbc9fe7a5	-0.019519636
125	0x3de4903d	0.11160324
126	0x3cc55a7d	0.024091
127	0xbdaafacd	-0.08348618
128	0x3cfb26ed	0.03065821
129	0xbd0bfe4d	-0.034178067
130	0xbde9ec20	-0.114219904
131	0x3df56c56	0.11983554
132	0x3db48a4f	0.08815443
133	0x3de1cf47	0.11025863
134	0xbdcc6075	-0.09979335
135	0x3e02792e	0.12741539
136	0xbda37c61	-0.07982708
137	0xbd9c42a5	-0.07629899
138	0x3b8c3284	0.004278483
139	0xbdc82c51	-0.09774078
140	0xbd90494b	-0.070452295
141	0xbdbaec03	-0.09127047
142	0x3db6c489	0.08924205
143	0xbd204702	-0.03913022
144	0xbd3cd9db	-0.0461062
145	0xbd525cae	-0.051357917
146	0xbdf36b56	-0.11885707
147	0xbdb54c1e	-0.08852409
148	0x3dbb27bd	0.09138439
149	0xbd1fa435	-0.03897496
150	0x3d0f1cb0	0.034939468
151	0xbdc9320e	-0.09824
152	0x3d0d0c32	0.03443546
153	0x3d2f389f	0.042778607
154	0x3d30b293	0.04313905
155	0x3d90714e	0.07052861
156	0xbaf58d0d	-0.0018734053
157	0xbd571e4a	-0.05251912
158	0xbdbdfc79	-0.09276671
159	0xbd372e35	-0.0447218
160	0xbda8fb63	-0.08251073
161	0xbd735c3f	-0.059414145
162	0xbde0a514	-0.10968986
163	0xbd7b4a12	-0.061349936
164	0xbcab85ef	-0.020937888
165	0x3d2c9160	0.042130828
166	0xbda79a12	-0.081836835
167	0xbddeae53	-0.108730935
168	0xbded6f5f	-0.11593508
169	0xbdcdc229	-0.10046799
170	0xbc6bda45	-0.014395301
171	0x3c137715	0.009000559
172	0xbdfab096	-0.12240712
173	0x3b8b082e	0.0042429185
174	0xbe033372	-0.12812594
175	0xbe06e477	-0.1317309
176	0x3d719576	0.058980428
177	0xbdc7d5e5	-0.09757594
178	0x3dbf9a1f	0.09355568
179	0xbd96fcc5	-0.07372431
180	0xbc74c88a	-0.01494039
181	0xbd4c9c06	-0.049953483
182	0xbc7fecd4	-0.015620429
183	0x3d9d6d3b	0.0768685
184	0xbdce541e	-0.10074638
185	0xbc952bdd	-0.018209392
186	0xbd970c62	-0.07375409
187	0xbcbde81a	-0.023181964
188	0xbd0f260d	-0.034948397
189	0x3c8acff8	0.01694487
190	0xbd6ab6d6	-0.057303272
191	0xbdabaa53	-0.08382096
192	0x3d60c112	0.054871626
193	0xbd235145	-0.039872427
194	0xbda4f048	-0.080536425
195	0x3d8f81c5	0.070071734
196	0xbb8a471c	-0.0042199027
197	0xbdd0acdf	-0.101892225
198	0xbc8e2bd3	-0.017354881
199	0x3e03cfc7	0.1287223
200	0x3e03ed37	0.12883459
201	0xbc45a239	-0.012062603
202	0xbd9f031a	-0.077642635
203	0xbe0b9d9d	-0.13634343
204	0xbdd7aa34	-0.105305105
205	0x3c5d2418	0.013497375
206	0xbde42b30	-0.1114105
207	0xbda7dd0b	-0.081964575
208	0x3c587aee	0.0132129025
209	0xbde804d9	-0.113290496
210	0xbdef343d	-0.116798855
211	0x3d469ea9	0.048491154
212	0x3e08f7b2	0.13375738
213	0xbd96af36	-0.073576376
214	0x3d5fdbb9	0.054652903
215	0x3bceec14	0.006314764
216	0xbd310d0b	-0.04322533
217	0xbdfe5b28	-0.124197304
218	0x3ce25d48	0.02763237
219	0x3d9858e7	0.07438832
220	0x3c91635a	0.01774757
221	0xbc739502	-0.014867069
222	0xbcadbe64	-0.02120895
223	0xbd8f6890	-0.070023656
224	0x3cd22a91	0.025655063
225	0xbe0399f0	-0.12851691
226	0xbdc6a391	-0.096991666
227	0x3da2eae0	0.07954955
228	0xbdb720dd	-0.08941815
229	0xbd541d00	-0.05178547
230	0xbdd062a2	-0.10175063
231	0xbe0885e7	-0.1333233
232	0x3de5a00f	0.112121694
233	0xbd90c20d	-0.07068262
234	0xbdea702e	-0.11447178
235	0xbe039da9	-0.12853111
236	0x3de579e1	0.11204887
237	0xbe06e913	-0.13174848
238	0x3d577f8b	0.05261187
239	0x3e081f59	0.13293208
240	0xbd411e0c	-0.047147796
241	0xbcd37924	-0.0258146
242	0xbe0bcd5c	-0.13652557
243	0x3de25553	0.110514306
244	0xbda73ac7	-0.08165508
245	0x3d8b1f0e	0.067930326
246	0x3da7d07c	0.08194062
247	0xbdfb317a	-0.12265296
248	0xbd03c6ba	-0.032171942
249	0x3e097f9d	0.13427587
250	0x3df38483	0.11890509
251	0x3ba05fcc	0.0048942324
252	0x3d4e2c23	0.05033506
253	0x3d69d3e9	0.05708686
254	0xbd35bfc5	-0.04437234
255	0xbdb919d2	-0.09038128

net.flow_mapping.0.affine_layers.1.net.2.bias f4 [32]
0	0xbe826ef2	-0.2547527
1	0xbe03b095	-0.1286033
2	0x3d980426	0.07422666
3	0x3de3fb7e	0.11131953
4	0x3cbed490	0.023294717
5	0x3e0b2b12	0.13590649
6	0xbdfea4c4	-0.1243377
7	0xbd41eed5	-0.04734691
8	0xbd9d5376	-0.076819345
9	0xbd3d2420	-0.04617703
10	0x3e90943c	0.28238094
11	0x3dca8af2	0.09889783
12	0x3db2c1fc	0.08728406
13	0x3dc24f2d	0.09487758
14	0xbd5427a2	-0.05179561
15	0x3dcf0d65	0.10109977
16	0xbdc43bf8	-0.09581751
17	0xbea9336b	-0.3304704
18	0x3d8df7aa	0.06932004
19	0x3d82d64c	0.0638853
20	0xbdb29e7b	-0.08721634
21	0xbd5e02a9	-0.054201756
22	0x3ec026ef	0.37529704
23	0xbdc2bc6b	-0.09508594
24	0xbd64accf	-0.055828866
25	0x3cdd59d7	0.027020378
26	0x3e00a7e5	0.12564047
27	0x3cfe8308	0.03106834
28	0x3d4b84a9	0.04968706
29	0xbdbadaf1	-0.09123791
30	0xbe9f7d06	-0.31150073
31	0x3dcb13a2	0.09915854
