param/model_lr_shrink_iter50000_my_data_10_32_5.pth (torch, 251397 bytes, 174 tensors)

net.rotations.0.LU f4 [2, 2]
0	0x00000000	0.0
1	0x00000000	0.0
2	0x00000000	0.0
3	0x00000000	0.0

net.rotations.0.LU_init f4 [2, 2]
0	0x3f800000	1.0
1	0x00000000	0.0
2	0x00000000	0.0
3	0x3f800000	1.0

net.rotations.0.ones_mat f4 [2, 2]
0	0x3f800000	1.0
1	0x3f800000	1.0
2	0x3f800000	1.0
3	0x3f800000	1.0

net.rotations.0.I f4 [2, 2]
0	0x3f800000	1.0
1	0x00000000	0.0
2	0x00000000	0.0
3	0x3f800000	1.0

net.flow_mapping.0.scale_layers.0.b f4 [1, 2]
0	0xbda32044	-0.079651386
1	0xbd04dd00	-0.032437325

net.flow_mapping.0.scale_layers.0.logs f4 [1, 2]
0	0xbd166798	-0.03671989
1	0xbd1ddbeb	-0.03853981

net.flow_mapping.0.scale_layers.0.b_init f4 [1, 2]
0	0x00000000	0.0
1	0x00000000	0.0

net.flow_mapping.0.scale_layers.0.logs_init f4 [1, 2]
0	0x00000000	0.0
1	0x00000000	0.0

net.flow_mapping.0.scale_layers.1.b f4 [1, 2]
0	0xbd256785	-0.040381927
1	0xbdb951f8	-0.090488374

net.flow_mapping.0.scale_layers.1.logs f4 [1, 2]
0	0xbd1aa18c	-0.03775172
1	0xbd1fa3c8	-0.038974553

net.flow_mapping.0.scale_layers.1.b_init f4 [1, 2]
0	0x00000000	0.0
1	0x00000000	0.0

net.flow_mapping.0.scale_layers.1.logs_init f4 [1, 2]
0	0x00000000	0.0
1	0x00000000	0.0

net.flow_mapping.0.scale_layers.2.b f4 [1, 2]
0	0xbd8cafd9	-0.06869478
1	0xbc9b6fe3	-0.01897425

net.flow_mapping.0.scale_layers.2.logs f4 [1, 2]
0	0xbd1f3802	-0.038871773
1	0xbd041a77	-0.0322518

net.flow_mapping.0.scale_layers.2.b_init f4 [1, 2]
0	0x00000000	0.0
1	0x00000000	0.0

net.flow_mapping.0.scale_layers.2.logs_init f4 [1, 2]
0	0x00000000	0.0
1	0x00000000	0.0

net.flow_mapping.0.scale_layers.3.b f4 [1, 2]
0	0xbc955df4	-0.018233277
1	0xbbec8314	-0.007217774

net.flow_mapping.0.scale_layers.3.logs f4 [1, 2]
0	0xbd049f23	-0.032378327
1	0xbce12d3d	-0.027487392

net.flow_mapping.0.scale_layers.3.b_init f4 [1, 2]
0	0x00000000	0.0
1	0x00000000	0.0

net.flow_mapping.0.scale_layers.3.logs_init f4 [1, 2]
0	0x00000000	0.0
1	0x00000000	0.0

net.flow_mapping.0.scale_layers.4.b f4 [1, 2]
0	0xbcd76995	-0.026295463
1	0x3cb3f323	0.021966523

net.flow_mapping.0.scale_layers.4.logs f4 [1, 2]
0	0xbc6cb4fb	-0.014447446
1	0xbd1d9b08	-0.038477927

net.flow_mapping.0.scale_layers.4.b_init f4 [1, 2]
0	0x00000000	0.0
1	0x00000000	0.0

net.flow_mapping.0.scale_layers.4.logs_init f4 [1, 2]
0	0x00000000	0.0
1	0x00000000	0.0

net.flow_mapping.0.scale_layers.5.b f4 [1, 2]
0	0x3d03a550	0.032140076
1	0xbcd1cfe4	-0.025611825

net.flow_mapping.0.scale_layers.5.logs f4 [1, 2]
0	0xbc61127c	-0.013737317
1	0xbc12c7b5	-0.008958747

net.flow_mapping.0.scale_layers.5.b_init f4 [1, 2]
0	0x00000000	0.0
1	0x00000000	0.0

net.flow_mapping.0.scale_layers.5.logs_init f4 [1, 2]
0	0x00000000	0.0
1	0x00000000	0.0

net.flow_mapping.0.scale_layers.6.b f4 [1, 2]
0	0xbc33abde	-0.010966269
1	0x3d59d1fd	0.053178776

net.flow_mapping.0.scale_layers.6.logs f4 [1, 2]
0	0xbbf75ff4	-0.0075492803
1	0xbd0fe37d	-0.03512906

net.flow_mapping.0.scale_layers.6.b_init f4 [1, 2]
0	0x00000000	0.0
1	0x00000000	0.0

net.flow_mapping.0.scale_layers.6.logs_init f4 [1, 2]
0	0x00000000	0.0
1	0x00000000	0.0

net.flow_mapping.0.scale_layers.7.b f4 [1, 2]
0	0x3d105d4d	0.03524523
1	0xbd410e08	-0.047132522

net.flow_mapping.0.scale_layers.7.logs f4 [1, 2]
0	0x3bd1186f	0.0063810865
1	0xbce36d77	-0.027762158

net.flow_mapping.0.scale_layers.7.b_init f4 [1, 2]
0	0x00000000	0.0
1	0x00000000	0.0

net.flow_mapping.0.scale_layers.7.logs_init f4 [1, 2]
0	0x00000000	0.0
1	0x00000000	0.0

net.flow_mapping.0.scale_layers.8.b f4 [1, 2]
0	0x3c75e2f8	0.015007727
1	0xbcfe5222	-0.031045023

net.flow_mapping.0.scale_layers.8.logs f4 [1, 2]
0	0xbc0f67e5	-0.008752798
1	0xbc3a8576	-0.011384359

net.flow_mapping.0.scale_layers.8.b_init f4 [1, 2]
0	0x00000000	0.0
1	0x00000000	0.0

net.flow_mapping.0.scale_layers.8.logs_init f4 [1, 2]
0	0x00000000	0.0
1	0x00000000	0.0

net.flow_mapping.0.scale_layers.9.b f4 [1, 2]
0	0x3d29224b	0.04129247
1	0x3cf2e525	0.02965028

net.flow_mapping.0.scale_layers.9.logs f4 [1, 2]
0	0x3d4d06e8	0.050055414
1	0xbc5f008a	-0.013610968

net.flow_mapping.0.scale_layers.9.b_init f4 [1, 2]
0	0x00000000	0.0
1	0x00000000	0.0

net.flow_mapping.0.scale_layers.9.logs_init f4 [1, 2]
0	0x00000000	0.0
1	0x00000000	0.0

net.flow_mapping.0.affine_layers.0.net.0.weight f4 [32, 1]
0	0xbe9c0aa5	-0.3047687
1	0x3f188fd7	0.5959448
2	0xbe50f285	-0.20405014
3	0xbe50ed00	-0.20402908
4	0xbebd5a75	-0.36983076
5	0x3f231175	0.6369851
6	0xbe8d51ce	-0.27601475
7	0x3f268c5f	0.6505794
8	0xbd7e3e3e	-0.062071078
9	0x3cf29f84	0.029617079
10	0xbee9810c	-0.45606267
11	0xbe9df417	-0.30850288
12	0xbec5f33d	-0.3866214
13	0x3e0de9eb	0.13858764
14	0xbf3f5211	-0.747346
15	0x3e3f75ab	0.1869723
16	0xbd66ec01	-0.056377415
17	0x3f3bfb36	0.7343019
18	0xbe119348	-0.1421634
19	0x3ede7e4e	0.43455738
20	0xbeab7261	-0.33485702
21	0x3f149dc6	0.58053243
22	0xbef134ef	-0.47110698
23	0xbe8b5e3b	-0.2722033
24	0x3f4f4028	0.8095727
25	0x3e8dd348	0.27700257
26	0xbeef8206	-0.46778888
27	0xbe572d89	-0.21013464
28	0x3efdee03	0.4959565
29	0xbe224d7a	-0.15849867
30	0x3e5c30ea	0.21503034
31	0xbf31ab67	-0.69402164

net.flow_mapping.0.affine_layers.0.net.0.bias f4 [32]
0	0x3e80e1c6	0.2517225
1	0x3f47495e	0.77846324
2	0x3ed34e31	0.41270593
3	0x3dc7c551	0.09754432
4	0xbf2e64bf	-0.68122476
5	0xbef5e4c6	-0.48026103
6	0x3ecd5867	0.40106508
7	0xbef0c167	-0.47022554
8	0x3e70ff46	0.23534879
9	0xbf2f7fe5	-0.68554527
10	0xbf275983	-0.6537096
11	0xbe51197f	-0.20419882
12	0xbeef6adb	-0.46761212
13	0x3f06e538	0.5269351
14	0xbf506414	-0.8140271
15	0xbf82df83	-1.022446
16	0xbe47de8d	-0.1951849
17	0x3ed61010	0.4180913
18	0xbf0060f6	-0.5014795
19	0xbf5d8eb7	-0.8654589
20	0x3da13958	0.078722656
21	0x3e6602a7	0.2246195
22	0xbefe17be	-0.4962749
23	0xbeb11792	-0.34588295
24	0x3f10a5f1	0.56503206
25	0xbe6d2e60	-0.23162222
26	0x3e791453	0.2432416
27	0xbec6eea0	-0.3885393
28	0xbda5e33e	-0.08099984
29	0x3f104366	0.5635284
30	0xbf851ca6	-1.0399368
31	0x3f25b0db	0.64722985

net.flow_mapping.0.affine_layers.0.net.2.weight f4 [32, 32]
0	0xbdc86c4a	-0.097862795
1	0xbd904bd1	-0.07045711
2	0xbdc979da	-0.098376945
3	0xbd822b68	-0.06355935
4	0xbda73654	-0.08164659
5	0xbd01dc6c	-0.03170435
6	0x3dfa7f72	0.122313395
7	0xbc188af1	-0.00931047
8	0xbdc0dc7b	-0.09417053
9	0xbda0f019	-0.07858295
10	0xbdc09e64	-0.094052106
11	0x3d86a171	0.06573761
12	0xbd9de64b	-0.077099405
13	0xbe19d725	-0.15023477
14	0x3d55a2a0	0.052157044
15	0xbd123c2c	-0.035701916
16	0x3c0dc9e6	0.008654093
17	0x3c85e3d1	0.016343983
18	0x3df6bb61	0.120474584
19	0x3d003a52	0.03130562
20	0xbd6fd5f4	-0.05855365
21	0xbe10f1b5	-0.14154704
22	0xbc2f504e	-0.0107002985
23	0xbcc26d9c	-0.023733906
24	0xbe03e322	-0.12879613
25	0xbd4e33d4	-0.050342396
26	0xbcd80c2c	-0.026372992
27	0x3d816b25	0.06319264
28	0x3e1971da	0.14984837
29	0xbdda2129	-0.10650856
30	0x3d96e598	0.0736801
31	0xbd716791	-0.05893666
32	0x3bfdc3aa	0.0077442722
33	0xbe019fb3	-0.12658577
34	0x3e0c1f91	0.13683917
35	0xbda89268	-0.0823105
36	0x3d25f885	0.04052021
37	0xbe0842a1	-0.13306667
38	0x3dceac4d	0.100914575
39	0x3dd49aad	0.103810646
40	0x3da39bd3	0.079887055
41	0x3dff6f87	0.12472444
42	0xbd51ea56	-0.05124887
43	0xbddc931e	-0.10770248
44	0xbe10dab8	-0.14145935
45	0x3d8d5772	0.069014445
46	0xbb8b6e8d	-0.004255122
47	0x3d74b3ea	0.059741892
48	0xbded9767	-0.11601143
49	0x3dbdc42c	0.092659324
50	0x3cb1c22c	0.021699034
51	0x3e0335a3	0.1281343
52	0x3e14162c	0.14461583
53	0xbd43a0d0	-0.047760785
54	0x3dc5a562	0.09650685
55	0xbd516bc3	-0.05112816
56	0x3e150e4c	0.14556235
57	0xbdf88419	-0.12134571
58	0xbe17add2	-0.14812401
59	0x3db75e8a	0.08953579
60	0xbd47e48f	-0.048801955
61	0x3d3c2c91	0.04594094
62	0xbc84dcc4	-0.01621855
63	0xbd6efa7f	-0.05834436
64	0x3d8c0210	0.06836331
65	0x3d8d84d1	0.06910098
66	0x3e040307	0.1289178
67	0xbdc75725	-0.097334184
68	0xbc8ceab8	-0.017201766
69	0xbd895a5a	-0.06706686
70	0xbd1a50be	-0.037674658
71	0xbda10e68	-0.07864076
72	0xbe0c90d4	-0.13727123
73	0x3d3315b9	0.04372189
74	0x3d940408	0.072273314
75	0xbd021f59	-0.031768177
76	0x3bcde401	0.0062832837
77	0x3dd6b7cd	0.10484276
78	0xbde7eaff	-0.11324119
79	0xbe0d9454	-0.13826114
80	0x3e0c022b	0.13672702
81	0xbde8d038	-0.113678396
82	0xbe0396f9	-0.1285056
83	0x3df245ad	0.11829696
84	0x3d696974	0.056985334
85	0xbdacc069	-0.08435137
86	0xbdf76170	-0.120791316
87	0xbe156358	-0.14588678
88	0x3d8a5e4b	0.06756266
89	0xbd637e35	-0.055540282
90	0x3d004348	0.031314164
91	0x3dca381e	0.09873985
92	0x3e0f5415	0.13996918
93	0x3cea973e	0.028636571
94	0x3d1046cd	0.03522377
95	0xbde7cefe	-0.113187775
96	0x3dc43c3a	0.095818
97	0x3e138151	0.14404799
98	0xbe122cde	-0.14274928
99	0x3c72c90a	0.014818439
100	0xbc11d6fd	-0.008901355
101	0x3d92321a	0.07138462
102	0xbd4dc624	-0.05023779
103	0xbc5abad1	-0.013350205
104	0x3cd9b1c8	0.02657403
105	0x3d6f39d0	0.058404744
106	0xbca4b349	-0.020105021
107	0x3d32af80	0.0436244
108	0x3e04fea5	0.12987764
109	0x3e095f09	0.1341516
110	0x3d7d73ce	0.061878018
111	0x3d7a1d8f	0.061063346
112	0x3dd548f5	0.10414306
113	0xbd7b0ea7	-0.06129327
114	0xbd3646a8	-0.044500977
115	0x3d16a369	0.036776934
116	0x3d48ba3b	0.04900573
117	0xbdb37e5b	-0.08764335
118	0xbdfdd36c	-0.12393841
119	0xbd3e2c27	-0.046428826
120	0x3e2b2b16	0.16715655
121	0x3e1ebfa4	0.15502793
122	0x3dc4e644	0.09614232
123	0x3d45cdd1	0.048291985
124	0xbd493751	-0.04912502
125	0x3d986445	0.07441
126	0x3d558214	0.052126005
127	0x3dba00cc	0.09082183
128	0x3e0993f0	0.1343534
129	0xbd648f31	-0.05580062
130	0x3e16d9d2	0.1473153
131	0xbdfd3cdd	-0.123651244
132	0xbdb6eec0	-0.08932257
133	0xbb9f470c	-0.0048607644
134	0x3d54e32f	0.05197447
135	0xbdb39283	-0.08768179
136	0xbde2806f	-0.11059653
137	0x3c96aaab	0.018391928
138	0x3df4bd95	0.119502224
139	0xbc66855b	-0.01406988
140	0xbd3fca6b	-0.0468239
141	0x3df9c22d	0.12195239
142	0xbdb526cb	-0.0884529
143	0x3ca4517a	0.020058382
144	0xbe0a5325	-0.1350828
145	0x3d04697c	0.03232716
146	0x3d2577da	0.040397502
147	0xbd0fab4b	-0.035075467
148	0x3dc74ff3	0.09732046
149	0x3dd9fe07	0.10644155
150	0x3d271378	0.04079005
151	0x3dcdac9b	0.100426875
152	0x3d11acf6	0.03556534
153	0xbd8cfe43	-0.06884434
154	0x3d2d96fc	0.042380318
155	0x3c821911	0.015881093
156	0xbdc01d89	-0.093806334
157	0x3d9fd2b0	0.07803857
158	0x3dab4783	0.08363249
159	0xbc9d81bb	-0.0192269
160	0x3ddd72b7	0.10812896
161	0xbe2b6167	-0.16736375
162	0x3daca61e	0.08430122
163	0x3e026b8f	0.12736343
164	0x3d9bdf58	0.07610959
165	0xbdbf695e	-0.09346269
166	0xbe18278c	-0.14858836
167	0x3d15fa9c	0.036615953
168	0x3dd14417	0.10218065
169	0xbe086767	-0.13320695
170	0xbe0169e7	-0.12638055
171	0xbc714a5e	-0.014727203
172	0xbd61610e	-0.0550242
173	0xbd9c37ca	-0.076278284
174	0x3d3edfbf	0.0466001
175	0xbda17bfb	-0.078849755
176	0x3c9daf20	0.019248545
177	0xbb0bcbb1	-0.0021331126
178	0x3cc329dd	0.023823673
179	0x3dd1126e	0.10208593
180	0xbdb803bf	-0.089850895
181	0x3db78173	0.08960237
182	0xbcf6a3b9	-0.030107366
183	0x3dc83124	0.09774998
184	0x3dd8a91c	0.1057913
185	0xbe1a796d	-0.15085383
186	0x3e0143ed	0.12623568
187	0xbdc680e7	-0.09692555
188	0x3dc2f78f	0.09519874
189	0xbdf96e2c	-0.12179217
190	0x3c916351	0.017747553
191	0xbe1658c4	-0.14682299
192	0x3db65484	0.08902839
193	0xbdb0e67a	-0.0863771
194	0xbe05644a	-0.13026538
195	0xbc663caa	-0.014052549
196	0xbdbc1e89	-0.091855116
197	0x3ded5f58	0.11590451
198	0xbdc707cd	-0.09718285
199	0x3db74301	0.08948327
200	0xbdf8fa8d	-0.12157164
201	0x3ea8e115	0.32984224
202	0xbdaa5e12	-0.08318724
203	0xbd330fef	-0.043716367
204	0x3dbe5d11	0.09295095
205	0xbdc101e2	-0.09424187
206	0xbd58971e	-0.05287849
207	0xbd2cd112	-0.042191572
208	0x3cb6a31a	0.02229457
209	0x3c5255e9	0.012837865
210	0x3df3e2b7	0.11908477
211	0x3dc8a0c9	0.09796292
212	0x3cc5a7c4	0.024127848
213	0xbd0f8bdb	-0.035045486
214	0x3da91222	0.08255412
215	0xbcccc1cb	-0.024994751
216	0xbd725a87	-0.059168365
217	0x3d00d3c0	0.03145194
218	0x3e05c356	0.13062796
219	0x3de0557d	0.109538056
220	0x3d368500	0.044560432
221	0xbcc16e72	-0.023612235
222	0x3cc64786	0.024204027
223	0xbcb0938f	-0.021554736
224	0xbe0c471c	-0.13699001
225	0xbd1edcf3	-0.038784932
226	0x3ddc5e93	0.10760226
227	0x3c631d1a	0.013861919
228	0xbd73d001	-0.05952454
229	0x3d7ad745	0.061240453
230	0xbd421b35	-0.047389228
231	0x3dd310d5	0.10305945
232	0x3ce804ae	0.028322544
233	0x3e320771	0.17385651
234	0xbc96ee25	-0.018424103
235	0x3cd382ed	0.025819266
236	0xbd99d866	-0.07511978
237	0xbca5ab0c	-0.020223163
238	0xbe123447	-0.14277755
239	0xbdc4d2c2	-0.09610511
240	0x3dbf5af1	0.093435176
241	0x3e01bbf0	0.12669349
242	0xbdd097b5	-0.10185186
243	0xbdc0af42	-0.09408428
244	0x3d48a5c7	0.048986223
245	0x3de781ed	0.11304078
246	0xbde45b10	-0.11150181
247	0xbd93d865	-0.07219008
248	0x3d8f2be9	0.06990797
249	0x3d5394eb	0.05165569
250	0x3d8fd9e9	0.07023985
251	0xbdd84926	-0.10560827
252	0x3e22f96f	0.15915464
253	0xba163cac	-0.0005731087
254	0xbc9603f6	-0.018312436
255	0x3d2c5838	0.04207632

net.flow_mapping.0.affine_layers.0.net.2.bias f4 [32]
0	0xbcee1f91	-0.029067786
1	0xbe1719ea	-0.14755979
2	0xbde79f95	-0.11309735
3	0xbe2454c1	-0.16047956
4	0xbe76dd70	-0.24107909
5	0x3e6ee938	0.23331153
6	0xbed3e492	-0.41385323
7	0xbc93185d	-0.017955953
8	0x3e15804d	0.14599724
9	0x3ddee955	0.10884348
10	0xbe875dd5	-0.26438776
11	0x3d855084	0.06509498
12	0x3dc1d7fd	0.094650246
13	0x3d85fed0	0.06542742
14	0xbeacc9da	-0.3374775
15	0x3cde6409	0.02714731
16	0xbdaf3eb4	-0.085568815
17	0xbea98c57	-0.33114883
18	0x3e0b41f9	0.13599385
19	0x3e53b316	0.20673785
20	0x3dcf86ff	0.1013317
21	0x3b9468e4	0.0045291055
22	0x3e12126f	0.14264844
23	0xbda56dec	-0.080776066
24	0xbe58d7dd	-0.21176095
25	0x3b19e5c4	0.0023482898
26	0x3ef4abed	0.4778742
27	0xbd56c278	-0.052431554
28	0x3e103033	0.14080887
29	0xbd07a1bc	-0.033113226
30	0xbb78e37c	-0.0037977388
31	0x3d484038	0.04888937

net.flow_mapping.0.affine_layers.0.net.4.weight f4 [32, 32]
0	0xbe1257cb	-0.14291303
1	0xbd635531	-0.055501167
2	0x3d052eab	0.03251521
3	0xbd89e4a6	-0.06733064
4	0xbda5ad8d	-0.08089743
5	0x3da5ce0d	0.08095942
6	0x3d4ff135	0.050767142
7	0x3d29636e	0.04135459
8	0x3d9d653c	0.076853245
9	0x3d80c6e4	0.062879354
10	0xbe0a3c84	-0.13499647
11	0x3dff7de4	0.124751836
12	0xbc2f4907	-0.010698563
13	0xbde116a1	-0.10990644
14	0xbdaa1aaf	-0.08305871
15	0x3dadcce6	0.08486347
16	0xbe1a9a72	-0.15097979
17	0x3d02f4a1	0.031971578
18	0x3d2b3f67	0.041808512
19	0xbd1fd07b	-0.03901718
20	0x3d099677	0.03359076
21	0xbd94cd54	-0.07265726
22	0x3d9cc651	0.07655013
23	0xbd351105	-0.044205684
24	0x3d564347	0.052310254
25	0xbe005412	-0.1253207
26	0xbbb91d81	-0.005649269
27	0xbd137f6f	-0.036010202
28	0x3d735a72	0.059412427
29	0xbd96acdb	-0.07357188
30	0xbd0a8843	-0.033821356
31	0xbb5584d1	-0.0032580385
32	0xbd465e83	-0.048429977
33	0xbe1850a6	-0.14874515
34	0xbe02b5b5	-0.12764628
35	0xbb0d7d72	-0.0021589664
36	0xbcc496cb	-0.023997685
37	0xbdbd077a	-0.09229942
38	0x3c710881	0.0147115
39	0xbcb46f6f	-0.022025792
40	0xbdf6b46a	-0.1204613
41	0xbd3c047a	-0.045902707
42	0x3dbac936	0.09120409
43	0xbdee2733	-0.116285704
44	0xbd706ba0	-0.05869639
45	0x3ccb01ad	0.024781073
46	0x3d8b861c	0.06812689
47	0xbddf6209	-0.109073706
48	0x3c54d9c6	0.012991374
49	0x3c356364	0.01107106
50	0xbd027939	-0.03185389
51	0xbdee829a	-0.11646004
52	0xbe13bde8	-0.14427912
53	0xbdc8cef1	-0.09805096
54	0xbe0db4dc	-0.13838524
55	0x3d435e17	0.047697153
56	0xbd57383d	-0.052543867
57	0x3e172f06	0.14764032
58	0xbd4df193	-0.05027921
59	0x3d512296	0.051058374
60	0x3d185ce1	0.03719795
61	0xbe02848e	-0.12745878
62	0x3dca18e9	0.098680325
63	0xbe15f95e	-0.14645907
64	0x3dc36e52	0.09542526
65	0xba8ea083	-0.0010881576
66	0xbbbe9249	-0.0058157784
67	0xbd855a5c	-0.06511375
68	0xbd1f6bc7	-0.038921144
69	0xbdf8612c	-0.12127909
70	0x3a13202d	0.00056123995
71	0xbe131ecc	-0.14367217
72	0xbd94aeac	-0.072598785
73	0x3de332f0	0.110937
74	0x3d3b6ef8	0.045760125
75	0xbd5bb1fd	-0.05363654
76	0x3df9153d	0.12162254
77	0xbd7dfd1c	-0.062008962
78	0x3ddd1410	0.10794842
79	0x3d6c449e	0.057682626
80	0x3e00fad9	0.12595691
81	0xbd2210ac	-0.03956668
82	0xbe101c51	-0.14073302
83	0x3dfc34d8	0.12314767
84	0x3d14838f	0.036258277
85	0xbd6d3395	-0.05791052
86	0x3de030eb	0.1094683
87	0xbe158ddc	-0.14604896
88	0xbbe1136d	-0.006868771
89	0xbe02d301	-0.12775804
90	0x3e01c9b3	0.12674598
91	0xbe13e861	-0.14444114
92	0xbbf4d1bd	-0.007471292
93	0x3d571a17	0.052515116
94	0xbe174e2a	-0.14775911
95	0xbd86a9ae	-0.065753326
96	0xbe03acbb	-0.1285886
97	0x3e1df42a	0.15425172
98	0xbcd14bae	-0.025548782
99	0x3d5a9315	0.053362925
100	0x3e08b930	0.13351893
101	0x3e1f883a	0.1557931
102	0xbd934f4a	-0.071928576
103	0xbc62b7d4	-0.013837773
104	0x3ba30e5b	0.0049760765
105	0xbcbddee7	-0.023177577
106	0xbdee5287	-0.116368346
107	0xbe0e7f35	-0.13915713
108	0x3b11bde7	0.0022238435
109	0xbdb8b407	-0.090187125
110	0x3e834e25	0.25645557
111	0xbe0aaccc	-0.1354248
112	0x3d5a1e7d	0.053251732
113	0x3e4652f7	0.19367586
114	0xbdd1cc6e	-0.1024407
115	0x3c002776	0.007821908
116	0x3d2ebc8e	0.04266029
117	0xbd0d6099	-0.03451595
118	0xbdb736e9	-0.0894602
119	0xbe05e52e	-0.13075706
120	0x3e2c4878	0.1682452
121	0xbd93bca9	-0.072137184
122	0xbeffc78b	-0.49956927
123	0x3d829d93	0.06377711
124	0x3c2fd0cd	0.010730934
125	0x3e1a5d88	0.15074742
126	0x3ce3fa67	0.027829362
127	0x3db73aab	0.08946737
128	0x3e191cea	0.14952436
129	0xbe035a13	-0.1282733
130	0x3e0c3d1c	0.13695186
131	0x3e0333ee	0.12812778
132	0x3d8ccbb0	0.06874788
133	0xbd3a9125	-0.045548577
134	0x3dca6b3e	0.09883736
135	0x3d8cee5d	0.06881402
136	0xbdee140f	-0.116249196
137	0x3cd18d85	0.025580177
138	0x3d0762ed	0.033053327
139	0x3da0f551	0.078592904
140	0xbe07ebf9	-0.1327361
141	0xbdd121d8	-0.10211533
142	0x3e3cc39c	0.18433994
143	0xbda9dc63	-0.082939886
144	0x3e152454	0.1456464
145	0x3e2c6279	0.1683444
146	0x3d29c0a7	0.041443493
147	0x3dd1c92c	0.102434486
148	0x3e2506b9	0.16115846
149	0xbdc6e772	-0.097121134
150	0xbe16394e	-0.14670298
151	0xbd00f416	-0.03148278
152	0x3d21efe7	0.03953543
153	0x3dec008e	0.11523543
154	0xbed16328	-0.40895963
155	0xbce115ca	-0.02747621
156	0xbdbbe18c	-0.09173879
157	0xbe1175a7	-0.14205037
158	0x3cfcf28a	0.03087737
159	0x3e314845	0.17312725
160	0x3d9b9c34	0.07598153
161	0xbcecd290	-0.028908998
162	0xbdbac888	-0.091202796
163	0x3d3417a5	0.04396786
164	0x3d16c069	0.03680459
165	0x3d8780eb	0.06616386
166	0xbd798721	-0.060919885
167	0xbca82d95	-0.020529548
168	0x3dd6b9f3	0.10484686
169	0xbe0c9e7e	-0.13732335
170	0x3d4b3a7b	0.04961632
171	0x3c73c21e	0.014877824
172	0x3dd9b70c	0.106306165
173	0x3df92909	0.1216603
174	0xbdfc177f	-0.12309169
175	0xbdf96f51	-0.12179435
176	0x3e081f06	0.13293085
177	0xbae8caff	-0.0017760693
178	0x3ddc5c05	0.10759739
179	0xbdf84c92	-0.1212398
180	0xbdac59b5	-0.08415548
181	0xbe071be2	-0.1319423
182	0xbd9760e5	-0.07391528
183	0xbdd2cc0e	-0.102928266
184	0xbc7e1bb2	-0.015509533
185	0x3d268ed9	0.040663574
186	0x3d54924d	0.051897336
187	0xbd6f0cb3	-0.05836172
188	0xbc8dca22	-0.017308298
189	0xbc8c37a5	-0.017116377
190	0xbc323e3f	-0.010879098
191	0x3d144e78	0.036207646
192	0xbc8f3796	-0.01748256
193	0x3d894c3c	0.06703994
194	0xbcfb69f6	-0.030690175
195	0xbdbe3186	-0.092867896
196	0xbe1811ff	-0.14850615
197	0xbcd7751d	-0.026300961
198	0xbe0eebb9	-0.13957109
199	0x3e0b9322	0.13630345
200	0xbddbf4d5	-0.107400574
201	0x3cb67bb3	0.022275781
202	0x3de614a9	0.11234409
203	0x3cc565a4	0.024096318
204	0xbe12b9f2	-0.14328745
205	0xbd5db282	-0.054125316
206	0xbdf1a983	-0.1179991
207	0xbc7df2e0	-0.0154998
208	0x3cfa728e	0.030572202
209	0x3d2cd3ba	0.042194106
210	0xbe035d96	-0.12828669
211	0x3d9f33c4	0.077735454
212	0xbdaf433b	-0.08557745
213	0x3dcdca6e	0.10048376
214	0xbd6bafdb	-0.057540756
215	0xbd858227	-0.06518965
216	0x3dc516c7	0.09623485
217	0x3d878b59	0.06618375
218	0x3dd42e76	0.10360424
219	0x3c36e92d	0.011163992
220	0x3e06f601	0.1317978
221	0x3e1a7442	0.15083411
222	0x3d0a4914	0.0337611
223	0x3e410d41	0.18852712
224	0xbd1c328e	-0.03813415
225	0xbdc5c828	-0.096573174
226	0x3d673622	0.05644811
227	0xbd81f2a1	-0.06345106
228	0xbdfdf2ee	-0.12399851
229	0x3c84ecf1	0.016226264
230	0x3d6885db	0.05676828
231	0xbd861500	-0.06546974
232	0x3c4b784d	0.012418819
233	0x3bb43751	0.0054997583
234	0xbd44fd52	-0.048093148
235	0x3d26874e	0.04065638
236	0x3e0028c9	0.12515558
237	0x3e087011	0.13324
238	0xbd19871b	-0.037482362
239	0x3d28a6b7	0.041174617
240	0xbce8d53b	-0.028421989
241	0xbb9a1644	-0.0047023613
242	0xbd6bc755	-0.057563145
243	0xbd2bfc11	-0.041988436
244	0x3ccd4273	0.0250561
245	0x3d502437	0.050815787
246	0x3d6e749f	0.058216687
247	0xbe148b7f	-0.14506339
248	0xbe055341	-0.1302004
249	0x3d2a1b71	0.041530076
250	0xba85e338	-0.0010214811
251	0x3ba44bed	0.005013934
252	0x3bd8f804	0.0066213626
253	0x3db6b113	0.08920493
254	0xbdc026e0	-0.09382415
255	0xbd89dd34	-0.06731644

net.flow_mapping.0.affine_layers.0.net.4.bias f4 [32]
0	0x3d19b1a1	0.037522916
1	0xbdd63c31	-0.10460699
2	0x3df8e906	0.12153821
3	0xbe4db074	-0.20086843
4	0xbcd0ad84	-0.025473364
5	0xbc216a7f	-0.009852051
6	0x3e3c8aaa	0.18412271
7	0x3e0e961e	0.13924453
8	0xbd578f7a	-0.052627064
9	0x3e7be83b	0.24600308
10	0xbef09089	-0.46985272
11	0xbeaca7da	-0.3372181
12	0x3bd04205	0.0063555264
13	0x3ef1e028	0.4724133
14	0xbeb2a9de	-0.34895223
15	0x3d9fe679	0.07807631
16	0x3f05585a	0.5208794
17	0xbe690f74	-0.22759801
18	0xbe315441	-0.17317297
19	0xbe477c34	-0.19480973
20	0x3e3bd347	0.18342315
21	0x3e09ca17	0.13455997
22	0xbe7b3338	-0.24531257
23	0xbc9774a6	-0.01848824
24	0xbddf591d	-0.10905669
25	0xbca659bc	-0.02030646
26	0xbea52849	-0.32257298
27	0x3ec82240	0.3908863
28	0x3efe3140	0.4964695
29	0xbde1dedc	-0.11028835
30	0xbd692968	-0.056924254
31	0xba68f381	-0.00088863826

net.flow_mapping.0.affine_layers.0.net.6.weight f4 [32, 32]
0	0xbdbfd7a7	-0.09367304
1	0x3d7c8c5a	0.061657287
2	0x3dc3e43e	0.09565018
3	0xbd2dd3f3	-0.04243846
4	0xbe18f68c	-0.149378
5	0xbd6f9598	-0.058492273
6	0xbd4d94dc	-0.05019079
7	0xbcc2c8ec	-0.023777448
8	0xbded53e2	-0.11588265
9	0x3e17a273	0.14808063
10	0x3d4aff60	0.04955995
11	0x3cbd8bf9	0.023138033
12	0xbc8f3944	-0.017483361
13	0x3d147dae	0.03625267
14	0xbd31d872	-0.04341931
15	0xbda02b0d	-0.07820711
16	0x3dc818f4	0.097703844
17	0x3dff134d	0.12454853
18	0x3e0b5e20	0.13610125
19	0xbe144fd7	-0.14483581
20	0x3d33001b	0.043701272
21	0xbd945575	-0.07242862
22	0xbd5685e6	-0.05237379
23	0xbdd532e3	-0.104100965
24	0x3e045c23	0.12925772
25	0x3dcbbbd6	0.09947936
26	0xbd204e66	-0.039137267
27	0x3bfb668a	0.0076721357
28	0x3dc54a81	0.09633351
29	0xbd787882	-0.0606618
30	0xbd97e412	-0.07416548
31	0xbd41b330	-0.047290027
32	0x3d8bea7a	0.06831832
33	0x3da28602	0.07935716
34	0xbddce920	-0.107866526
35	0xbd0eff6b	-0.034911554
36	0x3cebc8d5	0.028782288
37	0xbb53be6c	-0.0032309545
38	0x3e3760c8	0.17908013
39	0x3db97cf1	0.09057034
40	0x3e4db3c5	0.20088108
41	0xbce5a67a	-0.028033484
42	0x3e2f2faa	0.17108026
43	0x3e12fda9	0.14354576
44	0xbcc66c03	-0.024221426
45	0x3ed5975c	0.4171704
46	0x3d8d6f8a	0.0690604
47	0xbdc37689	-0.09544093
48	0x3e281126	0.16412792
49	0x3e2ecaad	0.17069502
50	0xbc2edea4	-0.010673199
51	0xbd4b1bde	-0.049587123
52	0x3e2af42c	0.16694707
53	0x3e34d534	0.17659456
54	0x3db5554f	0.08854162
55	0xbb49ba5d	-0.0030781247
56	0x3cc3c119	0.023895787
57	0xbdd8acb1	-0.10579813
58	0x3d9a1f6e	0.07525526
59	0x3d1bec26	0.038067006
60	0x3e74f92e	0.2392318
61	0xba59e39d	-0.000831181
62	0x3df428cb	0.11921843
63	0x3d1c3762	0.038138755
64	0x3cfcbf88	0.030853048
65	0x3dab6894	0.08369556
66	0x3d314740	0.04328084
67	0x3c337739	0.010953718
68	0xbd151f3e	-0.036406748
69	0xbc5c5532	-0.0134480465
70	0xbdfebb0f	-0.12438022
71	0x3ab12d49	0.0013517524
72	0x3d86d768	0.06584054
73	0xbe1260d9	-0.14294757
74	0x3c6a6aa7	0.014307654
75	0xbd990b0a	-0.07472809
76	0xbe18349a	-0.14863816
77	0x3d97689f	0.07393002
78	0x3d15371d	0.036429513
79	0xbc0e0d6f	-0.008670195
80	0xbd392a40	-0.04520631
81	0x3da8147f	0.08207034
82	0x3cb1f391	0.021722587
83	0x3d95dc5b	0.0731742
84	0x3c32d4ae	0.010914965
85	0x3da0d633	0.07853355
86	0xbc6622a7	-0.014046348
87	0xbe0a3b33	-0.13499145
88	0xbe0f261f	-0.13979386
89	0xbd73eb23	-0.059550416
90	0x3e03c993	0.12869863
91	0x3b39238a	0.0028249943
92	0x3d10fbf0	0.035396516
93	0x3dd54502	0.10413553
94	0x3dc6cfaf	0.09707581
95	0x3a0de7fb	0.0005413291
96	0xbe0a9a31	-0.13535382
97	0xbdc552ab	-0.09634908
98	0xbd463c07	-0.04839709
99	0xba98567d	-0.0011622455
100	0xbe07bbde	-0.1325526
101	0x3dfbd764	0.12296942
102	0x3de84736	0.113417074
103	0x3d7dd7e7	0.06197348
104	0x3e13cd30	0.14433742
105	0x3c6e6e94	0.014552731
106	0xbe0fd89c	-0.14047474
107	0xbd9eec80	-0.077599525
108	0xbd87895b	-0.06617995
109	0xbda5b886	-0.08091836
110	0xbd5805b4	-0.052739814
111	0xbb2f946e	-0.0026791352
112	0xbddbcceb	-0.107324444
113	0xbd826eec	-0.06368813
114	0xbe137332	-0.14399412
115	0xbdf195fe	-0.11796187
116	0xbe0ea58d	-0.1393034
117	0xbc2168e7	-0.009851671
118	0xbde08d21	-0.10964418
119	0xbb3825f5	-0.0028098796
120	0x3c414046	0.011795109
121	0xbdddb079	-0.10824675
122	0x3d7df811	0.062004153
123	0x3d410510	0.04712397
124	0xbd960581	-0.073252685
125	0x3cd0ff8d	0.025512481
126	0xbc97366e	-0.018458571
127	0x3d87de08	0.06634146
128	0x3df64793	0.120253704
129	0x3e06eeb8	0.13177001
130	0xbdfa5f77	-0.1222524
131	0x3d8a6687	0.06757837
132	0xbdc8e1b7	-0.09808677
133	0x3d2295df	0.03969371
134	0x3e335f2e	0.17516777
135	0xbdd6ac0b	-0.10482033
136	0x3dfb7b98	0.12279433
137	0x3d5d9173	0.05409379
138	0x3e487725	0.195767
139	0x3d8db0e3	0.06918504
140	0x3d9de572	0.07709779
141	0xbe20923b	-0.15680782
142	0x3dcf336d	0.101172306
143	0x3def24be	0.1167693
144	0x3e0c5588	0.13704503
145	0x3d81d062	0.06338574
146	0xbe174eb2	-0.14776114
147	0x3d9bd7a2	0.07609488
148	0xbdbaaafc	-0.09114644
149	0x3e20d9e6	0.15708122
150	0x3e110a5a	0.14164105
151	0x3d50f52f	0.051015075
152	0x3c2f2dbd	0.010692057
153	0xbd7ac141	-0.061219458
154	0xbca1834d	-0.01971593
155	0x3ddcacf2	0.10775174
156	0x3d54d096	0.051956736
157	0xbd898fdd	-0.06716893
158	0x3d1015d6	0.035177074
159	0x3db5808b	0.08862408
160	0x3cc9f008	0.024650589
161	0xbdf3fc97	-0.11913412
162	0xbd21935a	-0.039447166
163	0xbdd9a3ff	-0.10626983
164	0x3df1aef9	0.118009515
165	0x3d3d55e9	0.04622451
166	0x3cf1302d	0.029441917
167	0x3dbbcd91	0.09170068
168	0xbd6286d4	-0.055304363
169	0x3de05685	0.10954002
170	0xbe0dc4a9	-0.13844551
171	0x3d684af1	0.056712095
172	0xbcf533ef	-0.02993199
173	0x3e020342	0.12696555
174	0x3dd54f15	0.10415474
175	0x3d2d0134	0.042237476
176	0x3db78bf6	0.08962242
177	0x3df17030	0.11788976
178	0x3cb0316a	0.021507937
179	0xbcae4415	-0.021272698
180	0xbda1443a	-0.07874341
181	0xbe052abb	-0.13004582
182	0xbdac2630	-0.08405721
183	0x3e1326d0	0.14370275
184	0xbe1d1a1b	-0.1534199
185	0x3e08ac9e	0.13347098
186	0xbd6880cd	-0.05676346
187	0xbdbfb273	-0.09360208
188	0x3e0932d0	0.1339829
189	0xbd82ffdd	-0.06396458
190	0xbdc74e6b	-0.09731754
191	0xbdc20d0f	-0.09475147
192	0x3c929ca1	0.017896952
193	0x3b30d5fb	0.002698301
194	0x3d7af39b	0.061267477
195	0xbdbd3ec6	-0.09240489
196	0x3dd6de1a	0.10491581
197	0xbd21190d	-0.03933053
198	0xbd872cb5	-0.06600324
199	0xbdcec5c9	-0.10096318
200	0xbdc01ceb	-0.09380516
201	0xbded9e7e	-0.116024956
202	0x3de405ef	0.11133944
203	0x3e152ff6	0.14569077
204	0x3e033205	0.1281205
205	0xbdf29c4e	-0.11846219
206	0xbe13fdd9	-0.14452304
207	0xbd5cfd01	-0.05395222
208	0xbe04f6dd	-0.12984796
209	0xbe0b71cc	-0.13617629
210	0xbddf662f	-0.10908162
211	0x3c11eff5	0.008907308
212	0x3d9ea783	0.07746794
213	0x3d9f766c	0.07786259
214	0x3d0fa630	0.035070598
215	0xbdd416dd	-0.10355923
216	0x3d7b2f5f	0.061324473
217	0xbe136ccc	-0.14396971
218	0x3d2366a8	0.039892823
219	0xbd9673fa	-0.073463395
220	0x3e14a5c8	0.14516366
221	0xbd28bdd5	-0.041196663
222	0x3df7622c	0.12079272
223	0xbdf45902	-0.119310394
224	0xbc846a2e	-0.016163912
225	0xbd074b14	-0.033030584
226	0xbde66f59	-0.11251707
227	0x3dcd5cd8	0.10027474
228	0x3cd8f555	0.02648417
229	0x3e1f7547	0.15572082
230	0x3d9dba0b	0.077015005
231	0xbe1094e1	-0.14119293
232	0xbdb82152	-0.0899073
233	0xbd970465	-0.07373885
234	0x3c127e7d	0.00894129
235	0x3ddd8b78	0.10817617
236	0x3d5a0f65	0.053237338
237	0x3e28c674	0.16481954
238	0xbd7c1f55	-0.061553318
239	0xbd45ec9a	-0.048321344
240	0x3def0967	0.11671715
241	0xbdfd60a0	-0.123719454
242	0x3dc96480	0.09833622
243	0xbe19d021	-0.15020801
244	0xbe1ae427	-0.15126096
245	0x3c85224f	0.016251711
246	0x3df069fc	0.11738965
247	0x3d1bf499	0.038075063
248	0x3cb87d31	0.022520633
249	0x3d495b0c	0.049159095
250	0xbd2e0094	-0.04248102
251	0xbd9aab5f	-0.07552218
252	0x3e403061	0.18768455
253	0xbdcf052a	-0.10108407
254	0x3dc5e1a1	0.09662176
255	0xbde47bb2	-0.111564055

net.flow_mapping.0.affine_layers.0.net.6.bias f4 [32]
0	0x3e0037e5	0.12521322
1	0xbe3f8e28	-0.18706572
2	0x3dd98f29	0.10623009
3	0xbd5cf478	-0.05394408
4	0xbe40761b	-0.18795054
5	0xbe02fedd	-0.12792535
6	0x3c86fb82	0.01647735
7	0xba7b3f59	-0.00095843297
8	0x3dc7540b	0.09732827
9	0x3e3c391f	0.18381165
10	0xbe63821c	-0.22217602
11	0xbc92b6cf	-0.017909436
12	0x3cfcb5d9	0.03084843
13	0xbe8ef983	-0.27924737
14	0x3ec3e8c9	0.38263538
15	0xbd9e2049	-0.07721002
16	0x3dc2c886	0.09510903
17	0xbd196d25	-0.037457604
18	0xbec1b2c8	-0.37831712
19	0x3e4a88e3	0.1977878
20	0xbe5c3757	-0.21505485
21	0xbd1698b1	-0.03676671
22	0xbe8ba9b9	-0.27277926
23	0x3e3d05fc	0.18459314
24	0x3dce0337	0.10059207
25	0xbc58fd6a	-0.013244012
26	0xbddca682	-0.10773946
27	0x3dc5a1b0	0.0964998
28	0x3c8f306a	0.01747914
29	0xbdb334e5	-0.08750323
30	0x3e602ea3	0.2189279
31	0x3ebfc887	0.37457678

net.flow_mapping.0.affine_layers.0.net.8.weight f4 [32, 32]
0	0xbd74d02d	-0.059768844
1	0x3ceba1a5	0.028763602
2	0x3cb4196d	0.02198478
3	0x3c8ab8f1	0.01693389
4	0xbc5c4df1	-0.013446317
5	0xbddf09bc	-0.108905286
6	0xbdbe86b9	-0.0930304
7	0x3d7203ec	0.05908577
8	0xbdc6d7df	-0.09709143
9	0x3e065e9f	0.13122033
10	0xbda82070	-0.08209312
11	0xbd6d0245	-0.057863493
12	0x3cf2c392	0.02963427
13	0xbdb4a54e	-0.08820592
14	0xbda64dee	-0.08120333
15	0xbda0adec	-0.07845673
16	0x3c90c353	0.017671263
17	0x3dd4a7dd	0.1038358
18	0xbcf9a151	-0.03047243
19	0xbe09a88b	-0.134432
20	0xbd90f4d3	-0.070779465
21	0xbd9631b0	-0.07333696
22	0x3dfb606c	0.122742504
23	0x3d026368	0.031833082
24	0x3bacea76	0.0052769734
25	0x3de65301	0.112463005
26	0xbd2cce4f	-0.04218894
27	0xbd14b6bd	-0.036307085
28	0xbdd768f2	-0.105180636
29	0xbd68b7b2	-0.05681581
30	0xbd969cf9	-0.07354159
31	0xbd3066a5	-0.04306664
32	0xbd044321	-0.03229058
33	0x3dc8eb3f	0.09810495
34	0x3d31f88c	0.043449923
35	0x3d9f688e	0.07783614
36	0x3e2fd70f	0.17171882
37	0xbc7c0360	-0.015381664
38	0xbdad095c	-0.08449051
39	0x3bf59af3	0.007495278
40	0x3e2b6d4a	0.16740909
41	0xbd2dede6	-0.042463206
42	0x3e04680a	0.12930313
43	0x3dbc056a	0.0918072
44	0x3d32d4d8	0.043660015
45	0x3d5cfa2d	0.053949524
46	0x3e8c325e	0.27382177
47	0x3cf2f982	0.02965999
48	0x3d6b4692	0.057440348
49	0xbd6153f7	-0.055011716
50	0xbeb6c482	-0.356968
51	0x3d40989c	0.04702054
52	0x3e3ba7e8	0.1832577
53	0xbba5f0a0	-0.005064085
54	0x3d02818a	0.03186182
55	0xbd112ff2	-0.035446115
56	0x3d3e21b4	0.04641886
57	0xbd8f9a76	-0.07011883
58	0xbdb0a707	-0.08625608
59	0x3d4b548a	0.04964117
60	0x3e162193	0.14661245
61	0x3da20338	0.0791077
62	0x3d22e375	0.0397677
63	0x3ee08a99	0.43855742
64	0x3e04a600	0.12953949
65	0x3dad2f34	0.08456269
66	0x3cfb23a8	0.03065665
67	0x3de7d490	0.1131984
68	0xbc977ddf	-0.018492637
69	0xbc603154	-0.013683636
70	0xbc6cfc59	-0.014464461
71	0x3de479f1	0.11156071
72	0xbd460dd2	-0.048353024
73	0xbe01eee5	-0.12688787
74	0xbd99e22d	-0.07513843
75	0xbe0a7681	-0.13521768
76	0x3ca58da5	0.020209143
77	0x3dc7cab1	0.09755457
78	0x3ec13904	0.37738812
79	0x3e05604b	0.13025014
80	0x3d7857ec	0.060630724
81	0xbcb5799a	-0.02215271
82	0x3e0976f6	0.13424286
83	0xbd6cd35f	-0.057818767
84	0x3e0ab38b	0.13545053
85	0xbdbc75bc	-0.092021435
86	0xbc80acfb	-0.015707484
87	0xbd977c71	-0.07396782
88	0x3d6879f1	0.056756917
89	0x3c2c6299	0.010521554
90	0xbce24336	-0.02761994
91	0xbdc99a7a	-0.09843917
92	0x3e0ef9c1	0.13962461
93	0xbc25a91d	-0.0101111205
94	0xbc6d2aab	-0.014475505
95	0xbedaf231	-0.42762902
96	0xbd146fbc	-0.03623937
97	0xbddf7968	-0.10911828
98	0x3dfa4a62	0.12221219
99	0xbe024850	-0.12722898
100	0xbe1bebcc	-0.15226668
101	0xbd32c9bc	-0.04364942
102	0x3d4b3f58	0.049620956
103	0x3dc80dc5	0.09768251
104	0xbd344d0a	-0.044018783
105	0x3df58b50	0.119894624
106	0xbdce1e62	-0.10064389
107	0x3df2d100	0.1185627
108	0xbd3796ec	-0.044821665
109	0x3d94462a	0.07239945
110	0xbe1cbc9a	-0.15306321
111	0x3d540c24	0.05176939
112	0x3e01e8c2	0.12686446
113	0xbe1142b3	-0.141856
114	0xbe080c86	-0.13286027
115	0xbd58fb58	-0.052974075
116	0x3ddbf0d0	0.10739291
117	0x3dd68ed5	0.10476462
118	0x3dd58f66	0.10427742
119	0xbdedbed9	-0.11608667
120	0xbdf04f82	-0.11733915
121	0xbd57e17b	-0.05270527
122	0xbd8f445b	-0.0699546
123	0xbe0eaebc	-0.13933843
124	0xbd2c2ea6	-0.042036675
125	0xbd8f346a	-0.06992419
126	0x3e044f2d	0.12920828
127	0xbcbe7442	-0.023248795
128	0xbe039362	-0.12849191
129	0x3cf59f57	0.029983206
130	0x3df82519	0.12116451
131	0x3d0da649	0.03458241
132	0xbd548aca	-0.051890172
133	0x3df0e7dc	0.11762974
134	0x3e12f27a	0.1435031
135	0xbde28e87	-0.11062341
136	0xbe118e9a	-0.14214554
137	0x3ca4a63b	0.020098796
138	0x3df7b5bd	0.12095211
139	0x3caaa9c2	0.0208329
140	0xbba31e75	-0.004977996
141	0xbe168f6f	-0.14703153
142	0x3d3b614b	0.045747083
143	0xbdf735dd	-0.120708205
144	0x3d945ed9	0.07244653
145	0x3d605161	0.05476511
146	0x3ddcc94a	0.1078058
147	0xbd16c67f	-0.036810394
148	0x3e00edeb	0.12590759
149	0xbdf9a3a3	-0.12189414
150	0x3d8ce8ea	0.06880362
151	0xbd02eb56	-0.031962715
152	0x3df73d1e	0.12072204
153	0xbd345e3b	-0.044035178
154	0x3de37557	0.11106365
155	0xbe0066eb	-0.1253926
156	0xbd50c659	-0.05097041
157	0x3cfb2731	0.030658336
158	0x3d65cdd0	0.05610448
159	0xbd033d95	-0.03204115
160	0x3d04d0a0	0.032425523
161	0xbca64bb9	-0.02029978
162	0xbdd6d444	-0.10489705
163	0x3d9ddcf1	0.07708157
164	0x3dc7d1c9	0.0975681
165	0xbdc16e67	-0.09444886
166	0x3c83a71b	0.016070893
167	0xbd5f5559	-0.054524753
168	0x3cbb7c09	0.022886293
169	0x3dde01ea	0.10840209
170	0xbd6dbe24	-0.05804266
171	0xbd54a71d	-0.051917184
172	0xbd30dd82	-0.043179996
173	0x3d2a7e9e	0.041624658
174	0x3e2164e1	0.15761138
175	0x3d69d235	0.057085235
176	0x3e13cc19	0.14433326
177	0xbe0659cd	-0.13120194
178	0x3e2a86a7	0.16652928
179	0xbdc7613d	-0.097353436
180	0xbdcab511	-0.09897817
181	0x3dc5a89b	0.096512996
182	0x3e46659d	0.193747
183	0x3dc20572	0.09473695
184	0x3c83799e	0.016049203
185	0x3cc7faf2	0.024411652
186	0x3dd3c923	0.10341098
187	0x3b7538bd	0.0037417852
188	0x3befb906	0.0073157577
189	0x3e139ffc	0.14416498
190	0xbd193101	-0.03740025
191	0xbf05d1c3	-0.52273196
192	0x3d54b69e	0.05193197
193	0xbe09121d	-0.13385816
194	0xbd025de0	-0.031827807
195	0xbd797823	-0.060905587
196	0xbd9e6837	-0.07734721
197	0xbdfa9e9b	-0.12237283
198	0xbe1ae893	-0.15127783
199	0xbdbea797	-0.09309309
200	0x3dd149e6	0.10219173
201	0xbd4a9ed8	-0.04946789
202	0x3d2f50f4	0.042801812
203	0x3bcd3d6f	0.006263427
204	0xbdadecae	-0.08492409
205	0xbda5be3a	-0.080929235
206	0xbdf2d884	-0.11857703
207	0x3df3f038	0.119110525
208	0xbe08ef71	-0.1337259
209	0xbcd699f9	-0.026196467
210	0x3d194b2a	0.037425198
211	0xbdaeb639	-0.0853085
212	0xbe1de142	-0.1541796
213	0xbe055562	-0.13020852
214	0xbd886b3f	-0.066610806
215	0x3d6a4c3c	0.05720161
216	0x3e0f5291	0.1399634
217	0x3da31bf6	0.079643175
218	0xbc1609d7	-0.009157619
219	0x3cb40eaa	0.021979649
220	0x3dbe0b85	0.09279541
221	0x3e0f0b82	0.13969234
222	0x3cd2e912	0.025745902
223	0x3d408715	0.047003824
224	0x3dbff223	0.09372356
225	0xbd79a140	-0.060944796
226	0x3e069f66	0.13146743
227	0x3ced0269	0.028931813
228	0x3e031273	0.12800007
229	0x3c8b93f4	0.017038323
230	0xbd8d00a1	-0.068848856
231	0x3d6d5ab2	0.057947822
232	0x3d909fb0	0.07061708
233	0xbd912fbc	-0.07089183
234	0x3dbca08b	0.09210309
235	0xbc3099e5	-0.010778879
236	0xbdeaa22a	-0.114567116
237	0xbe1f1ed1	-0.155391
238	0xbe1715c5	-0.14754398
239	0xbdcdfd76	-0.100581095
240	0xbd26ee15	-0.040754396
241	0x3c4a5f10	0.012351766
242	0x3db4b426	0.08823423
243	0xbdad7424	-0.08469418
244	0x3cb3adbe	0.021933433
245	0xbd2b9241	-0.041887525
246	0x3d919c23	0.07109859
247	0x3e00f34b	0.12592809
248	0x3dd6a0a0	0.104798555
249	0xbc24efc8	-0.010066934
250	0xbdf69951	-0.120409615
251	0xbe000dc2	-0.12505248
252	0xbd792f23	-0.06083597
253	0x3d17a62c	0.03702371
254	0xbd581f3c	-0.052764162
255	0xbc981843	-0.018566256

net.flow_mapping.0.affine_layers.0.net.8.bias f4 [32]
0	0x3c32a42e	0.010903401
1	0x3e81016f	0.25196406
2	0xbd776f5f	-0.060408946
3	0xbb040008	-0.002014162
4	0xbbcfe575	-0.006344492
5	0xbdbbece9	-0.091760464
6	0xbde15446	-0.11002402
7	0x3c917f51	0.017760905
8	0xbe09a7b5	-0.13442881
9	0xbe085bd8	-0.13316286
10	0xbe01ce12	-0.12676266
11	0xbe0a36c6	-0.13497457
12	0x3b1ed457	0.002423545
13	0x3d57e23f	0.052706
14	0xbdfd9240	-0.123814106
15	0x3c5e30d0	0.0135614425
16	0xbe273ea3	-0.16332488
17	0xbd38b076	-0.04509016
18	0xbe80e02f	-0.25171039
19	0x3e8dae9b	0.27672276
20	0xbdd1effa	-0.1025085
21	0x3e743c49	0.23851122
22	0x3d83a373	0.0642766
23	0xbe844f28	-0.2584164
24	0x3db2a052	0.08721985
25	0xbdc9a212	-0.098453656
26	0x3e1d5c3a	0.15367213
27	0xbe8fc5e4	-0.28080666
28	0xbd836be1	-0.06417061
29	0x3dc408da	0.09572001
30	0x3d8ad779	0.067793794
31	0x3ed073fa	0.40713483

net.flow_mapping.0.affine_layers.0.net.10.weight f4 [2, 32]
0	0x3d0dcff9	0.034622166
1	0xbe9acbfc	-0.30233753
2	0xbebdd075	-0.37073103
3	0x3dadf1a4	0.08493355
4	0x3df61723	0.12016132
5	0xbe75c7f5	-0.24002059
6	0xbdf60714	-0.12013069
7	0x3e06e2c9	0.13172449
8	0xbddd2ed4	-0.107999474
9	0x3e79a2ea	0.24378553
10	0xbd753ba8	-0.059871346
11	0xbdfe6f52	-0.124235764
12	0xbe0fcc41	-0.1404276
13	0x3e83fe39	0.25779894
14	0xbd862eb3	-0.06551876
15	0x3dce4c44	0.1007314
16	0x3d4018a0	0.046898484
17	0xbe0c908d	-0.13727017
18	0xbc55404f	-0.013015821
19	0xbe0221a6	-0.12708148
20	0xbe6771b9	-0.22601976
21	0xbd4a4cc7	-0.049389627
22	0xbed3ca4c	-0.41365278
23	0x3eaff3d2	0.34365708
24	0x3d46185d	0.04836308
25	0x3dbacbf5	0.09120933
26	0xbe6dec93	-0.23234777
27	0xbdc405c1	-0.0957141
28	0x3e32980a	0.17440811
29	0x3e003a9f	0.12522362
30	0x3e10b768	0.14132464
31	0xbf085567	-0.53255314
32	0x3dc5f3d1	0.09665645
33	0xbdbd1f0a	-0.09234436
34	0x3d9dacaf	0.076989524
35	0xbb5cd2ee	-0.003369506
36	0xbc2f61a7	-0.0107044345
37	0x3dddd66e	0.10831915
38	0x3d988a27	0.074482255
39	0xbdd1c72b	-0.102430664
40	0x3d4988f0	0.04920286
41	0x3e6d509c	0.23175281
42	0xbdf5c2da	-0.120000556
43	0xbdec24d1	-0.1153046
44	0xbe0d8ca4	-0.13823181
45	0x3dc88af3	0.097921275
46	0x3dd5dca7	0.10442477
47	0x3c1848eb	0.009294729
48	0x3ec01855	0.37518564
49	0x3df4a038	0.11944622
50	0x3e029299	0.12751235
51	0xbe11ce61	-0.14238884
52	0xbd32e5ca	-0.043676175
53	0xbec5579f	-0.38543412
54	0x3e5601db	0.20899145
55	0x3e9b7b44	0.30367482
56	0xbce5580f	-0.027996091
57	0x3d1d614a	0.03842286
58	0xbddb1c1f	-0.10698723
59	0x3e1d3c18	0.15354955
60	0x3dab2251	0.08356155
61	0xbc981171	-0.018563004
62	0x3d6b524a	0.057451524
63	0xbd2d3afd	-0.042292584

net.flow_mapping.0.affine_layers.0.net.10.bias f4 [2]
0	0xbea9781f	-0.33099458
1	0xbe44f2ab	-0.19233195

net.flow_mapping.0.affine_layers.1.net.0.weight f4 [32, 1]
0	0x3e710d08	0.23540127
1	0xbf46490c	-0.7745521
2	0x3f12f053	0.57397956
3	0xbdf7e503	-0.121042274
4	0x3f18d6e1	0.5970288
5	0x3f1d9cbe	0.61567295
6	0x3eb92cbf	0.3616695
7	0x3ede702d	0.43444958
8	0x3f2b0134	0.6679871
9	0x3f078d30	0.5294981
10	0x3f096aa6	0.5367836
11	0x3f573d3d	0.8407782
12	0x3eabcf74	0.33556712
13	0x3cf5db36	0.030011754
14	0xbec9adca	-0.39390403
15	0x3d2d51db	0.04231439
16	0xbe8a8220	-0.27052402
17	0x3d2e6846	0.04257991
18	0xbf224bcd	-0.6339691
19	0x3dcc5973	0.099779986
20	0xbef60cb6	-0.48056573
21	0xbe0161ae	-0.12634918
22	0xbe6d8ee2	-0.23199037
23	0xbeefd4c1	-0.46842006
24	0x3f31dc81	0.6947709
25	0x3f1dbae9	0.6161333
26	0x3ed0fa52	0.4081598
27	0xbf23a32f	-0.63920873
28	0xbf3103d3	-0.6914646
29	0x3f351e16	0.7074903
30	0xbf391349	-0.7229505
31	0x3f2dddbd	0.6791647

net.flow_mapping.0.affine_layers.1.net.0.bias f4 [32]
0	0xbd0a662c	-0.033788845
1	0xbe94b403	-0.29043588
2	0x3d74ad69	0.05973569
3	0xbec39f94	-0.38207686
4	0xbd57e4c4	-0.052708402
5	0x3d9294da	0.071572974
6	0xbeab71e5	-0.33485332
7	0xbeb602c8	-0.35548997
8	0xbec365df	-0.3816366
9	0xbf67e2ef	-0.9058065
10	0x3ef7e721	0.48418525
11	0xbf030438	-0.5117831
12	0x3f043452	0.51642334
13	0x3f29fae9	0.66398484
14	0x3efe90b7	0.49719784
15	0xbf72797b	-0.94716614
16	0xbe9e2c17	-0.30893013
17	0xbf333bbb	-0.70013016
18	0xbecb92bf	-0.39760396
19	0x3d10fa8a	0.035395183
20	0x3eccef57	0.40026352
21	0x3ee78f8c	0.45226705
22	0x3efb1b07	0.49044058
23	0xbe7965ac	-0.24355191
24	0xbea58153	-0.3232523
25	0xbc88243c	-0.01661884
26	0x3ebf518b	0.373669
27	0x3e4cc2ca	0.19996181
28	0x3ebcfcbe	0.36911577
29	0x3e563891	0.20920016
30	0xbf1e007d	-0.61719495
31	0x3e2b2a0f	0.16715263

net.flow_mapping.0.affine_layers.1.net.2.weight f4 [32, 32]
0	0x3de185fd	0.11011884
1	0x3d9286ce	0.07154618
2	0x3c9568ba	0.018238414
3	0xbcc6be26	-0.024260592
4	0x3d10de9a	0.03536854
5	0xbd988358	-0.07446927
6	0xbe096c89	-0.13420309
7	0xbdb963db	-0.09052249
8	0xbd2449a7	-0.040109303
9	0xbca09ac0	-0.01960504
10	0x3d95e094	0.073182255
11	0xbd7b0c55	-0.061291058
12	0x3cf44249	0.029816763
13	0x3cf2182d	0.029552544
14	0xbd65de8e	-0.056120448
15	0x3d17ba60	0.037042975
16	0x3dc551a9	0.09634716
17	0x3dd3ce76	0.10342114
18	0x3dd77a1c	0.105213374
19	0xbd644c43	-0.05573679
20	0xbdec2996	-0.115313694
21	0x3de69d69	0.11260492
22	0xbd809e49	-0.062801905
23	0x3cddca77	0.027074082
24	0xbd8c7d0c	-0.06859788
25	0x3c62377e	0.013807176
26	0xbe05fd46	-0.13084897
27	0x3d44fd1b	0.048092943
28	0x3c5a698b	0.0133308275
29	0xbdddf2bf	-0.10837316
30	0x3d7bf750	0.061515152
31	0xbcc0cdae	-0.023535576
32	0xbdb1ab57	-0.086752586
33	0xbd9a26fd	-0.07526968
34	0xbd63d8e6	-0.055626772
35	0xbdac0057	-0.08398502
36	0x3e08e436	0.13368306
37	0xbe11b009	-0.14227308
38	0xbd4e8ce7	-0.050427344
39	0x3d1bc060	0.03802526
40	0x3c8ff295	0.017571727
41	0xbd56d1ae	-0.05244606
42	0xbd443bb5	-0.047908504
43	0xbde86fce	-0.1134945
44	0x3dd90c97	0.105981044
45	0xbd92e1ab	-0.07171949
46	0xbd3304c3	-0.043705713
47	0xbe454e60	-0.19268179
48	0x3e01d1c2	0.12677673
49	0xbe54f143	-0.20795159
50	0x3e0801e7	0.13281976
51	0xbe0c2e85	-0.13689621
52	0xbdfa0816	-0.122085735
53	0x3df960b0	0.12176645
54	0x3c404abd	0.011736569
55	0x3c90fb7e	0.017698046
56	0x3d6ef841	0.058342222
57	0x3d553bf6	0.052059136
58	0x3db82ee6	0.0899332
59	0x3cab0059	0.02087419
60	0x3d4d6141	0.050141577
61	0x3ddcc77f	0.10780238
62	0x3de8e2e4	0.11371401
63	0x3de6aa6c	0.11262974
64	0xbddbda9f	-0.10735058
65	0xbddc591f	-0.10759186
66	0xbd390ac8	-0.045176297
67	0x3df138a8	0.117783844
68	0xbd58a046	-0.052887224
69	0xbd974c3d	-0.07387588
70	0xbda0f734	-0.0785965
71	0xbc6636af	-0.0140511235
72	0x3db89b78	0.09014028
73	0xbd914c3c	-0.07094619
74	0x3b72977e	0.0037016566
75	0xbc86773c	-0.016414277
76	0x3c03e715	0.0080507
77	0x3e156ea2	0.14592984
78	0x3ded9ca1	0.1160214
79	0xbde2ab0f	-0.11067783
80	0xbdfa3e56	-0.12218921
81	0x3e06bece	0.13158724
82	0xbc4c5738	-0.012471966
83	0xbd03918f	-0.032121237
84	0xbdddc76a	-0.10829051
85	0x3d762073	0.06008954
86	0xbe0c6644	-0.13710886
87	0xbd770f3c	-0.060317263
88	0xbdcfd4a4	-0.1014798
89	0x3cb8be44	0.022551663
90	0xbd69f4da	-0.057118274
91	0xbd39e5e3	-0.045385253
92	0x3dc1dd27	0.094660096
93	0xbd77d558	-0.060506195
94	0x3d65b65f	0.056082126
95	0x3cc5444c	0.024080418
96	0xbdf6a13a	-0.1204247
97	0x3d1b58fa	0.03792665
98	0x3b921bdf	0.004458889
99	0xbd1e6dbb	-0.038678866
100	0x3e18c04b	0.14917104
101	0x3e23d7c0	0.16000271
102	0xbc166f8e	-0.00918187
103	0x3dde14ec	0.10843834
104	0xbd8e84c9	-0.069589205
105	0x3e0ed158	0.13947046
106	0x3e0b6501	0.13612749
107	0xbcf89670	-0.030345172
108	0x3de3da49	0.11125619
109	0x3d721dbc	0.05911039
110	0xbddb4767	-0.10706978
111	0xbd33d1c5	-0.043901224
112	0x3e0cacf3	0.1373785
113	0xbe2300cf	-0.15918277
114	0xbd8529d6	-0.0650212
115	0x3e05db3f	0.13071917
116	0xbdd1734c	-0.10227069
117	0xbdea2532	-0.11432876
118	0x3d9e4347	0.07727676
119	0xba084291	-0.00051979074
120	0x3e1b7e05	0.15184791
121	0xbded16ec	-0.115766376
122	0x3c058c2d	0.008151096
123	0xbd520ac0	-0.051279783
124	0xb9969965	-0.00028724517
125	0x3d84c537	0.06482928
126	0x3d52cfce	0.05146771
127	0xbba86bdb	-0.0051398105
128	0xbd5ab924	-0.05339922
129	0xbdbc08c1	-0.09181357
130	0x3d8077ff	0.062728874
131	0xbd32e044	-0.043670908
132	0x3c8e81cf	0.017395882
133	0x3b9c317b	0.0047666407
134	0x3dddb890	0.10826218
135	0xbd43a28e	-0.047762446
136	0xbdbf3763	-0.09336736
137	0xbd29edb7	-0.04148647
138	0x3d798d6a	0.06092588
139	0x3d095509	0.03352836
140	0x3d96ab22	0.0735686
141	0x3ca41bab	0.020032724
142	0x3d99060d	0.07471857
143	0x3e1b480d	0.15164204
144	0x3cb8795b	0.022518804
145	0x3d4b8ef7	0.04969689
146	0xbd131951	-0.035912815
147	0xbd4c0d1a	-0.049817182
148	0xbd421b62	-0.047389396
149	0x3cde3ba1	0.027128043
150	0x3c510650	0.012757853
151	0xbd3cd086	-0.0460973
152	0xbcec66cb	-0.02885761
153	0xbe0e10ca	-0.13873592
154	0x3d74564e	0.05965262
155	0x3d58a71c	0.052893743
156	0x3dd52104	0.10406688
157	0xbc97901d	-0.018501336
158	0xbdf31744	-0.11869672
159	0x3d94d7c2	0.07267715
160	0x3d78d77f	0.060752388
161	0x3df4f109	0.11960036
162	0xbdf548bb	-0.11976763
163	0x3e1aa7ca	0.15103069
164	0x3a4b4856	0.00077546143
165	0x3cbfe54d	0.023424769
166	0x3d90bde5	0.070674695
167	0x3e163a2f	0.14670633
168	0x3e1a0d61	0.15044166
169	0xbda3eb1b	-0.08003827
170	0x3d10c317	0.035342302
171	0xbde4dae5	-0.11174563
172	0xbdbf4589	-0.09339435
173	0xbdeb4aea	-0.11488898
174	0x3dfa271a	0.12214489
175	0x3dfdd2a5	0.12393693
176	0xbc2dbe9f	-0.01060453
177	0x3de287c5	0.11061052
178	0x3dae2660	0.08503413
179	0xbd5179a1	-0.051141385
180	0xbe02152d	-0.1270339
181	0x3e0ed10b	0.13946931
182	0xbe0c9c1b	-0.13731425
183	0xbd8a244a	-0.06745203
184	0x3c3fbf09	0.011703261
185	0xbe125321	-0.14289524
186	0xbe19eef2	-0.15032557
187	0xbdd5cd74	-0.10439578
188	0x3dac3bd7	0.08409851
189	0x3d7d17e0	0.061790347
190	0xbc9dcdce	-0.019263174
191	0xbbb68b92	-0.0055708373
192	0xbe009870	-0.1255815
193	0xbd7e2de0	-0.06205547
194	0x3ce627e8	0.0280952
195	0x3dffd4dc	0.124917716
196	0xbde3dd75	-0.11126224
197	0x3dfe2ff4	0.1241149
198	0x3d97b56e	0.07407652
199	0xbdfb2e79	-0.12264723
200	0x3dfd8bfc	0.123802155
201	0xbde0baa3	-0.10973098
202	0xbdadccaa	-0.08486302
203	0x3d820fb7	0.063506536
204	0x3c337e2a	0.010955373
205	0x3da67877	0.081284456
206	0x3dc0c0af	0.094117515
207	0xbd989e2c	-0.07452044
208	0xbd52685c	-0.051369056
209	0xbdf5029f	-0.119633906
210	0x3e0f5c54	0.14000064
211	0xbd104809	-0.035224948
212	0x3e02eae2	0.12784913
213	0x3d518f68	0.051162153
214	0x3e133146	0.14374265
215	0x3cc922dd	0.024552757
216	0x3db8ea03	0.09029009
217	0xbd8c55c5	-0.06852297
218	0x3d019161	0.031632785
219	0x3debb1c2	0.11508514
220	0xbdb43f7d	-0.08801172
221	0xbe0aaf88	-0.13543522
222	0x3c8010f1	0.015633078
223	0xbc9879d9	-0.018612789
224	0x3a8e2f29	0.0010847795
225	0x3e0e1a23	0.13877158
226	0x3e1bf905	0.15231712
227	0x3d32db93	0.043666434
228	0x3e1625fe	0.1466293
229	0x3d0fe29f	0.035128232
230	0x3d4d82ad	0.05017345
231	0xbdde5efd	-0.10857961
232	0xbdcd866b	-0.10035404
233	0x3e22703f	0.15863131
234	0x3d7769eb	0.060403746
235	0xbd316075	-0.04330488
236	0xbbae0f16	-0.005311857
237	0xbd8d48bc	-0.068986386
238	0x3d45e6cb	0.048315804
239	0x3e3b3d72	0.18285158
240	0xbe19f2e9	-0.15034069
241	0x3e940ee0	0.289176
242	0xbbcab031	-0.0061855544
243	0x3d852ff1	0.06503285
244	0x3d9ac7ee	0.07557665
245	0x3c00197a	0.007818574
246	0x3e08ac2b	0.13346927
247	0xbdb7bfbe	-0.08972119
248	0xbdb25a4e	-0.087086305
249	0xbd1a8aec	-0.037730142
250	0xbd8ebd4a	-0.06969698
251	0xbdb97a67	-0.090565495
252	0x3d2a7fc9	0.04162577
253	0xbc4dc522	-0.012559207
254	0x3b41fd5e	0.0029600482
255	0xbcf91215	-0.03040413

net.flow_mapping.0.affine_layers.1.net.2.bias f4 [32]
0	0x3d54710d	0.051865626
1	0xbe1e6004	-0.15466315
2	0x3d265462	0.040607817
3	0x3e84e027	0.25952265
4	0xbd4ea3e2	-0.05044926
5	0xbc89702f	-0.016777126
6	0xbcbf1bb0	-0.023328632
7	0xbd22f5f2	-0.039785333
8	0xbda082e1	-0.07837463
9	0x3c0a0308	0.008423574
10	0xbd6a0ff7	-0.05714413
11	0xbd7568fa	-0.059914567
12	0x3e151d64	0.14561993
13	0x3db6251f	0.08893799
14	0xbd9ab07d	-0.07553194
15	0xbe949207	-0.2901766
16	0xbe8595ef	-0.26090953
17	0xbe244175	-0.16040595
18	0xbe29ad6b	-0.1657006
19	0x3e828003	0.2548829
20	0xbb1349f5	-0.0022474502
21	0x3e0eaa44	0.13932139
22	0xbddf309c	-0.108979434
23	0xbe0d9305	-0.13825615
24	0x3e21126b	0.15729682
25	0x3e15451d	0.14577146
26	0xbe0d2507	-0.13783656
27	0x3df121fb	0.117740594
28	0x3ba84b73	0.0051359474
29	0x3d8691f0	0.06570804
30	0x3d9bc70a	0.07606323
31	0xbe379c7c	-0.17930788
