param/model_2e4data_iter100000_my_data_10_32_5.pth (torch, 251211 bytes, 174 tensors)

net.rotations.0.LU f4 [2, 2]
0	0x00000000	0.0
1	0x00000000	0.0
2	0x00000000	0.0
3	0x00000000	0.0

net.rotations.0.LU_init f4 [2, 2]
0	0x3f800000	1.0
1	0x00000000	0.0
2	0x00000000	0.0
3	0x3f800000	1.0

net.rotations.0.ones_mat f4 [2, 2]
0	0x3f800000	1.0
1	0x3f800000	1.0
2	0x3f800000	1.0
3	0x3f800000	1.0

net.rotations.0.I f4 [2, 2]
0	0x3f800000	1.0
1	0x00000000	0.0
2	0x00000000	0.0
3	0x3f800000	1.0

net.flow_mapping.0.scale_layers.0.b f4 [1, 2]
0	0xbedae916	-0.42755955
1	0xbe4beac4	-0.19913775

net.flow_mapping.0.scale_layers.0.logs f4 [1, 2]
0	0xbddbf2d7	-0.107396774
1	0xbdec955c	-0.115519255

net.flow_mapping.0.scale_layers.0.b_init f4 [1, 2]
0	0x00000000	0.0
1	0x00000000	0.0

net.flow_mapping.0.scale_layers.0.logs_init f4 [1, 2]
0	0x00000000	0.0
1	0x00000000	0.0

net.flow_mapping.0.scale_layers.1.b f4 [1, 2]
0	0xbe76fd97	-0.24120174
1	0xbea75ce5	-0.3268806

net.flow_mapping.0.scale_layers.1.logs f4 [1, 2]
0	0xbde3617d	-0.11102579
1	0xbda7e6e5	-0.081983365

net.flow_mapping.0.scale_layers.1.b_init f4 [1, 2]
0	0x00000000	0.0
1	0x00000000	0.0

net.flow_mapping.0.scale_layers.1.logs_init f4 [1, 2]
0	0x00000000	0.0
1	0x00000000	0.0

net.flow_mapping.0.scale_layers.2.b f4 [1, 2]
0	0xbe8155b4	-0.252607
1	0xbe5f28db	-0.21792929

net.flow_mapping.0.scale_layers.2.logs f4 [1, 2]
0	0xbd9e5389	-0.07730777
1	0xbdd9df2c	-0.1063827

net.flow_mapping.0.scale_layers.2.b_init f4 [1, 2]
0	0x00000000	0.0
1	0x00000000	0.0

net.flow_mapping.0.scale_layers.2.logs_init f4 [1, 2]
0	0x00000000	0.0
1	0x00000000	0.0

net.flow_mapping.0.scale_layers.3.b f4 [1, 2]
0	0xbe5fd623	-0.2185903
1	0xbe843b8a	-0.25826675

net.flow_mapping.0.scale_layers.3.logs f4 [1, 2]
0	0xbdccb221	-0.09994913
1	0xbda0407c	-0.078247994

net.flow_mapping.0.scale_layers.3.b_init f4 [1, 2]
0	0x00000000	0.0
1	0x00000000	0.0

net.flow_mapping.0.scale_layers.3.logs_init f4 [1, 2]
0	0x00000000	0.0
1	0x00000000	0.0

net.flow_mapping.0.scale_layers.4.b f4 [1, 2]
0	0xbe814e23	-0.25254926
1	0xbe433486	-0.19063005

net.flow_mapping.0.scale_layers.4.logs f4 [1, 2]
0	0xbd8f3463	-0.06992414
1	0xbdc98d06	-0.09841351

net.flow_mapping.0.scale_layers.4.b_init f4 [1, 2]
0	0x00000000	0.0
1	0x00000000	0.0

net.flow_mapping.0.scale_layers.4.logs_init f4 [1, 2]
0	0x00000000	0.0
1	0x00000000	0.0

net.flow_mapping.0.scale_layers.5.b f4 [1, 2]
0	0xbe27b857	-0.16378914
1	0xbe5127bf	-0.20425318

net.flow_mapping.0.scale_layers.5.logs f4 [1, 2]
0	0xbda8f71a	-0.08250256
1	0xbd804677	-0.0626344

net.flow_mapping.0.scale_layers.5.b_init f4 [1, 2]
0	0x00000000	0.0
1	0x00000000	0.0

net.flow_mapping.0.scale_layers.5.logs_init f4 [1, 2]
0	0x00000000	0.0
1	0x00000000	0.0

net.flow_mapping.0.scale_layers.6.b f4 [1, 2]
0	0xbe2ec701	-0.17068101
1	0xbe17dd77	-0.14830576

net.flow_mapping.0.scale_layers.6.logs f4 [1, 2]
0	0xbd6f1228	-0.058366925
1	0xbd8f81f4	-0.070072085

net.flow_mapping.0.scale_layers.6.b_init f4 [1, 2]
0	0x00000000	0.0
1	0x00000000	0.0

net.flow_mapping.0.scale_layers.6.logs_init f4 [1, 2]
0	0x00000000	0.0
1	0x00000000	0.0

net.flow_mapping.0.scale_layers.7.b f4 [1, 2]
0	0xbdd37e6e	-0.10326849
1	0xbe4ec834	-0.20193559

net.flow_mapping.0.scale_layers.7.logs f4 [1, 2]
0	0x3c47e940	0.012201607
1	0xbd6f5e8c	-0.058439776

net.flow_mapping.0.scale_layers.7.b_init f4 [1, 2]
0	0x00000000	0.0
1	0x00000000	0.0

net.flow_mapping.0.scale_layers.7.logs_init f4 [1, 2]
0	0x00000000	0.0
1	0x00000000	0.0

net.flow_mapping.0.scale_layers.8.b f4 [1, 2]
0	0xbe093d00	-0.13402176
1	0xbdf381af	-0.118899696

net.flow_mapping.0.scale_layers.8.logs f4 [1, 2]
0	0x3d0c293a	0.034219004
1	0xbb579893	-0.0032897338

net.flow_mapping.0.scale_layers.8.b_init f4 [1, 2]
0	0x00000000	0.0
1	0x00000000	0.0

net.flow_mapping.0.scale_layers.8.logs_init f4 [1, 2]
0	0x00000000	0.0
1	0x00000000	0.0

net.flow_mapping.0.scale_layers.9.b f4 [1, 2]
0	0xbd217a12	-0.039423056
1	0xbbf239c1	-0.0073921387

net.flow_mapping.0.scale_layers.9.logs f4 [1, 2]
0	0x3d1918ca	0.037377156
1	0x3cc0d3c1	0.023538472

net.flow_mapping.0.scale_layers.9.b_init f4 [1, 2]
0	0x00000000	0.0
1	0x00000000	0.0

net.flow_mapping.0.scale_layers.9.logs_init f4 [1, 2]
0	0x00000000	0.0
1	0x00000000	0.0

net.flow_mapping.0.affine_layers.0.net.0.weight f4 [32, 1]
0	0x3a2c83bb	0.00065809087
1	0x3ed8fcfb	0.4238051
2	0xbf082d10	-0.5319376
3	0xbeb014ed	-0.34390965
4	0x3e9253b6	0.2857949
5	0xbca24364	-0.019807525
6	0xbe521541	-0.2051592
7	0xbf109bfd	-0.5648802
8	0x3e383803	0.17990117
9	0xbdb32f3d	-0.08749244
10	0x3e047fd1	0.12939383
11	0x3ed46577	0.41483662
12	0xbdd42bf3	-0.10359945
13	0x3e4a014e	0.1972706
14	0xbede6a10	-0.43440294
15	0x3c528529	0.012849131
16	0xbec6234e	-0.3869881
17	0x3e0f386f	0.13986371
18	0x3ea4b897	0.3217208
19	0x3d3d2375	0.046176393
20	0xbd957c0a	-0.07299049
21	0x3e85f1c5	0.26161018
22	0xbd027210	-0.03184706
23	0x3e1811d6	0.14850554
24	0xbe8fbaaa	-0.280721
25	0x3e92b1f1	0.28651384
26	0xbdc75f58	-0.09734982
27	0xbe746200	-0.23865509
28	0xbf0a9039	-0.54126316
29	0xbf10347a	-0.5633007
30	0xbe5482bb	-0.20752995
31	0xbdee8c5b	-0.116478644

net.flow_mapping.0.affine_layers.0.net.0.bias f4 [32]
0	0xbea6a9ca	-0.32551414
1	0x3d54735b	0.051867824
2	0x3f052ce7	0.5202164
3	0xbc63f5f7	-0.013913623
4	0x3de1b279	0.11020369
5	0x3e9b1bc1	0.30294612
6	0xbde0356a	-0.10947688
7	0x3e784e44	0.24248606
8	0xbe9f0edd	-0.31066027
9	0xbefd6058	-0.49487567
10	0xbf26b5b1	-0.6512099
11	0xbed4bf5d	-0.4155225
12	0x3cd214ef	0.025644748
13	0xbf23ed61	-0.64034086
14	0xbd6a4803	-0.057197582
15	0xbf446e5b	-0.7673089
16	0x3ce44c78	0.027868494
17	0xbe6e4db1	-0.23271824
18	0xbf398743	-0.7247202
19	0x3f40d900	0.75331116
20	0xbd249b7b	-0.04018734
21	0xbf3ade26	-0.7299522
22	0xbe84db62	-0.25948626
23	0xbeaa7703	-0.33293924
24	0x3ed2aff2	0.4114986
25	0xbd9a97a4	-0.075484544
26	0xbf10b5df	-0.56527513
27	0x3e2ca545	0.1685992
28	0x3e5bc697	0.21462475
29	0xbee1c09c	-0.44092262
30	0xbeea486f	-0.45758387
31	0x3e2276e8	0.15865672

net.flow_mapping.0.affine_layers.0.net.2.weight f4 [32, 32]
0	0xbd1f72e9	-0.038927946
1	0x3d1de2cf	0.03854638
2	0xbd237e39	-0.039915297
3	0xbdd334de	-0.10312818
4	0xbdeaa001	-0.114562996
5	0x3b92029d	0.004455878
6	0x3da5a10c	0.08087358
7	0x3ceb9f50	0.02876249
8	0xbdc15405	-0.094398536
9	0x3d1a4060	0.03765905
10	0x3d4a4bc0	0.049388647
11	0x3d824a6d	0.06361852
12	0xbd553664	-0.052053824
13	0xbde89a70	-0.113575816
14	0xbdd9c92d	-0.10634074
15	0xbc8597c8	-0.016307727
16	0x3dceb917	0.10093897
17	0x3d7b8389	0.06140474
18	0xbd05ed90	-0.03269726
19	0x3da1d5b6	0.0790209
20	0x3db55a63	0.088551305
21	0x3db5b25f	0.08871912
22	0xbd0115f3	-0.031515073
23	0x3db8151e	0.08988403
24	0x3d2f400a	0.04278568
25	0xbdb776df	-0.0895822
26	0xbdd3a728	-0.10334617
27	0x3d838394	0.06421581
28	0xbdbce9e0	-0.092242956
29	0x3d81406f	0.06311118
30	0x38bb3d01	8.928218e-05
31	0xbda0ca28	-0.07851058
32	0x3d717c87	0.05895665
33	0x3d0ef1b1	0.034898464
34	0x3d29cd7b	0.041455727
35	0x3dc66088	0.096863806
36	0xbd4df937	-0.050286498
37	0xbced772d	-0.028987492
38	0x3d928f6f	0.07156264
39	0x3d6048a8	0.05475679
40	0xbdbc0c7a	-0.09182067
41	0xbd9fa583	-0.07795241
42	0x3dd7f441	0.105446346
43	0xbcc1a515	-0.023638288
44	0xbd917cda	-0.07103892
45	0xbdcd8156	-0.100344345
46	0xbd8dfa90	-0.06932557
47	0x3d05131b	0.032488924
48	0xbd4fa834	-0.05069752
49	0x3a62f50c	0.00086577307
50	0xbda86cc5	-0.08223871
51	0xbdca65d9	-0.09882707
52	0xbd37812b	-0.04480092
53	0x3d751d54	0.059842423
54	0xbd2c0db3	-0.042005252
55	0x3cf737c9	0.030177968
56	0x3c3d0b30	0.011538312
57	0x3bb7f29f	0.0056136395
58	0xbd638c1b	-0.055553537
59	0x3ce88245	0.02838243
60	0xbb007a31	-0.0019604082
61	0xbc8f66c4	-0.017505057
62	0xbd34a0f0	-0.044098794
63	0x3c8fb4e7	0.017542316
64	0xbd4f2134	-0.050568774
65	0x3cf70ba4	0.030156918
66	0x3daac56b	0.08338436
67	0x3d82edf9	0.06393046
68	0x3d940dff	0.07229232
69	0x3ceade83	0.028670555
70	0xbd9e0795	-0.0771629
71	0x3d224f5b	0.03962646
72	0xbcf93528	-0.030420855
73	0x3bcee0d2	0.0063134218
74	0xba5cf80a	-0.00084292947
75	0xbc70d962	-0.014700266
76	0xbda686e3	-0.08131196
77	0x3d08dccb	0.03341369
78	0xbdb9907c	-0.09060761
79	0xbcacbc77	-0.02108596
80	0xbd936d0c	-0.071985334
81	0x3d5456a1	0.05184043
82	0xbd457042	-0.04820276
83	0xbd2cc763	-0.042182337
84	0xbdaaf5d8	-0.08347672
85	0xbda27ef7	-0.07934373
86	0xbc5a10eb	-0.013309698
87	0x3d062103	0.032746326
88	0xbdc95fdc	-0.09832737
89	0xbd8dadad	-0.06917892
90	0xbd29bd9f	-0.041440602
91	0xbd899401	-0.06717683
92	0xbdb75b8b	-0.08953007
93	0x3bab0d80	0.005220115
94	0x3dd551ac	0.10415968
95	0x3d438d04	0.047741905
96	0x3d89183e	0.06694077
97	0xbda3f64d	-0.080059625
98	0x3dce8544	0.10084012
99	0xbc0dbb10	-0.008650556
100	0x3d660709	0.056159053
101	0xbd755c31	-0.059902374
102	0xbdbb9fb4	-0.0916132
103	0x3c2789c8	0.010225721
104	0x3db44e7c	0.08804032
105	0x3db6780a	0.089096144
106	0xbdbc7139	-0.09201283
107	0xbd135fd5	-0.035980064
108	0xbd968837	-0.073502
109	0xbdbc0562	-0.09180714
110	0x3c3db1d0	0.011578038
111	0x3cff9f0e	0.031203773
112	0xbbe2e3fc	-0.0069241505
113	0x3a0318b0	0.0005000932
114	0xbc09b42a	-0.008404771
115	0xbc60705e	-0.013698665
116	0x3cf116db	0.029429844
117	0xbcc8ea1f	-0.0245257
118	0x3d776a0f	0.06040388
119	0xbd9c2369	-0.076239415
120	0xbdc46845	-0.095902
121	0x3aafdd20	0.0013417341
122	0x3d8344d0	0.06409609
123	0xbdc9c915	-0.098528065
124	0xbd4d286f	-0.05008739
125	0x3da32ac5	0.07967142
126	0xbdda8d18	-0.10671443
127	0xbc226c24	-0.009913478
128	0xbdaef1ae	-0.085421905
129	0x3c4a4471	0.012345419
130	0x3d88171e	0.06645034
131	0x3d34d04c	0.04414396
132	0xbdae7b32	-0.085195914
133	0x3d7373ab	0.05943648
134	0xbce5eac0	-0.02806604
135	0xbdd0dd68	-0.1019848
136	0x3c1c8c1a	0.009554887
137	0xbdc28e9e	-0.09499858
138	0xbdbeeaaa	-0.09322102
139	0x3d034565	0.0320486
140	0xbd563f08	-0.052306205
141	0xbdae2223	-0.08502605
142	0xbcb00dad	-0.021490896
143	0x3d371864	0.044700995
144	0xbcbda12b	-0.02314814
145	0xbd776228	-0.060396343
146	0xbdd4a578	-0.10383123
147	0x3d6b39ef	0.057428297
148	0x3cbc1abd	0.022961969
149	0xbd8d74a7	-0.06907015
150	0x3d818305	0.06323818
151	0xbce84bc3	-0.028356439
152	0xbd35f44c	-0.044422433
153	0xbdc8ef74	-0.09811297
154	0x3dd7671a	0.10517712
155	0xbd81d0fc	-0.06338689
156	0xbdc44276	-0.09582989
157	0xbd3d7381	-0.04625273
158	0x3d941839	0.072311826
159	0xbdbd9c4d	-0.09258328
160	0x3abbdd4b	0.0014332918
161	0xbd8283cc	-0.063727945
162	0x3c9b484b	0.01895537
163	0x3cb771e6	0.022393178
164	0x3dc634a8	0.09678012
165	0x3d1fb378	0.038989514
166	0xbdb5f6db	-0.088849746
167	0xbdbb1134	-0.091341406
168	0xbc441578	-0.011968009
169	0x3c2a02f2	0.010376679
170	0x3cbfd0ee	0.023415055
171	0x3d65ca29	0.056100998
172	0x3d8ce68d	0.068799116
173	0x3db3dd95	0.08782498
174	0xbce154fc	-0.027506344
175	0x3dbd317f	0.09237956
176	0x3cf13d52	0.029448185
177	0xbd6ce645	-0.05783679
178	0xbd76e986	-0.0602813
179	0xbd52e19e	-0.051484697
180	0x3ccce93a	0.025013555
181	0xbd88488c	-0.06654462
182	0xbc623b57	-0.013808093
183	0x3cd8096d	0.026371682
184	0x3cbb2db6	0.022848945
185	0xbd9fc4e1	-0.078012235
186	0x3ce94075	0.028473118
187	0xbdc94191	-0.09826959
188	0xbdc0e60d	-0.09418879
189	0xbd60a1f0	-0.054841936
190	0xbcd12eef	-0.025535075
191	0x3dd13aef	0.10216319
192	0xbc5639a1	-0.013075263
193	0xbca132ed	-0.019677604
194	0xbdaaeedc	-0.0834634
195	0x3cca2deb	0.024680099
196	0xbdc7ca10	-0.09755337
197	0xbcfd1c38	-0.030897245
198	0x3dcc4e35	0.09975854
199	0xbda4cd39	-0.080469556
200	0xbc1faf19	-0.009746336
201	0xbd6f4672	-0.05841679
202	0x3c47c171	0.012192116
203	0x3d895962	0.067065015
204	0xbd3366f4	-0.043799356
205	0x3d9b4391	0.07581247
206	0xbdd7402a	-0.10510285
207	0x3d919ec2	0.07110359
208	0xbd94775a	-0.07249327
209	0xbcdc9cae	-0.02693018
210	0xbd898ae7	-0.06715947
211	0xbdd81773	-0.105513476
212	0xbd6886e8	-0.05676928
213	0xbdd8dd3c	-0.10589072
214	0x3dcc073e	0.09962319
215	0xbde834f0	-0.11338222
216	0xbcd188fe	-0.025578018
217	0x3daade93	0.08343234
218	0x3d644f2a	0.05573956
219	0xbcac9bae	-0.021070328
220	0x3da78d79	0.08181281
221	0x3d9b95cc	0.07596931
222	0xbcfb0818	-0.030643508
223	0x3c0b58e0	0.008505076
224	0xbe0b2f7b	-0.13592331
225	0x3d4d8182	0.050172336
226	0x3d6e56d7	0.058188286
227	0xbd8a8fff	-0.06765746
228	0xbcf967f8	-0.030445084
229	0x3db4055b	0.08790084
230	0x3d85dfba	0.06536813
231	0xbdc42cb8	-0.09578842
232	0xbc36786f	-0.011137112
233	0xbd4868ca	-0.04892806
234	0xbd3872bb	-0.04503129
235	0xbdc5eb94	-0.096640736
236	0xbd92dcdf	-0.07171034
237	0x3d53db0e	0.05172258
238	0x3d88644d	0.06659756
239	0x3e8dd85b	0.2770413
240	0xbc35ad7d	-0.011088726
241	0x3bb658a1	0.0055647646
242	0xbd854bc6	-0.06508593
243	0x3d48457f	0.0488944
244	0xbdc6bddf	-0.09704184
245	0x3d746658	0.059667915
246	0xbcf20a75	-0.029546002
247	0xba3713f9	-0.0006983872
248	0x3dd109de	0.1020696
249	0x3d8f49bf	0.06996488
250	0xbc3aa8e4	-0.011392806
251	0xbdd2e78c	-0.1029807
252	0x3ced54a3	0.028971022
253	0xbc46dcad	-0.012137574
254	0xbd8efb93	-0.06981578
255	0xbdc70ff2	-0.09719838

net.flow_mapping.0.affine_layers.0.net.2.bias f4 [32]
0	0xbc50cf72	-0.012744771
1	0x3db263c3	0.08710434
2	0xbceea6ee	-0.029132333
3	0x3daf7484	0.085671455
4	0x3db18d5f	0.086695425
5	0xbb87044d	-0.0041203857
6	0x3d90fe1d	0.07079718
7	0x3ba4ad9e	0.0050255796
8	0xbd6474bf	-0.0557754
9	0xbee72c54	-0.45151007
10	0xbcf6c876	-0.030124884
11	0xbde694a7	-0.11258822
12	0x3dcd21f8	0.10016245
13	0x3da86b0f	0.08223545
14	0x3d8c10c6	0.06839137
15	0xbef3a80f	-0.47589156
16	0xbdc889b7	-0.09791892
17	0xbd5a14c1	-0.05324245
18	0x3da38a98	0.07985419
19	0xbe1a3510	-0.15059304
20	0xbd4c2a52	-0.049845047
21	0xbe7f9d1a	-0.24962273
22	0xbd5457d5	-0.051841576
23	0x3ccf239b	0.025285533
24	0x3d3ea4a5	0.046543736
25	0xbd8ec8ba	-0.06971879
26	0x3d7e5dda	0.062101223
27	0xbddadf5d	-0.106871344
28	0xbdb4d75b	-0.08830138
29	0x3dc4846d	0.09595571
30	0x3d71c133	0.05902214
31	0xbba3bf66	-0.0049971817

net.flow_mapping.0.affine_layers.0.net.4.weight f4 [32, 32]
0	0x3d5440d1	0.051819626
1	0xbd7e1f4b	-0.062041562
2	0xbc9734a8	-0.018457726
3	0x3dcf47f2	0.10121144
4	0x3da98506	0.08277325
5	0xbbdcee9b	-0.006742311
6	0xbd8481e4	-0.06470087
7	0xbdb08dd8	-0.086208045
8	0xbd50156a	-0.050801672
9	0x3d84783f	0.064682476
10	0x3da35c3c	0.07976577
11	0x3d24d5a9	0.040242825
12	0x3d897f5b	0.06713744
13	0x3da11bfd	0.078666665
14	0x3c5af985	0.013365154
15	0x3d71c336	0.05902406
16	0x3dbbf785	0.0917807
17	0xbdaa8304	-0.083257705
18	0xbdae47b1	-0.08509768
19	0xbdda2ffa	-0.10653682
20	0x3dbf47a5	0.09339837
21	0xbb2adcf3	-0.0026071637
22	0x3d9db73e	0.07700966
23	0xbc4626b3	-0.012094188
24	0x3d18e125	0.03732409
25	0x3dc9dbb1	0.09856356
26	0xbd00e772	-0.031470723
27	0x3baef8df	0.0053397263
28	0x3dbc81f3	0.09204473
29	0xbc75f65e	-0.015012352
30	0x3c96fe80	0.018431902
31	0x3d9e9d00	0.07744789
32	0x3d09486e	0.03351634
33	0xbda3d352	-0.079992905
34	0x3d8cfdbe	0.06884335
35	0xbdca6ed4	-0.0988442
36	0x3d338dd0	0.043836415
37	0xbda56356	-0.080755875
38	0xbbe5bb87	-0.0070108804
39	0x3c5308b7	0.012880496
40	0xbdcb2e17	-0.099209
41	0xbd1db616	-0.03850373
42	0x3da880f0	0.08227718
43	0xbdb4fff2	-0.0883788
44	0xbd8b66c7	-0.068067126
45	0xbd9bbfff	-0.0760498
46	0x3d0c1bb2	0.0342061
47	0xbdd8aebf	-0.10580205
48	0xbdbce09d	-0.09222529
49	0x3d09373c	0.03349994
50	0xbd155fdb	-0.036468368
51	0x3d289c40	0.041164637
52	0xbc85146c	-0.01624509
53	0x3d8e6363	0.0695255
54	0x3c122476	0.008919826
55	0x3d40a9d7	0.047036972
56	0xbd7a04b6	-0.06103965
57	0xbd0ebbb1	-0.034846965
58	0xbd720995	-0.05909117
59	0xbd2a152d	-0.0415241
60	0xbc993f3a	-0.018706907
61	0xbd654b95	-0.055980284
62	0x3d8faac2	0.07014991
63	0xbdbcdce5	-0.0922182
64	0xbdad2cf1	-0.084558375
65	0xbc7619da	-0.015020812
66	0x3d4cb6d1	0.049979035
67	0xbdc63397	-0.09677809
68	0x3da64d93	0.08120265
69	0xbd98c615	-0.07459656
70	0x3dbc80e0	0.092042685
71	0xbdb158fb	-0.0865955
72	0xbaa6f6e6	-0.0012738376
73	0x3ce949a0	0.02847749
74	0x3da23523	0.07920291
75	0x3d13f418	0.036121458
76	0x3de45248	0.111485064
77	0x3d12084f	0.035652455
78	0xbd17fc36	-0.03710576
79	0xbc994160	-0.018707931
80	0x3dc422cc	0.095769495
81	0xba59931a	-0.0008299813
82	0x3c473e65	0.012160872
83	0x3d8813b9	0.06644387
84	0x3d958d14	0.07302299
85	0x3d875238	0.06607479
86	0xbd8a71bd	-0.06759975
87	0x3cfdd134	0.030983545
88	0xbd84143e	-0.064491734
89	0xbd4d1974	-0.050073102
90	0xbb30b331	-0.0026962275
91	0xbcc5b4c8	-0.024134055
92	0x3da0d3fa	0.07852931
93	0x3824f303	3.932697e-05
94	0xbd35234c	-0.044223115
95	0x3d278652	0.040899582
96	0x3d9f87d3	0.07789578
97	0xbce62cc7	-0.028097523
98	0xbda4ff81	-0.08056546
99	0x3c5da38b	0.013527761
100	0xbd98cb14	-0.07460609
101	0x3cedd76b	0.029033383
102	0xbc38d21f	-0.0112805655
103	0x3d8ded3d	0.06930015
104	0xbd756d5d	-0.05991875
105	0x3c8e9075	0.017402867
106	0x3d992abb	0.07478853
107	0xbda58100	-0.080812454
108	0xbbd8fc72	-0.0066218907
109	0xbd42c950	-0.047555268
110	0x3cdd1721	0.026988568
111	0x3d2119e5	0.039331336
112	0xbb73e02b	-0.0037212472
113	0x3c5481e6	0.012970423
114	0x3c8d2712	0.017230544
115	0xbd36a85f	-0.044594165
116	0x3cb9c713	0.022677934
117	0x3dbe0065	0.09277419
118	0xbd8a3ea4	-0.06750229
119	0x3d76e8de	0.060280673
120	0xbd4f3a1f	-0.050592538
121	0x3c6dd88a	0.014516959
122	0xbccc0098	-0.024902627
123	0xbc04ccb3	-0.008105445
124	0x3c717ed3	0.01473971
125	0x3caf3dc0	0.02139175
126	0xbd74e147	-0.059785154
127	0x3d1c83e7	0.03821173
128	0xbdb1dc6d	-0.08684621
129	0xbd858b5c	-0.06520721
130	0x3cb7bebe	0.02242982
131	0x3dc80258	0.09766072
132	0x3cfde66a	0.030993659
133	0xbd752bc8	-0.059856206
134	0xbdb326d7	-0.087476425
135	0x3d9dec26	0.07711057
136	0xbd936c1c	-0.071983546
137	0xbcb3bfc7	-0.021942033
138	0xbd0c5d5c	-0.034268722
139	0x3d8cd8a6	0.0687726
140	0x3c3fccf4	0.0117065795
141	0xbd30b27f	-0.043138977
142	0xbceb4174	-0.028717734
143	0xbd807e12	-0.06274046
144	0x3cf2ed95	0.029654304
145	0x3d7e2aa8	0.0620524
146	0x3d54fbd1	0.051997963
147	0x3d11e116	0.03561505
148	0xbdbd0298	-0.0922901
149	0x3d53404d	0.051574994
150	0x3dba3a44	0.090931445
151	0xbd063b02	-0.032771118
152	0xbd2bbefa	-0.041930176
153	0x3b8af272	0.0042403275
154	0x3c479d44	0.012183491
155	0x3d94e924	0.072710305
156	0xbdccfc15	-0.10009018
157	0x3d367095	0.04454096
158	0xbc04ac3d	-0.008097705
159	0xbd63b880	-0.055595875
160	0xbd14f23d	-0.03636383
161	0xbd6d7728	-0.057974964
162	0x3d37acb2	0.04484243
163	0x3ca13d5b	0.019682577
164	0x3cbbb4ad	0.022913301
165	0x3d0d5aa0	0.034510255
166	0x3d1bb179	0.038011048
167	0x3d560b66	0.052256964
168	0xbcf75720	-0.030192912
169	0xbd1d6d92	-0.038434573
170	0x3d5357e2	0.051597483
171	0xbdbf5d94	-0.093440205
172	0xbd1bcf8a	-0.03803972
173	0xbdc6a44c	-0.09699306
174	0x3c837f8e	0.016052034
175	0xbcc2bedc	-0.02377265
176	0xbd3d68f8	-0.046242684
177	0x3d14ca94	0.036326006
178	0x3c199263	0.00937328
179	0xbd1fa9fa	-0.03898046
180	0xbdcd182e	-0.100143775
181	0xbd44c0a8	-0.048035294
182	0xbd9ace1b	-0.07558843
183	0x3d67f81a	0.056633092
184	0x3d582356	0.052768074
185	0x3d65a59c	0.05606614
186	0x3d6d8952	0.057992287
187	0xbd91c62d	-0.07117877
188	0xbd905aff	-0.07048606
189	0xbc8f9304	-0.017526157
190	0x3d0c7f40	0.034301043
191	0x3cef11b7	0.029183252
192	0x3b0a2ab2	0.0021082577
193	0x3d4aacca	0.04948119
194	0xbd3dc6a4	-0.046332017
195	0x3d870ee8	0.0659464
196	0x3bf5e2d0	0.007503845
197	0xbdd2d217	-0.10293978
198	0xbd540e3f	-0.0517714
199	0x3d5dacca	0.054119863
200	0xbc3cb9cc	-0.011518907
201	0xbc878dfb	-0.016547194
202	0x3d28bd40	0.041196108
203	0x3ddb679a	0.1071312
204	0xbd758540	-0.05994153
205	0xbd9a57bc	-0.07536265
206	0x3da2b9fd	0.07945631
207	0xbddcafc0	-0.10775709
208	0x3ca6b735	0.020351032
209	0xbc875f97	-0.016525073
210	0x3d4e7f19	0.05041418
211	0x3cfff191	0.031243118
212	0xbc202f36	-0.009776881
213	0xbd05ec57	-0.032696094
214	0xbc98032e	-0.018556204
215	0x3d073f21	0.03301919
216	0x3d82bd8f	0.06383812
217	0xbdd98c0d	-0.10622416
218	0xbd28bb4b	-0.04119424
219	0xbdcf7f96	-0.10131757
220	0xbd45dbb2	-0.04830522
221	0x3c100a29	0.008791485
222	0x3d829ba1	0.0637734
223	0xbd519418	-0.051166624
224	0xbd8160fe	-0.06317328
225	0x3dd7ae8c	0.10531339
226	0xbd863734	-0.06553498
227	0xbcfa5238	-0.030556783
228	0x3d17a71e	0.03702461
229	0xbd9b8310	-0.075933576
230	0x3cb5fb25	0.022214482
231	0x3dbe1cbb	0.09282824
232	0xbd22648e	-0.039646678
233	0xbd732949	-0.059365544
234	0xbd956ca4	-0.07296112
235	0x3d683645	0.05669238
236	0xbd8aa4bc	-0.06769702
237	0xbdb77033	-0.08956947
238	0x3d26182d	0.0405504
239	0xbc4250cc	-0.011860084
240	0x3d78c575	0.060735185
241	0x3d2317a8	0.039817482
242	0xbd69e5a8	-0.057103783
243	0xbce59620	-0.028025687
244	0xbcf32dec	-0.029684983
245	0xbd236e6b	-0.039900225
246	0x3dc56a03	0.09639361
247	0x3dca0c7d	0.09865663
248	0xbdafb888	-0.085801184
249	0x3ca70d9d	0.020392234
250	0xbcb633c3	-0.022241479
251	0xbd257bb1	-0.040401164
252	0xbdd005e8	-0.101573765
253	0xbd1f3d78	-0.03887698
254	0x3dbd8a5e	0.09254907
255	0x3d6e4047	0.05816677

net.flow_mapping.0.affine_layers.0.net.4.bias f4 [32]
0	0xbddbda94	-0.1073505
1	0xbcf920f2	-0.030411217
2	0xbe4fd75c	-0.20296997
3	0x3c174cc6	0.009234613
4	0xb8f6962f	-0.00011758168
5	0xbdc60205	-0.09668354
6	0x3db73e21	0.08947397
7	0x3daf3fc6	0.08557086
8	0xbdb72c2c	-0.08943972
9	0xbce04e47	-0.027381076
10	0x3ec0f017	0.37683174
11	0x3da182c5	0.078862704
12	0xbdab947c	-0.083779305
13	0xbcf53ede	-0.029937204
14	0x3d428a7e	0.047495358
15	0xbe12d155	-0.14337666
16	0xbecb4965	-0.39704433
17	0xbd81b58d	-0.06333456
18	0xbed93968	-0.4242661
19	0xbda82ea5	-0.08212022
20	0xbdcb2ec1	-0.09921027
21	0xbb8ef57e	-0.004362761
22	0xbed8d3e2	-0.42349154
23	0x3c80a06c	0.015701495
24	0xbb94d71b	-0.004542244
25	0x3d894e69	0.06704409
26	0x3d6ac0fc	0.05731295
27	0xbd9fe786	-0.078078315
28	0x3d92f1f7	0.071750574
29	0x3eeae8ab	0.45880637
30	0xbd926cb9	-0.071496435
31	0x3c93c020	0.018035948

net.flow_mapping.0.affine_layers.0.net.6.weight f4 [32, 32]
0	0xbd425d38	-0.04745218
1	0xbdd71451	-0.10501922
2	0x3d5d6a60	0.054056525
3	0x3d30d6aa	0.04317347
4	0x3d809406	0.06278233
5	0xbdcd6207	-0.10028463
6	0xbd1a219a	-0.0376297
7	0x3d4b6489	0.049656425
8	0xbca3a070	-0.019973963
9	0xbd23e857	-0.0400165
10	0xbd282cc4	-0.041058317
11	0x3c2f1ef4	0.010688532
12	0x3d622e28	0.0552198
13	0x3cefdf74	0.029281355
14	0x3dd578bd	0.104234196
15	0xbc29e008	-0.010368355
16	0x3d999e82	0.07500936
17	0xbbac5bdd	-0.0052599744
18	0xbca03399	-0.019555854
19	0xbcb06c16	-0.021535914
20	0x3d9782dd	0.07398007
21	0x3dd465fe	0.10371016
22	0xbd7d77d9	-0.061881874
23	0x3dd9bac1	0.106313236
24	0x3d8dceae	0.06924187
25	0xbdc38bc2	-0.09548141
26	0x3cacc2f2	0.02108905
27	0xbd914c15	-0.070945896
28	0x3d560663	0.052252185
29	0xbb82379f	-0.0039739157
30	0xbd53acd8	-0.05167851
31	0x3d21eeb7	0.039534297
32	0xba0c6a42	-0.000535641
33	0xbd1ad4ea	-0.037800707
34	0xbda6f122	-0.08151461
35	0xbca09a77	-0.019604905
36	0xbdc2e931	-0.09517134
37	0x3d8bc367	0.068243794
38	0xbcd1a96c	-0.025593482
39	0xbc32d458	-0.0109148845
40	0xbdc015a0	-0.09379125
41	0x389eb65a	7.567993e-05
42	0xbd58710d	-0.05284219
43	0xbcf29804	-0.029613502
44	0xbdbc748a	-0.092019156
45	0xbc837209	-0.016045587
46	0xbdd4c05a	-0.10388251
47	0x3d57f321	0.0527221
48	0xbd58ee8c	-0.05296187
49	0x3dce162f	0.10062825
50	0xbda0e713	-0.07856574
51	0xbdc6ec4a	-0.09713037
52	0xbd5e8adf	-0.054331657
53	0x3d959d26	0.07305364
54	0x3d2b4cd7	0.041821327
55	0x3d0e33f4	0.034717515
56	0xbd74a078	-0.059723347
57	0x3d9c5a12	0.07634367
58	0x3d9aaf6a	0.07552989
59	0xbc299884	-0.010351304
60	0x3d68a487	0.05679753
61	0x3c0fff1f	0.008788853
62	0xbd8b7b1b	-0.0681059
63	0xbd456039	-0.04818747
64	0xbcb69e1f	-0.022292195
65	0xbd9d2c1a	-0.07674427
66	0xbd7a766e	-0.0611481
67	0x3c9361c6	0.017990958
68	0x3dc85026	0.09780912
69	0x3c980448	0.018556729
70	0xbd716b85	-0.05894043
71	0xbc2b962d	-0.010472816
72	0xbc72dc0d	-0.014822972
73	0x3bdc49e5	0.006722676
74	0xbd283f84	-0.0410762
75	0xbcfbfbb4	-0.03075967
76	0x3d9ee6d3	0.0775887
77	0x3d8e447a	0.069466546
78	0x3bac89a9	0.005265434
79	0x3d96e8d0	0.07368624
80	0x3c18134e	0.009281946
81	0xbcd69ceb	-0.026197871
82	0x3d13fab7	0.036127772
83	0x3d80f9a8	0.06297618
84	0xbcdcb6b0	-0.026942581
85	0x3d706eac	0.058699295
86	0xbcd37fc3	-0.025817757
87	0xbdab30a7	-0.08358889
88	0xbd0a1c1a	-0.033718206
89	0x3cfb5ff0	0.030685395
90	0x3d437ac8	0.047724515
91	0x3aaeefd4	0.0013346621
92	0x3cf4a16a	0.029862124
93	0xbdc6e090	-0.09710801
94	0x3cc6cf14	0.024268664
95	0x3d50d3f9	0.050983403
96	0xbb01d3f5	-0.0019810174
97	0x3d6937e0	0.056938052
98	0x3cabe19e	0.020981606
99	0x3dad80b9	0.084718175
100	0x3b9a8e54	0.004716674
101	0x3c2764c7	0.010216898
102	0xbd20eb36	-0.039286815
103	0xbdd07a80	-0.10179615
104	0xbd21638b	-0.039401572
105	0x3c3e1a63	0.011602971
106	0xbcf5f395	-0.030023376
107	0x3c800f59	0.015632318
108	0x3d659903	0.056054126
109	0x3d15ac8c	0.036541507
110	0x3d03c6d6	0.032172047
111	0x3d9a666f	0.07539069
112	0xbd2d6952	-0.04233677
113	0xbc039e3a	-0.00803333
114	0x3d9252d2	0.07144703
115	0xbd5c5e68	-0.05380097
116	0xbdb23593	-0.08701625
117	0x3d12e6cf	0.035864647
118	0xbda92cae	-0.08260475
119	0xbd53528d	-0.0515924
120	0xbb529cd1	-0.0032136927
121	0xbc60f15a	-0.013729418
122	0x3d6213c8	0.055194646
123	0x3d0abd9c	0.03387223
124	0xbd065359	-0.03279433
125	0xbe0525f8	-0.13002765
126	0x3dd6dccb	0.10491332
127	0x3d60d157	0.054887142
128	0xbc84b1cd	-0.016198063
129	0x3cc09297	0.0235074
130	0x3e037ee2	0.1284137
131	0xbd657faf	-0.05602997
132	0x3da8d391	0.08243478
133	0x3da875e2	0.08225609
134	0x3c2e1bf1	0.010626779
135	0xbde50961	-0.111834295
136	0xbcfb7566	-0.030695628
137	0x3d0731aa	0.033006348
138	0x3d96a8fe	0.073564515
139	0x3d35df09	0.044402156
140	0xbdc4911a	-0.095979884
141	0xbd630f28	-0.055434376
142	0xbdbeb657	-0.09312122
143	0xbcd69c2b	-0.026197514
144	0x3dbd9c73	0.09258356
145	0x3db67bc4	0.08910325
146	0xbc8f1879	-0.017467724
147	0x3db700a4	0.08935669
148	0x3c241a2f	0.010016008
149	0x3dcf0255	0.10107867
150	0x3de8d6a2	0.11369063
151	0xbdc97472	-0.09836663
152	0xbda5b9e7	-0.08092099
153	0xbdd2469a	-0.102673724
154	0x3d6cf94f	0.057854947
155	0xbd2b0bf0	-0.04175943
156	0x3c84d23e	0.016213533
157	0xb9c52e24	-0.00037609146
158	0xbb2ab674	-0.0026048692
159	0xbcdd9781	-0.027049782
160	0xbd8db71c	-0.06919691
161	0x3c37a49f	0.011208682
162	0xbdc51d87	-0.096247725
163	0xbc614ba0	-0.013750941
164	0xbd82657d	-0.063670136
165	0xbd989e93	-0.07452121
166	0xbd37d38a	-0.044879474
167	0x3d8ade54	0.06780687
168	0x3bdd707b	0.0067577935
169	0xbd8d41cc	-0.068973154
170	0xbcd4ac6a	-0.02596112
171	0xbcb16e17	-0.02165894
172	0x3d1c55b4	0.03816767
173	0x3d5b0280	0.05346918
174	0x3d9cbbbf	0.07652997
175	0xbcfef234	-0.03112135
176	0xbbc7095d	-0.0060741142
177	0x3ceb819b	0.028748324
178	0x3c23b1ca	0.009991119
179	0x3d220a09	0.03956035
180	0xbd0f9844	-0.03505732
181	0x3d9082ac	0.07056174
182	0xbd1aff76	-0.037841283
183	0x3d7bc02f	0.061462577
184	0x3cc648f4	0.024204709
185	0xbdb2336f	-0.087012164
186	0x3dd731e9	0.105075665
187	0x3dda8562	0.10669972
188	0xbd2aa749	-0.04166344
189	0xbdc0aa72	-0.0940751
190	0xbdbdce6e	-0.09267889
191	0x3c4dcf5a	0.0125616435
192	0xbd4f4444	-0.050602213
193	0x3d40a4d7	0.047032204
194	0x3e23d417	0.15998875
195	0x3cb842c7	0.02249278
196	0xbd9ecfd4	-0.07754484
197	0xbdc2a260	-0.09503627
198	0x3e07bf42	0.13256553
199	0xbd3d0750	-0.046149552
200	0x3df0bcfc	0.11754796
201	0x3d868e0b	0.06570061
202	0x3e044269	0.12915958
203	0xbd87b7d9	-0.06626863
204	0xbdd06320	-0.101751566
205	0x3b9b1ae3	0.0047334298
206	0xbdcbfad4	-0.09959951
207	0x3d901ab0	0.0703634
208	0xbd02bfbc	-0.031921133
209	0x3d645304	0.055743232
210	0x3d913cd0	0.07091677
211	0xbcd5d78c	-0.026103757
212	0x3d2d808f	0.04235893
213	0xbcb169ba	-0.02165686
214	0x3d2e0dcf	0.042493638
215	0xbca1613b	-0.019699683
216	0xbd34dcc9	-0.04415587
217	0xbd799422	-0.060932286
218	0xbdc9f5c1	-0.09861327
219	0x3d72c7ba	0.059272505
220	0xbd6d9613	-0.05800445
221	0x3e030714	0.12795669
222	0xbd0dfe93	-0.03466661
223	0xbda73d2c	-0.081659645
224	0x3bad3409	0.005285744
225	0x3db53d17	0.088495426
226	0xbd07633d	-0.033053625
227	0xbd044ca2	-0.032299645
228	0x3dacb589	0.084330626
229	0xbdb924d8	-0.090402305
230	0xbdd6b0ac	-0.10482916
231	0xbd8a3d2a	-0.06749947
232	0x3dbf7ae2	0.0934961
233	0xbc9c55f4	-0.019083954
234	0x3cc220e9	0.023697333
235	0xbccb2d7c	-0.024801962
236	0xbb968774	-0.004593784
237	0xbdcc781d	-0.09983847
238	0xbd2c04f1	-0.0419969
239	0x3cda7936	0.026669126
240	0xbdb8c83f	-0.09022569
241	0xbc5ef4bb	-0.013608153
242	0xbd7de049	-0.061981473
243	0xbd35302c	-0.044235393
244	0xbd539519	-0.051655862
245	0x3b70a009	0.0036716482
246	0xbdcdf942	-0.10057308
247	0xbdad8f6b	-0.084746204
248	0xbd0df318	-0.03465566
249	0xbda594b2	-0.08085002
250	0x3c89b8f6	0.016811829
251	0x3d5c407f	0.053772446
252	0xbd1f16b3	-0.038840007
253	0xbd9ce71f	-0.0766127
254	0xbdd3f82b	-0.10350069
255	0x3cb24069	0.021759229

net.flow_mapping.0.affine_layers.0.net.6.bias f4 [32]
0	0xbdd93f9d	-0.106078364
1	0xbdba1bbf	-0.090873234
2	0xb90adda0	-0.00013243267
3	0x3ca48f9a	0.020088006
4	0xbed21be7	-0.41036913
5	0x3d0f8955	0.03504308
6	0x3e016dc6	0.12639531
7	0xbd43e184	-0.04782249
8	0xbdde8e9b	-0.108670436
9	0x3c7946c6	0.015214628
10	0xbedaffd8	-0.42773318
11	0x3d5934dd	0.05302893
12	0xbddaf0a6	-0.10690431
13	0xbeeaa03a	-0.45825368
14	0x3e2721c5	0.16321476
15	0x3e1d5dfb	0.15367882
16	0x3eb51657	0.35368606
17	0x3c327ccc	0.010894012
18	0x3e938487	0.28812048
19	0xbc5a5f87	-0.01332844
20	0xbdd69e75	-0.10479442
21	0x3e3bc275	0.18335898
22	0xbc4965d0	-0.01229234
23	0x3ee3d66b	0.44499525
24	0x3c9f6f47	0.01946224
25	0x3a806195	0.0009794707
26	0x3d6d69ed	0.057962347
27	0x3d9583d0	0.07300532
28	0xbd5322c1	-0.051546816
29	0xbd2261c9	-0.039644036
30	0x3ec5cb32	0.38631588
31	0xbe1c2a36	-0.15250477

net.flow_mapping.0.affine_layers.0.net.8.weight f4 [32, 32]
0	0xbc15d02d	-0.009143871
1	0x3dc035f1	0.093852885
2	0x3d47e60a	0.048803367
3	0x3d8eb1c2	0.06967498
4	0x3d691dbc	0.056913123
5	0x3dc35076	0.09536831
6	0x3d9eb6b1	0.07749689
7	0x398ead9f	0.00027213708
8	0xbd1cb00d	-0.038253833
9	0x3d61abb5	0.055095393
10	0x3d609cf7	0.054837193
11	0x3d7f5a4c	0.062341973
12	0x3cb3bf4f	0.021941809
13	0x3bda266d	0.0066574127
14	0xbda4ed5f	-0.080530874
15	0x3e12d530	0.14339137
16	0x3e17f88e	0.1484091
17	0xbc81e5d6	-0.015856665
18	0xbee60e61	-0.44932845
19	0xbc197173	-0.009365427
20	0xbd46e927	-0.048562195
21	0x3d9cdab1	0.076588996
22	0xbdc81ed8	-0.09771508
23	0x3ddeee92	0.108853474
24	0xbdb7575c	-0.08952209
25	0xbd640a6e	-0.05567401
26	0xbd44c096	-0.048035227
27	0xbd148c7e	-0.036266796
28	0xbd8d971c	-0.069135875
29	0x3d139d53	0.036038708
30	0x3cadcfdc	0.02121728
31	0xbca842e1	-0.020539703
32	0xbda311bd	-0.07962368
33	0xbdafe23d	-0.085880734
34	0xbd418560	-0.047246337
35	0x3c94e2ba	0.018174518
36	0xbd81ca1f	-0.0633738
37	0x3cbeb750	0.02328077
38	0xbd9c7984	-0.07640365
39	0xbdc02738	-0.093824804
40	0xbdb042b8	-0.086064756
41	0x3cc7c8fe	0.024387833
42	0x3d7139db	0.058893066
43	0xbe360cfe	-0.17778394
44	0xbdaffb3e	-0.085928425
45	0x3d757daf	0.059934314
46	0x3f889684	1.0670934
47	0xbd34c4c1	-0.04413295
48	0x3e39a786	0.18130311
49	0x3c92b7b2	0.017909858
50	0x3f18a756	0.59630334
51	0x3d400d9f	0.04688799
52	0xbfa5eb93	-1.2962517
53	0x3f9dcb9d	1.2327763
54	0x3c7a7ed1	0.015289024
55	0xbc7b9c3a	-0.0153570715
56	0xbded64ef	-0.11591517
57	0xbd921e08	-0.07134634
58	0x3d886a99	0.06660957
59	0x3dabae08	0.08382803
60	0x3d15f75f	0.036612865
61	0x3d6beeff	0.05760097
62	0x3de06c29	0.1095813
63	0xbe9b4e17	-0.30333015
64	0xbdb4d6cc	-0.08830032
65	0x3d884ae5	0.0665491
66	0x3d9bc4ff	0.076059334
67	0x3d6be8d7	0.0575951
68	0xbfacd59a	-1.3502686
69	0x3d442f52	0.04789669
70	0x3cb28086	0.0217898
71	0xba47aac5	-0.0007616694
72	0xbd376e2b	-0.0447828
73	0x3d88e631	0.066845305
74	0xc0099c9b	-2.1501834
75	0xbd5e3e1b	-0.054258447
76	0x3da9a023	0.08282497
77	0xbffb9e0c	-1.9657607
78	0x3de351ff	0.11099624
79	0x3d688da9	0.056775723
80	0x3da82ab8	0.08211273
81	0xbd803920	-0.06260896
82	0x3e3f28f9	0.18667974
83	0xbdba23c4	-0.09088853
84	0xbd4ae0f2	-0.04953093
85	0xbdf198a4	-0.11796692
86	0x3dc02a1a	0.0938303
87	0x3dfc76eb	0.12327369
88	0xbd070efe	-0.032973282
89	0x3d05ce6a	0.032667555
90	0x3d4d4eb1	0.050123874
91	0xbd387a54	-0.045038536
92	0xbd0b74eb	-0.03404705
93	0xbd8a50b1	-0.06753672
94	0x3e02d815	0.12777741
95	0x3d076eee	0.033064775
96	0xbda46933	-0.08027878
97	0x3d3c718c	0.046006724
98	0xbd283c8a	-0.04107336
99	0x3da07c76	0.07836239
100	0x3da0e01b	0.07855245
101	0x3ddaeb48	0.106894076
102	0xbd9b0e35	-0.07571069
103	0x3da379dd	0.07982228
104	0x3d17bea0	0.03704703
105	0x3d0b6f17	0.03404149
106	0xbd700da0	-0.058606744
107	0xbd9a1fd6	-0.075256035
108	0x3cb848ab	0.022495588
109	0x3db9de4a	0.090756014
110	0x3c8fcb40	0.017552972
111	0xbd8e7854	-0.069565445
112	0x3cfc5d7a	0.030806292
113	0x3d5555ff	0.052083965
114	0x3d673e34	0.056455806
115	0x3dc89b1c	0.0979521
116	0x3ce26925	0.027638027
117	0xbd2619bb	-0.040551882
118	0x3dc074da	0.09397288
119	0xbdd40df0	-0.10354221
120	0xbdd664bc	-0.10468432
121	0xbdbaf863	-0.09129407
122	0xbd21967e	-0.03945016
123	0xbc297240	-0.010342181
124	0x3cfc9ec9	0.030837433
125	0xbdc6d0fe	-0.09707831
126	0x3c1a47e6	0.009416556
127	0x3d33913b	0.043839674
128	0x3d1b7d58	0.037961334
129	0x3d68d3b7	0.056842532
130	0xbdd4b276	-0.10385601
131	0x3d9fa77b	0.07795616
132	0xbd950280	-0.072758675
133	0xbd7b30fa	-0.061326005
134	0x3d96eade	0.07369016
135	0x3d3fd916	0.04683789
136	0xbd8c1c50	-0.06841338
137	0xbd281603	-0.041036617
138	0x3e170228	0.14746916
139	0x3d3b5c63	0.045742404
140	0x3d9026cd	0.07038651
141	0x3d33b315	0.043871958
142	0xbee4b789	-0.44671276
143	0x3e229345	0.15876491
144	0x3dbde056	0.09271304
145	0x3d48fdef	0.049070295
146	0xbe62a4de	-0.22133204
147	0xbd69090c	-0.056893393
148	0x3d087d77	0.033322778
149	0xbe417906	-0.18893823
150	0x3c97f01e	0.018547114
151	0x3d30ba7a	0.043146588
152	0xbcab03db	-0.020875862
153	0xba826b54	-0.0009950199
154	0x3c9a03ae	0.018800583
155	0xbd75900f	-0.059951838
156	0x3c0710fa	0.008243794
157	0x3d95c2ff	0.07312583
158	0x3dd6689c	0.104691714
159	0x3dbecd48	0.09316498
160	0xbc9eae6c	-0.01937028
161	0xbc89c5d9	-0.016817974
162	0x3c814c02	0.015783314
163	0x3bcd4ee1	0.0062655066
164	0x3de5ddd4	0.11223951
165	0x3da4b01d	0.080414034
166	0x3d3b0baf	0.04566544
167	0xbd254f71	-0.040358964
168	0xbc1e226c	-0.0096517615
169	0xbd1b28d6	-0.03788074
170	0x3d44334e	0.04790049
171	0x3b8d6897	0.0043154466
172	0x3d989c43	0.074516796
173	0x3debef0a	0.115202025
174	0xbd91cd06	-0.07119183
175	0x3d192fe3	0.037399184
176	0x3e0149da	0.12625828
177	0x3db43898	0.08799857
178	0xbe18add7	-0.14910065
179	0x3c916770	0.017749518
180	0x3ddbcbdf	0.10732245
181	0x3ea1592c	0.31513345
182	0x3dc43beb	0.09581741
183	0x3db18419	0.08667774
184	0xbdc01926	-0.09379797
185	0x3c2322d5	0.009957035
186	0xbcb54b25	-0.022130558
187	0xbc9403d7	-0.018068237
188	0x3cb0c24c	0.021577023
189	0xbdba8083	-0.09106543
190	0xbc13fe89	-0.009032854
191	0x3e05b4e9	0.13057293
192	0xbc414a54	-0.011797506
193	0xbdc3a2ba	-0.09552522
194	0x3b29061a	0.002579099
195	0x3cf4362a	0.029810984
196	0x3cbaf86c	0.022823535
197	0xbcce5fe3	-0.025192207
198	0x3ceab648	0.028651372
199	0xbd62375f	-0.055228587
200	0x3ce54b3e	0.02798998
201	0xbd850737	-0.06495517
202	0x3c4e8b34	0.012606431
203	0xbe01a634	-0.12661058
204	0x3d2963d7	0.04135498
205	0x3bd75f78	0.00657266
206	0x3e2f538c	0.17121714
207	0xbde2f804	-0.110824615
208	0x3dc73b73	0.09728136
209	0xbd892c9e	-0.06697963
210	0x3e173467	0.14766084
211	0x3dd8feeb	0.10595497
212	0xbe0750e6	-0.13214454
213	0xbd9f8676	-0.07789318
214	0x3bc316c4	0.0059536416
215	0xbd612b9c	-0.05497323
216	0xbd6f541e	-0.05842983
217	0xbdb7a8cc	-0.08967742
218	0xbd78035b	-0.060550075
219	0x3d5d5748	0.054038316
220	0x3cbd3711	0.023097547
221	0xbd3c7981	-0.046014313
222	0x3e07b837	0.13253866
223	0xbebeeadd	-0.3728856
224	0xbd6651b4	-0.056230262
225	0x3d080d7d	0.03321599
226	0x3cfc04ed	0.030764068
227	0xbbb074c4	-0.0053850133
228	0x3e134280	0.14380836
229	0xbbf833de	-0.0075745424
230	0x3dcc9d31	0.099909194
231	0xbc281e2a	-0.010261098
232	0x3bf0e014	0.007350931
233	0x3d0ce159	0.034394596
234	0x3e34fa15	0.17673524
235	0x3d1e08f3	0.038582753
236	0xbb991117	-0.0046712267
237	0x3dabe51c	0.083933085
238	0x3ed632f6	0.41835755
239	0xbd4d808b	-0.050171416
240	0xbfe513be	-1.789665
241	0x3dae0308	0.08496672
242	0x3ef80526	0.48441428
243	0xbdabc34e	-0.08386861
244	0x3d2d28c7	0.042275216
245	0x3efd38ed	0.49457493
246	0xbd0747cc	-0.033027455
247	0xb7ef26d3	-2.85091e-05
248	0x3da9dc67	0.082939915
249	0xbcbb30b6	-0.022850376
250	0xbdc447d9	-0.09584016
251	0xbccbe4eb	-0.02488943
252	0x3dda51a0	0.106601
253	0x3cfcd9b3	0.030865526
254	0xbfda015a	-1.7031662
255	0x3db8150a	0.08988388

net.flow_mapping.0.affine_layers.0.net.8.bias f4 [32]
0	0x3e2e1db9	0.17003526
1	0x3e03b764	0.12862927
2	0x3ddde3d4	0.108344704
3	0x3d66e43f	0.056370016
4	0x3c9fe732	0.019519422
5	0x3e5766f3	0.21035366
6	0x3e0e76da	0.13912526
7	0xbdddd9b5	-0.1083254
8	0x3d37aac3	0.044840585
9	0xbd104029	-0.035217438
10	0xbcf9b3aa	-0.030481178
11	0x3d0cbe0f	0.03436094
12	0x3d322638	0.04349348
13	0xbd94cb67	-0.072653584
14	0xbc04ae6d	-0.008098227
15	0xbe5f4b8a	-0.2180616
16	0xbcacff8c	-0.021117948
17	0xbdb88976	-0.090105936
18	0xbd83da4f	-0.064381234
19	0x3d81a129	0.06329567
20	0x3e07dc6f	0.13267682
21	0x3e54e9d0	0.20792317
22	0xbcb3aaa2	-0.02193195
23	0x3e0f53a9	0.13996758
24	0x3dd58361	0.10425449
25	0x3ddbcd0c	0.10732469
26	0x3e452ad3	0.19254617
27	0x3e247815	0.16061433
28	0x3db9b3df	0.09067511
29	0x3e5031b1	0.20331456
30	0x3dd880d2	0.105714455
31	0x3d34486e	0.044014387

net.flow_mapping.0.affine_layers.0.net.10.weight f4 [2, 32]
0	0xbe188f32	-0.14898375
1	0xbe70af14	-0.23504287
2	0x3f05a992	0.5221187
3	0x3d3a22ab	0.04544322
4	0xbdc38db2	-0.095485106
5	0xbd834ad9	-0.064107604
6	0x3e8077a0	0.25091267
7	0x3ef1ad01	0.47202304
8	0xbe080d25	-0.13286264
9	0xbdbdf0d2	-0.092744485
10	0xbcd3a491	-0.025835307
11	0xbd313caa	-0.043270744
12	0xbc858997	-0.01630096
13	0xbd898279	-0.06714339
14	0x3ed8f38e	0.42373317
15	0x3eeef44a	0.46670753
16	0xbdcc0c52	-0.099632874
17	0x3dafe3de	0.08588384
18	0x3d8d10b0	0.068879485
19	0x3d45b10e	0.048264556
20	0xbded36b4	-0.115826994
21	0xbe93faed	-0.2890238
22	0x3d2cb8ff	0.042168614
23	0xbd577296	-0.052599512
24	0xbe0138cc	-0.12619323
25	0x3e272c7d	0.16325565
26	0xbe062d84	-0.131033
27	0xbe02ffdd	-0.12792917
28	0xbd630419	-0.05542383
29	0xbdcb43f5	-0.09925071
30	0xbd9ad9ad	-0.075610496
31	0x3dae1592	0.08500208
32	0xbd1dbd36	-0.038510524
33	0xbfa96e99	-1.3236877
34	0x3f0597c7	0.5218472
35	0xbd2f649e	-0.042820565
36	0xbc8a96b1	-0.016917558
37	0xbe72d746	-0.23714933
38	0xbed70c84	-0.42001736
39	0x3eb9a497	0.36258385
40	0xbd5328eb	-0.051552694
41	0x3dd49af9	0.10381121
42	0xbd713fba	-0.058898665
43	0x3d809c70	0.06279838
44	0xbeb95713	-0.36199245
45	0xbd23a4e9	-0.039952192
46	0xbfbeb6b0	-1.4899502
47	0x3d75f542	0.06004835
48	0xbda1e84b	-0.079056345
49	0xbb9ff91e	-0.004881992
50	0xbdd50b4e	-0.10402547
51	0x3b875379	0.0041298238
52	0x3db4b80e	0.08824168
53	0xbfba522f	-1.455633
54	0xbed44398	-0.4145782
55	0xbcee865b	-0.0291168
56	0xbdbc5fc2	-0.09197952
57	0xbe1cb8de	-0.15304896
58	0xbe802cb4	-0.25034106
59	0xbcac73c6	-0.021051299
60	0xbe0dcf6a	-0.13848653
61	0xbe677bbc	-0.22605795
62	0xbdc90216	-0.09814851
63	0xbe2508f7	-0.16116701

net.flow_mapping.0.affine_layers.0.net.10.bias f4 [2]
0	0xbe148ba2	-0.1450639
1	0xbdcc5d93	-0.09978785

net.flow_mapping.0.affine_layers.1.net.0.weight f4 [32, 1]
0	0x3efdae82	0.495472
1	0x3e276cbd	0.16350074
2	0x3e9c0a02	0.30476385
3	0x3ee8f56d	0.45499745
4	0xbe87019a	-0.2636841
5	0x3a9943fe	0.0011693237
6	0x3f0cb8eb	0.5496966
7	0x3f135346	0.5754894
8	0xbedbacbc	-0.42905223
9	0x3e3a94fc	0.18220896
10	0x3f1a83c7	0.60357326
11	0x3ef4bdfc	0.47801197
12	0xbe8995f3	-0.26872215
13	0x3ca19ffc	0.019729607
14	0xbec07af7	-0.37593815
15	0x3eb0a33c	0.34499538
16	0xbebd99a2	-0.37031275
17	0xbd32017b	-0.043458443
18	0xbcfcbbac	-0.030851208
19	0xbc5be36c	-0.013420921
20	0xbe1c690d	-0.15274449
21	0xbd6b7ab8	-0.05749008
22	0x39df12a8	0.00042547775
23	0xbe8a97a7	-0.27068827
24	0xbd8b131e	-0.06790756
25	0xbe292b7f	-0.16520499
26	0xbde0f187	-0.10983568
27	0xbd174044	-0.036926523
28	0x3d4ef67d	0.05052804
29	0x3f170a06	0.5899967
30	0xbeb6ccc7	-0.35703108
31	0xbdd311a4	-0.10306099

net.flow_mapping.0.affine_layers.1.net.0.bias f4 [32]
0	0xbead9980	-0.33906174
1	0xbeaec6c1	-0.34136012
2	0x3e961ff2	0.29321247
3	0xbeacd8b0	-0.3375907
4	0xbdf6fe73	-0.12060251
5	0xbe68520b	-0.22687547
6	0xbeef07a3	-0.46685514
7	0x3e1fa40a	0.1558992
8	0x3f0b8f8a	0.545159
9	0x3cbd4504	0.023104198
10	0xbe764849	-0.24051012
11	0x3ee0d94d	0.43915787
12	0x3ef7110b	0.4825519
13	0xbea117b6	-0.31463403
14	0x3ea0c359	0.31399038
15	0x3de9d1b9	0.114169545
16	0xbd8a86fb	-0.06764027
17	0xbed59a48	-0.4171927
18	0x3e42f7dc	0.19039863
19	0x3e024e05	0.12725075
20	0xbdc4088a	-0.09571941
21	0xbf143b20	-0.5790272
22	0xbe2423aa	-0.1602923
23	0xbe49f9bd	-0.19724174
24	0x3d02cf8c	0.031936213
25	0xbf19532c	-0.59892535
26	0xbeb7fa42	-0.3593312
27	0x3ea1d0ef	0.31604716
28	0xbf4c8134	-0.7988465
29	0xbee3fdaa	-0.44529468
30	0x3ed544d3	0.4165407
31	0xbe6d7e0c	-0.23192614

net.flow_mapping.0.affine_layers.1.net.2.weight f4 [32, 32]
0	0xbcef362d	-0.029200638
1	0x3da6021d	0.08105872
2	0x3c531201	0.01288271
3	0x3d45b840	0.048271418
4	0x3db45ed5	0.0880715
5	0x3cc4e5a9	0.024035292
6	0xbdd8d134	-0.10586777
7	0xbd9893cc	-0.07450065
8	0xbb1115a7	-0.002213815
9	0x3c7be0a3	0.015373382
10	0xbdd5868d	-0.10426054
11	0x3d11c7ec	0.03559105
12	0xbd99074e	-0.074720964
13	0xbd8c046d	-0.06836782
14	0x3cb361d2	0.02189723
15	0xbdb39d7d	-0.08770273
16	0xbdd42617	-0.103588276
17	0x3dc9287f	0.09822177
18	0x3dc3a4ca	0.095529154
19	0x3dd50bae	0.10402618
20	0xbd6b8241	-0.057497267
21	0x3d9f6c87	0.07784372
22	0xbcd1edc3	-0.025626069
23	0xbd870e5c	-0.06594536
24	0xbd1a5485	-0.03767826
25	0xbda627e9	-0.08113081
26	0x3d162618	0.036657423
27	0x3d9024bc	0.070382565
28	0x3db0e541	0.08637477
29	0xbd9dd1f1	-0.07706059
30	0x3d22b006	0.03971865
31	0x3d4b4722	0.049628384
32	0xbd094136	-0.033509456
33	0x3cfe58a4	0.031048127
34	0xbcbc9b8e	-0.023023393
35	0x3db68bfe	0.0891342
36	0x3db3467a	0.08753677
37	0x3db51e67	0.088436894
38	0xbdd9ccfe	-0.10634802
39	0xbc4fa604	-0.012673859
40	0x3c65ced7	0.014026365
41	0xbdc75f53	-0.097349785
42	0xbdce7585	-0.10081009
43	0xbb1d43b5	-0.0023996655
44	0x3d3d0724	0.046149388
45	0xbd7e92fc	-0.062151894
46	0xbd5efb71	-0.054439012
47	0xbdd01e1c	-0.10161993
48	0x3dce57dc	0.100753516
49	0xbc7a26cc	-0.015268039
50	0x3dcfccca	0.10146482
51	0xbda99433	-0.0828022
52	0xbd081a5b	-0.03322826
53	0xbcfde4ff	-0.030992983
54	0x3c167c60	0.009184927
55	0x3d9bb2e0	0.07602477
56	0x3da7b234	0.081882864
57	0xbdb97db5	-0.0905718
58	0x3aa709c7	0.0012744003
59	0x3d9b5d8a	0.075862005
60	0xbdacd4a6	-0.08438997
61	0xbc7b1a18	-0.015326045
62	0xbd212d59	-0.039349888
63	0xbdbfff1f	-0.09374832
64	0x3db33bb7	0.08751624
65	0xbdc2308c	-0.09481916
66	0x3c768901	0.015047313
67	0xbddfa87c	-0.10920808
68	0xbdba5c41	-0.09099627
69	0xbd0cc047	-0.034363057
70	0xbd061351	-0.032733265
71	0x3d15982d	0.03652208
72	0x3d29dab3	0.041468333
73	0x3b12256a	0.0022300133
74	0x3d915b4c	0.070974916
75	0xbcf5c0d5	-0.029999176
76	0xbdc7835d	-0.097418524
77	0xbb2a5318	-0.002598947
78	0x3c9b3755	0.018947283
79	0xbdd74f61	-0.10513187
80	0x3d9f2a36	0.07771723
81	0xbda38ec0	-0.07986212
82	0xbdcd7ca5	-0.1003354
83	0x3db1581f	0.08659386
84	0xbdcf17ec	-0.101119846
85	0x3dafada4	0.08578041
86	0x3d43960f	0.04775053
87	0x3dc5a2ec	0.096502155
88	0x3d9cc144	0.0765405
89	0xbb644889	-0.0034833273
90	0x3c064298	0.008194588
91	0xbd860569	-0.06544001
92	0xbd47bd06	-0.04876425
93	0xbd048de7	-0.03236189
94	0xbdc3a4c4	-0.09552911
95	0xbdae45ce	-0.08509408
96	0x3db92e82	0.09042074
97	0x3d2a5b66	0.04159107
98	0x3dcc40e4	0.099733144
99	0x3bc3ccfe	0.0059753647
100	0xbdd265ae	-0.102733
101	0x3d2243e3	0.039615523
102	0x3db1704a	0.086639956
103	0xbd3c6aa2	-0.04600013
104	0xbc9ac77d	-0.018893952
105	0x3d54f3d4	0.051990345
106	0x3d9e41d8	0.077274024
107	0xbd1108bc	-0.03540872
108	0x3c2de73c	0.010614213
109	0x3d6a9fc2	0.057281263
110	0xbd8a6332	-0.06757201
111	0x3d7dda65	0.061975855
112	0x3d255bcb	0.040370744
113	0x3d3c7c68	0.04601708
114	0x3d292354	0.041293457
115	0x3bdd6f57	0.0067576575
116	0xbd7fc4d4	-0.06244357
117	0x3da55a51	0.08073867
118	0xbcd14fc6	-0.025550734
119	0x3dd2ab7d	0.10286615
120	0x3d1d6356	0.038424812
121	0x3d7453e8	0.05965033
122	0xbdaf3d1d	-0.08556578
123	0x3d200a79	0.039072488
124	0x3e18aded	0.14910097
125	0xbd8c2b89	-0.06844241
126	0x3d957cdc	0.07299206
127	0xbd8736fc	-0.06602284
128	0xbc88bd12	-0.016691718
129	0xbdbd02cf	-0.09229051
130	0xbda869ab	-0.082232796
131	0xbdc53443	-0.09629109
132	0xbc89af11	-0.016807111
133	0xbc4e3ac1	-0.01258725
134	0x3c1e31c2	0.009655418
135	0x3db31ae1	0.08745361
136	0x3d53aa77	0.05167624
137	0xbc05e30f	-0.008171811
138	0x3d848b71	0.06471909
139	0xbd94c987	-0.07265001
140	0xbb34c525	-0.0027583328
141	0x3b8a00a8	0.004211504
142	0x3d82792a	0.063707665
143	0xbd648657	-0.05579218
144	0x3d1fd69a	0.03902302
145	0x3c8fb3e4	0.017541833
146	0xbd76802e	-0.060180835
147	0xbdd39ed8	-0.103330314
148	0x3c8a087d	0.01684975
149	0xbd97c398	-0.074103534
150	0xbd00dd40	-0.031461
151	0xba925ae0	-0.0011165999
152	0xbdb8cd29	-0.09023506
153	0x3d0dd441	0.03462625
154	0x3d735825	0.059410233
155	0xbdc5b6c5	-0.09654001
156	0x3d0b693c	0.034035906
157	0xbd81c75b	-0.06336852
158	0x3db317e0	0.08744788
159	0xbd34fbb3	-0.04418535
160	0x3db3b655	0.087750115
161	0x3d429720	0.047507405
162	0x3db67089	0.08908183
163	0x3da2c8b7	0.079484396
164	0xbda629c2	-0.081134334
165	0x3dc58924	0.09645298
166	0x3d8aae85	0.06771568
167	0x3dae4c29	0.0851062
168	0xbcabefa9	-0.020988302
169	0x3cbfd8b3	0.02341876
170	0xbd341b40	-0.0439713
171	0x3d6782cb	0.05652122
172	0x3ccb76d4	0.024836935
173	0x3cc9fb05	0.024655828
174	0xbd84054c	-0.06446323
175	0x3d5da7e2	0.054115184
176	0x3d00e190	0.031465113
177	0x3dd876b2	0.10569514
178	0x3cc0b765	0.02352495
179	0x3dad2b55	0.084555306
180	0x3d8386e7	0.06422215
181	0xbda82f1e	-0.08212112
182	0x3d0aae9e	0.033857934
183	0xbd3659fd	-0.044519413
184	0x3d8b538f	0.06803047
185	0xbd17144c	-0.03688459
186	0xbc2b0f5f	-0.0104406765
187	0x3d4722bc	0.04861711
188	0x3e0f2011	0.13977076
189	0x3d7bf975	0.061517198
190	0xbdabe593	-0.08393397
191	0xbd29acb5	-0.041424472
192	0x3cd93848	0.026516095
193	0x3d7f23ba	0.06228993
194	0x3c5f53d6	0.013630828
195	0x3e0153fd	0.12629695
196	0x3d7f29d6	0.062295757
197	0x3cf020dc	0.029312544
198	0x3dd2d862	0.10295178
199	0xbce7c775	-0.02829335
200	0xbdade7f3	-0.084915064
201	0xbd50b28a	-0.050951518
202	0x3dfca6cf	0.12336504
203	0x3df1076e	0.11768995
204	0x3dd2870e	0.10279666
205	0xbd0ca430	-0.03433627
206	0xbd826904	-0.063676864
207	0xbd88b176	-0.06674473
208	0xbd560ac3	-0.052256357
209	0xbdd5ebe0	-0.1044538
210	0xbc041b32	-0.0080631245
211	0xbce0b135	-0.027428249
212	0x3dc268d0	0.09492648
213	0x3dc38733	0.095472716
214	0x3dbfc9f7	0.093646936
215	0xbd0907f6	-0.033454858
216	0xbdc1cc2d	-0.094627716
217	0xbd5db390	-0.054126322
218	0x3b618bd9	0.003441563
219	0x3d09e3ca	0.033664502
220	0x3dec0a7d	0.11525438
221	0x3d2d6166	0.042329215
222	0x3d35800c	0.04431157
223	0x3db314c9	0.08744199
224	0xbdc0488a	-0.09388836
225	0xbdcc83e8	-0.099860966
226	0xbd5ae746	-0.053443216
227	0x3b9482e7	0.0045322063
228	0xbd1e3dfc	-0.03863333
229	0x3d397cd9	0.04528508
230	0x3dc777ed	0.09739671
231	0xbda6ce46	-0.08144812
232	0xbdbff340	-0.09372568
233	0x3d9d429c	0.0767872
234	0xbd08cc0d	-0.033397723
235	0x3c70d198	0.014698409
236	0x3d2961f5	0.041353185
237	0xbcd56c0d	-0.0260525
238	0x3d6a74b9	0.05724022
239	0xbd07def5	-0.033171613
240	0xbd994e39	-0.07485623
241	0xbda9f0b4	-0.082978636
242	0x3d426f95	0.047469694
243	0xbd2c8ff0	-0.042129457
244	0xbd088e6e	-0.033338957
245	0xbdd142e1	-0.10217834
246	0x3d159d53	0.03652699
247	0xbd3765ea	-0.044774927
248	0xbcc2287c	-0.023700945
249	0xbd28fed9	-0.041258667
250	0x3db04215	0.08606354
251	0x3d2da8fb	0.04239748
252	0x3b58e55e	0.0033095698
253	0xbb7435c4	-0.0037263492
254	0xbcf3fac1	-0.029782655
255	0xbc89bf20	-0.016814768

net.flow_mapping.0.affine_layers.1.net.2.bias f4 [32]
0	0xbddab582	-0.10679151
1	0x3d92f28c	0.071751684
2	0xbd5e1574	-0.054219678
3	0x3d576787	0.052588966
4	0x3dba85e6	0.0910757
5	0xbcf6a3e6	-0.03010745
6	0x3de91749	0.113813944
7	0x3d93534f	0.07193624
8	0xbcb50a02	-0.022099499
9	0x3d21e48c	0.0395246
10	0x3cd0a55c	0.025469474
11	0xbcbc15fa	-0.022959698
12	0x3b9c3fea	0.0047683613
13	0x3c37cf86	0.011218911
14	0x3ca046f6	0.019565087
15	0xbd9b96a7	-0.07597094
16	0xbd54acae	-0.051922493
17	0xbd1664f5	-0.036717374
18	0x3da05eb6	0.07830565
19	0xbd8b1480	-0.067910194
20	0x3e1ca0f2	0.15295771
21	0xbd45f38c	-0.048327968
22	0x3d45e988	0.048318416
23	0x3d8c1e36	0.068417
24	0x3d5a7553	0.053334545
25	0xbdbe83a2	-0.09302451
26	0xbc492b29	-0.012278357
27	0xbc8d98fc	-0.017284863
28	0x3c81d18e	0.015846994
29	0xbd7ed302	-0.06221295
30	0xbdd243fb	-0.102668725
31	0xbc7ccc94	-0.015429635
