param/model_original_8_24_3.pth (torch, 87141 bytes, 110 tensors)

net.rotations.0.LU f4 [2, 2]
0.0 0.0 0.0 0.0
00000000: 0000 0000 0000 0000 0000 0000 0000 0000

net.rotations.0.LU_init f4 [2, 2]
1.0 0.0 0.0 1.0
00000000: 0000 803f 0000 0000 0000 0000 0000 803f

net.rotations.0.ones_mat f4 [2, 2]
1.0 1.0 1.0 1.0
00000000: 0000 803f 0000 803f 0000 803f 0000 803f

net.rotations.0.I f4 [2, 2]
1.0 0.0 0.0 1.0
00000000: 0000 803f 0000 0000 0000 0000 0000 803f

net.flow_mapping.0.scale_layers.0.b f4 [1, 2]
-0.14111374 0.025101738
00000000: 1f80 10be 29a2 cd3c

net.flow_mapping.0.scale_layers.0.logs f4 [1, 2]
0.033803407 0.06462304
00000000: 7175 0a3d 1659 843d

net.flow_mapping.0.scale_layers.0.b_init f4 [1, 2]
0.0 0.0
00000000: 0000 0000 0000 0000

net.flow_mapping.0.scale_layers.0.logs_init f4 [1, 2]
0.0 0.0
00000000: 0000 0000 0000 0000

net.flow_mapping.0.scale_layers.1.b f4 [1, 2]
0.042225387 0.00979436
00000000: 87f4 2c3d 8678 203c

net.flow_mapping.0.scale_layers.1.logs f4 [1, 2]
0.017820636 0.028546222
00000000: 95fc 913c c4d9 e93c

net.flow_mapping.0.scale_layers.1.b_init f4 [1, 2]
0.0 0.0
00000000: 0000 0000 0000 0000

net.flow_mapping.0.scale_layers.1.logs_init f4 [1, 2]
0.0 0.0
00000000: 0000 0000 0000 0000

net.flow_mapping.0.scale_layers.2.b f4 [1, 2]
-0.021866623 -0.010737089
00000000: a221 b3bc 9eea 2fbc

net.flow_mapping.0.scale_layers.2.logs f4 [1, 2]
-0.089779794 -0.007447
00000000: 78de b7bd f705 f4bb

net.flow_mapping.0.scale_layers.2.b_init f4 [1, 2]
0.0 0.0
00000000: 0000 0000 0000 0000

net.flow_mapping.0.scale_layers.2.logs_init f4 [1, 2]
0.0 0.0
00000000: 0000 0000 0000 0000

net.flow_mapping.0.scale_layers.3.b f4 [1, 2]
0.022533325 0.023917828
00000000: cf97 b83c 52ef c33c

net.flow_mapping.0.scale_layers.3.logs f4 [1, 2]
0.07961639 0.036268167
00000000: eb0d a33d ee8d 143d

net.flow_mapping.0.scale_layers.3.b_init f4 [1, 2]
0.0 0.0
00000000: 0000 0000 0000 0000

net.flow_mapping.0.scale_layers.3.logs_init f4 [1, 2]
0.0 0.0
00000000: 0000 0000 0000 0000

net.flow_mapping.0.scale_layers.4.b f4 [1, 2]
-0.032006875 0.0076171253
00000000: a419 03bd 1499 f93b

net.flow_mapping.0.scale_layers.4.logs f4 [1, 2]
-0.08640492 0.14681166
00000000: 10f5 b0bd cc55 163e

net.flow_mapping.0.scale_layers.4.b_init f4 [1, 2]
0.0 0.0
00000000: 0000 0000 0000 0000

net.flow_mapping.0.scale_layers.4.logs_init f4 [1, 2]
0.0 0.0
00000000: 0000 0000 0000 0000

net.flow_mapping.0.scale_layers.5.b f4 [1, 2]
0.05073482 0.00993639
00000000: 51cf 4f3d 3ecc 223c

net.flow_mapping.0.scale_layers.5.logs f4 [1, 2]
0.04286007 -0.094253205
00000000: 0a8e 2f3d d307 c1bd

net.flow_mapping.0.scale_layers.5.b_init f4 [1, 2]
0.0 0.0
00000000: 0000 0000 0000 0000

net.flow_mapping.0.scale_layers.5.logs_init f4 [1, 2]
0.0 0.0
00000000: 0000 0000 0000 0000

net.flow_mapping.0.scale_layers.6.b f4 [1, 2]
0.07608559 -0.07249477
00000000: c3d2 9b3d 2378 94bd

net.flow_mapping.0.scale_layers.6.logs f4 [1, 2]
-0.052267414 -0.016420458
00000000: 5b16 56bd 3284 86bc

net.flow_mapping.0.scale_layers.6.b_init f4 [1, 2]
0.0 0.0
00000000: 0000 0000 0000 0000

net.flow_mapping.0.scale_layers.6.logs_init f4 [1, 2]
0.0 0.0
00000000: 0000 0000 0000 0000

net.flow_mapping.0.scale_layers.7.b f4 [1, 2]
-0.0565215 0.20960076
00000000: 1783 67bd 95a1 563e

net.flow_mapping.0.scale_layers.7.logs f4 [1, 2]
0.054231275 -0.099149555
00000000: 9d21 5e3d ec0e cbbd

net.flow_mapping.0.scale_layers.7.b_init f4 [1, 2]
0.0 0.0
00000000: 0000 0000 0000 0000

net.flow_mapping.0.scale_layers.7.logs_init f4 [1, 2]
0.0 0.0
00000000: 0000 0000 0000 0000

net.flow_mapping.0.affine_layers.0.net.0.weight f4 [24, 1]
-0.8410979 0.17710544 0.048986226 0.40543538 -0.513052 0.7485937 -0.40293345 0.2687726
0.36102352 -0.08423535 -0.2985345 -0.51083374 0.43782675 -0.2659334 -0.543041 0.60150635
0.38798115 0.15973102 -0.6937984 -0.54155576 -0.38832185 0.20710677 0.48646912 0.29256365
00000000: 3152 57bf 215b 353e c8a5 483d 3a95 cf3e
00000010: 6057 03bf d6a3 3f3f 4b4d cebe 909c 893e
00000020: 13d8 b83e 9583 acbd 84d9 98be 00c6 02bf
00000030: d42a e03e 6c28 88be bc04 0bbf 52fc 193f
00000040: 77a5 c63e 8790 233e c69c 31bf 66a3 0abf
00000050: 1fd2 c6be cc13 543e 7b12 f93e e7ca 953e

net.flow_mapping.0.affine_layers.0.net.0.bias f4 [24]
0.5579323 -0.46285704 -0.18570046 -0.85312456 -0.258174 -0.62678576 -0.42845902 0.4331975
0.57707375 -0.3591575 0.49450946 -0.5135403 -0.92458665 0.39432776 -0.6267406 -0.4990662
0.5469396 -0.62540996 -0.12793458 -0.6163286 -0.4029538 0.8294286 -0.7862743 0.46801895
00000000: a7d4 0e3f 99fb ecbe 4328 3ebe 5f66 5abf
00000010: 622f 84be 0875 20bf fb5e dbbe 10cc dd3e
00000020: 1bbb 133f 7ee3 b7be 5830 fd3e 6177 03bf
00000030: b6b1 6cbf 54e5 c93e 1272 20bf 9b85 ffbe
00000040: 3c04 0c3f de1a 20bf 4801 03be b6c7 1dbf
00000050: f64f cebe 6f55 543f 4649 49bf 2ea0 ef3e

net.flow_mapping.0.affine_layers.0.net.2.weight f4 [24, 24]
-0.13420354 -0.030412955 -0.09166721 -0.038804907 0.036669545 0.018942386 -0.08706105 0.09904711
0.07828215 0.05990757 0.1279154 0.1132072 -0.049684245 0.0042018592 -0.13276853 -0.11892898
-0.026706016 0.08997015 0.01796358 -0.12924826 -0.021471988 -0.081891924 0.10610158 -0.10102491
0.025807986 0.23420946 -0.030264145 0.6013464 -0.012218579 0.34073353 0.17317116 -0.081782505
-0.25231576 0.028588556 -0.01784444 0.5322318 0.6873635 -0.124338284 0.2915417 0.3424702
-0.37234333 0.32688797 0.02612033 0.49397847 0.306585 -0.49731898 1.1688263 -0.06943907
-0.050153863 -0.0054635545 0.019958176 0.09995733 0.1346089 -0.061418846 0.21884315 -0.12047105
0.067120954 0.143055 -0.09219748 0.4577806 0.18930808 -0.30517086 0.29951105 -0.006456044
-0.17940508 -0.057036184 0.17233983 0.59942836 0.17873703 -1.2160677 0.076935485 -0.02636664
0.043723952 0.06724944 0.057640575 0.0141517585 -0.14983045 -0.16738397 -0.061634865 -0.17314751
-0.02588662 0.0399109 -0.00070724083 0.062250152 0.09442652 0.016733883 -0.07879759 0.052803222
-0.15243359 0.0110082645 -0.17468233 -0.0712288 -0.049911633 0.047223795 -0.11933101 -0.0062438278
-0.06173692 0.05143009 -0.09109468 0.08972408 -0.18432096 0.03514161 -0.17067397 -0.14512153
-0.05727616 -0.12878829 0.045683075 -0.15115325 -0.03146357 -0.012459009 0.014183028 -0.07462995
0.06557206 -0.047761712 -0.14728001 -0.09016149 0.01110547 -0.17363074 -0.005873595 -0.035746064
-2.2718914 -0.47113767 0.030163629 -0.46255428 -0.03458716 -2.7066643 -0.0023967172 0.23514159
0.1557958 0.046604156 -0.06926804 0.02955554 -0.16466717 -0.21633917 0.0008610479 -2.2044806
0.10831614 -0.5851614 0.049574174 -0.11592907 -0.11573191 0.18582566 -0.08436419 0.24677108
0.09157199 -0.15616812 -0.119229764 -0.059651338 -0.10594986 0.0034993647 -0.02363914 -0.13707495
-0.013440836 0.042090565 -0.106609285 0.032428116 0.05610795 -0.28597164 -0.068884656 -0.06771348
-0.07921909 -0.22326311 -0.13705848 -0.044847626 0.10282019 -0.15385593 0.0016493978 -0.1969677
-0.08785809 -0.014278123 -0.18889706 -0.07883623 -0.16990815 0.049898725 -0.10703819 -0.023106644
0.016637364 0.053052306 0.04071568 0.07335998 -0.048968337 -0.12606293 0.07734558 -0.09286007
-0.00011047454 0.05098427 -0.048277386 0.030911226 -0.09579502 -0.10216764 0.029785473 0.010494061
-0.3379471 -0.049614213 0.00070881046 -0.20271917 -0.77806437 0.14907306 -0.7684163 0.12571666
0.18220308 -0.0028996256 -0.03962584 -1.1306137 -0.34545994 0.06430443 -0.5195513 0.1433856
0.2171773 -0.010773635 -0.77234495 -0.23027794 -1.0971893 0.12338563 0.35894635 0.19115868
-0.17519651 -0.06681582 0.09197549 0.09881021 -0.106741145 -0.12231155 -0.16875683 -0.0513824
-0.0340382 -0.01819875 0.007613861 -0.1860874 0.04397359 -0.08711316 0.027664565 0.09801103
-0.0613695 -0.13662396 -0.0028586371 -0.19376744 -0.023132997 0.010053981 0.031981338 -0.13298732
0.019817283 0.053419944 -0.13285282 0.08397171 0.041247953 0.060557418 0.24764456 -0.02888136
0.07134038 0.03675466 -0.17441942 0.7117199 -0.06217769 -0.13761449 0.17204334 -0.0754171
00000000: a76c 09be 9724 f9bc 05bc bbbd e5f1 1ebd
00000010: ce32 163d 102d 9b3c 104d b2bd 36d9 ca3d
00000020: 6452 a03d a461 753d 41fc 023e 2dd9 e73d
00000030: b581 4bbd c0af 893b 79f4 07be 0991 f3bd
00000040: 93c6 dabc 4542 b83d 5c28 933c a859 04be
00000050: 06e6 afbc f4b6 a7bd c94b d93d 26e6 cebd
00000060: 456b d33c 9bd4 6f3e 83ec f7bc d6f1 193f
00000070: 6f30 48bc a074 ae3e c853 313e 967d a7bd
00000080: 882f 81be 8c32 ea3c 812e 92bc 5840 083f
00000090: 0ef7 2f3f 12a5 febd f444 953e 4158 af3e
000000a0: c9a3 bebe dc5d a73e 4dfa d53c bfea fc3e
000000b0: b6f8 9c3e 98a0 febe 1a9c 953f 1236 8ebd
000000c0: 236e 4dbd 9e07 b3bb 547f a33c 6eb6 cc3d
000000d0: ead6 093e 5492 7bbd 6b18 603e 87b9 f6bd
000000e0: b676 893d 037d 123e 08d2 bcbd 3862 ea3e
000000f0: fad9 413e 5b3f 9cbe 8359 993e 398d d3bb
00000100: f7b5 37be c69e 69bd da79 303e 2374 193f
00000110: d706 373e 1ba8 9bbf 5a90 9d3d dafe d7bc
00000120: e317 333d 13ba 893d 8618 6c3d c7dc 673c
00000130: 276d 19be b466 2bbe d774 7cbd 954d 31be
00000140: 2d10 d4bc 9d79 233d 2166 39ba 04fa 7e3d
00000150: b162 c13d 7f15 893c a260 a1bd 3148 583d
00000160: 8d17 1cbe 025c 343c eddf 32be 68e0 91bd
00000170: 2470 4cbd bd6d 413d d163 f4bd 0699 ccbb
00000180: dadf 7cbd 5ca8 523d d98f babd 42c1 b73d
00000190: a2be 3cbe a6f0 0f3d 28c5 2ebe bd9a 14be
000001a0: 689a 6abd 14e1 03be 2d1e 3b3d ebc7 1abe
000001b0: f2df 00bd df20 4cbc ee5f 683c 96d7 98bd
000001c0: a54a 863d c9a1 43bd 92d0 16be 96a6 b8bd
000001d0: b8f3 353c 42cc 31be 4977 c0bb 776a 12bd
000001e0: ab66 11c0 f538 f1be b719 f73c ead3 ecbe
000001f0: 44ab 0dbd fd39 2dc0 3e12 1dbb f5c8 703e
00000200: ef88 1f3e 00e4 3e3d 67dc 8dbd 761e f23c
00000210: 839e 28be 0488 5dbe f2b7 613a 3616 0dc0
00000220: dad4 dd3d 23cd 15bf 4a0e 4b3d 386c edbd
00000230: da04 edbd 1549 3e3e 22c7 acbd 8fb1 7c3e
00000240: 188a bb3d 89ea 1fbe bc2e f4bd f654 74bd
00000250: 3dfc d8bd 9955 653b dfa6 c1bc 605d 0cbe
00000260: f436 5cbc 2867 2c3d f855 dabd 58d3 043d
00000270: 73d1 653d e06a 92be 6613 8dbd 5dad 8abd
00000280: 9e3d a2bd 169f 64be 0f59 0cbe 25b2 37bd
00000290: 6493 d23d 698c 1dbe 9b30 d83a e7b1 49be
000002a0: f1ee b3bd caee 69bc 3b6e 41be e474 a1bd
000002b0: 67fc 2dbe 9b62 4c3d d736 dbbd 254a bdbc
000002c0: 154b 883c 604d 593d 7cc5 263d c23d 963d
000002d0: 0693 48bd a416 01be 5c67 9e3d 6c2d bebd
000002e0: 91ae e7b8 e2d4 503d 82be 45bd 8a39 fd3c
000002f0: 2e30 c4bd 453d d1bd aa00 f43c 48ef 2b3c
00000300: 6707 adbe 4638 4bbd 77cf 393a 9d95 4fbe
00000310: 3a2f 47bf 9ca6 183e eeb6 44bf debb 003e
00000320: 7293 3a3e a507 3ebb b44e 22bd f3b7 90bf
00000330: 20e0 b0be 0ab2 833d 5001 05bf add3 123e
00000340: ba63 5e3e e683 30bc 66b8 45bf fbcd 6bbe
00000350: b370 8cbf 9bb1 fc3d d1c7 b73e 1abf 433e
00000360: b766 33be bcd6 88bd a55d bc3d 025d ca3d
00000370: 1a9b dabd 7a7e fabd 97ce 2cbe 5a76 52bd
00000380: a46b 0bbd 8c15 95bc b27d f93b b28d 3ebe
00000390: a71d 343d 6268 b2bd cca0 e23c 02ba c83d
000003a0: 965e 7bbd 27e7 0bbe f957 3bbb f96a 46be
000003b0: 6981 bdbc 74b9 243c ddfe 023d d42d 08be
000003c0: db57 a23c dfce 5a3d 920a 08be 5cf9 ab3d
000003d0: 9df3 283d 0e0b 783d 8996 7d3e 9a98 ecbc
000003e0: e81a 923d 0e8c 163d 019b 32be 4633 363f
000003f0: 09ae 7ebd d0ea 0cbe 212c 303e 4874 9abd

net.flow_mapping.0.affine_layers.0.net.2.bias f4 [24]
-0.10384415 -0.4934665 -0.42852312 -0.01107546 0.03165449 -0.05497607 -0.13233103 0.04977626
0.17559579 -0.0058429167 -0.5518444 -0.1645306 0.067285836 -0.09462574 -0.3142062 0.022917423
-0.13905892 -0.023690155 0.0845962 -0.22060104 -0.0044906647 0.119857125 0.02316792 -0.0937218
00000000: 3eac d4bd a4a7 fcbe 6267 dbbe d975 35bc
00000010: 23a8 013d 962e 61bd c981 07be 31e2 4b3d
00000020: 62cf 333e f075 bfbb ad45 0dbf b67a 28be
00000030: 28cd 893d 24cb c1bd a3df a0be 52bd bb3c
00000040: 7665 0ebe db11 c2bc c640 ad3d 3de5 61be
00000050: 6d26 93bb a777 f53d a6ca bd3c 37f1 bfbd

net.flow_mapping.0.affine_layers.0.net.4.weight f4 [24, 24]
-0.09566615 -0.16140115 -0.101746745 -0.045672584 -0.0084620975 -0.007571546 0.032859255 -0.0484111
-0.11310578 -0.070614636 0.036484502 -0.07457122 -0.15079115 -0.13284582 -0.1396809 -0.09252385
0.057794478 0.07072557 0.055157732 0.083945565 0.039364908 0.010026279 -0.11368115 0.117549784
0.0035292609 0.10998568 -0.039502203 0.17163344 -0.054282796 -0.38011137 -0.061963134 -0.07561382
-0.47695154 0.09244268 0.052707437 0.26040447 -0.12408248 -0.8728306 0.23164742 0.1007596
0.13723594 -0.0068146545 -0.40653774 -0.08123958 0.06651365 -0.018081257 0.00024166335 -0.11579586
-0.059951365 -0.326938 0.032366984 0.014347209 0.034090016 0.5636023 0.14233845 -0.12986213
-0.055937357 -0.08096484 0.033909254 -0.09016659 0.1971566 -0.13130577 -0.24571198 0.0047734533
-0.12341826 -0.010702418 0.45813903 0.07975146 -0.07147878 0.10852754 0.07278066 -0.11730096
0.004150149 -0.19115882 -0.06436822 0.072563775 -0.10933243 0.009339401 -0.16288239 -0.023082472
-0.6973105 0.069447055 0.04062007 0.05837371 -0.11722885 0.061144184 -0.7444695 -0.057380404
-0.09806963 -0.06071849 -0.17496893 -0.0348144 -0.050917026 -0.076552995 -0.12381142 0.020675046
0.13253199 -0.11425928 -0.034344003 -0.05660404 0.03954663 0.0923073 0.0517697 -0.07915841
-0.034550194 0.07464695 -0.08410395 0.033972684 -0.14063092 -0.059741903 -0.124433465 -0.13026343
-0.029653586 0.004168428 -0.15801923 -0.05771599 -0.043856766 -0.051170025 -0.067436196 0.07704206
0.12685591 -0.36347315 -0.2162484 -0.09862264 -0.014318892 -0.112131864 -0.09719048 -0.010433073
-0.918019 -0.12659867 0.017603394 -0.26505306 -0.0880292 0.07194408 -0.8330964 -0.13208301
-0.10204174 0.13159947 -0.24950849 -0.05814402 -0.012968323 0.06789136 0.06325982 0.08921828
-0.026119802 -0.3219565 0.007658263 -0.10233206 -0.051785562 -0.26729226 0.036026422 -0.019767039
0.04218665 -0.12802455 0.13544494 -0.37437543 -0.15807192 -0.12586492 0.051750198 -0.02550602
0.08197443 -0.056392282 -0.045424234 0.026128503 -0.12803158 -0.08117984 -0.089970335 -0.102459505
-0.06402301 -0.595124 0.011264114 0.06029358 0.10069583 0.53702736 -0.21582834 -0.011237402
0.1347867 0.1413428 0.048612297 0.07937464 0.023085343 -1.366268 -0.09997358 0.073531814
-0.07410966 -0.11344295 -0.457226 0.024844743 -0.018383201 0.053414516 -0.048280872 0.12468349
-0.09652533 0.44992396 0.30500054 -0.13931356 -0.10687193 0.10353663 -0.13032733 0.112080246
0.080736734 0.062876716 0.8880574 -0.24346367 -0.29974425 0.24544668 0.31948963 -0.010212206
0.06365281 0.024275322 -0.4002859 -0.03578051 0.004069152 -0.08067011 0.11342131 0.08581768
0.053678 -0.086399354 -0.0070224004 -0.16238771 -0.20488596 -0.20147768 -0.10941061 0.0026749875
0.032419957 -0.022609834 0.019730182 -0.11261125 -0.106149554 -0.037131503 -0.06116712 -0.06458978
-0.03428397 -0.12464038 -0.14205536 0.12779394 0.048146516 -0.18466601 -0.052635323 0.044037566
-0.030000513 -1.0920333 -0.06093 -0.075531095 0.06810533 0.95917267 -0.021140875 -0.086187154
-0.011783745 -0.00665588 -0.08592481 0.46230873 0.374326 -0.13895822 -0.6287623 -0.058822908
00000000: 9dec c3bd 5846 25be 9960 d0bd 2d13 3bbd
00000010: 9ca4 0abc bb1a f8bb 6d97 063d b84a 46bd
00000020: 01a4 e7bd 689e 90bd c670 153d ccb8 98bd
00000030: ff68 1abe bc08 08be 8308 0fbe 257d bdbd
00000040: e7b9 6c3d 91d8 903d 13ed 613d a7eb ab3d
00000050: 193d 213d 4345 243c aad1 e8bd f1bd f03d
00000060: 2c4b 673b 2c40 e13d 10cd 21bd adc0 2f3e
00000070: a357 5ebd f59d c2be 0ecd 7dbd 6bdb 9abd
00000080: fe32 f4be 9652 bd3d c1e3 573d bc53 853e
00000090: f51e febd d471 5fbf fb34 6d3e 0d5b ce3d
000000a0: 9487 0c3e 774d dfbb b725 d0be f060 a6bd
000000b0: 4f38 883d 251f 94bc 0367 7d39 6126 edbd
000000c0: 908f 75bd 6b64 a7be 3e93 043d 8e10 6b3c
000000d0: f9a1 0b3d 3e48 103f 2cc1 113e 94fa 04be
000000e0: 921e 65bd e5d0 a5bd 6ee4 0a3d 43a9 b8bd
000000f0: 6be3 493e 0575 06be ec9b 7bbe a16a 9c3b
00000100: b6c2 fcbd 3259 2fbc 3391 ea3e bc54 a33d
00000110: 7763 92bd b043 de3d 070e 953d 7c3b f0bd
00000120: f9fd 873b 23bf 43be 7cd3 83bd 519c 943d
00000130: aee9 dfbd 4904 193c a4ca 26be 7417 bdbc
00000140: f182 32bf 423a 8e3d 3b61 263d 4519 6f3d
00000150: ae15 f0bd 5372 7a3d 8e95 3ebf b707 6bbd
00000160: bbd8 c8bd f4b3 78bd 0e2b 33be 8b99 0ebd
00000170: 5f8e 50bd d1c7 9cbd d790 fdbd b75e a93c
00000180: 77b6 073e c500 eabd 4cac 0cbd a3d9 67bd
00000190: a6fb 213d 9c0b bd3d 770c 543d ce1d a2bd
000001a0: 8184 0dbd 80e0 983d b13e acbd f126 0b3d
000001b0: 8d01 10be edb3 74bd f9d6 febd c763 05be
000001c0: 14ec f2bc 4f97 883b cbcf 21be 9a67 6cbd
000001d0: 27a3 33bd a997 51bd fd1b 8abd 3ac8 9d3d
000001e0: 84e6 013e 2719 babe 3870 5dbe abfa c9bd
000001f0: c999 6abc 64a5 e5bd cd0b c7bd 7bef 2abc
00000200: 4b03 6bbf 15a3 01be fe34 903c 09b5 87be
00000210: a748 b4bd 6b57 933d ce45 55bf c540 07be
00000220: 43fb d0bd 03c2 063e 277f 7fbe 6d28 6ebd
00000230: 1779 54bc a00a 8b3d 5d8e 813d 13b8 b63d
00000240: 32f9 d5bc 7bd7 a4be 2bf2 fa3b 7993 d1bd
00000250: 191d 54bd 88da 88be 7190 133d 7cee a1bc
00000260: e9cb 2c3d de18 03be 14b2 0a3e 23ae bfbe
00000270: 9bdd 21be bce2 00be 04f8 533d 00f2 d0bc
00000280: 36e2 a73d 98fb 66bd c30e 3abd 710b d63c
00000290: b61a 03be 9e41 a6bd 5e42 b8bd 4ad6 d1bd
000002a0: 7f1e 83bd 0c5a 18bf 1e8d 383c 67f6 763d
000002b0: 9e39 ce3d a07a 093f 1b02 5dbe 151d 38bc
000002c0: 8605 0a3e 2bbc 103e b01d 473d 2c8f a23d
000002d0: 791d bd3c dfe1 aebf f3be ccbd d997 963d
000002e0: cec6 97bd c754 e8bd 8719 eabe 3487 cb3c
000002f0: 5e98 96bc 2ec9 5a3d 2ac2 45bd 0f5a ff3d
00000300: 12af c5bd 6f5c e63e 0829 9c3e 37a8 0ebe
00000310: acdf dabd 030b d43d 8774 05be 548a e53d
00000320: 4d59 a53d 82c5 803d bb57 633f 8a4e 79be
00000330: 1478 99be 6056 7b3e 2594 a33e 1951 27bc
00000340: 685c 823d 0add c63c 46f2 ccbe 968e 12bd
00000350: 8556 853b 5f36 a5bd 6f49 e83d 2ec1 af3d
00000360: 76dd 5b3d 25f2 b0bd 2a1c e6bb f748 26be
00000370: a0cd 51be 2a50 4ebe ab12 e0bd d84e 2f3b
00000380: caca 043d 4238 b9bc 31a1 a13c baa0 e6bd
00000390: f064 d9bd 3417 18bd 608a 7abd a647 84bd
000003a0: 596d 0cbd 7543 ffbd f676 11be 6adc 023e
000003b0: 4835 453d 1619 3dbe 2398 57bd bc60 343d
000003c0: a3c3 f5bc bfc7 8bbf bc91 79bd 0cb0 9abd
000003d0: cf7a 8b3d 578c 753f a12f adbc e482 b0bd
000003e0: 9c10 41bc 9119 dabb 59f9 afbd bbb3 ec3e
000003f0: a8a7 bf3e 104b 0ebe 91f6 20bf 4af0 70bd

net.flow_mapping.0.affine_layers.0.net.4.bias f4 [24]
-0.070315585 -0.07279597 -0.17127953 0.41037634 -0.040301483 0.13701127 -0.14043494 0.3010266
-0.11388021 -0.12762322 0.23204118 -0.043813758 -0.18163162 0.31455848 -0.13556051 0.05770194
-0.21214892 0.13947137 -0.05686775 -0.14754546 -0.066355035 0.25654715 0.077203825 -0.10232298
00000000: 9e01 90bd 0e16 95bd e763 2fbe d91c d23e
00000010: 2b13 25bd af4c 0c3e 2dce 0fbe 2920 9a3e
00000020: 073a e9bd a9af 02be 349c 6d3e 0e76 33bd
00000030: a4fd 39be cf0d a13e 60d0 0abe df58 6c3d
00000040: 913d 59be 95d1 0e3e 28ee 68bd 2816 17be
00000050: 26e5 87bd 265a 833e 0a1d 9e3d b68e d1bd

net.flow_mapping.0.affine_layers.0.net.6.weight f4 [2, 24]
0.07943796 -0.037074775 -0.20588553 -0.5794928 0.09037575 -0.4730041 0.04267481 -0.17606437
1.0422477 0.03157072 -0.30502695 -0.026973508 1.1838889 0.46772486 0.076970786 -0.15840814
-0.143118 -0.30526656 -0.18990341 -0.012083134 -0.18637368 -0.1520875 -0.19138566 0.023988502
-0.16117759 -0.18069103 -0.17836797 -0.13463086 0.039832007 -0.07380314 -0.009666685 0.283004
-0.17600794 -0.11317937 0.010773156 0.11163901 0.007457333 -0.93932307 -0.09395393 -0.5197989
0.0038742807 -0.009978974 -0.025336651 0.053586774 0.045751374 0.25891083 -0.057351965 -0.062100325
00000000: 5fb0 a23d b8db 17bd a8d3 52be a459 14bf
00000010: ec16 b93d 982d f2be c8cb 2e3d 384a 34be
00000020: 5f68 853f 4d50 013d 7e2c 9cbe 8cf7 dcbc
00000030: ac89 973f a279 ef3e dca2 9d3d be35 22be
00000040: 868d 12be e64b 9cbe 0a76 42be 56f8 45bc
00000050: bed8 3ebe d3bc 1bbe 9afa 43be 8983 c43c
00000060: bd0b 25be 1207 39be 18a6 36be acdc 09be
00000070: e326 233d 1a26 97bd 0461 1ebc e6e5 903e
00000080: 6d3b 34be 96ca e7bd e481 303c fea2 e43d
00000090: a55c f43b 7a77 70bf eb6a c0bd 8a11 05bf
000000a0: a5e7 7d3b da7e 23bc cf8e cfbc ce7d 5b3d
000000b0: cb65 3b3d f68f 843e e5e9 6abd e95c 7ebd

net.flow_mapping.0.affine_layers.0.net.6.bias f4 [2]
-0.028531568 0.19277982
00000000: 09bb e9bc 1368 453e

net.flow_mapping.0.affine_layers.1.net.0.weight f4 [24, 1]
0.007850823 0.1147649 -0.54215693 -0.59615517 0.6009878 -0.6111168 0.37747642 -0.2397629
0.58394307 0.5496511 0.69184756 0.32115242 0.39683202 -0.31595856 0.5847436 -0.8227665
-0.00076751044 -0.111055516 0.22461587 -0.1433059 -0.8015247 0.4640699 0.117555246 -0.045231663
00000000: bda0 003c dc09 eb3d ccca 0abf a09d 18bf
00000010: 56da 193f 2772 1cbf 9744 c13e 6884 75be
00000020: 4b7d 153f efb5 0c3f ec1c 313f 176e a43e
00000030: 912d cb3e 52c5 a1be c2b1 153f d3a0 52bf
00000040: c132 49ba 1371 e3bd b401 663e c8be 12be
00000050: b930 4dbf 929a ed3e cec0 f03d d644 39bd

net.flow_mapping.0.affine_layers.1.net.0.bias f4 [24]
-0.04576952 0.31347072 -0.30578157 0.14676492 -0.44258627 -0.63390225 -0.38868144 0.090582125
0.47493798 -0.61408275 -0.6801381 -0.25560752 0.7214844 -0.8351492 -0.4310753 -0.5024755
-0.008098233 0.6160468 0.57507163 0.43212375 -0.8736724 0.48438695 0.5039559 -0.1851025
00000000: d278 3bbd 3c7f a03e 678f 9cbe 8b49 163e
00000010: ab9a e2be 6b47 22bf 4101 c7be 1f83 b93d
00000020: 122b f33e 8734 1dbf 881d 2ebf fdde 82be
00000030: 34b3 383f 57cc 55bf e7b5 dcbe 3ca2 00bf
00000040: 73ae 04bc 3eb5 1d3f e537 133f 533f dd3e
00000050: ffa8 5fbf 9101 f83e 4103 013f 828b 3dbe

net.flow_mapping.0.affine_layers.1.net.2.weight f4 [24, 24]
-0.06406509 0.10550472 0.012920249 -0.07100316 -0.06427178 -0.20589589 0.031512942 -0.050324418
-0.06927089 0.03184699 0.07860815 -0.13327909 -0.014655743 -0.024161216 0.01720238 -0.08386659
-0.12454044 -0.14768969 0.019815082 -0.030224128 -0.10225209 0.0076955836 -0.09473324 -0.20435688
-0.014526092 0.15160903 0.07292454 -0.019913804 -0.51648545 -0.19321486 -0.524715 -0.003942546
0.07700326 -1.2176416 -0.42772105 -0.30851698 0.11107979 -0.2427604 -0.57965785 -0.07228437
0.015442762 0.16923055 0.076688625 0.08481772 -3.6558938 -0.0067144516 0.1633634 0.025014695
-0.017054005 0.002501404 -0.089301 -0.030320596 -0.13424163 0.030076418 -0.062094163 -0.16137777
-0.13597514 0.11911737 -0.06925996 0.013874667 0.08148139 0.050758008 -0.074471414 0.05358852
0.12305072 -0.15800704 -0.089583255 -0.06428844 -0.0048028114 -0.1288334 -0.09185452 0.05034531
0.007953938 -0.022829935 -0.110412285 -0.11300246 0.4082231 -0.12500113 0.37463945 -0.35076132
0.15959908 0.6746573 0.56423116 0.2976812 0.095111415 -0.08335835 0.49219668 -0.15346448
0.00875785 -0.11622564 0.03164628 -0.13554907 0.0038780852 0.0054600155 0.07404519 0.0738728
0.0939393 -0.0047550444 0.025200265 -0.11087007 0.08305254 0.048585806 0.049955346 -0.032552946
-0.046387546 -0.06091043 -0.16536343 -0.14573814 -0.11857503 0.0661312 -0.1162591 -0.026628984
-0.059633076 0.016112225 -0.1471245 -0.07661891 -0.12836118 0.047428206 -0.17591146 0.08070655
0.025489205 -0.07158287 -0.1302512 0.09474325 -0.020041857 -0.13683689 0.26198304 -0.13429573
-0.067069754 0.84254587 0.47151107 0.03094356 -0.0063235317 -0.08516337 0.045979302 0.028007768
0.04526238 -0.78770477 -0.25662714 -0.5185635 0.09714818 -0.055522535 -0.14172697 -0.17260322
-0.09036331 -0.007820973 0.18811937 0.17420276 -0.020342367 -0.77080977 -0.23446332 -0.054644827
-0.1491428 0.39004657 -0.1630265 -0.25162846 -0.005084691 -0.9462226 0.16670428 -0.31393346
0.013216314 -0.019241937 -0.07947903 -0.13342842 -0.30741438 -0.22081074 0.013390408 0.07833584
-0.055320214 0.075625055 -0.06505475 -0.11609469 0.05996258 0.06505763 0.08112469 0.10574639
-0.060848456 0.09658493 0.0013286263 -0.07338772 -0.08289323 -0.033910815 -0.08070957 -0.06499402
0.10390244 -0.089559436 0.1003428 0.014708627 -0.11889696 -0.13482457 -0.041926242 -0.062653564
0.056686204 0.30327547 -0.8592981 -1.3561454 0.12817545 -1.6903032 -0.13769911 0.12490324
0.45997116 0.08433259 0.10343676 0.06219777 0.43179283 -0.13010012 -0.1429041 -0.953047
0.119212635 0.103545256 0.35298464 -0.004987855 -0.32032338 0.32859495 0.34077135 -0.42194137
0.034453027 0.07766662 -0.06631889 0.068146236 0.0019248903 -1.2694257 -0.25344244 0.09573363
-0.4870037 0.122756906 -0.2873035 -0.23638348 0.091828056 -0.8643365 0.17188443 -0.95582324
0.03131065 0.1265509 0.05092476 0.09004026 -0.61810374 -0.095168136 0.13846666 -0.07010924
-0.14372592 -0.010256434 -0.058892086 -0.22980706 -0.101724096 0.0013758768 0.031064786 0.019459946
-0.043719783 -0.108994074 -0.09298351 -0.05259796 -0.074385986 -0.19683836 -0.0557936 -0.105041556
00000000: 8f34 83bd dc12 d83d 74af 533c 1b6a 91bd
00000010: eca0 83bd 5fd6 52be b713 013d fa20 4ebd
00000020: e5dd 8dbd fd71 023d 4ffd a03d 507a 08be
00000030: a41e 70bc beed c5bc 01ec 8c3c 3fc2 abbd
00000040: 0f0f ffbd f73b 17be 3d53 a23c 9798 f7bc
00000050: 8b69 d1bd 3c2b fc3b 8003 c2bd ee42 51be
00000060: d9fe 6dbc 663f 1b3e 7659 953d 4622 a3bc
00000070: 6438 04bf 1eda 45be b953 06bf 7930 81bb
00000080: e3b3 9d3d aedb 9bbf 41fe dabe f0f5 9dbe
00000090: cd7d e33d 2f96 78be 7564 14bf d409 94bd
000000a0: a303 7d3c c64a 2d3e ed0e 9d3d eab4 ad3d
000000b0: 2afa 69c0 e704 dcbb bc48 273e 9eeb cc3c
000000c0: d7b4 8bbc 98ee 233b 71e3 b6bd e662 f8bc
000000d0: a376 09be d262 f63c 7356 7ebd 3740 25be
000000e0: 113d 0bbe cff3 f33d 2ad8 8dbd 9252 633c
000000f0: b7df a63d a1e7 4f3d 7884 98bd a37f 5b3d
00000100: 0402 fc3d 99cc 21be 6d77 b7bd a8a9 83bd
00000110: e760 9dbb e7ec 03be 391e bcbd e236 4e3d
00000120: 3c51 023c d805 bbbc d61f e2bd d56d e7bd
00000130: 9e02 d13e 4c00 00be bed0 bf3e fd96 b3be
00000140: f16d 233e 57b6 2c3f 7471 103f ac69 983e
00000150: c6c9 c23d c8b7 aabd 3401 fc3e cb25 1dbe
00000160: 167d 0f3c b507 eebd 889f 013d 60cd 0abe
00000170: 7927 7e3b eee9 b23b 01a5 973d 9f4a 973d
00000180: 3f63 c03d 34d0 9bbb c970 ce3c d90f e3bd
00000190: 7317 aa3d e901 473d fa9d 4c3d 3d56 05bd
000001a0: de00 3ebd 377d 79bd 0855 29be 613c 15be
000001b0: 77d7 f2bd cb6f 873d 4019 eebd 0725 dabc
000001c0: d041 74bd c9fd 833c cea7 16be 60ea 9cbd
000001d0: 1d71 03be 1444 423d 2222 34be 7a49 a53d
000001e0: bdce d03c 0a9a 92bd 9260 05be c008 c23d
000001f0: d22e a4bc f81e 0cbe a422 863e d284 09be
00000200: de5b 89bd 16b1 573f e669 f13e 597d fd3c
00000210: a135 cfbb 226a aebd cb54 3c3d 8c70 e53c
00000220: 0c65 393d 05a7 49bf a264 83be 94c0 04bf
00000230: a0f5 c63d 996b 63bd e020 11be e6be 30be
00000240: 6610 b9bd 8a23 00bc 5da2 403e 3562 323e
00000250: 09a5 a6bc ca53 45bf 2717 70be 41d3 5fbd
00000260: e4b8 18be 2fb4 c73e 6bf0 26be 72d5 80be
00000270: 7b9d a6bb a53b 72bf 87b4 2a3e e3bb a0be
00000280: 3d89 583c 44a1 9dbc e7c5 a2bd 76a1 08be
00000290: 6b65 9dbe 361c 62be 7163 5b3c 8a6e a03d
000002a0: 7397 62bd 4fe1 9a3d 6d3b 85bd 0ec3 edbd
000002b0: 539b 753d ef3c 853d b424 a63d 9091 d83d
000002c0: 3b3c 79bd 52ce c53d 4d25 ae3a 4d4c 96bd
000002d0: edc3 a9bd 11e6 0abd 0f4b a5bd 961b 85bd
000002e0: cdca d43d f06a b7bd 8780 cd3d 74fc 703c
000002f0: 4080 f3bd 740f 0abe daba 2bbd 8350 80bd
00000300: cb2f 683d ec46 9b3e f6fa 5bbf 2c96 adbf
00000310: 6d40 033e db5b d8bf ff00 0dbe 45cd ff3d
00000320: 5781 eb3e 91b6 ac3d a7d6 d33d 17c3 7e3d
00000330: f313 dd3e f738 05be 7455 12be e3fa 73bf
00000340: c125 f43d 890f d43d 67ba b43e 2971 a3bb
00000350: 6d01 a4be 993d a83e 9579 ae3e b308 d8be
00000360: 9e1e 0d3d ad0f 9f3d 33d2 87bd 4190 8b3d
00000370: 9a4c fc3a 8b7c a2bf 35c3 81be fe0f c43d
00000380: 8d58 f9be f967 fb3d 7219 93be 830e 72be
00000390: 5910 bc3d 2845 5dbf 7902 303e d5b0 74bf
000003a0: 993f 003d 8f96 013e 7b96 503d 0767 b83d
000003b0: 0c3c 1ebf 83e7 c2bd 34ca 0d3e 6f95 8fbd
000003c0: e32c 13be 9a0a 28bc d438 71bd 8b52 6bbe
000003d0: b954 d0bd c456 b43a 947b fe3c 776a 9f3c
000003e0: 8413 33bd 4938 dfbd 236e bebd f570 57bd
000003f0: ae57 98bd ff8f 49be d487 64bd 0720 d7bd

net.flow_mapping.0.affine_layers.1.net.2.bias f4 [24]
-0.2211284 0.20574439 -0.0038101631 -0.2118782 0.07374095 -0.3748246 -0.004231779 -0.12935989
0.4333883 0.04167993 -0.061372645 -0.11324331 0.024840292 0.024429787 0.3982606 -0.06580941
0.30704287 0.1397067 -0.09577107 0.00076126284 -0.17650624 -0.044657327 0.18101618 0.062438358
00000000: 7c6f 62be a8ae 523e eeb3 79bb 99f6 58be
00000010: 7f05 973d 03e9 bfbe bcaa 8abb eb76 04be
00000020: 12e5 dd3e 93b8 2a3d e261 7bbd 1cec e7bd
00000030: de7d cb3c fa20 c83c d0e8 cb3e 15c7 86bd
00000040: b934 9d3e 460f 0f3e 9f23 c4bd 7c8f 473a
00000050: 0dbe 34be 9aea 36bd 4e5c 393e 5dbf 7f3d

net.flow_mapping.0.affine_layers.1.net.4.weight f4 [24, 24]
0.12019841 -0.1831388 -0.092574045 -0.14527173 -0.04074741 -0.090251625 -0.14394158 -0.028913407
-0.052442253 -0.029430881 -0.14839393 -0.095859915 -0.23275699 -0.13735029 -0.10286543 -0.027024506
-0.05839658 0.016262153 -0.029265655 0.04770297 0.0481447 -0.05712596 -0.0077765347 -0.17276235
-0.10863364 -0.060863636 -0.030222677 -0.061984185 0.13125774 -0.083142966 -0.12493069 -0.067450285
-0.3322804 0.117421694 -0.05840822 -0.04391918 -0.0603062 -0.028788878 -0.13193652 -0.037439585
-0.06404871 -0.03717494 -0.027671525 0.023369055 -0.0038979806 0.12838548 0.037965763 0.0056888666
-0.011779745 -0.108923495 0.007630779 0.024826935 -0.1150162 0.0028788254 -0.16439156 0.052640375
-0.11577964 -0.12769382 0.053751383 -0.028523264 -0.04117379 0.0883294 -0.04785928 0.08378381
-0.030408 0.053324215 -0.05880729 -0.040804442 0.010086499 0.079716556 -0.041626573 0.021676825
0.12840074 -0.12843736 0.018473016 -0.102338746 -0.019630624 0.10889521 -0.13815114 -0.056436516
-0.050630834 -0.1849457 0.08375133 0.10939814 -0.3090878 -0.06144704 -0.25850853 0.05733988
-0.091173224 -0.11418136 -0.11065738 0.12060476 0.11011815 -0.13223551 -0.2931304 -0.24678957
0.071956255 0.10408802 -0.20298426 -0.18222983 0.0726262 -0.10320781 -0.12030018 -0.09322892
0.254095 -0.10958958 0.10460603 -0.026907235 -0.040501468 -0.22125791 -0.25436333 0.10777659
0.2803057 0.044367936 -0.0424749 0.039737597 0.06686986 -0.06847313 0.23057124 -0.16003357
0.06999855 -0.030970396 0.07762285 -0.09353924 0.0380838 -0.07082063 -0.08045692 0.033570807
-0.29017028 -0.118861035 -0.03594646 0.15801255 -0.26927817 -0.14714324 -0.36695704 -0.024019338
-0.34135044 -0.16288722 -0.06556761 0.08850125 -0.0994603 -0.038142066 0.060340963 -0.20151822
-0.0013468463 0.0616666 0.054191433 0.053960804 0.095911145 -0.16693826 -0.056462064 -0.01902512
-0.057772078 -0.054027148 -0.10569289 -0.08370245 -0.0030556251 -0.09203524 -0.1738319 -0.10917034
-0.04324506 -0.035840224 0.0035576795 -0.036332782 0.049477693 -0.115922086 0.096514545 0.019075556
0.13005139 -0.2618419 -0.045689885 0.44106692 0.05821231 0.4408563 0.09358008 -0.08841758
0.38870037 -0.087274946 -0.027095048 0.1347591 -0.7338893 -0.012292671 -0.00029180886 0.015000679
0.03616456 -0.062463902 -0.047689497 -0.06929639 0.04613018 0.032797582 -0.55342346 -1.0981983
-0.013230502 0.45842484 -0.10232074 0.006189069 0.14610942 -0.053611822 0.16527817 -0.050840467
0.34700114 0.2576467 0.063942626 0.08669547 0.04828225 0.11584046 -0.068024956 -0.048315108
0.31033525 0.19831352 -0.115225144 0.044980433 -0.056617793 -0.013014883 0.2710729 -0.20793006
0.095902435 -0.100411795 -0.008954895 -0.22151168 -0.07334413 -0.20344196 0.0753691 0.095092624
-0.006094538 0.045420144 -0.022096038 -0.07123979 -0.7360134 -0.056328904 -0.0654565 0.034321275
-0.01979296 0.039963342 -0.07115614 0.09331268 0.008342228 0.045500796 -0.06527531 -0.8356593
0.09264465 0.03851703 -0.08692548 -0.110295765 0.07183059 -0.11052548 0.06761667 -0.07738168
-0.13197412 -0.12321745 0.08066965 0.076921836 -0.19366817 -0.15945852 -0.16771975 0.04758186
00000000: 952a f63d bd88 3bbe 7697 bdbd 1dc2 14be
00000010: c2e6 26bd d8d5 b8bd 6c65 13be cfdb ecbc
00000020: b0cd 56bd 0819 f1bc 94f4 17be 3452 c4bd
00000030: d957 6ebe 8ea5 0cbe 1cab d2bd 7f62 ddbc
00000040: 4131 6fbd 3538 853c 87be efbc 3164 433d
00000050: 6033 453d e9fc 69bd 4dd2 febb 9de8 30be
00000060: 507b debd 264c 79bd 8c95 f7bc 21e3 7dbd
00000070: 6e68 063e dc46 aabd a9db ffbd 6023 8abd
00000080: a820 aabe c97a f03d 753d 6fbd 99e4 33bd
00000090: a203 77bd a7d6 ebbc 5e1a 07be 405a 19bd
000000a0: f82b 83bd c044 18bd 65af e2bc 7670 bf3c
000000b0: 4375 7fbb 7c77 033e fd81 1b3d ac69 ba3b
000000c0: d5ff 40bc 4813 dfbd 9d0b fa3b db61 cb3c
000000d0: 9d8d ebbd adaa 3c3b 4356 28be 6f9d 573d
000000e0: e01d edbd 2bc2 02be 692a 5c3d 9fa9 e9bc
000000f0: d9a5 28bd 0be6 b43d 1808 44bd d996 ab3d
00000100: 331a f9bc 7e6a 5a3d eadf 70bd 8f22 27bd
00000110: d841 253c 6f42 a33d a080 2abd 9993 b13c
00000120: 7c7b 033e 1585 03be b954 973c fa96 d1bd
00000130: 67d0 a0bc 7404 df3d 7e77 0dbe fa29 67bd
00000140: 4762 4fbd 6862 3dbe d185 ab3d 220c e03d
00000150: c240 9ebe e4af 7bbd 3b5b 84be 39dd 6a3d
00000160: 07b9 babd ebd7 e9bd 56a0 e2bd a1ff f63d
00000170: a085 e13d bf68 07be 3015 96be 68b6 7cbe
00000180: cd5d 933d 1a2c d53d 1bdb 4fbe 759a 3abe
00000190: 0cbd 943d 9e5e d3bd f15f f6bd ceee bebd
000001a0: bd18 823e 8070 e0bd b03b d63d 906c dcbc
000001b0: dee4 25bd 6f91 62be e93b 82be f9b9 dc3d
000001c0: 3b84 8f3e 27bb 353d 29fa 2dbd e4c3 223d
000001d0: 11f3 883d a43b 8cbd de1a 6c3e d7df 23be
000001e0: 665b 8f3d a1b5 fdbc bbf8 9e3d 8091 bfbd
000001f0: c2fd 1b3d 680a 91bd 99c6 a4bd 8b81 093d
00000200: 3391 94be 6a6d f3bd 983c 13bd 0bce 213e
00000210: d4de 89be b8ac 16be cbe1 bbbe 34c4 c4bc
00000220: 7cc5 aebe e8cb 26be 5048 86bd 2540 b53d
00000230: d7b1 cbbd db3a 1cbd 1628 773d cb5a 4ebe
00000240: aa88 b0ba 1e96 7c3d d6f7 5d3d 0106 5d3d
00000250: 106d c43d ddf1 2abe c444 67bd 92da 9bbc
00000260: 6aa2 6cbd 924b 5dbd 8475 d8bd 316c abbd
00000270: e240 48bb f97c bcbd fd00 32be b394 dfbd
00000280: bb21 31bd 33cd 12bd f527 693b afd1 14bd
00000290: 1fa9 4a3d 8f68 edbd 6ba9 c53d 5744 9c3c
000002a0: 312c 053e 2410 86be 5125 3bbd 86d3 e13e
000002b0: 0870 6e3d ebb7 e13e eaa6 bf3d 4714 b5bd
000002c0: bc03 c73e 35bd b2bd 6ff6 ddbc 4afe 093e
000002d0: 2be0 3bbf 3367 49bc ecfd 98b9 68c5 753c
000002e0: 4a21 143d 26da 7fbd 1056 43bd 44eb 8dbd
000002f0: 00f3 3c3d c256 063d 29ad 0dbf c391 8cbf
00000300: bfc4 58bc a9b6 ea3e 898d d1bd accd ca3b
00000310: b59d 153e 1298 5bbd ae3e 293e 183e 50bd
00000320: 22aa b13e 45ea 833e 5af4 823d 658d b13d
00000330: 9cc3 453d c33d ed3d ab50 8bbd 10e6 45bd
00000340: 43e4 9e3e b312 4b3e 29fb ebbd 673d 383d
00000350: 0fe8 67bd 603c 55bc 11ca 8a3e 9eeb 54be
00000360: 7f68 c43d b3a4 cdbd 8db7 12bc f5d3 62be
00000370: 7235 96bd 1753 50be 1d5b 9a3d ecbf c23d
00000380: b1b4 c7bb 790a 3a3d c002 b5bc 2be6 91bd
00000390: 606b 3cbf 23b9 66bd 0f0e 86bd 7794 0c3d
000003a0: d824 a2bc 9ab0 233d 4fba 91bd b81a bf3d
000003b0: d7ad 083c 0b5f 3a3d 10af 85bd c5ed 55bf
000003c0: 7abc bd3d 09c4 1d3d fc05 b2bd bfe2 e1bd
000003d0: eb1b 933d 2f5b e2bd 9c7a 8a3d 497a 9ebd
000003e0: 3924 07be 6e59 fcbd 2136 a53d 3289 9d3d
000003f0: f350 46be 1849 23be babe 2bbe 32e5 423d

net.flow_mapping.0.affine_layers.1.net.4.bias f4 [24]
-0.055043194 -0.13125016 -0.10145319 -0.04930023 0.03729854 -0.11099119 -0.14297739 -0.07964472
0.033559438 -0.005994093 -0.0824455 0.13748568 -0.0154179055 -0.00840489 0.17301947 -0.042875763
-0.1625731 -0.12634052 0.2403231 -0.115605675 -0.1580502 0.21994905 -0.0248803 -0.03165392
00000000: f974 61bd 7166 06be b1c6 cfbd 0aef 49bd
00000010: 5bc6 183d 594f e3bd aa68 12be c51c a3bd
00000020: 9f75 093d 196a c4bb 30d9 a8bd 0cc9 0c3e
00000030: 629b 7cbc aab4 09bc 042c 313e 7f9e 2fbd
00000040: 9079 26be 695f 01be 4217 763e abc2 ecbd
00000050: e9d7 21be 533a 613e c5d1 cbbc 8aa7 01bd

net.flow_mapping.0.affine_layers.1.net.6.weight f4 [2, 24]
-0.031217972 -0.019970763 0.044261407 -0.14770596 -0.17821777 0.03401872 -0.011946758 0.073068455
-0.29863697 0.025489928 -0.015211607 -0.41548395 -0.11793874 -0.09890575 -0.24973537 -0.051056515
0.04448505 -0.012050815 -0.22666037 -0.023231708 -0.024206977 -0.04743806 -0.07700889 0.19652572
0.061929364 -0.07072106 0.083683774 0.14712982 -0.09715516 -0.17380325 -0.1201147 0.77341807
0.030922702 0.14266083 0.08498437 -0.19403024 0.03470362 0.020738194 -0.15309645 -0.03231193
0.035198722 0.025462635 -0.10503128 -3.792804e-05 0.053453814 -0.38481203 0.036090847 0.4831018
00000000: d5bc ffbc ba99 a3bc 734b 353d 3b40 17be
00000010: b87e 36be 3757 0b3d 56bc 43bc eaa4 953d
00000020: f2e6 98be 41d0 d03c 1b3a 79bc 50ba d4be
00000030: de89 f1bd 198f cabd a1ba 7fbe a320 51bd
00000040: f535 363d c870 45bc a819 68be 6c50 bebc
00000050: b64d c6bc 694e 42bd d6b6 9dbd 0a3e 493e
00000060: a5a9 7d3d 34d6 90bd 6662 ab3d 33a9 163e
00000070: 49f9 c6bd 7bf9 31be b2fe f5bd bafe 453f
00000080: 9b51 fd3c ae15 123e 490c ae3d ddaf 46be
00000090: 6225 0e3d 25e3 a93c 51c5 1cbe 8459 04bd
000000a0: 892c 103d 0497 d03c a41a d7bd ec14 1fb8
000000b0: 63f2 5a3d 1506 c5be ffd3 133d 1e59 f73e

net.flow_mapping.0.affine_layers.1.net.6.bias f4 [2]
-0.14133033 -0.067716934
00000000: e6b8 10be 2daf 8abd

net.flow_mapping.0.affine_layers.2.net.0.weight f4 [24, 1]
-0.64454055 0.32671657 -0.7540056 -0.010755296 0.36467776 0.9982387 0.13357113 0.49775332
-0.32606953 0.34641832 0.33855924 -0.5582196 -0.11584593 -0.83768994 -0.38363463 0.3072032
0.12004434 -0.7697059 -0.0035386714 -0.3374076 0.44549006 -0.8217867 0.24353704 0.40929744
00000000: 9c00 25bf 6547 a73e 8306 41bf fb36 30bc
00000010: 0bb7 ba3e 928c 7f3f dfc6 083e 86d9 fe3e
00000020: 96f2 a6be be5d b13e a357 ad3e 7be7 0ebf
00000030: a240 edbd d972 56bf c26b c4be bd49 9d3e
00000040: cfd9 f53d 720b 45bf 0ee9 67bb b0c0 acbe
00000050: 4617 e43e 9d60 52bf c661 793e 6f8f d13e

net.flow_mapping.0.affine_layers.2.net.0.bias f4 [24]
-0.4571616 -0.6490012 0.061541922 -0.046150897 0.1599352 0.27082318 0.50063616 0.5986993
0.47824273 0.5528273 -0.674949 -0.09485998 -0.64992917 0.49134433 -0.7218413 0.3251123
0.27148464 -0.79379445 -0.15355617 0.13706456 -0.885864 -0.7709187 0.12000723 -0.61355984
00000000: 1611 eabe f124 26bf 6213 7c3d b908 3dbd
00000010: 0ec6 233e 56a9 8a3e b129 003f 5b44 193f
00000020: 3bdc f43e 1786 0d3f 75c9 2cbf f345 c2bd
00000030: c261 26bf 7c91 fb3e 97ca 38bf 1f75 a63e
00000040: 0900 8b3e 1d36 4bbf d43d 1dbe a75a 0c3e
00000050: fcc7 62bf ee5a 45bf 5ac6 f53d 4212 1dbf

net.flow_mapping.0.affine_layers.2.net.2.weight f4 [24, 24]
-0.11506341 0.019737286 -0.09293973 0.10277356 -0.0127471285 -0.0066932593 -0.07614129 -0.007557765
-0.16119565 -0.09019325 -0.045249373 0.010495292 -0.09879666 -0.1620011 0.028045934 0.06710075
-0.11321893 0.0026707563 -0.010229043 -0.045966096 -0.10715446 -0.03951284 -0.10783061 -0.049168453
-0.005362751 -0.08937703 -0.0062857885 -0.1172921 -0.13827053 0.092498325 -0.07807755 -0.062168818
-0.17477067 -0.01616487 0.15837055 0.057821333 0.09519798 0.06883929 -0.03657791 -0.0056250547
-0.078732856 -0.1353274 -0.109966345 -0.055836935 -0.12682539 -0.16294596 -0.17614944 0.07108862
-0.030432332 -0.1365869 0.46578664 -0.10126954 -0.82546276 -1.3885984 0.20001133 -0.26125452
0.39063022 -0.30252033 0.06623365 0.033555638 0.011309187 0.20930657 -1.2283813 -0.0731641
0.11932679 -0.6093716 0.030028418 0.18318228 -0.112041116 -0.3885246 -0.2828947 -0.13578637
-0.03395639 0.062248573 -0.07638901 -0.01070653 0.02857959 -0.13271798 -0.1655709 -0.13912413
-0.07803737 -0.008545032 -0.020387117 0.10945876 -0.122095115 -0.0031889782 -0.11349986 -0.047011156
0.04554684 0.058492925 0.13177027 -0.11125377 -0.08906073 -0.1342831 0.07684772 0.028912151
-0.165909 -0.029277232 -0.02747141 0.0669102 -0.11891026 -0.061960507 -0.00036400973 0.020621866
-0.17632553 -0.05312598 0.00020787174 -0.09613134 0.004173993 0.07514944 -0.04772052 0.03529192
-0.07693082 0.021062445 0.07613309 0.07053607 -0.05139376 -0.051039275 -0.1949605 -0.12035881
0.4019408 0.25625405 0.22011779 -0.10549618 0.050691325 0.025088219 -0.08773456 0.0539836
-0.011849262 -0.1955422 0.43435562 0.3206692 0.12270963 -0.019789265 1.8218398 -0.04239623
0.01934487 0.094145834 0.038608782 -0.04146212 0.12145403 0.06902092 0.12281067 0.022890009
-0.16565731 -0.15754564 -0.12322267 -0.027745368 -0.08021693 0.044652406 -0.034841735 0.008952158
0.06911482 0.07919243 -0.022868808 -0.043989677 -0.03485285 0.053341936 0.026255002 -0.042351462
-0.10615436 -0.13920984 0.081841804 -0.09614088 0.078596465 0.051170368 0.024472551 0.06967377
0.01989308 -0.010181452 0.0015706663 -0.13716094 -0.17084077 -0.081581116 -0.13324934 0.07833273
0.005935734 0.065145016 -0.19213432 0.06755079 0.058800463 -0.1508205 0.017412001 -0.03271291
-0.17338294 0.03546077 -0.016557928 -0.055985805 -0.08578976 -0.06845174 -0.1302839 -0.050065845
-0.15164953 0.037052974 -0.005667136 -0.15717262 -0.098729774 -0.06336382 -0.12516923 -0.15205874
-0.07665731 -0.036396533 0.11565898 0.10596748 0.05335496 -0.022095123 -0.1569043 0.01709244
0.10313857 0.036300838 -0.017062524 -0.1431546 0.11886556 0.0869335 -0.031646654 0.0514073
-0.2544113 0.004268785 0.101784095 -0.11806389 -0.3718786 -0.97488105 0.018308578 -0.10023705
0.18877432 -0.19548033 -0.04327337 -0.15698768 -0.021246556 0.17215322 0.02327011 0.16796811
0.12630634 -2.4791741 0.10745727 0.110458046 -0.07982577 -2.3397233 -0.26223317 -0.19148462
0.004705467 -0.017163755 -0.028090492 0.04480179 0.036060933 0.016695086 0.040562738 -0.09805396
-0.13463669 -0.037529998 0.008602785 0.029449739 0.011852909 -0.005325571 0.059719823 -0.06556913
00000000: 5da6 ebbd 17b0 a13c 2f57 bebd f27a d23d
00000010: 55d9 50bc 2153 dbbb f7ef 9bbd 21a7 f7bb
00000020: 7910 25be 3db7 b8bd 6857 39bd 72f4 2b3c
00000030: e755 cabd 9ee3 25be 96c0 e53c 1e6c 893d
00000040: 54df e7bd db07 2f3b b797 27bc f246 3cbd
00000050: cc73 dbbd 37d8 21bd 4bd6 dcbd dc64 49bd
00000060: 04ba afbb 4e0b b7bd 04f9 cdbb d736 f0bd
00000070: ca96 0dbe c36f bd3d 1fe7 9fbd bba4 7ebd
00000080: 15f7 32be 306c 84bc e42b 223e 10d6 6c3d
00000090: 29f7 c23d 9dfb 8c3d b8d2 15bd 6152 b8bb
000000a0: b13e a1bd 4493 0abe 0936 e1bd 45b5 64bd
000000b0: 84de 01be 4edb 26be 8560 34be e996 913d
000000c0: 3a4d f9bc 70dd 0bbe 967b ee3e 6866 cfbd
000000d0: 8751 53bf 98bd b1bf c5cf 4c3e 27c3 85be
000000e0: af00 c83e f2e3 9abe 82a5 873d a371 093d
000000f0: 2b4a 393c 7654 563e 993b 9dbf 0fd7 95bd
00000100: 9b61 f43d c7ff 1bbf 28fe f53c 2394 3b3e
00000110: d075 e5bd b2ec c6be 93d7 90be 950b 0bbe
00000120: db15 0bbd 5cf8 7e3d d771 9cbd 716a 2fbc
00000130: bf1f ea3c 39e7 07be 6b8b 29be 8e76 0ebe
00000140: 0fd2 9fbd 7600 0cbc e202 a7bc ea2b e03d
00000150: 010d fabd 2dfe 50bb 9d72 e8bd c58e 40bd
00000160: 538f 3a3d 4796 6f3d c9ee 063e 04d9 e3bd
00000170: 7965 b6bd 8281 09be 5662 9d3d 2dd9 ec3c
00000180: 0de4 29be ced6 efbc b90b e1bc 3708 893d
00000190: 3987 f3bd 4dca 7dbd 8fd8 beb9 30ef a83c
000001a0: ae8e 34be a19a 59bd 25f8 5939 82e0 c4bd
000001b0: fec5 883b f3e7 993d 9876 43bd 438e 103d
000001c0: e88d 9dbd 268b ac3c aaeb 9b3d 3775 903d
000001d0: 4382 52bd 8f0e 51bd baa3 47be ae7e f6bd
000001e0: 2fcb cd3e bb33 833e 8f66 613e 620e d8bd
000001f0: b5a1 4f3d cf85 cd3c 2dae b3bd e81d 5d3d
00000200: 6823 42bc 373c 48be dc63 de3e c12e a43e
00000210: 304f fb3d 191d a2bc 0c32 e93f aba7 2dbd
00000220: 2279 9e3c 88cf c03d 3e24 1e3d 2fd4 29bd
00000230: e4bc f83d d75a 8d3d 2984 fb3d d483 bb3c
00000240: 12a2 29be a553 21be 2b5c fcbd 414a e3bc
00000250: c648 a4bd 71e5 363d 35b6 0ebd 12ac 123c
00000260: 128c 8d3d a42f a23d 5e57 bbbc 852e 34bd
00000270: ddc1 0ebd 137d 5a3d bb14 d73c ba78 2dbd
00000280: 7567 d9bd 068d 0ebe ad9c a73d 82e5 c4bd
00000290: 2ff7 a03d 0598 513d a97a c83c 1fb1 8e3d
000002a0: d0f6 a23c 1bd0 26bc d1de cd3a eb73 0cbe
000002b0: e2f0 2ebe 0014 a7bd 8472 08be e96c a03d
000002c0: 8c80 c23b c06a 853d dcbe 44be 1258 8a3d
000002d0: c1d8 703d b070 1abe 9da3 8e3c f9fd 05bd
000002e0: 4c8b 31be 503f 113d 7ea4 87bc 5f51 65bd
000002f0: 8bb2 afbd 6d30 8cbd 2569 05be d811 4dbd
00000300: 044a 1bbe dcc4 173d 62b3 b9bb dcf1 20be
00000310: d632 cabd e4c4 81bd 5d2c 00be 49b5 1bbe
00000320: 82fe 9cbd 8814 15bd 9ede ec3d 7a05 d93d
00000330: bb8a 5a3d d500 b5bc 85ab 20be 7205 8c3c
00000340: 513a d33d 30b0 143d b5c6 8bbc 1f97 12be
00000350: c96f f33d 310a b23d ec9f 01bd 7690 523d
00000360: 3342 82be 2ae1 8b3b 2e74 d03d 7bcb f1bd
00000370: df66 bebe ce91 79bf dffb 953c 1549 cdbd
00000380: 0e4e 413e ff2b 48be 6b3f 31bd 61c1 20be
00000390: 420d aebc ef48 303e f5a0 be3c d5ff 2b3e
000003a0: 7356 013e caaa 1ec0 8f12 dc3d d437 e23d
000003b0: b17b a3bd 07be 15c0 6d43 86be 8b14 44be
000003c0: 5130 9a3b 019b 8cbc 081e e6bc 1582 373d
000003d0: a1b4 133d 22c4 883c 1d25 263d 84d0 c8bd
000003e0: 33de 09be 0eb9 19bd b2f2 0c3c 9440 f13c
000003f0: b432 423c 2182 aebb c69c 743d 1c49 86bd

net.flow_mapping.0.affine_layers.2.net.2.bias f4 [24]
-0.18861462 0.07617317 0.35967523 0.007872591 0.0061718333 -0.059649616 -0.13902304 -0.020299649
0.0010831127 0.19584005 -0.12114668 -0.053845298 0.11776601 -0.00530435 -0.15094909 -0.002909082
0.11345287 -0.0681118 0.08427263 -0.10536074 -0.16543649 -0.06596776 0.0033350496 0.21315804
00000000: 3124 41be ae00 9c3d 5a27 b83e 0afc 003c
00000010: 173d ca3b 2853 74bd 0e5c 0ebe 734b a6bc
00000020: 3bf7 8d3a 4b8a 483e c01b f8bd e38c 5cbd
00000030: 4e2f f13d 1dd0 adbb 6692 1abe 4ca6 3ebb
00000040: fa59 e83d 337e 8bbd 2197 ac3d 5fc7 d7bd
00000050: 2f68 29be 1b1a 87bd d990 5a3b 1a46 5a3e

net.flow_mapping.0.affine_layers.2.net.4.weight f4 [24, 24]
0.14146684 0.07252358 -0.06591588 0.09225087 -0.027348561 -0.13020788 0.06795581 -0.21712244
-0.1097932 -0.026480787 0.009486722 0.14989425 -0.14782202 0.03285262 -0.08349304 0.1568976
0.011432707 -0.13314588 -0.03145767 0.06854592 -0.17872733 0.024840256 0.05209037 -0.10635409
-0.060102623 0.025358249 -0.067152604 0.019946074 0.015301563 -0.035566676 -0.12127569 -0.005451765
0.019597417 -0.13987686 -0.018870866 -0.029089915 -0.0032231857 0.07444636 -0.006168214 0.15375233
-0.03842198 0.007275491 -0.21123311 0.09750089 -0.002152191 -0.06642734 -0.085961506 -0.09561031
-0.038512 0.111384 0.117825225 0.09336852 -0.06530525 0.030135276 -0.0027140966 0.041392624
0.074699946 0.31278896 0.11021518 -0.1564916 0.061272874 0.028220907 -0.77272844 0.016713956
-0.06524607 0.15573822 0.1104164 -0.035499576 0.03938029 -0.016920175 0.17625916 0.25730774
-0.12835944 0.012512688 -0.11206647 0.13225724 -0.035566155 -0.04268231 0.0945886 -0.018889537
-0.07058506 -0.1452406 -0.038752634 -0.046094887 -0.19969882 -0.05492151 -0.15808964 -0.03781066
0.13695402 -0.068802014 0.03681967 0.07408709 0.03748444 0.0012560898 -0.07330899 -0.1701436
0.08629241 0.0159764 -0.07397259 -0.11730258 -0.039175335 -0.0150318835 0.04741515 -0.09976234
0.014891253 0.045926597 0.10187052 0.058112316 -0.09766877 -0.14947446 -0.15226026 0.014987425
-0.013460316 0.06706934 0.012404679 0.08907901 -0.058626015 -0.08561745 0.023234047 -0.12714015
0.04957752 -0.00023688 -0.062269066 -0.041496925 -0.124346085 -0.081994615 0.0029771712 -0.0995667
-0.10609375 -0.076924436 0.09891886 0.03583486 0.018364824 -0.07181034 -0.046627082 0.0058929515
0.0061263232 -0.10334841 -0.1878069 -0.048046634 0.05087477 -0.05366338 -0.020784814 0.0072319335
-0.035478383 0.083793975 -0.11568051 0.035363406 -0.016945856 -0.12020017 -0.03948337 -0.05116908
0.06952416 0.07960361 0.02537222 -0.022389645 -0.090852045 -0.058457337 0.08819537 0.07603186
0.020480152 0.073484264 0.08837195 -0.05330363 -0.12526855 -0.08102811 0.026754528 -0.053381037
0.1310845 0.10840988 -2.3498392 -0.10597279 0.0110942945 0.03552726 0.0118324375 0.069256335
-0.15950006 -0.032916013 0.055594712 -0.008347899 -0.04120949 -0.06810478 0.27698725 -0.03216394
0.018035844 -0.025249204 -0.13835162 0.09042316 0.061828535 0.020303264 -0.08586464 -0.18568593
-0.0663682 -0.030784747 -0.07174183 -0.01515981 0.027226519 -0.21105497 -0.082121834 0.04914958
-0.03958449 -0.070962325 -0.036187984 0.03031903 0.0008060741 0.06758428 -0.007482551 0.08824985
0.015555295 0.0052773906 -0.10597528 -0.08271773 0.042705573 -0.02301295 -0.03837057 0.034702796
-0.1004134 0.0055771144 0.044007137 -0.028785685 0.15549366 0.032171223 0.12774824 -0.10916064
-0.07799411 -0.14434549 0.072550625 -0.1323159 -0.18159482 0.00074606994 -0.06739432 0.072389275
-0.13107724 0.02040418 -0.35010985 0.038088407 -0.13077787 0.041372832 -0.095344156 -0.14900793
0.04694644 0.13123135 0.41373146 0.08928321 -0.034862623 -0.07146122 0.058603004 -0.13963407
-0.013154591 0.4985219 -0.08300448 0.007527047 0.105673075 0.07067628 -2.0024357 -0.11494054
00000000: afdc 103e 3e87 943d e8fe 86bd 06ee bc3d
00000010: 170a e0bc 3755 05be 6a2c 8b3d 5855 5ebe
00000020: 42db e0bd 3cee d8bc 326e 1b3c e17d 193e
00000030: a85e 17be 7890 063d 66fe aabd c4a9 203e
00000040: 4050 3b3c 6557 08be c2d9 00bd ce61 8c3d
00000050: 4c04 37be cb7d cb3c b65c 553d 2cd0 d9bd
00000060: 2b2e 76bd 1abc cf3c 4e87 89bd f365 a33c
00000070: 68b3 7a3c 5dae 11bd 645f f8bd b8a4 b2bb
00000080: c38a a03c e13b 0fbe 1397 9abc f94d eebc
00000090: 153c 53bb 5577 983d bb1e cabb 4071 1d3e
000000a0: 5e60 1dbd 3e67 ee3b 7e4d 58be 8cae c73d
000000b0: c60b 0dbb 0f0b 88bd 960c b0bd 57cf c3bd
000000c0: c2be 1dbd 4b1d e43d 5a4e f13d ff37 bf3d
000000d0: c2be 85bd 41de f63c fcde 31bb 508b 293d
000000e0: 49fc 983d e025 a03e 7fb8 e13d 563f 20be
000000f0: 44f9 7a3d 882f e73c 88d1 45bf b5eb 883c
00000100: bb9f 85bd d779 1f3e fe21 e23d 0168 11bd
00000110: 3a4d 213d 2e9c 8abc 487d 343e d7bd 833e
00000120: a870 03be 0402 4d3c 1b83 e5bd 716e 073e
00000130: d1ad 11bd a5d3 2ebd abb7 c13d 3bbe 9abc
00000140: e68e 90bd f4b9 14be 15bb 1ebd fecd 3cbd
00000150: d97d 4cbe 61f5 60bd 40e2 21be 5adf 1abd
00000160: ad3d 0c3e 12e8 8cbd 39d0 163d f9ba 973d
00000170: 4989 193d 61a3 a43a 0623 96bd 203a 2ebe
00000180: 13ba b03d f0e0 823c f17e 97bd 563c f0bd
00000190: 5176 20bd 4a48 76bc 6336 423d 3350 ccbd
000001a0: 71fa 733c 871d 3c3d 7ea1 d03d 2e07 6e3d
000001b0: 9006 c8bd d50f 19be 1dea 1bbe d18d 753c
000001c0: a888 5cbc a65b 893d ff3c 4b3c 0e6f b63d
000001d0: d521 70bd 3458 afbd 5455 be3c 0731 02be
000001e0: cc11 4b3d fe62 78b9 d90d 7fbd aef8 29bd
000001f0: 29a9 febd cbec a7bd a51c 433b a0e9 cbbd
00000200: ae47 d9bd 8f8a 9dbd f995 ca3d 93c7 123d
00000210: d471 963c 4d11 93bd 0afc 3ebd a919 c13b
00000220: 53bf c83b 55a8 d3bd 7450 40be 8ccc 44bd
00000230: 1062 503d 22ce 5bbd ea44 aabc dbf9 ec3b
00000240: c851 11bd 2d9c ab3d e7e9 ecbd 38d9 103d
00000250: 09d2 8abc 822b f6bd 50b9 21bd ab96 51bd
00000260: af62 8e3d 3807 a33d 67d9 cf3c 7d6a b7bc
00000270: a310 babd f670 6fbd c69f b43d 98b6 9b3d
00000280: fec5 a73c eb7e 963d 5afc b43d e854 5abd
00000290: 6646 00be 11f2 a5bd 502c db3c 13a6 5abd
000002a0: 043b 063e 0006 de3d c463 16c0 4308 d9bd
000002b0: d8c4 353c 0885 113d d7dc 413c 44d6 8d3d
000002c0: fc53 23be f1d2 06bd 48b7 633d a0c5 08bc
000002d0: 48cb 28bd 857a 8bbd 46d1 8d3e 56be 03bd
000002e0: e8bf 933c 6bd7 cebc 0cac 0dbe c72f b93d
000002f0: eb3f 7d3d 0853 a63c cdd9 afbd 7424 3ebe
00000300: 0dec 87bd 4b30 fcbc 61ed 92bd da60 78bc
00000310: 260a df3c cb1e 58be 7e2f a8bd 1251 493d
00000320: 5923 22bd b254 91bd da39 14bd 9d5f f83c
00000330: b84e 533a a169 8a3d 3030 f5bb 56bc b43d
00000340: a3db 7e3c f6ed ac3b 9109 d9bd ea67 a9bd
00000350: 0aec 2e3d a785 bcbc 752a 1dbd 8524 0e3d
00000360: 8aa5 cdbd 3ac0 b63b d440 343d f5cf ebbc
00000370: bb39 1f3e f9c5 033d 6fd0 023e 9d8f dfbd
00000380: 60bb 9fbd 4ecf 13be 6c95 943d d27d 07be
00000390: fef3 39be e893 433a 0906 8abd d440 943d
000003a0: 1d39 06be ab26 a73c 9941 b3be 9702 1c3d
000003b0: a2ea 05be 8f76 293d cc43 c3bd 8995 18be
000003c0: e94a 403d 8361 063e 9cd4 d33e 1eda b63d
000003d0: 1ccc 0ebd 435a 92bd b409 703d 3cfc 0ebe
000003e0: 5b86 57bc 433e ff3e 41fe a9bd 72a5 f63b
000003f0: 206b d83d babe 903d e827 00c0 f265 ebbd

net.flow_mapping.0.affine_layers.2.net.4.bias f4 [24]
0.025609005 -0.022110438 0.080081776 0.00031043473 -0.11068503 -0.08508615 -0.20460173 -0.5720433
0.06690206 -0.19562508 0.2616593 0.040294893 0.13464747 -0.018040115 -0.017680448 -0.032406703
0.05844982 -0.032293476 0.25747725 0.052025642 -0.017234182 0.022305798 0.19395772 -0.020126328
00000000: fac9 d13c f320 b5bc ea01 a43d d8c1 a239
00000010: d5ae e2bd a641 aebd 1e83 51be 6e71 12bf
00000020: f203 893d f151 48be 35f8 853e 420c 253d
00000030: 07e1 093e ddc8 93bc 96d6 90bc e4bc 04bd
00000040: 1469 6f3d 2a46 04bd 0fd4 833e d718 553d
00000050: b32e 8dbc a6ba b63c da9c 463e f8df a4bc

net.flow_mapping.0.affine_layers.2.net.6.weight f4 [2, 24]
0.03158037 0.016184332 -0.012822305 0.05635196 0.004633708 0.023831949 0.007592279 -0.08771253
0.012576197 -0.025016837 0.048089042 -0.5084703 0.11824267 -0.004651712 -0.0119665675 0.023147477
0.9887033 0.13746218 0.096664086 0.08085434 0.086056896 0.07704837 0.17242858 0.058050107
0.051361192 0.019272376 -0.32135704 -0.07010474 -0.109744556 0.07988688 0.26778015 1.1897434
-0.035757553 0.16259307 -0.4400299 -0.56757146 0.42291474 -0.24243255 -0.040375132 -0.042592477
-0.056252796 0.11921082 -0.51006657 0.040265072 -0.05249074 0.038927272 -0.46206522 -0.010732855
00000000: 6b5a 013d 0195 843c a514 52bc 50d1 663d
00000010: 5cd6 973b 383b c33c a7c8 f83b a0a2 b3bd
00000020: 650c 4e3c 1cf0 ccbc 04f9 443d 1c2b 02bf
00000030: 3729 f23d 636d 98bb 6c0f 44bc c79f bd3c
00000040: a91b 7d3f e3c2 0c3e d2f7 c53d f696 a53d
00000050: 993e b03d 89cb 9d3d 1e91 303e f3c5 6d3d
00000060: 1d60 523d 1ae1 9d3c e988 a4be 1393 8fbd
00000070: c1c1 e0bd bc9b a33d 7b1a 893e 8349 983f
00000080: 8376 12bd cc7e 263e 994b e1be 5d4c 11bf
00000090: 4888 d83e 3d40 78be 6560 25bd 7375 2ebd
000000a0: 5569 66bd cd24 f43d b993 02bf fdec 243d
000000b0: 8800 57bd 3472 1f3d d093 ecbe dbd8 2fbc

net.flow_mapping.0.affine_layers.2.net.6.bias f4 [2]
0.115100935 0.0258753
00000000: 0aba eb3d 70f8 d33c
