param/model_my_data_10_32_5.pth (torch, 247613 bytes, 174 tensors)

net.rotations.0.LU f4 [2, 2]
00000000: 0000 0000 0000 0000 0000 0000 0000 0000
0.0 0.0 0.0 0.0

net.rotations.0.LU_init f4 [2, 2]
00000000: 0000 803f 0000 0000 0000 0000 0000 803f
1.0 0.0 0.0 1.0

net.rotations.0.ones_mat f4 [2, 2]
00000000: 0000 803f 0000 803f 0000 803f 0000 803f
1.0 1.0 1.0 1.0

net.rotations.0.I f4 [2, 2]
00000000: 0000 803f 0000 0000 0000 0000 0000 803f
1.0 0.0 0.0 1.0

net.flow_mapping.0.scale_layers.0.b f4 [1, 2]
00000000: 85a5 c2bc 45ed 6dbd
-0.023760566 -0.058087606

net.flow_mapping.0.scale_layers.0.logs f4 [1, 2]
00000000: bff0 2fbd 9c83 4cbd
-0.042954203 -0.0499302

net.flow_mapping.0.scale_layers.0.b_init f4 [1, 2]
00000000: 0000 0000 0000 0000
0.0 0.0

net.flow_mapping.0.scale_layers.0.logs_init f4 [1, 2]
00000000: 0000 0000 0000 0000
0.0 0.0

net.flow_mapping.0.scale_layers.1.b f4 [1, 2]
00000000: 295f bfbd dd47 82bc
-0.09344322 -0.015903408

net.flow_mapping.0.scale_layers.1.logs f4 [1, 2]
00000000: 4f03 4bbd 2982 05bd
-0.049563702 -0.032594834

net.flow_mapping.0.scale_layers.1.b_init f4 [1, 2]
00000000: 0000 0000 0000 0000
0.0 0.0

net.flow_mapping.0.scale_layers.1.logs_init f4 [1, 2]
00000000: 0000 0000 0000 0000
0.0 0.0

net.flow_mapping.0.scale_layers.2.b f4 [1, 2]
00000000: 00cf 85bb a934 84bd
-0.004083514 -0.06455357

net.flow_mapping.0.scale_layers.2.logs f4 [1, 2]
00000000: 4862 01bd cb2b 34bd
-0.03158787 -0.043987077

net.flow_mapping.0.scale_layers.2.b_init f4 [1, 2]
00000000: 0000 0000 0000 0000
0.0 0.0

net.flow_mapping.0.scale_layers.2.logs_init f4 [1, 2]
00000000: 0000 0000 0000 0000
0.0 0.0

net.flow_mapping.0.scale_layers.3.b f4 [1, 2]
00000000: 403c 4abd ca4a 09ba
-0.049373865 -0.00052372797

net.flow_mapping.0.scale_layers.3.logs f4 [1, 2]
00000000: ed5a 2bbd 12d8 01bd
-0.04183476 -0.0317002

net.flow_mapping.0.scale_layers.3.b_init f4 [1, 2]
00000000: 0000 0000 0000 0000
0.0 0.0

net.flow_mapping.0.scale_layers.3.logs_init f4 [1, 2]
00000000: 0000 0000 0000 0000
0.0 0.0

net.flow_mapping.0.scale_layers.4.b f4 [1, 2]
00000000: 3a4f a83c c15b 17bc
0.02054559 -0.009238184

net.flow_mapping.0.scale_layers.4.logs f4 [1, 2]
00000000: ddd4 fcbc 92e1 febc
-0.03086322 -0.03111342

net.flow_mapping.0.scale_layers.4.b_init f4 [1, 2]
00000000: 0000 0000 0000 0000
0.0 0.0

net.flow_mapping.0.scale_layers.4.logs_init f4 [1, 2]
00000000: 0000 0000 0000 0000
0.0 0.0

net.flow_mapping.0.scale_layers.5.b f4 [1, 2]
00000000: 79ff fdbb 22ca 403b
-0.007751402 0.0029417356

net.flow_mapping.0.scale_layers.5.logs f4 [1, 2]
00000000: c72d 02bd a6e7 32bd
-0.031781938 -0.04367795

net.flow_mapping.0.scale_layers.5.b_init f4 [1, 2]
00000000: 0000 0000 0000 0000
0.0 0.0

net.flow_mapping.0.scale_layers.5.logs_init f4 [1, 2]
00000000: 0000 0000 0000 0000
0.0 0.0

net.flow_mapping.0.scale_layers.6.b f4 [1, 2]
00000000: bd23 be3c 6d82 07be
0.0232104 -0.13233347

net.flow_mapping.0.scale_layers.6.logs f4 [1, 2]
00000000: 7025 31bd f208 43bd
-0.043248594 -0.047615953

net.flow_mapping.0.scale_layers.6.b_init f4 [1, 2]
00000000: 0000 0000 0000 0000
0.0 0.0

net.flow_mapping.0.scale_layers.6.logs_init f4 [1, 2]
00000000: 0000 0000 0000 0000
0.0 0.0

net.flow_mapping.0.scale_layers.7.b f4 [1, 2]
00000000: d5ef b4bd 91b1 f53c
-0.08834807 0.029991897

net.flow_mapping.0.scale_layers.7.logs f4 [1, 2]
00000000: e149 24bd 0f87 37bd
-0.04010952 -0.044806536

net.flow_mapping.0.scale_layers.7.b_init f4 [1, 2]
00000000: 0000 0000 0000 0000
0.0 0.0

net.flow_mapping.0.scale_layers.7.logs_init f4 [1, 2]
00000000: 0000 0000 0000 0000
0.0 0.0

net.flow_mapping.0.scale_layers.8.b f4 [1, 2]
00000000: c814 813d 9a8c 3abe
0.06302792 -0.18217698

net.flow_mapping.0.scale_layers.8.logs f4 [1, 2]
00000000: c70a 39bd 438b 31bd
-0.045176294 -0.0433457

net.flow_mapping.0.scale_layers.8.b_init f4 [1, 2]
00000000: 0000 0000 0000 0000
0.0 0.0

net.flow_mapping.0.scale_layers.8.logs_init f4 [1, 2]
00000000: 0000 0000 0000 0000
0.0 0.0

net.flow_mapping.0.scale_layers.9.b f4 [1, 2]
00000000: 39c0 aa3d b134 4cbd
0.08337445 -0.049854938

net.flow_mapping.0.scale_layers.9.logs f4 [1, 2]
00000000: 149f 04bd a629 3fbd
-0.03237827 -0.04667058

net.flow_mapping.0.scale_layers.9.b_init f4 [1, 2]
00000000: 0000 0000 0000 0000
0.0 0.0

net.flow_mapping.0.scale_layers.9.logs_init f4 [1, 2]
00000000: 0000 0000 0000 0000
0.0 0.0

net.flow_mapping.0.affine_layers.0.net.0.weight f4 [32, 1]
00000000: 50c5 20be f37b 0dbe 508e 733e 3da9 b8bc
00000010: 1688 e5bb 6792 a93e de6c d9bd 5722 b13d
00000020: 1f9b bfbe 6b0d cbbe cb1e c2bd 0df6 5e3e
00000030: 2e11 dcbe e350 83be 40e1 5dbd 1df2 20be
00000040: 49bf 4d3e 4200 c3be bc70 773e 3836 433c
00000050: ef02 a1bc 1537 b5bd 6250 81be b191 c6be
00000060: cf4c 92be 2061 033e e3e4 97bd 600a 9bbe
00000070: dee2 893e 8d99 963e 2228 a3be c9f5 a03d
-0.15700269 -0.13816814 0.23784757 -0.022541637 -0.007004748 0.3311951 -0.10616468 0.08649128
-0.37423036 -0.39658675 -0.094785295 0.21773548 -0.42981857 -0.2564765 -0.054169893 -0.15717359
0.20092501 -0.38086134 0.24164099 0.011914782 -0.01965472 -0.08848397 -0.2525664 -0.3878303
-0.28574225 0.12830019 -0.074167036 -0.30281353 0.26930898 0.29414025 -0.31866556 0.0785938

net.flow_mapping.0.affine_layers.0.net.0.bias f4 [32]
00000000: a804 7dbe 6ac0 a83e 94de abbe eede 7c3e
00000010: 4152 5ebe 572f 23be 17cc d43e 67fe 09be
00000020: 3383 81be 368b a8bd 5bad 36be 67c5 4fbd
00000030: 79b8 3f3e 00b2 e73d 6e57 523e a32e 573d
00000040: 141c b9be 5771 da3e 312e 803d e8c9 053d
00000050: 50a9 1ebe 5451 d83e 4046 84be 5808 013e
00000060: 384e a5be 2dbc 4e3e 0e75 c3be 2639 84be
00000070: 11a6 0cbe b19c 913e f405 0ebe c279 103e
-0.24708807 0.329593 -0.3356825 0.24694416 -0.21711065 -0.15936027 0.41561958 -0.13475953
-0.2529541 -0.082296774 -0.17839567 -0.050725367 0.18722714 0.11313248 0.20541164 0.05253471
-0.36154234 0.42664596 0.0625881 0.032663256 -0.15494275 0.42249548 -0.25834846 0.12600839
-0.3228624 0.20188971 -0.38175243 -0.2582485 -0.13735224 0.2843986 -0.13869458 0.14108947

net.flow_mapping.0.affine_layers.0.net.2.weight f4 [32, 32]
00000000: a0cd 86bd d9af 77bc 04f3 743c 33e9 0bbc
00000010: 21b6 3f3d 28e9 753c 332c 863d f385 f83c
00000020: e4ab 84bc d89c 8cbd acc0 7cbd 4bb7 bdbd
00000030: 7039 a43d c6b3 20bc 8796 603d 7717 483d
00000040: 1220 babd 7f79 d2bc b8f9 193d 4cbb cdbd
00000050: 6943 863d 2c3b d7bc 7868 013c 5c70 9f3d
00000060: 5e43 4a3c 2a97 94bd deda debc 5325 1dbd
00000070: d906 7ebd a900 59bb 3388 8c3c 6b24 573d
00000080: 0328 5f3c 60c4 dc3b 2ac0 5abd 1ffc 213b
00000090: 2370 08bd 52dc b23c 8e4f 5c3d 6c28 213c
000000a0: d088 473d 89b1 a2bd 15ec 8bbd 6275 94bd
000000b0: f70f 803d 63dd 1bbd 5daa 253c e4e8 f03c
000000c0: 8843 013d 023d 15bd 5483 203d 9d31 6c3d
000000d0: 9a1f 30bd 30dc 0b3c ed10 3f3d 2b95 023b
000000e0: cd98 563d 9838 f23b 924f 913d 6351 8dbd
000000f0: d3fb 99bd a531 1cbd 2438 0d3d 6529 88bd
00000100: d881 fdbc 5fca 923d 3f22 99bd c278 37bd
00000110: b0c0 78bd ebe3 143d 4dd5 5e3d 30fc 6cbc
00000120: 3049 11bd 5d40 80bd 51f7 86bd d091 dbbc
00000130: 895d 66bc 0c7d 633c d9c9 8cbd 636b a03d
00000140: 8a0a c9bb 75dc 81bd 3d95 edbc cde4 d9bc
00000150: 4358 4b3d ac82 7c3d 0b8e 81bd 6865 9ebb
00000160: 5133 9fbd 54a6 933d 64b1 94bd 8a48 bb3c
00000170: ea67 01bd db03 86bc 8c7a 9abd 743f 0cbd
00000180: e0d4 813c 6d1d 853a 1468 d1bc 0525 2cbd
00000190: 8204 c3ba 7c66 fabc ab75 343d 4af8 c5bc
000001a0: 029b 983c 5a44 29bd ad81 e13c f0da 533c
000001b0: 2ad6 663d dd68 0dbd 118f 093d f7d6 933d
000001c0: c362 8e3d 2756 963c 3ed6 0ebd 219d 743d
000001d0: bbaa 1fbd 8c26 543d c0c2 0b3d ebaf 2bbd
000001e0: 6f21 ca3b d550 103d 876a 78bc e6cb f13c
000001f0: 06dc c2bb 3340 27bc c0d8 363d 0856 eb3c
00000200: 0069 15bd 596f 8ebc 32e6 93bd ca6b 8ebd
00000210: 5507 6b3d e524 5dbd c169 53bd 0269 0b3d
00000220: 6a89 023c 04d0 923c b998 993d 84ab 26bd
00000230: a9a6 003c 1677 793c be42 813d 8117 96bd
00000240: 2b23 92bd fa4e 89bc 0885 49bd 24ff a23d
00000250: d646 6a3d b47c 62bc 1831 173d 0e44 8cbd
00000260: 4568 673c 99ae 61bd de6b fb3a ef75 cabc
00000270: b063 e53c 08e2 2cbd 66d5 973d 0535 983d
00000280: 83a2 bc3a c37f 61bd 5bad 663d 0a49 52bd
00000290: 5e0e 483d fdcc 843d c3b5 8dbd 5477 ac3d
000002a0: ca20 8ebd 7dfc 70bd f1a5 613c e5c7 8d3d
000002b0: 956a 8b3d ffd7 30bd 2024 87bd 8d5a 8b3d
000002c0: a12d 983d c872 3bbc 09d6 7d3d 992f 00bd
000002d0: 53b8 1fbd 65d7 03bd e238 babc 0372 3b3d
000002e0: 99ed 95bd 26f7 343c bb47 55bd e6b6 933d
000002f0: 00c6 d43d c2f5 babc 172e 653d c796 9ebc
00000300: 8f87 a03c adc5 c3bc 7fd2 b7bd 9057 7cbd
00000310: 9231 86bd ee7c 2a3d 032e 0b3c 9f7e a1bd
00000320: f997 da3a 3569 5cbd 1e0e 00bd c30c 5ebd
00000330: c12e 733d 0f3a 863d e171 69bd 267a 163d
00000340: 6210 98bd 200a 6d3d fc79 04bb 9104 65bc
00000350: 2c24 9e3d 12e9 b7bc 6efd b8bc f9c3 44bd
00000360: cbcc d83c 022f 5fbd ba59 873d b46c 783d
00000370: 8096 b2bb 08b6 343d ff60 efbb 1a04 bebd
00000380: a47a 263c 291e 9fbd d80f 553d be04 1f3d
00000390: 0d82 6ebd e9a8 2dbc 8d60 55bc 1a81 323c
000003a0: ee11 bbbc ab6d bebc 1739 9e3d 9363 67bd
000003b0: 57d8 8d3c aaed 413d aecc a3bd e2b8 4dbb
000003c0: a911 c7bb daec 9ebd 23fb 063d 158f 86bd
000003d0: 2290 23ba efcc c93c 3181 713d 2729 823d
000003e0: 2803 3c3b 63aa b8bd 5ccf 82bd caf0 8cbd
000003f0: cc51 47bd 5087 c1bd eb51 573d 9e66 473d
-0.065821886 -0.015117609 0.014950518 -0.008539486 0.04680455 0.015009202 0.06551399 0.03033731
-0.016195245 -0.06865853 -0.061707184 -0.09263476 0.08018768 -0.009808486 0.054831054 0.048850503
-0.09088148 -0.0256927 0.037591666 -0.1004549 0.06555826 -0.026273333 0.007898442 0.07785103
0.012345163 -0.07255395 -0.027203973 -0.038365673 -0.06201825 -0.0033111966 0.017154789 0.052524965
0.013620379 0.006737277 -0.05340592 0.0024716926 -0.033310067 0.021833573 0.053786807 0.0098362975
0.04871446 -0.079440184 -0.068321384 -0.072489515 0.06253045 -0.038052928 0.010111419 0.029407926
0.031558543 -0.036435135 0.039187744 0.057664502 -0.042998888 0.0085363835 0.046647 0.0019925337
0.052391816 0.0073920004 0.07095255 -0.06900289 -0.07518735 -0.038133282 0.034477368 -0.066485204
-0.030945703 0.071675055 -0.07477235 -0.044792898 -0.060730636 0.036350172 0.05440264 -0.014464423
-0.035470188 -0.06262276 -0.065901406 -0.026802927 -0.014060386 0.013884794 -0.06874437 0.078329824
-0.0061352896 -0.06340877 -0.029001826 -0.026598359 0.04964472 0.061648056 -0.06325921 -0.004833866
-0.0777346 0.07209459 -0.07260397 0.022861738 -0.03159324 -0.01635926 -0.07542905 -0.0342402
0.015848577 0.0010155864 -0.025562324 -0.042027492 -0.0014878663 -0.030566446 0.04405753 -0.024166245
0.018628601 -0.04132495 0.027527655 0.012930617 0.056356587 -0.034523834 0.033583704 0.07218736
0.06952431 0.018351628 -0.034872286 0.059720162 -0.03898118 0.051794574 0.034121275 -0.041915815
0.0061685364 0.035233337 -0.015162117 0.029516172 -0.005946639 -0.010208177 0.044640303 0.028727546
-0.03647709 -0.01738708 -0.07221641 -0.06954153 0.05738004 -0.053990263 -0.051614527 0.03403569
0.007967332 0.017921455 0.07499833 -0.040690914 0.007852235 0.015226146 0.06311558 -0.07328702
-0.07135614 -0.016761292 -0.049199134 0.079588205 0.05719646 -0.013823677 0.036912054 -0.06848918
0.014123981 -0.05509815 0.0019181927 -0.024714438 0.028001636 -0.042207748 0.074137494 0.07431988
0.0014391694 -0.055053484 0.05631767 -0.051339187 0.048841827 0.06484411 -0.06919434 0.084211975
-0.06939848 -0.05883454 0.013772474 0.069228925 0.06807438 -0.04317474 -0.06598687 0.068043806
0.07430578 -0.01144094 0.061971698 -0.031295393 -0.038994145 -0.032187838 -0.022732202 0.045763027
-0.07320709 0.011045253 -0.05207036 0.072126195 0.10389328 -0.022822265 0.055952158 -0.019359006
0.01959589 -0.02389797 -0.08975696 -0.061606944 -0.065524235 0.04162305 0.008494857 -0.07885479
0.0016677371 -0.05381127 -0.031263463 -0.05421139 0.05937076 0.065540425 -0.05699337 0.036737584
-0.07425 0.057870984 -0.002021431 -0.0139781395 0.07721743 -0.022450004 -0.022581782 -0.048038457
0.02646484 -0.05448819 0.06608911 0.060650542 -0.00545007 0.04411891 -0.007305264 -0.09278126
0.010161076 -0.077694245 0.052017063 0.038822882 -0.058229495 -0.010599353 -0.013023508 0.010895038
-0.022835698 -0.023245653 0.07725733 -0.056491446 0.017315073 0.047345795 -0.07998024 -0.0031390716
-0.0060751033 -0.077600196 0.032954346 -0.065702595 -0.0006239434 0.024633853 0.058961097 0.063555054
0.0028688405 -0.09016874 -0.06387207 -0.06881864 -0.048661992 -0.09449637 0.052568357 0.048681848

net.flow_mapping.0.affine_layers.0.net.2.bias f4 [32]
00000000: 9dcb c9bc 92d8 77bd 34eb ea3c 32d8 0e3d
00000010: d747 d8bb e5a1 ba3d 582b 2bbc 417d a5bd
00000020: bae5 c2bd 77d7 193d cee0 39bd f85b b53c
00000030: 1639 f53c 8c37 aabd a6a8 99bd cea3 8fbd
00000040: 80a3 b938 450b 89bd 2dd7 2b3d 2bc5 29bd
00000050: a707 8d3d 24f8 9dbd d9c1 e5be 1840 77bd
00000060: acde 5c3d f440 63bd f42f 213d 1d40 8dbc
00000070: 826a 913d 3f74 12bd af2c b53d 8551 dd3c
-0.024633223 -0.060509272 0.028676607 0.03487415 -0.006600361 0.0911291 -0.010447346 -0.08080531
-0.09516473 0.037559 -0.045380406 0.02213858 0.029934447 -0.08311376 -0.0750287 -0.07013665
8.851942e-05 -0.066916026 0.041953254 -0.0414478 0.06886225 -0.07713345 -0.44874457 -0.06036386
0.053923294 -0.055481866 0.039352372 -0.017242486 0.07100393 -0.035755392 0.08846413 0.02701641

net.flow_mapping.0.affine_layers.0.net.4.weight f4 [32, 32]
00000000: 7702 4b3d 56fd 3f3d 5d20 54bd 50b6 9cbd
00000010: bc02 7b3d a69b e23a de88 2f3d d3d5 c33d
00000020: 1976 df3d 77fe 443d 7e5b 11bd fb26 943d
00000030: ffae 9b3d 4913 b83d 81e6 84bd 63d1 4abd
00000040: 45ca 303d 5e66 a2bc 28cd c73d 0d9a 193e
00000050: 3d7d 083d 8cf2 95bd e859 713d f4b6 483c
00000060: 20b5 413d 62f3 2e3d d685 a03b b950 833d
00000070: 76d5 ae3d 243c fabb b814 103e e1f2 deba
00000080: dc4a 1a3d 244b ec3c 42e8 4f3d fbf9 483b
00000090: c173 3c3c 7235 82bd 3378 a1bc bc06 4d3d
000000a0: aa2a b6bc 6b44 1b3c 6027 34bc 5989 633d
000000b0: 4fde 733c 0a3d dd3c 044a 9bbd 4d5b 36bd
000000c0: 6415 82bd 8480 fcbc 5b07 72bc 0d29 59bc
000000d0: 899f 5bbd 4c56 493d a472 c2bc 9850 7bbd
000000e0: c16e 243d 5a96 3abd 1fba 7ebb 8caf ae3c
000000f0: 69a9 933d 0dd8 5fbd 4c5b bcbc 5fac e6bc
00000100: 13a8 c53d af3b d6b9 fa5f 19bd 0106 9b3b
00000110: fc1d a13d baa2 b63d 8cc2 8f3d f282 973d
00000120: b0a0 0ebd cc21 f43c c7eb a33d 48be d03a
00000130: 9b7c 323d b1c5 7d3d 38bc d43c 08ad cb3c
00000140: 6e83 323d ccb3 36bd 3aba 803c 5a2b a33d
00000150: 1f3c c93d 1e68 9c3c f5ec c33b bb95 87bc
00000160: b60d df3d 54dd 8d3d 9320 55bd 62d8 3cbd
00000170: e0c6 b73d ffb0 463c 582b fb3b d337 813d
00000180: ffc7 d7bc c70a 5bbd a429 f63c 62a4 9d3c
00000190: d701 a13d df2e 1bbd e097 4ebd 98ff 9dbd
000001a0: 1082 3dbd 91a4 dc3b 8612 67bc 916e 5bbc
000001b0: ac53 9cbd b9d9 713c c7a2 5a3d 2ba6 52bd
000001c0: f5d1 88bc 0443 3bbd 99f1 423d 53e0 85bd
000001d0: 298f 5ebd ba1f 0a3d ecbf 6b3d 77fe 333c
000001e0: 3d80 30bd e1f7 9f3d 803c 403c f6d3 2dbd
000001f0: a210 2abc bb3d f7bc e813 0a3d a921 a43d
00000200: d825 87bd f18b 743d 5c99 dfbc d9b1 49bd
00000210: f534 18bd 39f0 263c 4269 673c 17c3 e3bc
00000220: 612b 703c efd9 2ebd 619a 86bd 1b3f 00bd
00000230: 785b ae3c d65f 353d ae1b 303d ab68 803d
00000240: f6f2 9cbd 0480 51bd ab74 8b3d 2086 9abd
00000250: 547b 42bc 3a26 f6bc b54b 83bd 4706 7fbd
00000260: 1346 0bbd c7c6 9bbd f68d 1b3d 9397 903d
00000270: 3e96 8a3d 5af1 cabc 00ac 3e3d a479 903d
00000280: 6e98 86bd 67aa 94bc 7a60 303d dc8b 94bd
00000290: d4a2 99bd abf7 633d a581 babc 2c9a 4f3d
000002a0: eb29 6ebc 2daa 64bd 0214 ac3c 1601 d53c
000002b0: eb7e 80bc 1a10 7abd 55a8 20bd 9885 9d3d
000002c0: cfdf a4bd f7d6 d33c ecf0 93bd 5ebc 85bd
000002d0: 11ff 93bd 0c98 02bd 087b 0b3c 8fcf 26bd
000002e0: 74a1 17bd 289a e03c dad0 79bc 475c 44bd
000002f0: 69b8 f23c da51 9f3d 8e3a f03c 6c11 97bd
00000300: 6643 593d 5b3d 7e3d 52f7 45bb bb6e 93bc
00000310: e941 923c 1aa5 d6bd a438 0a3c 3c8d c8bd
00000320: 674a 1c3c 86f9 a0bd b9b6 b4bd eb46 ea3c
00000330: 2dad 64bd 8af3 f3bc 934c 7c3d 8851 4fbd
00000340: 7796 4f3a b63a 96bc 216f 1fbc ef78 283b
00000350: b6b4 d73c ff07 7e3c cc50 d63c 7307 78bd
00000360: 8390 57bd 4cf3 90bd b9df 68bc 1534 a43d
00000370: 0b3f 323d 5782 9bbd 9c5d 82bd b84f 4a3c
00000380: e287 14bb e4d2 dfbb 4ac1 9c3d 0fed 853d
00000390: b592 f33c 5a56 a93c 70d4 2dbd fa66 b0bc
000003a0: 98ee 9ebd 27b1 2cbd 2ddf 283c 3baf 09bc
000003b0: a79b 9ebc d4fa 9f3d 5145 9c3d 1455 313d
000003c0: 7900 023d 6ea5 91bd 8734 833d 2dff a3bd
000003d0: 014c bd3c aaf8 75bd 8410 0b3d 88c8 3fbd
000003e0: aca6 a1bd da11 5c3c e10a 9dbd 782f 353d
000003f0: 5730 84bd 22d0 58bc abe4 74bd 30a3 303d
0.049562898 0.04687246 -0.051788677 -0.07651961 0.061281905 0.0017288818 0.042855136 0.09562268
0.10911197 0.04809424 -0.035487644 0.072339974 0.07601737 0.08988053 -0.06489278 -0.049516093
0.04316165 -0.019824203 0.09755927 0.15000172 0.03332256 -0.07321653 0.058923632 0.012250651
0.047291875 0.042712577 0.004898767 0.06411881 0.08536808 -0.007636564 0.14070404 -0.0017009639
0.037669048 0.028844424 0.050758608 0.0030666578 0.011502207 -0.0635785 -0.019710636 0.05005525
-0.02223714 0.009476761 -0.010995716 0.055550907 0.0148845455 0.027006645 -0.07582477 -0.044520665
-0.06351736 -0.030823 -0.0147722615 -0.013254416 -0.05361894 0.049154565 -0.023736306 -0.061356157
0.040144686 -0.045553543 -0.003886826 0.021323942 0.07210047 -0.0546494 -0.022992752 -0.028158365
0.09651198 -0.00040861728 -0.037445046 0.0047309403 0.07867047 0.089177564 0.07019529 0.07398023
-0.034821212 0.029801272 0.08003955 0.0015925849 0.043575864 0.06195611 0.025968656 0.024862781
0.043582372 -0.04460506 0.0157138 0.07967253 0.0982592 0.019092616 0.005979175 -0.01655089
0.10891287 0.069269806 -0.05203302 -0.046104796 0.08973479 0.01212716 0.007665079 0.06309476
-0.026340483 -0.053477075 0.030049153 0.019243423 0.07861679 -0.037886497 -0.050437808 -0.07714766
-0.046266615 0.006733485 -0.014103537 -0.01339306 -0.07633147 0.014761382 0.053377893 -0.051428
-0.016701678 -0.045718208 0.047593687 -0.06536927 -0.054335747 0.033721663 0.057556078 0.010985962
-0.043091048 0.07810951 0.011733174 -0.04243847 -0.010379942 -0.030180803 0.03371039 0.08014233
-0.06599015 0.05970377 -0.027294807 -0.049241874 -0.03715988 0.0101891095 0.0141242165 -0.027802987
0.01465878 -0.042688306 -0.06572414 -0.031310182 0.02128385 0.04428085 0.042995147 0.06269964
-0.076635286 -0.051147476 0.06809362 -0.075451136 -0.011870224 -0.030047525 -0.06410924 -0.062261846
-0.034002375 -0.07606273 0.03797718 0.070601605 0.06766938 -0.024773289 0.04655075 0.07054451
-0.065720424 -0.01814766 0.043060757 -0.072532386 -0.0750176 0.055656116 -0.022766897 0.05068414
-0.014536361 -0.055826355 0.021005634 0.026001494 -0.01568552 -0.061050512 -0.039223034 0.076914966
-0.080505006 0.02585934 -0.072236866 -0.06530069 -0.072263844 -0.031883284 0.00851322 -0.040725287
-0.037019208 0.027417257 -0.015247548 -0.047939565 0.02962895 0.07779284 0.029324796 -0.0737637
0.05304279 0.062070232 -0.003020723 -0.017997136 0.017853694 -0.104807094 0.008436356 -0.09792563
0.009539223 -0.07860093 -0.08823914 0.02859827 -0.055829216 -0.029779214 0.061596464 -0.050614864
0.00079188443 -0.018338542 -0.009731085 0.0025706848 0.026331287 0.015504836 0.026161574 -0.06055398
-0.05262805 -0.07077655 -0.014213496 0.08017746 0.043517154 -0.0759322 -0.06365511 0.012348108
-0.0022664 -0.00683056 0.076540545 0.06539356 0.029733041 0.020671058 -0.042438924 -0.021533478
-0.07760352 -0.042161133 0.0103071155 -0.008403595 -0.01936133 0.078115135 0.076304086 0.043294027
0.031738732 -0.07111631 0.06406503 -0.08007655 0.02310753 -0.060051598 0.033951297 -0.0468221
-0.07893118 0.0134319905 -0.076680906 0.044234723 -0.064545326 -0.0132332165 -0.059788387 0.043124378

net.flow_mapping.0.affine_layers.0.net.4.bias f4 [32]
00000000: ddff 4fbe 0ef6 4b3a ba71 853d ae5d 02bd
00000010: 0d5f 02bd 400b b3bd fb25 a73b 52f9 883c
00000020: 0193 53bd 9cb7 68bd 553e fabc 0f2d e2bc
00000030: 693d 7a3c a27b 56be 645c 75bf f034 0abd
00000040: 22e6 9e3d 9359 223c 57a1 9cbd a039 a0bd
00000050: 53ac 183d b037 9bbd 8b8e 02be 7a48 c6bd
00000060: 8edb 0cbd b57c 2abd 9093 43bd 20d6 5039
00000070: 470d e33c e36d 9f3d b90f 04bf be3b c2bc
-0.20312448 0.00077805005 0.06515832 -0.03182762 -0.03182893 -0.0874238 0.005100963 0.016720448
-0.051653866 -0.05681573 -0.0305473 -0.027609376 0.01527343 -0.209456 -0.958441 -0.03374189
0.07758738 0.0099090515 -0.07647961 -0.07823491 0.037273716 -0.07578981 -0.12749688 -0.096817926
-0.03438907 -0.041622836 -0.04774815 0.00019916194 0.027716292 0.07784631 -0.5158649 -0.023710128

net.flow_mapping.0.affine_layers.0.net.6.weight f4 [32, 32]
00000000: 7326 c2bd 9e04 7d3b a796 95bc 4611 633d
00000010: 39c4 853c 138b cfbd e7d5 1f3d ccea 373b
00000020: 72c7 9dbd 717d 483d f49b e73c 72d5 4f3d
00000030: 8245 123d 03c2 bbbc 52eb 7d3d 440a 2fbc
00000040: aeb0 f73b f578 583a 80c3 7bbd bb19 47bc
00000050: 738c 213d ae59 c8bd 68bc 373d 5767 14bd
00000060: 0206 5ebd 02b1 373c 715c 83bd c192 953b
00000070: 7538 96bd 69bc e33c bfab 2f3d d18d 0e3d
00000080: bb82 473d 6998 3dbd 8ba5 413d ec1a a3bd
00000090: 5283 f53a 71fc 253d 2f6e 333b 3e26 383d
000000a0: 457b 783d d5a3 da3d 44ce a03d ea46 c53b
000000b0: fd08 f03b bfdf ee3b 92ef 353c 9f9a 05bd
000000c0: 1069 a8bc 3e1b 58bc 7712 cc3d 1194 ce3d
000000d0: 6e95 5f3d e30d 713d ddf6 a43c a280 10bd
000000e0: d802 223d fc6c 903d 3ca8 c43c 0d3c 36bd
000000f0: 6be4 b53d 3dc6 0dbc 02a0 e9bc cfb7 20bd
00000100: 938e 7f3d 7eae 953d a123 8cbd 127b 3fbb
00000110: 39a7 423c d8d9 8cbd 4c9e 373d d907 3c3d
00000120: a8a6 583d 0e30 833c f8d2 133c 4c35 a4bd
00000130: a2b5 a13d 636b f03c 5f0d 69bd ec4c c8bc
00000140: c6ce 3b3d ef2e 493d eea7 283c 4a8f 8bbd
00000150: b679 26bd 4b79 7b3d 930e fbbb 69b0 223d
00000160: 151c b03c 7aa2 983d 83aa 763d e4a7 8abd
00000170: 3967 0a3b 4de7 b33c 6783 1d3d bae1 74bc
00000180: 4a83 283d 5446 8e3d 6c35 9ebd 1345 03bd
00000190: 0208 8cbd bfa5 02bc bca9 893b a96c 47bd
000001a0: e845 51bc 2878 393c 74ee b6bc 2dce 3a3d
000001b0: 655f 503d 411b 233d 7bde 4ebd 107f 8dbd
000001c0: 71c0 34bd fa47 af3c fe19 3dbc 9122 ce3c
000001d0: 66d2 babc e537 363d e256 683d ec99 9cbd
000001e0: 2573 d4bd d2e1 263d d454 f33b e78a c8bc
000001f0: 34e2 8bbd 5e91 94bd 3cbd b9bb 11af e43c
00000200: fca2 13bd 4736 8f3d 4e82 ae3c 3c81 9a3d
00000210: 8e57 80bd c750 df3b 5114 c53c 9e28 ceba
00000220: aacd 8cbd dfc6 6e3c 26ef 67bd fd39 4b3d
00000230: fe76 67bd 8409 aa3b 427b 8bbc 8df7 05bd
00000240: a336 d73c 7f79 383c baad 96bd 7da7 7abc
00000250: 450e b3bd 59cd 2a3d 728f 883d df66 4b3d
00000260: 034d b0bd e816 833d 524a 28bd 5b39 66bd
00000270: 4532 393d 9681 5d3d 9145 c13c 7940 8fbc
00000280: c0c5 aa3d 27e8 8ebd 8593 263d 9fad 153d
00000290: 4b2e 973b ee4e 233d 9c5d 12bd 61a5 4f3d
000002a0: 9ade 6fbd f6b4 b93c c636 8ebd f33c 973d
000002b0: bcba 4cbd de66 513d a570 e73d 843b ae3d
000002c0: ea61 c83b a4e3 09bd 5f0e debc d89f bd3d
000002d0: b917 853d d2bd dd3c 57d9 353c d3a7 ce3c
000002e0: 1079 b53d 6359 183d 99e0 8a3d 2252 4abd
000002f0: 8be3 2bbd 88dd a33d 9826 4ebb 3665 9c3d
00000300: 0d41 b23c 9e97 c4bc 409a 943d 0b6b 383d
00000310: 57c3 f839 1018 fb3b f0f7 8ebd 0621 883c
00000320: a674 f93b 5a6a f3bc 51f8 653d 236f c3bc
00000330: f52c 293d a65c 16bd 0d32 503e 6da7 dc3d
00000340: e119 24bd c9ce 7fbd 214e 05bd 6394 b63d
00000350: f951 933d d387 aa3d 0ee6 a03d dfcb 0fbd
00000360: 91ef 563c 8b2e 413d 7bb3 523d 0134 7d3d
00000370: 4f78 353d f825 99bd 0ea1 4d3d 63ae 033d
00000380: ed23 283d 0957 83bb a6da 00be 3f78 d7bc
00000390: 3f88 4bbc c9ec b63c e7ed 92bd 30ce 8a3d
000003a0: d443 3d3d c9db 94bd a946 9dbd ffac a93c
000003b0: 4d55 963d 136b 9d3b 93b6 bbbb 8222 68bd
000003c0: afc8 04be 60df 333d 754d e2bc 0e6d 18bd
000003d0: 5fde 0d3d fce1 bdbb 2cad 533b 2e06 9c3d
000003e0: 477c 89bd dba0 893d 6e8a 92bd 3b85 fe3c
000003f0: bfa1 36bd f05a 04bd b451 e6bc 18c7 56bd
-0.0947999 0.0038607488 -0.018260313 0.055436395 0.016328918 -0.10133948 0.039022353 0.0028063534
-0.07704057 0.048947755 0.028272606 0.050740667 0.03571082 -0.02291966 0.061991997 -0.0106836
0.0075589037 0.000825777 -0.06146574 -0.012152131 0.039440583 -0.0978273 0.044857413 -0.036231365
-0.05420495 0.011211636 -0.06414116 0.0045646136 -0.07334987 0.027799802 0.0428884 0.034803215
0.04870866 -0.046287928 0.047277015 -0.07964119 0.0018731153 0.04052395 0.0027378907 0.044958346
0.060664434 0.1067578 0.07851842 0.0060204165 0.0073252902 0.007289856 0.011104481 -0.03261816
-0.02055791 -0.013190089 0.099644594 0.10086835 0.054585867 0.058851134 0.020137245 -0.035278924
0.039553493 0.07052037 0.024006002 -0.044490863 0.08881458 -0.008653221 -0.02851868 -0.039237794
0.06239183 0.07308672 -0.06842733 -0.0029217643 0.011880689 -0.06877488 0.044828698 0.04590592
0.05289331 0.016014125 0.009022467 -0.08017978 0.07895972 0.029348081 -0.056897517 -0.024450742
0.04585149 0.049117025 0.010293944 -0.068144396 -0.040643416 0.06139497 -0.0076616495 0.03971902
0.021497766 0.07452865 0.060221206 -0.06770304 0.0021118654 0.021960879 0.038455393 -0.0149463955
0.041140832 0.06947008 -0.07725033 -0.032048296 -0.06837465 -0.007974087 0.004201142 -0.04868761
-0.012773015 0.011320151 -0.0223305 0.04560678 0.050872225 0.039820913 -0.050505143 -0.06909001
-0.04412884 0.021396626 -0.011541842 0.025162967 -0.022805404 0.0444869 0.056723483 -0.07646546
-0.103735246 0.040742703 0.007425884 -0.024480296 -0.06830254 -0.07254289 -0.0056683104 0.02791551
-0.036044106 0.069927745 0.021302368 0.07544181 -0.062667 0.0068150493 0.02405754 -0.0015728658
-0.06875165 0.014573782 -0.056624554 0.04961585 -0.056509964 0.0051891226 -0.017026547 -0.032706786
0.02627117 0.011259436 -0.073573545 -0.015298721 -0.08742956 0.04169974 0.06667985 0.049658652
-0.08608439 0.064008534 -0.041086502 -0.056207042 0.045213956 0.05407866 0.023592742 -0.017486798
0.08338499 -0.06977873 0.04066803 0.03654253 0.004613673 0.039870195 -0.035733804 0.050694827
-0.0585619 0.022669297 -0.06944041 0.07384672 -0.04998277 0.051123492 0.11300782 0.085074455
0.006115188 -0.03366436 -0.027106462 0.092590034 0.06498665 0.027068052 0.011099181 0.02522651
0.088609815 0.03719462 0.0678112 -0.049394734 -0.04196505 0.08001238 -0.003145611 0.07636492
0.021759534 -0.023998078 0.07255983 0.04502396 0.00047447786 0.0076627806 -0.06980884 0.01661731
0.0076127825 -0.029713798 0.056145016 -0.023856705 0.04130264 -0.03670945 0.20331593 0.107741214
-0.040063743 -0.062453065 -0.032545213 0.08915021 0.071933694 0.08326688 0.078563794 -0.035106536
0.0131186405 0.047163527 0.051440697 0.061817173 0.04430419 -0.07477945 0.05020242 0.03214873
0.041049886 -0.004008178 -0.12583408 -0.026302455 -0.01242262 0.022329705 -0.071742825 0.067776084
0.046207264 -0.07268483 -0.07679493 0.020712374 0.073404886 0.004804024 -0.0057285517 -0.056673534
-0.1296718 0.0439142 -0.027624825 -0.037213378 0.034635898 -0.0057947617 0.0032299263 0.07618366
-0.06713157 0.06720134 -0.071553096 0.031069389 -0.044587847 -0.032313287 -0.028115131 -0.052435964

net.flow_mapping.0.affine_layers.0.net.6.bias f4 [32]
00000000: 3455 a2bc 510e e73c f48e 3cbd d7b0 e0bc
00000010: 8375 eabc ebac 1f3d 12b0 4c3b c42a 523c
00000020: 9a73 2c3d 9119 53bd fa72 84be de2c aebd
00000030: aa01 0c3d 141d c6bc 8475 17bd cd4b f33c
00000040: 4951 8abd 7569 3e3c 6d53 0dbd fb9f 1ebd
00000050: 5f75 5b3d 72c1 a23d 4df2 93bc 3b27 763d
00000060: deec 283b e3eb 7abd 4c33 afbd d153 63bd
00000070: 87d9 a63c 27dc 0b3d 5410 f1bc 6418 b1bc
-0.019816019 0.028205069 -0.04603477 -0.027428074 -0.028620487 0.038983267 0.0031232876 0.012827579
0.042102434 -0.051538054 -0.2586897 -0.085046515 0.034181274 -0.024183787 -0.036977306 0.02969923
-0.06753785 0.011621823 -0.03450339 -0.038726788 0.05357873 0.07947053 -0.018059874 0.060096007
0.002577595 -0.061260115 -0.08554706 -0.055499855 0.020367397 0.0341455 -0.029426731 -0.021618076

net.flow_mapping.0.affine_layers.0.net.8.weight f4 [32, 32]
00000000: 19a5 243d f6e1 793d 0e20 0ebc b7f2 fb3c
00000010: 5df7 743d e2d2 d83d 7528 a7bc 5d0b 793d
00000020: 710e 953c d873 1c3d 5b44 22bd e263 b7bd
00000030: 0586 143c cc75 61bd b823 abbc 9bd7 7c3c
00000040: 2def e5bb 9f51 15bd a916 3c3d 1bfa 2b3d
00000050: 3c0e 23bd f63a d03d e9b3 e83c 80b2 adbc
00000060: e14c 3c3d 88aa 35ba b03e 36bd 7887 ebbc
00000070: fdf5 983d ec66 6cbc a3d8 773d ac16 8b3d
00000080: ccaf 323c a66c 72be 1cf4 353d 272b 333a
00000090: c25a 56bc 7510 ddbd 4157 29be 6faf 893d
000000a0: 0ff7 0ebd 1d8a ed3c a3fe 50be 8caf 5fbd
000000b0: a268 5bbe 9da8 cdbc 8ed1 37bd 4992 7bbe
000000c0: ff62 70be 35b8 81bd 692e 5c3c 59fe 303d
000000d0: d884 333d 20b2 46be 5e09 28be ab4f 693d
000000e0: acf4 9b3d 8fa0 d23c 7953 97bb fc79 423d
000000f0: fc8b 44bb d58a 4d3d 7e51 1abe 5cb2 54be
00000100: c339 bebc f83f 3ebc 35ee 0fbd bfb8 3bbd
00000110: 8dd6 753d d988 a13d 97f3 663d c3c5 18bb
00000120: 2386 053d a614 04bd c42d 903d ed9c 8d3d
00000130: e299 8c3d 2a68 8abd 81a1 8abd 67c1 8f3d
00000140: 8a6d e33c 5e06 823d 46e5 8e3c d987 4c3d
00000150: e85c 123c 7442 2e38 1b45 c43d 806f 87bb
00000160: 0fc6 883c 1963 163d c9b5 85bc 5ecd cb3b
00000170: cbb8 4d3c 0323 4c3d 4ca1 c33d cd4b 303d
00000180: 3fba 003c fcce ba3d 12b3 33bd fa7c 21bd
00000190: 8ebb 13bd 9767 a23d 8b81 a13d 9728 9b3d
000001a0: 57c4 563d 5f20 edbc d303 3e3c 3236 8f3c
000001b0: 5335 22bc 30bf 763d eb33 5cbd c81f 703d
000001c0: 1090 0b3d b2d3 983d d557 993d 0e28 9ebd
000001d0: aa03 063d a5d1 b9bb 47e7 c1bc 6f9b a33d
000001e0: 9e98 f03c 8981 993d 9f42 47bd 7251 92bc
000001f0: 2a7e 0d3d 9064 393d 3751 a3bc d2dc b73a
00000200: 8110 9a3c d79e 38bd 4809 66bd 9ee4 d03d
00000210: 844f 533d 46bf 7f3d 9097 123d 508e 9fbd
00000220: 8e44 723c c2ce b1bb 3404 91bd cf4f b1bd
00000230: 3166 1bbd 8b55 353b bf57 983d 4c52 f53c
00000240: 5ef9 913b a0f2 e7bc bbed 383d b111 9abd
00000250: e333 94ba 0c2c c23d de3f 8e3d 6594 bbbc
00000260: 1c68 aa3d 53fb 1fbd b438 d83c 933a 6bbd
00000270: 12c1 f5bb 4d40 3cbd 4630 3ebd f335 d03d
00000280: 4496 8a3c 5f62 9a3c f40e 25bd e5d7 fc3c
00000290: f761 243d 0a8c 2e3d 2788 b1bd 83e9 8c3d
000002a0: 3fa8 b6bd 33e5 003c fb7e 993d 0a58 22bd
000002b0: cff5 9d3c df71 5c3d 9bea 933d 1c89 fc3c
000002c0: b092 d9bc 4388 173d 9622 12bb 6854 433c
000002d0: 4af4 4fbd e3ad 45bd 59c1 ff3c fe81 84bb
000002e0: e87a 5cbd a74c 2f3c 8ddd 04bc e260 6b3d
000002f0: bbcb 1e3d cb05 023d 2e02 12bd 3bd6 693c
00000300: dcad adbb fa5c 23bd b02c 9bbd 71e5 cebd
00000310: f060 8dbd c62f 79bc 45cd b5bd d8c9 253d
00000320: 4b12 a1bd 51fe 56bd 0ac6 3ebd 38d1 bebd
00000330: 1c40 dfbd 5cf2 00bc b1af 32bc 86ba 963b
00000340: 5867 94b9 250b 853d 5df1 80bd ae15 5d3b
00000350: 2306 a43c 8d10 9e3c 1e8e da3c dd2a 53bb
00000360: 98d2 173d b0a1 453d e333 603c a5a3 dc3c
00000370: 3f93 08bd 9a00 2bbd 8714 bab9 423f 41bc
00000380: 80f7 76ba 0d8e 9abd 8c39 d3bc de8f a23d
00000390: d815 68bd 0a8f 1bbd fb92 90bd b695 8cbd
000003a0: cbf3 853c efe1 193d 3fb6 153d cd27 8dbc
000003b0: b25c 1f3d 9a6d 78bc f0c8 0e3d 6c2d 80bc
000003c0: 0746 cf3b 2704 3e3d f36e 10bd 7e26 863c
000003d0: 62fc 7cba 40da 8cbc 1303 96bc aa8a 123c
000003e0: 34e7 23bd 31fb 8cbd 685a 45bd 67a1 213d
000003f0: b359 eabc 9108 e6bc 3a84 623d 1452 a0bd
0.040196512 0.06100651 -0.008674635 0.030755384 0.059806217 0.10587098 -0.020405034 0.060801852
0.018195363 0.038196415 -0.03961597 -0.08954598 0.009065156 -0.05504398 -0.020891055 0.015432264
-0.0070170374 -0.036454793 0.045920048 0.041986566 -0.039808497 0.10167496 0.0284061 -0.02120328
0.045971755 -0.0006930013 -0.044493377 -0.02875112 0.074687935 -0.014428835 0.060509335 0.06791434
0.010906171 -0.23674259 0.044422254 0.00068347383 -0.013083162 -0.107941546 -0.16537191 0.067229144
-0.034903582 0.028996522 -0.20409636 -0.054610774 -0.21426633 -0.025104815 -0.04487758 -0.24567522
-0.23475264 -0.06333963 0.013438799 0.043211315 0.04382786 -0.19403887 -0.16409823 0.056960743
0.07615027 0.025711326 -0.004618105 0.047479615 -0.0029990664 0.05018123 -0.1507015 -0.20771164
-0.023220902 -0.011611931 -0.03513928 -0.045830484 0.060019065 0.0788743 0.05638465 -0.0023311235
0.032598626 -0.032246254 0.07039979 0.06914697 0.06865288 -0.06758149 -0.06769086 0.070193104
0.027762193 0.06348871 0.01744331 0.049934242 0.008933283 4.1546722e-05 0.09583493 -0.004133165
0.016696004 0.0367156 -0.016322033 0.00621955 0.012556265 0.049838077 0.09552249 0.04304104
0.0078569045 0.091215104 -0.043871947 -0.039425828 -0.036067538 0.079299144 0.078860365 0.07576101
0.052433338 -0.0289461 0.011597591 0.017481897 -0.009900409 0.060240924 -0.05376045 0.05862406
0.034072936 0.07462253 0.07487456 -0.077224836 0.032718338 -0.0056707435 -0.023669852 0.07988631
0.029369649 0.0749541 -0.04864752 -0.017861102 0.034544148 0.04526192 -0.019936187 0.0014027602
0.018806698 -0.045073356 -0.056161195 0.10199855 0.051589504 0.062438272 0.035789073 -0.07790816
0.0147868525 -0.005426259 -0.0708088 -0.086578004 -0.037939254 0.0027669396 0.07438611 0.029946469
0.0044547757 -0.028313935 0.045148592 -0.075229056 -0.0011306967 0.094810575 0.069457754 -0.022897908
0.083206385 -0.03905804 0.026394226 -0.057428908 -0.0074998224 -0.04595976 -0.046432756 0.1016654
0.016917355 0.018845735 -0.040297464 0.030864665 0.04013249 0.04261402 -0.08668547 0.06880476
-0.08918809 0.007867145 0.07494923 -0.03963474 0.01928225 0.053819533 0.07222482 0.030827098
-0.026559204 0.036995184 -0.0022298447 0.0119219795 -0.05077008 -0.048261534 0.031220125 -0.0040438166
-0.05382815 0.010699428 -0.008109462 0.05746544 0.03876851 0.031743806 -0.03564661 0.014272268
-0.0053002667 -0.03988359 -0.07576883 -0.10102356 -0.06903255 -0.015209144 -0.08877043 0.040475696
-0.07864817 -0.05248863 -0.046575584 -0.09317249 -0.109009 -0.007870283 -0.010906146 0.004599872
-0.00028305757 0.06496266 -0.062960364 0.0033734846 0.020022457 0.019295001 0.026679095 -0.0032221593
0.037066072 0.0482499 0.013684246 0.0269335 -0.03334355 -0.04174862 -0.0003549198 -0.011794867
-0.00094210356 -0.07546625 -0.025784276 0.07937597 -0.056661457 -0.03797821 -0.07059284 -0.068644926
0.016351601 0.037568983 0.036550757 -0.017230893 0.03890676 -0.01516285 0.034859598 -0.015646659
0.0063254866 0.04639068 -0.03526206 0.016375776 -0.0009650645 -0.017193913 -0.018312013 0.008944193
-0.040015414 -0.068838485 -0.04818192 0.039460566 -0.028607225 -0.028080257 0.055301882 -0.07828155

net.flow_mapping.0.affine_layers.0.net.8.bias f4 [32]
00000000: 600b debb abd4 eabd e424 37bd 7522 763d
00000010: 92a1 2d3b 7cd6 98bd 26db 2b3d ad86 acbc
00000020: c2e3 973d a092 39bd fb39 9eba 6065 32bf
00000030: 3d2d 64bd 9fac d03c 8c91 0bbd e25c 933d
00000040: 223d 8ebd ac47 c83c 20e2 87be e70f 22bd
00000050: 4a7b 5abd 5a8c cebc bbb9 05bd 817d d3bd
00000060: 0b95 9dbd dc2a 4ebd 43af 833d 7977 d53b
00000070: 3f34 c8bc d60e 1dbd 72b3 93bc 1546 b3bd
-0.0067762583 -0.114663444 -0.044712916 0.060091455 0.0026494008 -0.07462785 0.041957043 -0.021060312
0.07416488 -0.045305848 -0.0012071723 -0.69685936 -0.055707205 0.025472937 -0.03407435 0.0719545
-0.06945254 0.024448238 -0.26539707 -0.039565947 -0.053340234 -0.02521341 -0.03264783 -0.10326672
-0.07694443 -0.050333843 0.06429913 0.0065144864 -0.024438975 -0.038344227 -0.018029902 -0.087536015

net.flow_mapping.0.affine_layers.0.net.10.weight f4 [2, 32]
00000000: 5125 d1bd 5dbc 143e ca58 ccbd c1f3 93bd
00000010: 5d25 6fbd 6188 183d 4363 c9bc 4d36 f2bc
00000020: 744c 44bd 107d e1ba 70da ae3c ba65 17bf
00000030: c404 223d 8518 62bd 7fb0 c4bc 306a 2abd
00000040: 3041 5bbd c2ad 02bd 4748 2cbf 382d 853c
00000050: ffea a23d d448 b9bc 0162 763d 9f5b 3a3d
00000060: b73b 98bb ec6b cebd a89d f8bc f365 553d
00000070: eeaf d33c 1740 60bd 2841 583d 5899 0ebd
00000080: 30ba b5bb 8b49 863d 7475 c1bd 826b 163c
00000090: f0e6 963c 805c debb cdec fbbc 92d8 833b
000000a0: 910d 69bd d2b5 6cbc 0932 9b3b a573 29be
000000b0: 5b85 c73d e606 803d 78e7 a8bd e5e4 9dbd
000000c0: 7857 12bd e4a1 afbd 5780 68c0 8809 9bbd
000000d0: 559f 873d e250 28bd 613d 4b3c 1d02 ccbd
000000e0: 7f3a 563b f471 97bc c904 003d 3c38 2ebd
000000f0: 4a0d 873c fb26 a2bc e19b 1f3d 875e 473d
-0.10212196 0.1452498 -0.09977873 -0.07224227 -0.05838524 0.037239436 -0.024583464 -0.029566908
-0.047924474 -0.0017203409 0.021344393 -0.591396 0.039555326 -0.055199165 -0.024009941 -0.041605175
-0.053528965 -0.03190399 -0.67297786 0.016256914 0.07954978 -0.022617735 0.060152058 0.045497533
-0.0046457904 -0.10079178 -0.030348614 0.05209918 0.025840726 -0.05474862 0.052796513 -0.03481421
-0.005545877 0.06556996 -0.094462305 0.009180905 0.018420666 -0.006785929 -0.030752564 0.00402362
-0.056897704 -0.014447646 0.0047361893 -0.16548021 0.097422324 0.06251316 -0.08247274 -0.07709674
-0.035727948 -0.085758 -3.6328332 -0.07570177 0.06622187 -0.04109276 0.012404771 -0.099613406
0.0032688675 -0.018486954 0.031254563 -0.042534098 0.016485829 -0.019793978 0.038967017 0.048674133

net.flow_mapping.0.affine_layers.0.net.10.bias f4 [2]
00000000: 0581 bdbc da92 18bd
-0.02313281 -0.037249424

net.flow_mapping.0.affine_layers.1.net.0.weight f4 [32, 1]
00000000: 4afa 3cbe 92ce 843e c10c 0b3e 9f35 76be
00000010: 5087 6ebd 781d b13d 4ca2 e5be 9caa b9be
00000020: d4d1 b63e fd93 bd3d 0305 a6be b896 66be
00000030: ab84 82be 03e2 9c3e b275 673e e6cc dfbc
00000040: 8571 d9bd 4191 723e 8eb8 183e f569 993d
00000050: 4dd0 b0be 949d adbe 607e babe a6a2 2cbd
00000060: 4ba7 94be daab 163e 3cb3 913d 9f45 ddbe
00000070: 3086 93bd f42d 65bd d574 36be e865 5abd
-0.18454853 0.2593885 0.13579084 -0.24043892 -0.058234513 0.08648199 -0.44850385 -0.36262977
0.3570696 0.09256742 -0.324257 -0.22518432 -0.25491843 0.30641183 0.22603491 -0.027319383
-0.10617355 0.23688222 0.14914152 0.07490913 -0.3453392 -0.33909285 -0.3642454 -0.0421473
-0.29033884 0.14713994 0.07114264 -0.4321718 -0.072033286 -0.055952027 -0.17818005 -0.05331984

net.flow_mapping.0.affine_layers.1.net.0.bias f4 [32]
00000000: 68da 783e 2700 c53e c02b a63e e3d4 d0bc
00000010: f270 07bd fd3d 96be 5057 9b3c 5266 e73e
00000020: ffad 983e a674 a23e 9939 10be f4c1 da3e
00000030: a1ef d2be d38b 933e 272c a83e bdd9 353e
00000040: f2f4 dd3d 0f86 363e 30f1 e03d 3437 443c
00000050: b34f 3dbe bccf a1be c9d2 98be dbcc 573d
00000060: 28ea 8d3e a298 80be 0b42 d53e f538 923e
00000070: b24e bebe 446d 4f3e 39bf b7be 5039 02bd
0.24302065 0.3847668 0.32455254 -0.025492137 -0.033066697 -0.29344168 0.018962532 0.45195252
0.29820248 0.3172962 -0.14084472 0.427261 -0.41198447 0.28817615 0.32846186 0.17758842
0.10837735 0.17824577 0.10983503 0.011976052 -0.18487434 -0.316038 -0.29848316 0.0526856
0.2771771 -0.2511645 0.4165195 0.2855908 -0.37169415 0.20256525 -0.3588808 -0.03179294

net.flow_mapping.0.affine_layers.1.net.2.weight f4 [32, 32]
00000000: 391e bcbb 26eb ff3c 8688 183c d2f9 58bc
00000010: 1aa9 9ebb edd2 2b3d 3f0b c43c be82 343c
00000020: dd6b 873d bc40 8c3c 0e97 533d f31e 88bd
00000030: ee53 a4bc ddc0 0cbd a603 7d3c d939 22bd
00000040: 37e0 05bd 516b 9e3d 4a2a 7c3d 8abb a13d
00000050: 1806 30bd b708 a93c 2a39 e83c 842c 63ba
00000060: 6c15 9e3c 402d c6bc b835 353d 203f 0cbd
00000070: f83e 393d 8571 f13c 65a7 3b3d 1d7c e23b
00000080: deb1 a1bc a85e 33bd c5bc 293d e55e 153d
00000090: 9f56 8ebd ea4b d23b b6b1 1fbd aa3a 273b
000000a0: a1fb 50bc f391 c43c 4325 a1bd 7ae3 0d3d
000000b0: 72ed d83c f235 4f3d 299a 94bd 1668 f5bc
000000c0: c9d5 cebc f5d9 eb3c 2c8f 803d 9411 463d
000000d0: 7e44 383d e26b 973c 6f1c ec3a 2225 eebc
000000e0: 1ca3 493d bef4 f9bc 1883 59bd e6b4 5d3c
000000f0: 8e8d 94bd d852 07bd 4d66 15bd 89a0 18bc
00000100: ba08 0d3d 9704 33bd f596 e5bd 58b1 893c
00000110: 3475 023d 19be 40bd b46f 413d 03a5 69bd
00000120: 1074 173d b697 e33c 50d8 b739 45fe 2fbc
00000130: dc5c 4e3d 2283 1dbd 24ce fb3c ae1e 073d
00000140: 5186 103d 3539 023c 9154 1a3d 120e 39bd
00000150: ea0d c0bc 8d8b 293c aac3 48bc 8bb1 853d
00000160: 8890 98bd f21a ce3c 3015 183d 3f28 41bd
00000170: a589 293a 44ad 0f3d eb20 403d ac8e f9bc
00000180: 8e4a 433d a912 60bd b6ad 9bbd bb90 2c3d
00000190: f342 8ebd b27f 31bc ba95 cbbc 0bc4 04bd
000001a0: faaa 723c aa0a 283d 6d8d 8c3d 5fe5 483d
000001b0: 19d6 ffbc 89b1 713d 3b94 90bd 8b77 883c
000001c0: 9c2d 5dbd e050 72bd 3a41 66bd b18c 8f3d
000001d0: 371f 90bd b15e 873c 9ae2 873c 665f 84bd
000001e0: ea49 783c b1ff 053d 854e 49bd cfab 5b3d
000001f0: 3c51 1b3d 64ce 0a3d ba78 68bd c1b7 95bd
00000200: 5cbb 833d 1d98 a3bd ddb1 c8bd 0896 e1bc
00000210: 897d 5fbd ac24 00bc e585 29bd c48a 383c
00000220: 5e61 123a 8b99 b6bd 98e8 8cbd a3cd 75bd
00000230: 0c51 81bd e4f1 523d 6577 8c3c 02fb 2ebd
00000240: 5f89 fdbc 9a0e b2bc 6169 84bd f85b 343c
00000250: 611a 64bd d311 1e3c 6a83 933d 4662 39bc
00000260: 2897 093d 8891 80bd 20ac 1ebd 1c49 63bd
00000270: 8ecc b9bc 851d 4c3b 14a6 40bc 3ec1 d5bc
00000280: 589d b4bb 8bda 3fbd 52da 993d 4b71 c6bc
00000290: eca1 02bd 10b8 97bd 13ef 383d f044 0f3d
000002a0: a983 43bd c96c 2e3d cecd 81bc 6e52 2cbd
000002b0: 3d1f ff3c b4a9 f03c c826 51bd 603e 2abd
000002c0: f7f2 123d b197 80bd 9d90 f63b 678e 2abd
000002d0: 20d2 323d ecfb 2b3d 2956 81bd 8d09 edbc
000002e0: f9f6 a23d 4a60 b33c c97b c0bc 7119 96bd
000002f0: 63a6 f03c ef4e 01bc d465 1bbd 7c97 4d3d
00000300: 0ba0 7c3d 99ec c03c f262 1a3d 80ba 6ebc
00000310: 2d96 6dbd 7fb7 cebd a6d3 1bbd 4328 a43d
00000320: 4d67 8abd 8e4a a7bd 01c4 a13d a278 533d
00000330: 5515 34bd 6477 1cbd b72e 323d 7430 5dbc
00000340: 1875 f53b f747 1bbd db1d d1bd a901 c2bd
00000350: dc3c 363d 7b23 64bd 747f 513c 1c2e cbbc
00000360: 20da 23bd 2a6a 093d e2d9 aebd fc87 d33c
00000370: f12a 97bd f398 073c d377 3f3c 67fe a13d
00000380: 1289 8a3d 201d cb3b 1e37 efba c125 263d
00000390: c0a1 c7bc 173e b6bd a0fb 93bc 17d1 29bc
000003a0: 6411 283d 3617 c03c 7fa0 85bd 7f5c 5f3d
000003b0: 2288 543c 8b11 47bd 09b7 c33c 0864 8bbc
000003c0: c321 a3bd f0e6 95bd 8169 92bd 5942 e8bd
000003d0: dc0c 95bd a493 953d b77b f2bc d445 ea3c
000003e0: 61be 56bd 8f0a 773c afea 2f3c b3c0 653d
000003f0: f658 ef3a df77 c1bc 9a31 7c3d f9ac 9d3c
-0.0057409075 0.031240057 0.0093098935 -0.013243156 -0.004841936 0.0419492 0.023931144 0.0110174995
0.0661237 0.017120712 0.05165773 -0.06646528 -0.020059552 -0.034363616 0.015442764 -0.03960595
-0.03268453 0.07735313 0.061563767 0.07897098 -0.04297456 0.020634038 0.02834757 -0.0008665996
0.019297324 -0.024191499 0.044240683 -0.03423989 0.045226067 0.029473076 0.045813937 0.006911768
-0.019738134 -0.043791443 0.04143979 0.03646745 -0.069501154 0.006417741 -0.038987838 0.0025517144
-0.0127553055 0.023995375 -0.07868435 0.034640767 0.02648041 0.050588556 -0.07255966 -0.029956859
-0.025248425 0.028790453 0.06277308 0.048356608 0.044987194 0.01848406 0.0018013845 -0.02907044
0.04922782 -0.03051221 -0.053103536 0.013531899 -0.07253562 -0.03303799 -0.036474515 -0.009315618
0.03443215 -0.04370555 -0.112104334 0.016808197 0.031850055 -0.04705629 0.04722567 -0.057042133
0.03697592 0.027782302 0.00035065645 -0.010741775 0.050381526 -0.038455136 0.030737944 0.032988243
0.035284344 0.0079482095 0.037678305 -0.045179434 -0.023444135 0.010348213 -0.012253681 0.06528004
-0.07449442 0.025159333 0.03712958 -0.047157522 0.0006467349 0.03507735 0.046906393 -0.030463539
0.047678523 -0.054705296 -0.07601492 0.042130213 -0.06946363 -0.010833668 -0.024851669 -0.032413524
0.014811272 0.041025795 0.06862912 0.04904687 -0.03123002 0.0590072 -0.07059523 0.016658565
-0.053998575 -0.05915916 -0.05621455 0.07009257 -0.07037204 0.016524645 0.016587544 -0.06463508
0.015154341 0.03271455 -0.049147148 0.053630646 0.037919268 0.033888236 -0.05675576 -0.07310439
0.0643222 -0.07987998 -0.0979955 -0.02753736 -0.05456308 -0.007821243 -0.041387457 0.011263553
0.0005583967 -0.08916005 -0.06880301 -0.060010564 -0.063142866 0.051500216 0.017146775 -0.04271985
-0.030949293 -0.021735478 -0.06465412 0.011008255 -0.05568922 0.009647804 0.072027996 -0.011314934
0.03359142 -0.06277758 -0.03873837 -0.055489644 -0.022680547 0.0031145525 -0.011758346 -0.026093122
-0.005511921 -0.04683928 0.075123444 -0.024223944 -0.031892702 -0.07408154 0.045149874 0.034977853
-0.047732983 0.042584214 -0.015845206 -0.0420708 0.031142825 0.029377796 -0.051062375 -0.04156339
0.03587624 -0.06278933 0.0075245635 -0.04163971 0.043657422 0.0419883 -0.06315262 -0.028935218
0.079572625 0.0218965 -0.023496525 -0.07329071 0.029376214 -0.007892354 -0.037938908 0.050193295
0.061676066 0.023550319 0.037692018 -0.014570832 -0.058004547 -0.10093593 -0.03804364 0.08015492
-0.06757984 -0.08168517 0.07898713 0.051628716 -0.043965656 -0.038199797 0.043501582 -0.013500322
0.0074907653 -0.037910428 -0.102107726 -0.09472973 0.044491634 -0.0556979 0.012786735 -0.02480226
-0.040002942 0.03354851 -0.085376516 0.025821678 -0.07381237 0.008276212 0.011686283 0.079098515
0.06764425 0.0061985403 -0.0018250679 0.04056335 -0.02436912 -0.088985614 -0.01806432 -0.010364792
0.04103221 0.023448568 -0.06524753 0.05453157 0.01297191 -0.048600715 0.023890989 -0.017015472
-0.07965424 -0.073194385 -0.071490295 -0.1134078 -0.07277843 0.07303551 -0.029600007 0.02859775
-0.052427653 0.015078201 0.010737105 0.056091975 0.0018260765 -0.02361673 0.06157074 0.019247519

net.flow_mapping.0.affine_layers.1.net.2.bias f4 [32]
00000000: 30a5 a8bd 2500 183d eec7 aebc aff7 3ebd
00000010: 837d 303d df8a 343d 0f64 8abd 24fc cebd
00000020: 301f cdbd 98c5 24bd 5296 593a 5404 a4bd
00000030: 1ee8 033c 4b4e 36bc 63d4 90bc dffb e3bc
00000040: cbe7 53bd bff7 7cbd 5233 293e 7b73 efbc
00000050: 65d8 c73d a7a0 c9bb f642 1e3d 81af 5f3d
00000060: a08d 973c b4d7 3d3d 5442 243d f5f4 21bd
00000070: c062 9b3c a83d 613d d5db 7bbc 9bfe 833d
-0.08234632 0.037109513 -0.021335568 -0.04662293 0.043088447 0.04407775 -0.06757366 -0.10106686
-0.10015714 -0.040227503 0.00083002925 -0.08008638 0.0080509465 -0.011127065 -0.017679399 -0.027830062
-0.051734727 -0.061759707 0.16523483 -0.02922987 0.09758071 -0.0061531845 0.038638078 0.054610733
0.01850015 0.04634829 0.040102318 -0.03954025 0.018967986 0.05499044 -0.015372236 0.064450465

net.flow_mapping.0.affine_layers.1.net.4.weight f4 [32, 32]
00000000: 5cec 4d3c 7be1 ea3c 5a23 31bd ac0b c83c
00000010: 1a6e 6dbd 9f52 6ebc 7c41 29bd e36f babb
00000020: 23d6 65bd 37ee 03bd df79 063d 6ff4 4dbd
00000030: 3276 43bd bf62 94bd 08bb 8a3d f7e8 0fbd
00000040: 9dab fabc d269 3139 fdc8 f83a e85a 86bd
00000050: d283 2c3c ee5b 613d 7a6a a3bd a88b 863c
00000060: deba 863d 1cfd 893b ea6d 0a3d d2bc e3bc
00000070: 4374 3abd df85 17bc 293b 333d c58e 8c3d
00000080: 6413 293d 3fe6 953c 2d6e 903d 6257 1fbd
00000090: 2740 c53d aea0 a3bd 2655 693d 11a7 793d
000000a0: aaff b2bb 3918 37bd ba19 0a3c 9235 e3bc
000000b0: 86be d03d 9dd2 7eba 1888 9d3d b634 893c
000000c0: b07f 05bc 813a eabb 2e4f f23d 4047 c63d
000000d0: a60a 743d 4feb 2bbd 4993 94bc 4974 7b3c
000000e0: b878 14bd 58e3 9ebd f775 d0bc 3fd2 82bd
000000f0: d713 a83b 461b 313c 93a4 bd3c fb28 b73c
00000100: 184b 42bc 0098 123d 5c7d f4bc 5d43 85bc
00000110: 6977 323d 1ce1 4cbd 3a36 cb3d 198f e33c
00000120: 3f6d c1bb 561f d23d 5a64 773d 5614 443d
00000130: 8ea2 073d 3457 343d bc7b f03c f69d 3c3c
00000140: 3af8 fbbc 7967 893d 4622 06bd 3ac0 bcbb
00000150: 1527 d63d aca6 84bd 06ca 653d 6c14 8c3c
00000160: 5ce6 6d3d 07c1 7cbd b0f7 b1bc 2ea2 86bd
00000170: 9f1b 383c 7fb7 1f3d b44d b33c ab4b 133c
00000180: 65a4 4e3c 4608 4a3d a813 5c3c a39e 18bd
00000190: e377 b53c 8f92 adbc 80fd 153d 5cc4 a3bd
000001a0: dce6 293d c3ac c0bd 0fe1 c9bd 62c8 713c
000001b0: 71d4 8abd 519f a83c d1df 03bc 1c85 b2bd
000001c0: ab43 993b 36a8 513d 7629 95bd 4716 363d
000001d0: 7a86 b9bc 2009 2c3d 3a0c 84bd 2a55 62bd
000001e0: a3ab 7abc 7c50 0a3d 3429 6ebd a695 28bd
000001f0: ceaf 73bd 6a1b 883c 3785 1fbd 7801 9ebd
00000200: f5ba b43c 62a7 cebc 0ae2 66bc c1f1 013d
00000210: 059b 873d 4833 2abd a858 3f3d 23dc 133d
00000220: 77fc d1bc 806a 923d 4e62 2b3d c4d1 8d3d
00000230: c1d9 8a3d 23dd 373c 16ab 83bd 096e 2b3d
00000240: 8f21 7fbd 6e2d 02bd 4a04 50bd 31b0 13bd
00000250: 71e1 813d 1204 023d 646e c4bd 7ee3 47bd
00000260: 4f46 b5bb ebed 193d 7f7f 47bd ad6f b13b
00000270: df2c 0abd b466 f63c 3268 8fbd 0916 87bd
00000280: 9ae7 8bbd c881 30bd b5f3 74bd 9531 403d
00000290: f9c0 7fbd 60fb d23c 881a 173d 9d19 0bbc
000002a0: 1b97 81bd 899c 55bd b116 9dbd d011 a2bd
000002b0: 4b65 57bd 3402 103b 8943 9abd 2914 64bc
000002c0: 728b 9c3d 9546 95bd 0eba 55bd 548b 2fbd
000002d0: 68bd 39bd 052f 003d d530 c8bc 7927 293b
000002e0: 49bb 8e3d 2061 38bc 40ef 8bbc 268e 3a3d
000002f0: 3a23 40bd 894a 54bd e09b 8fbd 249c a9bc
00000300: add8 9f3e 4300 973e 4717 07bd f45a e93c
00000310: 5757 4b3d d7ee 40bd 2d32 69bc 0e98 b83d
00000320: 50f3 4dbd 7420 a13e e200 873e ee67 8b3d
00000330: 043a d13e 451f 62bd e2d0 9d3e 92e0 313d
00000340: 34c4 2bbd 7148 f33b 33b4 fc3e a404 e43e
00000350: 3cf6 e73e f160 c83c fefa d73e 5d50 5dbd
00000360: 5069 39bd 9fb2 4d3d ec02 353c fce1 7bbd
00000370: ac93 803d 5eff 893d 23cf 38bc 70e3 96bd
00000380: e12b b2bc 6159 7dbc 6878 bebd 4508 9ebd
00000390: f43b 93bd a6e1 17bd bf56 f0bc b69f b2bd
000003a0: 43ad a7bd 07fa 3abd 70c3 6ebd 0f03 26bc
000003b0: f07e 96bd 08a1 c0bd 952c 85bc eb08 b73c
000003c0: 319b 093d 0b9b 92bc a8ee 9abd d52f 213d
000003d0: d3d2 973b 7f54 993d 177f 233d ad02 abbb
000003e0: 5c85 9ebd 5a9c fdbc c740 93bd 82b3 a1bd
000003f0: 6442 a1ba 10bc 933d 2950 edbc 7fde 073b
0.0125685595 0.02867197 -0.043246605 0.024419628 -0.05796633 -0.014546066 -0.041322216 -0.0056896075
-0.05611242 -0.0322096 0.03283107 -0.05028194 -0.04772014 -0.07245397 0.06773955 -0.035134282
-0.03059941 0.00016919457 0.0018980798 -0.06560308 0.010529475 0.05501931 -0.07979293 0.016424015
0.06578611 0.004211081 0.03379623 -0.027799997 -0.045521032 -0.009248226 0.04375759 0.068631686
0.041278258 0.018298266 0.07052264 -0.038901694 0.09631377 -0.079896316 0.05696597 0.060950343
-0.0054626064 -0.044700835 0.008428985 -0.027735505 0.101925895 -0.0009720715 0.076919734 0.016748767
-0.008148119 -0.0071480875 0.118315086 0.096815586 0.059580468 -0.041972455 -0.018136637 0.015347549
-0.03624794 -0.07758206 -0.025446875 -0.063877575 0.005129318 0.010809725 0.023149764 0.022358408
-0.011858724 0.03578949 -0.029844932 -0.016267473 0.04357091 -0.05001937 0.09922452 0.027778195
-0.0059029157 0.10259883 0.060398437 0.047870956 0.03311401 0.044028476 0.029355876 0.01151227
-0.030758012 0.06709189 -0.03274753 -0.00576022 0.10456673 -0.06477103 0.056100868 0.017099582
0.058081016 -0.061707523 -0.021724552 -0.06573902 0.011237054 0.038993355 0.021887638 0.008990209
0.012612437 0.049324296 0.013432421 -0.037260663 0.022151893 -0.021188049 0.03661871 -0.07996437
0.04147993 -0.09407952 -0.0985738 0.014757248 -0.06778801 0.02058378 -0.008048967 -0.08716795
0.004677256 0.05118581 -0.07283299 0.04445484 -0.022647131 0.04200089 -0.064476445 -0.055257
-0.01529971 0.033768162 -0.058144763 -0.04115834 -0.059493832 0.016614635 -0.038945403 -0.07715124
0.022061804 -0.025226299 -0.014091978 0.031724695 0.066213645 -0.04155281 0.04671541 0.03609861
-0.02563308 0.071492195 0.041841798 0.06924775 0.067798145 0.011222157 -0.064291164 0.041852985
-0.062287863 -0.031781606 -0.05078534 -0.0360567 0.06341828 0.031742163 -0.09591368 -0.048800938
-0.005532063 0.037580412 -0.048705574 0.005414924 -0.0337342 0.03007827 -0.070022956 -0.06596
-0.06831284 -0.04309252 -0.05980273 0.046922285 -0.062439892 0.02575463 0.036890537 -0.008489993
-0.06327649 -0.052151237 -0.07670344 -0.07913554 -0.052586835 0.002197397 -0.075324126 -0.013920822
0.076437846 -0.07288853 -0.05217939 -0.042857483 -0.045346648 0.03129484 -0.024437347 0.002581088
0.069693156 -0.011253625 -0.017081857 0.04554572 -0.046908595 -0.051828895 -0.07012153 -0.020704336
0.31219998 0.29492387 -0.032981183 0.028485753 0.04964384 -0.047102775 -0.014233154 0.09013377
-0.05028087 0.31470072 0.2636786 0.068069324 0.40864575 -0.055205602 0.30823427 0.043427058
-0.04193516 0.007424407 0.4935623 0.4453479 0.4530505 0.024460288 0.4218368 -0.05403172
-0.04526645 0.050219174 0.01104806 -0.061494812 0.06278166 0.067381606 -0.011279854 -0.07367599
-0.021749439 -0.015463204 -0.093003094 -0.07716421 -0.071891695 -0.03708043 -0.029338239 -0.08721869
-0.08187344 -0.0456486 -0.058291852 -0.010132565 -0.0734843 -0.09405714 -0.01625661 0.02234312
0.033595268 -0.017896196 -0.07565051 0.039352257 0.0046332865 0.074868195 0.039916124 -0.005218825
-0.0774028 -0.030958343 -0.0719009 -0.078955665 -0.0012303111 0.072136045 -0.028968887 0.0020731983

net.flow_mapping.0.affine_layers.1.net.4.bias f4 [32]
00000000: afc8 913d 63fe ddbc 8e9c 943c 3fb1 95bb
00000010: 31fa fbbe 7ddd 903d 76c1 9e3f 705d c3bd
00000020: a542 c7bc a7d8 cdbc 8d6a 99bd 2422 afbb
00000030: f43b f63c 6233 39bd 2ff7 17bd 84b3 28bd
00000040: 582f dc3c 8e41 553d bbee 70bd 20ee 7abd
00000050: 5e46 283d b5f0 9a3d 63db b63b eff3 233d
00000060: 4a98 abbd 1f6f dabc 0627 c73e d33f 26bd
00000070: 0d8e 8e3b 4fe9 183d 4c59 afbc 983c 533d
0.071183555 -0.02709884 0.018141057 -0.0045682485 -0.49214318 0.070734955 1.240279 -0.09539306
-0.02432377 -0.025127722 -0.07491026 -0.005344646 0.030057885 -0.045215018 -0.037100967 -0.041186824
0.026878044 0.05206447 -0.05882142 -0.06126225 0.041082732 0.075654425 0.005580352 0.040027555
-0.08378656 -0.026664315 0.3889696 -0.04058821 0.00435043 0.037331875 -0.021404885 0.05157146
