param/model_2e4data_iter800000_my_data_10_32_5.pth (torch, 251211 bytes, 174 tensors)

net.rotations.0.LU f4 [2, 2]
0.0 0.0 0.0 0.0
00000000: 0000 0000 0000 0000 0000 0000 0000 0000

net.rotations.0.LU_init f4 [2, 2]
1.0 0.0 0.0 1.0
00000000: 0000 803f 0000 0000 0000 0000 0000 803f

net.rotations.0.ones_mat f4 [2, 2]
1.0 1.0 1.0 1.0
00000000: 0000 803f 0000 803f 0000 803f 0000 803f

net.rotations.0.I f4 [2, 2]
1.0 0.0 0.0 1.0
00000000: 0000 803f 0000 0000 0000 0000 0000 803f

net.flow_mapping.0.scale_layers.0.b f4 [1, 2]
-0.5405118 -0.28393066
00000000: fb5e 0abf 5c5f 91be

net.flow_mapping.0.scale_layers.0.logs f4 [1, 2]
-0.1541568 -0.20276847
00000000: 48db 1dbe 8aa2 4fbe

net.flow_mapping.0.scale_layers.0.b_init f4 [1, 2]
0.0 0.0
00000000: 0000 0000 0000 0000

net.flow_mapping.0.scale_layers.0.logs_init f4 [1, 2]
0.0 0.0
00000000: 0000 0000 0000 0000

net.flow_mapping.0.scale_layers.1.b f4 [1, 2]
-0.27675626 -0.5331181
00000000: ffb2 8dbe 6e7a 08bf

net.flow_mapping.0.scale_layers.1.logs f4 [1, 2]
-0.19757542 -0.15218198
00000000: 3651 4abe 98d5 1bbe

net.flow_mapping.0.scale_layers.1.b_init f4 [1, 2]
0.0 0.0
00000000: 0000 0000 0000 0000

net.flow_mapping.0.scale_layers.1.logs_init f4 [1, 2]
0.0 0.0
00000000: 0000 0000 0000 0000

net.flow_mapping.0.scale_layers.2.b f4 [1, 2]
-0.5043561 -0.26714745
00000000: 7b1d 01bf 8dc7 88be

net.flow_mapping.0.scale_layers.2.logs f4 [1, 2]
-0.12399158 -0.20870851
00000000: 4cef fdbd afb7 55be

net.flow_mapping.0.scale_layers.2.b_init f4 [1, 2]
0.0 0.0
00000000: 0000 0000 0000 0000

net.flow_mapping.0.scale_layers.2.logs_init f4 [1, 2]
0.0 0.0
00000000: 0000 0000 0000 0000

net.flow_mapping.0.scale_layers.3.b f4 [1, 2]
-0.23312008 -0.37903458
00000000: 08b7 6ebe d210 c2be

net.flow_mapping.0.scale_layers.3.logs f4 [1, 2]
-0.099608645 -0.107715756
00000000: 9eff cbbd 149a dcbd

net.flow_mapping.0.scale_layers.3.b_init f4 [1, 2]
0.0 0.0
00000000: 0000 0000 0000 0000

net.flow_mapping.0.scale_layers.3.logs_init f4 [1, 2]
0.0 0.0
00000000: 0000 0000 0000 0000

net.flow_mapping.0.scale_layers.4.b f4 [1, 2]
-0.34759325 -0.25208217
00000000: bef7 b1be ea10 81be

net.flow_mapping.0.scale_layers.4.logs f4 [1, 2]
-0.053419326 -0.20885704
00000000: 39ce 5abd 9fde 55be

net.flow_mapping.0.scale_layers.4.b_init f4 [1, 2]
0.0 0.0
00000000: 0000 0000 0000 0000

net.flow_mapping.0.scale_layers.4.logs_init f4 [1, 2]
0.0 0.0
00000000: 0000 0000 0000 0000

net.flow_mapping.0.scale_layers.5.b f4 [1, 2]
-0.24714677 -0.36959466
00000000: 0b14 7dbe 833b bdbe

net.flow_mapping.0.scale_layers.5.logs f4 [1, 2]
-0.11907764 -0.07398925
00000000: fade f3bd ad87 97bd

net.flow_mapping.0.scale_layers.5.b_init f4 [1, 2]
0.0 0.0
00000000: 0000 0000 0000 0000

net.flow_mapping.0.scale_layers.5.logs_init f4 [1, 2]
0.0 0.0
00000000: 0000 0000 0000 0000

net.flow_mapping.0.scale_layers.6.b f4 [1, 2]
-0.26779166 -0.15383
00000000: fd1b 89be 9d85 1dbe

net.flow_mapping.0.scale_layers.6.logs f4 [1, 2]
-0.04341087 -0.12566718
00000000: 99cf 31bd e6ae 00be

net.flow_mapping.0.scale_layers.6.b_init f4 [1, 2]
0.0 0.0
00000000: 0000 0000 0000 0000

net.flow_mapping.0.scale_layers.6.logs_init f4 [1, 2]
0.0 0.0
00000000: 0000 0000 0000 0000

net.flow_mapping.0.scale_layers.7.b f4 [1, 2]
-0.053625356 -0.32229814
00000000: 43a6 5bbd 4304 a5be

net.flow_mapping.0.scale_layers.7.logs f4 [1, 2]
-0.0143824965 -0.121827945
00000000: 90a4 6bbc ee80 f9bd

net.flow_mapping.0.scale_layers.7.b_init f4 [1, 2]
0.0 0.0
00000000: 0000 0000 0000 0000

net.flow_mapping.0.scale_layers.7.logs_init f4 [1, 2]
0.0 0.0
00000000: 0000 0000 0000 0000

net.flow_mapping.0.scale_layers.8.b f4 [1, 2]
-0.23402038 -0.16778909
00000000: 0aa3 6fbe e7d0 2bbe

net.flow_mapping.0.scale_layers.8.logs f4 [1, 2]
0.038066365 -0.29670367
00000000: 7aeb 1b3d 8be9 97be

net.flow_mapping.0.scale_layers.8.b_init f4 [1, 2]
0.0 0.0
00000000: 0000 0000 0000 0000

net.flow_mapping.0.scale_layers.8.logs_init f4 [1, 2]
0.0 0.0
00000000: 0000 0000 0000 0000

net.flow_mapping.0.scale_layers.9.b f4 [1, 2]
0.15239684 -0.28958178
00000000: eb0d 1c3e 1044 94be

net.flow_mapping.0.scale_layers.9.logs f4 [1, 2]
-0.050301343 -0.115323715
00000000: c808 4ebd d72e ecbd

net.flow_mapping.0.scale_layers.9.b_init f4 [1, 2]
0.0 0.0
00000000: 0000 0000 0000 0000

net.flow_mapping.0.scale_layers.9.logs_init f4 [1, 2]
0.0 0.0
00000000: 0000 0000 0000 0000

net.flow_mapping.0.affine_layers.0.net.0.weight f4 [32, 1]
-0.011491009 -2.8204513e-06 0.1484588 -0.0032284216 2.3010005e-05 0.16992852 -0.00028375443 0.15820844
-0.011204293 0.16380976 3.6929903e-06 -0.0072554285 -0.0023825068 0.16486639 -0.0026832032 0.16208842
-0.008537048 0.1659112 0.17134516 -0.012761618 0.16471478 0.15506916 -0.0151660275 -0.0012792747
-0.013543724 0.14874415 0.1689067 -0.0060680676 -0.016412096 0.16626477 -0.00083984784 0.15318619
00000000: c944 3cbc fc46 3db6 9505 183e ed93 53bb
00000010: 9c05 c137 be01 2e3e e0c4 94b9 6501 223e
00000020: 3692 37bc bfbd 273e 17d5 7736 f2be edbb
00000030: d523 1cbb bcd2 283e aed8 2fbb 82fa 253e
00000040: f9de 0bbc a0e4 293e 1b75 2f3e 1b16 51bc
00000050: feaa 283e 73ca 1e3e ee7a 78bc 56ad a7ba
00000060: 7fe6 5dbc 6350 183e e1f5 2c3e a4d6 c6bb
00000070: a972 86bc 5041 2a3e 3c29 5cba d7dc 1c3e

net.flow_mapping.0.affine_layers.0.net.0.bias f4 [32]
0.016648132 -0.019623835 0.056189276 0.012065411 -0.00745407 0.037317935 0.0036452354 0.055431042
-0.013804419 0.039099626 -0.0027295758 -0.032863338 0.014424928 0.03945909 -0.0044404347 0.03339078
-0.0059508057 0.04795716 0.029419275 -0.010320432 0.035816867 0.036404464 0.017118523 0.002472859
0.012008551 0.040238354 0.03852335 0.0022858118 0.009039733 0.051830012 -0.012679866 0.031355157
00000000: aa61 883c 2ac2 a0bc ba26 663d 00ae 453c
00000010: 4541 f4bb b1da 183d e7e4 6e3b a90b 633d
00000020: ee2b 62bc ee26 203d afe2 32bb b59b 06bd
00000030: 8956 6c3c db9f 213d 1181 91bb c5c4 083d
00000040: fafe c2bb ba6e 443d b100 f13c 0717 29bc
00000050: b5b4 123d d91c 153d 253c 8c3c b10f 223b
00000060: 83bf 443c f9d0 243d a9ca 1d3d 8fcd 153b
00000070: 631b 143c b54b 543d 36bf 4fbc 446e 003d

net.flow_mapping.0.affine_layers.0.net.2.weight f4 [32, 32]
0.00091662066 -0.00095859024 0.0006299965 -0.00252052 0.0027475585 -0.0023882985 0.00035460124 -0.0007561535
0.00041615404 0.0005531157 -0.0022026293 0.0008656891 0.002654234 0.0015905036 0.0016587728 0.0005063619
0.00034511063 -0.0007691113 -0.0024987708 -0.001953802 -0.0004301088 -0.0005963392 0.0026261094 0.0015538649
-0.0009001871 0.0013406317 -3.377104e-05 0.002242435 -0.0014771216 -0.0025333005 0.0010156749 -0.00049455464
-0.0021504436 0.0013069034 0.0010481008 4.5768382e-05 0.0009970512 -0.0022068007 -0.0030468355 -0.0027450584
0.00089612376 0.0015940934 -0.00041122115 -0.0013527698 0.00077347376 -0.0013610211 -0.00069970416 -0.00038842036
-0.002086422 0.0009083368 -0.0022218951 0.0009021401 0.00020745558 -0.001658431 0.00037290237 -0.0026622207
0.001333286 -0.0006221617 0.0002486504 0.00031533162 0.002253312 -0.0017958577 -0.0009228961 -0.00055103155
-0.002154002 0.0013927153 -0.0013116642 0.00067600113 0.0028505223 0.0012154105 -0.0016806455 -0.0012678917
0.0008599187 0.0008610931 -0.00283568 -0.00033695062 0.0018510516 -0.0012952683 -0.00033154618 0.0008520985
0.0016809746 -0.00019225276 -0.0021582798 -0.0026004137 -0.00026108182 0.00031629167 -0.0029829466 -0.002679517
0.002361795 0.0012840612 -0.0028137811 -7.958114e-05 0.00042200807 -0.0035078523 0.0012847217 -0.0028623526
0.0028787693 0.0012851717 -0.0017014449 0.0014610275 -0.0010940508 -0.0016136199 0.0016741434 -0.0028371073
0.0009807487 0.0027056832 -0.00082462665 -0.0028466994 -0.0014457231 0.0028805255 -0.0025621934 -0.0015183539
-0.0014508766 -0.0021580595 -0.00043155128 -0.00046943457 -0.0012415467 -0.0008461106 -0.0021852509 0.0028737697
-0.0017577634 -0.002827608 -0.0026740776 0.003218461 0.0009855332 -0.0012098921 0.0011206508 -0.0010817485
0.0019972508 -0.0007357481 0.15644914 -0.0030187787 -0.0018910081 0.16996194 0.0018642083 0.16399497
-0.0007766018 0.16636363 0.0018250056 0.0009147371 0.002008023 0.16756517 0.002869902 0.16817546
-0.002523596 0.16741653 0.21093747 -0.0024328749 0.1701711 0.1604074 -0.0012537147 0.001884751
0.00025618522 0.15489492 0.2006425 -0.0005943906 0.0021557407 0.16405584 -7.162744e-05 0.16214311
0.002243174 0.0030308946 0.0014518624 0.0028656067 0.0005064813 -0.0020202522 -0.00013738377 -0.0002509654
0.0008102523 0.0017775673 0.0023447324 -0.0015461151 -0.00021388789 -0.000108744716 -0.0017186938 -0.0022657597
0.001978906 -0.0001365521 -0.0004700918 -0.002182725 0.0012845827 -0.0018123909 0.00018442085 0.0004506259
-0.00046829347 -0.0019440344 -0.0027694541 0.0009160038 -0.0027867472 -0.0018188766 -0.0013350907 -0.0019589686
0.00034446374 0.0023100844 7.784459e-05 -0.0016618889 -0.0019552582 -0.0016049218 -0.0017970097 -0.002200906
-0.001516308 -0.00038659363 -0.00332245 0.0028882516 -0.000773632 -0.0050268695 -0.000983346 -0.004511572
0.000369172 0.00039836077 0.004282829 0.0016182248 -0.00078267924 -0.002041531 -0.0012650911 0.00055069954
-0.0016566464 -3.2250516e-06 0.008359099 -0.000106392275 -0.0024881323 -0.0033440948 -0.0014181606 -0.0014261148
-0.0029253378 -0.0005152985 -0.00163549 -0.00092481426 0.0023394364 -0.0031582261 -0.0018050824 -0.0015397043
0.0018796332 0.002543025 0.0007585879 0.0019006549 0.00071124523 -0.0012620306 0.002362102 -0.0005556135
0.0032016842 -0.0025727325 0.0011514558 0.00028626615 0.00013445079 0.0008078865 0.0008975378 0.0011947074
0.0030442004 -0.0026793298 0.0016269123 0.00309842 -0.0029399302 0.00029780742 -0.0030297614 0.00041008345
00000000: 5f49 703a e749 7bba 5926 253a 4f2f 25bb
00000010: 6210 343b 0085 1cbb c6e9 b939 9a38 46ba
00000020: 402f da39 f7fe 103a fd59 10bb 69ef 623a
00000030: a8f2 2d3b 7278 d03a 2e6b d93a 5fbd 043a
00000040: f7ef b439 309e 49ba 6bc2 23bb 5c0b 00bb
00000050: 3a80 e1b9 a553 1cba ce1a 2c3b 0eab cb3a
00000060: 89fa 6bba 23b8 af3a 61a5 0db8 d1f5 123b
00000070: fa9b c1ba bb05 26bb 6520 853a 00a5 01ba
00000080: 75ee 0cbb 674c ab3a 6d60 893a 6df7 3f38
00000090: 7daf 823a f99f 10bb 6bad 47bb 70e6 33bb
000000a0: d9e9 6a3a e6f0 d03a 2b99 d7b9 6c4f b1ba
000000b0: f2c2 4a3a 4a64 b2ba 5a6c 37ba e6a4 cbb9
000000c0: 5abc 08bb 731d 6e3a 379d 11bb 997d 6c3a
000000d0: 6f88 5939 b65f d9ba 1c82 c339 a778 2ebb
000000e0: a8c1 ae3a 9118 23ba 4b5d 8239 1853 a539
000000f0: 4dac 133b fc62 ebba 82ee 71ba 1a73 10ba
00000100: 282a 0dbb c58b b63a 26ec abba ab35 313a
00000110: d4cf 3a3b 694e 9f3a 1b49 dcba 632f a6ba
00000120: 2b6c 613a fbba 613a d1d6 39bb bfa8 b0b9
00000130: fc9e f23a fec5 a9ba 60d3 adb9 5d5f 5f3a
00000140: 2654 dc3a 7597 49b9 ed71 0dbb b46b 2abb
00000150: cfe1 88b9 f3d3 a539 8a7d 43bb d69a 2fbb
00000160: 58c8 1a3b f24d a83a 6a67 38bb cde4 a6b8
00000170: f740 dd39 ffe3 65bb 1b64 a83a 4f96 3bbb
00000180: bca9 3c3b 3573 a83a 0403 dfba f37f bf3a
00000190: 4166 8fba 1980 d3ba ee6e db3a c3ee 39bb
000001a0: 778c 803a d551 313b c22b 58ba b18f 3abb
000001b0: 6b7e bdba 33c7 3c3b 79ea 27bb 8103 c7ba
000001c0: 572b beba 3b6e 0dbb d541 e2b9 711e f6b9
000001d0: 65bb a2ba 85cd 5dba 6d36 0fbb db55 3c3b
000001e0: c164 e6ba 644f 39bb 943f 2fbb d1ec 523b
000001f0: 022d 813a 3e95 9eba cde2 923a 75c9 8dba
00000200: 4fe4 023b 38df 40ba 3434 203e b4d6 45bb
00000210: b4db f7ba 810a 2e3e 7358 f43a 4cee 273e
00000220: dd94 4bba 3a5b 2a3e 0735 ef3a f8ca 6f3a
00000230: 0999 033b 3496 2b3e f714 3c3b 3036 2c3e
00000240: ea62 25bb 3d6f 2b3e feff 573e de70 1fbb
00000250: 5541 2e3e d641 243e af53 a4ba c009 f73a
00000260: 9950 8639 c69c 1e3e 3a75 4d3e e1d0 1bba
00000270: 5447 0d3b 41fe 273e b036 96b8 d808 263e
00000280: 3702 133b f9a1 463b 6b4c be3a e7cc 3b3b
00000290: 62c5 043a 3566 04bb ad0e 10b9 0194 83b9
000002a0: 1d67 543a 43fd e83a 15aa 193b 04a7 caba
000002b0: 1847 60b9 e00d e4b8 cb45 e1ba 247d 14bb
000002c0: 89b0 013b 6d2f 0fb9 a776 f6b9 0c0c 0fbb
000002d0: 715f a83a bf8d edba 1861 4139 fc41 ec39
000002e0: 4985 f5b9 f8ce feba bb7f 35bb f91f 703a
000002f0: dca1 36bb 5f67 eeba 36fe aeba 0a62 00bb
00000300: 2499 b439 c964 173b 7f40 a338 bdd3 d9ba
00000310: ca23 00bb 3d5c d2ba a489 ebba 133d 10bb
00000320: dbbe c6ba b8af cab9 76bd 59bb d248 3d3b
00000330: 91cd 4aba 70b8 a4bb 9ee3 80ba cfd5 93bb
00000340: 6d8d c139 14db d039 f956 8c3b 9d1a d43a
00000350: b72c 4dba 35cb 05bb 6ad1 a5ba d25c 103a
00000360: d423 d9ba f76d 58b6 9af4 083c eb1e dfb8
00000370: ef0f 23bb 9a28 5bbb 93e1 b9ba 79ec baba
00000380: 06b7 3fbb 1915 07ba f05d d6ba 3c6f 72ba
00000390: 3b51 193b 3efa 4ebb 8498 ecba e7cf c9ba
000003a0: 065e f63a e1a8 263b f9db 463a 651f f93a
000003b0: dc72 3a3a b86a a5ba 7fcd 1a3b 97a6 11ba
000003c0: 59d3 513b 4a9b 28bb 72ec 963a fe15 9639
000003d0: 5cfb 0c39 58c8 533a be48 6b3a ba97 9c3a
000003e0: 3581 473b b297 2fbb 1e3e d53a dd0e 4b3b
000003f0: d8ab 40bb 0923 9c39 f68e 46bb 7800 d739

net.flow_mapping.0.affine_layers.0.net.2.bias f4 [32]
-0.0013627337 -0.00015455436 -0.0011763888 0.0009855609 0.08733257 0.0010911133 -0.0063033635 -0.0013336134
0.0006440013 -0.0012163966 -0.011712171 -0.0031329656 -0.0015298772 0.0009354728 -0.0011842777 -0.0018616678
-0.008809977 -0.0030349148 -0.0022038848 -0.0017508633 0.0017909992 -0.013379602 -0.0022411302 -0.0050996756
0.08634201 0.091008656 0.08378384 -0.0026608692 -0.003100086 0.0025225382 0.00067030214 -0.0030614967
00000000: c19d b2ba df0f 22b9 0f31 9aba f02d 813a
00000010: 6bdb b23d b003 8f3a 728c cebb a4cc aeba
00000020: 32d2 283a 7f6f 9fba 68e4 3fbc 7152 4dbb
00000030: 2986 c8ba 843a 753a c439 9bba 3503 f4ba
00000040: b957 10bc 6ce5 46bb 0d6f 10bb 397d e5ba
00000050: f6bf ea3a 1e36 5bbc eddf 12bb 2e1b a7bb
00000060: 14d4 b03d bf62 ba3d dd96 ab3d fa61 2ebb
00000070: d02a 4bbb 2b51 253b 37b7 2f3a 64a3 48bb

net.flow_mapping.0.affine_layers.0.net.4.weight f4 [32, 32]
0.0025531177 -0.0026470942 -0.0031864184 -0.0029758262 -0.002521767 -0.002505172 -0.0017475185 -0.0017674722
0.00082325906 -0.00084810343 -0.0013528783 0.00116596 0.0021174266 0.0006290246 0.0019981186 0.0027500545
0.003093985 0.0011897609 0.0024754135 -0.0020937393 0.0015600314 8.0302874e-05 -0.0006717693 0.0016334512
-0.0017122638 -0.0018478073 -0.0021513875 -0.0025827426 -0.0014958237 -0.002531979 -0.0017920962 -0.0020780435
0.0013298156 -0.0010674273 -0.0004007354 -0.0005585312 0.16108803 0.00030301936 0.0013909856 -0.0025792946
-0.00057172537 0.0004395046 -0.00033598076 0.0012370734 0.0001945016 -0.0015730347 0.00046865662 -0.0016657887
0.00096468156 -0.0011269856 -0.0028961762 -0.0013404364 0.0027474212 0.002208089 -0.0010015417 0.0027840184
0.16765319 0.16725135 0.16104907 -8.3480525e-05 0.0026525473 -0.00033587392 -0.00049102074 0.0012764895
-0.0016539037 0.00013035066 -0.00016653104 0.002677922 -0.00034296256 -0.0006083129 0.00032950676 0.00079245283
-0.0023836896 0.0015900319 0.002001092 0.0025530986 0.0003397213 0.00039694534 0.0022594696 -0.0023107342
0.002133923 -0.0008399257 0.0017984327 0.0009302423 0.00028289927 0.0007392716 -0.0022138124 -0.0026176246
0.002461517 -0.0028998607 -0.002551756 -0.002742721 0.0022868277 -0.0009783825 0.0017640907 -0.0027694984
0.00048553967 -0.0013375115 -0.0009192385 -0.00052728684 -0.003188049 0.00089764764 0.0005391973 -0.0028286076
0.002372945 -0.0018388509 0.0018102219 -0.002604246 0.00010547505 0.0007796296 -0.0021136266 0.0014668779
0.001565396 0.0011515502 0.0022214302 0.0012214925 0.00016811823 0.0024849975 -0.0020502745 -0.0021268358
-0.00018576984 0.00023357193 -0.0015802758 0.00027690156 -0.000844019 -3.3811993e-05 0.0010911442 -0.0002722512
-0.0030468816 -0.00238514 0.002695558 0.0018805463 0.15672036 -0.00053159037 -0.0031244303 -0.0026033157
-0.0025465805 0.002171863 -0.0014103154 0.0024323645 0.0015239408 -0.0020233302 0.0011834336 0.00156671
0.004211297 0.00092618377 0.000622417 -0.003012873 -0.0032809968 -0.0011472038 -0.0017622036 -0.0013518339
0.16400366 0.16181116 0.16152209 0.0002373787 0.000593975 0.002592426 0.002651379 0.0014464785
0.0012834227 0.0018724006 -0.002405623 0.002943189 -0.0009837283 0.0018982497 0.0003473398 -0.00059765606
-0.00011326543 -0.00080763036 -0.001005826 -0.0026213585 0.00029158962 0.0030913597 -0.0012791889 0.00029212688
-0.0016685532 -0.0024173337 0.0024146494 0.0019806582 0.0014805559 9.16944e-05 -0.00019551834 0.000507636
0.0011742399 -0.0033821973 0.0015109709 6.300259e-05 0.002971302 0.00066861825 -0.0016939535 0.0028727287
-0.0029301397 0.0031073538 0.0026821622 -0.0013685625 -0.0006713996 0.0030658115 0.0027215702 0.0014483563
0.003203339 0.002399311 3.9016817e-05 0.0016445387 0.0018804818 0.00031513386 -0.0021766855 -0.00029051307
-0.0029810802 -0.0017812272 -0.0025858216 -0.00030604514 -5.754853e-05 0.0022763545 0.00069559785 -0.0013130879
-0.0026030215 -0.0005993024 -0.0030547068 -0.0024487535 0.0014693576 -0.0007497305 0.0023131045 0.00058740965
0.0010047635 -0.0018852866 0.0027222254 -0.0024784105 -0.0020164247 -0.0013824262 0.0029487337 0.002577932
-0.0013327735 -0.0012635096 0.002091752 -0.00012075782 -0.0017645751 0.0010930594 0.0024499407 0.0015650187
-0.00070334517 0.0021663979 0.0023900287 0.0021663662 0.0019337845 -0.0024523535 0.0015473799 -0.00038565672
0.0016131803 -0.0015093369 -0.00020508186 -0.0023332704 -0.002795508 0.0004783558 -0.003075659 -0.0016887337
00000000: 3552 273b df7a 2dbb 3bd3 50bb 1406 43bb
00000010: 3b44 25bb d02d 24bb fe0c e5ba 87aa e7ba
00000020: fbcf 573a 4253 5eba 1053 b1ba 20d3 983a
00000030: 86c4 0a3b 20e5 243a def2 023b 423a 343b
00000040: 74c4 4a3b c0f1 9b3a 8c3a 223b 1e37 09bb
00000050: f879 cc3a 4768 a838 ad19 30ba 8719 d63a
00000060: 0a6e e0ba 2032 f2ba 4bfe 0cbb 3b43 29bb
00000070: 840f c4ba 8fef 25bb c5e4 eaba c92f 08bb
00000080: 354d ae3a ebe8 8bba cb19 d2b9 656a 12ba
00000090: 43f4 243e 92de 9e39 bb51 b63a 6209 29bb
000000a0: d7df 15ba 4f6d e639 9326 b0b9 4c25 a23a
000000b0: 20f3 4b39 492e ceba 07b6 f539 9856 daba
000000c0: afe2 7c3a 5db7 93ba c6cd 3dbb 95b1 afba
000000d0: 140e 343b 96b5 103b 2a46 83ba 1474 363b
000000e0: 47ad 2b3e f043 2b3e 0cea 243e 4412 afb8
000000f0: 5cd6 2d3b 3c18 b0b9 d8b7 00ba e14f a73a
00000100: cdc7 d8ba bdae 0839 d69e 2eb9 1380 2f3b
00000110: a8cf b3b9 3077 1fba a6c1 ac39 9cbc 4f3a
00000120: ad37 1cbb 9e68 d03a c124 033b e351 273b
00000130: 9f1c b239 1a1d d039 9c13 143b b06f 17bb
00000140: 49d9 0b3b 762e 5cba 63b9 eb3a 81db 733a
00000150: 1952 9439 adcb 413a 9c15 11bb 748c 2bbb
00000160: 6751 213b 970b 3ebb 5d3b 27bb 39bf 33bb
00000170: 9ade 153b 123d 80ba 1039 e73a 7980 35bb
00000180: 0890 fe39 704f afba 0df9 70ba 9f39 0aba
00000190: 96ee 50bb 1d50 6b3a eb58 0d3a 2960 39bb
000001a0: 6983 1b3b 9905 f1ba f844 ed3a ffab 2abb
000001b0: 7c32 dd38 0f60 4c3a c584 0abb 4144 c03a
000001c0: f92d cd3a 9def 963a 6a95 113b 7d1a a03a
000001d0: e548 3039 57db 223b e65d 06bb 6262 0bbb
000001e0: 36cb 42b9 fdea 7439 4221 cfba 192d 9139
000001f0: 2841 5dba 5ad1 0db8 b904 8f3a f0bc 8eb9
00000200: 31ae 47bb 0250 1cbb f5a7 303b aa7c f63a
00000210: 4d7b 203e 6d5a 0bba 3ec3 4cbb 649c 2abb
00000220: 88e4 26bb d155 0e3b 55da b8ba 4e68 1f3b
00000230: f8be c73a d999 04bb 711d 9b3a 105a cd3a
00000240: ebfe 893b 24cb 723a b329 233a 9f73 45bb
00000250: fe05 57bb c65d 96ba bef9 e6ba 0530 b1ba
00000260: 93f0 273e d3b1 253e 0c66 253e dce8 7839
00000270: fdb4 1b3a b1e5 293b c2c2 2d3b c497 bd3a
00000280: 8538 a83a 576b f53a a8a7 1dbb 85e2 403b
00000290: 72f0 80ba b1ce f83a 291b b639 05ac 1cba
000002a0: ea88 edb8 28b7 53ba ecd5 83ba 19cb 2bbb
000002b0: 7fe0 9839 6998 4a3b 75aa a7ba 9b28 9939
000002c0: 5bb3 daba 216c 1ebb 183f 1e3b eecd 013b
000002d0: 360f c23a 0e4c c038 0e04 4db9 e012 053a
000002e0: f4e8 993a dba7 5dbb c50b c63a 4220 8438
000002f0: 2dba 423b 3646 2f3a a607 deba 6444 3c3b
00000300: 9607 40bb bfa4 4b3b 37c7 2f3b 5661 b3ba
00000310: dd00 30ba c8eb 483b 5f5c 323b c6d6 bd3a
00000320: 1cef 513b c23d 1d3b fda5 2338 908d d73a
00000330: 807a f63a 8d38 a539 b9a6 0ebb 0150 98b9
00000340: 3a5e 43bb 1178 e9ba e376 29bb af74 a0b9
00000350: 4360 71b8 e42e 153b c858 363a eb1b acba
00000360: 7497 2abb 811a 1dba 7a31 48bb 447b 20bb
00000370: 7697 c03a 9089 44ba 7497 173b 65fc 193a
00000380: 45b2 833a b91b f7ba 5d67 323b d46c 22bb
00000390: fe25 04bb 8732 b5ba 8b3f 413b 86f2 283b
000003a0: 75b0 aeba 599c a5ba c615 093b 5c3f fdb8
000003b0: 5149 e7ba fd44 8f3a 2f8f 203b 5021 cd3a
000003c0: b260 38ba 20fa 0d3b 07a2 1c3b 98f9 0d3b
000003d0: 0a77 fd3a aab7 20bb 74d1 ca3a f831 cab9
000003e0: 5971 d33a f1d4 c5ba 3e0b 57b9 c8e9 18bb
000003f0: d734 37bb d4cb fa39 ff90 49bb 8058 ddba

net.flow_mapping.0.affine_layers.0.net.4.bias f4 [32]
0.0020002157 0.1331634 0.004331302 -0.0045878394 0.13012916 0.0032365266 0.0030728106 -0.0012887924
-0.0034212042 -0.011608087 0.000778471 0.0009540857 -0.000957228 -0.0043400433 0.10116431 0.0034011947
0.0031898948 -0.0026686997 0.12823103 0.001121976 0.00091111765 0.001453184 0.0019884445 -0.00036517932
-0.00978007 0.006602823 -0.0026460986 0.00093238964 0.00029993572 -0.0011693547 -0.0035187253 -0.0028980263
00000000: 0d16 033b fd5b 083e 98ed 8d3b 9655 96bb
00000010: 9440 053e e81b 543b 3561 493b b2ec a8ba
00000020: 4836 60bb d92f 3ebc 4e12 4c3a 9c1b 7a3a
00000030: 7cee 7aba ec36 8ebb 3c2f cf3d 94e6 5e3b
00000040: 8e0d 513b 5ae5 2ebb ff4e 033e 440f 933a
00000050: 12d8 6e3a c478 be3a 9050 023b 8a75 bfb9
00000060: 963c 20bc 7e5c d83b 2b6a 2dbb 9c6b 743a
00000070: b140 9d39 0845 99ba 6a9a 66bb d0ec 3dbb

net.flow_mapping.0.affine_layers.0.net.6.weight f4 [32, 32]
0.0007341104 0.001153157 -0.0023928764 0.0012790042 -0.0029175868 -0.0009008516 -0.0009125376 -0.0009575786
-0.0011026752 -0.0020397285 0.0030785045 -0.0015745758 0.0029062587 0.0009540769 -0.0029761712 -0.0016273336
-0.0013108435 9.6045755e-05 0.0022592354 -0.0012156188 0.002764865 0.0022941718 0.0017146978 -0.0015528159
-0.0016692664 -0.0025309888 -0.0013364814 0.002739524 0.0014781855 -0.0029933804 -0.000392255 0.0001819386
0.0024112079 -0.000105853775 -6.5492444e-05 0.0011127286 0.0020660262 -0.0039890287 0.0019696355 0.00024075381
0.0004911526 -0.0018405843 -0.0005641553 -0.0011795547 -0.0011443278 0.0012028008 -0.00035571615 -0.0021758906
0.0018278147 0.0014388866 -0.0019210437 -0.0024380952 0.0017250911 0.0025966212 0.0030991246 -0.000744654
-0.0005979771 -0.0035805018 -0.0016992935 -1.2387291e-05 -0.0024265773 0.0012958705 -0.0019690292 0.0023000517
-0.0027261388 0.16399078 0.00015916488 -0.0019671908 0.15789124 0.0030888212 0.0021684824 0.0020384234
-0.0013550392 -0.000777134 0.0023274263 1.7508459e-05 -0.00015436448 0.00062882673 0.1421014 0.0011094122
0.0020482203 -0.0011900823 0.15468965 -0.0010797968 -0.0010104957 -0.0005189148 0.00043153123 -0.003121219
-0.0024468808 0.00046710455 -0.0005953752 -0.00016925414 0.0034326846 0.0006208441 0.0017686627 0.0013661457
5.8948463e-05 0.00014561179 -0.0025007857 -0.002811851 -0.00030885218 0.0018329741 -0.0022524933 -0.0031148647
-0.001635331 0.0004931297 -0.0017253874 0.0018181732 0.0022353912 0.0008651414 0.0018534596 -0.0028797342
-0.0009202222 -0.0015406263 -0.0032082812 -0.0027168158 0.0004290125 0.0006527456 5.597979e-06 0.0029168383
-0.0007094289 -0.00321726 0.0007448131 0.0031588539 0.0017999094 0.0014101113 0.0016339518 -0.0031662895
0.00010545562 -0.00060192833 -0.0009942601 -0.0027028432 -0.001507851 8.962727e-05 -0.00057594024 -0.0015603522
0.0015224525 -0.0021362398 -0.00043605716 0.002768948 0.002359135 0.0013485489 0.0029589192 0.0025835237
0.0007804822 -0.00019524303 -0.00262875 0.0029542423 0.00038172017 0.0004810849 -6.878307e-05 0.00012151786
0.00032726486 -0.0002444781 0.0018100367 -0.00019661782 0.002349584 -0.002175807 0.0029697604 -0.0015050978
0.0014369608 -0.0022397009 -0.0010979739 -0.0022075984 0.0016265137 -0.00057842 -0.001750803 -0.0008664975
0.0016379078 7.293971e-06 -0.0030067563 0.00093884685 -0.00065311394 -0.0011010335 0.0017460075 -0.0027972788
-0.00268638 -0.0023249078 -0.00097619207 -0.0040730643 0.0013165849 -0.0003618885 -0.0012000473 -0.002523401
-8.5934706e-05 -0.0027151995 0.0005143473 0.002366794 0.0005525813 0.0017826315 0.00028688787 0.0008392902
0.0016617217 0.16647828 -0.0014192786 -0.0019343524 0.16350724 0.001767789 -0.0028637878 0.0005265994
-0.00020001619 0.0027573481 0.0009833147 0.0005521368 -0.0030156262 -0.0008824362 0.16945216 -8.425322e-05
0.0027380884 0.00063167536 0.15869784 -0.0021260257 -0.0020653782 -0.001679423 0.000283402 0.00032342083
0.0029418645 -0.0006494184 0.0013025056 -0.0014516922 5.5357294e-05 0.002740506 0.001630203 -0.002507993
0.0024642812 0.0006092746 -0.0007820582 -0.0015126021 -0.0014836455 0.0012071353 0.0022414275 -0.0018686034
0.00020819608 -0.0031307533 -0.002864303 -0.00048222087 0.0023988562 0.0006099051 -0.006491251 0.0023363132
-0.0004823317 -0.00037180763 0.00024914485 -0.0003321013 -0.0025554867 0.0015792252 -0.002709766 -9.425022e-05
-0.004094888 0.002251261 0.0015129284 0.0017923664 0.00025938335 -0.00094394817 -0.0039269105 -0.0028427392
00000000: 5171 403a 8725 973a ced1 1cbb 42a4 a73a
00000010: fc34 3fbb 2127 6cba 5d37 6fba 0306 7bba
00000020: a487 90ba f7ac 05bb bcc0 493b ff61 ceba
00000030: ee76 3e3b 041b 7a3a de0b 43bb 414c d5ba
00000040: 9cd0 abba 2c6c c938 ae0f 143b 6655 9fba
00000050: bd32 353b d159 163b b6bf e03a db87 cbba
00000060: 49cb daba f2de 25bb e02c afba 9689 333b
00000070: adbf c13a 972c 44bb 93a7 cdb9 c5c6 3e39
00000080: 5b05 1e3b d0fd ddb8 fd58 89b8 fad8 913a
00000090: 2b66 073b 66b6 82bb 0015 013b dc72 7c39
000000a0: b1c0 003a c33f f1ba d2e3 13ba 4a9b 9aba
000000b0: 45fd 95ba 4ca7 9d3a 6a7f bab9 6399 0ebb
000000c0: 4993 ef3a 0699 bc3a 88cb fbba 73c8 1fbb
000000d0: 741c e23a 132c 2a3b af1a 4b3b e234 43ba
000000e0: 90c1 1cba daa6 6abb d4ba deba 02d3 4fb7
000000f0: 3607 1fbb 33da a93a d40a 01bb 77bc 163b
00000100: 05a9 32bb 33ed 273e 7fe5 2639 fceb 00bb
00000110: 3eae 213e d26d 4a3b 191d 0e3b 1297 053b
00000120: 929b b1ba 94b8 4bba bc87 183b 21df 9237
00000130: e6dc 21b9 d9d7 243a 0883 113e b269 913a
00000140: 6f3b 063b 89fc 9bba f766 1e3e f887 8dba
00000150: 9c72 84ba c807 08ba 243f e239 5e8d 4cbb
00000160: d95b 20bb b6e5 f439 f412 1cba d079 31b9
00000170: e4f6 603b 24c0 223a 79d2 e73a 3e10 b33a
00000180: 6e3f 7738 5eaf 1839 39e4 23bb 0847 38bb
00000190: 70ed a1b9 6840 f03a 919e 13bb c222 4cbb
000001a0: 9a58 d6ba 6045 013a 6526 e2ba c54f ee3a
000001b0: a47f 123b a8ca 623a c9ef f23a ecb9 3cbb
000001c0: 113b 71ba d7ee c9ba 0742 52bb 9b0c 32bb
000001d0: 15ed e039 041d 2b3a 46d6 bb36 6d28 3f3b
000001e0: f8f8 39ba aad8 52bb 903f 433a c604 4f3b
000001f0: f0ea eb3a 7cd3 b83a 532a d63a 8681 4fbb
00000200: 0e28 dd38 baca 1dba d551 82ba 2f22 31bb
00000210: 15a3 c5ba 46f6 bb38 b2fa 16ba bb84 ccba
00000220: 078d c73a 2800 0cbb 9a9e e4b9 3d77 353b
00000230: b89b 1a3b cbc1 b03a 6dea 413b 5650 293b
00000240: 4699 4c3a 27ba 4cb9 1b47 2cbb f69b 413b
00000250: 9d21 c839 1f3a fc39 a13f 90b8 68d7 fe38
00000260: bf94 ab39 4c2d 80b9 c13e ed3a 322b 4eb9
00000270: 7afb 193b fc97 0ebb 50a0 423b b446 c5ba
00000280: 6758 bc3a f2c7 12bb e4e9 8fba 5bad 10bb
00000290: be30 d53a 1ca1 17ba 337b e5ba aa25 63ba
000002a0: 11af d63a bcbe f436 000d 45bb f21c 763a
000002b0: bc35 2bba 8e50 90ba 4ada e43a 8d52 37bb
000002c0: fa0d 30bb 7b5d 18bb 24e7 7fba 5777 85bb
000002d0: 4291 ac3a dabb bdb9 e84a 9dba a55f 25bb
000002e0: d837 b4b8 7df1 31bb 43d5 063a 371c 1b3b
000002f0: 1adb 103a 30a7 e93a 7069 9639 d003 5c3a
00000300: 21ce d93a 4879 2a3e 1607 baba 198a fdba
00000310: 716e 273e 28b5 e73a 63ae 3bbb 7d0b 0a3a
00000320: 70bb 51b9 a0b4 343b 91e2 803a 46bd 103a
00000330: d0a1 45bb 4a53 67ba de84 2d3e 1ab1 b0b8
00000340: 8071 333b 0497 253a b081 223e cb54 0bbb
00000350: 4c5b 07bb 1620 dcba 9395 9439 cf90 a939
00000360: 4ccc 403b bb3d 2aba d6b8 aa3a b546 beba
00000370: 712f 6838 109a 333b 89ac d53a 245d 24bb
00000380: c77f 213b bab7 1f3a 0a03 4dba 8142 c6ba
00000390: e276 c2ba bd38 9e3a eae4 123b edeb f4ba
000003a0: 364f 5a39 532d 4dbb 08b7 3bbb 97d2 fcb9
000003b0: 2136 1d3b 0ae2 1f3a 8fb4 d4bb d51c 193b
000003c0: 77e1 fcb9 2def c2b9 a89f 8239 e21d aeb9
000003d0: f479 27bb 01fe ce3a 5496 31bb 34a8 c5b8
000003e0: 692e 86bb e489 133b 744d c63a d6ed ea3a
000003f0: d8fd 8739 4a73 77ba 50ad 80bb 404d 3abb

net.flow_mapping.0.affine_layers.0.net.6.bias f4 [32]
-0.0003757722 -0.005069271 0.20960571 0.0008054757 -0.0008568234 -0.001958496 0.15107086 -0.002097188
0.0038928925 -0.0002704312 -2.3118608e-05 -0.0047396002 -0.0023316008 -0.0050402894 0.00013161734 0.18180287
-0.0012369843 6.58084e-05 0.18790616 -0.00084417383 -0.00024772665 0.0019622196 -0.0027599356 -0.0004989756
0.0027728302 -0.0030019612 0.0031687072 0.0064942497 -0.0022293357 0.17603208 -0.006059123 -0.0017302388
00000000: 4a03 c5b9 211c a6bb e1a2 563e 8f26 533a
00000010: 729c 60ba 1c5a 00bb 52b2 1a3e fa70 09bb
00000020: e61f 7f3b a9c8 8db9 d5ee c1b7 a64e 9bbb
00000030: c5cd 18bb 0329 a5bb c302 0a39 882a 3a3e
00000040: 4e22 a2ba 9e02 8a38 796a 403e 8c4b 5dba
00000050: 4fe1 81b9 9598 003b 09e0 34bb b0cd 02ba
00000060: 5fb8 353b 8dbc 44bb 16aa 4f3b b7cd d43b
00000070: 0c1a 12bb c141 343e 9c8b c6bb 2ec9 e2ba

net.flow_mapping.0.affine_layers.0.net.8.weight f4 [32, 32]
-0.0029622247 0.0010491778 -0.0029330605 0.0027363095 -0.0013328877 -0.00034683553 -0.0012080474 0.0027838345
0.0017071599 -0.0026644303 0.0010123505 0.0001534107 0.0021259289 0.0017139085 -0.0009859252 0.000552303
0.0023415466 -0.0012329766 -0.0023217718 0.00067431264 0.00082417205 0.0013176802 0.0003616916 -0.0010193039
0.0020994437 0.00034144046 0.0011437739 0.0008836853 -0.0012443076 -0.0024013678 0.0031632292 -0.0024467274
0.00030983725 0.002168033 -0.0017916295 -0.0004604272 0.003064222 0.002764575 0.0013746214 0.0010133326
-0.0023707969 -0.0003344726 -0.0014117206 0.0008244567 0.002194187 -0.0012982185 -0.003036627 -0.0007886853
-0.0022308168 0.00053777866 -0.0014859192 -0.002159306 -0.0017674271 0.001895312 -0.00088115997 -0.00048608438
-0.0018144521 -0.0004998722 0.002740748 0.0029967516 3.242141e-05 -0.0018028455 -0.0031612343 0.0005936526
0.0003556838 0.0019176903 -0.0022664994 -0.001255012 0.00274649 0.00017451508 0.00143168 -0.0018433218
0.0016304217 0.0018680725 -0.002075706 0.0031201416 0.0022305658 -0.0022051395 0.0013661267 0.00090564543
-0.002086532 0.0005895614 -0.0019982853 -0.0020663403 -0.0007235606 -0.0030907763 0.0011829567 -0.0030641847
0.0021988421 0.0005662468 -0.00020754007 -0.0039196564 -0.0007381656 -0.00051246485 0.0011292418 0.0016583999
-0.0009689289 -0.00020647785 -0.0018106451 0.002697302 -0.0001943478 -0.0011769232 0.0026480458 -0.0021506578
0.0018418973 -0.0013103704 5.2327458e-05 0.0020420197 0.0012568042 0.00013614097 -0.0020870843 -0.0017265108
-0.0022544505 -0.0006903037 -0.0031928297 0.0015905217 -0.0025245363 0.00078156125 -0.00047225392 -0.002524053
-0.0013271521 -0.00023433007 -0.0011102569 -0.00022697204 -0.0015522637 0.0015919175 -0.00010773545 -0.00051281677
7.018502e-05 -3.0935076e-05 0.17512336 0.0025656142 0.0017608025 8.0685815e-05 0.16323449 -0.0014225428
0.0006819434 0.00016454709 0.0011432103 -0.0025883324 -0.0026023164 0.001736996 -0.0027831802 0.17121553
-0.002610712 0.0021148303 0.16978927 0.0027843583 -0.0017504769 -9.8540695e-05 -0.001501023 -0.0015305162
0.0023133159 -0.0030548088 0.00037197035 0.0018138309 0.0012089168 0.1682943 -0.0009650605 -5.332441e-05
-0.0026200607 -0.000764274 0.17669827 -0.0012616127 0.0014916346 0.0024155355 0.17104112 0.00058416085
-0.0016656264 -0.0028754019 -0.0028353413 0.00093939836 -0.0004403163 0.00045669402 0.001167475 0.16969387
-0.002926889 -0.001595297 0.17020623 -0.0010140734 0.0020489695 -0.0008943806 -0.0014456052 0.00052041654
0.0017594917 -0.0013197523 -0.00043962445 0.0027880727 -0.0009634211 0.1725669 -0.0008802453 -0.0032078032
-0.0004905921 0.0030548417 5.465624e-05 0.00013755017 -0.0030685288 0.00033414178 -0.0014131179 -0.0041197026
-0.0025465426 0.003104362 -0.0030169566 -0.0005278032 0.0020790936 0.002151561 -0.0006708725 -0.00028408173
-0.00069675065 -0.00017617426 0.0014883617 -0.00034934917 0.0018405812 0.0006397617 0.0028437222 0.0007874401
0.0003343108 0.0001372463 0.001766362 0.00037017884 0.0017127001 -0.0043475907 0.0016900704 0.00085750077
-0.00045193828 -0.0022555261 -0.0031355596 0.000695206 -0.00058345095 -0.0013520351 -0.00017183293 -0.0025623187
-0.0030119542 -0.002344943 -0.0009598691 0.0013739181 0.0009889525 0.00074969867 0.0029678964 -0.0024091648
0.00041500913 0.00036515 0.002054318 -0.0025557668 -0.0008045177 -0.0019450542 -0.00042260863 -0.0010495577
0.00077215285 -0.00095935387 -0.0008500983 -0.0029991744 0.00136638 -0.0016219082 -0.0026582172 0.00060160906
00000000: e221 42bb 9184 893a 9738 40bb a853 333b
00000010: 4ab4 aeba 7ad7 b5b9 5857 9eba fe70 363b
00000020: c8c2 df3a b99d 2ebb d9b0 843a dfdc 2039
00000030: 2b53 0b3b 3aa5 e03a 293a 81ba 6dc8 103a
00000040: a274 193b d49b a1ba de28 18bb 5bc4 303a
00000050: 400d 583a 03b6 ac3a 6da1 bd39 2a9a 85ba
00000060: d296 093b 5d03 b339 afea 953a 1ea7 673a
00000070: 0918 a3ba 4460 1dbb 2e4e 4f3b 4659 20bb
00000080: a771 a239 8f15 0e3b 1cd5 eaba 7e65 f1b9
00000090: 1dd1 483b df2d 353b a42c b43a cdd1 843a
000000a0: 5f5f 1bbb 275c afb9 7c09 b9ba 5a20 583a
000000b0: 59cc 0f3b fc28 aaba 2602 47bb c6bf 4eba
000000c0: e532 12bb b7f9 0c3a 2dc3 c2ba 2583 0dbb
000000d0: 03a9 e7ba 1e6c f83a a5fd 66ba 24d9 feb9
000000e0: e9d2 edba db09 03ba 1f9e 333b 2665 443b
000000f0: 39fc 0738 754d ecba b62c 4fbb 5a9f 1b3a
00000100: 127b ba39 025b fb3a 8d89 14bb 377f a4ba
00000110: 75fe 333b 09fe 3639 36a7 bb3a 9e9b f1ba
00000120: e0b3 d53a 1dda f43a 9108 08bb 4a7b 4c3b
00000130: af2e 123b 1a84 10bb 9b0f b33a d668 6d3a
00000140: 33be 08bb cc8c 1a3a aaf5 02bb 706b 07bb
00000150: 54ad 3dba 9f8e 4abb 710d 9b3a 7dd0 48bb
00000160: 731a 103b 2e70 143a 1d9f 59b9 7670 80bb
00000170: 7481 41ba ef56 06ba 1103 943a ab5e d93a
00000180: b8ff 7dba fa81 58b9 2b53 edba 38c5 303b
00000190: d7c9 4bb9 fd42 9aba d68a 2d3b 0df2 0cbb
000001a0: d16b f13a bcc0 abba 2e7a 5b38 68d3 053b
000001b0: 5abb a43a 10c1 0e39 77c7 08bb 174c e2ba
000001c0: 67bf 13bb 7ff5 34ba cb3e 51bb 0d79 d03a
000001d0: b172 25bb b0e1 4c3a d998 f7b9 956a 25bb
000001e0: d6f3 adba 80b6 75b9 0a86 91ba 58ff 6db9
000001f0: 5475 cbba e3a7 d03a 07f0 e1b8 8d6e 06ba
00000200: 4c30 9338 49c0 01b8 8a53 333e dd23 283b
00000210: baca e63a de35 a938 f126 273e 9e74 baba
00000220: 72c4 323a 468a 2c39 c6d7 953a 03a1 29bb
00000230: a08b 2abb eaab e33a 0466 36bb 2053 2f3e
00000240: 7b18 2bbb f798 0a3b 3ddd 2d3e c879 363b
00000250: 4270 e5ba a2a7 ceb8 f9bd c4ba 9a9b c8ba
00000260: 009b 173b 3033 48bb 0405 c339 11be ed3a
00000270: 8474 9e3a 5755 2c3e 1dfc 7cba a6a8 5fb8
00000280: 53b5 2bbb 8f59 48ba 64f0 343e b35c a5ba
00000290: f482 c33a f64d 1e3b 6725 2f3e 5f22 193a
000002a0: 2651 daba 3d71 3cbb 22d1 39bb f541 763a
000002b0: 41da e6b9 6f70 ef39 f605 993a 3bc4 2d3e
000002c0: 0dd1 3fbb 4919 d1ba 8b4a 2e3e a8ea 84ba
000002d0: 0148 063b de74 6aba 767a bdba 906c 083a
000002e0: bf9e e63a 8afb acba 657d e6b9 19b8 363b
000002f0: 188e 7cba 61b5 303e 43c0 66ba 023a 52bb
00000300: 149b 00ba bd33 483b b13e 6538 583b 1039
00000310: 5f19 49bb c02f af39 5e38 b9ba 92fe 86bb
00000320: e5e3 26bb 8d72 4b3b 22b8 45bb 465c 0aba
00000330: 6741 083b 3401 0d3b 7edd 2fba cef0 94b9
00000340: 25a6 36ba 6bbb 38b9 2215 c33a da28 b7b9
00000350: a83f f13a aeb5 273a be5d 3a3b 366c 4e3a
00000360: 7046 af39 c6e9 0f39 4685 e73a 9014 c239
00000370: ae7c e03a 3c76 8ebb 5a85 dd3a e7c9 603a
00000380: 21f2 ecb9 73d1 13bb f67d 4dbb 7c3e 363a
00000390: bbf2 18ba c536 b1ba 0d2e 34b9 93ec 27bb
000003a0: 3564 45bb 9dad 19bb ba9f 7bba 0b15 b43a
000003b0: bd9f 813a 6d87 443a 0a81 423b 14e3 1dbb
000003c0: 9595 d939 9a71 bf39 bda1 063b a77e 27bb
000003d0: 45e6 52ba 30f1 feba 9291 ddb9 5091 89ba
000003e0: 4d6a 4a3a 267d 7bba 22d9 5eba cc8d 44bb
000003f0: 1b18 b33a 3596 d4ba 7c35 2ebb 4db5 1d3a

net.flow_mapping.0.affine_layers.0.net.8.bias f4 [32]
0.00139367 0.0006206528 -0.0023102046 -0.0036845303 0.2357418 0.25105625 0.0013473096 -0.002537612
0.2522497 0.24995701 -0.003905394 0.23654625 -0.00288255 0.0019223022 0.24640006 0.24286896
-0.002375498 0.0014282339 -0.00069415075 0.2271368 0.21694621 0.0012821376 0.23230588 0.0004228954
0.23526192 -0.002016663 0.00046110558 -0.010628244 0.23952435 0.00019843495 0.0012917682 0.2546688
00000000: ceab b63a 4eb3 223a cd66 17bb 2978 71bb
00000010: 4c66 713e 728a 803e 3598 b03a 114e 26bb
00000020: df26 813e bbf4 7f3e a4f1 7fbb 2e39 723e
00000030: 2ae9 3cbb c2f5 fb3a 4c50 7c3e a4b2 783e
00000040: 3eae 1bbb 9433 bb3a abf7 35ba 8d96 683e
00000050: 2627 5e3e 660d a83a 98e1 6d3e 0fb8 dd39
00000060: 80e8 703e fe29 04bb 8bc0 f139 1622 2ebc
00000070: df45 753e fa12 5039 8c50 a93a f363 823e

net.flow_mapping.0.affine_layers.0.net.10.weight f4 [2, 32]
-0.0026471927 -0.0008348924 0.0012201851 0.003468578 -0.16272682 -0.1669633 0.0020586373 -0.002219695
-0.16799943 -0.16750169 0.0018005559 -0.16114073 0.001294243 0.0021702573 -0.16559531 -0.16483645
0.0028117432 0.00014702108 -8.02474e-05 -0.15055816 -0.25350022 0.00034715142 -0.15881011 0.00029760163
-0.15943542 0.003005563 0.002682651 0.00092636724 -0.16423023 -0.0019342933 -0.002868003 -0.1758256
-0.00089319074 -0.0031156624 -4.545886e-05 -4.5295008e-05 -0.3346889 -0.35310426 -0.0012897433 0.0011019646
-0.35905924 -0.3544005 3.0510811e-05 -0.33118364 -0.0011892436 -0.0026546642 -0.34719482 -0.34675896
-0.0027661114 -0.00029549006 0.0008736588 -0.29003006 -0.33555788 -0.0006674342 -0.32487518 -0.00076592487
-0.327332 -0.003038157 0.0031674565 -0.01176839 -0.33636126 0.0026284363 -0.0006454661 -0.32146922
00000000: 867c 2dbb aedc 5aba 9eee 9f3a 1551 633b
00000010: dca1 26be 6df8 2abe 34ea 063b 4d78 11bb
00000020: 0b08 2cbe 9085 2bbe a100 ec3a 1302 25be
00000030: 97a3 a93a e03a 0e3b d191 29be e3ca 28be
00000040: 3945 383b ac29 1a39 7f4a a8b8 eb2b 1abe
00000050: c8ca 81be e001 b639 1e9f 22be 6a07 9c39
00000060: 0a43 23be fbf8 443b 6acf 2f3b 74d7 723a
00000070: f82b 28be 1d88 fdba 1bf5 3bbb a00b 34be
00000080: 0425 6aba 2430 4cbb 14ab 3eb8 25fb 3db8
00000090: 585c abbe 15ca b4be 9b0c a9ba cc6f 903a
000000a0: 9dd6 b7be fb73 b5be 78f1 ff37 e790 a9be
000000b0: 65e0 9bba e0f9 2dbb 85c3 b1be 648a b1be
000000c0: a647 35bb 01ec 9ab9 4006 653a d27e 94be
000000d0: 3ece abbe c0f6 2eba 0a56 a6be 59c8 48ba
000000e0: 0f98 a7be d11b 47bb 1a95 4f3b 35d0 40bc
000000f0: 8b37 acbe d841 2c3b 7f34 29ba 9d97 a4be

net.flow_mapping.0.affine_layers.0.net.10.bias f4 [2]
-0.2581898 -0.35616168
00000000: 7431 84be d35a b6be

net.flow_mapping.0.affine_layers.1.net.0.weight f4 [32, 1]
0.21891621 -0.009803196 0.0004369997 -0.01050512 -0.009174713 0.00031424407 -0.01429915 -0.011064084
-0.008521972 -0.013203133 -0.004216257 0.21422377 -0.0028871256 -0.017091583 0.22515145 -0.010506902
0.00013887124 -0.018539999 -0.01614752 -0.0037294964 -0.017369151 0.00038287684 -0.014677194 0.000487327
0.20569654 0.00010875702 -0.015197346 0.21734184 -0.0037300093 0.20410958 -0.016568137 -0.017870558
00000000: 922b 603e 969d 20bc 1b1d e539 ab1d 2cbc
00000010: 8951 16bc 20c1 a439 fb46 6abc 2246 35bc
00000020: be9f 0bbc f451 58bc 8728 8abb 7a5d 5b3e
00000030: ee35 3dbb a603 8cbc 1a8e 663e 2425 2cbc
00000040: f79d 1139 32e1 97bc ce47 84bc 916a 74bb
00000050: c049 8ebc dcbc c839 9d78 70bc ec7f ff39
00000060: 1da2 523e 7b14 e438 4afe 78bc dc8e 5e3e
00000070: 2c73 74bb 1a02 513e e7b9 87bc 4765 92bc

net.flow_mapping.0.affine_layers.1.net.0.bias f4 [32]
-0.03700126 0.021395111 -0.03339499 -0.00971799 0.017121086 -0.027004275 -0.00946268 -0.005362875
0.007117777 0.012858526 0.0076152794 -0.047326397 0.0021155255 0.014350559 -0.029925207 -0.012360632
-0.0123184435 0.021328475 -0.0032885172 0.0019591472 -0.014022147 -0.03450415 0.015177074 -0.042767927
-0.041632466 -0.009717758 0.00023947883 -0.042280857 0.010723193 -0.074930124 0.0014674348 -0.013248925
00000000: a28e 17bd cd44 af3c 2fc9 08bd 3438 1fbc
00000010: 8541 8c3c 1238 ddbc 5b09 1bbc 0ebb afbb
00000020: 3e3c e93b 91ac 523c 9889 f93b 53d9 41bd
00000030: a1a4 0a3b 9b1e 6b3c b525 f5bc 4084 4abc
00000040: 4cd3 49bc 0eb9 ae3c 2a84 57bb 0965 003b
00000050: 26bd 65bc 3954 0dbd 43a9 783c 6c2d 2fbd
00000060: ce86 2abd 3b37 1fbc 9c1c 7b39 b12e 2dbd
00000070: 55b0 2f3c f774 99bd f156 c03a 0512 59bc

net.flow_mapping.0.affine_layers.1.net.2.weight f4 [32, 32]
0.00073715346 -0.0020245537 -0.00032504357 0.0017705222 0.0030540798 -0.0024265463 0.0022688247 -0.0021416757
0.00037104235 -0.0028114158 0.0015408273 0.0008494108 0.0022804015 0.000713812 -0.001454856 -0.0029816285
0.00017005195 -0.0015464366 0.00066377065 0.0010066882 0.0024015629 -0.0011333022 -0.0026388555 -0.0067239157
-0.010234635 -0.00025113608 -0.0019666017 0.0017906596 0.00027485003 -0.0007691429 -0.00025058535 -0.0019713824
-0.0014677409 -0.0017326804 -0.0011558874 -0.00034445568 -0.0019170766 0.0020382523 0.0013910261 -0.0023056546
-0.00094956567 -0.0003609544 -8.3316845e-05 -0.0030711216 0.00044931495 0.0028075692 -0.0019235077 -0.0004594544
-0.0012241596 -0.0030638962 -0.0020699862 -0.0030295746 0.0017002329 0.0005841434 -0.0013666606 0.0013995002
0.00067175366 -0.002052532 -0.0027539728 -0.0035721427 0.0005192015 0.0032194608 0.0011253749 -0.00086045713
-0.0029737283 0.00022694143 -0.002876621 0.0010796235 -0.0026040124 0.0003719785 0.0019644625 0.0018309001
-0.00010425512 -0.0018574857 -0.0025218504 -0.003936911 -0.00035595443 -0.0022698494 -0.0025849855 0.00014069812
-0.001061129 -0.0041184244 -0.00036979263 0.0018915385 0.0010266597 -0.0012675407 -0.0028103043 -0.0017485146
-0.0024010423 0.0027991843 -0.001035535 0.0006219384 0.002585435 -0.0016225233 -0.0008616304 -0.0016055522
0.0002992975 -0.0021604504 -0.0016134052 -0.0027539958 -0.0014871072 -0.002856421 0.0031357855 0.0026114276
-0.0028852324 -0.001306835 -3.054466e-05 -0.0017990768 -0.002146515 0.0025514872 -0.0038593078 0.0003153814
-0.0035614623 0.0006485942 0.00074507523 0.0012446685 0.0029107917 0.0020571442 0.00069681526 -0.0036352423
-9.0627414e-05 0.0011190122 0.0017088001 0.0015643535 0.001481686 -0.0033041188 -0.0031206855 -0.0010569689
0.0020263277 0.0028271414 0.0008369199 -0.0013907014 0.0018814299 0.002863519 0.0029978857 -0.0024545079
0.002197051 0.0022033507 0.00029390966 -0.0011080034 0.0008407923 0.00043196336 -0.00054163934 0.0027316753
-0.0016417615 -0.0031262715 -0.0030052152 -0.0027662409 2.217221e-05 0.0010077338 -0.00094164145 0.00094936433
-0.0012962193 -0.0017651416 -0.0015049011 -0.0016500881 -0.0016045464 -0.0014121707 0.00261149 0.0031453269
-0.051534526 0.0068903556 -0.0036063122 -0.0025659816 0.0031398523 -0.0014568203 0.0021140412 0.0020624192
0.0022619835 0.0040681497 0.002382774 -0.047359277 0.0031108742 -0.0023216468 -0.05523907 -0.0015190946
-0.0057638614 0.0127357375 0.0021650973 -0.0029018447 -0.0014503858 -0.010262708 -0.0007405394 -0.0048852437
-0.050067045 0.0013748016 0.0017329216 -0.045152094 0.0036970864 -0.110958226 0.0005542381 -0.0020389035
-0.004010324 -0.0008800827 0.0022781265 -0.0027615374 -0.0010117458 -0.001206663 -0.00095243973 0.0014953666
-0.0029750546 -0.0028755502 -0.00085385254 -0.0014335868 -0.0029804201 0.0016449272 -0.004234596 0.0010861682
0.0006561454 -0.0047170995 -0.0029339143 0.0028506126 0.0022731684 0.0023141936 0.0004494679 -0.0018432299
-0.00012988668 -0.0018828455 0.0001473985 -0.0041603697 -0.0011046972 -0.0022475058 -0.0017234173 -0.0030034357
-0.0019023865 -0.0030094162 -0.001126629 -0.002396198 0.0010438453 -0.0009094477 0.0027591046 -0.000112509835
0.0020033265 -0.0027209858 0.00076779217 -0.0043341527 -0.0012286564 -0.001501728 -0.00579688 0.0028783581
-0.0031637163 -5.769707e-05 -8.540519e-05 0.0030510034 0.0011064053 0.0016051949 -0.0003276495 -0.00094702974
-0.00086772046 0.0028470536 -0.0003779165 -0.0036981306 -0.0018559755 -0.0021498047 0.00082666706 -0.0026114618
00000000: 883d 413a 60ae 04bb 9c6a aab9 de10 e83a
00000010: f526 483b b106 1fbb 90b0 143b 5b5b 0cbb
00000020: 7688 c239 bb3f 38bb 96f5 c93a feaa 5e3a
00000030: ca72 153b 1d1f 3b3a deb0 beba 6d67 43bb
00000040: f94f 3239 cdb1 caba e500 2e3a daf2 833a
00000050: 8a63 1d3b 508b 94ba a6f0 2cbb 4b54 dcbb
00000060: 2caf 27bc eaaa 83b9 1ae2 00bb 91b4 ea3a
00000070: bf19 9039 4ea0 49ba ff60 83b9 4f32 01bb
00000080: 3661 c0ba 1b1b e3ba 2581 97ba 0f98 b4b9
00000090: 6b46 fbba 3394 053b 1753 b63a 771a 17bb
000000a0: 46ec 78ba 7b3e bdb9 64ba aeb8 df44 49bb
000000b0: 0892 eb39 32ff 373b 351e fcba ede2 f0b9
000000c0: fb73 a0ba a6cb 48bb 9ba8 07bb d48b 46bb
000000d0: 59da de3a 3321 193a 8521 b3ba 6f6f b73a
000000e0: a018 303a c683 06bb ff7b 34bb 9c1a 6abb
000000f0: 061b 083a 97fd 523b 5181 933a 4d90 61ba
00000100: e2e2 42bb 20f7 6d39 b185 3cbb 2782 8d3a
00000110: 14a8 2abb 1c06 c339 36be 003b d0fa ef3a
00000120: 8ba3 dab8 e176 f3ba a145 25bb 3401 81bb
00000130: 659f bab9 c1c1 14bb dc68 29bb 5d88 1339
00000140: 9515 8bba d9f3 86bb bae0 c1b9 80ed f73a
00000150: fc90 863a 9c23 a6ba 152d 38bb 6a2e e5ba
00000160: ce5a 1dbb 8572 373b caba 87ba 9409 233a
00000170: 6770 293b d9aa d4ba 0adf 61ba 6471 d2ba
00000180: 08eb 9c39 5896 0dbb e578 d3ba 627c 34bb
00000190: 0aeb c2ba cb32 3bbb c081 4d3b 7c24 2b3b
000001a0: 2b16 3dbb 1b4a abba 141d 00b8 00cf ebba
000001b0: 8cac 0cbb da36 273b 71ec 7cbb c659 a539
000001c0: 6c67 69bb 6c06 2a3a 2751 433a 2524 a33a
000001d0: fbc2 3e3b 27d1 063b 7baa 363a 3f3d 6ebb
000001e0: 390f beb8 d2ab 923a d1f9 df3a fe0a cd3a
000001f0: 2235 c23a ea89 58bb 6a84 4cbb fe89 8aba
00000200: 23cc 043b 9047 393b be64 5b3a 3248 b6ba
00000210: 509a f63a e0a9 3b3b 2d78 443b cfdb 20bb
00000220: 66fc 0f3b 1766 103b e317 9a39 6d3a 91ba
00000230: 9e68 5c3a 2479 e239 cdfc 0dba e805 333b
00000240: 6030 d7ba 22e2 4cbb 25f3 44bb d249 35bb
00000250: 75fe b937 ef15 843a 7dd8 76ba c3de 783a
00000260: e7e5 a9ba 535c e7ba 1a40 c5ba c547 d8ba
00000270: a54f d2ba 9618 b9ba 8825 2b3b d421 4e3b
00000280: de15 53bd 7ec8 e13b e157 6cbb 072a 28bb
00000290: fbc5 4d3b c7f2 beba ba8b 0a3b a729 073b
000002a0: c93d 143b 1d4e 853b 5028 1c3b cdfb 41bd
000002b0: cfdf 4b3b c526 18bb 5d42 62bd 5b1c c7ba
000002c0: c6de bcbb 8ea9 503c 4ee4 0d3b e02c 3ebb
000002d0: df1a beba eb24 28bc c220 42ba 6514 a0bb
000002e0: 1a13 4dbd b032 b43a 3323 e33a 67f1 38bd
000002f0: d14a 723b 113e e3bd 4a4a 113a 209f 05bb
00000300: 0969 83bb 5ab5 66ba 9f4c 153b e9fa 34bb
00000310: 8e9c 84ba e428 9eba 26ad 79ba 2d00 c43a
00000320: 22f9 42bb ba73 3cbb 13d5 5fba 31e7 bbba
00000330: 2753 43bb 999a d73a 5ec2 8abb c25d 8e3a
00000340: 2c01 2c3a e691 9abb ea46 40bb 58d1 3a3b
00000350: 70f9 143b baa9 173b 8fa6 eb39 8898 f1ba
00000360: 3132 08b9 d0c9 f6ba fc8e 1a39 b653 88bb
00000370: 7dcb 90ba e44a 13bb 4ae4 e1ba 4ad5 44bb
00000380: 8059 f9ba a039 45bb 65ab 93ba 8809 1dbb
00000390: a3d1 883a 0168 6eba 18d2 343b 42f3 ebb8
000003a0: 3e4a 033b 9152 32bb a945 493a 8205 8ebb
000003b0: de0a a1ba a1d5 c4ba c1f3 bdbb d6a2 3c3b
000003c0: 5a56 4fbb c2ff 71b8 901b b3b8 58f3 473b
000003d0: cd04 913a 6765 d23a 5fc8 abb9 1742 78ba
000003e0: bc77 63ba a295 3a3b 1823 c6b9 565c 72bb
000003f0: 3444 f3ba bde3 0cbb b0b4 583a 0f25 2bbb

net.flow_mapping.0.affine_layers.1.net.2.bias f4 [32]
-0.04023785 -0.0005888537 -0.00011377967 -0.0016777979 -0.0032917103 0.003247265 -4.894954e-05 -0.00025785947
-0.0063272268 -0.038258478 0.07624404 0.00021233443 -0.0032892732 -0.0141985025 0.0011810673 -0.00035286197
0.02364848 -0.0009803924 -0.00084290147 -0.0032217158 3.6071793e-05 -0.00026928892 -0.0004012523 -0.00038062263
-0.0025767535 -0.0038985768 -0.00061787514 -0.0011466725 -0.0005865031 -0.0018283303 -0.0009465771 -0.0006346298
00000000: 72d0 24bd 4e5d 1aba ff9c eeb8 8ee9 dbba
00000010: bcb9 57bb 11d0 543b 2b4f 4db8 5031 87b9
00000020: a054 cfbb ecb4 1cbd d625 9c3d 17a6 5e39
00000030: d990 57bb d6a0 68bc 0bce 9a3a 5500 b9b9
00000040: 75ba c13c 8380 80ba 29f6 5cba 6c23 53bb
00000050: cb4b 1738 592f 8db9 2c5f d2b9 4e8e c7b9
00000060: c0de 28bb 447f 7fbb e6f8 21ba f24b 96ba
00000070: 8fbf 19ba 96a4 efba b723 78ba 495d 26ba
