param/model_minloss_iter500000_my_data_10_32_5.pth (torch, 251211 bytes, 174 tensors)

net.rotations.0.LU f4 [2, 2]
00000000: 0000 0000 0000 0000 0000 0000 0000 0000
0.0 0.0 0.0 0.0

net.rotations.0.LU_init f4 [2, 2]
00000000: 0000 803f 0000 0000 0000 0000 0000 803f
1.0 0.0 0.0 1.0

net.rotations.0.ones_mat f4 [2, 2]
00000000: 0000 803f 0000 803f 0000 803f 0000 803f
1.0 1.0 1.0 1.0

net.rotations.0.I f4 [2, 2]
00000000: 0000 803f 0000 0000 0000 0000 0000 803f
1.0 0.0 0.0 1.0

net.flow_mapping.0.scale_layers.0.b f4 [1, 2]
00000000: ce58 eebe 4425 6bbe
-0.46552128 -0.22963434

net.flow_mapping.0.scale_layers.0.logs f4 [1, 2]
00000000: d363 65be fbcd f4bd
-0.22401361 -0.1195335

net.flow_mapping.0.scale_layers.0.b_init f4 [1, 2]
00000000: 0000 0000 0000 0000
0.0 0.0

net.flow_mapping.0.scale_layers.0.logs_init f4 [1, 2]
00000000: 0000 0000 0000 0000
0.0 0.0

net.flow_mapping.0.scale_layers.1.b f4 [1, 2]
00000000: b9eb 43be 3631 b2be
-0.1913289 -0.3480317

net.flow_mapping.0.scale_layers.1.logs f4 [1, 2]
00000000: cec6 debd b953 41be
-0.10877763 -0.18879594

net.flow_mapping.0.scale_layers.1.b_init f4 [1, 2]
00000000: 0000 0000 0000 0000
0.0 0.0

net.flow_mapping.0.scale_layers.1.logs_init f4 [1, 2]
00000000: 0000 0000 0000 0000
0.0 0.0

net.flow_mapping.0.scale_layers.2.b f4 [1, 2]
00000000: d613 8bbe a274 02be
-0.2716357 -0.12739804

net.flow_mapping.0.scale_layers.2.logs f4 [1, 2]
00000000: 1f15 b7bd 7497 ecbd
-0.089395754 -0.11552325

net.flow_mapping.0.scale_layers.2.b_init f4 [1, 2]
00000000: 0000 0000 0000 0000
0.0 0.0

net.flow_mapping.0.scale_layers.2.logs_init f4 [1, 2]
00000000: 0000 0000 0000 0000
0.0 0.0

net.flow_mapping.0.scale_layers.3.b f4 [1, 2]
00000000: f281 febd 4322 89be
-0.12427129 -0.26783952

net.flow_mapping.0.scale_layers.3.logs f4 [1, 2]
00000000: a321 f0bd 3207 aebd
-0.11725166 -0.08497466

net.flow_mapping.0.scale_layers.3.b_init f4 [1, 2]
00000000: 0000 0000 0000 0000
0.0 0.0

net.flow_mapping.0.scale_layers.3.logs_init f4 [1, 2]
00000000: 0000 0000 0000 0000
0.0 0.0

net.flow_mapping.0.scale_layers.4.b f4 [1, 2]
00000000: a72f 90be 681d 07be
-0.28161356 -0.13194811

net.flow_mapping.0.scale_layers.4.logs f4 [1, 2]
00000000: 4264 86bd 601e f3bd
-0.065620914 -0.11871028

net.flow_mapping.0.scale_layers.4.b_init f4 [1, 2]
00000000: 0000 0000 0000 0000
0.0 0.0

net.flow_mapping.0.scale_layers.4.logs_init f4 [1, 2]
00000000: 0000 0000 0000 0000
0.0 0.0

net.flow_mapping.0.scale_layers.5.b f4 [1, 2]
00000000: ea65 acbd 377f b8be
-0.08417876 -0.36034557

net.flow_mapping.0.scale_layers.5.logs f4 [1, 2]
00000000: 8e67 b5bc 8918 b4bd
-0.022144105 -0.08793742

net.flow_mapping.0.scale_layers.5.b_init f4 [1, 2]
00000000: 0000 0000 0000 0000
0.0 0.0

net.flow_mapping.0.scale_layers.5.logs_init f4 [1, 2]
00000000: 0000 0000 0000 0000
0.0 0.0

net.flow_mapping.0.scale_layers.6.b f4 [1, 2]
00000000: f3b6 98be 180c c4bd
-0.2982708 -0.09572619

net.flow_mapping.0.scale_layers.6.logs f4 [1, 2]
00000000: 7948 6bbc 65f4 6abc
-0.014360541 -0.014340495

net.flow_mapping.0.scale_layers.6.b_init f4 [1, 2]
00000000: 0000 0000 0000 0000
0.0 0.0

net.flow_mapping.0.scale_layers.6.logs_init f4 [1, 2]
00000000: 0000 0000 0000 0000
0.0 0.0

net.flow_mapping.0.scale_layers.7.b f4 [1, 2]
00000000: 0f22 89bd 95d4 8bbe
-0.06695949 -0.27310625

net.flow_mapping.0.scale_layers.7.logs f4 [1, 2]
00000000: e2fb 963d d1e2 04bc
0.073722616 -0.008110718

net.flow_mapping.0.scale_layers.7.b_init f4 [1, 2]
00000000: 0000 0000 0000 0000
0.0 0.0

net.flow_mapping.0.scale_layers.7.logs_init f4 [1, 2]
00000000: 0000 0000 0000 0000
0.0 0.0

net.flow_mapping.0.scale_layers.8.b f4 [1, 2]
00000000: 5360 cebd 4458 83be
-0.10076966 -0.2565328

net.flow_mapping.0.scale_layers.8.logs f4 [1, 2]
00000000: 201e 0c3d f703 133e
0.034208417 0.14356981

net.flow_mapping.0.scale_layers.8.b_init f4 [1, 2]
00000000: 0000 0000 0000 0000
0.0 0.0

net.flow_mapping.0.scale_layers.8.logs_init f4 [1, 2]
00000000: 0000 0000 0000 0000
0.0 0.0

net.flow_mapping.0.scale_layers.9.b f4 [1, 2]
00000000: b6be 3bbd fd17 d73c
-0.045836173 0.026256556

net.flow_mapping.0.scale_layers.9.logs f4 [1, 2]
00000000: 02bb 1f3e c4b1 4e3d
0.15598682 0.0504625

net.flow_mapping.0.scale_layers.9.b_init f4 [1, 2]
00000000: 0000 0000 0000 0000
0.0 0.0

net.flow_mapping.0.scale_layers.9.logs_init f4 [1, 2]
00000000: 0000 0000 0000 0000
0.0 0.0

net.flow_mapping.0.affine_layers.0.net.0.weight f4 [32, 1]
00000000: b086 44bc 1c7c b93d ff05 19be f906 6f3e
00000010: 99a1 8dbe bf87 3b3d a85d e63d 7932 0bbe
00000020: eee9 06bd 8938 57be 6e26 bdbe 95a0 5b3d
00000030: 4a0a c8bd f28f b8be 2e46 aabe d742 9339
00000040: 1d94 2ebc ef0d 24be 7bdd c83c d77e 3abd
00000050: 8b79 42bb ad71 8abe 18a7 60be 30e7 0b3e
00000060: 8714 d7be 1bca d0be 92ce b8bd 742f 753e
00000070: fa19 cbbc 64cc a7bd d607 103e 8d60 ab3d
-0.011995003 0.09056875 -0.14943694 0.23342504 -0.27662352 0.045783754 0.11248332 -0.13593473
-0.032937936 -0.2101766 -0.36943382 0.05361994 -0.097675875 -0.36047322 -0.33256668 0.00028087824
-0.01065543 -0.1602094 0.024519673 -0.04553112 -0.0029674496 -0.27039853 -0.21938741 0.1366241
-0.4200785 -0.40779194 -0.09023775 0.23943883 -0.02479266 -0.08193281 0.14065489 0.08368025

net.flow_mapping.0.affine_layers.0.net.0.bias f4 [32]
00000000: 7da1 0b3e 89bf 32bf 53dc 93be a2a4 8fbe
00000010: 6d13 cf3e ea9d 40bf fc8b b1be fe08 903e
00000020: 616b 053f 3652 e9bd b217 c83e ef36 40bf
00000030: 1779 bdbe 2e60 55be 6300 1cbe cc97 93be
00000040: af9b 273e 5b7c ad3e 4fa9 3e3e c0c4 23be
00000050: 0cfc 403f 8669 b63e ea8b b0be a412 efbe
00000060: 780c a33e eafd 4b3e 791c cb3e 016f 393d
00000070: 2f51 693d 759c afbe 1322 cfbe 9559 24be
0.13635822 -0.6982351 -0.28879032 -0.28055292 0.40444508 -0.7524096 -0.34677112 0.2813186
0.5211697 -0.113926336 0.39080578 -0.7508382 -0.37006447 -0.20837471 -0.15234523 -0.2882675
0.16367982 0.33883938 0.18619274 -0.15993023 0.75384593 0.35627383 -0.34481746 -0.4669391
0.3184545 0.1992108 0.3967016 0.045271877 0.05696219 -0.34299055 -0.40455684 -0.16049798

net.flow_mapping.0.affine_layers.0.net.2.weight f4 [32, 32]
00000000: 7b62 343d ec95 123d 7bb6 a2bb 7551 013d
00000010: b3eb 303d 9b11 aabd f768 1bbd 2cf6 03bb
00000020: 6f47 443d 6bdb 25bd 5f27 273c aef4 fdbc
00000030: 48d1 69bd 53ea 3bbc 22e2 e73b f0ab 183d
00000040: c28f 4dbc 890c 8b3c b5c6 b9bd ec3c 02bc
00000050: f48b b03d dc19 28bd 4cdc 00bd f02e 94bd
00000060: 3f58 2b3d 7dfd 673c 0885 8f3d e503 b03c
00000070: 03f2 613d 667a 53bd 9714 20bb 3046 34bd
00000080: c025 813d 1802 893c 080e fe3c 377b e13a
00000090: 9d12 723d ee68 593d 0982 48bc 0f8c e0bc
000000a0: ff50 d03c 94c8 70bd 1e99 2ebd 29d3 8a3d
000000b0: 471b 853d 9290 05bc 5f09 49bd 3f38 80bd
000000c0: 6e81 bb3b eaf0 303d 10c0 51bd c1a5 85bd
000000d0: 77b3 0bbd 7468 f33c 4dfe 5c3c 3ba8 5a3d
000000e0: f67c 783d 8a26 64bd b2ac f1bc 59a7 91bd
000000f0: b712 0c3d bc6c fdbc a231 61bd 7792 87bd
00000100: c98e cfbc 0ca6 8abb 2eb5 dcbb ca6a debc
00000110: dd80 863d 4d34 79bd b467 3d3d 7db8 9f3c
00000120: eb6e e9bc 1073 643d ee1c 823d 3088 9e3c
00000130: 1875 f73c c4e6 523d c3b9 29ba 2aca 13bc
00000140: b662 00bc 6d3d 10bc 5645 3c3d f34f 9ebc
00000150: 0ec8 cebc a7f3 5c3d 6be9 e5bb c931 3f3c
00000160: f12a 613d dd3a cc3c 4a0f f03c d9ea 88bd
00000170: 70da 19bd 294d 4c3d 952d 89bd 91e8 fa3b
00000180: 91c9 553d efcb d13c 1e95 f83c 9b2a fcbc
00000190: 8d87 c5bc 43b8 213d 21e0 dd3c 6211 d23c
000001a0: dbcb cabb b440 53bd 9b0f 393d 4370 bd3a
000001b0: 2c71 d7bc 8828 35bc 9738 423d 80e0 afbd
000001c0: eb90 333d df67 39bc 72ab 8fbd 6ac1 573a
000001d0: 092c 5ebd 6b9d 0cbd d5d1 233d 435f 3b3d
000001e0: b40b 01bd 76b1 173d d924 e9bc fad3 93bc
000001f0: 3992 4d3c 4868 64bd 8661 15bd 1c2a bd3c
00000200: 55f7 77bd 4344 a7bc 93b3 143d ea7f 8cbd
00000210: 208c 3fbd 0443 573d 3e0c 8c3d ee1e 803d
00000220: 788f 02bd 1fb2 4bbc 8e79 df3c 4656 61bc
00000230: 8817 2f3c 5e5f 68bb 3ab7 88bd 48d6 403b
00000240: b5cc 7c3c a2ec f8bc 4e0f b63c 5a43 343d
00000250: f4ba e0bb e361 723d 9c9c 60bd e2bf ddbc
00000260: d44c 4b3d 53e5 9b3c 4046 04bd a576 613d
00000270: 3f83 47bd 5b12 4abd 7029 fbbb e8c3 42bd
00000280: bfa3 c93c 2954 043d 80a9 5bbd 3303 26bd
00000290: a68e aa3c 9a35 2dbc 583a b4bc 6431 af3c
000002a0: db1d 2b3c 4a35 2dbd 2d17 74bd 4609 c73c
000002b0: f965 2abd 4e4b eebc 0384 1cbb eb72 65bd
000002c0: 8862 94bd 318a 183d 4101 c2bc 1e84 4cbd
000002d0: b345 713d 716d 56bd 825d 5fbd e34d 87bd
000002e0: 7d2d 1b3d bd19 12bd 79a3 93bd ba5f 1a3d
000002f0: ef0a 963d 7dad 15bd 74c6 263d 3d44 a0bd
00000300: 1a07 9bbd f833 d83b 8f31 eebc b33b a9bb
00000310: 3dca 69bc 3b19 86bd 1914 b53b d42e 513d
00000320: 6fa8 6ebd 86a1 533d aad6 48bd e84e 8d3c
00000330: 721f 7cbd 710b 00bd 7ed6 53ba 3f9d 73bd
00000340: 90cb adbd a6dd 843d a5f8 9a3c 9291 8d3d
00000350: 405b 503d 41e3 07bd ff2d 723d 7943 ec3b
00000360: 7877 c43c a8c1 69bd 2123 fdbc ca8c e13c
00000370: e124 73bd 8697 69bd 1668 9cbd 4d0e 96bd
00000380: ac47 8bbd bb61 05bd 457b 773d 7ca5 31bd
00000390: d5b7 8fbc b10f 42be d01d 6bbd 7755 283d
000003a0: 2480 e83c c861 833c ce94 933d 504e d8bd
000003b0: 6856 02bd 7ff3 81bd 8cd7 513d 8894 58bd
000003c0: 524c a7bd 29e3 433d b380 8e3c d513 bd3c
000003d0: 1c37 833e 6bda 3fbd 3914 a63c 4e57 8bbd
000003e0: edaf 78bd 4581 933a e3d1 d43c 8561 ca3c
000003f0: 88ff 5dbb e82d 6f3d c375 41bc 0f74 a23c
0.04403923 0.035787508 -0.004965601 0.031571824 0.04319353 -0.08304139 -0.0379419 -0.0020135744
0.047919687 -0.040492456 0.010202258 -0.031000461 -0.05708435 -0.0114694415 0.0070765177 0.037273347
-0.012546482 0.01697375 -0.090711035 -0.007949095 0.08620444 -0.041040286 -0.03146009 -0.07235515
0.041832205 0.014159557 0.070077956 0.021486232 0.05516244 -0.0516304 -0.0024426335 -0.04401225
0.06306028 0.016724631 0.03101255 0.0017202859 0.059099782 0.053078584 -0.012238034 -0.027410535
0.025429247 -0.058785036 -0.042626493 0.06778557 0.06499343 -0.008152144 -0.049081203 -0.06260728
0.0057222163 0.043198504 -0.051208556 -0.06525756 -0.034106698 0.029712893 0.013488364 0.053383093
0.060666047 -0.055700816 -0.029501293 -0.07111997 0.034197535 -0.030935638 -0.054978974 -0.06619733
-0.02533664 -0.00423122 -0.0067354655 -0.02715053 0.065675475 -0.060840894 0.046241477 0.01949715
-0.028495273 0.055773795 0.06353174 0.019352049 0.030207202 0.051489606 -0.0006474519 -0.009020368
-0.0078360345 -0.008803708 0.04596456 -0.019325232 -0.025241878 0.053943302 -0.007016351 0.011669585
0.054972593 0.024930412 0.029304165 -0.06685419 -0.037561834 0.049878273 -0.06698147 0.0076571186
0.05219418 0.025609938 0.030344542 -0.030782035 -0.024112487 0.039482366 0.027084412 0.025643054
-0.0061888522 -0.051575378 0.0451809 0.0014453012 -0.026299082 -0.011057027 0.04741725 -0.08587742
0.043839376 -0.011316269 -0.070151225 0.000823042 -0.054241214 -0.034329813 0.039995033 0.045745146
-0.0315053 0.037034474 -0.028459953 -0.018045414 0.012547069 -0.055763513 -0.03646996 0.023091368
-0.06053861 -0.020418292 0.036304068 -0.06860335 -0.046764493 0.052554145 0.068382725 0.06255899
-0.031875104 -0.012432604 0.027279641 -0.013753479 0.010686763 -0.0035457234 -0.06675573 0.0029424597
0.015429665 -0.030386273 0.022224095 0.044009544 -0.006858224 0.059175383 -0.054836854 -0.027069036
0.049633816 0.019030249 -0.032293558 0.05504479 -0.04870915 -0.04933391 -0.007664852 -0.047550112
0.024614213 0.032306824 -0.053628445 -0.040530395 0.020819973 -0.010571862 -0.022000477 0.021385856
0.01044413 -0.04228715 -0.059592415 0.024296414 -0.041601155 -0.029088642 -0.0023882396 -0.056017797
-0.07245356 0.037241165 -0.023682239 -0.049930684 0.05890436 -0.052350465 -0.054532535 -0.066066526
0.037885178 -0.035669077 -0.07208914 0.03768895 0.07326304 -0.036542404 0.040716603 -0.078255154
-0.07569714 0.006597992 -0.029076366 -0.0051645874 -0.014269409 -0.06547781 0.0055260775 0.05107005
-0.0582661 0.051667713 -0.049032845 0.01724954 -0.061553426 -0.03126091 -0.0008080973 -0.059476133
-0.08486092 0.064875886 0.018917391 0.06912531 0.050868273 -0.03317571 0.059125897 0.007210192
0.023982748 -0.05706945 -0.03090054 0.027532954 -0.059361342 -0.05702927 -0.0763704 -0.073269464
-0.0680078 -0.032563906 0.060420293 -0.04337071 -0.017543713 -0.18951298 -0.05740148 0.04109713
0.028381415 0.016037837 0.072061166 -0.10561812 -0.031820685 -0.06345271 0.051230952 -0.052876025
-0.08168854 0.04782406 0.017395353 0.023080746 0.25627983 -0.04683916 0.020273315 -0.068037614
-0.06071465 0.0011253735 0.025978988 0.024704704 -0.0033874232 0.05839339 -0.011807862 0.019830732

net.flow_mapping.0.affine_layers.0.net.2.bias f4 [32]
00000000: fb7a 60bd a5c3 d0bc 7c05 18bd 616d 29bd
00000010: 047c fc3c bf89 40bd 2110 673d ccba cc3d
00000020: 3121 20b9 6f82 373d 1db0 23bc c8d9 5b3d
00000030: 343a bd3c 0907 1b3d fa3f 4f3d 7837 f83c
00000040: 5bd1 29bd 2ed7 c83d 77db 813d 2b35 43bc
00000050: 6049 4abd f16c 993c cf23 4b3d 4450 b1be
00000060: 2073 cabd 7c2e fdbd 21b7 49bc 93f5 a2be
00000070: 48ad e43d e6b5 45be 221a 4fbe df30 183d
-0.054804783 -0.025483916 -0.037114605 -0.041364077 0.030820854 -0.047006365 0.056411866 0.09996566
-0.00015271154 0.044802126 -0.009990719 0.05367449 0.023099042 0.037848506 0.050598122 0.030299887
-0.041459423 0.09806667 0.06340688 -0.011914532 -0.049386382 0.018728705 0.049594697 -0.3463155
-0.098852396 -0.12362382 -0.012311728 -0.31827983 0.11165863 -0.1930767 -0.20224813 0.037155982

net.flow_mapping.0.affine_layers.0.net.4.weight f4 [32, 32]
00000000: 4a85 a03c e77c 57bd 52db 67bc 9eb8 2fbd
00000010: f5e8 ebbc ff56 333c db27 97bd 0319 363d
00000020: 70d8 663d 57b5 3e3d 9b50 84bd 9998 57bd
00000030: c2d7 c8bc b08b 11bb ea38 e7bc dd8c dfbc
00000040: c322 733b 4597 56bd ea3b c73c 5519 73bc
00000050: 2bd5 16bc eb8b d8bc 5272 2c3d 390c d33b
00000060: 78da e03c 1a7a 0a3a 054c 763b e4be 8ebd
00000070: 61ae 243d 2d26 82b7 d5d0 eabb 43d4 a2bc
00000080: fc22 a8bc 97e3 66bd af5f 28bc 85f7 83bd
00000090: 4f0f e6ba 7065 7abd fa7e ce3c 0d22 883c
000000a0: 2055 88ba 2065 86bd 4c86 333d 4e58 54bd
000000b0: d1b4 bbbc 09f0 5f3d 03f7 af3c def6 083a
000000c0: cae2 26bd 0a7a 02bc 5372 353d 00b4 0bbd
000000d0: 1342 823b df95 88bd 042e 643d a11f 0f3c
000000e0: d71b 5fbe 0747 a4bd 1c22 efbc 7d9d 8abe
000000f0: ebe2 c1bb 5384 bebd 618d d3bd 1298 42bd
00000100: 2149 f53c 121a 4abd fea8 873c ae89 113d
00000110: 5db1 933c 038a 15bd 37ce 2cbd 681e 94bd
00000120: dda9 2fbd d7bb a5bc 97ea a73c a29c 49bc
00000130: cf36 4bbd 3a24 653d 2490 92bd 2fec 413d
00000140: 106a 763c 55c1 39ba 4e45 f8bc cc9d 87bb
00000150: 0948 0bbd 6265 163d 40b4 21bd c79b 62bc
00000160: be7e bbbd 2653 583d 0e92 4b3d c728 9c3b
00000170: da74 07bd 797a 683d e62b cabc bc00 1ebd
00000180: 3481 2cbd 164d 96bd 1727 233c ac1c 53bd
00000190: d77f 0cbd e377 4cbd 4fd9 c5bc fe6b 803d
000001a0: 1a26 0b3d 1569 40bd 7e58 bcbc e741 1abc
000001b0: 0b53 6a3b 3985 6b3b 6874 2e3c 76af 5f3d
000001c0: 7b8a b8bc 035f 07bd cd84 40bd 0817 f7bc
000001d0: ff58 65bc 6b2e 14bd f773 eeba 4ec4 f03c
000001e0: 9ae9 c83b b322 803d 7080 063d 9a5a 6f3d
000001f0: 995e 21bd 8da4 893d 7cb8 8b3d 46d4 213d
00000200: cf98 e4bc a442 003d 718b 4d3c 5036 7ebd
00000210: 725c 0f3d a726 903d 03d0 323d a3d6 673d
00000220: 6223 b23c 6328 86bc bb5e 23bd 6a42 4c3d
00000230: b49b 01bd 8e68 d0bc e258 dabc 9bcc 4d3b
00000240: 55c1 963c d359 893d e8e6 733d 9ea3 babc
00000250: 2042 5f3c 932a fabc 76fc fb3c 5a4f b6bd
00000260: 6dbd aebd e931 b2bd b1d0 8ebd bf64 28be
00000270: 239f fb3b 700a 83bd 205b eabc 026f 5e3d
00000280: 3e9d 6e3c 68c7 7f3d 9a25 bd3c 8f73 853d
00000290: de98 97bd 93f7 c7bb 4531 e5bb 5034 063d
000002a0: 9943 7abd 287e 74bd f753 f93c 1ed5 4a3d
000002b0: be5a 82bd 3440 633d 38f5 64bc 3993 22bd
000002c0: 3920 133d e35b 8abd 3971 993d 0e09 273c
000002d0: 1cc0 693c bf5d 8a3d 57f9 ca3b 9c8c 8cbd
000002e0: abcb 20bd 5b66 713d 5287 70bd a06c 28bd
000002f0: 39f9 64bd 8313 433d b4d5 2a3d 37ce af3c
00000300: e833 45bd f4ab 4bbc 6eaa 653d ff09 58bd
00000310: 0bc4 4c3c d123 0fbd 3ade d93c 4af2 4cbc
00000320: 6e3c ffbb 3781 523d 81bd 313d 8cb8 aebd
00000330: 4dd3 73bd b542 b13b 2b12 4d3d d6b4 073d
00000340: 227c 54bd a23d be3c c4c4 87bd 2556 723d
00000350: 42f5 7a3b 7f80 2b3c b448 88bd ee9e 9dbd
00000360: 65e2 44bc 666a 343d ee7a 813d c0c5 713d
00000370: 651b 16bd bc56 3ebd 21e2 d1bb 8f76 433d
00000380: e596 ec3b 5807 3dbd f57c 6d3d 46f7 a2bc
00000390: 1849 803d cb6c 15bd 68bc 30bd 41d0 a4bc
000003a0: ec22 95bb 52ff 2fbd 484b 7fbd 3a7d d0bc
000003b0: c912 a6bc 4693 1cbd 8f10 213c 4501 82bc
000003c0: 37a1 243d 11c4 d43c 8119 413d 2da4 403d
000003d0: 935f ceba 6b46 6b3d 6a56 513c 6e6d 83bc
000003e0: 0fb3 a3bc b528 353d 3ad7 a8bc 70ee db3c
000003f0: 54e4 1e3b 28f3 66bd 6ff4 f6bc f929 583d
0.019594807 -0.05260935 -0.014151411 -0.042900674 -0.028797606 0.010946034 -0.07380649 0.044457447
0.056358755 0.046559658 -0.06460687 -0.052635763 -0.024516944 -0.0022208504 -0.02822538 -0.027288849
0.0037099577 -0.052390356 0.024320561 -0.014837583 -0.009206097 -0.026433906 0.04210121 0.006440666
0.027447924 0.0005282477 0.0037581932 -0.06970003 0.040205363 -1.5514985e-05 -0.007166008 -0.019876605
-0.020524494 -0.05636939 -0.010276719 -0.06443695 -0.001755217 -0.061131895 0.025207032 0.0166178
-0.0010401346 -0.06562257 0.043829247 -0.051842026 -0.022913368 0.054672275 0.021480089 0.00052247744
-0.040743627 -0.007963667 0.04429848 -0.03410721 0.003975162 -0.06669211 0.055707946 0.008735568
-0.21787964 -0.0802136 -0.02919107 -0.2707328 -0.0059169433 -0.093025826 -0.103297 -0.047508307
0.029942097 -0.04934127 0.016560074 0.035531692 0.01802891 -0.03650857 -0.04218885 -0.07232362
-0.042886604 -0.02023117 0.020497603 -0.012305411 -0.049612816 0.05594275 -0.07156399 0.047344383
0.015039936 -0.00070859987 -0.030306485 -0.004138684 -0.034004245 0.03671778 -0.03947854 -0.0138310855
-0.091550335 0.05281367 0.049699835 0.004765603 -0.033070423 0.056757424 -0.024679136 -0.03857492
-0.042115405 -0.07338922 0.00995805 -0.051541016 -0.034301605 -0.04991902 -0.024151472 0.06270598
0.033971883 -0.046975214 -0.022991415 -0.009415126 0.0035755064 0.0035937561 0.010647871 0.054610692
-0.02252697 -0.033049595 -0.04700165 -0.03016235 -0.013998269 -0.03617708 -0.0018192519 0.02939048
0.006131363 0.06256618 0.03283733 0.058436014 -0.039396856 0.06720839 0.06822297 0.03950908
-0.027904896 0.031313553 0.012545452 -0.062063515 0.035000272 0.07038622 0.043655407 0.056601178
0.021745387 -0.01637668 -0.039885264 0.049868025 -0.03164263 -0.02544048 -0.02665371 0.0031402472
0.018402735 0.06706586 0.05954638 -0.022783097 0.013626605 -0.03053788 0.030760031 -0.08901854
-0.08532224 -0.08700926 -0.069733985 -0.16444682 0.0076788827 -0.06398475 -0.028607905 0.054305084
0.014563857 0.062446028 0.023089219 0.06516182 -0.07402204 -0.006102511 -0.006994399 0.032764733
-0.061099622 -0.059690624 0.030435545 0.04951965 -0.06364964 0.05548115 -0.01397448 -0.039691184
0.0359194 -0.06755807 0.07492299 0.01019503 0.014266994 0.06756162 0.0061942744 -0.068627566
-0.039256733 0.058935504 -0.0587228 -0.041119218 -0.05590174 0.04762603 0.04170771 0.021460636
-0.048145205 -0.012431134 0.056070738 -0.052743908 0.012497912 -0.034946267 0.026595224 -0.012508938
-0.007789186 0.05139276 0.043393616 -0.08531293 -0.059527684 0.0054095634 0.050066154 0.033131443
-0.051876195 0.023222748 -0.06629327 0.059164185 0.0038293158 0.010467648 -0.06654492 -0.07696329
-0.012016867 0.044046782 0.06322275 0.05902648 -0.03664722 -0.046469435 -0.0064051305 0.04772049
0.0072201365 -0.04614958 0.057980496 -0.0198933 0.062639415 -0.036480706 -0.04314843 -0.020118834
-0.004551282 -0.0429681 -0.062327653 -0.025450338 -0.02027263 -0.03822639 0.009830608 -0.015869746
0.04019281 0.025972398 0.047143463 0.04703157 -0.0015745036 0.057440203 0.01277695 -0.016043391
-0.019982843 0.044228274 -0.02061044 0.026847094 0.002424498 -0.056384236 -0.030145852 0.052774403

net.flow_mapping.0.affine_layers.0.net.4.bias f4 [32]
00000000: 0d2c 2bbd 49a4 813d 78b7 323c 715d 49be
00000010: f533 c13d ac74 23bd 8c3c 76bd c531 42bd
00000020: 946e 353d ba29 7bbd 4c68 72bd ae3b 2bbe
00000030: c594 3d3d 0a73 18bc f55b 72bd 4e52 8dbc
00000040: 87d7 cbbe 17d9 35bc 273b 86bd 3b0a d13c
00000050: aa1e dfbc 4849 87bd 745c 863e 8a8e 0a3d
00000060: 3a0f ae3c 3c82 88bc 61a8 2c3b f1c7 77bd
00000070: 3d38 32bd 9be0 23bc 08be 453d 36a2 173d
-0.041790057 0.06330163 0.010908 -0.19664551 0.09433738 -0.03990619 -0.060116336 -0.047410745
0.04429491 -0.06131909 -0.059181497 -0.16721985 0.046284456 -0.009304771 -0.05916973 -0.01725116
-0.39812872 -0.0110991215 -0.06554251 0.025517574 -0.027236301 -0.06605774 0.2624241 0.033827342
0.021247495 -0.016663663 0.002634548 -0.060493413 -0.043510664 -0.010002281 0.04827693 0.03701993

net.flow_mapping.0.affine_layers.0.net.6.weight f4 [32, 32]
00000000: 7106 3c3d 6028 163d 933e 2f3d e0a1 93be
00000010: 4df3 d53b 92ec bc3c 5210 363d 40d8 f03c
00000020: a14c 583d 1f3c fbbb ebb4 1cbc d636 fdbf
00000030: 5c08 923c a98e acbc f953 2abd aeb8 71bc
00000040: 71a1 6d3d 14fd 433d 2fe7 8e3d afa3 c3bc
00000050: bb3c 893b a0b3 83bd 9ae4 a73e 9f54 873d
00000060: 89a0 3cbc ef09 5c3d dc04 28bc a982 8a3c
00000070: 9ed9 903d 41a5 ddbc fb2a 273e adeb 693d
00000080: 9b7d aebd d193 993b 9669 3f3d 8666 b33d
00000090: 9767 8dbd 446e ecbc eb4c f0bb 5e5d 623a
000000a0: 5fba 0cbd 2d86 483d ca7f 0bbd 5ec3 353d
000000b0: 69d9 d43c 6a83 313c 21a2 213d b2a8 803d
000000c0: 7a0f a53d 9d07 59bd 2708 823d 6526 38bc
000000d0: ae70 29bd 9d0c 89bd 3af2 c8be ba75 183d
000000e0: fa14 9b3b 07f7 5a3d 9d2b b03c ab8c fc3c
000000f0: dfdf 03bd b29c 2ebd a7d1 183d f70d 4ebd
00000100: 4839 1bbd 652c 763c c6bd b53d 2ed0 a4be
00000110: 6a99 403d b904 89bd d876 4b3c d4fd 173d
00000120: d2b8 a33c c9ac f5bc 6fba 8ebb 6554 ccbe
00000130: cb43 483d fa33 ba3c 0e50 8a3d 8c08 29bd
00000140: 3655 d5bd b504 543c 15c6 6c3d 584c 8b3d
00000150: 2276 18bd 0b1a 82bd 5410 b73e c9c1 a4bb
00000160: b844 17bd 59be 80bc 2f05 c1bc ede9 d7bb
00000170: b866 bf3c 0253 173d b74a f8bc 5fc9 d43d
00000180: baa1 aabd cd3a 70bd 39dd f4ba 99e5 63bd
00000190: f6b4 9ebd 9a6f 1b3d 5127 513d 9690 173b
000001a0: 747b a2bc 77d9 cb3c 12de 053d a98a 6c3d
000001b0: f353 b73c 68a1 f739 b25b 5ebc dbba 1abd
000001c0: 02b5 ccbc 97b1 ec3c f097 2b3b 76fa 50bd
000001d0: d74c 42bd 12a2 4bbd a1b3 2e3d 88ed 5cbd
000001e0: dbb3 2bbc 7afa 31bd 76b7 87bd 1f5d db3c
000001f0: a754 4bbd defa 44bd 0986 103d ccac e0bb
00000200: c449 38bd f3bf 4bbd 9a21 96bd d6e7 1abc
00000210: f58a b2bb bfd7 abbd 8498 533d 282e b0bc
00000220: 3870 833d f8e6 4dbd 2dcd 90bd 7888 5d3c
00000230: d0d5 ff3c c6c1 4d3d 245f 93bd 3657 bf3c
00000240: 5f9d 57bd 0fca 8dbd 42db c43c 64ae 6dbd
00000250: 40fd 38bd a7b9 0dbc 6ec9 b5bd ac4f 8f3b
00000260: 4aa9 0fbd a22e ea3c a575 08bd a756 7cbd
00000270: ef92 763c d802 f2bc 40b9 3abc 52a8 83bd
00000280: 2ca7 a6bc b94c 91bd 9f5c 863b 18a4 a63c
00000290: ff48 10bd 9ba8 4f3b 12ff aebd 3e6b 2cbd
000002a0: 72bc df3c 37e6 eebc 07fc 5bbd 471f 43bd
000002b0: 696e 253c d3b0 833d 4c80 08bd 5a48 383d
000002c0: afce c83c 1602 463c c5cc 003d 237a 953d
000002d0: 3e33 8d3b 9d34 86bc 447b 72bd 2855 afbc
000002e0: 531e 573d e97a 953d 2bc2 5abd 9d29 90bd
000002f0: b9fb 8f3d 8bc7 263d 8dc0 76bd ab3f 3abd
00000300: 0ac9 91bc 46e6 113d 937b 033d eed1 a33d
00000310: e4e6 763d 8546 bb3c 50bd 89bd c770 123d
00000320: a31b 903d 14d8 d33b aea3 eebc 2f69 d83d
00000330: d469 5bbd 697c 9b39 6f12 763a aba6 4bbd
00000340: 95a8 2b3d a829 9cbd 2927 733d 0c4a 443d
00000350: 44c5 733d e852 6dbd c850 33be b03d 873d
00000360: fff5 a63c 291d 603c 7e50 063d f0f4 55bd
00000370: 22fc 883c e4b4 97bd 50b2 18bb f2e4 e23c
00000380: 7d0d 5d3d 1a88 233d 30c2 bf3b 2175 e23c
00000390: 5f68 37bd 79f9 cfba 6620 98bd 4f60 2bbd
000003a0: 7911 6b3d 0f28 853d 345b 2fbd b905 29bd
000003b0: 599f b43a ee1d 7f3c b77b 93bc 2366 ec3c
000003c0: 4167 1cbd 0c75 8ebc 7540 e03b e7ec 25bd
000003d0: 51da 313d 4480 c43c 2f76 3d3d a184 49bd
000003e0: a0aa 273d 0bff 6f3c 9782 6abd 8d49 0b3d
000003f0: 5ef5 183d 6127 1f3d b1bf 9bbd 6a0c 8a3d
0.04590458 0.0366596 0.042784285 -0.28834438 0.006529248 0.023062024 0.044449158 0.029399991
0.052807454 -0.007667079 -0.009564619 -1.978236 0.017826252 -0.02106412 -0.04158399 -0.014753504
0.05801529 0.047848776 0.069776885 -0.023881761 0.004188148 -0.06430745 0.32791597 0.06607937
-0.011512884 0.05372041 -0.010255065 0.016908007 0.07072757 -0.027056338 0.1632499 0.057109524
-0.08520051 0.0046868105 0.046731554 0.08759789 -0.06904524 -0.028861172 -0.007333388 0.00086351286
-0.034357425 0.048956085 -0.034057416 0.04437577 0.025982575 0.010834554 0.03946126 0.06282176
0.080595925 -0.052985776 0.06349211 -0.011239623 -0.041367225 -0.06691859 -0.39247304 0.037221648
0.004732725 0.05345824 0.021505171 0.030828794 -0.032195922 -0.042629905 0.037309315 -0.050306287
-0.037896425 0.015025233 0.08874087 -0.32190078 0.047021307 -0.06690354 0.012418471 0.037107304
0.01998559 -0.029989617 -0.0043557207 -0.39908138 0.048892777 0.022729862 0.067535505 -0.041267917
-0.10416643 0.012940575 0.057806093 0.06801671 -0.037222035 -0.063526236 0.35754645 -0.005027984
-0.03693077 -0.015715765 -0.023562042 -0.0065891654 0.02336441 0.036944397 -0.030309064 0.10389971
-0.08331628 -0.058649827 -0.0018681652 -0.055638883 -0.07749359 0.03794823 0.051062886 0.0023126951
-0.019834258 0.024883969 0.032682486 0.057749424 0.022378897 0.00047231768 -0.013571667 -0.037775856
-0.024988655 0.028893275 0.002618309 -0.05102011 -0.04743656 -0.04971511 0.042651776 -0.053937465
-0.010479893 -0.043451764 -0.06626789 0.026777802 -0.049641278 -0.048090808 0.035284076 -0.0068565365
-0.044992223 -0.049743604 -0.07330628 -0.009454688 -0.005448694 -0.0839076 0.051659122 -0.021506384
0.064178884 -0.050269097 -0.07070384 0.013521306 0.031229883 0.050233625 -0.07195881 0.023357015
-0.052640315 -0.06923305 0.024030332 -0.05802764 -0.045163393 -0.00865022 -0.0887631 0.0043735113
-0.035073556 0.02858669 -0.03331532 -0.061606076 0.01504968 -0.029542372 -0.011396706 -0.06428589
-0.020343386 -0.07094712 0.0041003968 0.020341918 -0.035225864 0.003168619 -0.085447446 -0.04209446
0.027311537 -0.02916251 -0.05370715 -0.04763725 0.010097125 0.06430211 -0.03332548 0.044990875
0.024512617 0.012085458 0.031445283 0.07298686 0.004309087 -0.01638251 -0.059199587 -0.02140291
0.052519154 0.07298834 -0.05340783 -0.07039187 0.07030434 0.040717643 -0.060242224 -0.045470875
-0.017796058 0.035619996 0.03210027 0.07999025 0.06027879 0.022860775 -0.067255616 0.035752084
0.07036521 0.0064649675 -0.029130783 0.10566937 -0.053567722 0.00029656597 0.0009386902 -0.049719494
0.04190882 -0.07625133 0.059363518 0.04792218 0.0595143 -0.057940394 -0.17511284 0.06603563
0.020380972 0.013678827 0.032791607 -0.052235544 0.016721789 -0.07407549 -0.0023299642 0.02769706
0.05396794 0.03992472 0.0058520064 0.027643742 -0.04477727 -0.0015867195 -0.074280545 -0.041839894
0.05738971 0.06501781 -0.042811587 -0.041265223 0.00137804 0.015571101 -0.018003328 0.028857296
-0.038184408 -0.017389797 0.0068436214 -0.04050913 0.043421093 0.023986943 0.046255287 -0.04919875
0.040934205 0.014648209 -0.057253446 0.03400569 0.037343375 0.038855914 -0.076049216 0.06740649

net.flow_mapping.0.affine_layers.0.net.6.bias f4 [32]
00000000: 87f4 153e 9eda 01be e453 e53d 88d8 f2bc
00000010: c1fd 4cbc 8e4f fbbd ff53 31bd 8489 ffbd
00000020: 3000 0c3e f28b 61bd 0cfe d1bd a1be 27be
00000030: ea1a 4d3d 4b10 3abc 18e4 793e 882f b33e
00000040: a921 46bd 9881 35bd 1a3e 41bd df36 cb3e
00000050: 3cdd 9abd f3f4 30bd 2dbb 19be 2b4e d5bd
00000060: 6943 e1bc 195e bcbd df5a 813e 92f2 493b
00000070: 39d7 953d 1756 24bd 2ac1 91bb 9098 23bd
0.14644061 -0.12681052 0.111976415 -0.029644266 -0.0125116715 -0.12271033 -0.043292996 -0.12477401
0.13671947 -0.055065103 -0.10253534 -0.16381313 0.050074495 -0.011356424 0.24403417 0.349972
-0.048371945 -0.044313043 -0.047178365 0.396903 -0.07561728 -0.04320235 -0.15012808 -0.104153
-0.027497964 -0.09197635 0.25264642 0.003081475 0.07316441 -0.040121164 -0.004448076 -0.039940417

net.flow_mapping.0.affine_layers.0.net.8.weight f4 [32, 32]
00000000: 9976 57be 2bcd d23d 9851 58be f68c e03c
00000010: cca2 22ba 90ce fd3c 317c 28bf 50aa c83b
00000020: 68ca 843d 8d52 0d3d 3b1c 8f3d 2b79 2dbe
00000030: 430a 47be 0699 c43b 8103 843d 1c33 f73d
00000040: 7b53 6e3d fd05 d23c dc93 4cbf 0065 ea3d
00000050: 6103 56bd b2e2 a2be 0a84 f63d 44fe d1bf
00000060: f2fb 593d 9569 a0bd f62d c93d d43a af3d
00000070: 744f c53a 2fab 6e3d be34 83bd 1aee 383d
00000080: 8f30 9fbc 32ca 85bd f071 49bd b879 98bd
00000090: 7e21 7dbd 05ec fa3c 517a 85bc db7b 98bc
000000a0: 056e 91bd 6e8c 6cbd 4511 7cbd 14ea 883d
000000b0: 2fc7 e43c 37ca 04bd 24c0 393d 4eec 6cbc
000000c0: e705 9bbc c58f f3bb 0754 683d 09a4 81bd
000000d0: 3a99 93bd ed41 063c 7642 7ebd de3e 98bc
000000e0: 79a0 2a3d d585 84bd 40fd 893d e27b 56bd
000000f0: e0b8 01bd 44b1 0abc de54 51bd f289 b6bc
00000100: 444e 0a3d f4c7 9dbd 1ece 843d 0298 e2bc
00000110: 216d 633d 4969 113d 4a9f 893d deae 703c
00000120: 3407 a33c e38e 273d a897 793d 36c5 473d
00000130: 40df 893d 2517 453d 3cf0 6ebd 3702 023d
00000140: 990c 0cbd 8aae d5bc 8462 96bd 505d 74bd
00000150: 3f90 64bd decb febc d6de 8c3d 5109 f0bc
00000160: b320 313d d395 49bd 622a fbbb 4fdd 70bd
00000170: db5c 4d3d bfb1 8fbd ea8a 873d 21b8 0dbd
00000180: d38a fdba 160f 37bd 3dda 2c3c f171 a53c
00000190: a865 653d a1fd 3abd 0657 4ebc aa69 f2bb
000001a0: cdd5 703d 0797 703d 60cb 51bc ce7b 763d
000001b0: 3d4b 87bd 429c 073d cd6f 88bd 83e2 8ebd
000001c0: 2959 573d ba48 853d 0e50 cd3c fc0c 52bd
000001d0: dc8d 943d 65fb f3bc 7ee2 7bbc 7b46 afbc
000001e0: f0a3 0abd 70b9 20bd 78d9 413d 9dd8 1a3d
000001f0: 8bb2 88bd 941e c2bc 7bba c43c ae89 7bbc
00000200: 2bf3 b9bd 0414 b13d 6cdb 98bd 704a 503d
00000210: b20e 493c 4267 a83d 8ef2 1a3d d2a7 cb3d
00000220: 0cf1 10bc ca9d 643d b2e9 2d3d f109 77be
00000230: 9b79 4fbf 97c8 abbd a1c3 bbbb 7f86 073f
00000240: 5940 51bd 9153 44bc b425 193c 1a54 02be
00000250: 996d 1bbd 99de 5dbc 4a9b d23d 0d3b af3d
00000260: 839e 19bd dfae 0d3c dac3 423e aff3 733d
00000270: 42c4 853e 2214 52bd de0f 983c 099d 573d
00000280: dc93 923d 13dd 533d 1ae4 313d f2a3 953c
00000290: 819e e53c 7295 193d 117e 8f3d 48a3 393c
000002a0: 578a bb3d ab0a edbc 2861 3cbd 1bba 93be
000002b0: e571 593d a336 94ba a3cf 0b3d 17aa 7b3f
000002c0: 2cdd c53c 4132 483d 63da c63d f316 06c0
000002d0: e3f4 773c 4063 46bb e4ff 923d d11b b93d
000002e0: 7ae6 01bd 944e 9a3c 4584 f03e 193e c33c
000002f0: 93b6 53bd 87b4 11bc e2ec 883d 8064 8abd
00000300: 03bd 61bd ad0e fc3d e4bf 553d 92e4 a83b
00000310: 80dc 5b3d 10e6 b83d 87dc 193d b939 343d
00000320: df88 4bbc 2c98 61bd cda4 8c3d 7e62 f8bd
00000330: 030e 24bc 049c 12bd 9b56 2c3c 80ba 903f
00000340: 72ed 8a3d 8d1d 1b3d 1340 893d 57ab 06c0
00000350: 00d8 823d 8a09 743d 66eb c83d e12d 043e
00000360: 0695 973c 00de a83d 272a 3a3f 1f16 27bd
00000370: ecad a53c a833 57bc f727 61bd c20a 72bd
00000380: e44a b13e bd5c 1a3b a10c a43e c7a0 1bbd
00000390: fe4b c7bc 845b f93a 8621 1dbd eb5a 0e3c
000003a0: afa2 b63d 05fb 98bb 1310 98ba e5f0 633e
000003b0: f5ad 183e 7bf3 fb3c 2bb9 a53d c14c 9dbe
000003c0: aa7f dcbb 99eb 83bc ab7d 983c a327 013e
000003d0: dae7 5bbc cf93 e93c fffd 2dbd abe3 233d
000003e0: 291d 35bd d8bf c63b 3448 d8bd 7824 283d
000003f0: 38d7 fc3d 60e0 d1bb c0d6 9e3d bce7 823d
-0.21041335 0.10293039 -0.21124876 0.027410965 -0.0006204068 0.030982286 -0.658145 0.0061238185
0.064839184 0.034502555 0.069878064 -0.16940753 -0.19437508 0.005999687 0.06445981 0.12070295
0.058185082 0.025637621 -0.79913116 0.114450455 -0.052249316 -0.3181358 0.12036903 -1.6405721
0.05321879 -0.07832638 0.098232195 0.085561424 0.0015053586 0.058268722 -0.06406544 0.045148946
-0.019432334 -0.06532706 -0.049180925 -0.07445091 -0.06179952 0.030630121 -0.016293677 -0.018613746
-0.07101063 -0.05775111 -0.061539907 0.06685272 0.02792701 -0.03241941 0.045349255 -0.014460636
-0.018923713 -0.00743291 0.05672076 -0.06330115 -0.0720696 0.008194429 -0.0620751 -0.018584665
0.041656945 -0.06470839 0.06737757 -0.052364238 -0.03167045 -0.008465115 -0.051106326 -0.022282574
0.033766046 -0.07704154 0.06484626 -0.027660374 0.055523995 0.0355008 0.06719835 0.014690129
0.019900896 0.04090775 0.060935646 0.04877206 0.06732035 0.048117775 -0.058334574 0.031740393
-0.0341917 -0.026084203 -0.07343009 -0.059659302 -0.055801626 -0.03110307 0.0687844 -0.029301317
0.043244075 -0.04921515 -0.0076649645 -0.058804806 0.050137382 -0.07016324 0.06618293 -0.034599427
-0.0019343741 -0.04469212 0.010550079 0.020195933 0.05600515 -0.045652036 -0.01259399 -0.00739785
0.058797646 0.05873778 -0.012804836 0.060176663 -0.066061474 0.033108003 -0.06661949 -0.069767974
0.052575264 0.06508012 0.025062587 -0.051281914 0.0725362 -0.02978296 -0.015373824 -0.021395912
-0.03384775 -0.039239347 0.047326535 0.037804235 -0.06674679 -0.023696221 0.024014702 -0.01535265
-0.09079584 0.08646396 -0.074637264 0.05085224 0.01227157 0.0822282 0.037828974 0.099441186
-0.008846533 0.055814542 0.042459197 -0.24124886 -0.8104493 -0.08387869 -0.005730108 0.529396
-0.051086757 -0.011982814 0.009347368 -0.12727395 -0.037946317 -0.013541841 0.10283525 0.08556185
-0.037504684 0.00864765 0.19020024 0.059558567 0.26126295 -0.05128873 0.018562254 0.052639995
0.07157108 0.051724505 0.043430425 0.018266652 0.028029682 0.037496038 0.07006467 0.011330433
0.091572456 -0.028935751 -0.045991093 -0.28852925 0.053087134 -0.0011307787 0.034133565 0.9830641
0.024153315 0.04887605 0.09709623 -2.0951507 0.015134069 -0.003027156 0.071777135 0.09038509
-0.03171394 0.018836297 0.46975914 0.023833321 -0.05168779 -0.008893139 0.06685807 -0.0675745
-0.055111896 0.12307487 0.052184954 0.005154201 0.053677082 0.09028256 0.037563827 0.04400036
-0.012422769 -0.055076763 0.06867371 -0.12128161 -0.010013106 -0.03579332 0.010518695 1.1306915
0.0678357 0.03786998 0.06701674 -2.1042078 0.06388855 0.05957941 0.09810524 0.12908126
0.018503677 0.08245468 0.7272057 -0.04079258 0.020224534 -0.013134874 -0.054969754 -0.05909229
0.3462745 0.0023553811 0.32040885 -0.037995126 -0.024328228 0.0019024466 -0.03836205 0.008688669
0.08917748 -0.0046685957 -0.001160147 0.22259863 0.1491011 0.030755749 0.080919586 -0.3072262
-0.006729086 -0.016103553 0.01861461 0.12612776 -0.013421977 0.028512863 -0.042478558 0.040012043
-0.044217262 0.00606535 -0.10560647 0.041050404 0.12345737 -0.0064049214 0.07755804 0.06391856

net.flow_mapping.0.affine_layers.0.net.8.bias f4 [32]
00000000: 2fd2 f93d 8d77 2ebd a673 f5bc 0ec6 81bd
00000010: 67a6 f4bd 4c3d e8bd 0fc5 31be f50b 383e
00000020: ce12 293e afbf e3bd 2a8a 163c c6aa d7bd
00000030: 48cb f83d 5751 5f3e 4f86 5bbd 4a9f 493c
00000040: 9503 78be 1b6e a73e 342a 913c 6907 46bd
00000050: 9476 38bc 1136 5b3e 12be c33b 139e 46bd
00000060: 0c71 12bd d073 b13e e19f 5a3e e688 463e
00000070: e6b8 de3d 41b0 94bd 79ea 103e b91a fe3d
0.121982925 -0.04259448 -0.029962372 -0.06336604 -0.11945801 -0.113398165 -0.17360328 0.17973311
0.1651108 -0.11120545 0.009188214 -0.10530619 0.12148148 0.21808372 -0.053594884 0.012306044
-0.24220116 0.3270119 0.01772032 -0.04834691 -0.01125874 0.21407343 0.005973586 -0.048490595
-0.03575234 0.3465867 0.21350051 0.1938816 0.1087511 -0.0726018 0.14151944 0.12407441

net.flow_mapping.0.affine_layers.0.net.10.weight f4 [2, 32]
00000000: 9718 893e f1d4 69bd fff9 ce3c c811 943c
00000010: 0af2 f83e bc30 043f d3ad 0e3f 0200 3bbe
00000020: bee3 e2bd d141 223f 277a 1fbe 7ce1 e23e
00000030: c368 803e b922 40be cf45 a3bc 59b5 ad3e
00000040: ad5c 9d3e 151b 34be 7b8c 7b3e 4062 1cbd
00000050: 40dc fe3c 5ccb 55be 08f8 58bd ad55 5bbd
00000060: 5600 b43c 35d3 88be e4d2 49be e8ae 0dbe
00000070: 451b 09be 327f b43c 8d26 ecbd 115f 21be
00000080: d4fa 36bf 14b3 44bd b857 0d3d 4000 79bd
00000090: 72ab 91be 484b 26be dde8 e5be c018 19be
000000a0: 37e9 0bbe 5867 84be 5dcf 57be 07cc 88be
000000b0: 90a8 13bf 75a3 d5bd 3466 593d 1396 82bf
000000c0: e7ff e2be 3288 073e 0465 003e bc8f 67bc
000000d0: 5535 97bd 19a8 04bd e23f a33d ae22 a0bc
000000e0: ab31 0bbd f182 013d c965 46bd 29d8 eabd
000000f0: 6f78 abbd 0ce8 a9ba 425b 0bbe d3ea a1bd
0.26776573 -0.057087842 0.025265692 0.018074885 0.4862216 0.5163686 0.55733985 -0.18261722
-0.110785946 0.6338168 -0.15573941 0.44312656 0.25079927 -0.18763246 -0.019930748 0.3392742
0.30734769 -0.17588456 0.24565308 -0.038179636 0.031110883 -0.20878357 -0.052970916 -0.053548504
0.021972816 -0.26723638 -0.19709355 -0.13836253 -0.13389309 0.022033308 -0.115307905 -0.15758921
-0.71476483 -0.048022345 0.034507483 -0.060791254 -0.28451115 -0.16239655 -0.44904223 -0.14950848
-0.13663183 -0.25860095 -0.21075197 -0.2671816 -0.5767908 -0.104315676 0.053075984 -1.0202049
-0.44335863 0.13235548 0.12538534 -0.01413339 -0.07383219 -0.032386873 0.07971169 -0.019547787
-0.033982914 0.031619016 -0.048436914 -0.114670105 -0.0837258 -0.0012962832 -0.13609031 -0.07906117

net.flow_mapping.0.affine_layers.0.net.10.bias f4 [2]
00000000: ed32 f7bd 2c07 d23b
-0.1207026 0.0064095464

net.flow_mapping.0.affine_layers.1.net.0.weight f4 [32, 1]
00000000: bc91 813e 5a2e 86be e9b6 65be 5a51 7cbe
00000010: 39d3 1cbd 3e74 5f3e 59db d2bc f297 803e
00000020: f28a 10be 9bed 863b 7e09 d6be a266 e23d
00000030: 91ba 153e c738 d6bc e880 1abd 9b18 7f3d
00000040: 3902 8dbe 019e a8b9 0a60 89be d8df a03e
00000050: a931 afbe 56ca 9ebe ba9b 99be d39f 94bd
00000060: 5f3d 9b3d 2e2e 0a3e ae5d 38be 7a16 853e
00000070: 4839 1e3e 341f 86be 879f cabe cf4f c2be
0.253065 -0.26207238 -0.22433056 -0.24640408 -0.038287375 0.21821687 -0.025739359 0.25115925
-0.14115503 0.0041176802 -0.41804117 0.11054732 0.1462195 -0.02615012 -0.03772059 0.062279325
-0.27540758 -0.0003216118 -0.26831084 0.3142078 -0.34217575 -0.31013745 -0.30001622 -0.072570466
0.07580065 0.13494179 -0.18004486 0.2599371 0.15451539 -0.2619568 -0.39574835 -0.37951514

net.flow_mapping.0.affine_layers.1.net.0.bias f4 [32]
00000000: 802f 98be 5176 be3e a01f ab3e 3ba6 aa3d
00000010: d300 2dbe bc1d babe fd81 a5be d715 5dbc
00000020: ee53 163e 965f 5b3d 6df8 6cbe e749 03bd
00000030: ca63 50bf 6d0a 26bb 6a9e 873e acb2 06bf
00000040: ecee 3dbe a7f2 18be 750a 7b3e 1708 dcbd
00000050: c1da cfbe f738 0c3e 6b64 1d3e c66f 9dbc
00000060: e4a4 2cbf 2d16 d4bd 2a8b b83e 42df 2cbf
00000070: 23a1 9bbe 3534 d2be 4ad0 c83e 9216 b1be
-0.2972374 0.37199643 0.33422565 0.08332487 -0.16894846 -0.3635081 -0.32325736 -0.013493977
0.14680454 0.053557955 -0.23141642 -0.0320529 -0.81402266 -0.0025335804 0.26488048 -0.5261638
-0.18548173 -0.14936315 0.24515708 -0.107437305 -0.40596583 0.13693605 0.15370338 -0.019218337
-0.67439103 -0.10355792 0.36043674 -0.67528164 -0.30396375 -0.41055456 0.39221412 -0.34587532

net.flow_mapping.0.affine_layers.1.net.2.weight f4 [32, 32]
00000000: 18e1 36bd 498e 83bd 6c6e 543d 3658 dfbc
00000010: 1b9d 03bd 8208 19bd cde4 433d 0ff1 b6b9
00000020: 40fe 7fbd 24b0 f9bc 7f46 d13c 525a 233d
00000030: 7934 683d d03a 22bc 81a9 cdbc 769e fa3c
00000040: a180 2fbc 6610 513d 312f 753d 885f f43c
00000050: 73b5 353d 09aa 92bd 8ccf 933d 1ed5 1fbd
00000060: bcb6 573d ed8c de3b d4a5 793a beae 81bd
00000070: 3765 4dbd 184b 013d ef7f 233d 5663 093d
00000080: f101 b23c 5ee0 4b3d 6bc1 4f3d abb0 763d
00000090: 79c4 b03c 13ae d63c d154 6f3d 5cdd e5bd
000000a0: e450 443d 6884 2fbb 679d bc3b 61af d7bd
000000b0: 6c23 d63c f880 943d 2441 7cbc 6fc2 74bc
000000c0: 66c0 1c3d 691c 29bc 1c36 97bd a1b5 853c
000000d0: 9ac6 0ebb e6a3 823d 73a3 483d 9216 3d3d
000000e0: 5991 9b3c e3b6 a43c 015b 123c cd60 953c
000000f0: 7420 20bc 5596 143d 3381 35bd 137a 653d
00000100: 01b4 24bd cebb 82bd c103 88bc 1fce 8dbd
00000110: 1d57 553d 4f5f 56bd e52f a4bc cc9e 973b
00000120: 4d9c aa3c a474 683d 2a51 0c3c 51cc 54bd
00000130: cebe 9bba 88d2 273d 1f81 1a3d 8806 85bd
00000140: bb4a 223c 3825 013d 29d9 0fbc 2bb9 583c
00000150: d2a4 42bd 959f e83c 090c 353d b0c6 8abb
00000160: 3543 01bd 8d61 8e3c 0a74 9d3b 9420 78bd
00000170: e336 02bb 2159 893d b181 8bbd 4c3d 103d
00000180: 36b5 af3c ecee ac3c cdb6 a33b 96ae 28bd
00000190: 0c48 f33b 63dc b3bd e72b fabc d056 72bd
000001a0: 41c2 073d b332 a43c 7685 e73b 4353 f13c
000001b0: 3f79 203d 811a 6b3d 0f98 68bd d4c6 57bb
000001c0: 40cf 3c3c 859e 2ebd 5db7 3bbb 5380 063d
000001d0: 6891 763d 4096 6e3d e47b 3abd 656a 8ebd
000001e0: 33a4 47bb c440 12bd 09cc 2fbd 4175 453c
000001f0: 34a1 1f3d 29a5 843d d67c 8f3d 4b6f 0fbc
00000200: 634a 5c3b 126d 093d 920b d3bc 905f 6fbd
00000210: d544 983d 7cb8 5a3c decf 43bc ca4e d13c
00000220: 6dc4 413d b9c2 55bd 9886 383d 1944 d5bc
00000230: c753 a8bd a8aa 98bb 04ce 2f3d e645 2b3d
00000240: c010 ca3c 0199 2bbc 6dda 8fbd 1756 46bd
00000250: b937 923d 9cb6 abbc 27ce 2b3c fadb 8a3d
00000260: db5e 05bd c782 90bc 00bf 6a3d 8bb2 c7bc
00000270: 23b1 093d 8d4b a4ba 16c5 62bd ab85 783d
00000280: 0ad1 57bd 51ca 02bd b3a8 9cba 9a7d 8fbc
00000290: b87f 523d 186c 013d cdee 543d cf60 543d
000002a0: 7aaa 683d e8dc bc3a 69d8 593d 1d5d 80bd
000002b0: 213d 29bd e278 3f3d e90b 143d f79a 333d
000002c0: 7f8a 753c 16b2 323d e7bb 8ebd 7179 7e3c
000002d0: 3648 05bd a454 7a3d cfc3 383c 5d4f 84bd
000002e0: 3fc9 69bc 6d4d 49bd 39b4 e7bc 389b 7c3c
000002f0: 46c4 bebd 3534 76bb 121e 983d be4f 9bba
00000300: 29bc 5cbd c842 2e3c 1220 5a3d 684c 283d
00000310: 7a14 993c d306 a0bd 1435 1b3d d1fb 253d
00000320: d5fa fbbc 73d7 b9bc c2d0 343c 78dd 743d
00000330: 0cae 14bc 212f 85bb 7da0 98bc 7dde 3b3d
00000340: 8b27 5f3c 1356 f83c f2f1 3ebd 1c78 9c3c
00000350: 94dc f3bb 7ff3 93bd cbef 373d 8d8e 903c
00000360: d8ff 8c3c a10e 873c 62ca 8ebd 4a6b 53bd
00000370: 707a 2dbc 1c98 59bd 3ed0 423c 2a00 fbbc
00000380: bcfd 473d 3168 d43b 08b4 be3c 1860 24bc
00000390: 32d3 5cbd 7336 c3bb 1eba 39bc 8c8f 35bd
000003a0: 4f3b edbc 12b6 dabb 60be 193d c4ea 80bd
000003b0: 74cc d6bb 72c0 683d 5498 d6bc cfb1 293d
000003c0: 5c39 913d 4d73 323d 3182 3c3d 3d5b 023d
000003d0: 327a 803d df4b df3c 8f94 7abc 27c3 963d
000003e0: 4864 2cbd 7bf2 cbbc 3d3a eabc 76a3 35bd
000003f0: f9a5 2abd 8f69 3a3d 011c 273d 189e 703d
-0.04464826 -0.06423623 0.05186312 -0.027263742 -0.03213225 -0.03736163 0.047825623 -0.00034893348
-0.06249833 -0.030479498 0.02554631 0.039881058 0.056690667 -0.009901717 -0.02510524 0.030593138
-0.01071182 0.05104103 0.05985946 0.02983071 0.044362497 -0.07161338 0.07217321 -0.039021604
0.052664503 0.006791702 0.00095233065 -0.063321576 -0.050145354 0.031565756 0.03991693 0.033542
0.021729441 0.04977452 0.050721567 0.060227077 0.02157806 0.026206052 0.058430497 -0.112238616
0.047928706 -0.00267818 0.0057560685 -0.10531498 0.026139937 0.07251161 -0.01539639 -0.014938935
0.038269423 -0.010321715 -0.073833674 0.016321959 -0.0021785856 0.063789174 0.048984002 0.046164103
0.018990206 0.020106738 0.00893283 0.018234635 -0.009773362 0.03627618 -0.044312667 0.056024622
-0.040210728 -0.06383477 -0.016603353 -0.0692408 0.05208503 -0.052336987 -0.02004237 0.0046270844
0.020826483 0.056751862 0.008564273 -0.051952664 -0.0011882426 0.040972263 0.037720796 -0.06495386
0.009905512 0.031529635 -0.008779802 0.013227741 -0.047520466 0.028396407 0.04420093 -0.004235111
-0.031558234 0.0173805 0.0048050927 -0.060577944 -0.001986914 0.06706453 -0.06811846 0.035214707
0.021448713 0.02111002 0.004996157 -0.041182123 0.00742436 -0.0878227 -0.030538512 -0.059164822
0.03314424 0.020043707 0.0070654703 0.029458648 0.03917813 0.057398323 -0.05678564 -0.0032924907
0.011524022 -0.042631645 -0.0028643229 0.032837223 0.060197264 0.05824876 -0.045528308 -0.06953887
-0.003046286 -0.035706297 -0.042919192 0.012051881 0.038972095 0.06476814 0.070062324 -0.008754562
0.0033613674 0.033551283 -0.025762353 -0.058440745 0.07435004 0.013349649 -0.011951415 0.025550265
0.047306467 -0.052187655 0.045050234 -0.026033448 -0.08219104 -0.0046590157 0.04292108 0.041814707
0.02466619 -0.010473491 -0.07024083 -0.048421945 0.071395345 -0.020961098 0.010486162 0.067802384
-0.032561164 -0.017640484 0.057311058 -0.024377128 0.033616196 -0.0012534723 -0.055363737 0.06067435
-0.05268959 -0.031931225 -0.0011952132 -0.017515946 0.051391333 0.031597227 0.05198555 0.051850136
0.056803204 0.0014409097 0.0531849 -0.0626776 -0.041318063 0.046746142 0.03614417 0.043848958
0.014986633 0.043626867 -0.06969433 0.015531884 -0.03253957 0.061115876 0.011277153 -0.0646045
-0.014269172 -0.049146105 -0.028284179 0.015417866 -0.0931478 -0.003756774 0.074276105 -0.0011849327
-0.05389038 0.010636039 0.05325324 0.04108849 0.018686522 -0.078138016 0.037892416 0.040523354
-0.030759254 -0.022685742 0.0110361 0.05978152 -0.009074699 -0.004064456 -0.018631214 0.04586648
0.013620268 0.03031448 -0.046617456 0.019100241 -0.0074420664 -0.072241776 0.04490642 0.017646099
0.01721184 0.016486468 -0.06972195 -0.05161599 -0.010588273 -0.05312358 0.011890469 -0.030639727
0.048825964 0.006482147 0.023279205 -0.010032676 -0.05391235 -0.0059574186 -0.011335878 -0.04432635
-0.028958945 -0.0066745365 0.03753507 -0.06294778 -0.0065551344 0.056824155 -0.026195683 0.041429337
0.070910186 0.04356699 0.046022598 0.031825293 0.06273307 0.027257858 -0.015294208 0.07361441
-0.042087823 -0.024895897 -0.028592223 -0.04434534 -0.04166219 0.045510825 0.04079819 0.05874452

net.flow_mapping.0.affine_layers.1.net.2.bias f4 [32]
00000000: 9bcf d2bc 426c 96bd f179 0c3d a1bf f4bd
00000010: 5743 34be 00d0 973c f7bf eebd 416b 74bd
00000020: 243c 04bd 1f75 6dbd edf4 38bc 9baa 2f3d
00000030: c689 01bd 6321 35bd 3643 91bd ee16 b43b
00000040: 60aa bb3b 3505 a6be 1cb5 b0bb 2cb2 0bbe
00000050: acd7 d5bc d6c1 0bbd bf73 d63c 8dc2 2a3d
00000060: 3703 9bbd 7cee 3cbc a0da 6cbb 3672 0c3e
00000070: 2cc0 16bd 43be bfbe a849 c9bc aed4 783d
-0.02573376 -0.07344867 0.03429598 -0.11950613 -0.17603813 0.0185318 -0.11657708 -0.059672598
-0.032283917 -0.057973024 -0.011288864 0.04288731 -0.03162553 -0.044221293 -0.070928976 0.0054958975
0.0057270974 -0.32425848 -0.0053926837 -0.13642186 -0.026103817 -0.034120403 0.026178239 0.041689444
-0.075689726 -0.0115314685 -0.0036141053 0.13715443 -0.036804363 -0.37449846 -0.024571255 0.060749702

net.flow_mapping.0.affine_layers.1.net.4.weight f4 [32, 32]
00000000: 3afa 7a3d 84ca c33c 5d40 e83c 14b5 00bd
00000010: 0871 b6bc 152a d5bc 0395 a23c 0fa7 62bc
00000020: 9505 91bd 0cae d23b 3746 e13c 7c8f 203d
00000030: bd58 11bb 180e f2bb 5910 923c e6f9 be3b
00000040: 0168 153d ffea 123d b87a b9bc 7463 ef3c
00000050: 97b2 54bd 00fd 15bd 2ff7 8f3d ed55 29bd
00000060: 8024 e0bc 0d5d 853c 2fd7 223d 726f 29bb
00000070: 94b6 51bd 5018 473d 552e 193d 17c2 d1bc
00000080: f662 16bc d1b8 94bd a9c7 4fbc 0c84 eabc
00000090: 9326 88bc 1f85 1e3d 9226 61bd 6a81 93bd
000000a0: c9f0 76bd bf80 333d 7d0d ae3c 4f71 343d
000000b0: 30f1 a0ba a9e9 693d a6da 5abd 9dd1 8d3c
000000c0: ee7f b93a 8fe9 86bd a5bc 4d3d 6afe 16bd
000000d0: 0c90 3cbd c041 7fbd 3b7a 73bd 5edd 823d
000000e0: b96c a4bd 7669 dc3b 1ff6 4cbd 7a65 d6bc
000000f0: 2449 a3bb 1b2e 59be eeca 7bbd 662e 5cbd
00000100: 8408 be3c b689 8f3d 088a 8dbd 938a 77bd
00000110: 200f f2bc db89 733c a501 f7bc 9343 0c3b
00000120: c0b3 b2bb ef12 53bd c498 e43c d52a 383d
00000130: c2a5 c53c 3b81 363d 9cbd 8a3d 100d 853c
00000140: 8a02 cdba 16d1 26bd c13e 0f3d c2d7 7ebd
00000150: 57f7 cf3b d757 3b3d bc86 2e3c 3836 05bd
00000160: 0e92 0f3d fb04 27bc deef f6bb 8dde 7a3d
00000170: 6d6a 3bbc 6010 24bd dedc c53c 0a19 31bd
00000180: 1e19 3d3d cfa3 fb3b 414c 2ebd 6df6 b7ba
00000190: 912b 0f3d 0404 19bc 10cb 3bb9 dee0 493d
000001a0: 77d1 2ebd c077 203d 39af 64bb 5538 c2bc
000001b0: 8f07 223d 0fea 51bc ffcf 57bd f725 a93c
000001c0: 603f 3abc 7424 b2bc da4d 68bd 3dbd 323b
000001d0: 9205 0b3d 0eaa 323b 16bd 6abd 6d50 813c
000001e0: 8382 953c 5bd2 56bc b6be bcbc d736 4bbc
000001f0: 31cd 113d 298e a9bb 5e9a c83c 37da 483c
00000200: 13ea 7dbd 9bd7 1cbb 576d b3bc 0589 eebc
00000210: 4bbf 67bd a74a 12bd fc05 343d 96e9 723d
00000220: fc9d d33c 9a33 0dbd a798 0abd b3cf 86bd
00000230: b033 173c 9730 2dbc 61cc 30bc a4dd 61bd
00000240: 6fbd 193d f6b2 6fbd 251f 823c b222 7dbd
00000250: d444 3d3d d7d9 973d a28c de3c 60de a23c
00000260: bc27 103d 83d5 a5bc 67be 683c 14f6 213d
00000270: ea91 1dbc 9bd5 95bd 15b6 8e3d 5d1e 00bd
00000280: 8d52 c9bb 7217 66bd 2200 bfbc 57b6 243d
00000290: bc73 ebbc e983 2abb 2e3b 4d3d 3d19 a83c
000002a0: c351 4cbc cadd f33c 6931 1e3d 3e27 42bc
000002b0: df2a fa3c 2f9d ba3a 8a19 16bd 4014 8dbd
000002c0: 3afb a53c 157d 8fbd 06e2 bbbc e355 34bd
000002d0: bcb6 813c 4499 1bbd ddc0 2f3c 239f 82bd
000002e0: bb4b 80bc aec5 35bd ae0e 7ebc f1cd 433c
000002f0: 42f9 89bd fc3a 1b3d 83de 823d 7690 5ebd
00000300: 1d89 273d 3a27 7a3c 9762 ac3c 8b43 afbc
00000310: 3012 e0bc 8b9c 443d cade 10bd ce33 5bbc
00000320: ad66 92bd 58e7 863d 425f 7abd adb5 12bd
00000330: b18a adbc fedd 7f3d c847 7a3d 25ab 013b
00000340: 3aa2 973d 53ab 5fba f66b 523d 12e9 dabc
00000350: 4d3f 51bd 2afa 7ebd 40db 8dbd fb1e 213c
00000360: 1534 a4bc 47ce 89ba 0799 27bc 0f16 a6bd
00000370: d3ae 5dba d0cc c3bc 9e14 9f3c 2659 583d
00000380: 1554 d3bc 14ae 03bd dfc5 89bc b543 7ebd
00000390: a762 8e3d 5f68 97bd c3cc e93c a221 923d
000003a0: cef4 02bd 5c5d a53c ebb2 fc3c d183 f0bc
000003b0: 02df 513d b2fe 043d 36d4 45bc 4cde 89bc
000003c0: a6c8 6cbd c123 45bc da36 123b f166 a1bd
000003d0: 8bf8 19bd 5a22 10bd 62eb 893d 3cac 4ebd
000003e0: 83b8 2e3d d250 b53c f834 8d3c 1826 d2bc
000003f0: aa25 8ebd fda2 99bc ce7d 143d d68b 81bd
0.06127379 0.023900278 0.028351003 -0.03142269 -0.022270694 -0.026021043 0.019846445 -0.013833775
-0.07081143 0.0064294394 0.027499301 0.039199337 -0.0022178136 -0.007386934 0.01783006 0.00582813
0.03647614 0.03586864 -0.022641525 0.029222228 -0.05192813 -0.036618233 0.070295684 -0.04134171
-0.027361155 0.016279722 0.039755996 -0.002585378 -0.05119951 0.04860717 0.0373977 -0.025605245
-0.009178868 -0.072618134 -0.01268188 -0.028627418 -0.016619956 0.038701173 -0.054968424 -0.07202418
-0.060288224 0.043823954 0.021246666 0.044053372 -0.0012278911 0.0571076 -0.053431176 0.017311865
0.0014152506 -0.065875165 0.050228734 -0.036863722 -0.04603581 -0.062318563 -0.05944274 0.06389879
-0.0802855 0.006726439 -0.050039407 -0.026171435 -0.0049830843 -0.21208994 -0.061472826 -0.053755186
0.02319742 0.07008688 -0.06911093 -0.06043489 -0.029548228 0.01486441 -0.030152151 0.0021402582
-0.005453557 -0.05153173 0.027904876 0.044962723 0.024126891 0.044556838 0.06774446 0.01624158
-0.0015641015 -0.040726744 0.034971956 -0.06221748 0.006346624 0.045738067 0.01065224 -0.03252241
0.035051398 -0.0101940585 -0.0075359186 0.061247397 -0.011438948 -0.04005468 0.02415317 -0.04323677
0.04616653 0.0076794396 -0.04255319 -0.0014035233 0.034953658 -0.009339336 -0.00017909356 0.049286716
-0.04268023 0.039176702 -0.003489448 -0.023708502 0.03955799 -0.012812152 -0.052688595 0.020647986
-0.011367649 -0.021745898 -0.05671487 0.002727344 0.03394086 0.0027262005 -0.057309233 0.01578542
0.01825071 -0.013111676 -0.023040157 -0.012403212 0.035596076 -0.0051744175 0.02448767 0.012259058
-0.06199081 -0.0023932222 -0.021902723 -0.02911807 -0.056578916 -0.035715725 0.04395102 0.059304796
0.025832169 -0.03447304 -0.033836987 -0.06582584 0.009228632 -0.010570667 -0.010790915 -0.055143014
0.037534174 -0.05852028 0.015883991 -0.061800666 0.046208218 0.074145965 0.027166668 0.019881427
0.035194144 -0.020243412 0.014205552 0.03954132 -0.009617308 -0.07316133 0.06968323 -0.031278957
-0.006143874 -0.056174703 -0.023315493 0.040212955 -0.02874171 -0.0026018566 0.050105266 0.020519847
-0.012470665 0.029768843 0.03862134 -0.011850176 0.03053802 0.0014237518 -0.03664545 -0.06888628
0.020261396 -0.070062794 -0.022934925 -0.04402722 0.015834205 -0.037987962 0.0107271345 -0.06378009
-0.015661111 -0.044377975 -0.01550643 0.011950956 -0.06736995 0.03789805 0.06390097 -0.054336987
0.040902246 0.015268141 0.021043105 -0.021394512 -0.027352422 0.048000854 -0.03536872 -0.01337905
-0.0714849 0.06587094 -0.061126 -0.03581779 -0.021184297 0.062467568 0.061103612 0.0019785848
0.07403989 -0.0008532304 0.05137249 -0.026722465 -0.05108576 -0.062250294 -0.06926584 0.0098340465
-0.020044366 -0.0010513746 -0.010229356 -0.08109676 -0.0008456532 -0.023901373 0.01941901 0.052819394
-0.02579693 -0.032148436 -0.016817985 -0.06207629 0.0695241 -0.07392954 0.02854002 0.07135321
-0.031971745 0.020186119 0.030847033 -0.02935973 0.051238067 0.03246946 -0.012074521 -0.016829632
-0.05780854 -0.01203245 0.0022310526 -0.07880963 -0.037590545 -0.03518901 0.06734349 -0.050457224
0.042656433 0.022133265 0.017237172 -0.02565293 -0.069407776 -0.018754477 0.03625279 -0.063255

net.flow_mapping.0.affine_layers.1.net.4.bias f4 [32]
00000000: 8488 f2bd c580 5a3e 0a99 3e3d f5d2 273f
00000010: 2898 5c3c b742 323d 9e60 dfbb 9b45 cb3c
00000020: 98b7 983e 2874 2a3d 5732 d5bc 1782 e63d
00000030: 91f9 bf3e 0afd 15bd 51a3 bbbe dca0 30be
00000040: 1ae7 84bc 3710 82be 53e8 f9bd 2f9c c6bd
00000050: 9099 153d cb52 eabd 405d 943d be1c a2bd
00000060: 4389 82bd 28cb b2be 8586 47bd 8890 3e3d
00000070: 0d03 40bd ba11 6cbc 2899 24bd b3fd 143d
-0.118424445 0.21338184 0.04653267 0.6555627 0.013464011 0.043520655 -0.0068169376 0.024813464
0.2982757 0.04161468 -0.02602498 0.112552814 0.37495092 -0.03661827 -0.36648038 -0.17248863
-0.016223479 -0.25402996 -0.122025155 -0.096977584 0.0365234 -0.11441573 0.072443485 -0.079156384
-0.06373837 -0.3492062 -0.048712272 0.046524554 -0.04687791 -0.014408523 -0.040185124 0.03637476
