param/pde_iter10000_10_150_2.pth (torch, 95375 bytes, 5 tensors)

input_layer.weight f4 [150, 2]
0.51389664 0.5740819 -0.1595711 0.62787724 -0.14953743 0.13664626 -0.34535536 0.39766547
0.6205861 -0.5080123 0.6151444 0.14941332 0.5267763 0.098355904 0.329548 -0.10682414
0.5534161 0.11127033 -0.30603832 0.19180611 -0.30155134 -0.09092214 -0.2827133 0.46683323
-0.54835534 -0.30004597 -0.20546418 -0.4180353 0.0763078 -0.68537474 0.6249539 -0.5956447
0.5329061 0.11636581 -0.24925987 0.42070326 0.08739026 0.5529636 0.07501512 -0.21882416
0.16075736 -0.19458663 0.28520393 0.6070006 0.38998014 -0.30935392 0.38323286 0.12530218
0.35734084 -0.42423788 -0.67630863 -0.27260533 -0.5299346 0.56253606 0.19841483 0.28560206
0.2063989 -0.0108660655 0.5315602 -0.50352085 0.039836008 -0.47493607 0.21381141 -0.23667188
0.19449455 -0.15801264 0.55625284 -0.4003034 -0.42973486 -0.42095146 0.6289709 0.24079973
0.6541359 -0.56913745 -0.6914085 -0.50643003 -0.48384282 0.2828524 0.25291047 0.5846705
-0.37219495 -0.47204804 0.36314264 -0.2841691 0.43436277 -0.15369466 0.40884987 -0.5120585
-0.34032017 0.2038964 0.13206635 -0.16758887 0.41513154 0.46892503 -0.5009119 -0.35365298
0.64436644 -0.237112 -0.2469717 -0.65600955 -0.39697334 0.17458276 -0.085157946 -0.50108683
0.0015019125 -0.4745885 -0.59070563 -0.37388182 -0.5986145 -0.435745 0.68714094 0.122690566
0.20659362 -0.6349395 -0.45257258 -0.24582663 0.10790808 -0.6124614 -0.26107475 -0.4132435
0.004231854 -0.25841728 -0.043408822 -0.4800505 -0.48893657 -0.40413797 -0.23923261 -0.5364515
0.57307136 -0.14160237 0.5935823 0.2135004 -0.5815898 0.48969504 -0.19113788 -0.27180392
-0.554817 -0.68404925 0.20414934 -0.14323545 0.27627015 -0.58559287 0.5194014 -0.4978488
-0.110591285 0.1569008 0.36230287 0.57298285 0.6151647 -0.5295523 0.15272176 -0.297558
-0.10222238 -0.5325035 0.61728954 -0.5147057 0.36816394 0.21935822 0.23568405 -0.37033722
0.64124596 0.1621468 0.08487281 -0.6043984 0.28588668 -0.101834945 -0.3217797 0.58488035
0.16384922 -0.39991817 -0.34585333 -0.041175395 0.3615786 -0.17172039 -0.38426822 -0.24656218
-0.52585787 0.26441228 0.5291325 -0.62819827 0.17340381 0.36713126 0.12856998 -0.25523853
0.34684616 0.39188543 0.25160864 -0.1278338 -0.15664174 0.06663022 -0.12719938 -0.21602695
0.44180116 0.59729594 -0.07919992 -0.1380721 0.0029404364 -0.035957877 0.17211136 0.18673624
-0.6233593 -0.25768444 0.58043975 0.24567777 -0.036872737 -0.41568935 -0.43234822 -0.61572754
-0.23091549 0.24253544 0.4378209 0.3023276 -0.6231418 -0.40610084 -0.116913795 0.6821646
0.114606015 -0.17087317 0.27854455 -0.27372286 -0.44983354 0.4866466 -0.2993474 -0.12700975
-0.6925175 0.44487506 0.5247633 0.2417456 -0.49279287 -0.6733498 -0.57357144 0.5214819
0.331226 0.5880021 0.34263748 0.1638337 -0.013172861 -0.51323575 -0.5917363 -0.64016485
0.28406525 -0.32881463 -0.15962085 -0.40469116 -0.12934947 -0.49624345 -0.4585728 0.23656158
-0.20282644 0.41124785 -0.24812174 -0.5034152 -0.115784466 -0.3411637 -0.2227944 -0.6489203
00000000: bb8e 033f 08f7 123f 9b66 23be 90bc 203f
00000010: 5720 19be ffec 0b3e 6bd2 b0be cf9a cb3e
00000020: bbde 1e3f 180d 02bf 1a7a 1d3f ceff 183e
00000030: d0da 063f d26e c93d 84ba a83e 9dc6 dabd
00000040: adac 0d3f b3e1 e33d 0eb1 9cbe d268 443e
00000050: f064 9abe 6335 babd ccbf 90be c404 ef3e
00000060: 0461 0cbf a09f 99be 3465 52be b908 d6be
00000070: 4447 9c3d b874 2fbf fbfc 1f3f 2c7c 18bf
00000080: 896c 083f 3351 ee3d fb3d 7fbe 6b66 d73e
00000090: aaf9 b23d 068f 0d3f 87a1 993d 7113 60be
000000a0: 949d 243e b841 47be 4006 923e 6464 1b3f
000000b0: 7aab c73e a363 9ebe 1937 c43e 374f 003e
000000c0: 61f5 b63e b535 d9be 9022 2dbf ed92 8bbe
000000d0: cba9 07bf 5d02 103f 422d 4b3e 6f3a 923e
000000e0: 3c5a 533e 9507 32bc 5414 083f bee6 00bf
000000f0: 152b 233d d22a f3be 61f1 5a3e 1d5a 72be
00000100: 9429 473e 11ce 21be 9666 0e3f 91f4 ccbe
00000110: 3506 dcbe f386 d7be 3d04 213f 3494 763e
00000120: 7375 273f feb2 11bf 2600 31bf 66a5 01bf
00000130: 3fba f7be 08d2 903e 7b7d 813e f7ac 153f
00000140: 5690 bebe 48b0 f1be d5ed b93e 9d7e 91be
00000150: cc64 de3e 2262 1dbe c554 d13e 4416 03bf
00000160: 723e aebe 38ca 503e 673c 073e 6b9c 2bbe
00000170: 1f8c d43e f116 f03e c33b 00bf 0112 b5be
00000180: 33f5 243f 7dcd 72be 26e6 7cbe 3ef0 27bf
00000190: 1740 cbbe d3c5 323e 4a67 aebd 3a47 00bf
000001a0: d2db c43a 44fd f2be 7c38 17bf 706d bfbe
000001b0: cd3e 19bf f819 dfbe 78e8 2f3f 3145 fb3d
000001c0: 478d 533e 658b 22bf 98b7 e7be fab9 7bbe
000001d0: e9fe dc3d 45ca 1cbf 97ab 85be a794 d3be
000001e0: 5dab 8a3b 454f 84be 73cd 31bd 2ec9 f5be
000001f0: e555 fabe 2ceb cebe 65f9 74be e354 09bf
00000200: ceb4 123f 3600 11be 02f5 173f d99f 5a3e
00000210: 12e3 14bf 4fb9 fa3e a6b9 43be e229 8bbe
00000220: 7d08 0ebf da1d 2fbf 860c 513e 50ac 12be
00000230: 4873 8d3e 6ae9 15bf 7df7 043f 0ae6 febe
00000240: af7d e2bd 9aaa 203e c37f b93e 01af 123f
00000250: 6f7b 1d3f bd90 07bf 1863 1c3e 8659 98be
00000260: f859 d1bd 2652 08bf b006 1e3f c1c3 03bf
00000270: fc7f bc3e 719f 603e 2957 713e d79c bdbe
00000280: b228 243f d009 263e ccd1 ad3d dbb9 1abf
00000290: bd5f 923e d78e d0bd 4fc0 a4be b8ba 153f
000002a0: 17c8 273e 13c2 ccbe b013 b1be 88a7 28bd
000002b0: d520 b93e 78d7 2fbe cebe c4be cc7a 7cbe
000002c0: 9f9e 06bf 0c61 873e 3a75 073f 9ad1 20bf
000002d0: c590 313e a1f8 bb3e d9a7 033e a0ae 82be
000002e0: d295 b13e 35a5 c83e d9d2 803e dde6 02be
000002f0: b166 20be 6d75 883d 8e40 02be 2b36 5dbe
00000300: c333 e23e 63e8 183f 9133 a2bd c662 0dbe
00000310: 56b4 403b 9148 13bd f63d 303e c937 3f3e
00000320: 7a94 1fbf 37ef 83be b397 143f f492 7b3e
00000330: de07 17bd 3cd5 d4be bf5c ddbe 52a0 1dbf
00000340: 1c75 6cbe 365b 783e 102a e03e afca 9a3e
00000350: 3986 1fbf 73ec cfbe 8070 efbd 57a2 2e3f
00000360: 8fb6 ea3d 60f9 2ebe 649d 8e3e 6725 8cbe
00000370: 9550 e6be be29 f93e 1044 99be d80e 02be
00000380: d448 31bf aac6 e33e e356 063f 298c 773e
00000390: 594f fcbe a760 2cbf 94d5 12bf d67f 053f
000003a0: 7496 a93e 4e87 163f 2e6e af3e 05c4 273e
000003b0: fcd2 57bc 6b63 03bf 087c 17bf d8e1 23bf
000003c0: 0071 913e 645a a8be a673 23be ae33 cfbe
000003d0: 3074 04be 9f13 febe 0eca eabe 333d 723e
000003e0: bcb1 4fbe 148f d23e a013 7ebe d2df 00bf
000003f0: 6820 edbd 02ad aebe 3724 64be a41f 26bf

input_layer.bias f4 [150]
0.013863286 -0.14362681 -0.24436034 -0.34504333 -0.5859261 0.57708645 -0.2773279 0.1777809
-0.24740103 0.06140869 0.6577731 0.3230538 -0.60801095 0.2770102 0.67302114 0.18440312
0.4743592 0.699427 -0.10538831 0.14220828 -0.48540562 -0.14770411 0.5191298 0.35576624
-0.44789943 -0.5667979 -0.4890719 -0.7011494 -0.547995 -0.18171896 0.48196247 0.12319118
-0.54412484 -0.56302065 0.34419423 -0.5190307 -0.08723567 0.34410474 -0.33147725 -0.08609393
-0.05907125 -0.16733995 -0.35723352 -0.6380851 -0.5837533 -0.3750306 0.6848309 -0.33584288
-0.47097388 0.17718098 0.19445015 0.38177016 0.53951097 0.39035517 -0.6945426 0.054451063
0.41833225 -0.059012327 -0.41165024 0.6716644 -0.26622832 -0.39917973 -0.6388996 0.029237188
0.3105521 0.15454836 0.143667 -0.5380805 -0.6600352 0.0049369284 0.6483079 0.40204492
-0.410385 -0.08397446 -0.52059853 -0.35034922 0.12613617 0.39254045 0.5834519 -0.6498567
0.47699288 -0.5050181 0.26955923 0.5994723 0.0058207694 0.64381355 -0.60829467 -0.26477513
0.4157954 -0.15059656 -0.15197012 -0.29531866 0.4824035 0.34210938 0.22843221 -0.4074445
-0.57185787 0.06764533 0.20618904 -0.3289932 -0.19657633 0.47563142 0.058880482 0.03547944
-0.17572658 -0.63898975 -0.6671593 -0.34297103 -0.34651983 0.22048031 -0.2062611 -0.27126783
0.6728815 0.24291317 0.52357876 -0.34252608 -0.29259157 0.2652334 -0.47831163 -0.4651844
-0.039832342 -0.2628422 -0.527586 0.41229716 0.573228 0.11421059 -0.122732654 -0.647347
-0.26140323 0.17964433 0.34319797 -0.092074566 -0.29019484 0.401936 -0.5556891 0.4345529
-0.28040805 0.018966489 -0.13907212 0.08903147 -0.22052747 0.5068231 -0.02282935 0.5569113
0.67159206 -0.3476656 -0.49577394 0.5703665 0.5643074 -0.5422862
00000000: d622 633c e812 13be 9939 7abe 85a9 b0be
00000010: 41ff 15bf f0bb 133f ecfd 8dbe 320c 363e
00000020: b256 7dbe ae87 7b3d d163 283f 4f67 a53e
00000030: 9ba6 1bbf 48d4 8d3e 1d4b 2c3f 2cd4 3c3e
00000040: 36df f23e a60d 333f d4d5 d7bd 0c9f 113e
00000050: 1687 f8be bf3f 17be b1e5 043f fe26 b63e
00000060: 1353 e5be ab19 11bf a267 fabe 877e 33bf
00000070: 6649 0cbf 8914 3abe c9c3 f63e a84b fc3d
00000080: c44b 0bbf 1f22 10bf 3a3a b03e 32df 04bf
00000090: 9da8 b2bd 7f2e b03e 63b7 a9be 0452 b0bd
000000a0: b2f4 71bd 2a5b 2bbe 50e7 b6be 8c59 23bf
000000b0: db70 15bf 0304 c0be 1451 2f3f 99f3 abbe
000000c0: 7d23 f1be ee6e 353e f11d 473e 6177 c33e
000000d0: 641d 0a3f a2dc c73e 8bcd 31bf 1408 5f3d
000000e0: a52f d63e e9b6 71bd d2c3 d2be 33f2 2b3f
000000f0: 144f 88be 4961 ccbe ed8e 23bf d482 ef3c
00000100: af00 9f3e ed41 1e3e 711d 133e a5bf 09bf
00000110: 11f8 28bf f5c5 a13b 82f7 253f d5d8 cd3e
00000120: fc1d d2be cdfa abbd f245 05bf f960 b3be
00000130: d729 013e 10fb c83e 1b5d 153f 025d 26bf
00000140: 6938 f43e de48 01bf ab03 8a3e 0477 193f
00000150: 27bc be3b f7d0 243f 33b9 1bbf 9b90 87be
00000160: 22e3 d43e fc35 1abe 0e9e 1bbe 0234 97be
00000170: 97fd f63e f628 af3e 22ea 693e 919c d0be
00000180: 4765 12bf a389 8a3d 3823 533e cc71 a8be
00000190: 4e4b 49be f685 f33e a92c 713d e452 113d
000001a0: abf1 33be d594 23bf f4ca 2abf e699 afbe
000001b0: 0c6b b1be 97c5 613e 1c36 53be 9ee3 8abe
000001c0: f641 2c3f 3bbe 783e 4209 063f 945f afbe
000001d0: 90ce 95be accc 873e 43e5 f4be a62c eebe
000001e0: 3d27 23bd 4193 86be e00f 07bf 9d18 d33e
000001f0: 12bf 123f 3ee7 e93d 425b fbbd 88b8 25bf
00000200: a5d6 85be aff4 373e a5b7 af3e 9791 bcbd
00000210: 6b94 94be 8eca cd3e a441 0ebf b87d de3e
00000220: a591 8fbe 9c5f 9b3c ec68 0ebe 2256 b63d
00000230: f4d1 61be 29bf 013f 9e04 bbbc bd91 0e3f
00000240: 75ed 2b3f 3a01 b2be 15d6 fdbe 8a03 123f
00000250: 7376 103f 45d3 0abf

hidden_layers.0.weight f4 [150, 150]
-0.014090494 -0.07104312 -0.06491487 0.02305618 0.009424602 0.021873562 -0.020575412 0.07150165
0.008287838 -0.054835502 -0.00053650414 0.018450737 0.032703612 -0.0626726 0.016805498 -0.03015995
-0.07187824 -0.030599814 0.06599085 0.068587065 0.08316089 0.03564929 0.061034415 -0.019970352
-0.04190087 0.041603837 -0.03944922 -0.062263682 -0.046717297 0.013831358 0.061694566 -0.022192646
-0.044986233 -0.009003854 -0.05322066 -0.061723117 0.033942014 -0.018448157 0.06634106 0.06612879
0.024928965 0.025133213 0.012463935 -0.0035537642 -0.010838853 0.00936577 0.038977858 0.06641641
-0.031725463 -0.021101566 -0.014045123 -0.047954813 0.04641826 0.063513815 0.057725072 0.04029603
-0.059209444 -0.029818278 -0.017752057 -0.018377922 0.0038781518 -0.06278929 0.022662556 -0.04314442
-0.050588634 -0.046901558 0.078409426 -0.08776899 0.05023349 0.0016927136 -0.01219359 0.036619306
-0.0028590527 0.03799654 0.05585147 -0.07595797 0.041954868 0.00595363 0.009346167 -0.008777285
0.020915417 -0.027276473 -0.01580288 0.073508605 0.07209529 0.0068593207 -0.07206075 -0.008741622
-0.041786563 0.054021694 -0.04758491 -0.017054426 -0.033397593 0.008351399 0.07181478 -0.005137742
0.03512198 0.06017076 0.0739334 -0.040465817 -0.0326892 0.029361418 -0.024614975 0.052275445
-0.010207277 -0.047481354 0.023157405 0.0031837835 0.040098485 0.07205039 0.041804712 0.080061756
0.008148433 -0.058496207 -0.04142633 -0.042864036 -0.05735088 -0.03925824 -0.035039015 -0.06890584
-0.040149376 -0.06272883 -0.045653444 0.036368407 0.05945931 -0.014327895 -0.01755034 0.03147827
-0.033983637 -0.03709358 0.0438671 -0.06727099 0.01984771 0.06920438 0.0142659955 0.01742659
-0.03621792 -0.0056735887 0.01833099 0.014974632 0.037838846 0.0580402 -0.06660039 0.010204452
-0.05131922 -0.0686751 0.003923811 -0.05763664 0.060028158 0.0041436735 -0.06545866 0.073461875
-0.051958498 -0.02671789 -0.0015588927 -0.057885848 -0.04628637 -0.014933202 0.076437585 0.08829807
0.040388197 -0.03046852 -0.047949016 0.07070531 0.017704153 -0.040960353 -0.008753674 -0.07642465
-0.030318437 0.063050784 -0.0149292415 -0.01515305 -0.05590511 -0.029469084 0.015646117 -0.05212808
0.0074783326 0.032096237 -0.06586904 0.034164567 -0.052796952 -0.033968575 0.0420752 0.06059087
-0.021609899 -0.0330486 -0.04373178 -0.057275396 -0.08032554 -0.00021625795 -0.0034200416 -0.08574386
0.06909077 0.042985365 -0.088398285 -0.05064086 0.019689979 -0.01817812 -0.022722296 -0.02594921
0.066539235 -0.043860875 0.0834369 0.019445628 0.008442824 0.06348068 0.0077281874 -0.041301794
-0.019579973 0.062046576 -0.06022975 0.026814027 -0.08326198 0.0019140091 0.02539096 0.010899451
0.020032959 -0.0017131256 0.008470337 -0.059096597 -0.031620465 0.023654588 0.05839101 0.044568323
-0.04842204 0.06551534 -0.018874507 -0.0021726699 -0.08331883 -0.014059916 0.04555833 0.040368494
-0.04808228 0.033497732 -0.04376067 0.057819955 -0.07659842 -0.033333804 -0.066260554 -0.048650067
0.03525609 0.074827395 0.019036628 0.08327712 0.018632997 0.0535062 0.041555915 0.07399627
-0.05343334 0.08328183 0.048839357 -0.035987142 -0.025419878 -0.054682292 0.00937849 -0.06381719
00000000: d1db 66bc 0e7f 91bd 16f2 84bd 50e0 bc3c
00000010: a569 1a3c 2f30 b33c c48d a8bc 756f 923d
00000020: b6c9 073c 319b 60bd 2fa4 0cba 0026 973c
00000030: 39f4 053d 7e5a 80bd afab 893c 0012 f7bc
00000040: e634 93bd 76ac fabc 3626 873d 6077 8c3d
00000050: 4250 aa3d fd04 123d 39ff 793d dd98 a3bc
00000060: 3fa0 2bbd c968 2a3d 8195 21bd 3408 7fbd
00000070: a35a 3fbd ec9c 623c 71b3 7c3d 5acd b5bc
00000080: 7c43 38bd e784 13bc e8fd 59bd 61d1 7cbd
00000090: c806 0b3d 9720 97bc d2dd 873d 886e 873d
000000a0: d437 cc3c 2be4 cd3c 8835 4c3c 45e6 68bb
000000b0: 7295 31bc e372 193c 3fa7 1f3d 5405 883d
000000c0: 8ff2 01bd 31dd acbc 841d 66bc 446c 44bd
000000d0: 1321 3e3d 8813 823d 2071 6c3d 730d 253d
000000e0: 9a85 72bd 7645 f4bc c36c 91bc 4c8d 96bc
000000f0: 9728 7e3b ac97 80bd d3a6 b93c 34b8 30bd
00000100: 0736 4fbd d91b 40bd 1f95 a03d 3ac0 b3bd
00000110: a2c1 4d3d 0bde dd3a a0c7 47bc 20fe 153d
00000120: f25e 3bbb 43a2 1b3d 83c4 643d da8f 9bbd
00000130: ded8 2b3d ab16 c33b aa20 193c 9ace 0fbc
00000140: cf56 ab3c e972 dfbc 0b75 81bc ae8b 963d
00000150: b2a6 933d 27c4 e03b 9694 93bd 0539 0fbc
00000160: 6328 2bbd da45 5d3d 65e8 42bd b9b5 8bbc
00000170: eacb 08bd 4ed4 083c a113 933d 815a a8bb
00000180: 11dc 0f3d 9d75 763d 656a 973d 7cbf 25bd
00000190: 1ce5 05bd 5b87 f03c 58a5 c9bc c71e 563d
000001a0: 6c3c 27bc cf7b 42bd 99b4 bd3c 06a7 503b
000001b0: 4f3e 243d 288f 933d 6b3b 2b3d 6bf7 a33d
000001c0: 0181 053c b899 6fbd a8ae 29bd 3392 2fbd
000001d0: c2e8 6abd 40cd 20bd 1285 0fbd 811e 8dbd
000001e0: ac73 24bd f977 80bd 1bff 3abd 0af7 143d
000001f0: 9b8b 733d 8cbf 6abc bbc5 8fbc 5cef 003d
00000200: 6d32 0bbd 70ef 17bd fdad 333d 5fc5 89bd
00000210: aa97 a23c 07bb 8d3d ecbb 693c 35c2 8e3c
00000220: 3e59 14bd 83e9 b9bb df2a 963c 2958 753c
00000230: e8fc 1a3d 90bb 6d3d c965 88bd 9330 273c
00000240: 1a34 52bd 88a5 8cbd 5093 803b 6614 6cbd
00000250: 16e0 753d a7c7 873b 310f 86bd 2e73 963d
00000260: 6fd2 54bd 7adf dabc c253 ccba b619 6dbd
00000270: c796 3dbd 64aa 74bc 4f8b 9c3d 9ed5 b43d
00000280: 186e 253d 1e99 f9bc 3066 44bd f2cd 903d
00000290: 4d08 913c 0bc6 27bd 926b 0fbc 8784 9cbd
000002a0: 5f5e f8bc c520 813d c799 74bc 8044 78bc
000002b0: c2fc 64bd 2669 f1bc 492c 803c 4184 55bd
000002c0: cd0c f53b 5877 033d 59e6 86bd 25f0 0b3d
000002d0: 9e41 58bd a222 0bbd 0b57 2c3d 222e 783d
000002e0: 3e07 b1bc f85d 07bd 1820 33bd 9b99 6abd
000002f0: b781 a4bd 4dc3 62b9 c722 60bb 7a9a afbd
00000300: 767f 8d3d 6c11 303d 290a b5bd ca6c 4fbd
00000310: e14c a13c 48ea 94bc 1c24 babc 7093 d4bc
00000320: b945 883d 76a7 33bd f7e0 aa3d 704c 9f3c
00000330: c553 0a3c 2902 823d bc3c fd3b 122c 29bd
00000340: 2e66 a0bc 8d24 7e3d 78b3 76bd 17a9 db3c
00000350: 4285 aabd 7ddf fa3a b400 d03c 9c93 323c
00000360: 291c a43c f58a e0ba 2bc7 0a3c 460f 72bd
00000370: 7684 01bd 44c7 c13c 692b 6f3d 468d 363d
00000380: 3056 46bd e82c 863d b69e 9abc 5a63 0ebb
00000390: 10a3 aabd 905b 66bc 5f9b 3a3d 6f59 253d
000003a0: edf1 44bd eb34 093d 633e 33bd 9ed4 6c3d
000003b0: a2df 9cbd 0789 08bd 9db3 87bd 4b45 47bd
000003c0: b168 103d 1b3f 993d b4f2 9b3c 328d aa3d
000003d0: 3aa4 983c 5129 5b3d 8936 2a3d 5b8b 973d
000003e0: ebdc 5abd aa8f aa3d c70b 483d 4167 13bd
000003f0: 593d d0bc 8afa 5fbd 3da8 193c 96b2 82bd

hidden_layers.0.bias f4 [150]
0.04969184 -0.04325881 -0.05258145 0.08905606 0.059289385 0.0007285135 -0.0026583155 -0.055934645
-0.044509705 -0.0016639743 -0.0061318916 0.08333816 0.019454606 -0.02098811 0.03544315 -0.03369435
0.010448674 0.036182128 -0.019805223 0.0059068236 -0.06569617 0.07542849 0.06589557 0.061041355
0.02407612 0.05425667 0.06135827 -0.009591132 -0.00038409705 -0.084943004 0.034676638 0.017478267
-0.060858212 0.06562852 -0.008470343 0.01441955 -0.016343363 0.085531674 0.06854393 0.07939566
-0.07402485 -0.062248822 0.0046398574 -0.01820254 -0.060407717 0.010964938 -0.034509692 -0.024478795
0.055410482 0.0017558336 0.05089251 -0.015481314 -0.026615474 0.061810795 -0.0639921 0.0098165795
-0.04428299 -0.051287416 -0.04921937 0.07338237 -0.048451554 0.07225855 -0.061091635 0.07811468
-0.06707861 -0.07857204 0.07682295 0.041245427 0.059689566 -0.0657246 0.040514205 0.051605605
-0.051510856 -0.038871646 0.05026377 0.013180968 0.03963468 0.013535268 0.0096867345 0.0011942928
0.032073256 0.048704255 -0.05440692 0.056491427 -0.061103974 0.05491195 0.018075591 -0.008799922
0.04575132 -0.047896232 0.012543072 -0.010979488 -0.0085213175 0.05774644 -0.021432787 0.05664152
0.045933098 -0.014050487 -0.08231413 -0.05424325 0.05215212 -0.052149985 -0.045572918 0.03439479
0.015131368 0.021416346 -0.05426001 0.03195517 0.013566612 -0.04640719 0.020373872 -0.010301503
-0.01165055 0.026409855 0.03220771 0.002204466 -0.04932648 0.035674907 0.02427819 -0.00549292
0.08435879 -0.02401029 -0.08305119 -0.049529828 0.012567173 0.07194398 -0.08311322 -0.009463472
-0.030286556 0.04647321 -0.056379333 0.043170545 -0.04985669 -0.046680514 -0.03288059 0.044982303
-0.058453627 -0.02689304 -0.014630641 -0.04716334 0.0035659329 0.06580531 -0.012159323 -0.07706737
0.06726979 -0.04330003 -0.020660961 0.002021218 -0.07447913 0.07262454
00000000: ac89 4b3d 2630 31bd a65f 57bd 0663 b63d
00000010: 6dd9 723d b7f9 3e3a 2237 2ebb ba1b 65bd
00000020: cf4f 36bd b619 daba 09ee c8bb 32ad aa3d
00000030: 445f 9f3c 42ef abbc d62c 113d 1603 0abd
00000040: ea30 2b3c b633 143d 903e a2bc 078e c13b
00000050: b78b 86bd 417a 9a3d 42f4 863d 8006 7a3d
00000060: 493b c53c 3e3c 5e3d cf52 7b3d 2024 1dbc
00000070: a260 c9b9 99f6 adbd 1709 0e3d 952e 8f3c
00000080: 7646 79bd 3f68 863d 32c7 0abc fa3f 6c3c
00000090: 84e2 85bc 3b2b af3d c360 8c3d 319a a23d
000000a0: 579a 97bd 9ff8 7ebd f209 983b 7e1d 95bc
000000b0: 156e 77bd 49a6 333c 095a 0dbd c187 c8bc
000000c0: 1af6 623d 0024 e63a aa74 503d 56a5 7dbc
000000d0: b208 dabc 512d 7d3d 4a0e 83bd b8d5 203c
000000e0: 1562 35bd c112 52bd 409a 49bd 7f49 963d
000000f0: 2375 46bd 4afc 933d 393b 7abd 97fa 9f3d
00000100: 8360 89bd 61ea a0bd 5a55 9d3d f7f0 283d
00000110: 0c7d 743d 9e9a 86bd 39f2 253d 6660 533d
00000120: 0cfd 52bd e037 1fbd 62e1 4d3d fdf4 573c
00000130: f957 223d 07c3 5d3c 1cb5 1e3c d189 9c3a
00000140: 3f5f 033d 1d7e 473d cad9 5ebd 8e63 673d
00000150: 2948 7abd 5aeb 603d 4313 943c 8c2d 10bc
00000160: bc65 3b3d d72e 44bd 7581 4d3c 4fe3 33bc
00000170: ff9c 0bbc 8887 6c3d d093 afbc f000 683d
00000180: 5824 3c3d 0434 66bc 5094 a8bd 2c2e 5ebd
00000190: 769d 553d 399b 55bd abaa 3abd 8de1 0c3d
000001a0: 8fe9 773c 5571 af3c bf3f 5ebd 6de3 023d
000001b0: 7f46 5e3c 7715 3ebd 1be7 a63c a3c7 28bc
000001c0: f3e1 3ebc 7b59 d83c 3bec 033d cd78 103b
000001d0: 900a 4abd da1f 123d 0ee3 c63c f4fd b3bb
000001e0: 4dc4 ac3d 3ab1 c4bc be16 aabd cadf 4abd
000001f0: 8be6 4d3c 5e57 933d 4437 aabd ae0c 1bbc
00000200: 831b f8bc b15a 3e3d 04ee 66bd 99d3 303d
00000210: 8736 4cbd 1134 3fbd ccad 06bd 5d3f 383d
00000220: 126d 6fbd cb4e dcbc 5bb5 6fbc 592e 41bd
00000230: 6db2 693b efc4 863d e637 47bc 7fd5 9dbd
00000240: bec4 893d 5f5b 31bd 2d41 a9bc 6976 043b
00000250: 8488 98bd 2dbc 943d

output_layer.weight f4 [1, 150]
-0.063481905 -0.08607347 -0.11220479 0.19413042 0.09455624 0.10980848 0.44225463 0.12186074
-0.0302309 -0.09784785 0.38160348 -0.1558407 -0.02230645 -0.1440747 -0.16433315 0.09634982
-0.18595228 -0.2371738 -0.15179151 0.07342423 -0.114309706 -0.30548933 0.0812767 -0.08332194
0.2500047 0.09446764 0.08538029 0.09109421 0.19030197 -0.18128172 -0.07878862 0.11274717
-0.13590212 -0.16359614 0.09023737 -0.2959963 0.073934056 -0.1293919 -0.15614112 0.10329036
0.249304 -0.331618 0.12394899 -0.025664847 -0.21103765 0.17194177 -0.065099366 -0.15370606
-0.11853265 -0.11620009 0.13219 0.06120829 0.06754361 0.13166143 0.07700996 -0.050569635
-0.08923154 -0.12828764 0.19301194 0.103626184 0.0788526 -0.1872281 -0.10518248 0.11513367
-0.14019647 0.09828144 -0.09514608 -0.05890773 0.0638156 0.101548746 0.17337969 0.16134304
-0.10537077 0.123165265 -0.10350625 0.10487654 0.11866952 0.0731455 0.11639987 -0.21371095
-0.18265074 -0.104839794 -0.2622387 -0.10844291 -0.097566165 0.19024597 -0.2428275 0.13870545
-0.13047805 -0.107265465 -0.11657131 -0.092969365 0.08064081 0.06410276 -0.13991852 -0.05201566
-0.11588936 0.11147578 0.118214376 -0.16368797 0.20740114 -0.12139706 -0.09034913 -0.026185777
-0.14891373 -0.15474525 -0.10366562 -0.0937255 0.094617724 -0.084010944 0.12501548 0.08934302
0.10439974 -0.11217665 0.2309247 0.10566105 0.04919825 -0.063998066 0.13599986 0.10100847
-0.08882229 -0.096419446 -0.39587477 0.415286 0.12620363 0.08611727 -0.052849118 0.0970302
-0.15133443 0.14737703 -0.1307569 0.20374645 -0.31167364 0.098746136 0.08686049 0.1923342
0.18646975 -0.18218608 0.11935664 -0.1754382 -0.07617944 0.0843106 -0.07182889 0.077570036
0.29453927 0.16381307 0.04753583 -0.14689788 0.09394215 0.2847869
00000000: cd02 82bd 4a47 b0bd a0cb e5bd 20ca 463e
00000010: b4a6 c13d 45e3 e03d 336f e23e 2092 f93d
00000020: cba6 f7bc 7464 c8bd 8861 c33e b494 1fbe
00000030: 04bc b6bc 5188 13be f346 28be 0e53 c53d
00000040: 466a 3ebe b0dd 72be 3c6f 1bbe 715f 963d
00000050: 351b eabd 1969 9cbe 6674 a63d b1a4 aabd
00000060: 9e00 803e 4078 c13d dddb ae3d 9a8f ba3d
00000070: 85de 423e eaa1 39be ee5b a1bd fde7 e63d
00000080: ed29 0bbe bf85 27be 5fce b83d d48c 97be
00000090: bd6a 973d 4f7f 04be 75e3 1fbe e589 d33d
000000a0: 8c49 7f3e d6c9 a9be f8d8 fd3d 163f d2bc
000000b0: 411a 58be 8111 303e d152 85bd 1f65 1dbe
000000c0: 3fc1 f2bd 50fa edbd d15c 073e 8bb5 7a3d
000000d0: 4e54 8a3d 41d2 063e 66b7 9d3d 1b22 4fbd
000000e0: 07bf b6bd d65d 03be eca4 453e f739 d43d
000000f0: 797d a13d b9b8 3fbe e969 d7bd 34cb eb3d
00000100: aa8f 0fbe c847 c93d f3db c2bd 3b49 71bd
00000110: c1b1 823d caf8 cf3d 728a 313e 1c37 253e
00000120: a1cc d7bd 123e fc3d 16fb d3bd 83c9 d63d
00000130: 0109 f33d 4fcd 953d 0e63 ee3d 0bd7 5abe
00000140: cc08 3bbe 3fb6 d6bd 2744 86be 5117 debd
00000150: c5d0 c7bd d7cf 423e c6a7 78be cd08 0e3e
00000160: 0a9c 05be ffad dbbd f0bc eebd b966 bebd
00000170: 0227 a53d 4f48 833d cd46 0fbe 5f0e 55bd
00000180: 6757 edbd 6a4d e43d 611a f23d d29d 27be
00000190: f760 543e 069f f8bd f708 b9bd 8e83 d6bc
000001a0: d77c 18be 8a75 1ebe a44e d4bd 28f3 bfbd
000001b0: f0c6 c13d ee0d acbd 0f04 003e 79f9 b63d
000001c0: 88cf d53d dfbc e5bd 8677 6c3e d264 d83d
000001d0: 1b84 493d 6b11 83bd 8c43 0b3e 87dd ce3d
000001e0: 76e8 b5bd 8f77 c5bd 19b0 cabe 5ea0 d43e
000001f0: 863b 013e 405e b03d 5178 58bd c5b7 c63d
00000200: 6af7 1abe 01ea 163e 23e5 05be e9a2 503e
00000210: b093 9fbe 6a3b ca3d eae3 b13d 42f3 443e
00000220: edf1 3e3e fd8e 3abe 4171 f43d 12a6 33be
00000230: f703 9cbd 09ab ac3d 061b 93bd 0add 9e3d
00000240: dacd 963e 9dbe 273e eeb4 423d 666c 16be
00000250: be64 c03d 97cf 913e
