param/pde_iter500_10_150_5.pth (torch, 368823 bytes, 11 tensors)

input_layer.weight f4 [150, 2]
0	0x3e7165bd	0.23573966
1	0x3e22aae1	0.15885498
2	0xbea483fd	-0.3213195
3	0xbf157c3b	-0.58392686
4	0xbee3b46a	-0.44473583
5	0x3f314a43	0.6925394
6	0xbe51a13f	-0.20471667
7	0xbe0c86f6	-0.13723359
8	0xbf0c868a	-0.5489279
9	0x3d46bc69	0.048519526
10	0xbeea8524	-0.45804703
11	0x3f0ee892	0.55823624
12	0x3e1a2041	0.15051366
13	0xbf08cc5e	-0.5343684
14	0x3f2a446f	0.6651067
15	0x3e049d1b	0.12950556
16	0xbf2ac0c8	-0.6670041
17	0xbf36d221	-0.7141438
18	0xbf279e17	-0.654756
19	0xbf3bfbb3	-0.7343094
20	0x3f06877a	0.5255047
21	0x3f09e0fe	0.53858936
22	0xbf01aeb2	-0.5065719
23	0x3f15be25	0.5849326
24	0x3e94db30	0.29073477
25	0xbee17a45	-0.44038597
26	0x3d8a9c86	0.06768136
27	0x3ed69344	0.4190923
28	0x3e85a283	0.2610055
29	0xbe0ca1eb	-0.13733642
30	0xbe44fa98	-0.19236219
31	0xbe5cf215	-0.21576722
32	0xbe282173	-0.1641901
33	0x3bcd1727	0.0062588635
34	0x3ef9411d	0.4868249
35	0xbe6bed64	-0.23039776
36	0x3eb12af6	0.3460309
37	0xbf1b0015	-0.60547
38	0xbec4bf09	-0.38426998
39	0x3f238ab3	0.63883513
40	0xbea73bb3	-0.32662734
41	0x3e0d1569	0.13777699
42	0xbeee8f4e	-0.46593708
43	0x3e316fbc	0.1732778
44	0x3eff7c5f	0.49899575
45	0xbdb049b3	-0.08607807
46	0x3e7a762b	0.2445914
47	0x3f0e8024	0.5566428
48	0xbed89cd8	-0.42307162
49	0xbe8162ba	-0.25270635
50	0x3e3d9b39	0.18516244
51	0x3d1dc11c	0.03851424
52	0x3f32dd85	0.6986926
53	0xbd98c309	-0.07459075
54	0x3f1f85ba	0.62313426
55	0xbedf30f7	-0.43592045
56	0x3d171979	0.036889527
57	0x3eef68b2	0.46759564
58	0xbef13702	-0.4711228
59	0x3f31033f	0.6914558
60	0x3e6e1209	0.23249067
61	0x3c93315b	0.01796787
62	0x3f09fba0	0.53899574
63	0xbf345f0c	-0.7045753
64	0x3f08ce21	0.5343953
65	0x3f28e635	0.6597627
66	0xbf2d5a82	-0.6771623
67	0x3ed3e9e1	0.41389373
68	0xbec891e8	-0.39173818
69	0x3f28aac7	0.65885586
70	0xbe746edd	-0.23870416
71	0xbd5eefc3	-0.054427873
72	0x3c6118b7	0.013738803
73	0xbf215e3d	-0.6303442
74	0xbed78636	-0.42094582
75	0x3f01751f	0.5056934
76	0x3eccc2a4	0.3999225
77	0xbd4efc9c	-0.050533876
78	0x3ee5cd9c	0.4488343
79	0x3ee5955f	0.44840524
80	0xbe681adb	-0.22666495
81	0xbee5ce21	-0.44883826
82	0x3e85d02d	0.26135388
83	0x3ee1aeb7	0.4407861
84	0xbe891852	-0.26776367
85	0x3ec2786c	0.379825
86	0x3eadd494	0.33951247
87	0x3eabb31d	0.3353509
88	0x3eeed160	0.46644115
89	0x3adffa46	0.0017088137
90	0xbe76e91c	-0.24112362
91	0x3ee62fe6	0.4495842
92	0x3f0d98a6	0.5531105
93	0x3f2ab83a	0.6668736
94	0xbe7e56be	-0.24837777
95	0x3f31000f	0.69140714
96	0x3e456cd2	0.19279793
97	0x3e9f3d0d	0.31101266
98	0x3f1c0aaf	0.609538
99	0x3f2ea4ce	0.6822022
100	0x3e794225	0.24341638
101	0x3c3510e7	0.011051393
102	0xbf24e2f0	-0.6440878
103	0x3e40bcbf	0.18822001
104	0x3ebedae9	0.3727639
105	0x3f0ab2f1	0.5417929
106	0x3f03958e	0.5140008
107	0xbda30612	-0.07960142
108	0xbe8acef1	-0.2711101
109	0x3f03796c	0.5135715
110	0xbeca4132	-0.39502865
111	0xbf2c64c4	-0.67341256
112	0x3d50121a	0.050798513
113	0x3ea443dc	0.32083023
114	0xbe84b22e	-0.2591719
115	0xbc9c3673	-0.019068932
116	0xbec87906	-0.39154834
117	0xbcb9cc92	-0.022680555
118	0xbe6a92fb	-0.22907631
119	0x3f376d02	0.7165071
120	0xbe862e9e	-0.2620744
121	0x3ef8b1e0	0.48573208
122	0xbed83834	-0.4223038
123	0xbf157da6	-0.5839485
124	0xbe8bc4e7	-0.27298662
125	0x3ee489d7	0.44636413
126	0x3f2361eb	0.63821286
127	0xbe9fb784	-0.311947
128	0xbe16ae05	-0.1471482
129	0x3f0cb4c6	0.5496334
130	0x3f36846c	0.7129581
131	0xbe963d6c	-0.29343736
132	0x3d34c5b7	0.044133868
133	0xbf098275	-0.53714687
134	0x3eb4b996	0.3529784
135	0x3f01676d	0.5054844
136	0xbe5a287a	-0.21304503
137	0xbf308b60	-0.6896267
138	0xbe94c6c6	-0.29057902
139	0xbdd55877	-0.10417264
140	0xbcfb6671	-0.030688496
141	0xbf082f42	-0.5319711
142	0xbeda53b1	-0.42641976
143	0x3d84230a	0.06451996
144	0xbf186ffa	-0.5954586
145	0xbc6c4f94	-0.01442327
146	0xbe9a8112	-0.30176598
147	0x3f21e5dc	0.6324136
148	0xbdb4059e	-0.08790134
149	0x3e0f545f	0.13997029
150	0xbde1f228	-0.11032516
151	0xbe8d046c	-0.27542436
152	0xbd1ee2e6	-0.038790606
153	0x3f21cd82	0.63204205
154	0xbdd881ee	-0.10571657
155	0xbecf02a0	-0.4043169
156	0x3e2db4e5	0.16963537
157	0xbf195b61	-0.5990506
158	0x3e50ecf8	0.20402896
159	0x3dd751cb	0.10513648
160	0xbe8d2b51	-0.2757211
161	0xbf31bb7c	-0.69426703
162	0xbee0ff05	-0.43944564
163	0xbeedf277	-0.46474048
164	0x3f244fc9	0.6418424
165	0xbf1b217a	-0.60597956
166	0xbf0322ce	-0.5122498
167	0xbe8926df	-0.2678747
168	0x3f275eaa	0.6537882
169	0x3e5ac465	0.21363981
170	0x3ec5847c	0.3857764
171	0x3dc715d4	0.0972096
172	0xbe3895da	-0.18025914
173	0xbedd8560	-0.4326582
174	0xbed156e1	-0.40886596
175	0x3ef37540	0.47550392
176	0x3f28f054	0.6599171
177	0x3eb3361c	0.3500222
178	0x3f2e593e	0.6810492
179	0xbedf0eed	-0.43566075
180	0x3daa8f07	0.083280616
181	0x3e82b1d7	0.25526306
182	0xbde7eb51	-0.1132418
183	0x3f0590e9	0.5217424
184	0x3f06e18a	0.52687895
185	0x3eb8a59b	0.36063847
186	0xbf05957b	-0.52181214
187	0x3ec1756c	0.37784898
188	0x3eb1666b	0.3464845
189	0xbe62a42a	-0.22132936
190	0x3e5e840f	0.21730064
191	0x3e202267	0.15638123
192	0x3f1aae08	0.604218
193	0x3d0bd4f6	0.034138642
194	0xbf102fa4	-0.56322694
195	0xbd4f2971	-0.05057663
196	0xbf30fd04	-0.6913607
197	0x3e19c4e9	0.15016522
198	0x3eadcbb8	0.33944488
199	0xbe9de91e	-0.30841917
200	0xbead5adb	-0.3385838
201	0x3e8e9f43	0.27855882
202	0xbe83b1d4	-0.2572161
203	0xbf04d308	-0.5188451
204	0x3f33b2a6	0.7019447
205	0x3d7ab610	0.061208785
206	0x3f241849	0.64099556
207	0xbe4cb5ed	-0.19991274
208	0x3e1dca2e	0.15409157
209	0x3eedb6f5	0.46428648
210	0x3f346f28	0.7048211
211	0x3ccebf31	0.025237652
212	0x3d99b5b9	0.07505364
213	0x3f2965a3	0.6617071
214	0x3f1ad466	0.60480344
215	0xbeeceecf	-0.46275946
216	0x3ef00b71	0.4688373
217	0xbec75d2b	-0.3893827
218	0xbeb6c18b	-0.35694537
219	0xbf252e64	-0.6452391
220	0x3e409ad0	0.18809056
221	0xbed266bd	-0.41094008
222	0xbf0910d6	-0.53541315
223	0xbe8f9ce1	-0.28049377
224	0x3f0c8847	0.5489544
225	0x3f082300	0.53178406
226	0x3defefed	0.11715684
227	0xbccfc72a	-0.025363524
228	0xbd83d388	-0.06436831
229	0x3e9ffe4a	0.31248695
230	0xbf0c8df9	-0.54904133
231	0xbedfccc6	-0.43710917
232	0xbea0b08d	-0.31384698
233	0x3e1a6a5e	0.15079638
234	0x3c595a2d	0.0132661285
235	0x3ee607e1	0.44927886
236	0x3e5e7da3	0.21727614
237	0x3c3482de	0.011017529
238	0x3ee73e21	0.45164588
239	0x3ef1ba45	0.47212425
240	0x3eda91ec	0.42689455
241	0xbe954365	-0.2915298
242	0xbecfa237	-0.40553448
243	0xbf194063	-0.5986387
244	0x3e68c3e4	0.22730976
245	0x3d3a2540	0.04544568
246	0xbedb9239	-0.42884997
247	0x3f08b051	0.5339404
248	0x3ed793c1	0.42104915
249	0x3d105cef	0.03524488
250	0xbe95f0f1	-0.29285386
251	0x3f103a83	0.5633928
252	0xbf3569df	-0.7086467
253	0xbeddd773	-0.43328437
254	0xbe6e7aa8	-0.23288977
255	0x3f17431c	0.59086776

input_layer.bias f4 [150]
0	0xbee6aecb	-0.4505523
1	0xbeb0c907	-0.34528372
2	0xbf122d9c	-0.57100844
3	0x3ef63579	0.4808767
4	0xbd7f5c35	-0.062343795
5	0x3d05d4ca	0.032673635
6	0x3d97088a	0.073746756
7	0x3c7f1680	0.015569329
8	0xbf20626a	-0.6265017
9	0xbe467811	-0.19381739
10	0xbecbc953	-0.39802036
11	0xbf28242e	-0.65680206
12	0xbec3988b	-0.3820232
13	0xbf32d677	-0.698585
14	0xbe6b35c4	-0.22969729
15	0xbf0e062e	-0.5547818
16	0xbf102016	-0.5629896
17	0xbec4da16	-0.38447636
18	0x3ee30e8b	0.44347033
19	0xbef3a39d	-0.47585765
20	0xbe248770	-0.1606729
21	0xbd963c73	-0.073357485
22	0x3f1dc227	0.6162438
23	0xbe0c678e	-0.13711378
24	0x3f2c7dd5	0.67379504
25	0x3f169ef4	0.58836293
26	0xbeff2e35	-0.4983994
27	0x3df69840	0.12040758
28	0x3f0a8dd9	0.5412269
29	0x3e6c02a0	0.23047876
30	0xbe9e180a	-0.30877715
31	0xbee8e202	-0.4548493
32	0xbe4879f3	-0.1957777
33	0x3f26668f	0.6500024
34	0x3f0b02df	0.54301256
35	0x3f259604	0.6468203
36	0xbc7e857b	-0.015534754
37	0xbf2e46ff	-0.6807708
38	0xbe43d6cf	-0.19124912
39	0xbea1752c	-0.31534708
40	0x3e8333ea	0.25625545
41	0x3e83e890	0.2576337
42	0xbd897bd5	-0.06713072
43	0x3ec2a78c	0.38018453
44	0xbf289426	-0.65851057
45	0x3f1d9e71	0.6156989
46	0x3f1d58b6	0.6146349
47	0x3e2203d2	0.1582177
48	0x3c2b6406	0.010460859
49	0xbf1a882f	-0.6036405
50	0x3e0a3514	0.1349681
51	0x3dbab081	0.09115697
52	0xbf33ea69	-0.70279557
53	0x3f048380	0.51763153
54	0xbed48653	-0.4150873
55	0xbe69a15e	-0.22815463
56	0x3f1f88aa	0.6231791
57	0x3f207cf8	0.6269069
58	0xbd3145d2	-0.043279476
59	0x3f04e4aa	0.51911414
60	0x3e190e1b	0.14946787
61	0xbf29529e	-0.6614169
62	0xbbb88b1a	-0.0056318166
63	0xbe34b9bf	-0.17648982
64	0x3f23018b	0.6367423
65	0xbf264994	-0.6495602
66	0xbd3d1087	-0.04615834
67	0x3dd88044	0.1057134
68	0x3e18bcc4	0.14915758
69	0xbce1e0b9	-0.027572976
70	0x3c8392c4	0.016061194
71	0xbf150472	-0.5820991
72	0x3e8f838c	0.2803005
73	0xbda6ef48	-0.08151108
74	0xbdee4b66	-0.11635475
75	0x3d2f3e87	0.04278424
76	0xbee615a2	-0.4493838
77	0xbea4e0e0	-0.32202816
78	0x3e9d8361	0.30764297
79	0xbe78fb2e	-0.24314567
80	0x3f2cdcf7	0.67524666
81	0xbeb07a0d	-0.34468117
82	0x3f2ff38e	0.6873101
83	0xbed1d708	-0.40984368
84	0xbde503b1	-0.11182345
85	0x3f0c242d	0.547427
86	0x3ec1c1c3	0.3784314
87	0x3e79de73	0.24401264
88	0x3f1306e6	0.574324
89	0x3d492535	0.04910775
90	0x3c8ca780	0.017169714
91	0xbe319bcd	-0.1734459
92	0xbefb49c2	-0.4907971
93	0x3e1e9b51	0.15488936
94	0x3ec39939	0.38202837
95	0xbc9611ff	-0.018319128
96	0x3eeaff71	0.4589801
97	0xbeab8324	-0.3349849
98	0x3f0c184c	0.54724574
99	0xbd09cb05	-0.03364088
100	0x3f24e00b	0.6440436
101	0x3e857d90	0.2607236
102	0x3ea1e155	0.31617227
103	0xbefb5386	-0.4908716
104	0xbea6747b	-0.32510743
105	0x3e886118	0.26636577
106	0x3f30a484	0.6900103
107	0xbe90c5a4	-0.28275788
108	0xbefde1c9	-0.49586323
109	0x3ef64a7e	0.48103708
110	0x3f212357	0.6294455
111	0xbedd69fb	-0.4324492
112	0x3ec6824a	0.38771278
113	0x3e903cc0	0.2817135
114	0xbea88d01	-0.32920077
115	0xbef3c82a	-0.4761365
116	0xbeca8b19	-0.39559248
117	0xbe95acf5	-0.29233518
118	0xbef07100	-0.46961212
119	0xbe681ccc	-0.22667235
120	0xbebd18f5	-0.36933103
121	0x3f01a649	0.50644356
122	0xbdc7dd05	-0.09758953
123	0xbe9ced4d	-0.30649796
124	0x3dbb1ee8	0.09136754
125	0x3cfb4a4e	0.03067508
126	0xbd725c68	-0.059170157
127	0xbf04f814	-0.5194104
128	0xbf076224	-0.52884126
129	0x3ec48fcb	0.38390955
130	0xbe0e19bd	-0.13877006
131	0x3f3122d3	0.6919376
132	0xbd88fd78	-0.0668897
133	0xbe856ad6	-0.26058072
134	0x3b97abe4	0.0046286453
135	0xbf229821	-0.6351338
136	0x3de6ee0b	0.11275872
137	0x3ef8583b	0.48504815
138	0x3f1a67ed	0.6031483
139	0xbf17b728	-0.5926385
140	0xbb759026	-0.0037469952
141	0xbc8c24b0	-0.017107338
142	0xbe803cd6	-0.25046414
143	0x3ee4aa4e	0.44661182
144	0xbf26d8cd	-0.6517456
145	0x3f2070dc	0.6267221
146	0xbeacda41	-0.33760265
147	0xbf104e31	-0.5636931
148	0x3ec0916e	0.37610954
149	0xbed62064	-0.41821587

hidden_layers.0.weight f4 [150, 150]
0	0xbd7bc8d0	-0.061470807
1	0xbd234568	-0.039861113
2	0xbd536711	-0.051611964
3	0xbd62fe39	-0.055418227
4	0xbda1a428	-0.078926384
5	0xbd635387	-0.05549958
6	0x3d73bbe5	0.059505362
7	0x3a8c0b7a	0.0010684573
8	0xbc080da1	-0.008304031
9	0x3c81bc08	0.01583673
10	0xbc88904d	-0.01667037
11	0x3c8a0280	0.016846895
12	0x3d3527dc	0.044227466
13	0x3d4f3ecb	0.050596993
14	0x3d1cad56	0.038251244
15	0x3d95ec3d	0.073204495
16	0xbd1134d5	-0.035450775
17	0x3d3d4017	0.0462037
18	0x3cb4786f	0.022030083
19	0xbcf6e8bd	-0.030140275
20	0x3bcb2bea	0.0062003033
21	0xbc9f32ce	-0.019433405
22	0x3cbfaba1	0.023397269
23	0x3d85b9ed	0.06529603
24	0xbb617a75	-0.0034405265
25	0xbda19277	-0.07889264
26	0xbd9d2c69	-0.07674486
27	0xbd9e8826	-0.07740812
28	0xbd7e41d9	-0.062074516
29	0xbd828af3	-0.06374159
30	0xbd92a7bd	-0.071609
31	0xbba5d411	-0.0050606807
32	0x3d98e4ce	0.07465516
33	0x3c0e82c4	0.008698169
34	0xbc981ff8	-0.018569931
35	0xbd1314de	-0.035908572
36	0xbd90bd0a	-0.07067306
37	0xbd93d2c5	-0.072179355
38	0x3ca9d434	0.02073107
39	0x3d55f684	0.05223705
40	0x3d86527f	0.06558704
41	0x3d6dc46d	0.058048654
42	0xb708f57c	-8.163388e-06
43	0xbd673f4e	-0.056456856
44	0x3d007c42	0.0313685
45	0xbac2e8ee	-0.0014870444
46	0x3d3f42ae	0.04669445
47	0x3d25a412	0.040439673
48	0x3a8e0d9f	0.00108378
49	0xbc6fdf2f	-0.014640613
50	0x3cd714e8	0.026255086
51	0xbd6f2d04	-0.05839254
52	0x3cd520fd	0.026016707
53	0xbd7e6a6c	-0.06211321
54	0x3d15c587	0.03656533
55	0xbd776dcd	-0.06040745
56	0xbbb3e2b4	-0.0054896716
57	0xbd5a21c4	-0.053254858
58	0xbc91944e	-0.017770912
59	0xbd0c7977	-0.034295525
60	0xbd9c5348	-0.07633072
61	0x3c0f201a	0.008735681
62	0x3d980d22	0.0742438
63	0x3d7551a0	0.059892297
64	0x3d75d908	0.06002143
65	0x3cc7f56f	0.024409024
66	0x3d6db71a	0.058035947
67	0x3d8b3501	0.06797219
68	0x3d46eec4	0.04856755
69	0xbc5a03cd	-0.01330657
70	0xbbbace2f	-0.0057008485
71	0xbda432f1	-0.08017529
72	0xbbc9d76b	-0.006159713
73	0xbd9e87e8	-0.07740766
74	0xbce25eb4	-0.027633049
75	0xbc9ca1bf	-0.019120095
76	0xbc6a74fa	-0.014310116
77	0xbc17c4fb	-0.009263272
78	0x3d9325ea	0.07184966
79	0xbd817f52	-0.063231125
80	0xbc4e10d5	-0.012577255
81	0x3d9b7398	0.07590407
82	0xbd59571c	-0.05306159
83	0xbd9c463b	-0.07630583
84	0xbcd39e49	-0.025832312
85	0x3d800180	0.06250286
86	0x3b8adf96	0.0042380793
87	0xbcad244a	-0.021135468
88	0xbd2f63e1	-0.04281986
89	0x3cb7c5f2	0.022433255
90	0xbc9dbed5	-0.019256035
91	0xbd12c37b	-0.035830956
92	0xbd92b5cb	-0.071635805
93	0xbda279c0	-0.07933378
94	0x3d9990c9	0.07498319
95	0x3d5c7761	0.053824786
96	0x3d5669f7	0.05234715
97	0xbb5b1685	-0.003343017
98	0x3c84ea20	0.01622492
99	0xbc289d56	-0.010291418
100	0xbd9c196f	-0.076220386
101	0xbc52abd7	-0.012858353
102	0x3b0f1049	0.0021829775
103	0x3d420c8b	0.047375243
104	0xbc8f5490	-0.017496377
105	0x3c539573	0.012914049
106	0xbcf386ac	-0.029727302
107	0xbda408a8	-0.080094635
108	0xbd98b13e	-0.07455681
109	0xbc9ffbec	-0.019529305
110	0x3d5296bc	0.051413283
111	0xbbf8d4df	-0.0075937356
112	0xbd965888	-0.07341105
113	0x3b0a33b2	0.0021087942
114	0xbcb61779	-0.02222799
115	0xbca2bb3d	-0.019864673
116	0xbd8d896d	-0.069109775
117	0x3cd5d64a	0.026103158
118	0xbd4da4f5	-0.050206143
119	0x3d5b3a47	0.053522374
120	0x3cc68fbb	0.024238458
121	0xbd39f5e6	-0.045400523
122	0x3cda6a36	0.026661973
123	0xbd0a950f	-0.03383356
124	0x3caac2a5	0.020844767
125	0xbcb81e36	-0.022475343
126	0xbd9a1498	-0.07523459
127	0xbd22cb4d	-0.039744664
128	0xbda6317e	-0.08114909
129	0x3c84f124	0.016228266
130	0x3bc098fd	0.0058776126
131	0xbd6743d7	-0.05646118
132	0x3ccbc103	0.024872309
133	0xbceec0b1	-0.029144617
134	0x3c9b7bf8	0.018980011
135	0x3d8890ca	0.06668241
136	0x3d8080d4	0.06274572
137	0xbc376c01	-0.011195184
138	0x3d16b209	0.03679088
139	0xbd587854	-0.05284913
140	0xbc9f65a6	-0.01945765
141	0xbcd2df51	-0.025741251
142	0xbd370a16	-0.044687353
143	0x3d51b787	0.051200416
144	0xbd555302	-0.052081116
145	0x3cebb280	0.028771639
146	0xbc90a2a1	-0.017655673
147	0xbc19384c	-0.009351801
148	0x3d995fd7	0.07488983
149	0xbb485207	-0.003056647
150	0x3bc8bbb9	0.006125894
151	0xbd837b3f	-0.06419992
152	0x3bea3055	0.007146875
153	0xbc923c8f	-0.017851142
154	0xbcc7bbea	-0.024381597
155	0x3da50608	0.08057791
156	0x3c253a30	0.010084674
157	0x3d9f5c29	0.0778125
158	0x3d24d689	0.04024366
159	0x3d655cb9	0.05599663
160	0xbc3f31c0	-0.011669576
161	0x3d4a741c	0.049427137
162	0x3cc9cdbd	0.024634236
163	0xbd566829	-0.05234543
164	0x3d79bf2c	0.06097333
165	0xbd533511	-0.05156428
166	0x3d6d12f8	0.057879418
167	0xbd8693cf	-0.06571161
168	0x3d7e454a	0.062077798
169	0x3d5e4c59	0.05427203
170	0xbd718fe7	-0.058975127
171	0x3c3e6c5f	0.011622517
172	0xbce6088e	-0.028080251
173	0x3d54634b	0.051852506
174	0xbc9ecf38	-0.019385919
175	0x3da1cc7b	0.0790033
176	0x3d856833	0.06514015
177	0x3d4117e9	0.047141943
178	0x3c936232	0.01799116
179	0xbd479f65	-0.048735995
180	0x3d20a954	0.039223984
181	0xbd3e22ee	-0.04642003
182	0xbd65a4a7	-0.056065228
183	0x3d93b510	0.07212269
184	0x3bac38bc	0.0052557867
185	0x3bc43a2d	0.0059883804
186	0x3bc18757	0.0059060263
187	0x3d877938	0.066149175
188	0xbd4e8608	-0.05042079
189	0xbcff29ff	-0.031147955
190	0x3d468482	0.048466213
191	0x3d919c66	0.07109909
192	0x3d6f26e7	0.05838671
193	0xbc82cf7b	-0.015968075
194	0x3d2e6171	0.042573396
195	0x3d9485a9	0.07252056
196	0x3d4b19c6	0.049585126
197	0xbd30bd0f	-0.04314905
198	0x3d94ad7b	0.07259651
199	0x3c6af305	0.014340167
200	0x3d9043ae	0.07044159
201	0x3bfc3283	0.007696451
202	0x3c614168	0.013748504
203	0xbd20e443	-0.039280187
204	0xbc108488	-0.00882066
205	0xbca88c17	-0.020574613
206	0xbcf20284	-0.029542215
207	0x3d455a0d	0.048181582
208	0xbd1d5207	-0.038408305
209	0x3ad85584	0.0016504978
210	0x3d4f2129	0.050568733
211	0x3c8af11c	0.016960673
212	0xbc78dead	-0.015189809
213	0xbd6e15e0	-0.05812633
214	0x3d74e0ad	0.05978458
215	0x3d7d6ab9	0.061869357
216	0x399f996e	0.00030441157
217	0xbd08b85e	-0.03337895
218	0x3d3bd440	0.045856714
219	0x3da2e2e6	0.07953434
220	0x3d32a015	0.043609697
221	0xbcb3c87d	-0.021946186
222	0x3d7a44e7	0.061100867
223	0xbd90af4e	-0.07064687
224	0xbd1b442e	-0.037906818
225	0x3d5d8f17	0.05409154
226	0xbd661ace	-0.056177907
227	0x3d2df272	0.042467542
228	0x3d88ba4f	0.066761605
229	0x3c729b83	0.014807585
230	0xbca1f80c	-0.019771598
231	0xbd09c63f	-0.033636328
232	0xbcd6eef1	-0.026236983
233	0xbce096df	-0.027415691
234	0x3d0b9e70	0.034086645
235	0x3d394570	0.045232236
236	0xbafd0e4b	-0.0019306628
237	0xbd23e5d1	-0.040014092
238	0xbd9b2bdf	-0.07576727
239	0xbd25d56b	-0.040486734
240	0x3daa5071	0.08316124
241	0x3d84602d	0.064636566
242	0x3d3e2bd1	0.046428505
243	0xbda5a053	-0.0808722
244	0xbce06d5e	-0.0273959
245	0x3b0492e2	0.002022915
246	0xbd14a21c	-0.036287412
247	0xbc8afdce	-0.016966727
248	0x3c084329	0.0083167935
249	0xbd83873d	-0.06422279
250	0xbd04146b	-0.032246035
251	0xbada324b	-0.0016647069
252	0x3c5ddafb	0.013540979
253	0xbda09f32	-0.07842864
254	0x3d74e1e4	0.05978574
255	0xbd83718f	-0.06418144

hidden_layers.0.bias f4 [150]
0	0xbcab11c8	-0.020882502
1	0x3d40980a	0.047019996
2	0xbd44e1e3	-0.048066985
3	0x3d6a56a7	0.057211544
4	0x3c658218	0.014008068
5	0xbcaa4dd7	-0.02078907
6	0xbd96af4f	-0.07357656
7	0xbb78ae2d	-0.0037945614
8	0x3d268055	0.04064973
9	0x3d30da77	0.043177094
10	0x3c57d6ea	0.013173798
11	0x3c41f00d	0.011837018
12	0x3bde1fc7	0.0067786905
13	0xb9c39494	-0.00037303998
14	0xbd57ba8c	-0.05266814
15	0x3d6ec5d8	0.058294147
16	0x3d46e626	0.04855933
17	0xbcfd715d	-0.030937845
18	0x3d0f09bb	0.03492139
19	0xbcbe7d8d	-0.023253227
20	0xbd30f695	-0.04320391
21	0xbba3047f	-0.004974901
22	0x3d9ebd34	0.077509314
23	0xbcc971af	-0.024590341
24	0xbd7857f9	-0.060630772
25	0x3d8e775e	0.06956361
26	0x3c30e724	0.010797296
27	0x3d32c438	0.04364416
28	0xbd9f2763	-0.07771184
29	0x3ce1678e	0.027515199
30	0xbd9e1ba3	-0.07720115
31	0x3d9719bd	0.07377956
32	0x3d6e1f14	0.058135107
33	0xbc0dbb37	-0.0086505925
34	0x3d5659e1	0.05233181
35	0xbd2f33cf	-0.042774018
36	0x3d0904d2	0.033451863
37	0x3da4bdae	0.08043991
38	0xbca9ac88	-0.020712152
39	0x3cdc581a	0.026897479
40	0xbb28e3e4	-0.00257706
41	0xb98fff27	-0.0002746519
42	0x3d9a74e5	0.07541827
43	0x3d3248c4	0.043526426
44	0xbaa3636f	-0.0012465547
45	0xbd8d1a63	-0.068897985
46	0x3d9009c3	0.07033112
47	0x3d511645	0.05104663
48	0x3d8edf92	0.069762364
49	0xbc446ad3	-0.0119883595
50	0xbda72bbe	-0.0816264
51	0xbd9e569d	-0.07731364
52	0xbd5bb3ff	-0.053638455
53	0x3d6c333c	0.05766605
54	0xbd6f079e	-0.058356874
55	0xbd475d38	-0.048672885
56	0x3bf7f5bc	0.0075671356
57	0xbbbe6769	-0.0058106673
58	0xbd86568f	-0.065594785
59	0xbd80a5be	-0.06281613
60	0xbd214b49	-0.03937844
61	0xbc85a821	-0.016315522
62	0x3c9ef479	0.019403683
63	0xbca58bfc	-0.020208351
64	0x3d8c3e55	0.068478264
65	0x3d95a0cb	0.073060594
66	0x3d2cc2b0	0.042177856
67	0xbd20cba1	-0.039256696
68	0x3d726238	0.0591757
69	0x3c53334d	0.012890649
70	0x3d4bd225	0.049760956
71	0xbc36004d	-0.01110847
72	0x3d85c896	0.06532399
73	0xbcd0c755	-0.025485674
74	0xbd6eecae	-0.058331184
75	0x3ceb6d73	0.028738713
76	0xbda0d9ea	-0.07854064
77	0x3d8fa5bb	0.070140325
78	0x3d610987	0.054940727
79	0xbbb9df14	-0.005672345
80	0x3d2ad827	0.041710045
81	0x3d5b3827	0.053520348
82	0x3ca70ed9	0.020392822
83	0xbd63c967	-0.055611994
84	0x3be732c6	0.007055613
85	0xbda06c72	-0.07833184
86	0xbd828a10	-0.063739896
87	0x3d8aeb37	0.06783145
88	0xbd9ce265	-0.07660369
89	0xbbc05dec	-0.0058705714
90	0xbd97365c	-0.07383415
91	0xba737c2c	-0.00092882174
92	0xbcfc04d2	-0.030764017
93	0xbb921a35	-0.0044586905
94	0xbcd4250a	-0.025896568
95	0xbd9c9838	-0.07646221
96	0x3d8e7cda	0.06957407
97	0xbc53efc5	-0.0129355835
98	0xbc5afbad	-0.013365668
99	0x3d8c15ed	0.068401195
100	0x3d69dbd9	0.05709443
101	0xbd9d498c	-0.076800436
102	0x3d264d37	0.04060098
103	0x3d55bac6	0.052180074
104	0x3d5a8963	0.05335368
105	0xbd696343	-0.05697943
106	0x3ca3dd9a	0.020003129
107	0xbcea1b94	-0.028577603
108	0x3c2344de	0.00996515
109	0xbd5e54d7	-0.05428013
110	0xbc2c2145	-0.010505979
111	0x3d744b77	0.05964228
112	0xbc11b624	-0.008893523
113	0xbd4e77ec	-0.050407335
114	0xbd84e9f3	-0.06489935
115	0xbc9a1b16	-0.018811744
116	0x3d912c92	0.07088579
117	0xbd48cf7f	-0.04902601
118	0x3d5d492b	0.054024857
119	0xbc7a694b	-0.015283893
120	0xbd9b3859	-0.07579107
121	0xbda1ebb9	-0.07906289
122	0xbd0112f0	-0.0315122
123	0x3d35480a	0.044258155
124	0x3d6327c9	0.055457864
125	0x3d12c5d3	0.03583319
126	0xba02c876	-0.00049889775
127	0x3d619cdd	0.055081237
128	0x3c9f5ba0	0.01945287
129	0xbd1e733b	-0.03868411
130	0x3d883d26	0.06652288
131	0xbd46f464	-0.048572913
132	0xbd1e6aec	-0.038676187
133	0x3d5b377c	0.05351971
134	0x3d57bc51	0.052669827
135	0x3d1bb3a7	0.038013127
136	0x3d540ac3	0.051768076
137	0xbd5fde60	-0.054655433
138	0xbd1f5ed5	-0.0389088
139	0xbc1b0e56	-0.009463867
140	0x3ccc2450	0.024919659
141	0x3c4720c1	0.012153805
142	0xbd386903	-0.045022022
143	0x3c8d679e	0.017261323
144	0x3c30e10a	0.010795841
145	0xbda29af3	-0.079397105
146	0x3da283cc	0.079352945
147	0x3d709bbb	0.058742266
148	0x3d58134a	0.05275277
149	0x3d4256a6	0.047445916

hidden_layers.1.weight f4 [150, 150]
0	0xbc36de2f	-0.011161371
1	0x3d39f5bf	0.045400377
2	0xbd55bd5e	-0.052182548
3	0xbc7e9a2f	-0.01553969
4	0xbc546205	-0.012962823
5	0xbd3f8205	-0.046754856
6	0x3d21c059	0.039490078
7	0xbd8d09d8	-0.06886643
8	0x3c933da1	0.017973723
9	0x3d311bfb	0.043239575
10	0xbce56609	-0.028002756
11	0x3d29b673	0.041433763
12	0x3d8a0a86	0.067402884
13	0xbd9c4724	-0.076307565
14	0x3d4e1292	0.05031068
15	0xbd39777c	-0.045279965
16	0x3d9b9bb5	0.07598058
17	0x3d3c90b4	0.046036437
18	0xbcfb2934	-0.030659296
19	0xbd5f5646	-0.054525636
20	0xbd68821e	-0.056764714
21	0x3d7432b5	0.05961867
22	0x3d335ded	0.043790746
23	0xbda325a4	-0.07966164
24	0x3cbc29ee	0.022969212
25	0x3d60fb77	0.054927316
26	0x3d597030	0.053085506
27	0xbd95cc83	-0.07314398
28	0x3d7df5c2	0.06200195
29	0x3da45350	0.08023703
30	0xbc559e79	-0.013038271
31	0x3c6effe0	0.014587373
32	0x3c6f74b7	0.014615229
33	0xbd66e976	-0.05637499
34	0x3c96dc65	0.01841564
35	0x3d871b8b	0.0659705
36	0xbd2f1081	-0.04274035
37	0xbbf2e324	-0.007412331
38	0x3d09f9ba	0.033685423
39	0xbd3217ef	-0.043479856
40	0xbced75f1	-0.028986903
41	0xbd62ecd5	-0.055401642
42	0xbbd2705d	-0.006422086
43	0xbd14f1eb	-0.036363523
44	0x3cb4e8da	0.022083689
45	0x3c581cd8	0.013190471
46	0x3d9210cc	0.0713211
47	0xbc62ef11	-0.013850943
48	0x3d271978	0.040795773
49	0xbba0be00	-0.0049054623
50	0x3d66cdc1	0.056348566
51	0x3b4d1c59	0.0031297414
52	0x3d2a128a	0.041521586
53	0xbd89b2c3	-0.06723549
54	0xbda0829f	-0.07837414
55	0x3d8f07ad	0.06983886
56	0xbd990132	-0.07470931
57	0x3d8b4e30	0.068020225
58	0xbd561598	-0.052266687
59	0xbd8f1f77	-0.06988423
60	0xbd80a037	-0.062805586
61	0xbd20a97c	-0.039224133
62	0x3da88986	0.082293555
63	0x3d791922	0.060814984
64	0x3c74406e	0.014907939
65	0xbd762502	-0.060093887
66	0x3cc69863	0.024242586
67	0xbd28510f	-0.04109293
68	0xbc0be496	-0.008538386
69	0x3d786c7b	0.06065033
70	0xbd894d52	-0.06704201
71	0xbd963602	-0.0733452
72	0x3d905a3c	0.07048461
73	0xbd93a74c	-0.07209644
74	0xbc9a14d7	-0.018808765
75	0x3c5df47b	0.013547058
76	0x3cc4090d	0.023930097
77	0x3c993343	0.018701201
78	0x3d9e58c5	0.07731775
79	0xbb1a6d65	-0.002356374
80	0x3cc9e4a5	0.024645159
81	0xbd49685f	-0.0491718
82	0x3d16b340	0.03679204
83	0x3c1a918c	0.009434115
84	0x3d1f8102	0.03894139
85	0xbd42f822	-0.04759992
86	0xbd4eda26	-0.05050101
87	0xbc4fdbe6	-0.012686705
88	0x3c3e4082	0.01161206
89	0xbc84a91c	-0.016193919
90	0xbce9386c	-0.028469287
91	0xbb851ffc	-0.0040626507
92	0xbda8b61b	-0.08237859
93	0xbd9589fa	-0.073017076
94	0xbd98eb52	-0.07466759
95	0x3d73fb13	0.059565615
96	0x3ced33d9	0.028955387
97	0xbca01130	-0.019539446
98	0x3ca06a39	0.0195819
99	0x3d03d647	0.032186773
100	0xbd5fc4f3	-0.054631185
101	0x3d2b69af	0.041848835
102	0xbda113d8	-0.07865113
103	0x3ccf77de	0.025325712
104	0x3cade2eb	0.021226367
105	0xbd4cd45a	-0.0500072
106	0x3d450b8b	0.04810671
107	0x3c291813	0.010320681
108	0xbd29bc3d	-0.041439284
109	0xbd0db526	-0.034596585
110	0xbb1b3782	-0.0023684208
111	0x3d49d7f7	0.049278226
112	0x3c8c9972	0.017163012
113	0xbd812c0a	-0.06307228
114	0x3d84dd09	0.064874716
115	0xbd300d20	-0.042981267
116	0xbd4096fe	-0.047018997
117	0x3c8f1cee	0.01746985
118	0xbc7117e8	-0.014715172
119	0x3da57bac	0.08080229
120	0x3cf1816a	0.029480655
121	0x3d9ccbb0	0.07656038
122	0xbd9e551f	-0.07731079
123	0xbd98980b	-0.07450875
124	0x3c813941	0.015774371
125	0x3cd5de3e	0.02610695
126	0x3c2ffa9e	0.010740904
127	0xbbe53d63	-0.0069958433
128	0xbc860370	-0.016359061
129	0xbd88fb6e	-0.066885814
130	0xbc4d1e76	-0.0125194695
131	0x3c5fc6c3	0.013658228
132	0xbd2a5bfd	-0.041591633
133	0xbbc36d6a	-0.005963971
134	0x3cdc3678	0.026881441
135	0xbd0212a7	-0.03175607
136	0xbbb8979c	-0.0056333076
137	0xbce23a95	-0.027615825
138	0xbb2ae5ec	-0.0026076986
139	0x3cb53f5d	0.02212494
140	0x3d6f3704	0.058402076
141	0x3d789ae0	0.060694575
142	0xbdab848d	-0.083748914
143	0x3cc76129	0.024338322
144	0x3d84a645	0.06477026
145	0x3d8b699a	0.06807251
146	0xbd8ca36f	-0.0686711
147	0x3b877cce	0.004134751
148	0xbd56c15f	-0.052430507
149	0x3cf281d9	0.029602932
150	0xbc9262d8	-0.017869398
151	0x3d2f3de1	0.04278362
152	0x3c9c0fcc	0.019050501
153	0xbd21dd98	-0.03951797
154	0x3da2aaa5	0.07942704
155	0xbd038a21	-0.032114152
156	0x3cb2f460	0.021845043
157	0x3d0576c3	0.032583963
158	0x3da02359	0.07819242
159	0xbd30839a	-0.043094255
160	0x3d70ba31	0.058771316
161	0xbc92f7e6	-0.017940473
162	0xbd83ce0b	-0.06435784
163	0x3d168571	0.036748353
164	0xbc9019ad	-0.017590368
165	0xbcb6ddb5	-0.022322515
166	0x3d9db876	0.07701199
167	0x3cf53627	0.029933048
168	0xbd230377	-0.039798226
169	0xbcfb7e85	-0.030699978
170	0x3cc7cc3b	0.024389377
171	0x3c6ea297	0.014565132
172	0x3c6cf351	0.014462308
173	0x392bb374	0.00016374682
174	0xbd98968d	-0.0745059
175	0xbd92bbb3	-0.07164707
176	0x3d936609	0.07197196
177	0xb9a9f9e6	-0.0003242038
178	0xbd3165ba	-0.043309905
179	0x3bf1d5fb	0.007380245
180	0x3d0b6059	0.03402743
181	0xbc9d8e2c	-0.019232832
182	0x3c59b80a	0.013288507
183	0x3d280542	0.04102064
184	0xbc659d54	-0.014014561
185	0xbbc317f7	-0.0059537846
186	0xbd289965	-0.041161913
187	0xbd10be1f	-0.035337564
188	0x3bf93a8b	0.007605856
189	0xbd326375	-0.04355188
190	0x3d43893e	0.047738306
191	0x3d6bff80	0.05761671
192	0xbc9ac85c	-0.018894367
193	0xbcd61966	-0.026135158
194	0x3d9ec477	0.077523164
195	0x3d9a7811	0.07542432
196	0x3d83dcfd	0.064386345
197	0x3c14ca96	0.009081503
198	0x3cb45ab2	0.022015903
199	0x3d8b2fee	0.06796251
200	0xbda9fe18	-0.08300418
201	0xbd1a9421	-0.037738923
202	0x3d1f5ea4	0.038908616
203	0xbbed3570	-0.0072390363
204	0x3c9f84d5	0.019472519
205	0xbacf8054	-0.0015831091
206	0x3b770f82	0.0037698452
207	0xbdaaaf2c	-0.08334193
208	0xbcaeedd8	-0.021353647
209	0xbd4f6e77	-0.050642457
210	0xbcccc5a9	-0.024996595
211	0x3d96dcd0	0.073663354
212	0xbd5a7767	-0.053336527
213	0xbd2737ec	-0.040824816
214	0x3d8bf2d5	0.06833426
215	0x3da02ac7	0.07820659
216	0x3cb1ba89	0.021695392
217	0x3cc063b5	0.023485044
218	0x3dac12cf	0.08402025
219	0xbc5eebe4	-0.013606045
220	0x3d741763	0.059592616
221	0x3d4d232d	0.050082374
222	0xbcab3666	-0.020899963
223	0xbd2d7a4e	-0.042352967
224	0xbc820bb7	-0.015874727
225	0xbd251499	-0.040302847
226	0x3d0939bd	0.03350233
227	0xbc9eb7c0	-0.019374728
228	0x3ccd126d	0.0250332
229	0x3d996953	0.07490792
230	0xbd948638	-0.07252163
231	0x3d5c33a4	0.053760186
232	0x3d99ad82	0.07503797
233	0xbd51453d	-0.05109142
234	0x3c2675c2	0.010159912
235	0xbd66be15	-0.05633362
236	0xbd76ea33	-0.060281944
237	0xbd90b77b	-0.07066246
238	0xbd8c9c42	-0.06865741
239	0x3c5348c1	0.012895764
240	0x3c496d99	0.0122941965
241	0x3c95cd67	0.01828642
242	0xbd520744	-0.05127646
243	0x3ca63d33	0.020292854
244	0x3d176200	0.036958694
245	0xbc81d9f3	-0.015850997
246	0xbd8f5370	-0.06998336
247	0xbc68d2fe	-0.014210461
248	0xbc957206	-0.018242847
249	0xbd9d99d4	-0.07695356
250	0xbc1ddec5	-0.009635632
251	0xbd3c1be0	-0.04592502
252	0x3c4137a2	0.011793049
253	0x3d10ebfe	0.03538131
254	0xbc2ea73e	-0.010659991
255	0x3b37e4f0	0.0028060041

hidden_layers.1.bias f4 [150]
0	0x3c031aba	0.008001978
1	0xbd6b7090	-0.057480395
2	0x3d030543	0.03198744
3	0xbabc5c5a	-0.0014370785
4	0xbd338686	-0.043829463
5	0xbd97f792	-0.07420267
6	0xbccac62c	-0.024752699
7	0x3d9388f7	0.07203858
8	0x3d928431	0.0715412
9	0xbd167683	-0.036734115
10	0x3c0b0944	0.008486096
11	0x3d5b7a88	0.05358365
12	0xbd813797	-0.06309431
13	0xbc225fa4	-0.009910498
14	0x3d1f64dd	0.03891455
15	0x3d980190	0.07422173
16	0x38598f50	5.1870302e-05
17	0x3cb692b4	0.02228675
18	0x3d30b37e	0.043139927
19	0x3d0bb8ae	0.03411167
20	0x3cb79d0e	0.022413757
21	0xbda03989	-0.07823474
22	0x3bdb4baf	0.006692372
23	0xbd6c0891	-0.057625357
24	0x3d92ac57	0.071617775
25	0x3ba3bd3b	0.0049969233
26	0x3d938e9f	0.07204937
27	0x3bfaee3b	0.007657794
28	0x3d581ffd	0.05276488
29	0x39571b39	0.00020514139
30	0x3cda529c	0.02665072
31	0x3d4b1c07	0.049587276
32	0x3d0f6893	0.03501184
33	0xbb1151b0	-0.0022173934
34	0x3d243b29	0.040095482
35	0x3d76773f	0.060172316
36	0xbd00daf2	-0.031458803
37	0x3d2456bd	0.040121783
38	0xbd9c56da	-0.07633753
39	0xbd1ee069	-0.038788233
40	0xbd7f611a	-0.062348463
41	0xbd96326b	-0.07333835
42	0x3d8c7db0	0.068599105
43	0xbd5944e4	-0.053044215
44	0xbd8f4342	-0.0699525
45	0x3d801e75	0.06255809
46	0xbd93ae44	-0.07210973
47	0xbd81acdb	-0.06331798
48	0x3cbfb606	0.023402225
49	0xbc778007	-0.015106208
50	0x3d679fa0	0.056548715
51	0x3bd04016	0.006355296
52	0x3d1cad8d	0.03825145
53	0xbd21ee96	-0.039534174
54	0xbd7ad66e	-0.061239652
55	0xbd562884	-0.052284732
56	0x3d10c93d	0.035348166
57	0x3d7554bb	0.05989526
58	0xbc752672	-0.014962779
59	0xbd37eef1	-0.044905607
60	0xbd631654	-0.055441216
61	0xbc98f0ef	-0.018669574
62	0x3d986771	0.07441605
63	0xbd44eb76	-0.048076116
64	0x3d14cdc4	0.036329046
65	0xbd33c16b	-0.04388563
66	0xbc450238	-0.012024455
67	0xbd977370	-0.07395065
68	0xbd82ae75	-0.06380931
69	0xbd5378e0	-0.051628947
70	0x3b93cc59	0.004510444
71	0xbd5389de	-0.051645152
72	0xbd9b4530	-0.07581556
73	0xbd8eec4a	-0.06978662
74	0xbcca4461	-0.024690809
75	0xbd72dd03	-0.059292804
76	0x3d39ffd8	0.045410007
77	0xbd688c9c	-0.05677472
78	0x3cd06e13	0.025443112
79	0xbd704ee5	-0.05866899
80	0xbc59595f	-0.013265937
81	0x3ba8451b	0.005135191
82	0x3d8413f6	0.0644912
83	0x3d949704	0.072553664
84	0xbd03151c	-0.032002553
85	0xbd320c2b	-0.043468636
86	0x3c374693	0.01118626
87	0xbd74924b	-0.05970983
88	0xbd12f418	-0.035877317
89	0xbd76df63	-0.060271632
90	0x3bad477e	0.0052880635
91	0xbaf997dd	-0.0019042451
92	0xbc8fd599	-0.017557906
93	0x399dca20	0.00030095968
94	0xbd101958	-0.03518042
95	0x3d199d3b	0.037503462
96	0xbd627c3f	-0.05529427
97	0xbcf322ec	-0.029679738
98	0x3b530eea	0.0032204934
99	0x3cde0b1e	0.02710491
100	0x3cbde3f7	0.023179991
101	0x3d15598a	0.036462344
102	0xbc87a3d4	-0.016557612
103	0x3cfa9eb0	0.030593246
104	0x3b2f1ecf	0.0026721244
105	0xbd9189a2	-0.071063295
106	0xbd69d720	-0.057089925
107	0x3ccb3724	0.024806567
108	0x3d8c160d	0.06840143
109	0x3d67dbb8	0.056606025
110	0xbd05bebb	-0.032652598
111	0xbc6ecf78	-0.014575832
112	0x3d5686e7	0.052374747
113	0x3d62e09a	0.055389978
114	0x3d98da98	0.074635684
115	0xbd25b54c	-0.0404561
116	0xbc6bde9c	-0.014396336
117	0x3d2ebc80	0.042660236
118	0xbd51def2	-0.051238008
119	0x3d5bd6a0	0.05367148
120	0x3c62921c	0.0138287805
121	0x3befa48d	0.007313317
122	0xbbeb51fe	-0.007181405
123	0xbd8a6891	-0.06758226
124	0xbd2cf705	-0.042227764
125	0xbc4abb11	-0.012373702
126	0xbd2d5ce0	-0.0423249
127	0xbd98756c	-0.074442714
128	0xbd569fa7	-0.05239835
129	0xbd925b32	-0.071463004
130	0xbd185d25	-0.037198205
131	0x3d1066ff	0.035254475
132	0xbd41e916	-0.04734143
133	0xbd6c61c7	-0.057710435
134	0xbc4e657b	-0.012597437
135	0xbd97571e	-0.07389663
136	0xbd8525cf	-0.06501352
137	0x3d95bc66	0.07311325
138	0xbd71edd3	-0.059064697
139	0xbd2ecd81	-0.042676453
140	0x3d14738c	0.036243007
141	0xbb8739e3	-0.0041267737
142	0x3d6f9525	0.058491845
143	0x3d1d05e0	0.03833568
144	0x3cdeda3a	0.027203668
145	0x3cbf00ba	0.023315776
146	0xbd84b4b9	-0.064797826
147	0xbb5351c4	-0.003224478
148	0x3ced81be	0.02899253
149	0xbc982ba2	-0.018575493

hidden_layers.2.weight f4 [150, 150]
0	0xbd2344a9	-0.0398604
1	0x3d6c3ed0	0.05767709
2	0x3d561e37	0.05227491
3	0x3d04dbe7	0.032436278
4	0x3c8fa54c	0.017534874
5	0x3ccca845	0.02498258
6	0xbd42cbeb	-0.047557753
7	0x3c4bccad	0.012438935
8	0x3d8c1acb	0.06841048
9	0xbc20cae1	-0.009813995
10	0xbcf6318f	-0.030052928
11	0xbd485a31	-0.04891414
12	0xbc9e3f95	-0.019317428
13	0xbc6548b3	-0.013994384
14	0xbd714578	-0.05890414
15	0x3d9ac35a	0.075567916
16	0x3cd1fc49	0.025632994
17	0x3c71d942	0.014761271
18	0x3d0704d4	0.03296359
19	0x3c9e7bba	0.019346107
20	0x3c32dc25	0.010916744
21	0x3d243250	0.040087044
22	0xbda0e07a	-0.078553155
23	0xba8c23ee	-0.001069186
24	0x3ce18417	0.027528806
25	0x3d9004d6	0.070321724
26	0xbd8b9be4	-0.06816843
27	0x3d35f550	0.0444234
28	0x3d99907d	0.07498262
29	0xbcb8bbe8	-0.022550538
30	0xbcf9eddf	-0.030508934
31	0xbd7f85da	-0.06238351
32	0x3d866a23	0.06563213
33	0xbcb6fd3e	-0.022337552
34	0x3d05cf52	0.03266842
35	0x3d9dae10	0.076992154
36	0xbc054427	-0.008133925
37	0xbd8d4514	-0.06897941
38	0xbd05705e	-0.032577865
39	0x3cdb49c2	0.026768569
40	0x3d0a3c1f	0.033748742
41	0x3d86a977	0.065752916
42	0xbc793e80	-0.015212655
43	0xbda6f949	-0.08153016
44	0x3d36856e	0.044560842
45	0x3be0a3b3	0.006855452
46	0x3ca81de9	0.020522075
47	0x3d997616	0.07493226
48	0xbd3bb66e	-0.045828275
49	0x3d28e7f7	0.041236844
50	0xbc8df129	-0.017326908
51	0x3d87adfe	0.06624983
52	0x3cb16cd5	0.02165834
53	0xbd415f7a	-0.047210194
54	0xbd2cdab3	-0.042200755
55	0xbcdb87f7	-0.026798232
56	0x3d77b046	0.06047084
57	0xbd6277af	-0.05528992
58	0x3c14ce02	0.009082319
59	0xbd95b2a8	-0.073094666
60	0xbc84a29c	-0.01619082
61	0xbd3075ac	-0.04308097
62	0xbc218ddd	-0.009860483
63	0x3d9b72e2	0.075902715
64	0xbc43baa1	-0.011946351
65	0x3d436b01	0.04770947
66	0xbd44521a	-0.04792986
67	0xbd5f4170	-0.054505765
68	0xbc9393ba	-0.018014777
69	0xbd836f83	-0.064177535
70	0x3ce78e77	0.028266175
71	0xbd6ce7d3	-0.057838272
72	0x3c582542	0.013192477
73	0x3d82f065	0.06393508
74	0x3d7ecf43	0.06220938
75	0xbc247662	-0.01003799
76	0xbd289c0a	-0.041164435
77	0x3d84c7ed	0.06483445
78	0x3b42e027	0.0029735656
79	0x3d72a549	0.05923966
80	0x3d930fa6	0.07180719
81	0xbc9c23ba	-0.019060005
82	0x3b25a55e	0.0025275568
83	0xbd2a4442	-0.041569002
84	0xbd28e664	-0.041235343
85	0x3d0581fd	0.03259467
86	0x3d12392f	0.035699066
87	0x3d1b4828	0.03791061
88	0xbcd3ff89	-0.025878685
89	0xbd087723	-0.033316743
90	0x3d4fd931	0.05074424
91	0xbd683dc7	-0.05669954
92	0xbd1f9236	-0.038957797
93	0xbd96f716	-0.07371347
94	0x3d42c6f3	0.047553014
95	0x3c0e35c9	0.008679816
96	0x3cfe1611	0.031016381
97	0xbd046c87	-0.032330062
98	0xbd14352e	-0.03618353
99	0x3d102ae3	0.03519715
100	0x3d3df63c	0.046377406
101	0x3cd004e5	0.025392959
102	0x3aca864c	0.00154514
103	0xbd1600b8	-0.03662178
104	0x3cb61dff	0.0222311
105	0x3cff0f07	0.031135095
106	0xbd993695	-0.07481114
107	0x3c4b58f3	0.012411344
108	0x3c996380	0.018724203
109	0x3baf9e99	0.0053594825
110	0x3d4ba2d9	0.04971585
111	0xbd82d838	-0.06388897
112	0xbd1dfd91	-0.038571898
113	0xbcf15639	-0.02946006
114	0x3d4aa7ee	0.049476556
115	0xbd8450af	-0.06460702
116	0xbd11505e	-0.035477035
117	0xbbaffcfa	-0.0053707333
118	0xbd9bcb73	-0.07607164
119	0x3d8363bf	0.064155094
120	0x3d911aab	0.07085165
121	0xbccd9e5d	-0.025099928
122	0xbcb74043	-0.02236951
123	0xbd40815b	-0.046998363
124	0x3c7d03b2	0.015442776
125	0xbcd39b0d	-0.02583077
126	0x3d54e0ac	0.051972076
127	0x3c826343	0.015916472
128	0x3cc22bf1	0.023702594
129	0xbd7dd0da	-0.061966754
130	0xbcfc40b9	-0.03079258
131	0x3d46b913	0.048516344
132	0xbb223ab6	-0.0024754233
133	0x3d212fe6	0.03935232
134	0xbc2c4aba	-0.010515863
135	0x3c1bde4b	0.009513448
136	0xbda08b94	-0.078391224
137	0x3d2b4708	0.041815788
138	0xbc115a60	-0.008871645
139	0x3d3c7afc	0.046015725
140	0xbd3f9be2	-0.04677952
141	0xbbba0d32	-0.0056778425
142	0x3c70940b	0.014683734
143	0x3cf0cbb7	0.029394014
144	0xbda59fde	-0.08087133
145	0x3d65c0dd	0.056092132
146	0x3d66615d	0.056245197
147	0x3d957fb9	0.07299752
148	0xbc263a9a	-0.010145808
149	0xbd84ab95	-0.06478039
150	0xbd2dac4d	-0.042400647
151	0x3cfbdde6	0.030745458
152	0xbd31c9cd	-0.043405343
153	0xbc5eb6f0	-0.01359342
154	0x3d30361e	0.04302036
155	0x3d8b738c	0.06809148
156	0x3ce4064e	0.027835038
157	0xbc6357a8	-0.013875879
158	0x3c79a0b7	0.015236071
159	0xbd251a11	-0.040308062
160	0xbd6aacd5	-0.05729373
161	0x3d93928f	0.07205688
162	0xbd7c6038	-0.0616152
163	0x3ca1fe87	0.019774688
164	0x3d1e9fcf	0.038726624
165	0xbbcd5277	-0.006265934
166	0xbc16e14d	-0.009208989
167	0xbd6bb798	-0.057548136
168	0x3c84448d	0.016145969
169	0xbd8ee617	-0.0697748
170	0xbd5a5668	-0.05330506
171	0xb9ae7867	-0.00033277573
172	0xbd4f8a58	-0.050669044
173	0xbd8aad9c	-0.067713946
174	0xbccdce8e	-0.025122907
175	0xbd86d1ac	-0.065829605
176	0x3cfbf197	0.030754847
177	0x3cd35029	0.02579506
178	0x3c38ae5f	0.011272042
179	0x3d758585	0.059941787
180	0xbd9e848f	-0.07740127
181	0x3d903ce6	0.070428655
182	0xbd033ed0	-0.032042325
183	0x3d686c35	0.05674382
184	0xbd43970c	-0.04775147
185	0x3ba09314	0.0049003456
186	0xbad4a21c	-0.0016222629
187	0x3cf230bd	0.029564256
188	0xbd24a588	-0.040196925
189	0x3c0eb1c1	0.008709372
190	0xbd0e8647	-0.034796026
191	0xbd8bf475	-0.06833736
192	0xbcd320f6	-0.025772553
193	0xbda58ce0	-0.080835104
194	0xbcd3a089	-0.025833385
195	0x3d08b2e8	0.033373743
196	0xbcb27186	-0.021782648
197	0x3d302e7e	0.04301309
198	0x3cf0a99e	0.029377755
199	0xbb52cd38	-0.0032165777
200	0x3ab3fe4c	0.0013732403
201	0xbd90f417	-0.070778064
202	0xbd2d3f27	-0.042296555
203	0x3da33041	0.07968188
204	0x3cb7e27b	0.022446861
205	0x3d91a013	0.0711061
206	0xbda6580e	-0.08122264
207	0xbd90f44b	-0.07077845
208	0x3d0432dd	0.03227507
209	0xbd9cadb1	-0.076503165
210	0x3c2109c8	0.009828992
211	0xb8dd2183	-0.00010544343
212	0x3d2ddeb5	0.042448718
213	0xbc2664da	-0.010155881
214	0x3bc9b645	0.0061557614
215	0xbd4ec3b1	-0.050479595
216	0x3d9a2e8c	0.07528409
217	0x3b7fe288	0.0039044935
218	0x3d106fa5	0.035262723
219	0xbc8abfe7	-0.01693721
220	0x3d3c3a4c	0.045954034
221	0xbd751cc8	-0.0598419
222	0xbd61e501	-0.055150036
223	0xbc109dda	-0.008826697
224	0x3d3e6dd8	0.046491474
225	0x3d2cadae	0.04215782
226	0xbc6d2be6	-0.014475798
227	0xbc7e0bbe	-0.015505729
228	0xbd3e2128	-0.04641834
229	0xbd79afd4	-0.0609587
230	0xbaf55919	-0.001871857
231	0x3da66a37	0.081257276
232	0x3d20c9e0	0.039255023
233	0xbd6170c1	-0.05503917
234	0x3c277b45	0.010222261
235	0x3bd88aa7	0.0066083255
236	0x3d5887cd	0.052863885
237	0xbd885102	-0.06656076
238	0x3d503a0b	0.050836604
239	0xbd6d2958	-0.057900757
240	0xbb2e5c3e	-0.0026605274
241	0xbd866e3e	-0.06563996
242	0xbcbbb32e	-0.022912588
243	0x3c49190a	0.012274036
244	0x3c3544a4	0.0110637285
245	0xbd432695	-0.047644217
246	0x3d5453f0	0.05183786
247	0x3a9763ab	0.0011550089
248	0xbd851342	-0.06497814
249	0xbd12de67	-0.03585663
250	0x3d583df8	0.052793473
251	0x3d6a3e7d	0.0571885
252	0xbd3af09f	-0.04563963
253	0x3d866b68	0.06563455
254	0xbd234fd2	-0.039871044
255	0x3bbbf616	0.005736123

hidden_layers.2.bias f4 [150]
0	0xbbaf0771	-0.0053414633
1	0xbcdf77f9	-0.027278887
2	0xbbb1fcb3	-0.0054317354
3	0xbd62897e	-0.055306904
4	0xbd4e7df2	-0.05041308
5	0xbc80af3f	-0.015708564
6	0x3d32c81a	0.043647863
7	0xbcce5008	-0.025184646
8	0xbd63ce6a	-0.055616774
9	0x3cb09930	0.02155742
10	0xbd4397c3	-0.047752153
11	0xbbe06e9f	-0.0068491246
12	0x3da1fa6f	0.079090945
13	0x3d44397a	0.047906376
14	0x3d94335b	0.07236358
15	0x3cc2fc07	0.023801817
16	0x3cd4c464	0.025972553
17	0x3da49fdf	0.080383055
18	0xbc58a7f8	-0.013223641
19	0xbcda3cc9	-0.026640313
20	0x3d6ae568	0.057347685
21	0xbd218566	-0.03943386
22	0xbc1ac46a	-0.009446243
23	0x3cbf04e8	0.02331777
24	0xbc42cb4f	-0.011889293
25	0x3d51dd16	0.051236235
26	0xbd39ecd7	-0.045391884
27	0x3c5ec702	0.013597252
28	0xbc324a4a	-0.01088197
29	0xbc949e75	-0.018141964
30	0xbcb09064	-0.021553226
31	0xbd34ff4c	-0.044188783
32	0xbd556a57	-0.052103367
33	0x3d2a989b	0.041649442
34	0xbcc1f84b	-0.023677966
35	0x3ce0ddef	0.027449576
36	0x3d1ee8a0	0.038796067
37	0xbd995517	-0.07486933
38	0xbd846276	-0.064640924
39	0xbb92f19e	-0.0044843694
40	0xbcfdcc98	-0.030981347
41	0xbcc82227	-0.024430348
42	0xbd6b2a4b	-0.05741338
43	0xbc700cff	-0.014651536
44	0xbd9a9187	-0.075472884
45	0x3c832c81	0.016012432
46	0x3d37c8a5	0.044869084
47	0x3d9a0cc9	0.0752197
48	0xbb45ac58	-0.003016254
49	0xbd4afdfc	-0.049558625
50	0x3c462621	0.012094052
51	0x3d89f99e	0.06737064
52	0xbcb48ebf	-0.022040723
53	0xbcc7a622	-0.02437121
54	0x3bf82bc1	0.0075735752
55	0x3d699f82	0.057036884
56	0xbd3e0bd6	-0.046398006
57	0x3d0b2f07	0.033980396
58	0x3c9722ec	0.01844927
59	0xbd82d00e	-0.063873395
60	0x3d331c06	0.043727897
61	0xbd1b0bb7	-0.03785297
62	0xbd0e4371	-0.034732286
63	0xbd04cfe9	-0.03242484
64	0xbd8f5e0b	-0.07000359
65	0x3d311986	0.04323723
66	0xbd8494d4	-0.06473699
67	0xbd41b47e	-0.04729127
68	0xbd356786	-0.04428818
69	0xbc346246	-0.011009758
70	0x3d849872	0.06474389
71	0x3d865b49	0.0656038
72	0x3c8e0546	0.017336499
73	0xbd14a462	-0.03628958
74	0x3d25f06b	0.040512484
75	0xbd81c284	-0.06335929
76	0x3d5b9e2c	0.05361764
77	0x3d8abe3a	0.06774564
78	0xbd967c6a	-0.07347949
79	0xbd7febe3	-0.06248082
80	0xbd2760dc	-0.040863857
81	0xbc86de65	-0.016463468
82	0x3d10e8a3	0.03537811
83	0xbd7634d0	-0.06010896
84	0xbd1e9a59	-0.038721416
85	0x3d001a73	0.031275224
86	0xbd405f71	-0.04696602
87	0xbd7eb6f7	-0.062186208
88	0xbcf0ea6d	-0.029408658
89	0xbd395863	-0.045250308
90	0xbd2aa841	-0.041664366
91	0x3d9e6778	0.07734579
92	0x3d606b15	0.05478962
93	0x3c685ba1	0.014182002
94	0xbc9e29a5	-0.019306967
95	0x3da316aa	0.07963307
96	0x3d24ad2c	0.040204212
97	0xbd81d405	-0.06339268
98	0x3d0036b7	0.03130218
99	0x3d3bed39	0.04588053
100	0x3da0bc9c	0.078484744
101	0x3d9da641	0.07697726
102	0xbd9cf842	-0.07664539
103	0x3d124868	0.035713583
104	0xbd649206	-0.05580332
105	0x3aadfbad	0.0013273858
106	0x3d07a9e5	0.03312101
107	0xbd665559	-0.056233738
108	0x3c3ef59e	0.011655239
109	0xba0defca	-0.00054144545
110	0xbd0632fc	-0.032763466
111	0x3d4d3d84	0.050107494
112	0x3d3b9add	0.045801986
113	0x3d3c48b2	0.045967765
114	0x3d9d2ded	0.07674775
115	0xbce9f66a	-0.028559882
116	0x3d04bb65	0.032405276
117	0x3d4379c7	0.047723558
118	0xbc364e9b	-0.011127139
119	0xbba4bec9	-0.005027626
120	0xbd1fa546	-0.038975976
121	0x3c5b4197	0.013382337
122	0xbd9d1a02	-0.07670976
123	0xbda0e1ab	-0.07855543
124	0xbd21d157	-0.039506283
125	0x3d98aed6	0.07455222
126	0xbd366a65	-0.04453506
127	0xbcef84aa	-0.029238064
128	0x3d417680	0.04723215
129	0xbba24094	-0.004951546
130	0xbd4e6e0e	-0.050397925
131	0xbd00d496	-0.031452738
132	0xbced1944	-0.028942712
133	0xbd7fed46	-0.06248214
134	0xbb85f694	-0.0040882323
135	0x388015f9	6.107608e-05
136	0x3d830bcc	0.063987345
137	0xbbe6fda2	-0.0070492784
138	0x3cafe318	0.021470591
139	0xbd2dcf19	-0.04243383
140	0xbc3aed95	-0.011409183
141	0x3d010f6b	0.031508844
142	0xbd6e989e	-0.058251016
143	0x3d8021a6	0.06256418
144	0xbd36630b	-0.04452805
145	0x3da198fb	0.07890507
146	0x3d53ca77	0.051706757
147	0x3cb1a842	0.021686677
148	0xba0bc5fb	-0.00053319306
149	0xbd615433	-0.05501194

hidden_layers.3.weight f4 [150, 150]
0	0x3d26e98c	0.04075007
1	0x3d305c82	0.043056972
2	0x3cc56a74	0.024098612
3	0x3d7608e5	0.060067076
4	0x3d433dba	0.04766629
5	0xbc7e4143	-0.015518489
6	0x395788c2	0.00020554944
7	0x3d0b306c	0.033981726
8	0x3d754b9a	0.059886552
9	0xbd7df1f9	-0.06199834
10	0x3d443b72	0.047908254
11	0x3d618860	0.055061698
12	0xbd41dfd1	-0.04733259
13	0x3ce7150f	0.028208284
14	0x3c1b378f	0.009473695
15	0x3c35fdc5	0.011107867
16	0xbd9d5ead	-0.076840736
17	0xbccd04c8	-0.025026694
18	0xbd939d22	-0.07207705
19	0xbd7357e1	-0.05940998
20	0xbc090af4	-0.008364428
21	0xbd55f838	-0.052238673
22	0xbd9dfe4d	-0.0771452
23	0x3c0a10da	0.008426869
24	0x3d93fa97	0.072255306
25	0xbc6f8769	-0.014619687
26	0x3cdbcdd4	0.026831545
27	0x3d8e9037	0.069611005
28	0xbd8b4517	-0.06800287
29	0xbd8ffe03	-0.07030871
30	0x3b6eb083	0.0036421127
31	0xbd1193e5	-0.035541434
32	0x3b47ffa5	0.0030517366
33	0x3d40b048	0.047043115
34	0x3d5fa3e2	0.05459965
35	0xbd6eb9ce	-0.058282666
36	0xbd331ef3	-0.043730687
37	0x3d5d5c19	0.05404291
38	0x3d985313	0.0743772
39	0x3d557e28	0.052122265
40	0xbbc07128	-0.0058728643
41	0xbd1ecb24	-0.03876795
42	0x3d25db3a	0.040492274
43	0xbd6ea5a9	-0.058263455
44	0x3d39fdd2	0.045408078
45	0x3d8ff561	0.07029224
46	0xbd01178f	-0.031516608
47	0xbd66fdca	-0.056394376
48	0xbba10396	-0.0049137576
49	0x3c62e7c5	0.0138492035
50	0x3d2d2b6b	0.042277735
51	0xbd6fb5bb	-0.05852292
52	0x3c286289	0.010277399
53	0x3d50705a	0.050888397
54	0x3d6809a3	0.056649815
55	0xbcf9b64e	-0.030482437
56	0xbcd4564e	-0.02592006
57	0x3cfb5e2e	0.030684557
58	0x3bce7781	0.006300867
59	0xbd7c9a17	-0.06167039
60	0x3cddba66	0.02706642
61	0x3d43fa76	0.04784628
62	0xbd8efc74	-0.06981745
63	0x3c136d69	0.008998253
64	0xbd6ce1e6	-0.05783262
65	0x3da7c02e	0.08190952
66	0xbda52bf8	-0.08065027
67	0x3d9351df	0.0719335
68	0xbd3287c2	-0.0435865
69	0xbca0f153	-0.019646322
70	0x3d88c960	0.06679034
71	0x3a4f17af	0.00078999525
72	0xbda12399	-0.07868118
73	0x3d9db891	0.07701219
74	0xbd39315f	-0.0452131
75	0x3c68007c	0.014160272
76	0x3cc1f859	0.023677992
77	0x3d9b535b	0.07584258
78	0x3cc12a8e	0.023579862
79	0xbd63381f	-0.055473443
80	0xba5372b3	-0.0008066103
81	0x3d9b5c71	0.07585991
82	0x3cd60f94	0.026130475
83	0xbd6232f5	-0.055224378
84	0x3d590abb	0.05298875
85	0xbd38daad	-0.04513042
86	0xbcf59e9c	-0.029982857
87	0x3ce28fd6	0.027656477
88	0xbc0bde5f	-0.008536904
89	0x3da59c15	0.08086411
90	0x3d503e5f	0.05084073
91	0xbd83b418	-0.064308345
92	0xbcc2d1ad	-0.023781622
93	0x3caea304	0.021317966
94	0x3d29adc0	0.041425467
95	0xbd0ddad1	-0.034632508
96	0x3d718b5b	0.05897079
97	0xbd426e66	-0.047468565
98	0x3cb90343	0.022584563
99	0xbcb4b019	-0.022056626
100	0x3c7a5d46	0.015281027
101	0xbda62227	-0.08111983
102	0xbd7853b2	-0.060626693
103	0x3d6d344c	0.057911202
104	0xbd7cdd25	-0.061734337
105	0xbd998cb9	-0.07497544
106	0x3cda23a0	0.026628315
107	0xbb49369e	-0.003070272
108	0xbd6d48da	-0.057930805
109	0xbd4b20e3	-0.04959191
110	0x3d4978c2	0.04918743
111	0x3d4233b2	0.04741258
112	0xbd2e1fdd	-0.042510856
113	0xbd8d76c5	-0.06907419
114	0x3c53e637	0.012933305
115	0x3d91e632	0.071239844
116	0xbd392be5	-0.045207877
117	0xbd63b47c	-0.055592045
118	0x3d9b9fe5	0.07598857
119	0xbcf8df6f	-0.030379979
120	0x3cf58003	0.029968267
121	0xbcc82dce	-0.024435904
122	0xbbc861af	-0.0061151604
123	0xbcc49bcf	-0.024000077
124	0x3d2ddf11	0.04244906
125	0x3d557602	0.052114494
126	0xbd217991	-0.039422575
127	0x3ce1630d	0.027513051
128	0xbda28d76	-0.07937138
129	0xbc3685b3	-0.011140275
130	0xbb0fc6af	-0.0021938493
131	0x3bc1d03a	0.005914715
132	0xbbfc2b1d	-0.007695569
133	0xbccb0fdf	-0.024787841
134	0xbd96ded2	-0.07366718
135	0xbc949793	-0.018138682
136	0xbd5f2cbd	-0.054486025
137	0xbd5252df	-0.051348563
138	0xbc83b97d	-0.016079659
139	0x3ce258ac	0.027630173
140	0xbd46c042	-0.048523195
141	0xbd4ebbec	-0.050472185
142	0xbcb04f94	-0.02152232
143	0x3da166db	0.07880946
144	0x3d66160b	0.056173366
145	0x3da8f56b	0.08249935
146	0x3d9362a8	0.071965516
147	0x3d202b8c	0.03910403
148	0x3c47b982	0.012190225
149	0x3d3a6dde	0.045514934
150	0x3d95daf2	0.07317151
151	0x3d056d2e	0.032574825
152	0x3d423fce	0.04742413
153	0xbd3d2edf	-0.046187278
154	0x3d091c1b	0.03347407
155	0x3d647916	0.05577954
156	0x3a8ab967	0.0010583819
157	0x3d13c2f4	0.036074594
158	0x3d7725a7	0.060338642
159	0xbd9590d5	-0.07303015
160	0x3d5c9bf3	0.053859662
161	0xbd4fada9	-0.050702725
162	0x3d955510	0.07291615
163	0x3d80e5c5	0.06293825
164	0xbd967381	-0.07346249
165	0xbceddc61	-0.029035749
166	0xbbc15432	-0.0058999294
167	0xbd15d160	-0.03657663
168	0xbc30cc1d	-0.010790852
169	0x3c9c3244	0.019066937
170	0xbd63ce69	-0.05561677
171	0xba060cb0	-0.0005113585
172	0x3d074aef	0.033030447
173	0x3ce9946d	0.028513158
174	0xbd399f6b	-0.04531805
175	0xbcee9279	-0.029122578
176	0x3d57f171	0.05272049
177	0x3cdc9ba6	0.026929688
178	0x3cea2660	0.028582752
179	0x3d6568e9	0.056008253
180	0x3c82867d	0.01593327
181	0x3ce6dc8c	0.028181337
182	0xbccf8dff	-0.025336264
183	0xbc7353ee	-0.014851553
184	0x3c22a7f1	0.009927736
185	0x3d81056b	0.062998615
186	0xbcbf7199	-0.023369597
187	0xbd53cd14	-0.05170925
188	0x3d50067c	0.050787434
189	0x3d587645	0.052847166
190	0xbb8d3d3c	-0.004310278
191	0x3da1e8b6	0.07905714
192	0xbb89e4c7	-0.0042081806
193	0xbd86f2fc	-0.06589314
194	0xbda16b4d	-0.07881794
195	0xbce13ddf	-0.027495323
196	0xbd6ee474	-0.05832334
197	0x3d1eab9a	0.03873787
198	0x3da06f78	0.07833761
199	0xbc52a1f4	-0.012855995
200	0xbbf1bfeb	-0.0073776147
201	0x3d6deb8b	0.05808596
202	0xbae5f582	-0.001754448
203	0x3d29d3cd	0.041461755
204	0x3d80ecc9	0.06295163
205	0xbcb21872	-0.021740172
206	0x3c84f6b0	0.016230911
207	0xbd62eb4c	-0.055400178
208	0xbd858838	-0.06520122
209	0xbd37d69f	-0.044882413
210	0x3c1b7f00	0.009490728
211	0x3d841c0c	0.06450662
212	0x3d45cc09	0.048290286
213	0xbce7a567	-0.028277112
214	0x3c788bb7	0.015170029
215	0x3cd0c992	0.025486741
216	0xbd88d418	-0.06681079
217	0x3d0eca96	0.03486117
218	0xbcdfee35	-0.027335266
219	0x3d04f680	0.032461643
220	0xbcd42037	-0.025894267
221	0x3c73b30e	0.014874233
222	0xbd9e5530	-0.07731092
223	0x3da2af99	0.07943649
224	0x3d2678fa	0.040642716
225	0x3cd748eb	0.026279887
226	0xbcca7116	-0.024712127
227	0xbd803e75	-0.06261913
228	0x3cb4569c	0.022013955
229	0x3d46d594	0.048543528
230	0x3ce1c36b	0.027559003
231	0x3d9d257d	0.07673166
232	0x3c8c43bb	0.01712214
233	0xbd90d222	-0.0707133
234	0xbd90caba	-0.07069917
235	0xbd33ec39	-0.04392645
236	0x3ca1ff9a	0.0197752
237	0xbc8d0fa1	-0.017219367
238	0x3d8f0b76	0.06984608
239	0xbc726386	-0.014794236
240	0xbcef7d5d	-0.029234583
241	0x3ca594fc	0.020212643
242	0xbc184a2e	-0.00929503
243	0xbda40e52	-0.08010544
244	0x3c02488a	0.007951865
245	0xbd4acf4c	-0.0495141
246	0xbd9f88c0	-0.07789755
247	0xbd8b6707	-0.0680676
248	0x3d9bd87e	0.07609652
249	0x3ca758a3	0.020428007
250	0x3ce383d0	0.027772814
251	0x3d8c08cc	0.06837615
252	0xbd775029	-0.06037918
253	0xbc812665	-0.015765378
254	0x3d3e03b4	0.04639025
255	0xbd8acaff	-0.06777
