param/pde_iter3000_10_150_2.pth (torch, 95303 bytes, 5 tensors)

input_layer.weight f4 [150, 2]
00000000: 9e32 093f 6add 143f 67ec 23be 2b95 253f
00000010: bc07 0fbe ccd4 0b3e 3995 b0be 326a d03e
00000020: b806 1f3f c00f 03bf cc3c 1d3f 7d3d 0f3e
00000030: 000d 073f 0dae c23d 54df a53e 7037 cfbd
00000040: f6d3 0c3f ff54 d23d 5e26 a2be acd0 403e
00000050: 1091 9cbe e06e b1bd 2274 90be c524 f33e
00000060: 5f12 0fbf fef4 a4be a72f 51be 2da5 d5be
00000070: 460b 873d 7145 2fbf 03d9 223f eb1e 18bf
00000080: 0427 0c3f f589 e53d 79ed 80be 4ea7 d93e
00000090: 148e bd3d 9aea 0e3f b88f a63d 5972 65be
000000a0: f0e6 313e b261 4bbe a02c 993e 0ff7 1f3f
000000b0: 9a45 ce3e e902 a0be 267d c63e a029 ff3d
000000c0: 30d3 b43e ed30 dbbe 436b 2fbf 8405 8fbe
000000d0: baac 0abf 63c6 143f c5dd 533e 8bcc 933e
000000e0: cec2 573e 889d 5abc 6c17 0c3f 22cd 00bf
000000f0: 702c 303d cebf f7be 7ed9 593e 1417 72be
00000100: 2ce8 4e3e 2d4a 26be 1d8d 103f f650 d1be
00000110: f12c dabe 8fd4 d7be a26c 213f 23d6 7d3e
00000120: 5a07 2b3f 44cc 10bf 51d6 30bf a802 07bf
00000130: 4209 f7be 3ed2 923e d36c 7c3e e82d 153f
00000140: 6a03 bdbe d91f f8be 90dc c03e 8a67 91be
00000150: 86d5 e13e 95ee 2bbe 099d d33e aab8 06bf
00000160: 4832 afbe 2553 5c3e 0bd3 113e 4406 33be
00000170: 5d15 da3e 04be f13e b3e5 01bf 2a46 bfbe
00000180: f577 233f ed53 78be 1840 79be f066 29bf
00000190: 59f4 c6be 26ae 323e 9cf1 b6bd 39d7 02bf
000001a0: 11e8 653c de98 f0be 59fe 17bf 3965 c0be
000001b0: 5d56 1dbf cb5f e1be 35cb 303f 011f 013e
000001c0: d827 623e b8e2 23bf 9e39 efbe b390 7abe
000001d0: 0249 e83d 9f6d 1dbf 982d 93be c6f3 d6be
000001e0: 4dfc 42bb e490 88be 2b24 39bd dabd f7be
000001f0: 76bb fbbe 8896 d1be d8a0 6ebe 556d 0cbf
00000200: 3b9c 153f 3fd8 12be b8bb 183f 6ccb 673e
00000210: 6137 18bf 1699 fc3e 2ea9 40be a338 8cbe
00000220: 4498 11bf 4ca4 30bf e5b0 483e 1348 15be
00000230: 9280 903e 640b 14bf 3788 043f a069 03bf
00000240: 871f d1bd d260 1f3e 6274 bb3e 4180 113f
00000250: f0ae 203f b2a7 0abf 984e 293e ecc4 98be
00000260: 9935 cabd b458 08bf 24b5 203f f2eb 04bf
00000270: 215d bd3e 4f60 6b3e 1ed0 733e 9b57 c2be
00000280: 026a 233f dbed 1b3e 4c47 c13d 7ed5 1ebf
00000290: c938 933e 98d6 ccbd 34bb a4be cc5b 1a3f
000002a0: 107a 213e dd9c c7be 8d2b b7be 5d7e 1abd
000002b0: 18dd c33e dc7b 35be 1be5 c7be 2b2a 77be
000002c0: b894 06bf 8b49 843e f66c 093f 2727 24bf
000002d0: 51a3 2a3e 72dd b93e 9fa5 063e d58d 81be
000002e0: 939b ba3e 5c30 ca3e 578a 7f3e 2d6d 02be
000002f0: 205f 28be e78a 943d 90ec 05be 8266 61be
00000300: 331b e33e 04a6 173f 921b 90bd e763 17be
00000310: b6d9 5f3c de82 0ebd 2112 313e 9e5f 483e
00000320: 4cf6 1ebf fbc6 84be 2585 173f 2544 823e
00000330: 7413 07bd bba6 d5be 9823 d9be 6b49 1ebf
00000340: 2f4b 6dbe b4a5 783e 5558 e13e 102e a23e
00000350: 2ff3 1dbf fd8e d5be 8a4b e9bd 573c 2e3f
00000360: ea12 dd3d baf2 38be e2fd 933e a370 88be
00000370: 26b0 ebbe 59e9 fe3e a145 a0be a426 05be
00000380: 10dc 30bf 846e ec3e 4816 073f 6abc 813e
00000390: 5b5c 00bf 1577 30bf 7466 12bf f0ef 053f
000003a0: 7e56 a93e 0942 163f efa3 b53e 61c7 363e
000003b0: 5b97 6abc f7e3 06bf e38a 19bf 97a1 26bf
000003c0: 32ff 943e 8834 adbe f1ae 17be 6749 cfbe
000003d0: 69f2 08be 60e2 fabe eabd edbe 380e 6a3e
000003e0: 71b5 56be 261a da3e 94c0 72be afd2 03bf
000003f0: f4be f1bd 8691 abbe 6517 59be 0d15 29bf
0.5359286 0.5815035 -0.16008149 0.6468074 -0.13967794 0.13655394 -0.34488848 0.4070602
0.62119627 -0.5119591 0.61420894 0.139883 0.5275421 0.09505854 0.32396948 -0.10117996
0.55010927 0.10270118 -0.31669897 0.18829602 -0.30579424 -0.08663726 -0.28213602 0.4748899
-0.5588741 -0.32218164 -0.20428334 -0.41727582 0.06593947 -0.68465334 0.63612384 -0.5942218
0.54747033 0.11207954 -0.25181177 0.42510456 0.09255615 0.55826724 0.08132881 -0.22406901
0.17373252 -0.19861487 0.2991686 0.62486356 0.40287477 -0.3125222 0.38767356 0.12459111
0.35317373 -0.42810765 -0.68523043 -0.27933896 -0.5416981 0.58115214 0.20690067 0.2886699
0.21070406 -0.013343222 0.5472324 -0.5031301 0.04301113 -0.48388523 0.21274373 -0.23641616
0.20205754 -0.16239233 0.5646532 -0.4088208 -0.42612413 -0.42154357 0.63056386 0.24788718
0.6680809 -0.56561685 -0.6907702 -0.5273843 -0.4824925 0.28676027 0.24650888 0.5827317
-0.36916667 -0.48461798 0.37668276 -0.28399307 0.44108218 -0.1679023 0.41330746 -0.52625525
-0.3421805 0.21516092 0.14240663 -0.17482859 0.42594424 0.47215283 -0.5074112 -0.37358218
0.63854915 -0.24250765 -0.24340856 -0.66172695 -0.38858297 0.17449245 -0.08932802 -0.51109654
0.01403238 -0.46991628 -0.5937248 -0.37577227 -0.61459905 -0.44018397 0.6906007 0.12609483
0.22085512 -0.6401782 -0.46723646 -0.24469261 0.1134205 -0.61495394 -0.28745723 -0.4198286
-0.0029752434 -0.26673043 -0.045200508 -0.48387033 -0.4916646 -0.4093516 -0.23303545 -0.5485433
0.58441514 -0.14340304 0.59661436 0.22636193 -0.594595 0.49335545 -0.18814537 -0.2738696
-0.56872964 -0.690007 0.1959873 -0.14578275 0.2822309 -0.5782988 0.5177035 -0.51333046
-0.102110915 0.15564278 0.3661223 0.56836325 0.62766933 -0.5416213 0.16533887 -0.2983774
-0.09873504 -0.5326035 0.627764 -0.51922524 0.36985114 0.22985958 0.23809859 -0.37957463
0.6383363 0.15227453 0.09437427 -0.62044513 0.2875426 -0.10001868 -0.32174075 0.6029632
0.1576922 -0.38986865 -0.35775414 -0.037718166 0.3825462 -0.1772303 -0.3904198 -0.2413718
-0.52570677 0.2583736 0.53681886 -0.6412224 0.16663863 0.36301762 0.13149117 -0.25303522
0.3644682 0.3949002 0.24955116 -0.1273696 -0.16442537 0.07253056 -0.13078523 -0.2201176
0.4435669 0.59237695 -0.070365086 -0.14784203 0.013662746 -0.034792773 0.17292072 0.19567725
-0.6209457 -0.2593306 0.5918754 0.25442615 -0.032977536 -0.41728768 -0.42409968 -0.61830777
-0.23173212 0.2428196 0.44012704 0.31675768 -0.61699194 -0.41710654 -0.11391361 0.6806082
0.10794623 -0.18061343 0.28904635 -0.26648435 -0.46032828 0.49787405 -0.31303123 -0.13003021
-0.6908579 0.46178067 0.52768373 0.2533906 -0.50140923 -0.68931705 -0.5718758 0.5231924
0.330738 0.5869451 0.35476634 0.17849495 -0.0143183125 -0.52691597 -0.5997755 -0.65090317
0.2910095 -0.3382914 -0.14812829 -0.4048569 -0.13373722 -0.49000835 -0.46433955 0.22856987
-0.20967652 0.42598075 -0.23706275 -0.5149335 -0.118039995 -0.33509463 -0.2120033 -0.66047746

input_layer.bias f4 [150]
00000000: 5e8e 873c 4a40 0ebe 69fa 78be 89d5 b0be
00000010: 5d45 15bf 87c1 143f 70fb 8fbe 0400 393e
00000020: 9dfd 77be cb35 853d c70c 283f 98ce a63e
00000030: 6c8a 1bbf bbdb 8d3e 3c02 2e3f 2681 423e
00000040: 80c0 f43e 3f92 323f ea5b e8bd 575c 153e
00000050: 8e61 f9be fc32 11be 1f83 063f b283 b93e
00000060: 412a e5be 89cf 11bf f0d0 f9be eb81 33bf
00000070: e10f 0cbf 345a 3bbe b6a8 f53e f299 f93d
00000080: a990 0abf 61ff 0fbf 296b b03e d910 05bf
00000090: 6d3e babd 8f8b b23e 418b a9be 3175 a8bd
000000a0: a5c2 7dbd 2a9a 2cbe a3d2 b6be dd96 22bf
000000b0: 079e 14bf f548 c1be a0d5 2e3f ef08 aebe
000000c0: 0e7b f2be c4b3 303e 0fd5 483e c17e c53e
000000d0: ae41 0a3f c850 c83e 51aa 32bf 1819 683d
000000e0: 377a d73e 56f3 79bd 913a d4be 8d9b 2a3f
000000f0: 052c 87be f8f7 cabe 7493 21bf e11a 073d
00000100: 1f66 9f3e 10b9 203e 5d34 153e a99f 0abf
00000110: af7b 29bf a35c d03b d7ae 253f 05c8 d03e
00000120: db3a d1be d1dd b5bd 0da0 04bf d480 b4be
00000130: ab06 ff3d 6ead c73e 7984 163f 8314 27bf
00000140: 7e03 f43e d12d 02bf 238f 893e b463 1a3f
00000150: 7de2 db3b b64e 253f c78d 1abf 4e2d 89be
00000160: b9f2 d53e 1d81 1cbe 93cd 19be 716a 98be
00000170: ed22 f73e cd16 b13e b67c 673e 6328 cfbe
00000180: d636 12bf a5c9 853d d35a 513e 7080 a8be
00000190: e31e 44be edcb f43e ebb5 763d 19c0 1d3d
000001a0: 9cb8 34be 5f0a 24bf 060b 2bbf ff97 aebe
000001b0: 3a8d b5be da96 5f3e 822d 51be f241 8bbe
000001c0: ef3b 2d3f 3c60 7b3e c252 033f 3291 aebe
000001d0: 0137 94be 4391 853e 986e f7be 5b9e ecbe
000001e0: ae47 22bd b59e 84be 36b2 07bf b2f8 d33e
000001f0: 51e5 113f b8d5 e33d e481 f9bd 76aa 25bf
00000200: dd00 87be f423 373e 8262 ae3e 4774 bcbd
00000210: fcd3 91be d178 cc3e c816 0fbf ecdb df3e
00000220: abc2 8dbe 11ca 803c b33b 0fbe 0453 ae3d
00000230: 5b75 5ebe d8d8 023f 0a00 acbc ef71 0d3f
00000240: 5d32 2d3f 4f9b afbe 8a6f 01bf 5cf9 113f
00000250: 41ab 0f3f 7e9e 0bbf
0.016547378 -0.13891712 -0.24314274 -0.34537914 -0.58308965 0.581078 -0.2812152 0.18066412
-0.2421784 0.06504401 0.65644497 0.32579494 -0.6075809 0.27706704 0.6797216 0.18994579
0.47803116 0.69754404 -0.11345656 0.14586006 -0.4870724 -0.14179605 0.52543825 0.36233288
-0.447588 -0.569573 -0.4879222 -0.70120114 -0.5471173 -0.18296129 0.4798028 0.12187566
-0.54126984 -0.5624905 0.34456757 -0.5197883 -0.09093938 0.348721 -0.33114055 -0.082254775
-0.061953206 -0.16855684 -0.35707578 -0.6351145 -0.5805363 -0.37750974 0.68294716 -0.3399119
-0.47359508 0.17256075 0.19612525 0.38573268 0.5400647 0.3912413 -0.6979113 0.056664556
0.4208543 -0.06102308 -0.41450933 0.666436 -0.26400772 -0.3964231 -0.6311562 0.032984618
0.311326 0.15695596 0.14570756 -0.5414987 -0.6620435 0.0063586994 0.6471991 0.40777603
-0.40865216 -0.08880199 -0.5180672 -0.35254538 0.12452444 0.38999504 0.5879589 -0.65265673
0.47658914 -0.5085116 0.26867017 0.60308385 0.006710349 0.6457323 -0.60372585 -0.26792377
0.41786745 -0.15283628 -0.15019827 -0.29768708 0.48268834 0.34587708 0.22606167 -0.404605
-0.57114923 0.06532601 0.20444803 -0.3291049 -0.19152407 0.47811833 0.060232084 0.038513277
-0.17648548 -0.64078325 -0.66813695 -0.3410034 -0.3545931 0.21834889 -0.20427516 -0.2719875
0.67669576 0.24548429 0.51298153 -0.3409515 -0.28948215 0.26087388 -0.48326564 -0.46214566
-0.03961914 -0.25902334 -0.53006303 0.41400677 0.56990534 0.11124748 -0.12182978 -0.6471323
-0.26367846 0.17884809 0.3405953 -0.09201866 -0.28482044 0.39935926 -0.55894136 0.43722475
-0.27687582 0.015721353 -0.13987617 0.08511928 -0.21724455 0.5111213 -0.020996112 0.55251974
0.67654973 -0.3429818 -0.5056082 0.5702112 0.5612069 -0.54538715

hidden_layers.0.weight f4 [150, 150]
00000000: 31af 87bc 4f53 9abd af6c 80bd 9efa 9e3c
00000010: 22d8 053c 8955 693c 6176 aabc 0e4d 923d
00000020: fcea 4c3c 4c3e 50bd a12e 7739 49e3 b03c
00000030: a6f6 093d 63b9 6bbd 7688 eb3c 0dab ecbc
00000040: 4a35 94bd 3ac2 1bbd a527 903d 70f1 8e3d
00000050: ae2d a23d fb70 203d d1a1 783d 376b 85bc
00000060: 2d7f 2ebd 87e2 333d 0eda 39bd 3e4c 7dbd
00000070: b5a9 04bd 9660 553c 722d 5c3d 1cae d6bc
00000080: 3121 33bd 6beb d2bb 66bd 5cbd 28a9 7dbd
00000090: 60f2 f13c 069b eabc fc0b 8d3d c564 8e3d
000000a0: 8d21 b83c a50a db3c fe1a 993c e6aa a0ba
000000b0: 6299 09bc b6a0 a63b cc6f 1e3d 06cf 883d
000000c0: 03e9 d4bc 8c94 dcbc 3e1c 93bc 77f4 38bd
000000d0: 9081 0e3d 38f6 7d3d 591b 653d 99db eb3c
000000e0: 34fa 6ebd 5cca 0abd 565f bfbc affe 55bc
000000f0: 84f4 393b babc 88bd f94f ac3c 3c90 4ebd
00000100: 98e7 5cbd 7702 62bd c078 9e3d c250 adbd
00000110: 1009 4e3d 3ee1 c93a 1f23 8abc 5a03 2c3d
00000120: b900 a5bb e8c7 2b3d 9b8b 533d e9a3 93bd
00000130: 8daf 1f3d d739 ad3b e3ba 6a3c 705d 90b9
00000140: bd2d 3a3c f735 27bd b3fe 69bc adc5 8e3d
00000150: 049c 823d 9cbf 513b 16a6 9cbd 9fa3 92bb
00000160: b6d1 3abd 43aa 6d3d e9c7 4ebd 4526 4bbc
00000170: 0b24 e1bc 51d8 3e3c 0917 a23d 2078 013c
00000180: 7df1 183d e959 8b3d ca14 9b3d fc2e e4bc
00000190: fa22 efbc 633d 013d 57b4 a4bc 3c02 473d
000001a0: 67d3 68bc 9a78 4cbd de15 b03c e7db 0d3c
000001b0: 3076 1d3d 408c 9f3d 0940 633d 6861 a43d
000001c0: 5169 ea3a 7f88 7fbd 12d4 36bd 7eb9 33bd
000001d0: 9526 7dbd 7cfb 1fbd 89d3 4fbd 10e8 80bd
000001e0: 8852 3abd 471a 8abd 9930 49bd bd62 0d3d
000001f0: f04d 853d 703d 8abc baae b5bc 9594 0a3d
00000200: 01ca 2dbd 6e13 11bd ba99 363d 404c 8fbd
00000210: 2d6d a73c 23fd 863d 7223 483c 46a9 c53c
00000220: dbe5 1bbd c40b 253b 3e68 4f3c 720e 943c
00000230: e66a 103d 9789 8b3d 3cd5 80bd b226 793c
00000240: 6abb 3dbd 5c7b 84bd 4c26 343c 7b7b 84bd
00000250: a1fa 5f3d 8e97 963b adfa 1ebd b45b 363d
00000260: ca31 84bd 473d d6bc 86ba 17bc 696d 8abd
00000270: 2ae4 5abd 94e4 b1bc 0beb 7e3d 62e9 943d
00000280: a487 363d 0c40 57bd fcc7 2dbd b312 133d
00000290: 3aeb e43c e024 4abc b76f 8a3a 1170 94bd
000002a0: edd7 d2bc 2fde a53d ea7d 2dbc 94bd aebb
000002b0: 69b0 91bd 9924 24bd eba4 323b ea22 53bd
000002c0: e728 52bc 34f6 1b3d 3798 95bd 9958 dd3c
000002d0: c05b 6fbd 1bcb 11bd d700 243d 9d89 813d
000002e0: e5a5 a0bc 37ae 2abd d139 81bd 12e5 62bd
000002f0: 5087 a6bd cedc 13bc de2a 003c 86f2 96bd
00000300: 20cc 853d 22b6 243d 15dd a5bd 3738 15bd
00000310: ad37 c33c 1838 b7bc a24c 30bc 76d6 10bd
00000320: aac0 8a3d 25af 41bd 829e 773d b032 343c
00000330: 014d 433c 3ebb 873d 1100 4bbc 2234 1dbd
00000340: dafe 81bc 9e0e 923d 5669 82bd 5af7 a53c
00000350: a7d6 9abd f256 143d 2f74 9c3c 63f3 3c3c
00000360: 8898 f53c 1833 d13b 2753 4c3c 77b4 68bd
00000370: c4ad 3dbc 30fa 093d c3ee a43d f5de 1a3d
00000380: b1e9 5fbd 338f 883d cf8a 8cbc 9c7a 32bc
00000390: 2bea a2bd 7592 7ebc 009d 313d 95db 473c
000003a0: ed5b 57bd 0184 f23c ddf3 13bd 36ef 8b3d
000003b0: 31c5 83bd 5b85 01bd 8086 90bd 4700 07bd
000003c0: e27e 8b3c ab4e a23d c72b 553c 6d50 a73d
000003d0: 11c0 933c f790 3d3d 39e1 5d3d 2f85 893d
000003e0: b964 4bbd e69a 963d 128a 2e3d 406a 3bbd
000003f0: aec1 fbbc 76b7 89bd becd aa3c ea5c 72bd
-0.01656303 -0.07535421 -0.0627073 0.019406613 0.008169206 0.014241585 -0.0208084 0.07143603
0.0125071965 -0.05084066 0.00023573126 0.021592753 0.033682488 -0.057549845 0.028751593 -0.028890157
-0.072367266 -0.038027026 0.070388116 0.06979644 0.07918869 0.039170247 0.060701195 -0.016286476
-0.042601753 0.043917205 -0.04537397 -0.06184029 -0.032388408 0.013023516 0.053754278 -0.026206069
-0.043732826 -0.0064367554 -0.053891562 -0.061928898 0.029534519 -0.028638374 0.068870515 0.06952814
0.022476936 0.026738474 0.018689629 -0.0012257963 -0.008398386 0.005085076 0.038680837 0.066801116
-0.025990015 -0.026926301 -0.017957803 -0.045155015 0.03479153 0.06200239 0.055934284 0.028791236
-0.05834408 -0.03388439 -0.02336089 -0.01306121 0.0028374502 -0.06676622 0.021034228 -0.05043052
-0.053931803 -0.055178132 0.07737875 -0.08462669 0.05030161 0.001540221 -0.01686245 0.041995384
-0.0050354865 0.041938692 0.05164681 -0.07208998 0.038985778 0.005286436 0.014326784 -0.00027535437
0.011363444 -0.04082295 -0.014281916 0.069712974 0.06377414 0.0032005077 -0.07648866 -0.0044750716
-0.045610152 0.058023702 -0.050483618 -0.012399261 -0.027483007 0.011648254 0.0791455 0.007902175
0.037339676 0.068042584 0.075723246 -0.027854435 -0.029191483 0.031552684 -0.020105524 0.048586115
-0.0142105585 -0.049919702 0.021494802 0.008658386 0.03844279 0.077904224 0.05548099 0.08026391
0.001788417 -0.062386032 -0.04463584 -0.04387807 -0.061804373 -0.039058194 -0.050738845 -0.062942624
-0.045488864 -0.06743293 -0.049118612 0.034517992 0.06509006 -0.016874999 -0.022178043 0.033833105
-0.042428974 -0.03541892 0.0445802 -0.069969654 0.020437801 0.06591251 0.012215482 0.024128567
-0.038061004 0.0025184015 0.012659131 0.018073294 0.035258196 0.068133526 -0.06290671 0.01520698
-0.04632131 -0.064688414 0.010995459 -0.064688645 0.054682378 0.0045957034 -0.03881328 0.04452105
-0.06454809 -0.026152266 -0.009260779 -0.067591496 -0.05344025 -0.02171544 0.062235873 0.07271077
0.04456295 -0.052551314 -0.042427048 0.035906505 0.027944196 -0.012337893 0.0010561858 -0.072479375
-0.025737727 0.08099019 -0.010589102 -0.005332658 -0.07113726 -0.040073965 0.0027258943 -0.05154697
-0.012827135 0.038076594 -0.07304423 0.027019786 -0.05843711 -0.035594087 0.040039863 0.06325076
-0.019610355 -0.04167005 -0.06309856 -0.05539424 -0.081312776 -0.009024812 0.00782272 -0.073704764
0.065330744 0.040212758 -0.08098809 -0.036430564 0.02383026 -0.022365615 -0.010760458 -0.035360776
0.06775029 -0.04728617 0.0604539 0.010998413 0.011920215 0.066275105 -0.012390153 -0.038379796
-0.015868593 0.07131694 -0.063677475 0.020259548 -0.07560473 0.03621573 0.01909837 0.011532637
0.02997996 0.0063842647 0.012470997 -0.05681273 -0.0115770735 0.033685863 0.08053353 0.037810285
-0.054666225 0.06667938 -0.017156033 -0.01089349 -0.0795482 -0.015537848 0.043362617 0.0121983485
-0.0525779 0.02960396 -0.036121238 0.06832735 -0.06434096 -0.03162132 -0.07056904 -0.03295925
0.017028276 0.07925161 0.013010926 0.08169637 0.01803592 0.046280827 0.054169867 0.06714856
-0.049656603 0.07353763 0.042612143 -0.045755625 -0.030732002 -0.067244455 0.020850059 -0.05917064

hidden_layers.0.bias f4 [150]
00000000: 28e4 533d f180 3fbd fc8f 7dbd 728c 993d
00000010: 1edc 843d c575 1d3c 770d aeb9 eb21 5bbd
00000020: 1ee1 38bd 96b6 8bbb 599f 34bc 77d0 923d
00000030: f71a 9c3c 4e4a 0ebd f5ae d73c 7a97 48bd
00000040: 3df9 933c 2a3f 0c3d 3126 47bc af68 663c
00000050: f37c 89bd 15e6 843d eda6 803d aa20 743d
00000060: 4803 fc3c da97 723d 5822 3f3d 3716 70bb
00000070: 8c6a f43b 25f6 a4bd 93ba 1b3d 96be a83c
00000080: b368 43bd cdc1 713d b4f7 70bc 0c52 773c
00000090: 4ca3 e1bb 763c ad3d ab4d 6d3d 232b aa3d
000000a0: 133d abbd b48b 7ebd e81b 773c fb64 fdbc
000000b0: 13ff 85bd 226c 293c 7de6 02bd f570 16bd
000000c0: 30a9 573d 432f bbbb 3b7e 513d 621f 8dbc
000000d0: 7d92 a1bc 12b6 943d b62b 86bd 8f61 143c
000000e0: 7a11 18bd 9eb0 53bd 68c9 3fbd 8410 993d
000000f0: 2052 54bd 6bec 8b3d ed2f 78bd e805 9e3d
00000100: be0a 8ebd b274 9abd 75fd 963d 27d6 e53c
00000110: 6403 703d c561 93bd 5c2b 2b3d cade 813d
00000120: 539f 6fbd e1ce cebc bb97 683d e087 303b
00000130: 873d ef3c 6305 c63b 067a 173b 3825 1f3c
00000140: e524 f23c 4c0e 5c3d cd90 58bd 775e 4c3d
00000150: abcc 81bd 552a 6f3d 08dc bf3c 302f 363c
00000160: b98a 5a3d 9442 37bd bcac 413c 7580 2ebc
00000170: cbb1 62bb b80e 6d3d a4f5 c7bc c087 6c3d
00000180: 6d1f 1f3d c55c 19bc e08a a5bd 457a 66bd
00000190: 27fb 3f3d 8974 6cbd 3671 1bbd a3e1 f13c
000001a0: da17 8e3c 5392 953c 3393 4abd 96e7 0e3d
000001b0: 896e 9b3c 48e1 57bd d604 ed3c abc6 80bc
000001c0: 1d52 50bc 346d e63c 42b2 083d 4c80 183b
000001d0: 31a8 1fbd 3132 ab3c 6273 fa3b b955 89bb
000001e0: 7446 9d3d a311 f2bc 78e7 9bbd 87a6 72bd
000001f0: 5038 843c 32c5 993d 0a7a 8dbd 7797 8fbc
00000200: 78ca fdbc 7ba0 433d bd8c 87bd 6466 203d
00000210: 44e3 4fbd 6fbe 70bd a024 0fbd 29a8 103d
00000220: 4e61 3fbd e9df c4bc 58a0 8cbc f5c3 3fbd
00000230: 2c16 a53b fa14 8b3d b955 1cbc 03c4 96bd
00000240: 1275 7a3d 0789 69bd 1169 c1bc 8193 053b
00000250: 08b6 9ebd 9463 9d3d
0.05173126 -0.046753827 -0.061904892 0.07497491 0.064872965 0.009610598 -0.00033197898 -0.053499144
-0.045136563 -0.0042637093 -0.01102432 0.07168668 0.019055827 -0.03473883 0.026328543 -0.048972584
0.018063182 0.034239925 -0.012155102 0.014063044 -0.06713285 0.06489197 0.062818386 0.059601463
0.030763283 0.05922685 0.046663612 -0.0036634335 0.0074589904 -0.08054761 0.038019728 0.020598691
-0.04770727 0.059022713 -0.0147074945 0.015095245 -0.0068859216 0.08458798 0.057935398 0.08309009
-0.08361258 -0.06214495 0.015082337 -0.03093194 -0.06542792 0.010340722 -0.031958092 -0.036728818
0.052651584 -0.005712421 0.051145773 -0.017226879 -0.019723171 0.0726129 -0.06551306 0.009056463
-0.037126042 -0.051682107 -0.046822935 0.07473853 -0.051836133 0.068322025 -0.06059258 0.0771597
-0.06935643 -0.07541789 0.07372562 0.028056217 0.058596984 -0.071963824 0.041789398 0.06341322
-0.058501553 -0.025245132 0.056785326 0.0026936457 0.029204143 0.0060431226 0.0023113503 0.0097134635
0.029558608 0.053724572 -0.052872468 0.049894776 -0.063378654 0.05838998 0.023420349 0.011119649
0.053354952 -0.04474123 0.011820968 -0.010650744 -0.0034590836 0.057875365 -0.024409123 0.05774665
0.03884833 -0.009360497 -0.08083129 -0.05626895 0.046870377 -0.057728324 -0.037949763 0.029526537
0.017345358 0.01825825 -0.049456786 0.034888826 0.018973606 -0.05270508 0.02893297 -0.015719732
-0.01271489 0.028128244 0.033373125 0.002326983 -0.03897876 0.020897957 0.0076431492 -0.004191127
0.076794535 -0.029549425 -0.076125085 -0.059240844 0.016140133 0.07508315 -0.06908043 -0.017528279
-0.030980334 0.047760468 -0.066186406 0.039160147 -0.050753847 -0.05877536 -0.034947038 0.03531662
-0.046723656 -0.02403255 -0.017166302 -0.04681774 0.0050380435 0.0679111 -0.009541922 -0.07361605
0.061146803 -0.057015445 -0.02360967 0.0020382109 -0.077495635 0.07685009

output_layer.weight f4 [1, 150]
00000000: 9922 4cbd 1e5c 19bd 5309 34bd c99c c93d
00000010: 7c43 783d 1d74 163d 0997 2c3e 4f1a 783d
00000020: 9ebc 34bb 8fbb 18bd a49d 023e 756f c1bd
00000030: fb2e bebb 5f3a 75bd df64 52bd 4c30 163d
00000040: 54f5 92bd 4a1f d7bd ddca 73bd 7760 6d3d
00000050: f8eb a5bd 85f2 f9bd 8af6 853d b78e 06bd
00000060: 6460 0a3e 9aae 393d b89e 0b3d 3872 883d
00000070: c4c7 b53d 80e1 99bd 7322 cbbc 3a6a 9c3d
00000080: 8a50 b0bd 1da9 a4bd d59a 5e3d b3d5 d3bd
00000090: ceec 023d 0946 50bd 6b97 acbd 12ea 8e3d
000000a0: a692 d83d 685f 00be 7381 393d 21bb a2bb
000000b0: 6c6f 7fbd ce2e 8a3d 2865 4ebc c23a 50bd
000000c0: 7742 98bd ba5b 3bbd 93e0 823d 83c4 043d
000000d0: 47e4 8e3c 3865 4c3d 5218 683d 5354 b2bb
000000e0: 674a 97bd d92c 9cbd 57e8 bd3d f613 7c3d
000000f0: 01b8 773d 43e6 98bd 49ba 5dbd 18c7 933d
00000100: 9086 b8bd c663 9d3d 5e8c 8cbd fbe5 e1bc
00000110: 151c e73c df93 453d a525 b13d 8e02 3b3d
00000120: 06ae 93bd 74c4 303d 2ae5 0fbd a672 853d
00000130: 893b 833d 4d37 b53c 661b 463d 2b31 86bd
00000140: 9e06 b2bd 4ecb 70bd 4d48 e3bd 97d3 8abd
00000150: aa0a 90bd 500e 803d 008d a5bd 180a b53d
00000160: 8eea 81bd 0178 44bd decb 9fbd f2bd 90bd
00000170: 35c0 603d d3ae 083d 6f63 44bd e996 92bc
00000180: 4e95 97bd de8c 953d dc57 ab3d 609f 81bd
00000190: abe9 b23d f026 97bd 1590 6bbd 3124 84bb
000001a0: 1b6d 6dbd f4d9 a4bd a61a 47bd 2071 92bd
000001b0: 5b09 fe3c db4a 3abd 1ec3 8c3d 85ac 5b3d
000001c0: 18bb 923d 33a5 82bd 7c31 a43d 60a7 933d
000001d0: 9c50 8d3c c4cc e1bc ec85 4b3d a395 863c
000001e0: 22da 2fbd 6368 99bd 712b febd 0471 583e
000001f0: 63b0 763d 4e02 903c 390c fabc befd 3e3d
00000200: 6b36 40bd 9fe4 b63d f04a 73bd e75e c43d
00000210: 493e 09be 0be0 2e3d 766e 133d 2f60 ca3d
00000220: 606b c73d 6be9 afbd a40b 8b3d f84f c8bd
00000230: 907e 22bd 8c69 1d3d 2916 54bd c74e 813d
00000240: 1c78 233e 8682 023d 3ebe 0d3d 2fb2 93bd
00000250: f634 2f3d 8e02 f53d
-0.049837682 -0.037441365 -0.043954205 0.098443575 0.060611233 0.036731828 0.1685449 0.060571965
-0.0027578245 -0.037288245 0.12755448 -0.09445087 -0.0058039404 -0.05987012 -0.05136573 0.036667153
-0.07175699 -0.10504015 -0.059519637 0.057953324 -0.08101648 -0.1220446 0.06541164 -0.032850947
0.13513333 0.04533253 0.034086913 0.066624105 0.08875993 -0.07513714 -0.0247967 0.076374486
-0.086091116 -0.08040068 0.054346878 -0.10343494 0.031964116 -0.05084804 -0.08427318 0.06978239
0.10574846 -0.12536395 0.045289468 -0.004966155 -0.06236212 0.067472085 -0.01259736 -0.050837286
-0.07434552 -0.045741774 0.063904904 0.03241397 0.017442835 0.049901217 0.05666382 -0.005442181
-0.07387238 -0.076257415 0.09272831 0.061542474 0.060478214 -0.07465794 -0.054132733 0.072157085
-0.09010041 0.07685046 -0.068627104 -0.027575484 0.028211633 0.048236724 0.08649758 0.045656733
-0.07210927 0.043156102 -0.035130657 0.06516008 0.0640784 0.022121096 0.048365973 -0.06552347
-0.086926684 -0.058787636 -0.11097775 -0.06778639 -0.07033284 0.0625273 -0.08083534 0.08839816
-0.06343566 -0.047966007 -0.078025565 -0.07067479 0.054870803 0.03336985 -0.04794639 -0.017894225
-0.074015245 0.07302259 0.08366367 -0.063292265 0.08735975 -0.073804736 -0.057510454 -0.0040326347
-0.05796538 -0.08049384 -0.0486094 -0.07150483 0.03101032 -0.045481544 0.06873153 0.053631324
0.071645916 -0.063791655 0.08017251 0.072096586 0.017250352 -0.02756346 0.049688265 0.016428774
-0.042932637 -0.07490613 -0.124106295 0.21136862 0.06022681 0.017579224 -0.030523406 0.046628706
-0.046926897 0.08930325 -0.059397638 0.09588414 -0.13402666 0.042694133 0.035994016 0.09881627
0.09737277 -0.08589443 0.0678933 -0.09780878 -0.03967148 0.038430735 -0.051778946 0.06313854
0.15963787 0.031862758 0.034605257 -0.0721172 0.042775117 0.11963378
