param/pde_iter5000_10_150_5.pth (torch, 368837 bytes, 11 tensors)

input_layer.weight f4 [150, 2]
0	0x3d8356b1	0.064130194
1	0xbccdb111	-0.025108846
2	0x3f26a8c1	0.6510125
3	0x3f02d2cb	0.51102895
4	0xbe9dc6f5	-0.30815855
5	0xbf1257c4	-0.5716517
6	0xbed65280	-0.41859818
7	0xbee93bbb	-0.45553383
8	0x3edb3276	0.42811936
9	0x3e147c2f	0.14500497
10	0x3f08009b	0.53125924
11	0x3e85ae7e	0.2610969
12	0x3f1771a0	0.59157753
13	0x3f2e4402	0.6807252
14	0xbe21b857	-0.15792976
15	0x3ebc6335	0.3679444
16	0x3e9b1e9a	0.30296785
17	0xbdf17987	-0.117907576
18	0xbd820b2b	-0.06349786
19	0x3e4c8f85	0.19976623
20	0xbf3709de	-0.7149943
21	0xbefa136e	-0.4884295
22	0x3f2eb6c3	0.6824762
23	0xbef73818	-0.48284984
24	0x3f2b8dff	0.67013544
25	0x3e235e83	0.15954022
26	0xbf3c56c6	-0.73569906
27	0x3f1ab1f6	0.60427797
28	0x3edfd08e	0.43713802
29	0x3f0a72ae	0.5408124
30	0xbefe5a59	-0.49678305
31	0x3ebd70f9	0.37000254
32	0xbf2980b9	-0.6621204
33	0x3f15c9b8	0.58510923
34	0xbdd81234	-0.10550347
35	0x3ecf643b	0.40506157
36	0x3ebcbc7f	0.3686256
37	0xbe345c2a	-0.17613283
38	0xbf1b4ede	-0.60667217
39	0xbf218542	-0.6309396
40	0x3e3845a8	0.17995322
41	0x3f2dc295	0.67875034
42	0x3e35c38f	0.17750381
43	0x3e94d919	0.29071882
44	0xbdd11b77	-0.10210317
45	0xbe58de87	-0.21178637
46	0x3ecaa06c	0.39575517
47	0xbead13c5	-0.33804145
48	0x3ee66690	0.45000124
49	0xbe28a36b	-0.16468589
50	0xbdeefd6e	-0.116694316
51	0x3ef3bbd7	0.47604248
52	0xbe938748	-0.2881415
53	0x3e8d851e	0.27640623
54	0x3d19fc51	0.037594143
55	0xbc9fb6ec	-0.019496404
56	0xbef78070	-0.48340178
57	0xbebf89d6	-0.37409848
58	0x3f129d97	0.57271713
59	0x3edfa050	0.43676996
60	0x3d0e1679	0.0346894
61	0xbf28cc24	-0.65936494
62	0x3e10a552	0.14125565
63	0x3ecfd1da	0.40589792
64	0x3f1bc281	0.60843664
65	0xbe844368	-0.25832677
66	0xbe2418d6	-0.16025099
67	0x3e466d01	0.19377519
68	0xbeee807d	-0.46582404
69	0x3e9bad55	0.3040568
70	0x3f308132	0.68947136
71	0x3cf77bd5	0.030210415
72	0xbdf4947b	-0.11942383
73	0xbf056a6d	-0.5211552
74	0xbe5abecc	-0.21361846
75	0x3e799c1f	0.24375962
76	0xbeb5f7e1	-0.3554068
77	0x3e40c458	0.18824899
78	0xbf04534b	-0.51689595
79	0xbf168255	-0.5879262
80	0x3f1071ff	0.56423944
81	0x3e982cb9	0.2972162
82	0x3db5ee4d	0.08883343
83	0x3cf18082	0.029480223
84	0x3e3099ad	0.17246123
85	0x3e868141	0.26270488
86	0x3e9e3461	0.30899337
87	0x3e72397f	0.23654746
88	0x3e171de7	0.147575
89	0xbe6f7ef9	-0.2338828
90	0xbf39c0a2	-0.7255956
91	0x3ee3ff3b	0.44530663
92	0x3f454982	0.7706529
93	0xbe43eb33	-0.1913269
94	0xbe87e265	-0.26539913
95	0xbebe87f6	-0.37213105
96	0x3eecece9	0.46274498
97	0xbd506023	-0.050872933
98	0x3f33b004	0.70190454
99	0xbe8ae090	-0.27124453
100	0x3eb19184	0.34681332
101	0x3e6521f5	0.22376235
102	0xbdb6e9f8	-0.08931345
103	0xbf10bb5e	-0.565359
104	0xbf30c929	-0.69056946
105	0xbf082282	-0.53177655
106	0x3ec1d7f1	0.37860063
107	0x3e3c2257	0.18372475
108	0x3eec3c2d	0.4613966
109	0xbf0ddccd	-0.5541504
110	0xbe47796d	-0.19479914
111	0xbec58c7a	-0.38583738
112	0xbf06de70	-0.5268316
113	0xbea94647	-0.3306143
114	0xbebe398c	-0.3715328
115	0x3f3af2d7	0.73026794
116	0x3e5b20e3	0.21399264
117	0xbe99ff4a	-0.30077583
118	0x3de0b958	0.109728515
119	0x3ee23cdf	0.44187066
120	0xbdafdc7c	-0.08586976
121	0xbeb5a514	-0.35477507
122	0xbea8bdde	-0.32957357
123	0xbe926fac	-0.28600824
124	0x3df40579	0.11915106
125	0xbe8f43b5	-0.27981344
126	0xbee05d16	-0.4382102
127	0xbe6ef982	-0.23337367
128	0x3ece49ef	0.40290782
129	0xbe0b73f0	-0.13618445
130	0x3e7a6154	0.2445119
131	0xbf00182b	-0.5003688
132	0xbea206b8	-0.3164575
133	0x3ea03743	0.3129216
134	0x3e8d4281	0.275898
135	0x3e02742a	0.12739626
136	0x3e023daa	0.12718835
137	0xbe1ad81a	-0.15121499
138	0x3d39139c	0.045184717
139	0x3dee5ea7	0.11639147
140	0xbf267257	-0.6501822
141	0xbe4890d3	-0.19586496
142	0xbf22b579	-0.63558155
143	0x3df35692	0.11881746
144	0xbf34c767	-0.70616764
145	0xbedcd2bf	-0.43129537
146	0x3e7331e2	0.23749498
147	0x3eecbdbc	0.46238506
148	0xbf0859a2	-0.5326177
149	0x3eb2266c	0.3479494
150	0xbca488d7	-0.020084782
151	0x3d4c344b	0.049854558
152	0x3f398bab	0.7247874
153	0x3f0c274e	0.54747474
154	0xbe68d87d	-0.22738834
155	0x3eafefea	0.34362727
156	0x3f1a1234	0.60184026
157	0xbe79331f	-0.24335907
158	0xbd8e6d81	-0.0695448
159	0x3e100020	0.14062548
160	0xbf2e9d55	-0.6820882
161	0x3f0c5e2b	0.5483119
162	0xbf02d016	-0.51098764
163	0x3e76f59e	0.24117133
164	0xbedce628	-0.43144345
165	0xbe9ffe3a	-0.31248647
166	0xbdcf9ff6	-0.10137932
167	0xbdb4ab8c	-0.088217825
168	0xbf1a1a70	-0.6019659
169	0xbe3cae98	-0.18425977
170	0x3e17cc1e	0.14823958
171	0xbec7bc4c	-0.39010847
172	0xbe94c106	-0.29053515
173	0x3ed256af	0.4108176
174	0xbf400afa	-0.7501675
175	0x3e80e070	0.25171232
176	0x3ebc44d9	0.36771277
177	0xbce739e7	-0.028225852
178	0xbf3f2b5b	-0.7467553
179	0xbe81b663	-0.25334463
180	0xbeda8a53	-0.42683658
181	0xbef4efcf	-0.4783921
182	0xbddb973e	-0.107222065
183	0x3e91c7bb	0.28472695
184	0x3ec067a5	0.37579075
185	0xbd34bd59	-0.04412589
186	0x3e334f3a	0.17510691
187	0x3f22e693	0.6363308
188	0x3e8aac1b	0.2708443
189	0x3da9d9dd	0.08293507
190	0xbf27782f	-0.6541776
191	0x3e81769a	0.25285798
192	0xbf1c6836	-0.61096513
193	0x3e1a84e9	0.15089764
194	0x3eba7042	0.3641377
195	0xbe360fbe	-0.17779443
196	0x3f2bd4dd	0.6712168
197	0xbd8e0523	-0.069345735
198	0xbd08db28	-0.03341213
199	0xbf271011	-0.6525889
200	0xbf35464c	-0.7081039
201	0x3d8d4a0a	0.068988875
202	0x3ecb7d1a	0.39743882
203	0x3ee9425a	0.45558435
204	0x3f0f8d82	0.560753
205	0x3e626e92	0.22112492
206	0xbe5310d5	-0.2061189
207	0xbc25c27f	-0.010117172
208	0x3e485602	0.1956406
209	0x3eff2396	0.49831837
210	0xbe5edf04	-0.21764761
211	0x3de6bc09	0.112663336
212	0xbe15f3cf	-0.14643787
213	0x3dbfd451	0.09366668
214	0x3e9f5855	0.3112208
215	0xbf035e49	-0.5131574
216	0xbee66f2c	-0.45006692
217	0x3f155e9b	0.5834748
218	0xbea50166	-0.3222763
219	0x3e19ce31	0.15020062
220	0xbeeb652a	-0.4597562
221	0x3dd5feb2	0.1044897
222	0xbf0465b4	-0.51717687
223	0xbd77ea18	-0.060525984
224	0x3f3dac55	0.7409108
225	0xbee59bd3	-0.44845447
226	0x3e73833b	0.23780529
227	0x3ea8b28d	0.32948723
228	0x3e2ebf1a	0.17065087
229	0xbe319837	-0.17343222
230	0x3ec995d8	0.39372134
231	0x3eb68b61	0.35653213
232	0x3d507822	0.050895818
233	0xbe254561	-0.16139747
234	0xbe454924	-0.19266182
235	0x3e252348	0.1612674
236	0x3e3ae7b6	0.18252453
237	0x3f0147ec	0.5050037
238	0xbf1b7385	-0.60723144
239	0x3ee5d2b8	0.44887328
240	0xbeff22ed	-0.49831334
241	0xbf024a58	-0.5089469
242	0x3ed6108f	0.41809508
243	0x3dbdfe7c	0.09277055
244	0xbf19f448	-0.6013837
245	0x3e58b25e	0.21161792
246	0x3eeb652c	0.45975626
247	0x3ed437b5	0.4144875
248	0x3ea23137	0.31678173
249	0x3f0a6d8c	0.54073405
250	0x3daa6765	0.08320502
251	0xbe1042f2	-0.14088038
252	0xbf35fb57	-0.7108664
253	0x3c93872b	0.018008789
254	0x3e28e6aa	0.16494241
255	0xbe275aaa	-0.1634318

input_layer.bias f4 [150]
0	0xbe420119	-0.18945731
1	0x3e48b20d	0.19599171
2	0x3e85704e	0.26062244
3	0xbeb2fc1b	-0.34957966
4	0x3e5b635e	0.21424624
5	0x3e3616a3	0.17782073
6	0x3e90acf1	0.28256944
7	0x3ea1b890	0.31586123
8	0xbe18574c	-0.14877051
9	0xbec4d38f	-0.38442656
10	0x3f24a1e5	0.6430953
11	0x3dce108b	0.10061749
12	0xbf1f6ad0	-0.6227236
13	0xbe536efc	-0.20647806
14	0xbf31c339	-0.6943851
15	0xbe78718c	-0.24262065
16	0xbefa4eb6	-0.48888177
17	0xbf35c7d1	-0.7100802
18	0x3ed49a33	0.41523895
19	0xbe8c55d2	-0.27409226
20	0xbeadc1ea	-0.33937007
21	0x3f2dd4e9	0.67903
22	0x3f220300	0.6328583
23	0x3f0f2379	0.559135
24	0xbe831fbb	-0.25610146
25	0x3e0ac9ae	0.13553497
26	0xbe089a60	-0.1334014
27	0x3d15e144	0.036591783
28	0xbe09c01f	-0.13452195
29	0x3e62b79a	0.22140351
30	0xbe58bc3f	-0.2116556
31	0x3da539d1	0.08067668
32	0xbf362ed3	-0.711652
33	0x3ecfa22f	0.40553424
34	0x3f06a8a8	0.526011
35	0x3df0c3ab	0.11756071
36	0xbeeb5bb0	-0.4596839
37	0xbdb5c714	-0.08875862
38	0xbf1bba5e	-0.6083125
39	0x3eda64ba	0.42654973
40	0xbc2a3819	-0.010389351
41	0x3f225eeb	0.63426083
42	0x3ec62aa9	0.38704422
43	0x3ed0af66	0.40758818
44	0xbf2eef50	-0.6833391
45	0xbf213e78	-0.62985945
46	0x3f043082	0.5163652
47	0x3e81343e	0.2523517
48	0x3eced0df	0.4039373
49	0xbd759dc6	-0.059964918
50	0xbf0db35e	-0.5535182
51	0x3eabeffd	0.33581534
52	0x3f02904a	0.5100142
53	0x3ea490a3	0.321416
54	0x3e138b5c	0.1440863
55	0xbf2bd3c2	-0.6711999
56	0xbf1fe578	-0.62459517
57	0x3d75d9bf	0.060022112
58	0xbe77899c	-0.24173588
59	0xbee8c710	-0.45464373
60	0xbf27330d	-0.6531227
61	0xbf1771e3	-0.5915815
62	0xbeeab72f	-0.45842883
63	0x3e101c5b	0.14073317
64	0x3e923fee	0.285644
65	0xbf10dc23	-0.565859
66	0xbef279c3	-0.47358522
67	0x3ee73605	0.451584
68	0x3c5a79bf	0.013334691
69	0x3f11b1fe	0.5691222
70	0xbf2707c0	-0.652462
71	0xbe843253	-0.25819644
72	0xbf166e79	-0.5876232
73	0x3e904e30	0.28184652
74	0xbe957093	-0.2918745
75	0xbeddf105	-0.43347946
76	0x3f0ace86	0.5422138
77	0xbe8e65eb	-0.27812132
78	0xba8aa240	-0.0010576919
79	0xbf17c0e5	-0.5927871
80	0x3f38073f	0.71886057
81	0x3f364d9a	0.7121216
82	0xbf238b72	-0.6388465
83	0x3ea78ee4	0.32726204
84	0xbeda8f0f	-0.4268727
85	0x3e00a157	0.12561546
86	0xbf01df1c	-0.5073106
87	0xbf1c7453	-0.61114997
88	0x3e53006d	0.20605631
89	0xbf1b35d2	-0.60629
90	0x3f17b8e9	0.59266526
91	0xbf0a7f1d	-0.5410021
92	0x3cbb56e3	0.02286858
93	0xbea62bb3	-0.32455215
94	0xbef8d6f9	-0.4860151
95	0x3ea088f5	0.3135449
96	0x3ef677b2	0.48138195
97	0xbf05ef25	-0.5231803
98	0x3e4dacce	0.20085451
99	0x3f1bfdfb	0.6093442
100	0xbe84189f	-0.25800034
101	0xbde65588	-0.112467825
102	0x3ebe4e5e	0.37169164
103	0xbea498e8	-0.32147908
104	0x3eef94cc	0.4679321
105	0x3ed1e463	0.40994558
106	0xbe8c82a0	-0.2744341
107	0x3d82887f	0.06373691
108	0xbd200ba9	-0.03907362
109	0xbe1d7c6c	-0.15379494
110	0x3dde8671	0.108654864
111	0xbe6fda3a	-0.2342309
112	0x3eb25b95	0.34835497
113	0xbf318fec	-0.6936023
114	0x3e152b60	0.14567327
115	0xbeeae41c	-0.4587716
116	0x3da121cd	0.07867775
117	0xbf0896c0	-0.53355026
118	0xbb1fb96f	-0.0024372002
119	0x3ea79a11	0.3273473
120	0xbf2079c6	-0.6268581
121	0x3e97775d	0.29583254
122	0xbb8478fb	-0.0040427423
123	0x3f0f8310	0.5605936
124	0xbf384e4d	-0.7199448
125	0xbe3d76b4	-0.18502313
126	0xbe2766e3	-0.16347842
127	0x3f2776ad	0.6541546
128	0xbf0dabc5	-0.55340225
129	0xbdac9a2b	-0.08427843
130	0x3ce80c86	0.028326284
131	0xbf16cc4a	-0.5890547
132	0x3f357686	0.7088398
133	0xbece79a6	-0.40327185
134	0xbdf6efd4	-0.12057462
135	0x3e4fc0a4	0.2028833
136	0x3ee585a7	0.4482853
137	0xbebb8078	-0.3662145
138	0x3f0a15a7	0.5393929
139	0x3f39583b	0.72400254
140	0xbed73aa9	-0.42036942
141	0x3eca93b4	0.39565814
142	0x3ebe88ae	0.37213653
143	0xbed40f5d	-0.4141797
144	0x3f3b46d1	0.7315493
145	0x3f070bfb	0.52752656
146	0xbeb0dee5	-0.34545055
147	0xbf0abf08	-0.5419774
148	0x3e95be1f	0.29246613
149	0x3f13bbc5	0.5770839

hidden_layers.0.weight f4 [150, 150]
0	0xbd38a9bb	-0.045083743
1	0xbda43518	-0.08017939
2	0xbc94385b	-0.018093279
3	0x3d4ccb52	0.04999859
4	0xbcf5685e	-0.029956993
5	0x3be4f586	0.0069872765
6	0xbcce1ca5	-0.025160143
7	0x3d81d4c9	0.06339414
8	0xbd4455ee	-0.04793351
9	0xbcd4d1c0	-0.025978923
10	0xbd644c49	-0.055736814
11	0x3ce6ad32	0.028158758
12	0x3d81cbfb	0.06337734
13	0x3da779b2	0.081775084
14	0x3d72190b	0.059105914
15	0x3cbbc3b1	0.022920461
16	0xbd2011e3	-0.039079558
17	0x3d83ddba	0.06438775
18	0xbcbcfcd8	-0.023069784
19	0x3de8fc70	0.11376274
20	0x3c4de951	0.012567834
21	0x3beaaba5	0.007161575
22	0xbc8d27f9	-0.017230975
23	0xbcc39cf9	-0.023878561
24	0xbda36a78	-0.07979292
25	0x3b31568e	0.0027059647
26	0xbd109cb2	-0.035305686
27	0x3d1f73c0	0.038928747
28	0x3daf7c97	0.085686855
29	0xbd23f63a	-0.04002974
30	0x3d03d21b	0.032182794
31	0xbc968e9b	-0.018378546
32	0xb9626704	-0.00021591416
33	0xbdae567f	-0.085125916
34	0x3c7a1455	0.015263637
35	0xbd22a5f1	-0.039709035
36	0xbd065d67	-0.03280392
37	0x3ce4092c	0.027836405
38	0x3c955296	0.018227857
39	0xbd493ab6	-0.049128257
40	0xbd11b48a	-0.035572566
41	0x3adeee20	0.0017008223
42	0xbdbf535f	-0.09342074
43	0xbdcace78	-0.09902662
44	0x3b3b406f	0.002857234
45	0x3d509c7e	0.050930493
46	0x3cae2098	0.021255776
47	0x3c438e24	0.011935744
48	0xbc3a458d	-0.011369121
49	0x3c134475	0.008988489
50	0xbc10268e	-0.008798255
51	0x3c576337	0.013146213
52	0x3cb3a33a	0.021928418
53	0xbd1b75de	-0.037954204
54	0xbdcde606	-0.10053639
55	0xbcd282e5	-0.025697181
56	0x3d8f20a0	0.069886446
57	0xbb725e45	-0.0036982459
58	0xbd489cb6	-0.048977576
59	0xbd691c32	-0.056911655
60	0x3b175780	0.0023092926
61	0x3ced2780	0.0289495
62	0x3d996d77	0.07491582
63	0x3d24f9ee	0.040277414
64	0x3cefd5ef	0.029276816
65	0xbb91acee	-0.0044456637
66	0xbd287ee8	-0.041136652
67	0xbdcdd060	-0.1004951
68	0xbd9ed994	-0.077563435
69	0x3d091d65	0.0334753
70	0x3db3ab56	0.08772914
71	0x3b29baf2	0.0025898782
72	0xbc93cbd1	-0.018041523
73	0x3c652a40	0.013987124
74	0xbd25bf4b	-0.040465634
75	0x3ca8f2f0	0.020623654
76	0xbc8ad2f9	-0.016946303
77	0x3dbc5c81	0.09197331
78	0xbd8b9be1	-0.06816841
79	0xbd5292a8	-0.051409394
80	0xba80b82c	-0.0009820512
81	0xbd9984a1	-0.07496
82	0x3d0e12fc	0.034686074
83	0xbd618eda	-0.055067874
84	0xbd402595	-0.04691084
85	0x3cfcbe9d	0.03085261
86	0x3b0c938e	0.0021450254
87	0xbc8b7f64	-0.017028518
88	0xbdbb051c	-0.09131834
89	0xbd2e94f4	-0.04262252
90	0x3d5f641a	0.054538824
91	0x3d361625	0.044454712
92	0xbce83344	-0.028344758
93	0x3ce6f2a4	0.028191872
94	0x3c85b0f6	0.016319733
95	0xbc27b213	-0.010235327
96	0xbc00d533	-0.007863331
97	0x3da3544a	0.07975061
98	0x3d26fb9d	0.0407673
99	0xbd217e5f	-0.039427157
100	0x3c533c5e	0.012892811
101	0xbcf79e55	-0.030226866
102	0xbdac7b07	-0.08421903
103	0x3ccf86cd	0.025332833
104	0xbd51c237	-0.05121061
105	0x3d619dbe	0.055082075
106	0xbd186578	-0.037206143
107	0xbca424b4	-0.020037033
108	0x3dbd9003	0.09255984
109	0x3cf6186c	0.030040942
110	0xbbcefc7f	-0.006316721
111	0x3de80411	0.113289006
112	0x3bbd194e	0.005770839
113	0x3d177358	0.036975235
114	0xbd8b620b	-0.068058096
115	0x3d96ccae	0.07363258
116	0xbd6358c8	-0.05550459
117	0x3d87206b	0.0659798
118	0xbd8ef306	-0.06979947
119	0x3d70ed40	0.05882001
120	0x3c32b0ba	0.010906393
121	0xbd857a20	-0.06517434
122	0x3d8f0686	0.06983666
123	0xbd1ef1c7	-0.038804796
124	0x3c7d741a	0.015469575
125	0x3c97203e	0.018447991
126	0x3d8b80e4	0.06811693
127	0xbc0235ad	-0.007947368
128	0xbd5ffb76	-0.05468317
129	0x3daad277	0.08340924
130	0x3cebbb84	0.028775938
131	0xbab2eafd	-0.0013650354
132	0xbdb1e91f	-0.086870424
133	0x3d272700	0.040808678
134	0x3d098a06	0.033578895
135	0xbd715eea	-0.058928408
136	0xbc9a18ff	-0.018810747
137	0x3c566296	0.013085028
138	0x3d54ce7e	0.05195474
139	0xbdb3d955	-0.08781687
140	0x3dcc9bea	0.09990676
141	0xbcf92ee7	-0.030417873
142	0x3d486893	0.048927855
143	0xbb5614be	-0.0032666172
144	0xbd549abc	-0.05190538
145	0xbd862444	-0.06549886
146	0x3da55393	0.08072581
147	0x3db16a57	0.08662861
148	0xbd932286	-0.07184319
149	0x3b0c80a7	0.0021438987
150	0xbce7fdfb	-0.02831935
151	0xbca682e5	-0.020326087
152	0xbd0fbc0a	-0.035091437
153	0xbdc76c16	-0.09737413
154	0x3dd9ce46	0.10635047
155	0x3dd873f9	0.10568995
156	0x3d02b0d0	0.031906903
157	0x3c99e05c	0.01878374
158	0xbd21a075	-0.039459664
159	0xbd458180	-0.048219204
160	0x3dc4bfbf	0.09606885
161	0x3d36c797	0.044623937
162	0xbd3e9a85	-0.04653408
163	0x3c1dbc42	0.009627404
164	0x3b61289f	0.0034356487
165	0xbd847358	-0.064673126
166	0xbdf0287b	-0.11726471
167	0xbdb2e5c5	-0.08735231
168	0x3d0cb57b	0.03435276
169	0x3b7b6d35	0.0038364653
170	0xbd00ffec	-0.031494066
171	0x3d6471db	0.055772644
172	0x3d9daedc	0.076993674
173	0x3b17ee60	0.0023182854
174	0xbd03325d	-0.032030452
175	0xbaa27d07	-0.001239688
176	0x3c68e1a3	0.014213952
177	0x3c6007e6	0.013673758
178	0xbdff4985	-0.124651946
179	0x3e00f106	0.12591943
180	0x3d1cd5cb	0.038289826
181	0x3a7f3afa	0.0009736266
182	0xbd6b466d	-0.05744021
183	0xbd51f08a	-0.051254787
184	0xbd29df04	-0.04147245
185	0x3cf9d987	0.030499233
186	0xbcb77067	-0.022392465
187	0xbdde90e4	-0.108674794
188	0xbcf8452b	-0.03030642
189	0xbd086320	-0.033297658
190	0x3def67f9	0.11689753
191	0xbc99152c	-0.018686853
192	0xbc114a47	-0.008867807
193	0x3d995507	0.07486921
194	0x3c051bd6	0.008124312
195	0xbdc63807	-0.09678655
196	0x3d8edda3	0.069758676
197	0x3d889e26	0.066707894
198	0x3d101588	0.035176784
199	0xbce64dd5	-0.028113285
200	0x3b9be719	0.0047577736
201	0x3da91d97	0.08257597
202	0xbd78e278	-0.060762852
203	0x3db8e780	0.0902853
204	0x3d869aac	0.0657247
205	0xbd377c3e	-0.04479622
206	0x3c8414d1	0.016123207
207	0x3c80d3aa	0.01572593
208	0x3c869b70	0.01643154
209	0xbdb4ea34	-0.08833733
210	0xbc2ed2bb	-0.010670359
211	0xbbb69f7c	-0.0055732112
212	0xbc9659b3	-0.018353319
213	0xbd848c0d	-0.06472025
214	0x3cd01d88	0.025404707
215	0xbd8ab6b0	-0.06773126
216	0xbdbe8710	-0.09303105
217	0x3d67a1df	0.056550857
218	0x3d136b7c	0.035991177
219	0xbbae80e6	-0.0053254245
220	0xbd8e3250	-0.0694319
221	0x3bac3d12	0.0052563036
222	0xbd59ea18	-0.053201765
223	0x3b7613b1	0.0037548358
224	0x3c8f9887	0.017528785
225	0x3c27b1d2	0.010235267
226	0x3cd2ecb4	0.025747634
227	0x3cb395b2	0.021921966
228	0x3d25ec9c	0.04050885
229	0xbcc357dd	-0.023845607
230	0xbd4ed321	-0.050494317
231	0xbd6239ec	-0.05523102
232	0x3bce7213	0.00630022
233	0x3c87566a	0.016520698
234	0xbd5fa36d	-0.054599214
235	0x3c9ed037	0.019386394
236	0x3c0ccba7	0.008593476
237	0xbd74d4ce	-0.05977326
238	0x3d462f8a	0.04838518
239	0xbd950b60	-0.0727756
240	0x3d8e4ad2	0.069478646
241	0xbbcc762b	-0.0062396727
242	0xbba28f6d	-0.0049609453
243	0xbd573b11	-0.052546564
244	0xbd30f26e	-0.04319995
245	0x3d7e28e0	0.0620507
246	0x3db3fefe	0.0878887
247	0x3b96a9a8	0.0045978613
248	0x3d7a664a	0.061132707
249	0xbc53ba70	-0.012922868
250	0xbd43111e	-0.047623746
251	0x3dca16bb	0.09867617
252	0x3dde763f	0.108623974
253	0x3a08228e	0.00051931373
254	0x3ca31e94	0.019912042
255	0x3db0af22	0.08627154

hidden_layers.0.bias f4 [150]
0	0xbd0c8c99	-0.034313772
1	0x3dc368c9	0.095414706
2	0x3aad4317	0.0013218847
3	0xba4911ed	-0.00076702127
4	0x3cb1f322	0.02172238
5	0xbd15c2a1	-0.036562566
6	0xbcba79fc	-0.022763245
7	0x3d2dc05b	0.042419773
8	0x3bac9fb3	0.005268061
9	0xbd153020	-0.03642285
10	0xbcff91e8	-0.031197503
11	0xb980c79d	-0.00024562786
12	0xbd4bf1df	-0.049791213
13	0xbd776e8d	-0.060408164
14	0x3d3ea583	0.046544563
15	0xbc0b52f1	-0.0085036615
16	0x3d5bc8cd	0.053658295
17	0xbcb8f99a	-0.022579957
18	0x3c959e1c	0.018263869
19	0x3c21ff3f	0.009887516
20	0xbd59db9a	-0.053187944
21	0x3c88de1f	0.016707478
22	0xbd558558	-0.05212912
23	0xbb806c55	-0.003919164
24	0x3d4fc310	0.050723135
25	0xbd59be3b	-0.053159934
26	0xbcb9729e	-0.022637662
27	0xbd83a629	-0.06428177
28	0x3db7ebd5	0.08980528
29	0x3db0f565	0.08640555
30	0xbc8f5ce4	-0.017500348
31	0xbdab5a1a	-0.08366795
32	0xbd7aef3d	-0.06126331
33	0xbcba194f	-0.022717146
34	0x3c98e365	0.018663118
35	0x3cc50495	0.024050036
36	0x3d9f606c	0.07782063
37	0xbd9cbe45	-0.076534785
38	0xbd7d44b8	-0.061833113
39	0xbdae7deb	-0.08520111
40	0xbc0e231e	-0.008675365
41	0xbd929f17	-0.0715925
42	0xbd3b4d09	-0.045727763
43	0xbdca9133	-0.09890976
44	0xbb27f65a	-0.0025629015
45	0x3d4a9c51	0.04946548
46	0x3c13f34b	0.0090301735
47	0xbd53493d	-0.051583517
48	0xbd821402	-0.063514724
49	0xbd0cc4a4	-0.03436722
50	0xbd75df0f	-0.06002718
51	0x3d851364	0.06497839
52	0xbd7f0ba0	-0.062266946
53	0xbda63508	-0.08115584
54	0xbd0f7d17	-0.035031404
55	0xbd0dcb03	-0.034617435
56	0x3cecbd2c	0.028898798
57	0xbd962927	-0.07332068
58	0x3be1912e	0.006883762
59	0x3a89e057	0.0010519129
60	0xbda47209	-0.08029563
61	0xbbfc8242	-0.0077059576
62	0x3ca7c174	0.020477988
63	0xbcb67b7a	-0.022275675
64	0xbd6ae184	-0.057343975
65	0xbd2d86ba	-0.042364813
66	0xbcb4e5a4	-0.022082157
67	0xbd329f9c	-0.043609247
68	0x3db53344	0.08847669
69	0x3d568da3	0.05238117
70	0xba57ab1d	-0.0008227097
71	0x3da40f76	0.080107614
72	0xbd4a7c8a	-0.049435176
73	0x3d847684	0.064679176
74	0x3d1e1cdd	0.038601745
75	0xbccc0c5c	-0.024908237
76	0xbd578eac	-0.052626297
77	0x3d911eed	0.07085977
78	0xbd164338	-0.0366852
79	0x3d6e0363	0.0581087
80	0xbd4a85c5	-0.04944398
81	0x3dd069d0	0.10176432
82	0x3cd2fcc5	0.025755296
83	0xbd998350	-0.07495749
84	0xbc9b78a7	-0.01897843
85	0x3c88b45a	0.01668756
86	0xbdc00c7b	-0.093773805
87	0xbd2c0a32	-0.04200191
88	0xbbc7485d	-0.0060816244
89	0x3c4f1eee	0.012641652
90	0xbda237c3	-0.07920792
91	0x3d68ff64	0.056884184
92	0xbb27517b	-0.0025530744
93	0xbbfd3895	-0.0077276924
94	0xbdbd8d82	-0.09255506
95	0x3d2bc167	0.04193249
96	0xbc0b5f9b	-0.008506681
97	0x3cbe45a3	0.023226565
98	0x3d14ef44	0.036360994
99	0x3d5eda14	0.054407194
100	0x3c3a819a	0.0113834385
101	0xbda6df42	-0.08148052
102	0xbc243732	-0.010022925
103	0x3d8f0fce	0.069854364
104	0xbaa4161c	-0.0012518796
105	0xbd1ff3eb	-0.039050978
106	0xbd98b014	-0.07455459
107	0x3da9bb59	0.08287687
108	0x3daa19e2	0.08305718
109	0x3ca99f78	0.020705923
110	0xbc29bfcd	-0.01036067
111	0x3cf24ca5	0.029577563
112	0x3cc0b6ab	0.023524603
113	0xbc10d3f1	-0.008839593
114	0x3ad0c2c3	0.0015927184
115	0xbc128bf9	-0.008944505
116	0xbd2dde9d	-0.04244863
117	0xbc6892ae	-0.014195127
118	0x3da86c9e	0.08223842
119	0xbc526977	-0.012842528
120	0xbda631d0	-0.0811497
121	0xbd96b8de	-0.07359479
122	0xbdc6d934	-0.09709397
123	0x3d82848e	0.06372939
124	0x3d0ea8d6	0.034828983
125	0xbce74d8f	-0.028235225
126	0x3bdd904f	0.0067615877
127	0xbc223c66	-0.009902095
128	0x3d7048a3	0.05866302
129	0x3d369ae7	0.04458132
130	0xbd1306ab	-0.03589503
131	0xbc9d3fa9	-0.019195395
132	0xbdb4abca	-0.08821829
133	0x3d284741	0.041083578
134	0xbd2c1e56	-0.042021118
135	0xbdc99574	-0.09842959
136	0x3d4d2002	0.050079353
137	0xbc0177cf	-0.0079021
138	0xbd1269e5	-0.03574552
139	0x3d4378ce	0.04772263
140	0xbc16ac45	-0.009196346
141	0xbcd6b33c	-0.026208512
142	0xbda70f63	-0.08157232
143	0x3cf70afb	0.030156603
144	0xbcfc70fc	-0.030815594
145	0xbcc1b24e	-0.023644593
146	0x3d90dabc	0.0707297
147	0x3ce4f95a	0.027950931
148	0x3dd35e2a	0.10320695
149	0x3d6845be	0.056707136

hidden_layers.1.weight f4 [150, 150]
0	0x3cf35e97	0.02970819
1	0xbd8a5fba	-0.0675654
2	0x3d0ccac8	0.034373075
3	0xbc9ffd24	-0.019529887
4	0xbb6da584	-0.0036261985
5	0xbda855c1	-0.08219481
6	0xbd2717dc	-0.04079424
7	0xbdc43e20	-0.09582162
8	0x3de27178	0.11056799
9	0x3d4b3998	0.049615473
10	0xbcfc6957	-0.030811949
11	0x3d9a6279	0.075383134
12	0xbd131b17	-0.035914507
13	0xbcb13320	-0.021630824
14	0x3d93d77a	0.07218833
15	0x3ca88e60	0.020575702
16	0xbd87ad9f	-0.066249125
17	0xbcb6a7aa	-0.022296745
18	0x3d4296a7	0.047506955
19	0xbd35eed9	-0.044417236
20	0xbd958b2e	-0.07301937
21	0xbce1623f	-0.027512668
22	0x3d62f3ba	0.055408217
23	0xbd99b228	-0.07504684
24	0x3cc5a928	0.024128512
25	0x3cb5e5b0	0.02220425
26	0xbbe07bd6	-0.0068507
27	0x3d25c894	0.04047449
28	0x3d3859bd	0.045007456
29	0x3d4ef57d	0.050527085
30	0xbe00c6b2	-0.12575796
31	0x3d801e66	0.06255798
32	0x3d2e0f8b	0.04249529
33	0xbd4de7ac	-0.050269768
34	0x3c5a0417	0.013306639
35	0x3c85dd4f	0.01634088
36	0x3c588c8b	0.013217102
37	0xbbde7220	-0.006788507
38	0xbc933e23	-0.017973965
39	0x3dab7dc1	0.08373595
40	0x3d9d9cea	0.076959446
41	0x3c2a2cea	0.010386685
42	0x3daeb668	0.08530885
43	0x3d6e1e83	0.058134567
44	0x3c77fba8	0.015135683
45	0x3de07df4	0.10961524
46	0x3d4060eb	0.04696743
47	0x3d8437f3	0.06455984
48	0x3d45a6d8	0.048254818
49	0xbccd42e2	-0.025056306
50	0x3c9049a1	0.017613234
51	0xbe095fef	-0.13415502
52	0xbd43b01f	-0.047775384
53	0xbd112a95	-0.035441
54	0x3db7810e	0.08960162
55	0x3c075bb8	0.008261614
56	0x3d5eb114	0.054368094
57	0xbd639c5d	-0.05556904
58	0xbc7a24c0	-0.015267551
59	0x3dd3d05a	0.10342474
60	0xbd14f312	-0.036364622
61	0x3d1c7292	0.0381952
62	0x3cfcd748	0.030864373
63	0xbc8f5b3e	-0.017499562
64	0x3bb24a40	0.00544098
65	0x3cd458bf	0.025921224
66	0x3da7ee11	0.081997044
67	0x3dcc2530	0.099680305
68	0xbd6498a6	-0.05580964
69	0xbd3e2844	-0.04642512
70	0xbd4b0337	-0.049563613
71	0xbdb17bad	-0.086661674
72	0x3df8e0b9	0.121522374
73	0x3bb186cf	0.0054176818
74	0xbdbd9f55	-0.09258906
75	0x3c22cba3	0.009936246
76	0x3d838648	0.064220965
77	0x3d26935b	0.040667873
78	0x3dcd6687	0.10029321
79	0x3c5a23d5	0.013314207
80	0x3dc040e4	0.09387377
81	0xbdd79c3e	-0.10527848
82	0x3c8ee6df	0.017444072
83	0x3d7c2906	0.06156256
84	0x3da356f0	0.079755664
85	0xbdb34040	-0.08752489
86	0x3cb2f52b	0.02184542
87	0x3c63f684	0.013913754
88	0x3d453a2e	0.048151188
89	0xbdbaefb5	-0.09127752
90	0x3dd18f9f	0.10232472
91	0xbc569089	-0.013095983
92	0xbc9c1fb6	-0.01905809
93	0x3c3486ab	0.0110184355
94	0x3d9e88e4	0.077409536
95	0xbd8bd34c	-0.06827411
96	0x3d682918	0.056679815
97	0xbc27aa24	-0.010233436
98	0x3dd20872	0.10255517
99	0xbcc3683b	-0.023853412
100	0x3c635e83	0.013877514
101	0x3c84a622	0.0161925
102	0x3ccc5adb	0.024945667
103	0xbdbe8e3b	-0.09304472
104	0xbd0053a4	-0.031329766
105	0xbc92bff1	-0.01791379
106	0x3da7d31c	0.08194563
107	0xbdbe96b2	-0.093060866
108	0xbd14aee2	-0.036299594
109	0xbb841b00	-0.004031539
110	0xbd8da5f7	-0.06916421
111	0x3dad8724	0.08473042
112	0xbd6a61eb	-0.057222288
113	0xbccd47ea	-0.025058705
114	0x3d524e40	0.051344156
115	0x3d6c89d2	0.057748623
116	0x3ddd0827	0.107925706
117	0x3dbe6145	0.092958964
118	0xbd8dc5ac	-0.069224685
119	0xbd17babb	-0.037043314
120	0x3bc8eb17	0.0061315405
121	0x3baa158e	0.005190558
122	0x3b9ea826	0.004841822
123	0x3dcbe3f5	0.09955589
124	0xbdba6914	-0.09102073
125	0x3df89d3b	0.12139364
126	0x3c8f7064	0.017509647
127	0x3c8679b7	0.01641546
128	0x3dd3442f	0.10315739
129	0x3df816b7	0.121137075
130	0x3c00c7e4	0.007860158
131	0x3d05204f	0.032501515
132	0x3dc8d17f	0.09805583
133	0xbcd3f4e5	-0.02587361
134	0xbd473183	-0.048631202
135	0x3d83b7be	0.064315304
136	0xbd3c5763	-0.045981776
137	0x3cc8f5c6	0.024531256
138	0xbd35d6dc	-0.04439436
139	0xbde1e076	-0.11029141
140	0x3c38c5f6	0.011277666
141	0x3d436409	0.047702823
142	0x3dafbfac	0.085814804
143	0x3d87e2f8	0.06635088
144	0x3d433e0f	0.047666606
145	0x3d260a31	0.040537063
146	0xbd319fa4	-0.043365136
147	0xbc3d68ed	-0.011560661
148	0x3c9d55e7	0.019206
149	0xbd249ae8	-0.040186793
150	0xbd74851d	-0.05969726
151	0x3dff39cd	0.124621965
152	0x3b3f1a8c	0.002916011
153	0xbd268c48	-0.040661126
154	0xbd1f59d0	-0.03890401
155	0x3ded2625	0.11579541
156	0xbda40e63	-0.080105565
157	0x3def8567	0.11695366
158	0xbc049548	-0.008092232
159	0xbe05f204	-0.13080603
160	0xbccd0949	-0.025028842
161	0xbd6f71d4	-0.058458164
162	0xbdedc240	-0.11609316
163	0x3d03eabd	0.032206286
164	0xbb9c6444	-0.004772695
165	0xbd711798	-0.05886039
166	0xbc8c9b5a	-0.017163921
167	0xbc35100c	-0.011051189
168	0xbc98fd02	-0.018675331
169	0xbb8d3f1f	-0.004310503
170	0xbcc99c88	-0.024610773
171	0x3db1f079	0.08688445
172	0xbdbc1d58	-0.091852844
173	0x3d548db1	0.05189294
174	0xbd0c6897	-0.034279432
175	0xbd5412d2	-0.05177576
176	0x3e0e7ffc	0.1391601
177	0x3ce034c5	0.027368912
178	0x3da1d383	0.07901671
179	0x3ddbf96c	0.10740933
180	0x3e21a1a6	0.1578432
181	0xbd8dd17c	-0.069247216
182	0xbd806153	-0.06268563
183	0x3b6f57b3	0.0036520779
184	0x3d758abd	0.059946764
185	0xbdcade86	-0.09905724
186	0x3d945c31	0.072441466
187	0x3d967626	0.07346754
188	0x3d10251e	0.035191648
189	0xbda3b4d2	-0.07993473
190	0x3b3dcbf9	0.0028960689
191	0xbd1288b8	-0.035774916
192	0x3d01b30c	0.031664893
193	0xbe17c501	-0.14821245
194	0x3c4e1d72	0.0125802625
195	0x3cfd3be5	0.030912349
196	0x3d573479	0.052540276
197	0xbdb98d15	-0.090601124
198	0x3de6ba23	0.112659715
199	0x3c84a368	0.0161912
200	0xbd31412b	-0.04327504
201	0x3cb0cabf	0.021581052
202	0x3db83d82	0.08996107
203	0xbdb11bea	-0.08647902
204	0xbd97a617	-0.07404726
205	0xbd87cb90	-0.06630623
206	0xbd89236c	-0.06696209
207	0x3d039051	0.032120053
208	0xbc99a11f	-0.018753586
209	0xbd394f99	-0.045241926
210	0x3c874451	0.016512068
211	0xbd4a6372	-0.049411245
212	0xbca82231	-0.020524116
213	0x3d2fc94e	0.04291659
214	0xbdd2fa4f	-0.10301649
215	0xbdb3bd00	-0.08776283
216	0xbd68c065	-0.056824107
217	0x3b31e148	0.0027142335
218	0x3d18dea7	0.037321713
219	0x3cbab5b5	0.022791723
220	0x3c89e362	0.016832057
221	0x3c9bc575	0.019015053
222	0xbdf2bf26	-0.11852865
223	0xbbec6c51	-0.0072150608
224	0xbb61b380	-0.0034439266
225	0xbd431d82	-0.047635563
226	0xbc453fab	-0.012039105
227	0x3e09cad8	0.13456285
228	0xbc2eeafa	-0.01067614
229	0x3dda77ce	0.10667382
230	0xbe0990d5	-0.13434155
231	0x3dc069ca	0.09395178
232	0x3dc959f5	0.09831611
233	0xbdf5087e	-0.119645104
234	0xbac66ff2	-0.0015139563
235	0x3dc261c0	0.094913006
236	0xbdffa2c6	-0.124822184
237	0x3d7aed90	0.061261714
238	0x3cc147de	0.02359384
239	0x3df821a1	0.12115789
240	0xbd930d27	-0.07180243
241	0x3d31a09a	0.043366052
242	0x3c721204	0.014774803
243	0xbdf31b7c	-0.118704766
244	0xbcbf092e	-0.023319807
245	0x3d833d27	0.06408148
246	0xbd344068	-0.044006735
247	0x3d2c4144	0.04205443
248	0xbe0eb0fc	-0.13934702
249	0x3dc7715f	0.09738421
250	0xbd59ba62	-0.053156264
251	0x3b085303	0.0020801432
252	0x3d14354e	0.036183648
253	0x3da2ff1b	0.07958814
254	0x3d2ea201	0.042634968
255	0xbdbc8a98	-0.09206122

hidden_layers.1.bias f4 [150]
0	0xbc0cc012	-0.008590715
1	0x3d953c4e	0.07286893
2	0x3da16b6a	0.07881816
3	0xbd524232	-0.05133266
4	0xbd0b120c	-0.033952758
5	0x3db2d9e0	0.087329626
6	0xbd56ea5d	-0.0524696
7	0xbd260466	-0.04053154
8	0x3d5d9c48	0.05410412
9	0xbda3cf58	-0.07998532
10	0x3a2c8f63	0.00065826456
11	0xbcca53df	-0.024698196
12	0x3dae5641	0.085125454
13	0xbd824d66	-0.06362419
14	0xbcb6ba4d	-0.022305632
15	0x3d18dcdb	0.03732
16	0xbcd20ebb	-0.02564179
17	0x3cd02202	0.025406841
18	0x3c8c1f01	0.017104628
19	0x3d1fa7dc	0.038978443
20	0xbd7bf3d2	-0.061511822
21	0x3c73e5bb	0.014886315
22	0x3d6d5e2d	0.05795114
23	0xbc61f6fa	-0.013791794
24	0xbd42956f	-0.047505792
25	0x3d03e057	0.03219637
26	0x3d82b0a7	0.0638135
27	0xbd92a297	-0.07159918
28	0xbd7b09a2	-0.061288483
29	0x3c8a763f	0.016902087
30	0xbd65874d	-0.056037236
31	0xbb3799bb	-0.0028015214
32	0xbd06d891	-0.032921378
33	0x3bb5f555	0.0055529275
34	0xbd04ae24	-0.032392636
35	0xbd8d828f	-0.06909668
36	0x3c728c75	0.014803995
37	0xbd27e1b8	-0.040986747
38	0xbd58dad0	-0.05294305
39	0x3d1a29dd	0.03763758
40	0x3d2a7e85	0.041624565
41	0xbd8d9957	-0.06914013
42	0xbd6efe6b	-0.0583481
43	0x3d96ea8c	0.07368955
44	0xbd8f8ec6	-0.07009654
45	0x3d90dd2f	0.070734374
46	0xbd8471a1	-0.064669855
47	0x3d672fc6	0.056442045
48	0x3d9f8219	0.07788486
49	0xbcb21908	-0.021740451
50	0xbd1175b3	-0.035512637
51	0x3d876f3c	0.06613013
52	0x3dd455c9	0.10367925
53	0x3d1413e8	0.036151797
54	0xbd9215d4	-0.0713307
55	0xbd3d6d3a	-0.046246745
56	0x3d87c1b8	0.06628746
57	0xbdacefdb	-0.08444186
58	0xbd7dc3de	-0.06195437
59	0xbd24becc	-0.04022102
60	0x3d9cb2ee	0.07651316
61	0xbd119bec	-0.03554909
62	0x3ad57d92	0.0016288033
63	0x3d1e8003	0.0386963
64	0xbd1ca218	-0.038240522
65	0x3d800a58	0.06251973
66	0x3d4a9534	0.049458697
67	0xbd6a6c60	-0.05723226
68	0xbda1e076	-0.07904141
69	0xbda99e85	-0.08282188
70	0x3d863d40	0.06554651
71	0xbc9856e3	-0.018596118
72	0xbdaec864	-0.08534315
73	0xbd60b4dd	-0.054859985
74	0x3d86c82b	0.06581148
75	0x3d21040c	0.0393105
76	0x3daad647	0.083416514
77	0xbd8c815d	-0.068606116
78	0xb91f1326	-0.00015170555
79	0xbdb396ed	-0.08769021
80	0x3d054b19	0.03254232
81	0xbd6477ef	-0.05577844
82	0xbd70a550	-0.058751404
83	0xbd0cd9cc	-0.034387395
84	0x3d8df36a	0.06931193
85	0xbd3fc9db	-0.046823364
86	0x3bc0e576	0.005886729
87	0xbd145263	-0.036211383
88	0xbd0fad06	-0.035077117
89	0xbc7b52b0	-0.015339538
90	0xbd138ec6	-0.03602483
91	0xbc9d9a1b	-0.019238522
92	0xbd1e8e88	-0.038710147
93	0x3cdba6cb	0.026812932
94	0x3d610b1d	0.05494224
95	0x3d8a32c2	0.067479625
96	0x3d971b5a	0.07378264
97	0x3d759bb6	0.05996295
98	0x3d9fdd65	0.078058995
99	0x3d7d246b	0.06180231
100	0x3b44af3d	0.0030011677
101	0x3c18d8cb	0.009329031
102	0x3d901ce1	0.07036758
103	0xbc9e9203	-0.019356733
104	0x3bf9de2e	0.007625363
105	0xbda12d4c	-0.07869968
106	0xbd8a5aaa	-0.06755574
107	0x3d8d629d	0.069035746
108	0x3cd6b81d	0.026210839
109	0xbd9a1cdb	-0.07525035
110	0xbd5ee931	-0.054421607
111	0x3d054d7d	0.0325446
112	0xbd636194	-0.05551298
113	0xbdb48a65	-0.08815459
114	0xbc979e62	-0.01850814
115	0x3d780de4	0.060560122
116	0x3d291f92	0.041289873
117	0x3daf98b9	0.085740514
118	0x3ccfe25c	0.025376491
119	0x3c95e4c6	0.018297564
120	0xbcf71c2b	-0.030164799
121	0xbd81de79	-0.063412614
122	0xbda409cf	-0.08009683
123	0xbd0f0fef	-0.034927305
124	0xbd481d56	-0.048856102
125	0xbc59a49d	-0.013283876
126	0x3b707637	0.0036691555
127	0xbcb0763d	-0.021540755
128	0xbd1b2989	-0.037881408
129	0x3d4bc8bb	0.04975198
130	0xba8a383e	-0.0010545326
131	0xbc4e309f	-0.012584834
132	0xbceaf7fc	-0.028682701
133	0x3d5c912f	0.053849395
134	0x3db7833b	0.08960577
135	0x3da13f53	0.07873406
136	0xbcdc6c70	-0.026907176
137	0xbd5a60a1	-0.05331481
138	0xbd65d3f8	-0.056110352
139	0xbcb69a2f	-0.022290317
140	0x3d44fbe7	0.048091795
141	0x3d143d00	0.036190987
142	0xbd434b9a	-0.04767952
143	0x3cd5fe93	0.026122367
144	0x3bcab0db	0.0061856336
145	0x3c06aa15	0.008219262
146	0x3d6becb9	0.057598803
147	0x3d66072d	0.056159187
148	0x3d889733	0.06669464
149	0x3d9e1bd6	0.07720153

hidden_layers.2.weight f4 [150, 150]
0	0xbdc62bc3	-0.09676316
1	0x3c384adc	0.011248317
2	0x3e15d0fc	0.14630502
3	0x3c95dc2a	0.018293459
4	0xbd997b34	-0.07494202
5	0x3d516254	0.051119164
6	0xbd26afa8	-0.040694863
7	0xbe1960e0	-0.14978361
8	0xbdb5bbd0	-0.08873713
9	0xbd19cd04	-0.037549034
10	0x3d456f77	0.048202004
11	0x3da5e4b9	0.08100266
12	0x3cbf813c	0.023377053
13	0xbd66a259	-0.05630717
14	0x3dc311ad	0.09524856
15	0x3d279bfd	0.040920246
16	0xbd9ff74d	-0.07810841
17	0x3d98eec1	0.07467414
18	0xbca9e8dc	-0.020740919
19	0xbdc28d15	-0.094995655
20	0xbd672105	-0.056427974
21	0xbd3b07d3	-0.04566176
22	0x3cd045d8	0.02542393
23	0x3d038b29	0.032115135
24	0x3d84345b	0.064552985
25	0xbdc84c98	-0.09780234
26	0x3de68d23	0.112573884
27	0xbd51fb61	-0.051265124
28	0x3de6bf8f	0.11267006
29	0x3c899093	0.016792571
30	0x3a119e20	0.00055548735
31	0xbda0b018	-0.07846087
32	0xbcc33183	-0.02382732
33	0x3cc2af1d	0.023765141
34	0xbc8a8927	-0.016911102
35	0x3e12c98f	0.14334701
36	0x3c22c799	0.009935283
37	0xbd7cd861	-0.061729793
38	0xbd7c3157	-0.06157049
39	0xbdd3feb4	-0.10351315
40	0xbc5635db	-0.013074364
41	0xbdb608c4	-0.08888391
42	0xbdd06ec3	-0.10177376
43	0x3d650034	0.055908397
44	0xbca02fb6	-0.019554
45	0xbd320a91	-0.04346711
46	0xbd801aae	-0.06255089
47	0x3e006b74	0.1254099
48	0x3d23b0a9	0.039963398
49	0xbd9b87e5	-0.07594279
50	0x3da80575	0.08204166
51	0x3bcedea2	0.006313161
52	0x3e046e2b	0.1293265
53	0xbdbe3f16	-0.092893764
54	0xbd9be71d	-0.07612441
55	0xbdcc5c4a	-0.0997854
56	0x3c77a0ff	0.015114068
57	0xb900f08c	-0.00012296642
58	0xbdeb40a5	-0.11486939
59	0xbcf21028	-0.02954872
60	0x3bc64e24	0.0060517956
61	0xbccfcbf2	-0.025365803
62	0x3d8788c6	0.06617884
63	0x3de2376a	0.11045726
64	0xbde5ca8c	-0.112202734
65	0x3e0411d2	0.12897423
66	0xbd657e2d	-0.056028534
67	0xbd9ac113	-0.07556357
68	0xbd567e8d	-0.052366782
69	0xbd3e5332	-0.04646606
70	0x3d1e7d7d	0.038693894
71	0xbd79a434	-0.060947612
72	0xbda89040	-0.082306385
73	0x3d60306f	0.05473369
74	0xbd23dd7c	-0.040006146
75	0xbd04140b	-0.032245677
76	0x3bdd2b4f	0.0067495476
77	0xbd7ddb68	-0.06197682
78	0xbc8e68f6	-0.017384034
79	0xbdb2f99d	-0.08739016
80	0x3e163cac	0.14671582
81	0xbac89151	-0.0015302097
82	0xbdc43a3e	-0.09581421
83	0xbde6350e	-0.11240588
84	0xbb8e8986	-0.00434989
85	0x3cc35131	0.023842426
86	0xbde27234	-0.11056939
87	0xbdf6dc86	-0.1205378
88	0x3e093733	0.13399963
89	0x3dce7a12	0.10081877
90	0xbda579ac	-0.08079848
91	0x3d7fa3b0	0.062411964
92	0x3c2c27f6	0.010507574
93	0x3cb8873e	0.022525426
94	0xbde0686d	-0.10957418
95	0x3da9a8d1	0.08284152
96	0xbc8a7dd5	-0.016905705
97	0x3d9e1176	0.07718174
98	0xbbb0ac19	-0.0053916094
99	0x3d1bea6d	0.038065363
100	0xbdc4219e	-0.095767245
101	0x3d86e1b8	0.06586021
102	0xbccf23f0	-0.025285691
103	0x3d8ffb45	0.07030348
104	0x3d31d9cd	0.0434206
105	0xbdb2e88b	-0.0873576
106	0xbcf88dcb	-0.03034105
107	0x3ddb1803	0.10697939
108	0x3d8feb6c	0.07027325
109	0x3bc211f3	0.00592255
110	0x3ddcfe2b	0.10790666
111	0x3d5420f0	0.051789224
112	0x3d452ab3	0.048136424
113	0xbd615b5e	-0.055018775
114	0x3d13db5e	0.036097877
115	0x3cc3abcc	0.02388563
116	0xbd6b075f	-0.057380076
117	0xbc2c2539	-0.010506921
118	0x3da9ad79	0.082850404
119	0x3d91158c	0.07084188
120	0x3ce5ac47	0.02803625
121	0xbd5b85ec	-0.053594515
122	0xbb72dea1	-0.0037058967
123	0xbd3eeb1e	-0.046610944
124	0xbe1199e5	-0.14218862
125	0x3e12606a	0.14294592
126	0x3d9e0d91	0.07717431
127	0xbcd5318b	-0.0260246
128	0xbe1fbfb7	-0.15600477
129	0x3bb3507b	0.0054722405
130	0x3dc220f3	0.09478941
131	0x3d9d6b98	0.076865375
132	0xbda3af48	-0.079924166
133	0x3d858251	0.065189965
134	0x3d8ea666	0.06965332
135	0x3e1db061	0.15399314
136	0xbd6daed9	-0.058028076
137	0xbd85f70f	-0.06541263
138	0x3ddf06dc	0.1088998
139	0xbdc6229d	-0.09674571
140	0x3d55533c	0.05208133
141	0x3dadf5d3	0.08494153
142	0x3e120d62	0.14262918
143	0x3c34f6cd	0.01104517
144	0xbb8a669d	-0.0042236582
145	0x3d12ba60	0.035822272
146	0xbdfb7810	-0.122787595
147	0x3da0abc6	0.07845263
148	0xbc7fe2da	-0.0156180505
149	0x3e0aac17	0.1354221
150	0xbd5cc561	-0.053899173
151	0x3db87110	0.0900594
152	0x3cbdbaac	0.023160301
153	0x3de12a63	0.10994413
154	0x3c3c1bd9	0.011481249
155	0x3de888ad	0.11354194
156	0xbde6b310	-0.11264622
157	0xbcdba501	-0.026812078
158	0x3ceb754e	0.028742459
159	0xbd23f6a5	-0.04003014
160	0x3ce1bdea	0.027556378
161	0x3df5c6ff	0.12000846
162	0x3d861708	0.065473616
163	0xbddec36e	-0.10877119
164	0x3e285134	0.16437227
165	0x3daab85d	0.08335946
166	0xbc95081d	-0.018192345
167	0x3c7ccdfa	0.015429968
168	0x3c3578ad	0.011076135
169	0xbd0a2e10	-0.033735335
170	0x3c84815e	0.016174968
171	0xbce95b54	-0.028485931
172	0xbcca98ec	-0.024731122
173	0xbdc152a3	-0.0943959
174	0x3d8bdf51	0.068297036
175	0xbe05497b	-0.13016312
176	0x3d87101f	0.06594872
177	0xbca11237	-0.019662006
178	0x3d57b3e4	0.05266179
179	0x3dcbed8d	0.099574186
180	0x3a180014	0.00057983515
181	0xbdc651d4	-0.09683576
182	0xbd788f04	-0.060683265
183	0xbdc32405	-0.095283546
184	0xbcc292e7	-0.02375169
185	0x3c8b04bc	0.016970031
186	0x3dcf6dba	0.101283506
187	0xbbe1f9cb	-0.0068962327
188	0xbdd5f419	-0.104469486
189	0xbdaf2585	-0.08552078
190	0x3d19304e	0.037399583
191	0x3c254b23	0.010088715
192	0x3b8f3438	0.0043702386
193	0x3df1080c	0.11769113
194	0x3d2d397e	0.042291157
195	0xbc9e3f1a	-0.019317199
196	0xbd15ca58	-0.036569923
197	0xbdcbe453	-0.09955659
198	0x3db7971c	0.08964369
199	0xbc450214	-0.012024421
200	0x3dc17e2b	0.09447893
201	0x3cf8e704	0.030383594
202	0x3c12d47f	0.008961796
203	0xbde0490a	-0.10951431
204	0xbd32559c	-0.043538675
205	0xbb555242	-0.003255025
206	0x3be6f1a9	0.007047851
207	0xbd1aff40	-0.03784108
208	0xbda01d70	-0.07818115
209	0xbc97a783	-0.018512493
210	0x3c95e3f4	0.018297173
211	0xbce0c4b9	-0.027437555
212	0x3d6d06d3	0.057867836
213	0x3d352dc3	0.044233095
214	0x3cc6b378	0.0242555
215	0x3d5d80d5	0.054077942
216	0xbc592f9e	-0.013255982
217	0x3c1d112d	0.009586615
218	0x3ce82f06	0.028342735
219	0x3cf57c94	0.02996663
220	0x3cb8649a	0.022508908
221	0xbcbc8757	-0.023013754
222	0xbdb44e26	-0.08803968
223	0xbcf3e64a	-0.029772896
224	0x3c22d875	0.009939303
225	0xbcab8f6f	-0.020942418
226	0x3a769247	0.00094059523
227	0xbcb41ae3	-0.021985477
228	0x3d04771c	0.032340154
229	0xbdccf164	-0.10006979
230	0x3da6c744	0.08143476
231	0x3db0b58e	0.08628379
232	0xbddf36b3	-0.10899105
233	0xbdd4d799	-0.103926845
234	0x3dac763f	0.08420991
235	0x3d153538	0.036427706
236	0xbe00b373	-0.12568454
237	0xbd9d7c14	-0.07689682
238	0x3d3425cc	0.04398136
239	0x3d032af9	0.032023404
240	0x3d547da1	0.05187762
241	0xbe05b68b	-0.13057916
242	0xbcd626be	-0.02614152
243	0xbcceabcc	-0.025228404
244	0x3d1235ce	0.035695843
245	0x3d393341	0.045214895
246	0xbd3844bd	-0.04498743
247	0x3d8da92a	0.06917031
248	0x3b5aa6ff	0.0033363698
249	0x3cf553e0	0.029947221
250	0xbd7bc2d8	-0.061465114
251	0x3d73afa3	0.059493672
252	0x3d1b226f	0.037874635
253	0x3c98108e	0.018562581
254	0x3cef525a	0.029214073
255	0xbdf9273c	-0.121656865

hidden_layers.2.bias f4 [150]
0	0xbd2100ed	-0.039307524
1	0x3b7edd11	0.003888909
2	0xbc5bddfe	-0.013419626
3	0x3d4568a1	0.048195485
4	0x3d64b224	0.05583395
5	0xbcc1487a	-0.02359413
6	0x3c742c67	0.0149031645
7	0xbd9a04d5	-0.07520453
8	0xbd1e3997	-0.03862914
9	0xbd8ed914	-0.06974998
10	0x3d5ae296	0.053438745
11	0x3d6c7923	0.057732712
12	0x3cea93a7	0.02863486
13	0x3d629c0d	0.055324603
14	0x3d01e165	0.031709094
15	0x3cf6e697	0.03013925
16	0x3d22edce	0.03977757
17	0xbc69ce70	-0.01427041
18	0xbd8044a1	-0.0626309
19	0xbd39eff4	-0.045394853
20	0x3d08e72b	0.033423584
21	0x3d47e32a	0.048800625
22	0x3d873686	0.066021964
23	0xbc478657	-0.012178025
24	0x3cf9719d	0.030449683
25	0x3d3b468d	0.04572158
26	0xbd026d6b	-0.03184263
27	0xbd6adb2d	-0.05733793
28	0xbd56c8da	-0.05243764
29	0xbcf6e453	-0.03013817
30	0x3c86a398	0.01643543
31	0xbd089eb3	-0.033354472
32	0x3d5c183e	0.053734057
33	0x3d5a0d64	0.053235427
34	0xbca5d4b8	-0.020243034
35	0x3d3b1812	0.045677252
36	0x39ad4c85	0.00033054143
37	0x3da0bc75	0.07848445
38	0xbd07b87a	-0.033134915
39	0x3d387d9e	0.045041673
40	0x3d583a4b	0.052789968
41	0x3dadb4cb	0.08481749
42	0x3b32a52e	0.00272591
43	0xbcf31af0	-0.02967593
44	0x3bc37ac4	0.0059655625
45	0x3d730d60	0.059338927
46	0xbd2a17e8	-0.041526705
47	0xbd744e1a	-0.059644796
48	0xbd7c6435	-0.061619002
49	0xbb9e27ed	-0.004826537
50	0xbd854d0b	-0.065088354
51	0x3c9d71f0	0.019219369
52	0xbd45e605	-0.048315067
53	0xbd790210	-0.060792983
54	0x3cd35090	0.025795251
55	0x3be62305	0.0070232176
56	0x3b294fab	0.002583484
57	0xbd005e8a	-0.03134016
58	0xbc4a8ff5	-0.012363424
59	0x3dd12a5b	0.10213157
60	0xbd6b7b98	-0.057490915
61	0xbd9c63ad	-0.07636199
62	0xbd3c7bd0	-0.046016514
63	0xbca59ac2	-0.020215396
64	0xbd743a77	-0.05962607
65	0xbd13e55f	-0.036107417
66	0x3daa4b0c	0.08315095
67	0xbbeb1cd3	-0.007175067
68	0xbcbf5924	-0.023357935
69	0x3d890bba	0.0669169
70	0xbca07892	-0.019588742
71	0xbd64b2ce	-0.055834584
72	0xbd6ce3b7	-0.057834353
73	0x3cbbb11d	0.022911603
74	0xbb8aa916	-0.0042315824
75	0xbcdf80f5	-0.027283171
76	0x3d1b3088	0.03788808
77	0x3d3b9070	0.045792043
78	0x3c8427f1	0.016132327
79	0x3d7039d8	0.058648914
80	0x3d4ada21	0.04952443
81	0xbd1ce81b	-0.03830729
82	0x3d619d66	0.055081747
83	0x3c5ec3d6	0.013596496
84	0xbb1ac69d	-0.0023616918
85	0xbd64cf7b	-0.05586193
86	0xbca1a486	-0.019731771
87	0x3d9abe9f	0.07555889
88	0xbd25d5c7	-0.040487077
89	0xbd4e609a	-0.050385095
90	0x3d66c9af	0.056344684
91	0xbd6e5818	-0.05818948
92	0x3ce92a41	0.028462531
93	0xbd863fca	-0.065551355
94	0x3c66b096	0.014080187
95	0xbdbe32ed	-0.09287057
96	0x3d02f6b1	0.031973545
97	0xbd2c140d	-0.04201131
98	0xbda4975b	-0.08036681
99	0xbcb60afd	-0.022222036
100	0x3db947fa	0.090469316
101	0x37b02f23	2.1002785e-05
102	0x3d74979b	0.059714895
103	0x3c08523c	0.008320387
104	0x3d3aaf47	0.045577314
105	0x3a0e55e5	0.00054296694
106	0xbdb2350f	-0.087015264
107	0x3ca50b33	0.020146942
108	0x3cbccd67	0.023047162
109	0xbbe4f485	-0.006987157
110	0x3d7536f6	0.059866868
111	0x3cf30a59	0.02966802
112	0x3d038b5b	0.03211532
113	0xbd545d05	-0.051846523
114	0xbd7c6483	-0.061619293
115	0x3d7bc25b	0.06146465
116	0x3c81e179	0.015854584
117	0xbd4cda65	-0.050012965
118	0x3d53dd0c	0.05172448
119	0xbc29392c	-0.010328572
120	0xbd8455c9	-0.06461675
121	0xbd9e0cf5	-0.07717315
122	0x3cece30d	0.02891686
123	0x3cc5ff5f	0.024169622
124	0xbd09dbb3	-0.033656787
125	0xbd9ebc0a	-0.07750709
126	0xbd20231a	-0.039095975
127	0x3d45ec58	0.048321098
128	0xbdbf1c6a	-0.093315914
129	0xbd0b83ca	-0.03406123
130	0x3d2bc0c2	0.041931875
131	0xbd05fb24	-0.03271021
132	0xbbc1b4e9	-0.0059114587
133	0xbd7bf7aa	-0.061515488
134	0x3d116dfb	0.035505276
135	0x3c08a0b1	0.008339093
136	0x3d041f82	0.03225661
137	0xbd5008ed	-0.050789762
138	0xbdaa343b	-0.083107434
139	0x3d29401b	0.0413209
140	0xbdc1c41a	-0.094612315
141	0x3dcb9b88	0.099417746
142	0x3dba4533	0.0909523
143	0x3d4b5fde	0.049651973
144	0x3c4541b6	0.0120395925
145	0x3ca532fc	0.020165913
146	0xbd740ec0	-0.05958438
147	0xbd55c16a	-0.052186407
148	0x3d731f37	0.05935594
149	0xbd907dc8	-0.07055241

hidden_layers.3.weight f4 [150, 150]
0	0x3e210754	0.15725452
1	0x3e8aba0d	0.2709507
2	0x3e59f5b5	0.21285136
3	0x3ea7bfb1	0.32763436
4	0xbddc9b9d	-0.107718684
5	0x3e388f5b	0.18023436
6	0xbe6e02a3	-0.23243193
7	0xbee1f440	-0.4413166
8	0x3ef38ed3	0.47569904
9	0xbeacff71	-0.33788636
10	0xbe6c0a85	-0.23050888
11	0xbe824744	-0.25444996
12	0x3e83a25d	0.2570981
13	0xbe9ccc39	-0.3062456
14	0x3ea60869	0.3242829
15	0xbe5c71d0	-0.21527791
16	0xbe95bd77	-0.29246113
17	0x3eb8d686	0.36101168
18	0x3f132b67	0.574881
19	0xbe805c79	-0.2507055
20	0x3e862e5c	0.26207244
21	0xbde498cb	-0.111619554
22	0x3ef4c1ee	0.47804207
23	0x3e4a9b9e	0.19785926
24	0x3e7e363e	0.24825379
25	0x3ea41d49	0.32053593
26	0xbeac93f9	-0.33706644
27	0x3e02f968	0.12790453
28	0xbe7c5111	-0.246403
29	0x3e95f688	0.2928965
30	0x3e895398	0.2682159
31	0xbe829a3d	-0.255083
32	0x3e8ddf9e	0.2770967
33	0x3ed02c91	0.40659
34	0xbe82648c	-0.25467336
35	0x3eb3eb86	0.35140628
36	0x3e8b06fa	0.2715376
37	0x3ed89835	0.42303625
38	0x3e1087b5	0.14114268
39	0x3e65c8aa	0.22439829
40	0x3e529bd3	0.20567255
41	0xbec89ef0	-0.3918376
42	0x3dc2a07f	0.095032685
43	0x3ebb1f46	0.36547297
44	0xbedbed5f	-0.42954537
45	0xbea73538	-0.3265779
46	0xbeb0bc76	-0.34518784
47	0xbec1b566	-0.3783371
48	0xbe8d7f03	-0.27635965
49	0xbed313a2	-0.41225916
50	0xbe80195f	-0.25019357
51	0x3e9b3c40	0.30319405
52	0xbe8c6296	-0.27418965
53	0xbecd98e5	-0.40155712
54	0xbe8b569b	-0.27214512
55	0x3e75b328	0.23994124
56	0xbe5a3dfb	-0.21312706
57	0x3ed13a3f	0.4086475
58	0x3e936f78	0.2879598
59	0x3ebe17c1	0.37127498
60	0xbebfff76	-0.3749959
61	0x3e937960	0.2880354
62	0xbea55b29	-0.32296112
63	0xbe662309	-0.22474302
64	0xbe9b3900	-0.30316925
65	0xbe8ff3aa	-0.28115588
66	0x3e8b977d	0.27264014
67	0xbe7600c6	-0.24023733
68	0xbe8d7cf0	-0.27634382
69	0x3eabb168	0.33533788
70	0xbe8bfa5b	-0.27339444
71	0x3e0852f5	0.13312896
72	0xbe63fb03	-0.22263722
73	0x3e8d94b6	0.2765252
74	0xbe920f6e	-0.28527397
75	0xbefc78a8	-0.49310803
76	0x3eca7cfd	0.39548483
77	0xbed443d4	-0.41458
78	0xbe863dd6	-0.26219052
79	0x3e889c35	0.26681677
80	0x3e949739	0.29021624
81	0xbebb3669	-0.3656495
82	0x3eb64115	0.3559653
83	0xbf00353f	-0.5008125
84	0x3e4531ab	0.19257228
85	0x3e81fd5d	0.25388613
86	0xbe76cd28	-0.24101698
87	0x3ebacf36	0.36486214
88	0x3eabb452	0.3353601
89	0xbed0719f	-0.40711686
90	0x3e8eae1e	0.27867216
91	0xbe6e62a2	-0.23279813
92	0x3e88e528	0.26737332
93	0xbec5529e	-0.38539594
94	0x3ee35b3e	0.4440555
95	0xbef75274	-0.48305094
96	0xbe34e4a1	-0.1766534
97	0xbe295550	-0.1653645
98	0xbf011a5d	-0.5043085
99	0x3e93d00d	0.28869668
100	0x3f024478	0.50885725
101	0x3ecd137e	0.40053934
102	0x3dba348e	0.09092055
103	0x3e6f2670	0.23354506
104	0x3e28de8c	0.16491145
105	0x3e8e9c98	0.27853847
106	0xbe970ce7	-0.2950203
107	0xbeba27dc	-0.36358535
108	0x3ebbaa55	0.3665339
109	0xbe7555ea	-0.23958555
110	0x3e9dc2c0	0.30812645
111	0xbe903ea5	-0.28172794
112	0xbef139d6	-0.47114438
113	0x3e827e3d	0.25486937
114	0x3e605e0a	0.21910873
115	0x3eba2c31	0.3636184
116	0x3ea9316b	0.33045515
117	0xbeb6e78a	-0.35723525
118	0xbe73d425	-0.23811395
119	0x3df42da1	0.119227655
120	0xbeb8c38c	-0.3608669
121	0x3ebab86c	0.36468828
122	0x3e9de20d	0.30836526
123	0xbeb8e85d	-0.3611478
124	0x3de6a715	0.11262337
125	0xbeab615e	-0.33472723
126	0xbeeb887c	-0.46002567
127	0x3e444211	0.19165827
128	0xbef2b5da	-0.47404367
129	0x3e44a4fb	0.1920356
130	0xbe7b45e1	-0.24538375
131	0xbec1a1a7	-0.37818643
132	0x3ea0fb72	0.31441838
133	0xbebd2f84	-0.36950314
134	0x3e581a66	0.2110382
135	0x3e826e78	0.25474906
136	0x3ea8f3c3	0.32998475
137	0xbeaf51f0	-0.342422
138	0xbe6f5530	-0.2337234
139	0x3e8e2b50	0.2776742
140	0xbea7e09e	-0.32788557
141	0x3eb89139	0.36048296
142	0x3e92fc32	0.28708035
143	0x3ec0d0a3	0.37659177
144	0x3e94c808	0.29058862
145	0x3e29519e	0.1653504
146	0x3eeaea84	0.45882046
147	0x3eb1f181	0.34754565
148	0xbe837993	-0.2567869
149	0x3ecb7870	0.39740324
150	0xbe09aaa5	-0.13444002
151	0xbe405eb7	-0.18786131
152	0xbe526016	-0.20544466
153	0xbe80a07d	-0.25122443
154	0x3e145512	0.14485577
155	0xbe8dab4a	-0.27669746
156	0x3eab2d6c	0.33433092
157	0x3ed32b40	0.41243935
158	0xbed4e7c3	-0.4158307
159	0x3e998e5e	0.2999143
160	0x3e48f5fd	0.19625087
161	0x3e814f49	0.25255802
162	0xbe8771b5	-0.2645394
163	0x3e9270c5	0.2860166
164	0xbebb4216	-0.36573857
165	0x3e80efdb	0.25182995
166	0x3e920df2	0.28526264
167	0xbece9a2c	-0.40352
168	0xbf08ac31	-0.53387743
169	0x3eafb7a5	0.34319797
170	0xbeabe117	-0.33570167
171	0x3e2bc087	0.16772662
172	0xbebae6c0	-0.36504173
173	0xbe8b611d	-0.2722253
174	0xbe545871	-0.20736863
175	0xbedb7e18	-0.4286964
176	0x3e94587f	0.28973767
177	0xbe12d5a3	-0.14339308
178	0x3e15cc0f	0.14628623
179	0xbe2179a9	-0.15769066
180	0xbe782b9f	-0.2423539
181	0x3e703214	0.23456603
182	0xbe923960	-0.285594
183	0xbe9dc90e	-0.30817455
184	0x3e9b6124	0.3034755
185	0xbe9692ae	-0.29408783
186	0xbe95cad9	-0.29256323
187	0xbeafe237	-0.34352276
188	0xbe73397d	-0.23752399
189	0xbdf68a43	-0.1203809
190	0xbe9c7425	-0.3055736
191	0x3ec5f904	0.38666546
192	0xbe27817c	-0.16357988
193	0xbe8ba05c	-0.27270782
194	0x3ee8a76c	0.45440233
195	0x3eed686f	0.4636874
196	0x3ed9b810	0.4252324
197	0x3eb0cffd	0.34533682
198	0x3e6c5ee7	0.23083077
199	0x3eaf1799	0.3419769
200	0x3e7827c0	0.24233913
201	0xbe9c68cc	-0.30548704
202	0x3e813bdb	0.2524098
203	0x3e86d695	0.26335588
204	0x3e86155e	0.26188177
205	0xbe5d6086	-0.21618852
206	0x3e9f968d	0.3116955
207	0xbecf0671	-0.40434602
208	0xbe8c035e	-0.2734632
209	0xbec879de	-0.39155477
210	0x3ea7fbae	0.32809204
211	0xbeac497f	-0.33649823
212	0x3e9273c6	0.28603953
213	0x3e56653d	0.20937057
214	0x3e9dba3e	0.30806154
215	0x3ed69ff8	0.4191892
216	0xbebf6abe	-0.37386125
217	0x3e37aecb	0.17937772
218	0x3e6b9372	0.23005465
219	0xbeb230b8	-0.34802794
220	0x3e79349f	0.2433648
221	0xbe56745f	-0.2094283
222	0x3e210550	0.15724683
223	0xbed142bb	-0.40871224
224	0x3e985fb4	0.29760516
225	0x3ecd61d4	0.401137
226	0xbedae9f9	-0.42756632
227	0x3ed63c22	0.41842753
228	0x3eba766a	0.36418468
229	0xbe39c532	-0.1814163
230	0xbe89426b	-0.26808485
231	0x3e9d0679	0.30669
232	0xbe8cf573	-0.27531013
233	0x3ec33887	0.38129064
234	0xbe5220ce	-0.20520326
235	0xbe9c4f4c	-0.3052925
236	0x3e3b7a41	0.18308355
237	0xbe849213	-0.25892696
238	0xbec7fb40	-0.39058876
239	0x3ecbd64a	0.39811927
240	0xbe968b89	-0.29403332
241	0x3e84ea80	0.2596016
242	0xbe32e5e0	-0.17470503
243	0x3e921ada	0.2853611
244	0xbef2c700	-0.4741745
245	0x3ec2edf9	0.38072184
246	0x3e7b7a06	0.24558267
247	0x3e5731c7	0.21015082
248	0x3ef2e03b	0.474367
249	0xbea547ad	-0.32281247
250	0xbf00aaee	-0.5026082
251	0xbeecb12c	-0.4622892
252	0xbe333c44	-0.17503458
253	0xbe8dce22	-0.2769633
254	0xbe88f588	-0.26749825
255	0xbe809402	-0.2511292
