param/pde_iter1000_10_150_2.pth (torch, 95303 bytes, 5 tensors)

input_layer.weight f4 [150, 2]
0.5371169 0.58511573 -0.16181208 0.6521924 -0.14525796 0.13605845 -0.34187943 0.4108651
0.62361354 -0.5184167 0.6158829 0.1408421 0.5181698 0.09460631 0.3317685 -0.10192721
0.54783094 0.10403127 -0.3251011 0.18733592 -0.31202355 -0.0824409 -0.2803263 0.47107977
-0.5564217 -0.32387114 -0.20073804 -0.4216152 0.06252223 -0.68687063 0.6386629 -0.60057175
0.5457316 0.11517185 -0.24839446 0.4287744 0.09477317 0.5659976 0.07919047 -0.22688736
0.1798219 -0.20110936 0.2956548 0.6243889 0.397509 -0.3060943 0.39569235 0.122913845
0.35513893 -0.4278698 -0.6907819 -0.2833783 -0.54342926 0.57875896 0.2059475 0.29074335
0.21618913 -0.011706875 0.5514492 -0.50702506 0.047189005 -0.48263964 0.21947792 -0.23782279
0.20097803 -0.15552004 0.57393086 -0.4090049 -0.4240412 -0.41990405 0.63478315 0.24186766
0.66989607 -0.5685002 -0.69404024 -0.53367966 -0.47943017 0.28833216 0.24680871 0.587291
-0.36687928 -0.4842553 0.3711943 -0.28639695 0.43715426 -0.16721231 0.41099876 -0.53348863
-0.34922186 0.2165856 0.14738066 -0.17389423 0.42671153 0.47925952 -0.5075777 -0.37598324
0.6446902 -0.2394548 -0.24792236 -0.6737337 -0.39392254 0.1802512 -0.09043127 -0.5171682
0.01704029 -0.4761091 -0.59688437 -0.3774196 -0.6119899 -0.44279897 0.694453 0.1277413
0.21924481 -0.6488243 -0.47226915 -0.24005204 0.11329437 -0.61174953 -0.2876868 -0.42153555
-0.001400406 -0.26181194 -0.046429608 -0.48307723 -0.49202007 -0.40861684 -0.23753116 -0.5469084
0.5851225 -0.1406013 0.59636945 0.22146994 -0.59477025 0.50110996 -0.18853967 -0.26937744
-0.57197577 -0.6960654 0.19947962 -0.1485862 0.27918416 -0.5783976 0.51935977 -0.5130023
-0.10466119 0.1500397 0.3675287 0.5655453 0.63301396 -0.5461715 0.16819037 -0.29982674
-0.09121161 -0.5337764 0.6320806 -0.5188194 0.37363046 0.23229319 0.24469532 -0.3802261
0.63884056 0.1593414 0.08856603 -0.6207213 0.29232386 -0.10099344 -0.32289913 0.6054496
0.16183606 -0.38952297 -0.3601093 -0.03399151 0.38824114 -0.17981751 -0.39630145 -0.24002936
-0.52336216 0.25406963 0.5416898 -0.64764357 0.1679568 0.36447552 0.12830631 -0.25361663
0.36709702 0.38352334 0.25390816 -0.12738448 -0.17201594 0.07417516 -0.13101271 -0.21898337
0.44209087 0.59929496 -0.07152496 -0.15127982 0.019278303 -0.035757624 0.17064989 0.19451907
-0.63060606 -0.26204276 0.5932326 0.2607334 -0.036425527 -0.41918126 -0.428301 -0.6205322
-0.23333128 0.23269509 0.44331148 0.32333744 -0.6225743 -0.42391285 -0.118385956 0.68402004
0.10549098 -0.18100499 0.29186636 -0.26657963 -0.45846665 0.5043285 -0.31757432 -0.13559198
-0.70249814 0.4683638 0.523883 0.25207832 -0.49842215 -0.69125736 -0.572167 0.5260004
0.33567667 0.58741623 0.36167037 0.17743233 -0.012769732 -0.5306261 -0.59881204 -0.65669084
0.28686866 -0.34286216 -0.14771432 -0.40689656 -0.13446611 -0.49519774 -0.46682802 0.2337639
-0.20694725 0.43120766 -0.23232585 -0.51796806 -0.11650199 -0.33854333 -0.20796102 -0.66348493
00000000: 7e80 093f 25ca 153f 11b2 25be 15f6 263f
00000010: 81be 14be e852 0b3e d20a afbe e95c d23e
00000020: 23a5 1f3f f5b6 04bf 80aa 1d3f e938 103e
00000030: c7a6 043f f4c0 c13d 90dd a93e 37bf d0bd
00000040: a63e 0c3f 590e d53d a773 a6be fdd4 3f3e
00000050: 8dc1 9fbe c6d6 a8bd ee86 8fbe 5e31 f13e
00000060: a771 0ebf 70d2 a5be 468e 4dbe f3dd d7be
00000070: a80b 803d c1d6 2fbf 697f 233f 12bf 19bf
00000080: 11b5 0b3f 38df eb3d 1e5b 7ebe 5188 db3e
00000090: 7018 c23d 38e5 103f 9d2e a23d 2955 68be
000000a0: 3b23 383e 9def 4dbe 1160 973e f3d7 1f3f
000000b0: 4d86 cb3e 64b8 9cbe 3098 ca3e 41ba fb3d
000000c0: c5d4 b53e c011 dbbe 15d7 30bf f616 91be
000000d0: 2e1e 0bbf 8c29 143f e7e3 523e 50dc 943e
000000e0: af60 5d3e 31ce 3fbc c62b 0d3f 65cc 01bf
000000f0: 4249 413d 8b1c f7be d2be 603e d187 73be
00000100: 2fcd 4d3e a540 1fbe 22ed 123f 1769 d1be
00000110: ee1b d9be aafd d6be 2681 223f 28ac 773e
00000120: 4f7e 2b3f 3b89 11bf 9fac 31bf 3b9f 08bf
00000130: df77 f5be 46a0 933e 6cbb 7c3e b458 163f
00000140: 9ad7 bbbe 50f0 f7be 2e0d be3e 9fa2 92be
00000150: afd2 df3e b439 2bbe 6e6e d23e b692 08bf
00000160: 35cd b2be 9ec8 5d3e f5ea 163e 5411 32be
00000170: ef79 da3e 8161 f53e 9df0 01bf e080 c0be
00000180: 6b0a 253f a433 75be 5cdf 7dbe d079 2cbf
00000190: 37b0 c9be c593 383e 0834 b9bd 2365 04bf
000001a0: 1498 8b3c 92c4 f3be 6acd 18bf 243d c1be
000001b0: 5fab 1cbf 8cb6 e2be acc7 313f 9ece 023e
000001c0: b681 603e 5919 26bf 43cd f1be 34d0 75be
000001d0: e106 e83d 9e9b 1cbf af4b 93be 82d3 d7be
000001e0: d48d b7ba 370c 86be f92c 3ebd e655 f7be
000001f0: 0eea fbbe 3a36 d1be 5e3b 73be 3002 0cbf
00000200: 97ca 153f caf9 0fbe abab 183f 04c9 623e
00000210: dd42 18bf be48 003f 8b10 41be d7eb 89be
00000220: 016d 12bf 5831 32bf 6344 4c3e fb26 18be
00000230: 3af1 8e3e dd11 14bf c3f4 043f 1e54 03bf
00000240: 9b58 d6bd 02a4 193e b92c bc3e 94c7 103f
00000250: 340d 223f e5d1 0bbf 193a 2c3e e482 99be
00000260: 27cd babd 92a5 08bf 09d0 213f 59d1 04bf
00000270: 7e4c bf3e 44de 6d3e 6991 7a3e ffac c2be
00000280: 0e8b 233f 642a 233e 1b62 b53d 97e7 1ebf
00000290: 79ab 953e a6d5 cebd 0953 a5be bffe 1a3f
000002a0: 5ab8 253e 8e6f c7be 3f60 b8be ae3a 0bbd
000002b0: 8bc7 c63e 1522 38be 06e8 cabe 42ca 75be
000002c0: 10fb 05bf 6a15 823e 2fac 0a3f f8cb 25bf
000002d0: defc 2b3e 899c ba3e bb62 033e 0ada 81be
000002e0: 24f4 bb3e 2c5d c43e 4000 823e 1471 02be
000002f0: f224 30be 25e9 973d 3228 06be 2d3d 60be
00000300: bc59 e23e 656b 193f ae7b 92bd 19e9 1abe
00000310: 88ed 9d3c 9676 12bd d8be 2e3e 0230 473e
00000320: 666f 21bf 782a 86be 17de 173f d97e 853e
00000330: ef32 15bd ed9e d6be 454a dbbe 33db 1ebf
00000340: 65ee 6ebe 9f47 6e3e b9f9 e23e 7c8c a53e
00000350: 0861 1fbf 1b0b d9be 5674 f2bd f01b 2f3f
00000360: a80b d83d 5f59 39be 826f 953e 207d 88be
00000370: 24bc eabe ac1b 013f 1a99 a2be a0d8 0abe
00000380: ebd6 33bf 61cd ef3e 321d 063f 6910 813e
00000390: 3031 ffbe 3ef6 30bf 8979 12bf f6a7 063f
000003a0: d0dd ab3e e960 163f dc2c b93e d2b0 353e
000003b0: 2338 51bc 1dd7 07bf bf4b 19bf e41c 28bf
000003c0: 73e0 923e a18b afbe 6c42 17be bf54 d0be
000003d0: 7cb1 09be 8f8a fdbe 1504 efbe ce5f 6f3e
000003e0: fbe9 53be 40c7 dc3e d4e6 6dbe 8e99 04bf
000003f0: 9898 eebd 8d55 adbe bcf3 54be 26da 29bf

input_layer.bias f4 [150]
0.01958085 -0.13962564 -0.24221109 -0.3415783 -0.58088654 0.58444536 -0.27950466 0.18514022
-0.24186803 0.063398056 0.6554465 0.32558367 -0.60812926 0.28044048 0.6741444 0.1907057
0.47792497 0.69742095 -0.11605955 0.14634712 -0.48740324 -0.14301912 0.52443004 0.3635128
-0.44638422 -0.5675538 -0.48678884 -0.7019119 -0.54723495 -0.1810933 0.4791194 0.121646784
-0.53988075 -0.5615228 0.34575143 -0.5215057 -0.08994052 0.34894866 -0.3311522 -0.07991889
-0.062263556 -0.16829759 -0.359075 -0.63672215 -0.577576 -0.37724683 0.6851917 -0.3372101
-0.47491986 0.17514311 0.19511193 0.3853953 0.5400857 0.39367732 -0.69945866 0.058565646
0.42334095 -0.062357493 -0.4140484 0.67030823 -0.26285407 -0.3977482 -0.63344306 0.030952906
0.31235754 0.157992 0.14433679 -0.539965 -0.65924245 0.007007869 0.6478505 0.40483886
-0.40565574 -0.09081348 -0.51796 -0.35316384 0.12551945 0.3898985 0.5866636 -0.65336823
0.47799683 -0.5066128 0.26830694 0.6002539 0.0048653292 0.6446722 -0.60405254 -0.2686719
0.4162263 -0.1521147 -0.14927877 -0.295172 0.48216918 0.34471455 0.22403082 -0.40151715
-0.56936103 0.06782068 0.20610549 -0.3277349 -0.19641277 0.4772463 0.06069493 0.036911163
-0.17886539 -0.64078355 -0.6664012 -0.33827338 -0.35386497 0.21740831 -0.20490529 -0.27440327
0.6785797 0.24362512 0.51120144 -0.34320498 -0.28966755 0.26222035 -0.47932017 -0.46209595
-0.03836569 -0.25732625 -0.5300905 0.41525733 0.5684996 0.110613346 -0.119991496 -0.6481023
-0.26226678 0.17860802 0.33895555 -0.088784754 -0.2866112 0.39926207 -0.5609885 0.43791473
-0.2785031 0.0152311595 -0.140845 0.08485489 -0.21690875 0.5147927 -0.022906322 0.5538275
0.6772905 -0.3417345 -0.5063322 0.56882054 0.55836546 -0.5421509
00000000: 0568 a03c 06fa 0ebe 2f06 78be 5ae3 aebe
00000010: fbb4 14bf 369e 153f 3c1b 8fbe 6695 3d3e
00000020: 41ac 77be d7d6 813d 58cb 273f e7b2 a63e
00000030: 5cae 1bbf e595 8f3e ba94 2c3f 5b48 433e
00000040: 95b2 f43e 2e8a 323f a1b0 edbd 05dc 153e
00000050: eb8c f9be 9b73 12be 0c41 063f 5a1e ba3e
00000060: 798c e4be 354b 11bf 633c f9be 80b0 33bf
00000070: 9717 0cbf 8670 39be 234f f53e f321 f93d
00000080: a035 0abf f5bf 0fbf 5506 b13e 6681 05bf
00000090: bc32 b8bd 66a9 b23e c88c a9be 84ac a3bd
000000a0: 1208 7fbd 3456 2cbe aed8 b7be 3900 23bf
000000b0: 05dc 13bf 7f26 c1be b968 2f3f cda6 acbe
000000c0: b228 f3be b758 333e 6ccb 473e 8852 c53e
000000d0: 0e43 0a3f 1390 c93e b90f 33bf 88e2 6f3d
000000e0: 25c0 d83e 926a 7fbd 27fe d3be 5299 2b3f
000000f0: cf94 86be a7a5 cbbe 5329 22bf f390 fd3c
00000100: 54ed 9f3e a8c8 213e 06cd 133e 253b 0abf
00000110: 1dc4 28bf 44a2 e53b 88d9 253f 0a47 cf3e
00000120: 1cb2 cfbe 6bfc b9bd 0799 04bf e4d1 b4be
00000130: 2c88 003e c7a0 c73e 962f 163f 2443 27bf
00000140: 00bc f43e 60b1 01bf 875f 893e 3daa 193f
00000150: 576d 9f3b 3d09 253f 30a3 1abf 5d8f 89be
00000160: 9d1b d53e f5c3 1bbe 89dc 18be c920 97be
00000170: e1de f63e 6d7e b03e 5668 653e a893 cdbe
00000180: a5c1 11bf 92e5 8a3d 510d 533e decc a7be
00000190: 6e20 49be a159 f43e 3f9b 783d 2930 173d
000001a0: 7d28 37be 640a 24bf 4599 2abf 2b32 adbe
000001b0: ca2d b5be 49a0 5e3e b1d2 51be 967e 8cbe
000001c0: 66b7 2d3f dd78 793e 19de 023f 90b8 afbe
000001d0: 4e4f 94be bf41 863e 7469 f5be d797 ecbe
000001e0: 5725 1dbd 44c0 83be 03b4 07bf 9c9c d43e
000001f0: 3189 113f 4089 e23d 1abe f5bd 08ea 25bf
00000200: d547 86be 05e5 363e 958b ad3e c8d4 b5bd
00000210: b4be 92be 146c cc3e f19c 0fbf 5c36 e03e
00000220: f597 8ebe 1d8c 793c ac39 10be 67c8 ad3d
00000230: 541d 5ebe 74c9 033f 0aa6 bbbc a4c7 0d3f
00000240: e962 2d3f d3f7 aebe fd9e 01bf 399e 113f
00000250: 0af1 0e3f 67ca 0abf

hidden_layers.0.weight f4 [150, 150]
-0.0147560425 -0.07622168 -0.06329307 0.018888095 0.01015674 0.0119494125 -0.022086242 0.07332649
0.014867738 -0.050602213 -0.00014286714 0.029267823 0.03306248 -0.061170846 0.029894754 -0.031943634
-0.071237735 -0.039035812 0.07196132 0.07020443 0.07830935 0.04214953 0.06271041 -0.014144281
-0.041730564 0.04610669 -0.04462039 -0.059299514 -0.030342929 0.013914913 0.04774939 -0.02481372
-0.044894494 -0.008130994 -0.05279128 -0.062045872 0.033206016 -0.032693736 0.071047604 0.07203152
0.024956582 0.025068179 0.01658102 -0.0013510253 -0.010038799 0.0055064308 0.03719917 0.069509074
-0.02531574 -0.030617718 -0.017158704 -0.045165088 0.02432964 0.061967842 0.053878427 0.030496959
-0.056787767 -0.036592364 -0.023874268 -0.013657941 0.0037612256 -0.06701809 0.020240054 -0.05284926
-0.048740648 -0.060714994 0.0765262 -0.080934204 0.051824193 0.0015864738 -0.020750422 0.042052552
-0.0058367183 0.04438129 0.052582145 -0.07234379 0.03796188 0.007078637 0.01730629 0.0048440937
0.012455964 -0.04214245 -0.015148319 0.06865849 0.062149197 0.0015225513 -0.076559745 -0.0014917067
-0.047699373 0.0581666 -0.05260247 -0.010373013 -0.02483106 0.009304891 0.07989699 0.008881914
0.038922064 0.06499769 0.067593694 -0.026637698 -0.028623113 0.03184347 -0.018043477 0.047097832
-0.015421625 -0.052965283 0.018513575 0.010499201 0.038424447 0.07718403 0.055338606 0.07799091
0.0049116863 -0.063915044 -0.047544893 -0.045160722 -0.063571155 -0.038986057 -0.06328096 -0.065111004
-0.043975715 -0.07418819 -0.05045821 0.03358075 0.060398642 -0.019180508 -0.025614629 0.03591342
-0.04405334 -0.035339437 0.045354802 -0.073311605 0.019531265 0.0699491 0.01290553 0.025219122
-0.039296918 0.0002571403 0.012982915 0.022789266 0.029504828 0.071089506 -0.06148329 0.0119207725
-0.045256883 -0.063848525 0.004948794 -0.06605301 0.05369972 0.007051659 -0.042549495 0.045449607
-0.06325567 -0.03248865 -0.011085145 -0.072119005 -0.05287748 -0.019870875 0.07183161 0.072672844
0.048681505 -0.045657728 -0.049195047 0.052304313 0.028146017 -0.007455065 0.004713764 -0.06896604
-0.027596632 0.081683315 -0.013187092 -0.0056573665 -0.06253795 -0.042253047 0.0002846082 -0.04806788
-0.0017799127 0.041254614 -0.07310118 0.026213704 -0.057239864 -0.036182888 0.038477626 0.066325724
-0.020921044 -0.03829639 -0.06584788 -0.053833082 -0.07335408 -0.013432942 0.014342623 -0.07697922
0.06534061 0.051533464 -0.0824761 -0.036174767 0.025661068 -0.020080656 -0.010443464 -0.03522514
0.06891045 -0.04713437 0.062145025 0.0072968937 0.012010069 0.06280231 -0.012013491 -0.043028492
-0.014571374 0.06562847 -0.06270692 0.019623723 -0.07789349 0.03786792 0.027043117 0.007165053
0.032528106 0.009200579 0.030814875 -0.056948777 -0.01786939 0.034131035 0.080861926 0.042208202
-0.05277259 0.06680739 -0.016923673 -0.013148613 -0.07696087 -0.014240854 0.05010374 0.012855103
-0.05314191 0.024519568 -0.031859964 0.070624426 -0.06478514 -0.02863157 -0.07637442 -0.032236617
0.024893431 0.08152954 0.011071573 0.079585336 0.023943303 0.04740642 0.06460994 0.07074505
-0.05025139 0.07588881 0.045313697 -0.042179435 -0.039009888 -0.073756 0.020715926 -0.06284677
00000000: 54c3 71bc 1d1a 9cbd cc9f 81bd 35bb 9a3c
00000010: 7568 263c 78c7 433c 35ee b4bc 332c 963d
00000020: d097 733c 4444 4fbd 9bce 15b9 13c3 ef3c
00000030: 866c 073d 488e 7abd d8e5 f43c 54d7 02bd
00000040: 17e5 91bd 04e4 1fbd 7560 933d 57c7 8f3d
00000050: a760 a03d fca4 2c3d 516e 803d 6abd 67bc
00000060: abed 2abd 5eda 3c3d dfc3 36bd 0ce4 72bd
00000070: bc91 f8bc 60fb 633c dd94 433d 2446 cbbc
00000080: 4ae3 37bd dc37 05bc ab3b 58bd d023 7ebd
00000090: 0803 083d dee9 05bd 6881 913d 4385 933d
000000a0: bf71 cc3c c85b cd3c ebd4 873c e314 b1ba
000000b0: c679 24bc 4a6f b43b 285e 183d c65a 8e3d
000000c0: f462 cfbc 02d2 fabc 6990 8cbc 07ff 38bd
000000d0: f44e c73c fed1 7d3d a0af 5c3d c2d4 f93c
000000e0: 4a9a 68bd e0e1 15bd f893 c3bc 8ec5 5fbc
000000f0: e57e 763b c840 89bd 78ce a53c 7778 58bd
00000100: 46a4 47bd 49b0 78bd c5b9 9c3d d5c0 a5bd
00000110: 9b45 543d 3af1 cf3a cafc a9bc 4c3f 2c3d
00000120: f141 bfbb 28c9 353d 6060 573d fb28 94bd
00000130: eb7d 1b3d e9f3 e73b ecc5 8d3c 34bb 9e3b
00000140: 1a14 4c3c 909d 2cbd a830 78bc d39c 8c3d
00000150: 2890 7e3d 5890 c73a 5bcb 9cbd 5f85 c3ba
00000160: 6b60 43bd 1a40 6e3d b075 57bd 92f3 29bc
00000170: 826a cbbc 8b73 183c 08a1 a33d 7385 113c
00000180: be6c 1f3d 821d 853d 906e 8a3d 4d37 dabc
00000190: 057b eabc 4c6e 023d eacf 93bc a8e9 403d
000001a0: fcaa 7cbc 20f2 58bd c8a9 973c d704 2c3c
000001b0: f462 1d3d a912 9e3d bcaa 623d b3b9 9f3d
000001c0: 36f2 a03b e4e5 82bd 6fbe 42bd 73fa 38bd
000001d0: 9831 82bd d8af 1fbd 7399 81bd eb58 85bd
000001e0: e11f 34bd faef 97bd 45ad 4ebd f88b 093d
000001f0: 9164 773d 7120 9dbc c5d5 d1bc f319 133d
00000200: 4671 34bd 16c0 10bd f5c5 393d 6524 96bd
00000210: 0800 a03c 7941 8f3d b771 533c 5598 ce3c
00000220: cef5 20bd c9d0 8639 4bb6 543c 8eb0 ba3c
00000230: 1cb4 f13c 6097 913d e7d5 7bbd 584f 433c
00000240: 485f 39bd 04c3 82bd 7e29 a23b cd46 87bd
00000250: 3df4 5b3d 9a11 e73b 6148 2ebd 5e29 3a3d
00000260: 308c 81bd d212 05bd 789e 35bc 21b3 93bd
00000270: 0e96 58bd 3fc8 a2bc 731c 933d 80d5 943d
00000280: 4266 473d 9903 3bbd bf80 49bd 0c3d 563d
00000290: 7a92 e63c 9e49 f4bb eb75 9a3b 113e 8dbd
000002a0: 5512 e2bc 9549 a73d ac0e 58bc 6e61 b9bb
000002b0: e613 80bd 8811 2dbd 7737 9539 d3e2 44bd
000002c0: f64b e9ba 99fa 283d 12b6 95bd 1fbe d63c
000002d0: 5974 6abd 8234 14bd b79a 1d3d c8d5 873d
000002e0: 9c62 abbc addc 1cbd 41db 86bd 1480 5cbd
000002f0: aa3a 96bd d815 5cbc 52fd 6a3c 48a7 9dbd
00000300: 4cd1 853d c114 533d 3be9 a8bd fe2b 14bd
00000310: 2937 d23c 3080 a4bc 101b 2bbc 3d48 10bd
00000320: ec20 8d3d f80f 41bd c88b 7e3d c81a ef3b
00000330: e1c5 443c 7f9e 803d 3cd4 44bc a53e 30bd
00000340: c6bc 6ebc 3868 863d 7c6c 80bd eec1 a03c
00000350: 9f86 9fbd 641b 1b3d 8789 dd3c d2c8 ea3b
00000360: 313c 053d 06be 163c 7a6f fc3c 1f43 69bd
00000370: d462 92bc fccc 0b3d f09a a53d 82e2 2c3d
00000380: 1228 58bd 50d2 883d 84a3 8abc 486d 57bc
00000390: a99d 9dbd 7952 69bc 9439 4d3d 369e 523c
000003a0: 55ab 59bd 43dd c83c 987f 02bd 8aa3 903d
000003b0: 12ae 84bd c18c eabc 316a 9cbd 8b0a 04bd
000003c0: 4fed cb3c f6f8 a63d 8b65 353c a3fd a23d
000003d0: bf24 c43c 3c2d 423d 3752 843d c8e2 903d
000003e0: 67d4 4dbd 986b 9b3d db9a 393d 58c4 2cbd
000003f0: d5c8 1fbd 630d 97bd 72b4 a93c cfb5 80bd

hidden_layers.0.bias f4 [150]
0.044924445 -0.045750126 -0.054884255 0.077356204 0.06257295 0.012952182 -0.0091710845 -0.049515273
-0.045686614 -0.0047563626 0.0015938444 0.070646934 0.021959364 -0.033984594 0.032633536 -0.03431369
0.024783153 0.040723816 -0.018160578 0.016864084 -0.06811325 0.069364734 0.061520163 0.05760354
0.03093811 0.061680753 0.054634724 -0.007108071 0.0038736786 -0.08301923 0.036010504 0.014315184
-0.04018381 0.05601496 -0.016473694 0.014526299 -0.005359883 0.0828228 0.05462365 0.0827058
-0.080618165 -0.06366795 0.026951885 -0.029578965 -0.07206094 0.010154637 -0.03298992 -0.027874961
0.050398506 -0.012167321 0.056073423 -0.017864946 -0.017322356 0.06775837 -0.065405235 0.011926711
-0.03735531 -0.04596675 -0.05766239 0.07497087 -0.050508574 0.06327089 -0.058580086 0.07472599
-0.06684886 -0.07408902 0.070075616 0.031703644 0.055190213 -0.07233246 0.043031543 0.06541799
-0.05811946 -0.024787419 0.055780586 0.0036883636 0.029458642 0.0118205305 -0.00090343796 0.006457652
0.029685827 0.05018836 -0.06243678 0.050771862 -0.0637673 0.047657885 0.021557359 0.0060479986
0.042865694 -0.046405695 0.012552826 -0.010045171 0.0040034764 0.059620034 -0.0265098 0.05675522
0.03958015 -0.013250029 -0.07971326 -0.05458042 0.041952595 -0.0620575 -0.031948663 0.02054587
0.019374447 0.018735757 -0.04946373 0.035671286 0.018840931 -0.05307207 0.033539362 -0.013460055
-0.014688236 0.022431396 0.0341982 5.0807994e-05 -0.035421614 0.022723049 0.011339747 -0.012155744
0.07496117 -0.030393345 -0.07652383 -0.0550932 0.01741805 0.07514362 -0.06914644 -0.018077647
-0.031390205 0.04427322 -0.061950926 0.039921477 -0.060924605 -0.064697 -0.0293027 0.028990632
-0.04711162 -0.023000954 -0.021361079 -0.051485304 0.0030760958 0.066128574 -0.015156218 -0.07621409
0.059998754 -0.051097453 -0.022939773 -0.0012426991 -0.07603795 0.07002877
00000000: b202 383d 7c64 3bbd 50ce 60bd ee6c 9e3d
00000010: 3f26 803d 6435 543c 5142 16bc 87d0 4abd
00000020: e321 3bbd 43db 9bbb 8be8 d03a 57af 903d
00000030: 20e4 b33c 6e33 0bbd beaa 053d 838c 0cbd
00000040: 0a06 cb3c 04ce 263d 7ec5 94bc 8c26 8a3c
00000050: f67e 8bbd 190f 8e3d 91fc 7b3d b1f1 6b3d
00000060: eb71 fd3c f5a4 7c3d a9c8 5f3d d2ea e8bb
00000070: 8bdd 7d3b fc05 aabd c07f 133d 3c8a 6a3c
00000080: c797 24bd f16f 653d d7f3 86bc b7ff 6d3c
00000090: f5a1 afbb 009f a93d 0cbd 5f3d a961 a93d
000000a0: 231b a5bd 5864 82bd 33ca dc3c 964f f2bc
000000b0: b094 93bd a25f 263c 7020 07bd 085a e4bc
000000c0: aa6e 4e3d 7159 47bc 3fad 653d 8259 92bc
000000d0: 9de7 8dbc e6c4 8a3d 2ef3 85bd 4068 433c
000000e0: e201 19bd a147 3cbd 662f 6cbd 548a 993d
000000f0: 14e2 4ebd 2b94 813d acf1 6fbd f109 993d
00000100: 0ee8 88bd fcbb 97bd ce83 8f3d aedb 013d
00000110: 220f 623d 0a23 94bd d841 303d def9 853d
00000120: ac0e 6ebd fc0e cbbc 2f7a 643d 79b8 713b
00000130: 4053 f13c e6aa 413c b2d4 6cba b69a d33b
00000140: b12f f33c 4f92 4d3d b6bd 7fbd 28f6 4f3d
00000150: 6e98 82bd ea34 433d 0f99 b03c 4a2e c63b
00000160: f093 2f3d e613 3ebd 5eaa 4d3c 8094 24bc
00000170: 982f 833b 2334 743d 152b d9bc 2978 683d
00000180: cc1e 223d a616 59bc b540 a3bd b88f 5fbd
00000190: 7cd6 2b3d 0130 7ebd 9adc 02bd d04f a83c
000001a0: 29b7 9e3c bb7b 993c 7b9a 4abd 0e1c 123d
000001b0: 4c58 9a3c 1962 59bd 9260 093d 9087 5cbc
000001c0: eda6 70bc 0cc2 b73c 6913 0c3d ab1a 5538
000001d0: 4116 11bd b025 ba3c 59ca 393c e328 47bc
000001e0: 3e85 993d 77fb f8bc 87b8 9cbd 68a9 61bd
000001f0: 4cb0 8e3c e6e4 993d a69c 8dbd 9317 94bc
00000200: 0493 00bd d657 353d 41c0 7dbd b484 233d
00000210: 148c 79bd dc7f 84bd 370c f0bc c37d ed3c
00000220: 1df8 40bd 7f6c bcbc 6efd aebc 41e2 52bd
00000230: 5398 493b 6b6e 873d c951 78bc 2216 9cbd
00000240: 41c1 753d 904b 51bd 31ec bbbc 10e2 a2ba
00000250: c9b9 9bbd 3e6b 8f3d

output_layer.weight f4 [1, 150]
-0.04994652 -0.030006656 -0.025302432 0.048253473 0.057663128 0.033053163 0.08381207 0.05076032
-0.0057423483 -0.028240366 0.06444629 -0.07919314 -0.0064580054 -0.035728384 -0.041979108 0.01875054
-0.0440216 -0.06830256 -0.044681787 0.056661807 -0.07803266 -0.062901236 0.064393446 -0.017994737
0.06246855 0.030547263 0.018968955 0.06231794 0.070468 -0.034229115 -0.016940264 0.0727135
-0.07686936 -0.07078564 0.047829736 -0.06618885 0.023056807 -0.03600517 -0.06614346 0.06801294
0.054551035 -0.07460082 0.02513527 -0.0042584077 -0.039195254 0.054473884 -0.010819185 -0.025430612
-0.06858266 -0.020037275 0.049850795 0.02842814 0.01310149 0.03493273 0.053890206 -0.0075617563
-0.070963815 -0.052630607 0.05150542 0.055343643 0.060068723 -0.04032093 -0.04823979 0.06777718
-0.076897725 0.073758505 -0.06620774 -0.018324008 0.027432105 0.027633257 0.07003023 0.029245468
-0.06997723 0.038963057 -0.019489288 0.063093625 0.051428635 0.011537842 0.0372603 -0.041214094
-0.07184947 -0.051325213 -0.054681744 -0.056018334 -0.068464704 0.044971775 -0.039528158 0.05977104
-0.03685367 -0.03603276 -0.073708445 -0.068555295 0.05217353 0.030191809 -0.024065763 -0.013438038
-0.068269484 0.06914513 0.07842175 -0.04858194 0.043556664 -0.065330885 -0.053913023 -0.0037004864
-0.044650294 -0.07265953 -0.04038957 -0.0688543 0.021837767 -0.044382636 0.06442212 0.04518324
0.070099816 -0.060008712 0.050035037 0.063372165 0.010523932 -0.01638345 0.035024583 0.016460367
-0.03172307 -0.07404145 -0.067628354 0.11782765 0.05173408 0.009098289 -0.0291098 0.036166754
-0.020879414 0.05360379 -0.051756147 0.058091205 -0.055460162 0.033717643 0.02149035 0.08180179
0.077893324 -0.068570636 0.04874086 -0.06995368 -0.034561712 0.02540759 -0.04951002 0.06342639
0.08726519 0.011760773 0.034458414 -0.066302024 0.03023653 0.06354811
00000000: b994 4cbd 85d0 f5bc 0c47 cfbc 6fa5 453d
00000010: 2c30 6c3d c162 073d aaa5 ab3d 0eea 4f3d
00000020: 4f2a bcbb 5758 e7bc 6bfc 833d 0330 a2bd
00000030: ad9d d3bb ed57 12bd 49f2 2bbd bc9a 993c
00000040: fe4f 34bd 36e2 8bbd 4004 37bd 3616 683d
00000050: 96cf 9fbd 5dd2 80bd b6e0 833d b369 93bc
00000060: 06df 7f3d 413e fa3c c864 9b3c 1941 7f3d
00000070: 8751 903d d433 0cbd 4fc6 8abc d1ea 943d
00000080: af6d 9dbd 10f8 90bd 1de9 433d 058e 87bd
00000090: a1e1 bc3c 287a 13bd 3976 87bd 5e4a 8b3d
000000a0: e870 5f3d 51c8 98bd 7be8 cd3c 1d8a 8bbb
000000b0: 348b 20bd 0220 5f3d f342 31bc dc53 d0bc
000000c0: 1175 8cbd 3625 a4bc 5930 4c3d 21e2 e83c
000000d0: a2a7 563c 9f15 0f3d fabb 5c3d 9cc8 f7bb
000000e0: 7a55 91bd 3193 57bd 59f7 523d 04b0 623d
000000f0: 9f0a 763d 8f27 25bd 1697 45bd c3ce 8a3d
00000100: 8e7c 9dbd b30e 973d ec97 87bd 3b1c 96bc
00000110: 4bb9 e03c 245f e23c 026c 8f3d 3194 ef3c
00000120: 3950 8fbd ba97 1f3d 00a8 9fbc 3b37 813d
00000130: d5a6 523d 3809 3d3c 429e 183d 1cd0 28bd
00000140: d125 93bd 633a 52bd f7f9 5fbd 7b73 65bd
00000150: 3937 8cbd 5334 383d 47e8 21bd 7ad2 743d
00000160: e0f3 16bd 1697 13bd 74f4 96bd b866 8cbd
00000170: e9b3 553d d054 f73c 9025 c5bc 372b 5cbc
00000180: dfd0 8bbd f69b 8d3d 959b a03d dbfd 46bd
00000190: 7968 323d 33cc 85bd e7d3 5cbd dc83 72bb
000001a0: 3ae3 36bd 85ce 94bd 896f 25bd 7c03 8dbd
000001b0: 1ee5 b23c 91ca 35bd bfef 833d 1012 393d
000001c0: 7e90 8f3d b2cb 75bd 8af1 4c3d 44c9 813d
000001d0: 926c 2c3c 9636 86bc f075 0f3d e4d7 863c
000001e0: 0df0 01bd 0ba3 97bd bc80 8abd 9f4f f13d
000001f0: 1de7 533d fd10 153c ad77 eebc 9723 143d
00000200: 4e0b abbc a68f 5b3d 41fe 53bd 0bf1 6d3d
00000210: 322a 63bd 831b 0a3d 880c b03c b287 a73d
00000220: 8986 9f3d c36e 8cbd 7fa4 473d e043 8fbd
00000230: 9590 0dbd 9423 d03c 05cb 4abd b2e5 813d
00000240: 18b8 b23d 42b0 403c 4424 0d3d 5bc9 87bd
00000250: 99b2 f73c 8325 823d
