param/pde_iter1500_10_150_2.pth (torch, 95303 bytes, 5 tensors)

input_layer.weight f4 [150, 2]
000000 14 1a 09 3f a6 a8 15 3f 3e 9e 25 be 9f 8f 26 3f
       0.5355542 0.5846046 -0.16173646 0.650629
000010 9c b7 12 be b4 de 0a 3e a1 9c af be 9a 33 d2 3e
       -0.14327854 0.13561517 -0.34299186 0.41054994
000020 0f b1 1f 3f 4e 75 04 bf fd 39 1d 3f 9c 0a 0f 3e
       0.62379545 -0.5174149 0.6141661 0.13968891
000030 b4 f5 04 3f 0d bf c5 3d dc 98 a8 3e a8 6c cf bd
       0.51937413 0.09655581 0.32929122 -0.101281464
000040 72 48 0c 3f f2 93 d4 3d 82 35 a4 be 17 94 40 3e
       0.5479804 0.10379781 -0.32072073 0.18806492
000050 8a 86 9e be d9 2c ac bd 92 77 8f be e0 d4 f2 3e
       -0.3096202 -0.084069915 -0.28020912 0.47428036
000060 27 9c 0e bf 31 a0 a5 be b7 25 4f be cc 9e d7 be
       -0.5570702 -0.3234878 -0.20229231 -0.4211334
000070 98 61 82 3d e3 a6 2f bf 86 70 23 3f df 91 19 bf
       0.06366271 -0.68614024 0.6384357 -0.59988207
000080 b6 50 0c 3f 79 a2 e6 3d c3 80 7f be 50 6c db 3e
       0.54810655 0.11261458 -0.24951462 0.42856073
000090 b7 14 be 3d 2e 6a 10 3f a6 d4 a6 3d 45 0a 68 be
       0.09281295 0.5641202 0.08146028 -0.22660168
0000a0 77 c6 35 3e 49 e9 4d be b8 e2 98 3e fc da 1f 3f
       0.1775149 -0.20108522 0.29860473 0.6244352
0000b0 d6 e0 cb 3e 4e e7 9d be f1 27 c9 3e 79 a1 fd 3d
       0.39819974 -0.30840534 0.39288285 0.12384314
0000c0 49 93 b5 3e 7f 55 db be ee 95 30 bf 35 bc 90 be
       0.35463932 -0.42838666 -0.68978775 -0.2826859
0000d0 73 29 0b bf 69 68 14 3f 5b 84 53 3e 08 7f 94 3e
       -0.5436012 0.5797182 0.20655958 0.29003167
0000e0 55 ca 5a 3e c2 be 4e bc 86 08 0d 3f 19 c5 01 bf
       0.21366246 -0.012618722 0.5509113 -0.5069137
0000f0 7f 11 39 3d 21 20 f7 be f4 e6 5d 3e 90 d6 72 be
       0.0451827 -0.482667 0.21670133 -0.23714662
000100 d2 14 4d 3e 4b ed 20 be 2a fe 11 3f 7b a4 d1 be
       0.20027474 -0.1571552 0.5702845 -0.409458
000110 59 2c d9 be b8 09 d7 be e8 9b 22 3f 90 aa 79 3e
       -0.42416647 -0.41999602 0.63519144 0.2438147
000120 e7 57 2b 3f 7d 20 11 bf 39 8a 31 bf 43 30 08 bf
       0.66931003 -0.566902 -0.69351536 -0.5319864
000130 ab b7 f5 be 83 af 93 3e 00 46 7b 3e f8 c8 15 3f
       -0.4799169 0.28844842 0.24538422 0.5850978
000140 4f 47 bc be e9 40 f8 be aa 24 bf 3e 6a ae 93 be
       -0.36773154 -0.48487023 0.3733266 -0.28844005
000150 c1 83 e0 3e 4e 62 2a be 9c f3 d2 3e cc a4 07 bf
       0.4385052 -0.16639063 0.41201484 -0.52985835
000160 f7 f3 b1 be 77 25 5e 3e 09 95 15 3e ae a3 32 be
       -0.34756443 0.21693979 0.14607634 -0.17445251
000170 08 1f da 3e 92 47 f5 3e a7 09 02 bf 5d 58 c0 be
       0.426018 0.47906166 -0.5079598 -0.37567416
000180 1a bf 24 3f 0e 25 76 be b4 41 7a be 1f a4 2b bf
       0.643541 -0.24037573 -0.24439126 -0.67047304
000190 d6 4e c8 be 23 8f 37 3e 38 88 b8 bd 06 f4 03 bf
       -0.39122647 0.17925696 -0.09010357 -0.51544225
0001a0 90 95 87 3c c0 88 f2 be 81 7d 18 bf 72 dc c0 be
       0.01655081 -0.47369957 -0.59566504 -0.37668186
0001b0 d9 b8 1c bf 25 6e e2 be b7 56 31 3f c3 f1 01 3e
       -0.61219555 -0.4422466 0.6927294 0.12689881
0001c0 2e a3 60 3e 92 a2 25 bf 7f 28 f1 be fc 0a 77 be
       0.21937248 -0.6470119 -0.4710121 -0.24125284
0001d0 1e b7 e6 3d a6 74 1c bf 1f 74 92 be 7f 98 d7 be
       0.112653956 -0.6111549 -0.28604218 -0.42108533
0001e0 5a ce 02 bb 4a c2 86 be f9 ea 3d bd 56 17 f7 be
       -0.001995942 -0.26320106 -0.046366666 -0.4825999
0001f0 b2 93 fb be 13 4e d1 be 82 e5 72 be 30 df 0b bf
       -0.4913612 -0.40879878 -0.23720363 -0.5463743
000200 08 c6 15 3f a9 77 11 be b3 62 18 3f 66 df 62 3e
       0.58505297 -0.14205803 0.59525603 0.22155532
000210 23 3e 18 bf 38 f7 ff 3e 7a b9 42 be 3e a3 8a be
       -0.59469813 0.499933 -0.19016066 -0.2707767
000220 8f 27 12 bf 60 dd 31 bf 41 56 4b 3e 58 68 16 be
       -0.5709161 -0.69478416 0.19857122 -0.14688241
000230 c8 33 8f 3e 77 ff 13 bf ef c4 04 3f ea 81 03 bf
       0.27969193 -0.57811683 0.51862997 -0.5137011
000240 f5 bd d1 bd 97 69 1b 3e 5f 0b bc 3e 27 1c 11 3f
       -0.102413096 0.15176998 0.36727425 0.5668358
000250 3f 9f 21 3f fc 4e 0b bf 1b b4 29 3e bb 86 99 be
       0.63133615 -0.54417396 0.16572611 -0.29985604
000260 fd e3 c3 bd 5f af 08 bf f7 44 21 3f 34 cc 04 bf
       -0.0956497 -0.53392595 0.62995857 -0.5187409
000270 4d 7e be 3e 4f 6f 6c 3e 17 28 78 3e 45 3b c2 be
       0.37205735 0.23089336 0.24234043 -0.37935844
000280 34 81 23 3f b5 fd 1d 3e bb 2e b8 3d 80 ed 1e bf
       0.63869023 0.15428813 0.08993288 -0.62081146
000290 84 79 94 3e 89 b0 cd bd 17 5a a5 be c0 04 1b 3f
       0.2899896 -0.10043437 -0.32295296 0.6055412
0002a0 0c b3 24 3e c8 af c7 be ef 1a b8 be 49 d4 13 bd
       0.16083926 -0.39001298 -0.3595805 -0.036091123
0002b0 2d cd c5 3e 4d 8c 36 be e6 39 ca be 5c b3 76 be
       0.386331 -0.17826958 -0.39497298 -0.24091858
0002c0 09 ed 05 bf 0b 7c 82 3e f2 94 0a 3f 4a 4c 25 bf
       -0.5231481 0.25485262 0.5413352 -0.6456953
0002d0 f1 6c 2b 3e d7 a5 ba 3e e0 81 04 3e ab 2e 82 be
       0.16740777 0.3645465 0.12940168 -0.2542623
0002e0 2f da bb 3e 64 f2 c5 3e 2a 37 81 3e cd 1a 03 be
       0.36689898 0.38661492 0.252374 -0.12803192
0002f0 da f6 2c be b4 2d 98 3d cb f1 06 be d4 5d 62 be
       -0.16891041 0.07430592 -0.13178174 -0.22106105
000300 03 72 e1 3e 32 ee 18 3f 4c f7 92 bd ae ce 18 be
       0.44032297 0.5973846 -0.071760744 -0.14922592
000310 0a 61 9a 3c 1a 5b 10 bd be c2 2f 3e e7 9e 47 3e
       0.0188451 -0.03524313 0.17164132 0.1949421
000320 47 72 20 bf fe 72 85 be 9f b9 17 3f db d2 83 3e
       -0.62674373 -0.26064295 0.5926761 0.25746807
000330 52 53 16 bd d6 fb d5 be 04 4f da be f1 a0 1e bf
       -0.036700554 -0.41793698 -0.4263841 -0.6196433
000340 e6 89 6e be 39 00 70 3e ba 58 e2 3e 08 be a4 3e
       -0.23294792 0.23437585 0.44208318 0.32176232
000350 59 15 1f bf 8a e9 d7 be 9e 04 ef bd 00 05 2f 3f
       -0.6214195 -0.42170364 -0.116708025 0.68367004
000360 2d 67 d9 3d 30 25 39 be 54 c8 94 3e 06 47 89 be
       0.10615382 -0.18080592 0.29059088 -0.26812
000370 f6 35 eb be 8a 58 00 3f 8b 89 a2 be 8a b3 08 be
       -0.45939606 0.501351 -0.31745562 -0.13349739
000380 82 3f 33 bf 8e 4b ef 3e fb 1b 06 3f c9 d7 80 3e
       -0.7001878 0.4673733 0.52386445 0.2516463
000390 fb 30 ff be 60 81 30 bf 19 48 12 bf 70 ba 06 3f
       -0.49842057 -0.6894741 -0.5714126 0.5262823
0003a0 98 46 ab 3e 9c 65 16 3f 79 d3 b7 3e 0a 5f 36 3e
       0.33452296 0.58748794 0.35903528 0.17809692
0003b0 b0 b9 56 bc ac 4e 07 bf 20 3c 19 bf 0f b2 27 bf
       -0.013105795 -0.5285442 -0.5985737 -0.6550607
0003c0 d6 64 93 3e eb b0 ae be e5 3b 17 be 93 c7 d0 be
       0.2878787 -0.34119353 -0.14768942 -0.40777263
0003d0 07 0e 0a be 4e 46 fc be 19 96 ee be 6d 7c 6e 3e
       -0.13481914 -0.49272388 -0.4659889 0.23289652
0003e0 ae 75 55 be ec c5 db 3e ce 0a 70 be 2c 93 04 bf
       -0.20845672 0.4292444 -0.23441622 -0.51787066
0003f0 39 76 ef bd 1c bc ac be fc 95 55 be 60 ac 29 bf
       -0.11692471 -0.33737266 -0.20857996 -0.6627865

input_layer.bias f4 [150]
000000 10 b6 96 3c 52 4c 0f be f2 85 78 be d7 eb af be
       0.018397361 -0.13993958 -0.24269846 -0.3435962
000010 a1 df 14 bf ed 3a 15 3f f5 8d 8f be b0 28 3c 3e
       -0.5815373 0.5829304 -0.28037992 0.18374896
000020 58 f5 76 be 68 26 83 3d c4 d0 27 3f d5 fe a6 3e
       -0.24117029 0.0640381 0.65552926 0.32616296
000030 a8 a4 1b bf 72 3e 8f 3e 82 11 2d 3f 40 40 43 3e
       -0.6079812 0.2797733 0.6760484 0.19067478
000040 ab c9 f4 3e ad a6 32 3f 0a 82 ec bd e5 c1 14 3e
       0.4781011 0.6978558 -0.115482405 0.1452709
000050 c0 6d f9 be 42 f9 11 be d6 28 06 3f 05 2a ba 3e
       -0.48716545 -0.1425524 0.5240606 0.36360183
000060 3f 94 e4 be 95 2d 11 bf de 74 f9 be 45 bf 33 bf
       -0.44644353 -0.5671018 -0.48721975 -0.7021373
000070 25 09 0c bf 34 46 3a be 54 18 f5 3e ea 4b f9 3d
       -0.54701453 -0.18190843 0.47870123 0.121726826
000080 7a 5e 0a bf c5 fe 0f bf a8 e4 b0 3e 24 4a 05 bf
       -0.5405041 -0.5624812 0.3454945 -0.52066255
000090 0f 80 b7 bd 3b b2 b2 3e 3b aa a9 be 15 4f a5 bd
       -0.08959972 0.34901604 -0.33137688 -0.08071724
0000a0 e2 ab 7d bd 9e f3 2b be d8 cd b7 be 86 bc 22 bf
       -0.0619315 -0.16792151 -0.35899234 -0.63568914
0000b0 42 37 14 bf 31 13 c1 be a6 41 2f 3f 21 ee ac be
       -0.57896817 -0.37709954 0.68459547 -0.33775428
0000c0 ea dc f2 be 19 82 32 3e c2 e7 47 3e 96 9f c5 3e
       -0.4743417 0.17432441 0.19522002 0.38598317
0000d0 f1 37 0a 3f 87 f3 c8 3e 09 fe 32 bf 99 f7 70 3d
       0.5399161 0.39248297 -0.69918877 0.058829878
0000e0 84 60 d8 3e cd 42 7d bd e8 8b d3 be 40 36 2b 3f
       0.42261136 -0.061831284 -0.41317677 0.66879654
0000f0 e4 ed 86 be 96 57 cb be b5 ea 21 bf 9c 21 01 3d
       -0.2635337 -0.3971526 -0.6324876 0.031526193
000100 ef f6 9f 3e 8b 36 21 3e dd 27 14 3e b6 aa 0a bf
       0.31243083 0.15743463 0.14468332 -0.54166734
000110 f5 f6 28 bf f1 eb f9 3b 8c b1 25 3f ae ad cf 3e
       -0.66001827 0.0076270034 0.6472404 0.40562195
000120 1f d8 cf be c2 c0 b8 bd 82 b3 04 bf 0b d0 b4 be
       -0.40594575 -0.09021141 -0.5183641 -0.35314974
000130 9b 1f 00 3e 1b 8e c7 3e d3 54 16 3f c4 29 27 bf
       0.12512057 0.38975605 0.5872318 -0.65298104
000140 00 6f f4 3e 33 fe 01 bf 09 52 89 3e 11 d8 19 3f
       0.47740936 -0.507785 0.268204 0.60095316
000150 f0 cb a5 3b 14 11 25 3f 8d 9d 1a bf 5a 44 89 be
       0.0050597116 0.64479184 -0.60396653 -0.2680996
000160 5b 75 d5 3e 1d a1 1b be fa d8 19 be 0a aa 97 be
       0.41691098 -0.15198179 -0.15024176 -0.29621917
000170 cb 9c f7 3e 56 79 b0 3e 57 10 66 3e 26 a5 ce be
       0.4836181 0.34467572 0.2246717 -0.40360373
000180 ee f0 11 bf 1a f4 8a 3d 3f da 51 3e 7b f2 a7 be
       -0.57008255 0.0678484 0.2049341 -0.32802185
000190 7a fa 47 be fb 9a f4 3e b3 d7 76 3d 3f 94 1c 3d
       -0.19529143 0.4777449 0.0602643 0.038227316
0001a0 08 9f 36 be b8 0e 24 bf 3a ef 2a bf 10 91 ad be
       -0.17834103 -0.6408496 -0.6677128 -0.33899736
0001b0 59 bc b5 be 53 a0 5e 3e 81 ad 51 be 0c 1a 8c be
       -0.3549526 0.21740846 -0.20476343 -0.27363622
0001c0 d5 80 2d 3f 0d d0 79 3e 49 03 03 3f 7a 78 af be
       0.6777471 0.24395771 0.5117689 -0.34271604
0001d0 de 87 94 be 44 7c 86 3e f8 3b f6 be ba 61 ec be
       -0.29009908 0.26266682 -0.48092628 -0.4616831
0001e0 6e bb 1f bd 75 ec 83 be 51 c4 07 bf a2 af d4 3e
       -0.038997106 -0.2576634 -0.5303393 0.41540247
0001f0 29 a0 11 3f 3a db e2 3d 95 a8 f5 bd d5 e9 25 bf
       0.5688501 0.110769704 -0.11995045 -0.64809924
000200 8b 88 86 be 4f 23 37 3e 3e e2 ad 3e d9 d1 b8 bd
       -0.2627605 0.17884563 0.33961672 -0.090244
000210 02 7b 92 be 67 8c cc 3e ea 72 0f bf 2a e2 df 3e
       -0.28609473 0.39950868 -0.5603472 0.43727237
000220 d8 57 8e be 70 f2 7d 3c 7d d5 0f be bf dc ac 3d
       -0.27801394 0.015499696 -0.14046283 0.084405415
000230 ba fa 5d be 58 b9 03 3f f3 49 b6 bc 82 b2 0d 3f
       -0.21677676 0.5145469 -0.022252059 0.55350506
000240 6b 4a 2d 3f de ff ae be 41 75 01 bf 51 ab 11 3f
       0.6769168 -0.34179586 -0.5056954 0.56902033
000250 98 3b 0f 3f ae 08 0b bf
       0.5595031 -0.5431012

hidden_layers.0.weight f4 [150, 150]
000000 76 be 75 bc d7 f8 9b bd 34 9f 81 bd 0b b9 a0 3c
       -0.014999023 -0.07615822 -0.06329194 0.019619485
000010 7b d4 23 3c c7 8b 4a 3c e6 c0 b3 bc 0e e1 94 3d
       0.00999939 0.012362427 -0.021942567 0.07269488
000020 5f 22 6e 3c 93 2c 4e bd 12 95 a4 b9 49 e6 df 3c
       0.014534562 -0.050335478 -0.00031391584 0.027331488
000030 04 5f 09 3d d6 26 7a bd 2d f5 f3 3c 2f 41 01 bd
       0.03353788 -0.061072193 0.029779995 -0.031556305
000040 22 b9 92 bd 75 d2 1e bd 48 16 93 3d 74 9e 90 3d
       -0.071642175 -0.038774926 0.07181984 0.070614725
000050 b2 c7 a0 3d eb 19 29 3d 82 c0 7e 3d e4 28 6a bc
       0.07850589 0.041284483 0.06219531 -0.014291976
000060 98 43 2a bd b5 e4 3a 3d 7a 51 3a bd fb 28 76 bd
       -0.04156837 0.04562827 -0.04548786 -0.060097676
000070 23 8d f9 bc 47 7a 5c 3c 59 69 50 3d 57 f3 c5 bc
       -0.030462807 0.013456888 0.050881717 -0.024163885
000080 8a 05 38 bd d7 58 f9 bb 9d ea 5a bd f9 f4 7e bd
       -0.044927157 -0.0076094675 -0.0534464 -0.062245343
000090 df f8 05 3d 4a 41 f9 bc 7b c4 90 3d 98 1b 92 3d
       0.032708045 -0.03042664 0.07068726 0.07134169
0000a0 a7 49 c3 3c 96 21 ce 3c 56 9f 89 3c 15 32 11 bb
       0.023838831 0.0251625 0.01679961 -0.0022155095
0000b0 79 40 21 bc 26 09 c5 3b 49 e0 1a 3d 38 ff 8c 3d
       -0.009842032 0.0060130535 0.03781155 0.068846166
0000c0 9a d8 cc bc 10 10 f4 bc 16 48 8e bc 91 36 38 bd
       -0.025005627 -0.029792815 -0.017368358 -0.044973914
0000d0 25 46 d5 3c b9 da 7d 3d 2d 33 5f 3d af 69 f7 3c
       0.026034424 0.06197617 0.054492164 0.030201761
0000e0 5b c6 6a bd f7 2a 10 bd 15 07 ca bc 7d 10 56 bc
       -0.057318073 -0.035197224 -0.02466158 -0.013065455
0000f0 35 e4 84 3b 05 56 8a bd 7b 1a a5 3c cf a2 55 bd
       0.0040555247 -0.06754688 0.020154228 -0.05215722
000100 76 7f 4f bd b0 6d 74 bd f4 d0 9c 3d 52 f9 a7 bd
       -0.050658666 -0.05967492 0.07657042 -0.08201851
000110 c5 aa 52 3d ad a5 d4 3a a6 c2 a0 bc 47 36 2b 3d
       0.05143239 0.0016223692 -0.019624066 0.04179981
000120 c9 af a6 bb 87 89 32 3d 4c a0 54 3d 27 f9 92 bd
       -0.005086873 0.043588188 0.051910684 -0.07176428
000130 c0 6d 1b 3d 77 8c e7 3b 2d d7 83 3c d9 47 5e 3b
       0.037946463 0.0070663053 0.016093815 0.0033917336
000140 f4 69 3f 3c 03 62 26 bd 9a 77 78 bc 8c db 8d 3d
       0.011682976 -0.040620815 -0.015165234 0.06926641
000150 58 d6 7f 3d ba 89 d5 3a 52 1e 9d bd aa 7d 50 bb
       0.062460274 0.0016291656 -0.07671799 -0.0031813183
000160 ad bd 41 bd 93 ef 6f 3d c6 1d 58 bd bb 05 2c bc
       -0.04730003 0.058578085 -0.05276277 -0.010499413
000170 06 39 d7 bc 51 06 1b 3c 74 79 a3 3d 52 af 0c 3c
       -0.026272308 0.009461955 0.0798215 0.0085867215
000180 2f 56 1d 3d d6 b8 85 3d 83 15 8e 3d 00 dd dc bc
       0.03841227 0.06529395 0.06937697 -0.02696085
000190 0f 80 ec bc 9c c8 01 3d fb 62 9b bc 2d 8b 42 3d
       -0.028869657 0.031685457 -0.018968096 0.04749601
0001a0 a9 1d 81 bc 97 7d 55 bd d3 cb 9e 3c e8 17 2b 3c
       -0.015761213 -0.052121725 0.0193843 0.010442711
0001b0 3d cf 1f 3d 59 fa 9e 3d 4b 45 63 3d 1b 85 9f 3d
       0.039015997 0.07762594 0.055486005 0.0778906
0001c0 25 fb 2c 3b 1c a7 81 bd 3b 71 3f bd 52 c2 37 bd
       0.002639481 -0.06330702 -0.046738844 -0.044863053
0001d0 1c 35 81 bd e0 73 1c bd 2f 04 74 bd d3 39 84 bd
       -0.06308958 -0.038196445 -0.059574302 -0.064563416
0001e0 d6 c0 36 bd 71 bf 93 bd 71 3a 4d bd 73 9f 0a 3d
       -0.044617496 -0.07214249 -0.050104562 0.03384347
0001f0 04 f5 7a 3d 04 51 96 bc 0e 0c cf bc 3d 68 11 3d
       0.06126882 -0.018349178 -0.025274303 0.0354998
000200 41 1c 34 bd a6 a7 0d bd 30 8a 37 3d e2 53 96 bd
       -0.043972258 -0.03458371 0.04480952 -0.07340218
000210 37 97 a1 3c 5b a8 8d 3d d8 c6 53 3c 36 68 d0 3c
       0.019725425 0.06916877 0.012925826 0.025440317
000220 5d 7b 1f bd 46 38 c4 3a 79 ed 4e 3c 04 fd b2 3c
       -0.038936008 0.0014970384 0.01262986 0.021849163
000230 f0 87 f9 3c fc b3 8e 3d 8a 80 79 bd 7e ef 51 3c
       0.030460328 0.06967923 -0.0609136 0.012813447
000240 de ab 39 bd a0 63 82 bd 91 07 d9 3b 52 5a 86 bd
       -0.04532992 -0.06366658 0.0066232164 -0.06560196
000250 da e8 59 3d a4 69 de 3b 41 30 2c bd 64 d1 34 3d
       0.05320058 0.0067874957 -0.042038206 0.044145003
000260 35 c9 74 bd 2a a6 04 bd 91 64 39 bc ca e5 8f bd
       -0.0597622 -0.03238503 -0.011315481 -0.07026251
000270 66 f8 52 bd 2f 27 a7 bc 42 35 96 3d f1 e1 94 3d
       -0.051506422 -0.020404426 0.07334377 0.072696574
000280 af b4 45 3d 7a 54 40 bd 10 ed 41 bd 9f 77 3b 3d
       0.048268016 -0.046955563 -0.04734522 0.045768376
000290 f5 83 e9 3c 2f 82 11 bc 14 36 56 39 01 cc 90 bd
       0.028505305 -0.008881136 0.00020428776 -0.07070161
0002a0 a4 36 db bc 9c da a5 3d 68 e6 4f bc c9 45 cb bb
       -0.026759453 0.08098337 -0.0126892105 -0.0062033874
0002b0 99 82 85 bd 56 b4 2c bd f5 71 8b 39 07 05 47 bd
       -0.0651905 -0.04216417 0.0002659705 -0.04858878
0002c0 55 96 45 bb 1f ae 28 3d b1 b9 92 bd 06 9c d9 3c
       -0.003014942 0.04118168 -0.07164324 0.026563656
0002d0 ff 1e 6d bd 7e 72 16 bd 70 7c 23 3d 0b ac 84 3d
       -0.05789089 -0.036730282 0.039913595 0.06478127
0002e0 2d c0 a5 bc 4a bf 1e bd 5d 47 85 bd 87 f4 5f bd
       -0.020233238 -0.038756646 -0.06507752 -0.05467656
0002f0 79 8f 9b bd ce db 53 bc a3 44 49 3c 28 3a 99 bd
       -0.075957246 -0.0129308235 0.012284431 -0.074817955
000300 1a e0 84 3d db 9a 45 3d 0a b1 a5 bd c3 70 17 bd
       0.064880565 0.048243385 -0.08090408 -0.036972772
000310 42 51 c9 3c 07 a5 a9 bc 4c bf 18 bc 7b 77 10 bd
       0.02457488 -0.020708574 -0.0093229525 -0.035270195
000320 05 8d 8a 3d 99 ff 3e bd 12 9e 77 3d 4d 00 25 3c
       0.067651786 -0.046630476 0.060453482 0.0100708725
000330 27 be 4e 3c 55 23 83 3d 73 10 59 bc 6a 57 2e bd
       0.012618578 0.064032234 -0.013248551 -0.042563833
000340 0c d6 76 bc d6 03 89 3d 0f 1e 83 bd c1 fe 9a 3c
       -0.015065681 0.06690185 -0.064022176 0.018920304
000350 9e f1 9a bd b8 34 1c 3d ed a6 cf 3c 74 be 11 3c
       -0.07565616 0.038136214 0.025348151 0.008895505
000360 00 80 03 3d 12 cb 16 3c b4 26 c0 3c 95 52 67 bd
       0.032104492 0.009203689 0.023455955 -0.05647524
000370 15 73 7f bc af 84 07 3d 14 af a2 3d d1 0d 29 3d
       -0.015591403 0.03308552 0.0794355 0.041272942
000380 25 47 5e bd 83 b3 88 3d 4c d1 8e bc 48 d2 52 bc
       -0.054267067 0.06674864 -0.017433785 -0.012867518
000390 ed b3 9d bd 82 93 65 bc cf 3f 43 3d fa d8 4f 3c
       -0.07700334 -0.014012219 0.047668274 0.012686009
0003a0 7d 11 58 bd 1c 3e db 3c 9a b1 0d bd 26 e0 8f 3d
       -0.052751053 0.026763014 -0.034593202 0.07025175
0003b0 15 78 83 bd 39 a0 eb bc 4e e7 98 bd b7 25 04 bd
       -0.06419388 -0.028762924 -0.07465993 -0.03226253
0003c0 06 24 c9 3c eb 70 a5 3d ee f5 3a 3c 45 eb a5 3d
       0.02455331 0.08078178 0.011411173 0.08101515
0003d0 3c 6e ca 3c c8 df 43 3d 92 93 81 3d 05 0e 92 3d
       0.024710767 0.047820836 0.06326975 0.0713158
0003e0 e5 3e 50 bd 9d a1 9b 3d 97 d1 38 3d fa 1c 2e bd
       -0.05084123 0.07599185 0.045121755 -0.042508103
0003f0 fb 73 22 bd 66 ed 97 bd 3a 29 ac 3c 12 c3 7f bd
       -0.03966139 -0.07418327 0.021015752 -0.062441893

hidden_layers.0.bias f4 [150]
000000 48 83 3d 3d 87 5d 3a bd a7 2e 65 bd d2 9a 99 3d
       0.046267778 -0.04549935 -0.055952694 0.07500233
000010 25 04 82 3d 08 ed 43 3c 51 f0 97 bb 8e e3 4f bd
       0.06348447 0.011958368 -0.0046368022 -0.050754122
000020 3c 47 39 bd 8f 0c 51 bb 87 ad a9 bb 94 30 90 3d
       -0.04523395 -0.0031898355 -0.005178157 0.070405155
000030 d6 95 b9 3c a2 89 0d bd 3f d8 fd 3c c7 e8 10 bd
       0.022654455 -0.034555085 0.030986903 -0.035378244
000040 6f 73 ba 3c ca a7 23 3d 45 49 8c bc 4b d1 79 3c
       0.022760121 0.039954938 -0.017124781 0.015247653
000050 e3 8d 8a bd ff 8d 8c 3d 7c 57 7d 3d 9b 24 6d 3d
       -0.06765344 0.06863021 0.06185101 0.057896238
000060 ce 42 fc 3c 8c 17 76 3d 4d f7 56 3d 83 38 b7 bb
       0.030793574 0.06008105 0.05248194 -0.0055914535
000070 46 f3 a8 3b 2e 08 b0 bd 41 15 16 3d f5 f8 8a 3c
       0.0051559536 -0.0859531 0.036641363 0.016964415
000080 c7 16 2a bd a5 11 6b 3d c6 83 84 bc b8 cd 70 3c
       -0.04152563 0.057389874 -0.016176116 0.014697485
000090 47 43 b5 bb cd 90 ad 3d 2b 05 64 3d 59 4e a9 3d
       -0.0055317017 0.08474884 0.05566899 0.08266897
0000a0 7a f4 aa bd aa 6f 7d bd f6 4f d3 3c 62 80 f7 bc
       -0.083474115 -0.06187407 0.025794964 -0.030212585
0000b0 b8 4e 8e bd 50 89 21 3c 24 fb 05 bd 88 dd 0b bd
       -0.06948608 0.009859398 -0.03271021 -0.034146816
0000c0 0d b7 50 3d 02 4c c9 bb 9a 57 5a 3d e9 f8 8d bc
       0.05095582 -0.006143094 0.0533062 -0.017330604
0000d0 66 ac 8e bc 83 bb 8b 3d 8c 78 86 bd 5d 99 3a 3c
       -0.01741619 0.068228744 -0.06565961 0.011389104
0000e0 c5 d2 15 bd 7e 9e 44 bd a9 ab 4f bd 8b d3 99 3d
       -0.03657796 -0.048002712 -0.050700817 0.07511052
0000f0 85 01 50 bd 30 94 88 3d 7d c1 70 bd a7 99 9b 3d
       -0.0507827 0.066688895 -0.058778275 0.07597666
000100 75 97 86 bd 8d 38 98 bd 1a 96 91 3d a1 1f e8 3c
       -0.06571857 -0.07432661 0.07108708 0.028335394
000110 f5 30 65 3d 1c 6f 93 bd 2c df 2e 3d b1 30 89 3d
       0.055954892 -0.07198927 0.042693302 0.0669874
000120 e3 8f 72 bd b0 4f d2 bc b5 65 64 3d a9 6e 77 3b
       -0.059219252 -0.025672764 0.055761058 0.0037755168
000130 47 2c e4 3c 9b cf 23 3c 9d f4 ae b8 f1 ac 09 3c
       0.027853144 0.0099982275 -8.342529e-05 0.008403049
000140 a6 b1 f5 3c ec 5b 50 3d 26 38 7a bd fa 28 4c 3d
       0.029991936 0.050868914 -0.061088704 0.049843766
000150 a9 5b 83 bd ce d6 52 3d f1 4b c3 3c 19 76 ef 3b
       -0.06413967 0.051474385 0.023839923 0.0073077795
000160 0b 6a 3f 3d fd 39 3d bd 5e 5e 4d 3c 33 66 23 bc
       0.04673199 -0.04619788 0.012534706 -0.009973097
000170 fd 2f 3f 3b 06 03 70 3d 21 11 da bc 43 66 67 3d
       0.002917289 0.058596633 -0.026619496 0.05649401
000180 b8 ed 1e 3d ca 99 54 bc 74 ce a3 bd c9 85 60 bd
       0.038800925 -0.012976119 -0.07998362 -0.054815087
000190 27 8e 39 3d f9 cf 7b bd c9 c8 06 bd 39 68 b5 3c
       0.045301583 -0.061477635 -0.032906327 0.022144424
0001a0 af 99 9a 3c de 6d 9c 3c ad a3 4b bd 64 7e 0a 3d
       0.01887211 0.019095358 -0.04971664 0.03381194
0001b0 17 cb 93 3c 93 c0 56 bd 84 85 06 3d d7 1e 48 bc
       0.018041177 -0.052429747 0.032842174 -0.012214384
0001c0 fa 02 69 bc 2a d7 d4 3c b4 8a 0e 3d 45 17 d2 3a
       -0.014221901 0.025981504 0.034800246 0.0016028663
0001d0 82 76 1c bd 4f c6 a4 3c 59 bc 1c 3c f8 0c 22 bc
       -0.038198955 0.020114092 0.00956639 -0.009890787
0001e0 97 37 99 3d b3 13 f9 bc f4 d2 9a bd dc 6e 62 bd
       0.07481306 -0.030404901 -0.07559767 -0.055281505
0001f0 2b 67 8b 3c 86 d7 9c 3d 50 47 8c bd 4a 9a 89 bc
       0.017016968 0.07658295 -0.06849539 -0.016797204
000200 9a de ff bc a2 4b 36 3d e5 09 82 bd ee 8e 26 3d
       -0.031234074 0.044505723 -0.063495435 0.040663652
000210 c7 8e 6d bd 50 a1 81 bd 27 0c 04 bd 59 86 f8 3c
       -0.05799749 -0.06329596 -0.032238152 0.0303375
000220 f2 ae 42 bd d9 d6 ba bc 11 1c 9b bc 15 10 49 bd
       -0.047530122 -0.022807525 -0.018934282 -0.049087603
000230 f5 ae 66 3b a6 27 8c 3d 0d 9b 53 bc 31 52 9a bd
       0.0035199497 0.068435 -0.012915385 -0.07535208
000240 5e d2 77 3d 67 26 55 bd 20 d9 bf bc e0 93 c7 38
       0.060503356 -0.052038576 -0.023418963 9.516603e-05
000250 14 95 9b bd dd 37 93 3d
       -0.07596794 0.071883895

output_layer.weight f4 [1, 150]
000000 3b 32 4c bd 57 19 fc bc f6 67 ea bc f0 a3 7e 3d
       -0.04985259 -0.030773802 -0.028614026 0.06216806
000010 f7 f3 69 3d 96 2b 08 3d 32 cf d7 3d 23 53 58 3d
       0.05711743 0.03324469 0.10537566 0.05281366
000020 80 67 94 bb 70 ce f6 bc d8 c3 a6 3d 3a ad a9 bd
       -0.0045289397 -0.030127734 0.08142823 -0.082849935
000030 0e a7 b8 bb 87 3e 27 bd 08 27 2f bd 1f ec cb 3c
       -0.005635149 -0.040831115 -0.042761832 0.024892865
000040 f1 e2 51 bd b4 12 9d bd 26 ba 4d bd cf 38 69 3d
       -0.05124182 -0.07669583 -0.050226353 0.056938943
000050 25 f4 a1 bd 35 2d a2 bd 5f 03 84 3d 6b 5c af bc
       -0.07907895 -0.07918779 0.064459555 -0.021406373
000060 ac d2 a5 3d da 36 09 3d c5 da b7 3c c9 aa 81 3d
       0.08096823 0.033499576 0.022443185 0.06331403
000070 62 af 97 3d 67 6b 30 bd c3 14 95 bc 4e 22 96 3d
       0.074064985 -0.043071177 -0.018198377 0.07330762
000080 46 c6 a0 bd 4d 32 94 bd 59 e2 49 3d 68 76 98 bd
       -0.07850318 -0.072361566 0.049288128 -0.07444459
000090 e3 c8 cb 3c 4b 12 20 bd 76 9b 90 bd 92 89 8b 3d
       0.024876064 -0.039079946 -0.07060902 0.06813349
0000a0 44 39 88 3d e3 6f af bd 58 8a f2 3c f1 02 7e bb
       0.066515476 -0.085662626 0.029606983 -0.0038759077
0000b0 b8 5d 31 bd f1 fb 6a 3d c7 5b 2d bc 1f be fb bc
       -0.043302268 0.057369176 -0.010580963 -0.030730305
0000c0 65 ad 8e bd f4 c3 db bc b6 d9 57 3d 1f a6 ef 3c
       -0.06966666 -0.026826836 0.05269786 0.029254017
0000d0 f0 e0 4b 3c f5 f8 1c 3d f7 4b 5e 3d 52 fd c8 bb
       0.012443766 0.03832336 0.054271664 -0.0061337138
0000e0 a7 c6 92 bd ee 2d 70 bd f5 2e 81 3d 25 c2 6a 3d
       -0.07166796 -0.058637552 0.063077845 0.057314057
0000f0 86 47 75 3d 68 d9 43 bd dc 7c 4a bd 0c a9 8b 3d
       0.059882663 -0.047814757 -0.04943548 0.068193525
000100 f4 71 a3 bd 3d 72 97 3d 4b 6a 88 bd 4a 95 9e bc
       -0.07980719 0.07394836 -0.06660899 -0.019358296
000110 ab 4d dd 3c ec 2b 07 3d 35 56 96 3d 84 fd 04 3d
       0.027014574 0.03300087 0.073406614 0.032468334
000120 9b f5 8f bd 9f 78 1e 3d d1 7d b5 bc 57 50 81 3d
       -0.070292674 0.038689252 -0.02215472 0.06314152
000130 a9 67 5c 3d 9f 77 60 3c 3d 0f 22 3d a1 5c 41 bd
       0.053809796 0.013700395 0.039565314 -0.04720748
000140 6f 3b 9a bd e8 90 57 bd c3 c1 8b bd e3 e6 6f bd
       -0.07530867 -0.052628428 -0.068240665 -0.0585698
000150 2b d6 8c bd c4 a7 4b 3d f2 89 4a bd 92 49 89 3d
       -0.06876787 0.04972054 -0.04944796 0.067034855
000160 83 15 39 bd b2 36 1f bd 84 dd 97 bd 70 d1 8c bd
       -0.04518653 -0.03887052 -0.074152976 -0.068758845
000170 2e 40 58 3d a3 4f f9 3c 3c 21 f4 bc 7b c3 6c bc
       0.05279558 0.030433482 -0.029801004 -0.014450903
000180 13 70 8e bd 4e bf 8f 3d e4 85 a2 3d 45 2d 56 bd
       -0.0695497 0.0701891 0.07935694 -0.052289266
000190 18 2c 61 3d f6 7f 8a bd 22 66 5f bd 0c bf 41 bb
       0.05497369 -0.06762688 -0.05454076 -0.0029563336
0001a0 d5 47 3e bd 46 28 97 bd 6c 2d 2f bd 94 a8 8d bd
       -0.046455223 -0.073807284 -0.042767927 -0.06916919
0001b0 74 de bd 3c ec a5 34 bd d9 9e 85 3d b9 5f 42 3d
       0.023177363 -0.044103548 0.065244384 0.04745457
0001c0 ae c2 8f 3d 14 2b 75 bd f7 a6 62 3d e5 0d 86 3d
       0.07019554 -0.059855536 0.05533501 0.06545619
0001d0 b0 d3 3d 3c a9 cc a2 bc d9 11 1d 3d 97 81 86 3c
       0.011586115 -0.01987298 0.0383471 0.016419215
0001e0 d0 76 0e bd ed a5 97 bd 23 94 a6 bd 3a 5c 16 3e
       -0.034781277 -0.07404695 -0.081337236 0.14683619
0001f0 56 53 59 3d 6b 6d 30 3c ee 29 ef bc 34 55 1d 3d
       0.05305799 0.010768275 -0.029194798 0.038411334
000200 58 0f df bc 2c 46 85 3d a4 1f 56 bd e5 cd 88 3d
       -0.027228996 0.06507525 -0.05227627 0.06679896
000210 ff 85 90 bd b9 fd 15 3d 41 99 c7 3c c9 ef af 3d
       -0.07056808 0.036618922 0.02436507 0.08590657
000220 9a ea a8 3d 2a 64 93 bd f5 f9 5d 3d 46 b9 9c bd
       0.08247872 -0.07196839 0.054193456 -0.076525256
000230 bd f3 10 bd 4a dd e7 3c 98 79 4c bd bc 51 81 3d
       -0.035388697 0.028303761 -0.04992065 0.06314418
000240 19 0c dc 3d d5 4b 63 3c 2f 10 0b 3d 0c eb 8a bd
       0.10744495 0.01387306 0.03395098 -0.06783113
000250 72 54 04 3d 06 58 a0 3d
       0.032307096 0.07829289
